…
I0523 00:33:35.059613  5070 net.cpp:51] Initializing net from parameters: 
name: "ResNet-152"
state {
  phase: TRAIN
  level: 0
  stage: ""
}
layer {
  name: "data"
  type: "Data"
  top: "data"
  top: "label"
  include {
    phase: TRAIN
  }
  transform_param {
    mirror: true
    crop_size: 224
    mean_file: "/home/danilo/Documents/FGA/2018-1/TCC1/data/edited/Med_atlas_edin_29x_lmdb/input/mean.binaryproto"
  }
  data_param {
    source: "/home/danilo/Documents/FGA/2018-1/TCC1/data/edited/Med_atlas_edin_29x_lmdb/train"
    batch_size: 5
    backend: LMDB
  }
}
layer {
  name: "conv1"
  type: "Convolution"
  bottom: "data"
  top: "conv1"
  convolution_param {
    num_output: 64
    bias_term: false
    pad: 3
    kernel_size: 7
    stride: 2
    weight_filler {
      type: "msra"
    }
  }
}
layer {
  name: "bn_conv1"
  type: "BatchNorm"
  bottom: "conv1"
  top: "conv1"
  batch_norm_param {
    use_global_stats: false
  }
}
layer {
  name: "scale_conv1"
  type: "Scale"
  bottom: "conv1"
  top: "conv1"
  scale_param {
    bias_term: true
  }
}
layer {
  name: "conv1_relu"
  type: "ReLU"
  bottom: "conv1"
  top: "conv1"
}
layer {
  name: "pool1"
  type: "Pooling"
  bottom: "conv1"
  top: "pool1"
  pooling_param {
    pool: MAX
    kernel_size: 3
    stride: 2
  }
}
layer {
  name: "res2a_branch1"
  type: "Convolution"
  bottom: "pool1"
  top: "res2a_branch1"
  convolution_param {
    num_output: 256
    bias_term: false
    pad: 0
    kernel_size: 1
    stride: 1
    weight_filler {
      type: "msra"
    }
  }
}
layer {
  name: "bn2a_branch1"
  type: "BatchNorm"
  bottom: "res2a_branch1"
  top: "res2a_branch1"
  batch_norm_param {
    use_global_stats: false
  }
}
layer {
  name: "scale2a_branch1"
  type: "Scale"
  bottom: "res2a_branch1"
  top: "res2a_branch1"
  scale_param {
    bias_term: true
  }
}
layer {
  name: "res2a_branch2a"
  type: "Convolution"
  bottom: "pool1"
  top: "res2a_branch2a"
  convolution_param {
    num_output: 64
    bias_term: false
    pad: 0
    kernel_size: 1
    stride: 1
    weight_filler {
      type: "msra"
    }
  }
}
layer {
  name: "bn2a_branch2a"
  type: "BatchNorm"
  bottom: "res2a_branch2a"
  top: "res2a_branch2a"
  batch_norm_param {
    use_global_stats: false
  }
}
layer {
  name: "scale2a_branch2a"
  type: "Scale"
  bottom: "res2a_branch2a"
  top: "res2a_branch2a"
  scale_param {
    bias_term: true
  }
}
layer {
  name: "res2a_branch2a_relu"
  type: "ReLU"
  bottom: "res2a_branch2a"
  top: "res2a_branch2a"
}
layer {
  name: "res2a_branch2b"
  type: "Convolution"
  bottom: "res2a_branch2a"
  top: "res2a_branch2b"
  convolution_param {
    num_output: 64
    bias_term: false
    pad: 1
    kernel_size: 3
    stride: 1
    weight_filler {
      type: "msra"
    }
  }
}
layer {
  name: "bn2a_branch2b"
  type: "BatchNorm"
  bottom: "res2a_branch2b"
  top: "res2a_branch2b"
  batch_norm_param {
    use_global_stats: false
  }
}
layer {
  name: "scale2a_branch2b"
  type: "Scale"
  bottom: "res2a_branch2b"
  top: "res2a_branch2b"
  scale_param {
    bias_term: true
  }
}
layer {
  name: "res2a_branch2b_relu"
  type: "ReLU"
  bottom: "res2a_branch2b"
  top: "res2a_branch2b"
}
layer {
  name: "res2a_branch2c"
  type: "Convolution"
  bottom: "res2a_branch2b"
  top: "res2a_branch2c"
  convolution_param {
    num_output: 256
    bias_term: false
    pad: 0
    kernel_size: 1
    stride: 1
    weight_filler {
      type: "msra"
    }
  }
}
layer {
  name: "bn2a_branch2c"
  type: "BatchNorm"
  bottom: "res2a_branch2c"
  top: "res2a_branch2c"
  batch_norm_param {
    use_global_stats: false
  }
}
layer {
  name: "scale2a_branch2c"
  type: "Scale"
  bottom: "res2a_branch2c"
  top: "res2a_branch2c"
  scale_param {
    bias_term: true
  }
}
layer {
  name: "res2a"
  type: "Eltwise"
  bottom: "res2a_branch1"
  bottom: "res2a_branch2c"
  top: "res2a"
  eltwise_param {
    operation: SUM
  }
}
layer {
  name: "res2a_relu"
  type: "ReLU"
  bottom: "res2a"
  top: "res2a"
}
layer {
  name: "res2b_branch2a"
  type: "Convolution"
  bottom: "res2a"
  top: "res2b_branch2a"
  convolution_param {
    num_output: 64
    bias_term: false
    pad: 0
    kernel_size: 1
    stride: 1
    weight_filler {
      type: "msra"
    }
  }
}
layer {
  name: "bn2b_branch2a"
  type: "BatchNorm"
  bottom: "res2b_branch2a"
  top: "res2b_branch2a"
  batch_norm_param {
    use_global_stats: false
  }
}
layer {
  name: "scale2b_branch2a"
  type: "Scale"
  bottom: "res2b_branch2a"
  top: "res2b_branch2a"
  scale_param {
    bias_term: true
  }
}
layer {
  name: "res2b_branch2a_relu"
  type: "ReLU"
  bottom: "res2b_branch2a"
  top: "res2b_branch2a"
}
layer {
  name: "res2b_branch2b"
  type: "Convolution"
  bottom: "res2b_branch2a"
  top: "res2b_branch2b"
  convolution_param {
    num_output: 64
    bias_term: false
    pad: 1
    kernel_size: 3
    stride: 1
    weight_filler {
      type: "msra"
    }
  }
}
layer {
  name: "bn2b_branch2b"
  type: "BatchNorm"
  bottom: "res2b_branch2b"
  top: "res2b_branch2b"
  batch_norm_param {
    use_global_stats: false
  }
}
layer {
  name: "scale2b_branch2b"
  type: "Scale"
  bottom: "res2b_branch2b"
  top: "res2b_branch2b"
  scale_param {
    bias_term: true
  }
}
layer {
  name: "res2b_branch2b_relu"
  type: "ReLU"
  bottom: "res2b_branch2b"
  top: "res2b_branch2b"
}
layer {
  name: "res2b_branch2c"
  type: "Convolution"
  bottom: "res2b_branch2b"
  top: "res2b_branch2c"
  convolution_param {
    num_output: 256
    bias_term: false
    pad: 0
    kernel_size: 1
    stride: 1
    weight_filler {
      type: "msra"
    }
  }
}
layer {
  name: "bn2b_branch2c"
  type: "BatchNorm"
  bottom: "res2b_branch2c"
  top: "res2b_branch2c"
  batch_norm_param {
    use_global_stats: false
  }
}
layer {
  name: "scale2b_branch2c"
  type: "Scale"
  bottom: "res2b_branch2c"
  top: "res2b_branch2c"
  scale_param {
    bias_term: true
  }
}
layer {
  name: "res2b"
  type: "Eltwise"
  bottom: "res2a"
  bottom: "res2b_branch2c"
  top: "res2b"
  eltwise_param {
    operation: SUM
  }
}
layer {
  name: "res2b_relu"
  type: "ReLU"
  bottom: "res2b"
  top: "res2b"
}
layer {
  name: "res2c_branch2a"
  type: "Convolution"
  bottom: "res2b"
  top: "res2c_branch2a"
  convolution_param {
    num_output: 64
    bias_term: false
    pad: 0
    kernel_size: 1
    stride: 1
    weight_filler {
      type: "msra"
    }
  }
}
layer {
  name: "bn2c_branch2a"
  type: "BatchNorm"
  bottom: "res2c_branch2a"
  top: "res2c_branch2a"
  batch_norm_param {
    use_global_stats: false
  }
}
layer {
  name: "scale2c_branch2a"
  type: "Scale"
  bottom: "res2c_branch2a"
  top: "res2c_branch2a"
  scale_param {
    bias_term: true
  }
}
layer {
  name: "res2c_branch2a_relu"
  type: "ReLU"
  bottom: "res2c_branch2a"
  top: "res2c_branch2a"
}
layer {
  name: "res2c_branch2b"
  type: "Convolution"
  bottom: "res2c_branch2a"
  top: "res2c_branch2b"
  convolution_param {
    num_output: 64
    bias_term: false
    pad: 1
    kernel_size: 3
    stride: 1
    weight_filler {
      type: "msra"
    }
  }
}
layer {
  name: "bn2c_branch2b"
  type: "BatchNorm"
  bottom: "res2c_branch2b"
  top: "res2c_branch2b"
  batch_norm_param {
    use_global_stats: false
  }
}
layer {
  name: "scale2c_branch2b"
  type: "Scale"
  bottom: "res2c_branch2b"
  top: "res2c_branch2b"
  scale_param {
    bias_term: true
  }
}
layer {
  name: "res2c_branch2b_relu"
  type: "ReLU"
  bottom: "res2c_branch2b"
  top: "res2c_branch2b"
}
layer {
  name: "res2c_branch2c"
  type: "Convolution"
  bottom: "res2c_branch2b"
  top: "res2c_branch2c"
  convolution_param {
    num_output: 256
    bias_term: false
    pad: 0
    kernel_size: 1
    stride: 1
    weight_filler {
      type: "msra"
    }
  }
}
layer {
  name: "bn2c_branch2c"
  type: "BatchNorm"
  bottom: "res2c_branch2c"
  top: "res2c_branch2c"
  batch_norm_param {
    use_global_stats: false
  }
}
layer {
  name: "scale2c_branch2c"
  type: "Scale"
  bottom: "res2c_branch2c"
  top: "res2c_branch2c"
  scale_param {
    bias_term: true
  }
}
layer {
  name: "res2c"
  type: "Eltwise"
  bottom: "res2b"
  bottom: "res2c_branch2c"
  top: "res2c"
  eltwise_param {
    operation: SUM
  }
}
layer {
  name: "res2c_relu"
  type: "ReLU"
  bottom: "res2c"
  top: "res2c"
}
layer {
  name: "res3a_branch1"
  type: "Convolution"
  bottom: "res2c"
  top: "res3a_branch1"
  convolution_param {
    num_output: 512
    bias_term: false
    pad: 0
    kernel_size: 1
    stride: 2
    weight_filler {
      type: "msra"
    }
  }
}
layer {
  name: "bn3a_branch1"
  type: "BatchNorm"
  bottom: "res3a_branch1"
  top: "res3a_branch1"
  batch_norm_param {
    use_global_stats: false
  }
}
layer {
  name: "scale3a_branch1"
  type: "Scale"
  bottom: "res3a_branch1"
  top: "res3a_branch1"
  scale_param {
    bias_term: true
  }
}
layer {
  name: "res3a_branch2a"
  type: "Convolution"
  bottom: "res2c"
  top: "res3a_branch2a"
  convolution_param {
    num_output: 128
    bias_term: false
    pad: 0
    kernel_size: 1
    stride: 2
    weight_filler {
      type: "msra"
    }
  }
}
layer {
  name: "bn3a_branch2a"
  type: "BatchNorm"
  bottom: "res3a_branch2a"
  top: "res3a_branch2a"
  batch_norm_param {
    use_global_stats: false
  }
}
layer {
  name: "scale3a_branch2a"
  type: "Scale"
  bottom: "res3a_branch2a"
  top: "res3a_branch2a"
  scale_param {
    bias_term: true
  }
}
layer {
  name: "res3a_branch2a_relu"
  type: "ReLU"
  bottom: "res3a_branch2a"
  top: "res3a_branch2a"
}
layer {
  name: "res3a_branch2b"
  type: "Convolution"
  bottom: "res3a_branch2a"
  top: "res3a_branch2b"
  convolution_param {
    num_output: 128
    bias_term: false
    pad: 1
    kernel_size: 3
    stride: 1
    weight_filler {
      type: "msra"
    }
  }
}
layer {
  name: "bn3a_branch2b"
  type: "BatchNorm"
  bottom: "res3a_branch2b"
  top: "res3a_branch2b"
  batch_norm_param {
    use_global_stats: false
  }
}
layer {
  name: "scale3a_branch2b"
  type: "Scale"
  bottom: "res3a_branch2b"
  top: "res3a_branch2b"
  scale_param {
    bias_term: true
  }
}
layer {
  name: "res3a_branch2b_relu"
  type: "ReLU"
  bottom: "res3a_branch2b"
  top: "res3a_branch2b"
}
layer {
  name: "res3a_branch2c"
  type: "Convolution"
  bottom: "res3a_branch2b"
  top: "res3a_branch2c"
  convolution_param {
    num_output: 512
    bias_term: false
    pad: 0
    kernel_size: 1
    stride: 1
    weight_filler {
      type: "msra"
    }
  }
}
layer {
  name: "bn3a_branch2c"
  type: "BatchNorm"
  bottom: "res3a_branch2c"
  top: "res3a_branch2c"
  batch_norm_param {
    use_global_stats: false
  }
}
layer {
  name: "scale3a_branch2c"
  type: "Scale"
  bottom: "res3a_branch2c"
  top: "res3a_branch2c"
  scale_param {
    bias_term: true
  }
}
layer {
  name: "res3a"
  type: "Eltwise"
  bottom: "res3a_branch1"
  bottom: "res3a_branch2c"
  top: "res3a"
  eltwise_param {
    operation: SUM
  }
}
layer {
  name: "res3a_relu"
  type: "ReLU"
  bottom: "res3a"
  top: "res3a"
}
layer {
  name: "res3b1_branch2a"
  type: "Convolution"
  bottom: "res3a"
  top: "res3b1_branch2a"
  convolution_param {
    num_output: 128
    bias_term: false
    pad: 0
    kernel_size: 1
    stride: 1
    weight_filler {
      type: "msra"
    }
  }
}
layer {
  name: "bn3b1_branch2a"
  type: "BatchNorm"
  bottom: "res3b1_branch2a"
  top: "res3b1_branch2a"
  batch_norm_param {
    use_global_stats: false
  }
}
layer {
  name: "scale3b1_branch2a"
  type: "Scale"
  bottom: "res3b1_branch2a"
  top: "res3b1_branch2a"
  scale_param {
    bias_term: true
  }
}
layer {
  name: "res3b1_branch2a_relu"
  type: "ReLU"
  bottom: "res3b1_branch2a"
  top: "res3b1_branch2a"
}
layer {
  name: "res3b1_branch2b"
  type: "Convolution"
  bottom: "res3b1_branch2a"
  top: "res3b1_branch2b"
  convolution_param {
    num_output: 128
    bias_term: false
    pad: 1
    kernel_size: 3
    stride: 1
    weight_filler {
      type: "msra"
    }
  }
}
layer {
  name: "bn3b1_branch2b"
  type: "BatchNorm"
  bottom: "res3b1_branch2b"
  top: "res3b1_branch2b"
  batch_norm_param {
    use_global_stats: false
  }
}
layer {
  name: "scale3b1_branch2b"
  type: "Scale"
  bottom: "res3b1_branch2b"
  top: "res3b1_branch2b"
  scale_param {
    bias_term: true
  }
}
layer {
  name: "res3b1_branch2b_relu"
  type: "ReLU"
  bottom: "res3b1_branch2b"
  top: "res3b1_branch2b"
}
layer {
  name: "res3b1_branch2c"
  type: "Convolution"
  bottom: "res3b1_branch2b"
  top: "res3b1_branch2c"
  convolution_param {
    num_output: 512
    bias_term: false
    pad: 0
    kernel_size: 1
    stride: 1
    weight_filler {
      type: "msra"
    }
  }
}
layer {
  name: "bn3b1_branch2c"
  type: "BatchNorm"
  bottom: "res3b1_branch2c"
  top: "res3b1_branch2c"
  batch_norm_param {
    use_global_stats: false
  }
}
layer {
  name: "scale3b1_branch2c"
  type: "Scale"
  bottom: "res3b1_branch2c"
  top: "res3b1_branch2c"
  scale_param {
    bias_term: true
  }
}
layer {
  name: "res3b1"
  type: "Eltwise"
  bottom: "res3a"
  bottom: "res3b1_branch2c"
  top: "res3b1"
  eltwise_param {
    operation: SUM
  }
}
layer {
  name: "res3b1_relu"
  type: "ReLU"
  bottom: "res3b1"
  top: "res3b1"
}
layer {
  name: "res3b2_branch2a"
  type: "Convolution"
  bottom: "res3b1"
  top: "res3b2_branch2a"
  convolution_param {
    num_output: 128
    bias_term: false
    pad: 0
    kernel_size: 1
    stride: 1
    weight_filler {
      type: "msra"
    }
  }
}
layer {
  name: "bn3b2_branch2a"
  type: "BatchNorm"
  bottom: "res3b2_branch2a"
  top: "res3b2_branch2a"
  batch_norm_param {
    use_global_stats: false
  }
}
layer {
  name: "scale3b2_branch2a"
  type: "Scale"
  bottom: "res3b2_branch2a"
  top: "res3b2_branch2a"
  scale_param {
    bias_term: true
  }
}
layer {
  name: "res3b2_branch2a_relu"
  type: "ReLU"
  bottom: "res3b2_branch2a"
  top: "res3b2_branch2a"
}
layer {
  name: "res3b2_branch2b"
  type: "Convolution"
  bottom: "res3b2_branch2a"
  top: "res3b2_branch2b"
  convolution_param {
    num_output: 128
    bias_term: false
    pad: 1
    kernel_size: 3
    stride: 1
    weight_filler {
      type: "msra"
    }
  }
}
layer {
  name: "bn3b2_branch2b"
  type: "BatchNorm"
  bottom: "res3b2_branch2b"
  top: "res3b2_branch2b"
  batch_norm_param {
    use_global_stats: false
  }
}
layer {
  name: "scale3b2_branch2b"
  type: "Scale"
  bottom: "res3b2_branch2b"
  top: "res3b2_branch2b"
  scale_param {
    bias_term: true
  }
}
layer {
  name: "res3b2_branch2b_relu"
  type: "ReLU"
  bottom: "res3b2_branch2b"
  top: "res3b2_branch2b"
}
layer {
  name: "res3b2_branch2c"
  type: "Convolution"
  bottom: "res3b2_branch2b"
  top: "res3b2_branch2c"
  convolution_param {
    num_output: 512
    bias_term: false
    pad: 0
    kernel_size: 1
    stride: 1
    weight_filler {
      type: "msra"
    }
  }
}
layer {
  name: "bn3b2_branch2c"
  type: "BatchNorm"
  bottom: "res3b2_branch2c"
  top: "res3b2_branch2c"
  batch_norm_param {
    use_global_stats: false
  }
}
layer {
  name: "scale3b2_branch2c"
  type: "Scale"
  bottom: "res3b2_branch2c"
  top: "res3b2_branch2c"
  scale_param {
    bias_term: true
  }
}
layer {
  name: "res3b2"
  type: "Eltwise"
  bottom: "res3b1"
  bottom: "res3b2_branch2c"
  top: "res3b2"
  eltwise_param {
    operation: SUM
  }
}
layer {
  name: "res3b2_relu"
  type: "ReLU"
  bottom: "res3b2"
  top: "res3b2"
}
layer {
  name: "res3b3_branch2a"
  type: "Convolution"
  bottom: "res3b2"
  top: "res3b3_branch2a"
  convolution_param {
    num_output: 128
    bias_term: false
    pad: 0
    kernel_size: 1
    stride: 1
    weight_filler {
      type: "msra"
    }
  }
}
layer {
  name: "bn3b3_branch2a"
  type: "BatchNorm"
  bottom: "res3b3_branch2a"
  top: "res3b3_branch2a"
  batch_norm_param {
    use_global_stats: false
  }
}
layer {
  name: "scale3b3_branch2a"
  type: "Scale"
  bottom: "res3b3_branch2a"
  top: "res3b3_branch2a"
  scale_param {
    bias_term: true
  }
}
layer {
  name: "res3b3_branch2a_relu"
  type: "ReLU"
  bottom: "res3b3_branch2a"
  top: "res3b3_branch2a"
}
layer {
  name: "res3b3_branch2b"
  type: "Convolution"
  bottom: "res3b3_branch2a"
  top: "res3b3_branch2b"
  convolution_param {
    num_output: 128
    bias_term: false
    pad: 1
    kernel_size: 3
    stride: 1
    weight_filler {
      type: "msra"
    }
  }
}
layer {
  name: "bn3b3_branch2b"
  type: "BatchNorm"
  bottom: "res3b3_branch2b"
  top: "res3b3_branch2b"
  batch_norm_param {
    use_global_stats: false
  }
}
layer {
  name: "scale3b3_branch2b"
  type: "Scale"
  bottom: "res3b3_branch2b"
  top: "res3b3_branch2b"
  scale_param {
    bias_term: true
  }
}
layer {
  name: "res3b3_branch2b_relu"
  type: "ReLU"
  bottom: "res3b3_branch2b"
  top: "res3b3_branch2b"
}
layer {
  name: "res3b3_branch2c"
  type: "Convolution"
  bottom: "res3b3_branch2b"
  top: "res3b3_branch2c"
  convolution_param {
    num_output: 512
    bias_term: false
    pad: 0
    kernel_size: 1
    stride: 1
    weight_filler {
      type: "msra"
    }
  }
}
layer {
  name: "bn3b3_branch2c"
  type: "BatchNorm"
  bottom: "res3b3_branch2c"
  top: "res3b3_branch2c"
  batch_norm_param {
    use_global_stats: false
  }
}
layer {
  name: "scale3b3_branch2c"
  type: "Scale"
  bottom: "res3b3_branch2c"
  top: "res3b3_branch2c"
  scale_param {
    bias_term: true
  }
}
layer {
  name: "res3b3"
  type: "Eltwise"
  bottom: "res3b2"
  bottom: "res3b3_branch2c"
  top: "res3b3"
  eltwise_param {
    operation: SUM
  }
}
layer {
  name: "res3b3_relu"
  type: "ReLU"
  bottom: "res3b3"
  top: "res3b3"
}
layer {
  name: "res3b4_branch2a"
  type: "Convolution"
  bottom: "res3b3"
  top: "res3b4_branch2a"
  convolution_param {
    num_output: 128
    bias_term: false
    pad: 0
    kernel_size: 1
    stride: 1
    weight_filler {
      type: "msra"
    }
  }
}
layer {
  name: "bn3b4_branch2a"
  type: "BatchNorm"
  bottom: "res3b4_branch2a"
  top: "res3b4_branch2a"
  batch_norm_param {
    use_global_stats: false
  }
}
layer {
  name: "scale3b4_branch2a"
  type: "Scale"
  bottom: "res3b4_branch2a"
  top: "res3b4_branch2a"
  scale_param {
    bias_term: true
  }
}
layer {
  name: "res3b4_branch2a_relu"
  type: "ReLU"
  bottom: "res3b4_branch2a"
  top: "res3b4_branch2a"
}
layer {
  name: "res3b4_branch2b"
  type: "Convolution"
  bottom: "res3b4_branch2a"
  top: "res3b4_branch2b"
  convolution_param {
    num_output: 128
    bias_term: false
    pad: 1
    kernel_size: 3
    stride: 1
    weight_filler {
      type: "msra"
    }
  }
}
layer {
  name: "bn3b4_branch2b"
  type: "BatchNorm"
  bottom: "res3b4_branch2b"
  top: "res3b4_branch2b"
  batch_norm_param {
    use_global_stats: false
  }
}
layer {
  name: "scale3b4_branch2b"
  type: "Scale"
  bottom: "res3b4_branch2b"
  top: "res3b4_branch2b"
  scale_param {
    bias_term: true
  }
}
layer {
  name: "res3b4_branch2b_relu"
  type: "ReLU"
  bottom: "res3b4_branch2b"
  top: "res3b4_branch2b"
}
layer {
  name: "res3b4_branch2c"
  type: "Convolution"
  bottom: "res3b4_branch2b"
  top: "res3b4_branch2c"
  convolution_param {
    num_output: 512
    bias_term: false
    pad: 0
    kernel_size: 1
    stride: 1
    weight_filler {
      type: "msra"
    }
  }
}
layer {
  name: "bn3b4_branch2c"
  type: "BatchNorm"
  bottom: "res3b4_branch2c"
  top: "res3b4_branch2c"
  batch_norm_param {
    use_global_stats: false
  }
}
layer {
  name: "scale3b4_branch2c"
  type: "Scale"
  bottom: "res3b4_branch2c"
  top: "res3b4_branch2c"
  scale_param {
    bias_term: true
  }
}
layer {
  name: "res3b4"
  type: "Eltwise"
  bottom: "res3b3"
  bottom: "res3b4_branch2c"
  top: "res3b4"
  eltwise_param {
    operation: SUM
  }
}
layer {
  name: "res3b4_relu"
  type: "ReLU"
  bottom: "res3b4"
  top: "res3b4"
}
layer {
  name: "res3b5_branch2a"
  type: "Convolution"
  bottom: "res3b4"
  top: "res3b5_branch2a"
  convolution_param {
    num_output: 128
    bias_term: false
    pad: 0
    kernel_size: 1
    stride: 1
    weight_filler {
      type: "msra"
    }
  }
}
layer {
  name: "bn3b5_branch2a"
  type: "BatchNorm"
  bottom: "res3b5_branch2a"
  top: "res3b5_branch2a"
  batch_norm_param {
    use_global_stats: false
  }
}
layer {
  name: "scale3b5_branch2a"
  type: "Scale"
  bottom: "res3b5_branch2a"
  top: "res3b5_branch2a"
  scale_param {
    bias_term: true
  }
}
layer {
  name: "res3b5_branch2a_relu"
  type: "ReLU"
  bottom: "res3b5_branch2a"
  top: "res3b5_branch2a"
}
layer {
  name: "res3b5_branch2b"
  type: "Convolution"
  bottom: "res3b5_branch2a"
  top: "res3b5_branch2b"
  convolution_param {
    num_output: 128
    bias_term: false
    pad: 1
    kernel_size: 3
    stride: 1
    weight_filler {
      type: "msra"
    }
  }
}
layer {
  name: "bn3b5_branch2b"
  type: "BatchNorm"
  bottom: "res3b5_branch2b"
  top: "res3b5_branch2b"
  batch_norm_param {
    use_global_stats: false
  }
}
layer {
  name: "scale3b5_branch2b"
  type: "Scale"
  bottom: "res3b5_branch2b"
  top: "res3b5_branch2b"
  scale_param {
    bias_term: true
  }
}
layer {
  name: "res3b5_branch2b_relu"
  type: "ReLU"
  bottom: "res3b5_branch2b"
  top: "res3b5_branch2b"
}
layer {
  name: "res3b5_branch2c"
  type: "Convolution"
  bottom: "res3b5_branch2b"
  top: "res3b5_branch2c"
  convolution_param {
    num_output: 512
    bias_term: false
    pad: 0
    kernel_size: 1
    stride: 1
    weight_filler {
      type: "msra"
    }
  }
}
layer {
  name: "bn3b5_branch2c"
  type: "BatchNorm"
  bottom: "res3b5_branch2c"
  top: "res3b5_branch2c"
  batch_norm_param {
    use_global_stats: false
  }
}
layer {
  name: "scale3b5_branch2c"
  type: "Scale"
  bottom: "res3b5_branch2c"
  top: "res3b5_branch2c"
  scale_param {
    bias_term: true
  }
}
layer {
  name: "res3b5"
  type: "Eltwise"
  bottom: "res3b4"
  bottom: "res3b5_branch2c"
  top: "res3b5"
  eltwise_param {
    operation: SUM
  }
}
layer {
  name: "res3b5_relu"
  type: "ReLU"
  bottom: "res3b5"
  top: "res3b5"
}
layer {
  name: "res3b6_branch2a"
  type: "Convolution"
  bottom: "res3b5"
  top: "res3b6_branch2a"
  convolution_param {
    num_output: 128
    bias_term: false
    pad: 0
    kernel_size: 1
    stride: 1
    weight_filler {
      type: "msra"
    }
  }
}
layer {
  name: "bn3b6_branch2a"
  type: "BatchNorm"
  bottom: "res3b6_branch2a"
  top: "res3b6_branch2a"
  batch_norm_param {
    use_global_stats: false
  }
}
layer {
  name: "scale3b6_branch2a"
  type: "Scale"
  bottom: "res3b6_branch2a"
  top: "res3b6_branch2a"
  scale_param {
    bias_term: true
  }
}
layer {
  name: "res3b6_branch2a_relu"
  type: "ReLU"
  bottom: "res3b6_branch2a"
  top: "res3b6_branch2a"
}
layer {
  name: "res3b6_branch2b"
  type: "Convolution"
  bottom: "res3b6_branch2a"
  top: "res3b6_branch2b"
  convolution_param {
    num_output: 128
    bias_term: false
    pad: 1
    kernel_size: 3
    stride: 1
    weight_filler {
      type: "msra"
    }
  }
}
layer {
  name: "bn3b6_branch2b"
  type: "BatchNorm"
  bottom: "res3b6_branch2b"
  top: "res3b6_branch2b"
  batch_norm_param {
    use_global_stats: false
  }
}
layer {
  name: "scale3b6_branch2b"
  type: "Scale"
  bottom: "res3b6_branch2b"
  top: "res3b6_branch2b"
  scale_param {
    bias_term: true
  }
}
layer {
  name: "res3b6_branch2b_relu"
  type: "ReLU"
  bottom: "res3b6_branch2b"
  top: "res3b6_branch2b"
}
layer {
  name: "res3b6_branch2c"
  type: "Convolution"
  bottom: "res3b6_branch2b"
  top: "res3b6_branch2c"
  convolution_param {
    num_output: 512
    bias_term: false
    pad: 0
    kernel_size: 1
    stride: 1
    weight_filler {
      type: "msra"
    }
  }
}
layer {
  name: "bn3b6_branch2c"
  type: "BatchNorm"
  bottom: "res3b6_branch2c"
  top: "res3b6_branch2c"
  batch_norm_param {
    use_global_stats: false
  }
}
layer {
  name: "scale3b6_branch2c"
  type: "Scale"
  bottom: "res3b6_branch2c"
  top: "res3b6_branch2c"
  scale_param {
    bias_term: true
  }
}
layer {
  name: "res3b6"
  type: "Eltwise"
  bottom: "res3b5"
  bottom: "res3b6_branch2c"
  top: "res3b6"
  eltwise_param {
    operation: SUM
  }
}
layer {
  name: "res3b6_relu"
  type: "ReLU"
  bottom: "res3b6"
  top: "res3b6"
}
layer {
  name: "res3b7_branch2a"
  type: "Convolution"
  bottom: "res3b6"
  top: "res3b7_branch2a"
  convolution_param {
    num_output: 128
    bias_term: false
    pad: 0
    kernel_size: 1
    stride: 1
    weight_filler {
      type: "msra"
    }
  }
}
layer {
  name: "bn3b7_branch2a"
  type: "BatchNorm"
  bottom: "res3b7_branch2a"
  top: "res3b7_branch2a"
  batch_norm_param {
    use_global_stats: false
  }
}
layer {
  name: "scale3b7_branch2a"
  type: "Scale"
  bottom: "res3b7_branch2a"
  top: "res3b7_branch2a"
  scale_param {
    bias_term: true
  }
}
layer {
  name: "res3b7_branch2a_relu"
  type: "ReLU"
  bottom: "res3b7_branch2a"
  top: "res3b7_branch2a"
}
layer {
  name: "res3b7_branch2b"
  type: "Convolution"
  bottom: "res3b7_branch2a"
  top: "res3b7_branch2b"
  convolution_param {
    num_output: 128
    bias_term: false
    pad: 1
    kernel_size: 3
    stride: 1
    weight_filler {
      type: "msra"
    }
  }
}
layer {
  name: "bn3b7_branch2b"
  type: "BatchNorm"
  bottom: "res3b7_branch2b"
  top: "res3b7_branch2b"
  batch_norm_param {
    use_global_stats: false
  }
}
layer {
  name: "scale3b7_branch2b"
  type: "Scale"
  bottom: "res3b7_branch2b"
  top: "res3b7_branch2b"
  scale_param {
    bias_term: true
  }
}
layer {
  name: "res3b7_branch2b_relu"
  type: "ReLU"
  bottom: "res3b7_branch2b"
  top: "res3b7_branch2b"
}
layer {
  name: "res3b7_branch2c"
  type: "Convolution"
  bottom: "res3b7_branch2b"
  top: "res3b7_branch2c"
  convolution_param {
    num_output: 512
    bias_term: false
    pad: 0
    kernel_size: 1
    stride: 1
    weight_filler {
      type: "msra"
    }
  }
}
layer {
  name: "bn3b7_branch2c"
  type: "BatchNorm"
  bottom: "res3b7_branch2c"
  top: "res3b7_branch2c"
  batch_norm_param {
    use_global_stats: false
  }
}
layer {
  name: "scale3b7_branch2c"
  type: "Scale"
  bottom: "res3b7_branch2c"
  top: "res3b7_branch2c"
  scale_param {
    bias_term: true
  }
}
layer {
  name: "res3b7"
  type: "Eltwise"
  bottom: "res3b6"
  bottom: "res3b7_branch2c"
  top: "res3b7"
  eltwise_param {
    operation: SUM
  }
}
layer {
  name: "res3b7_relu"
  type: "ReLU"
  bottom: "res3b7"
  top: "res3b7"
}
layer {
  name: "res4a_branch1"
  type: "Convolution"
  bottom: "res3b7"
  top: "res4a_branch1"
  convolution_param {
    num_output: 1024
    bias_term: false
    pad: 0
    kernel_size: 1
    stride: 2
    weight_filler {
      type: "msra"
    }
  }
}
layer {
  name: "bn4a_branch1"
  type: "BatchNorm"
  bottom: "res4a_branch1"
  top: "res4a_branch1"
  batch_norm_param {
    use_global_stats: false
  }
}
layer {
  name: "scale4a_branch1"
  type: "Scale"
  bottom: "res4a_branch1"
  top: "res4a_branch1"
  scale_param {
    bias_term: true
  }
}
layer {
  name: "res4a_branch2a"
  type: "Convolution"
  bottom: "res3b7"
  top: "res4a_branch2a"
  convolution_param {
    num_output: 256
    bias_term: false
    pad: 0
    kernel_size: 1
    stride: 2
    weight_filler {
      type: "msra"
    }
  }
}
layer {
  name: "bn4a_branch2a"
  type: "BatchNorm"
  bottom: "res4a_branch2a"
  top: "res4a_branch2a"
  batch_norm_param {
    use_global_stats: false
  }
}
layer {
  name: "scale4a_branch2a"
  type: "Scale"
  bottom: "res4a_branch2a"
  top: "res4a_branch2a"
  scale_param {
    bias_term: true
  }
}
layer {
  name: "res4a_branch2a_relu"
  type: "ReLU"
  bottom: "res4a_branch2a"
  top: "res4a_branch2a"
}
layer {
  name: "res4a_branch2b"
  type: "Convolution"
  bottom: "res4a_branch2a"
  top: "res4a_branch2b"
  convolution_param {
    num_output: 256
    bias_term: false
    pad: 1
    kernel_size: 3
    stride: 1
    weight_filler {
      type: "msra"
    }
  }
}
layer {
  name: "bn4a_branch2b"
  type: "BatchNorm"
  bottom: "res4a_branch2b"
  top: "res4a_branch2b"
  batch_norm_param {
    use_global_stats: false
  }
}
layer {
  name: "scale4a_branch2b"
  type: "Scale"
  bottom: "res4a_branch2b"
  top: "res4a_branch2b"
  scale_param {
    bias_term: true
  }
}
layer {
  name: "res4a_branch2b_relu"
  type: "ReLU"
  bottom: "res4a_branch2b"
  top: "res4a_branch2b"
}
layer {
  name: "res4a_branch2c"
  type: "Convolution"
  bottom: "res4a_branch2b"
  top: "res4a_branch2c"
  convolution_param {
    num_output: 1024
    bias_term: false
    pad: 0
    kernel_size: 1
    stride: 1
    weight_filler {
      type: "msra"
    }
  }
}
layer {
  name: "bn4a_branch2c"
  type: "BatchNorm"
  bottom: "res4a_branch2c"
  top: "res4a_branch2c"
  batch_norm_param {
    use_global_stats: false
  }
}
layer {
  name: "scale4a_branch2c"
  type: "Scale"
  bottom: "res4a_branch2c"
  top: "res4a_branch2c"
  scale_param {
    bias_term: true
  }
}
layer {
  name: "res4a"
  type: "Eltwise"
  bottom: "res4a_branch1"
  bottom: "res4a_branch2c"
  top: "res4a"
  eltwise_param {
    operation: SUM
  }
}
layer {
  name: "res4a_relu"
  type: "ReLU"
  bottom: "res4a"
  top: "res4a"
}
layer {
  name: "res4b1_branch2a"
  type: "Convolution"
  bottom: "res4a"
  top: "res4b1_branch2a"
  convolution_param {
    num_output: 256
    bias_term: false
    pad: 0
    kernel_size: 1
    stride: 1
    weight_filler {
      type: "msra"
    }
  }
}
layer {
  name: "bn4b1_branch2a"
  type: "BatchNorm"
  bottom: "res4b1_branch2a"
  top: "res4b1_branch2a"
  batch_norm_param {
    use_global_stats: false
  }
}
layer {
  name: "scale4b1_branch2a"
  type: "Scale"
  bottom: "res4b1_branch2a"
  top: "res4b1_branch2a"
  scale_param {
    bias_term: true
  }
}
layer {
  name: "res4b1_branch2a_relu"
  type: "ReLU"
  bottom: "res4b1_branch2a"
  top: "res4b1_branch2a"
}
layer {
  name: "res4b1_branch2b"
  type: "Convolution"
  bottom: "res4b1_branch2a"
  top: "res4b1_branch2b"
  convolution_param {
    num_output: 256
    bias_term: false
    pad: 1
    kernel_size: 3
    stride: 1
    weight_filler {
      type: "msra"
    }
  }
}
layer {
  name: "bn4b1_branch2b"
  type: "BatchNorm"
  bottom: "res4b1_branch2b"
  top: "res4b1_branch2b"
  batch_norm_param {
    use_global_stats: false
  }
}
layer {
  name: "scale4b1_branch2b"
  type: "Scale"
  bottom: "res4b1_branch2b"
  top: "res4b1_branch2b"
  scale_param {
    bias_term: true
  }
}
layer {
  name: "
I0523 00:33:35.065804  5070 layer_factory.hpp:77] Creating layer data
I0523 00:33:35.120086  5070 db_lmdb.cpp:35] Opened lmdb /home/danilo/Documents/FGA/2018-1/TCC1/data/edited/Med_atlas_edin_29x_lmdb/train
I0523 00:33:35.155678  5070 net.cpp:84] Creating Layer data
I0523 00:33:35.155685  5070 net.cpp:380] data -> data
I0523 00:33:35.155699  5070 net.cpp:380] data -> label
I0523 00:33:35.155702  5070 data_transformer.cpp:25] Loading mean file from: /home/danilo/Documents/FGA/2018-1/TCC1/data/edited/Med_atlas_edin_29x_lmdb/input/mean.binaryproto
I0523 00:33:35.201798  5070 data_layer.cpp:45] output data size: 5,3,224,224
I0523 00:33:35.206810  5070 net.cpp:122] Setting up data
I0523 00:33:35.206822  5070 net.cpp:129] Top shape: 5 3 224 224 (752640)
I0523 00:33:35.206825  5070 net.cpp:129] Top shape: 5 (5)
I0523 00:33:35.206827  5070 net.cpp:137] Memory required for data: 3010580
I0523 00:33:35.206830  5070 layer_factory.hpp:77] Creating layer conv1
I0523 00:33:35.206838  5070 net.cpp:84] Creating Layer conv1
I0523 00:33:35.206840  5070 net.cpp:406] conv1 <- data
I0523 00:33:35.206845  5070 net.cpp:380] conv1 -> conv1
I0523 00:33:39.063663  5070 net.cpp:122] Setting up conv1
I0523 00:33:39.063711  5070 net.cpp:129] Top shape: 5 64 112 112 (4014080)
I0523 00:33:39.063721  5070 net.cpp:137] Memory required for data: 19066900
I0523 00:33:39.063745  5070 layer_factory.hpp:77] Creating layer bn_conv1
I0523 00:33:39.063766  5070 net.cpp:84] Creating Layer bn_conv1
I0523 00:33:39.063804  5070 net.cpp:406] bn_conv1 <- conv1
I0523 00:33:39.063823  5070 net.cpp:367] bn_conv1 -> conv1 (in-place)
I0523 00:33:39.064515  5070 net.cpp:122] Setting up bn_conv1
I0523 00:33:39.064533  5070 net.cpp:129] Top shape: 5 64 112 112 (4014080)
I0523 00:33:39.064541  5070 net.cpp:137] Memory required for data: 35123220
I0523 00:33:39.064563  5070 layer_factory.hpp:77] Creating layer scale_conv1
I0523 00:33:39.064581  5070 net.cpp:84] Creating Layer scale_conv1
I0523 00:33:39.064590  5070 net.cpp:406] scale_conv1 <- conv1
I0523 00:33:39.064602  5070 net.cpp:367] scale_conv1 -> conv1 (in-place)
I0523 00:33:39.064743  5070 layer_factory.hpp:77] Creating layer scale_conv1
I0523 00:33:39.065119  5070 net.cpp:122] Setting up scale_conv1
I0523 00:33:39.065135  5070 net.cpp:129] Top shape: 5 64 112 112 (4014080)
I0523 00:33:39.065142  5070 net.cpp:137] Memory required for data: 51179540
I0523 00:33:39.065161  5070 layer_factory.hpp:77] Creating layer conv1_relu
I0523 00:33:39.065176  5070 net.cpp:84] Creating Layer conv1_relu
I0523 00:33:39.065183  5070 net.cpp:406] conv1_relu <- conv1
I0523 00:33:39.065194  5070 net.cpp:367] conv1_relu -> conv1 (in-place)
I0523 00:33:39.066769  5070 net.cpp:122] Setting up conv1_relu
I0523 00:33:39.066792  5070 net.cpp:129] Top shape: 5 64 112 112 (4014080)
I0523 00:33:39.066800  5070 net.cpp:137] Memory required for data: 67235860
I0523 00:33:39.066808  5070 layer_factory.hpp:77] Creating layer pool1
I0523 00:33:39.066821  5070 net.cpp:84] Creating Layer pool1
I0523 00:33:39.066830  5070 net.cpp:406] pool1 <- conv1
I0523 00:33:39.066843  5070 net.cpp:380] pool1 -> pool1
I0523 00:33:39.066984  5070 net.cpp:122] Setting up pool1
I0523 00:33:39.066998  5070 net.cpp:129] Top shape: 5 64 56 56 (1003520)
I0523 00:33:39.067006  5070 net.cpp:137] Memory required for data: 71249940
I0523 00:33:39.067014  5070 layer_factory.hpp:77] Creating layer pool1_pool1_0_split
I0523 00:33:39.067026  5070 net.cpp:84] Creating Layer pool1_pool1_0_split
I0523 00:33:39.067035  5070 net.cpp:406] pool1_pool1_0_split <- pool1
I0523 00:33:39.067051  5070 net.cpp:380] pool1_pool1_0_split -> pool1_pool1_0_split_0
I0523 00:33:39.067068  5070 net.cpp:380] pool1_pool1_0_split -> pool1_pool1_0_split_1
I0523 00:33:39.067168  5070 net.cpp:122] Setting up pool1_pool1_0_split
I0523 00:33:39.067181  5070 net.cpp:129] Top shape: 5 64 56 56 (1003520)
I0523 00:33:39.067193  5070 net.cpp:129] Top shape: 5 64 56 56 (1003520)
I0523 00:33:39.067199  5070 net.cpp:137] Memory required for data: 79278100
I0523 00:33:39.067207  5070 layer_factory.hpp:77] Creating layer res2a_branch1
I0523 00:33:39.067232  5070 net.cpp:84] Creating Layer res2a_branch1
I0523 00:33:39.067241  5070 net.cpp:406] res2a_branch1 <- pool1_pool1_0_split_0
I0523 00:33:39.067255  5070 net.cpp:380] res2a_branch1 -> res2a_branch1
I0523 00:33:39.069927  5070 net.cpp:122] Setting up res2a_branch1
I0523 00:33:39.069933  5070 net.cpp:129] Top shape: 5 256 56 56 (4014080)
I0523 00:33:39.069936  5070 net.cpp:137] Memory required for data: 95334420
I0523 00:33:39.069938  5070 layer_factory.hpp:77] Creating layer bn2a_branch1
I0523 00:33:39.069942  5070 net.cpp:84] Creating Layer bn2a_branch1
I0523 00:33:39.069945  5070 net.cpp:406] bn2a_branch1 <- res2a_branch1
I0523 00:33:39.069947  5070 net.cpp:367] bn2a_branch1 -> res2a_branch1 (in-place)
I0523 00:33:39.070639  5070 net.cpp:122] Setting up bn2a_branch1
I0523 00:33:39.070644  5070 net.cpp:129] Top shape: 5 256 56 56 (4014080)
I0523 00:33:39.070647  5070 net.cpp:137] Memory required for data: 111390740
I0523 00:33:39.070652  5070 layer_factory.hpp:77] Creating layer scale2a_branch1
I0523 00:33:39.070654  5070 net.cpp:84] Creating Layer scale2a_branch1
I0523 00:33:39.070657  5070 net.cpp:406] scale2a_branch1 <- res2a_branch1
I0523 00:33:39.070659  5070 net.cpp:367] scale2a_branch1 -> res2a_branch1 (in-place)
I0523 00:33:39.070685  5070 layer_factory.hpp:77] Creating layer scale2a_branch1
I0523 00:33:39.070755  5070 net.cpp:122] Setting up scale2a_branch1
I0523 00:33:39.070758  5070 net.cpp:129] Top shape: 5 256 56 56 (4014080)
I0523 00:33:39.070766  5070 net.cpp:137] Memory required for data: 127447060
I0523 00:33:39.070770  5070 layer_factory.hpp:77] Creating layer res2a_branch2a
I0523 00:33:39.070775  5070 net.cpp:84] Creating Layer res2a_branch2a
I0523 00:33:39.070776  5070 net.cpp:406] res2a_branch2a <- pool1_pool1_0_split_1
I0523 00:33:39.070780  5070 net.cpp:380] res2a_branch2a -> res2a_branch2a
I0523 00:33:39.072101  5070 net.cpp:122] Setting up res2a_branch2a
I0523 00:33:39.072108  5070 net.cpp:129] Top shape: 5 64 56 56 (1003520)
I0523 00:33:39.072109  5070 net.cpp:137] Memory required for data: 131461140
I0523 00:33:39.072113  5070 layer_factory.hpp:77] Creating layer bn2a_branch2a
I0523 00:33:39.072116  5070 net.cpp:84] Creating Layer bn2a_branch2a
I0523 00:33:39.072118  5070 net.cpp:406] bn2a_branch2a <- res2a_branch2a
I0523 00:33:39.072120  5070 net.cpp:367] bn2a_branch2a -> res2a_branch2a (in-place)
I0523 00:33:39.072254  5070 net.cpp:122] Setting up bn2a_branch2a
I0523 00:33:39.072258  5070 net.cpp:129] Top shape: 5 64 56 56 (1003520)
I0523 00:33:39.072259  5070 net.cpp:137] Memory required for data: 135475220
I0523 00:33:39.072263  5070 layer_factory.hpp:77] Creating layer scale2a_branch2a
I0523 00:33:39.072266  5070 net.cpp:84] Creating Layer scale2a_branch2a
I0523 00:33:39.072268  5070 net.cpp:406] scale2a_branch2a <- res2a_branch2a
I0523 00:33:39.072270  5070 net.cpp:367] scale2a_branch2a -> res2a_branch2a (in-place)
I0523 00:33:39.072295  5070 layer_factory.hpp:77] Creating layer scale2a_branch2a
I0523 00:33:39.072374  5070 net.cpp:122] Setting up scale2a_branch2a
I0523 00:33:39.072377  5070 net.cpp:129] Top shape: 5 64 56 56 (1003520)
I0523 00:33:39.072379  5070 net.cpp:137] Memory required for data: 139489300
I0523 00:33:39.072383  5070 layer_factory.hpp:77] Creating layer res2a_branch2a_relu
I0523 00:33:39.072386  5070 net.cpp:84] Creating Layer res2a_branch2a_relu
I0523 00:33:39.072388  5070 net.cpp:406] res2a_branch2a_relu <- res2a_branch2a
I0523 00:33:39.072391  5070 net.cpp:367] res2a_branch2a_relu -> res2a_branch2a (in-place)
I0523 00:33:39.072728  5070 net.cpp:122] Setting up res2a_branch2a_relu
I0523 00:33:39.072733  5070 net.cpp:129] Top shape: 5 64 56 56 (1003520)
I0523 00:33:39.072734  5070 net.cpp:137] Memory required for data: 143503380
I0523 00:33:39.072736  5070 layer_factory.hpp:77] Creating layer res2a_branch2b
I0523 00:33:39.072742  5070 net.cpp:84] Creating Layer res2a_branch2b
I0523 00:33:39.072744  5070 net.cpp:406] res2a_branch2b <- res2a_branch2a
I0523 00:33:39.072746  5070 net.cpp:380] res2a_branch2b -> res2a_branch2b
I0523 00:33:39.075666  5070 net.cpp:122] Setting up res2a_branch2b
I0523 00:33:39.075673  5070 net.cpp:129] Top shape: 5 64 56 56 (1003520)
I0523 00:33:39.075675  5070 net.cpp:137] Memory required for data: 147517460
I0523 00:33:39.075680  5070 layer_factory.hpp:77] Creating layer bn2a_branch2b
I0523 00:33:39.075683  5070 net.cpp:84] Creating Layer bn2a_branch2b
I0523 00:33:39.075685  5070 net.cpp:406] bn2a_branch2b <- res2a_branch2b
I0523 00:33:39.075688  5070 net.cpp:367] bn2a_branch2b -> res2a_branch2b (in-place)
I0523 00:33:39.075834  5070 net.cpp:122] Setting up bn2a_branch2b
I0523 00:33:39.075836  5070 net.cpp:129] Top shape: 5 64 56 56 (1003520)
I0523 00:33:39.075839  5070 net.cpp:137] Memory required for data: 151531540
I0523 00:33:39.075841  5070 layer_factory.hpp:77] Creating layer scale2a_branch2b
I0523 00:33:39.075845  5070 net.cpp:84] Creating Layer scale2a_branch2b
I0523 00:33:39.075847  5070 net.cpp:406] scale2a_branch2b <- res2a_branch2b
I0523 00:33:39.075850  5070 net.cpp:367] scale2a_branch2b -> res2a_branch2b (in-place)
I0523 00:33:39.075875  5070 layer_factory.hpp:77] Creating layer scale2a_branch2b
I0523 00:33:39.075956  5070 net.cpp:122] Setting up scale2a_branch2b
I0523 00:33:39.075959  5070 net.cpp:129] Top shape: 5 64 56 56 (1003520)
I0523 00:33:39.075960  5070 net.cpp:137] Memory required for data: 155545620
I0523 00:33:39.075963  5070 layer_factory.hpp:77] Creating layer res2a_branch2b_relu
I0523 00:33:39.075966  5070 net.cpp:84] Creating Layer res2a_branch2b_relu
I0523 00:33:39.075974  5070 net.cpp:406] res2a_branch2b_relu <- res2a_branch2b
I0523 00:33:39.075978  5070 net.cpp:367] res2a_branch2b_relu -> res2a_branch2b (in-place)
I0523 00:33:39.076445  5070 net.cpp:122] Setting up res2a_branch2b_relu
I0523 00:33:39.076450  5070 net.cpp:129] Top shape: 5 64 56 56 (1003520)
I0523 00:33:39.076452  5070 net.cpp:137] Memory required for data: 159559700
I0523 00:33:39.076454  5070 layer_factory.hpp:77] Creating layer res2a_branch2c
I0523 00:33:39.076459  5070 net.cpp:84] Creating Layer res2a_branch2c
I0523 00:33:39.076462  5070 net.cpp:406] res2a_branch2c <- res2a_branch2b
I0523 00:33:39.076464  5070 net.cpp:380] res2a_branch2c -> res2a_branch2c
I0523 00:33:39.077867  5070 net.cpp:122] Setting up res2a_branch2c
I0523 00:33:39.077874  5070 net.cpp:129] Top shape: 5 256 56 56 (4014080)
I0523 00:33:39.077875  5070 net.cpp:137] Memory required for data: 175616020
I0523 00:33:39.077878  5070 layer_factory.hpp:77] Creating layer bn2a_branch2c
I0523 00:33:39.077883  5070 net.cpp:84] Creating Layer bn2a_branch2c
I0523 00:33:39.077885  5070 net.cpp:406] bn2a_branch2c <- res2a_branch2c
I0523 00:33:39.077888  5070 net.cpp:367] bn2a_branch2c -> res2a_branch2c (in-place)
I0523 00:33:39.078018  5070 net.cpp:122] Setting up bn2a_branch2c
I0523 00:33:39.078022  5070 net.cpp:129] Top shape: 5 256 56 56 (4014080)
I0523 00:33:39.078022  5070 net.cpp:137] Memory required for data: 191672340
I0523 00:33:39.078027  5070 layer_factory.hpp:77] Creating layer scale2a_branch2c
I0523 00:33:39.078029  5070 net.cpp:84] Creating Layer scale2a_branch2c
I0523 00:33:39.078032  5070 net.cpp:406] scale2a_branch2c <- res2a_branch2c
I0523 00:33:39.078034  5070 net.cpp:367] scale2a_branch2c -> res2a_branch2c (in-place)
I0523 00:33:39.078058  5070 layer_factory.hpp:77] Creating layer scale2a_branch2c
I0523 00:33:39.078135  5070 net.cpp:122] Setting up scale2a_branch2c
I0523 00:33:39.078138  5070 net.cpp:129] Top shape: 5 256 56 56 (4014080)
I0523 00:33:39.078140  5070 net.cpp:137] Memory required for data: 207728660
I0523 00:33:39.078143  5070 layer_factory.hpp:77] Creating layer res2a
I0523 00:33:39.078147  5070 net.cpp:84] Creating Layer res2a
I0523 00:33:39.078150  5070 net.cpp:406] res2a <- res2a_branch1
I0523 00:33:39.078151  5070 net.cpp:406] res2a <- res2a_branch2c
I0523 00:33:39.078155  5070 net.cpp:380] res2a -> res2a
I0523 00:33:39.078172  5070 net.cpp:122] Setting up res2a
I0523 00:33:39.078176  5070 net.cpp:129] Top shape: 5 256 56 56 (4014080)
I0523 00:33:39.078176  5070 net.cpp:137] Memory required for data: 223784980
I0523 00:33:39.078178  5070 layer_factory.hpp:77] Creating layer res2a_relu
I0523 00:33:39.078181  5070 net.cpp:84] Creating Layer res2a_relu
I0523 00:33:39.078183  5070 net.cpp:406] res2a_relu <- res2a
I0523 00:33:39.078186  5070 net.cpp:367] res2a_relu -> res2a (in-place)
I0523 00:33:39.078528  5070 net.cpp:122] Setting up res2a_relu
I0523 00:33:39.078532  5070 net.cpp:129] Top shape: 5 256 56 56 (4014080)
I0523 00:33:39.078534  5070 net.cpp:137] Memory required for data: 239841300
I0523 00:33:39.078536  5070 layer_factory.hpp:77] Creating layer res2a_res2a_relu_0_split
I0523 00:33:39.078539  5070 net.cpp:84] Creating Layer res2a_res2a_relu_0_split
I0523 00:33:39.078541  5070 net.cpp:406] res2a_res2a_relu_0_split <- res2a
I0523 00:33:39.078544  5070 net.cpp:380] res2a_res2a_relu_0_split -> res2a_res2a_relu_0_split_0
I0523 00:33:39.078548  5070 net.cpp:380] res2a_res2a_relu_0_split -> res2a_res2a_relu_0_split_1
I0523 00:33:39.078575  5070 net.cpp:122] Setting up res2a_res2a_relu_0_split
I0523 00:33:39.078578  5070 net.cpp:129] Top shape: 5 256 56 56 (4014080)
I0523 00:33:39.078580  5070 net.cpp:129] Top shape: 5 256 56 56 (4014080)
I0523 00:33:39.078583  5070 net.cpp:137] Memory required for data: 271953940
I0523 00:33:39.078583  5070 layer_factory.hpp:77] Creating layer res2b_branch2a
I0523 00:33:39.078589  5070 net.cpp:84] Creating Layer res2b_branch2a
I0523 00:33:39.078591  5070 net.cpp:406] res2b_branch2a <- res2a_res2a_relu_0_split_0
I0523 00:33:39.078598  5070 net.cpp:380] res2b_branch2a -> res2b_branch2a
I0523 00:33:39.080138  5070 net.cpp:122] Setting up res2b_branch2a
I0523 00:33:39.080144  5070 net.cpp:129] Top shape: 5 64 56 56 (1003520)
I0523 00:33:39.080147  5070 net.cpp:137] Memory required for data: 275968020
I0523 00:33:39.080149  5070 layer_factory.hpp:77] Creating layer bn2b_branch2a
I0523 00:33:39.080153  5070 net.cpp:84] Creating Layer bn2b_branch2a
I0523 00:33:39.080155  5070 net.cpp:406] bn2b_branch2a <- res2b_branch2a
I0523 00:33:39.080157  5070 net.cpp:367] bn2b_branch2a -> res2b_branch2a (in-place)
I0523 00:33:39.080296  5070 net.cpp:122] Setting up bn2b_branch2a
I0523 00:33:39.080298  5070 net.cpp:129] Top shape: 5 64 56 56 (1003520)
I0523 00:33:39.080301  5070 net.cpp:137] Memory required for data: 279982100
I0523 00:33:39.080305  5070 layer_factory.hpp:77] Creating layer scale2b_branch2a
I0523 00:33:39.080308  5070 net.cpp:84] Creating Layer scale2b_branch2a
I0523 00:33:39.080310  5070 net.cpp:406] scale2b_branch2a <- res2b_branch2a
I0523 00:33:39.080313  5070 net.cpp:367] scale2b_branch2a -> res2b_branch2a (in-place)
I0523 00:33:39.080338  5070 layer_factory.hpp:77] Creating layer scale2b_branch2a
I0523 00:33:39.080420  5070 net.cpp:122] Setting up scale2b_branch2a
I0523 00:33:39.080422  5070 net.cpp:129] Top shape: 5 64 56 56 (1003520)
I0523 00:33:39.080425  5070 net.cpp:137] Memory required for data: 283996180
I0523 00:33:39.080427  5070 layer_factory.hpp:77] Creating layer res2b_branch2a_relu
I0523 00:33:39.080430  5070 net.cpp:84] Creating Layer res2b_branch2a_relu
I0523 00:33:39.080431  5070 net.cpp:406] res2b_branch2a_relu <- res2b_branch2a
I0523 00:33:39.080435  5070 net.cpp:367] res2b_branch2a_relu -> res2b_branch2a (in-place)
I0523 00:33:39.080778  5070 net.cpp:122] Setting up res2b_branch2a_relu
I0523 00:33:39.080782  5070 net.cpp:129] Top shape: 5 64 56 56 (1003520)
I0523 00:33:39.080785  5070 net.cpp:137] Memory required for data: 288010260
I0523 00:33:39.080786  5070 layer_factory.hpp:77] Creating layer res2b_branch2b
I0523 00:33:39.080796  5070 net.cpp:84] Creating Layer res2b_branch2b
I0523 00:33:39.080798  5070 net.cpp:406] res2b_branch2b <- res2b_branch2a
I0523 00:33:39.080801  5070 net.cpp:380] res2b_branch2b -> res2b_branch2b
I0523 00:33:39.082304  5070 net.cpp:122] Setting up res2b_branch2b
I0523 00:33:39.082309  5070 net.cpp:129] Top shape: 5 64 56 56 (1003520)
I0523 00:33:39.082311  5070 net.cpp:137] Memory required for data: 292024340
I0523 00:33:39.082314  5070 layer_factory.hpp:77] Creating layer bn2b_branch2b
I0523 00:33:39.082319  5070 net.cpp:84] Creating Layer bn2b_branch2b
I0523 00:33:39.082320  5070 net.cpp:406] bn2b_branch2b <- res2b_branch2b
I0523 00:33:39.082324  5070 net.cpp:367] bn2b_branch2b -> res2b_branch2b (in-place)
I0523 00:33:39.082464  5070 net.cpp:122] Setting up bn2b_branch2b
I0523 00:33:39.082468  5070 net.cpp:129] Top shape: 5 64 56 56 (1003520)
I0523 00:33:39.082469  5070 net.cpp:137] Memory required for data: 296038420
I0523 00:33:39.082473  5070 layer_factory.hpp:77] Creating layer scale2b_branch2b
I0523 00:33:39.082475  5070 net.cpp:84] Creating Layer scale2b_branch2b
I0523 00:33:39.082478  5070 net.cpp:406] scale2b_branch2b <- res2b_branch2b
I0523 00:33:39.082479  5070 net.cpp:367] scale2b_branch2b -> res2b_branch2b (in-place)
I0523 00:33:39.082504  5070 layer_factory.hpp:77] Creating layer scale2b_branch2b
I0523 00:33:39.082584  5070 net.cpp:122] Setting up scale2b_branch2b
I0523 00:33:39.082588  5070 net.cpp:129] Top shape: 5 64 56 56 (1003520)
I0523 00:33:39.082589  5070 net.cpp:137] Memory required for data: 300052500
I0523 00:33:39.082592  5070 layer_factory.hpp:77] Creating layer res2b_branch2b_relu
I0523 00:33:39.082594  5070 net.cpp:84] Creating Layer res2b_branch2b_relu
I0523 00:33:39.082597  5070 net.cpp:406] res2b_branch2b_relu <- res2b_branch2b
I0523 00:33:39.082599  5070 net.cpp:367] res2b_branch2b_relu -> res2b_branch2b (in-place)
I0523 00:33:39.083050  5070 net.cpp:122] Setting up res2b_branch2b_relu
I0523 00:33:39.083055  5070 net.cpp:129] Top shape: 5 64 56 56 (1003520)
I0523 00:33:39.083061  5070 net.cpp:137] Memory required for data: 304066580
I0523 00:33:39.083063  5070 layer_factory.hpp:77] Creating layer res2b_branch2c
I0523 00:33:39.083070  5070 net.cpp:84] Creating Layer res2b_branch2c
I0523 00:33:39.083072  5070 net.cpp:406] res2b_branch2c <- res2b_branch2b
I0523 00:33:39.083076  5070 net.cpp:380] res2b_branch2c -> res2b_branch2c
I0523 00:33:39.084481  5070 net.cpp:122] Setting up res2b_branch2c
I0523 00:33:39.084487  5070 net.cpp:129] Top shape: 5 256 56 56 (4014080)
I0523 00:33:39.084489  5070 net.cpp:137] Memory required for data: 320122900
I0523 00:33:39.084492  5070 layer_factory.hpp:77] Creating layer bn2b_branch2c
I0523 00:33:39.084496  5070 net.cpp:84] Creating Layer bn2b_branch2c
I0523 00:33:39.084497  5070 net.cpp:406] bn2b_branch2c <- res2b_branch2c
I0523 00:33:39.084501  5070 net.cpp:367] bn2b_branch2c -> res2b_branch2c (in-place)
I0523 00:33:39.084638  5070 net.cpp:122] Setting up bn2b_branch2c
I0523 00:33:39.084641  5070 net.cpp:129] Top shape: 5 256 56 56 (4014080)
I0523 00:33:39.084643  5070 net.cpp:137] Memory required for data: 336179220
I0523 00:33:39.084646  5070 layer_factory.hpp:77] Creating layer scale2b_branch2c
I0523 00:33:39.084650  5070 net.cpp:84] Creating Layer scale2b_branch2c
I0523 00:33:39.084652  5070 net.cpp:406] scale2b_branch2c <- res2b_branch2c
I0523 00:33:39.084655  5070 net.cpp:367] scale2b_branch2c -> res2b_branch2c (in-place)
I0523 00:33:39.084678  5070 layer_factory.hpp:77] Creating layer scale2b_branch2c
I0523 00:33:39.084753  5070 net.cpp:122] Setting up scale2b_branch2c
I0523 00:33:39.084756  5070 net.cpp:129] Top shape: 5 256 56 56 (4014080)
I0523 00:33:39.084758  5070 net.cpp:137] Memory required for data: 352235540
I0523 00:33:39.084761  5070 layer_factory.hpp:77] Creating layer res2b
I0523 00:33:39.084764  5070 net.cpp:84] Creating Layer res2b
I0523 00:33:39.084766  5070 net.cpp:406] res2b <- res2a_res2a_relu_0_split_1
I0523 00:33:39.084769  5070 net.cpp:406] res2b <- res2b_branch2c
I0523 00:33:39.084771  5070 net.cpp:380] res2b -> res2b
I0523 00:33:39.084786  5070 net.cpp:122] Setting up res2b
I0523 00:33:39.084789  5070 net.cpp:129] Top shape: 5 256 56 56 (4014080)
I0523 00:33:39.084791  5070 net.cpp:137] Memory required for data: 368291860
I0523 00:33:39.084794  5070 layer_factory.hpp:77] Creating layer res2b_relu
I0523 00:33:39.084795  5070 net.cpp:84] Creating Layer res2b_relu
I0523 00:33:39.084797  5070 net.cpp:406] res2b_relu <- res2b
I0523 00:33:39.084800  5070 net.cpp:367] res2b_relu -> res2b (in-place)
I0523 00:33:39.085139  5070 net.cpp:122] Setting up res2b_relu
I0523 00:33:39.085144  5070 net.cpp:129] Top shape: 5 256 56 56 (4014080)
I0523 00:33:39.085146  5070 net.cpp:137] Memory required for data: 384348180
I0523 00:33:39.085149  5070 layer_factory.hpp:77] Creating layer res2b_res2b_relu_0_split
I0523 00:33:39.085151  5070 net.cpp:84] Creating Layer res2b_res2b_relu_0_split
I0523 00:33:39.085153  5070 net.cpp:406] res2b_res2b_relu_0_split <- res2b
I0523 00:33:39.085156  5070 net.cpp:380] res2b_res2b_relu_0_split -> res2b_res2b_relu_0_split_0
I0523 00:33:39.085165  5070 net.cpp:380] res2b_res2b_relu_0_split -> res2b_res2b_relu_0_split_1
I0523 00:33:39.085192  5070 net.cpp:122] Setting up res2b_res2b_relu_0_split
I0523 00:33:39.085196  5070 net.cpp:129] Top shape: 5 256 56 56 (4014080)
I0523 00:33:39.085197  5070 net.cpp:129] Top shape: 5 256 56 56 (4014080)
I0523 00:33:39.085199  5070 net.cpp:137] Memory required for data: 416460820
I0523 00:33:39.085201  5070 layer_factory.hpp:77] Creating layer res2c_branch2a
I0523 00:33:39.085206  5070 net.cpp:84] Creating Layer res2c_branch2a
I0523 00:33:39.085207  5070 net.cpp:406] res2c_branch2a <- res2b_res2b_relu_0_split_0
I0523 00:33:39.085211  5070 net.cpp:380] res2c_branch2a -> res2c_branch2a
I0523 00:33:39.086591  5070 net.cpp:122] Setting up res2c_branch2a
I0523 00:33:39.086596  5070 net.cpp:129] Top shape: 5 64 56 56 (1003520)
I0523 00:33:39.086597  5070 net.cpp:137] Memory required for data: 420474900
I0523 00:33:39.086601  5070 layer_factory.hpp:77] Creating layer bn2c_branch2a
I0523 00:33:39.086607  5070 net.cpp:84] Creating Layer bn2c_branch2a
I0523 00:33:39.086611  5070 net.cpp:406] bn2c_branch2a <- res2c_branch2a
I0523 00:33:39.086613  5070 net.cpp:367] bn2c_branch2a -> res2c_branch2a (in-place)
I0523 00:33:39.086751  5070 net.cpp:122] Setting up bn2c_branch2a
I0523 00:33:39.086755  5070 net.cpp:129] Top shape: 5 64 56 56 (1003520)
I0523 00:33:39.086756  5070 net.cpp:137] Memory required for data: 424488980
I0523 00:33:39.086760  5070 layer_factory.hpp:77] Creating layer scale2c_branch2a
I0523 00:33:39.086762  5070 net.cpp:84] Creating Layer scale2c_branch2a
I0523 00:33:39.086764  5070 net.cpp:406] scale2c_branch2a <- res2c_branch2a
I0523 00:33:39.086766  5070 net.cpp:367] scale2c_branch2a -> res2c_branch2a (in-place)
I0523 00:33:39.086791  5070 layer_factory.hpp:77] Creating layer scale2c_branch2a
I0523 00:33:39.086876  5070 net.cpp:122] Setting up scale2c_branch2a
I0523 00:33:39.086879  5070 net.cpp:129] Top shape: 5 64 56 56 (1003520)
I0523 00:33:39.086881  5070 net.cpp:137] Memory required for data: 428503060
I0523 00:33:39.086884  5070 layer_factory.hpp:77] Creating layer res2c_branch2a_relu
I0523 00:33:39.086889  5070 net.cpp:84] Creating Layer res2c_branch2a_relu
I0523 00:33:39.086890  5070 net.cpp:406] res2c_branch2a_relu <- res2c_branch2a
I0523 00:33:39.086892  5070 net.cpp:367] res2c_branch2a_relu -> res2c_branch2a (in-place)
I0523 00:33:39.087342  5070 net.cpp:122] Setting up res2c_branch2a_relu
I0523 00:33:39.087347  5070 net.cpp:129] Top shape: 5 64 56 56 (1003520)
I0523 00:33:39.087349  5070 net.cpp:137] Memory required for data: 432517140
I0523 00:33:39.087352  5070 layer_factory.hpp:77] Creating layer res2c_branch2b
I0523 00:33:39.087357  5070 net.cpp:84] Creating Layer res2c_branch2b
I0523 00:33:39.087359  5070 net.cpp:406] res2c_branch2b <- res2c_branch2a
I0523 00:33:39.087363  5070 net.cpp:380] res2c_branch2b -> res2c_branch2b
I0523 00:33:39.088886  5070 net.cpp:122] Setting up res2c_branch2b
I0523 00:33:39.088891  5070 net.cpp:129] Top shape: 5 64 56 56 (1003520)
I0523 00:33:39.088893  5070 net.cpp:137] Memory required for data: 436531220
I0523 00:33:39.088896  5070 layer_factory.hpp:77] Creating layer bn2c_branch2b
I0523 00:33:39.088901  5070 net.cpp:84] Creating Layer bn2c_branch2b
I0523 00:33:39.088902  5070 net.cpp:406] bn2c_branch2b <- res2c_branch2b
I0523 00:33:39.088906  5070 net.cpp:367] bn2c_branch2b -> res2c_branch2b (in-place)
I0523 00:33:39.089045  5070 net.cpp:122] Setting up bn2c_branch2b
I0523 00:33:39.089047  5070 net.cpp:129] Top shape: 5 64 56 56 (1003520)
I0523 00:33:39.089051  5070 net.cpp:137] Memory required for data: 440545300
I0523 00:33:39.089053  5070 layer_factory.hpp:77] Creating layer scale2c_branch2b
I0523 00:33:39.089057  5070 net.cpp:84] Creating Layer scale2c_branch2b
I0523 00:33:39.089059  5070 net.cpp:406] scale2c_branch2b <- res2c_branch2b
I0523 00:33:39.089061  5070 net.cpp:367] scale2c_branch2b -> res2c_branch2b (in-place)
I0523 00:33:39.089092  5070 layer_factory.hpp:77] Creating layer scale2c_branch2b
I0523 00:33:39.089172  5070 net.cpp:122] Setting up scale2c_branch2b
I0523 00:33:39.089175  5070 net.cpp:129] Top shape: 5 64 56 56 (1003520)
I0523 00:33:39.089177  5070 net.cpp:137] Memory required for data: 444559380
I0523 00:33:39.089179  5070 layer_factory.hpp:77] Creating layer res2c_branch2b_relu
I0523 00:33:39.089184  5070 net.cpp:84] Creating Layer res2c_branch2b_relu
I0523 00:33:39.089185  5070 net.cpp:406] res2c_branch2b_relu <- res2c_branch2b
I0523 00:33:39.089187  5070 net.cpp:367] res2c_branch2b_relu -> res2c_branch2b (in-place)
I0523 00:33:39.089524  5070 net.cpp:122] Setting up res2c_branch2b_relu
I0523 00:33:39.089529  5070 net.cpp:129] Top shape: 5 64 56 56 (1003520)
I0523 00:33:39.089531  5070 net.cpp:137] Memory required for data: 448573460
I0523 00:33:39.089532  5070 layer_factory.hpp:77] Creating layer res2c_branch2c
I0523 00:33:39.089537  5070 net.cpp:84] Creating Layer res2c_branch2c
I0523 00:33:39.089540  5070 net.cpp:406] res2c_branch2c <- res2c_branch2b
I0523 00:33:39.089542  5070 net.cpp:380] res2c_branch2c -> res2c_branch2c
I0523 00:33:39.091050  5070 net.cpp:122] Setting up res2c_branch2c
I0523 00:33:39.091056  5070 net.cpp:129] Top shape: 5 256 56 56 (4014080)
I0523 00:33:39.091058  5070 net.cpp:137] Memory required for data: 464629780
I0523 00:33:39.091060  5070 layer_factory.hpp:77] Creating layer bn2c_branch2c
I0523 00:33:39.091064  5070 net.cpp:84] Creating Layer bn2c_branch2c
I0523 00:33:39.091066  5070 net.cpp:406] bn2c_branch2c <- res2c_branch2c
I0523 00:33:39.091069  5070 net.cpp:367] bn2c_branch2c -> res2c_branch2c (in-place)
I0523 00:33:39.091210  5070 net.cpp:122] Setting up bn2c_branch2c
I0523 00:33:39.091213  5070 net.cpp:129] Top shape: 5 256 56 56 (4014080)
I0523 00:33:39.091215  5070 net.cpp:137] Memory required for data: 480686100
I0523 00:33:39.091218  5070 layer_factory.hpp:77] Creating layer scale2c_branch2c
I0523 00:33:39.091222  5070 net.cpp:84] Creating Layer scale2c_branch2c
I0523 00:33:39.091223  5070 net.cpp:406] scale2c_branch2c <- res2c_branch2c
I0523 00:33:39.091226  5070 net.cpp:367] scale2c_branch2c -> res2c_branch2c (in-place)
I0523 00:33:39.091249  5070 layer_factory.hpp:77] Creating layer scale2c_branch2c
I0523 00:33:39.091327  5070 net.cpp:122] Setting up scale2c_branch2c
I0523 00:33:39.091331  5070 net.cpp:129] Top shape: 5 256 56 56 (4014080)
I0523 00:33:39.091332  5070 net.cpp:137] Memory required for data: 496742420
I0523 00:33:39.091338  5070 layer_factory.hpp:77] Creating layer res2c
I0523 00:33:39.091341  5070 net.cpp:84] Creating Layer res2c
I0523 00:33:39.091343  5070 net.cpp:406] res2c <- res2b_res2b_relu_0_split_1
I0523 00:33:39.091346  5070 net.cpp:406] res2c <- res2c_branch2c
I0523 00:33:39.091348  5070 net.cpp:380] res2c -> res2c
I0523 00:33:39.091363  5070 net.cpp:122] Setting up res2c
I0523 00:33:39.091367  5070 net.cpp:129] Top shape: 5 256 56 56 (4014080)
I0523 00:33:39.091368  5070 net.cpp:137] Memory required for data: 512798740
I0523 00:33:39.091370  5070 layer_factory.hpp:77] Creating layer res2c_relu
I0523 00:33:39.091372  5070 net.cpp:84] Creating Layer res2c_relu
I0523 00:33:39.091374  5070 net.cpp:406] res2c_relu <- res2c
I0523 00:33:39.091377  5070 net.cpp:367] res2c_relu -> res2c (in-place)
I0523 00:33:39.091717  5070 net.cpp:122] Setting up res2c_relu
I0523 00:33:39.091722  5070 net.cpp:129] Top shape: 5 256 56 56 (4014080)
I0523 00:33:39.091723  5070 net.cpp:137] Memory required for data: 528855060
I0523 00:33:39.091725  5070 layer_factory.hpp:77] Creating layer res2c_res2c_relu_0_split
I0523 00:33:39.091729  5070 net.cpp:84] Creating Layer res2c_res2c_relu_0_split
I0523 00:33:39.091732  5070 net.cpp:406] res2c_res2c_relu_0_split <- res2c
I0523 00:33:39.091734  5070 net.cpp:380] res2c_res2c_relu_0_split -> res2c_res2c_relu_0_split_0
I0523 00:33:39.091738  5070 net.cpp:380] res2c_res2c_relu_0_split -> res2c_res2c_relu_0_split_1
I0523 00:33:39.091766  5070 net.cpp:122] Setting up res2c_res2c_relu_0_split
I0523 00:33:39.091770  5070 net.cpp:129] Top shape: 5 256 56 56 (4014080)
I0523 00:33:39.091773  5070 net.cpp:129] Top shape: 5 256 56 56 (4014080)
I0523 00:33:39.091773  5070 net.cpp:137] Memory required for data: 560967700
I0523 00:33:39.091775  5070 layer_factory.hpp:77] Creating layer res3a_branch1
I0523 00:33:39.091780  5070 net.cpp:84] Creating Layer res3a_branch1
I0523 00:33:39.091783  5070 net.cpp:406] res3a_branch1 <- res2c_res2c_relu_0_split_0
I0523 00:33:39.091784  5070 net.cpp:380] res3a_branch1 -> res3a_branch1
I0523 00:33:39.094003  5070 net.cpp:122] Setting up res3a_branch1
I0523 00:33:39.094009  5070 net.cpp:129] Top shape: 5 512 28 28 (2007040)
I0523 00:33:39.094012  5070 net.cpp:137] Memory required for data: 568995860
I0523 00:33:39.094014  5070 layer_factory.hpp:77] Creating layer bn3a_branch1
I0523 00:33:39.094018  5070 net.cpp:84] Creating Layer bn3a_branch1
I0523 00:33:39.094020  5070 net.cpp:406] bn3a_branch1 <- res3a_branch1
I0523 00:33:39.094022  5070 net.cpp:367] bn3a_branch1 -> res3a_branch1 (in-place)
I0523 00:33:39.094750  5070 net.cpp:122] Setting up bn3a_branch1
I0523 00:33:39.094756  5070 net.cpp:129] Top shape: 5 512 28 28 (2007040)
I0523 00:33:39.094763  5070 net.cpp:137] Memory required for data: 577024020
I0523 00:33:39.094766  5070 layer_factory.hpp:77] Creating layer scale3a_branch1
I0523 00:33:39.094770  5070 net.cpp:84] Creating Layer scale3a_branch1
I0523 00:33:39.094772  5070 net.cpp:406] scale3a_branch1 <- res3a_branch1
I0523 00:33:39.094774  5070 net.cpp:367] scale3a_branch1 -> res3a_branch1 (in-place)
I0523 00:33:39.094805  5070 layer_factory.hpp:77] Creating layer scale3a_branch1
I0523 00:33:39.094878  5070 net.cpp:122] Setting up scale3a_branch1
I0523 00:33:39.094882  5070 net.cpp:129] Top shape: 5 512 28 28 (2007040)
I0523 00:33:39.094883  5070 net.cpp:137] Memory required for data: 585052180
I0523 00:33:39.094887  5070 layer_factory.hpp:77] Creating layer res3a_branch2a
I0523 00:33:39.094892  5070 net.cpp:84] Creating Layer res3a_branch2a
I0523 00:33:39.094893  5070 net.cpp:406] res3a_branch2a <- res2c_res2c_relu_0_split_1
I0523 00:33:39.094897  5070 net.cpp:380] res3a_branch2a -> res3a_branch2a
I0523 00:33:39.096509  5070 net.cpp:122] Setting up res3a_branch2a
I0523 00:33:39.096514  5070 net.cpp:129] Top shape: 5 128 28 28 (501760)
I0523 00:33:39.096516  5070 net.cpp:137] Memory required for data: 587059220
I0523 00:33:39.096519  5070 layer_factory.hpp:77] Creating layer bn3a_branch2a
I0523 00:33:39.096524  5070 net.cpp:84] Creating Layer bn3a_branch2a
I0523 00:33:39.096525  5070 net.cpp:406] bn3a_branch2a <- res3a_branch2a
I0523 00:33:39.096529  5070 net.cpp:367] bn3a_branch2a -> res3a_branch2a (in-place)
I0523 00:33:39.096665  5070 net.cpp:122] Setting up bn3a_branch2a
I0523 00:33:39.096669  5070 net.cpp:129] Top shape: 5 128 28 28 (501760)
I0523 00:33:39.096670  5070 net.cpp:137] Memory required for data: 589066260
I0523 00:33:39.096674  5070 layer_factory.hpp:77] Creating layer scale3a_branch2a
I0523 00:33:39.096676  5070 net.cpp:84] Creating Layer scale3a_branch2a
I0523 00:33:39.096678  5070 net.cpp:406] scale3a_branch2a <- res3a_branch2a
I0523 00:33:39.096683  5070 net.cpp:367] scale3a_branch2a -> res3a_branch2a (in-place)
I0523 00:33:39.096706  5070 layer_factory.hpp:77] Creating layer scale3a_branch2a
I0523 00:33:39.096788  5070 net.cpp:122] Setting up scale3a_branch2a
I0523 00:33:39.096791  5070 net.cpp:129] Top shape: 5 128 28 28 (501760)
I0523 00:33:39.096792  5070 net.cpp:137] Memory required for data: 591073300
I0523 00:33:39.096796  5070 layer_factory.hpp:77] Creating layer res3a_branch2a_relu
I0523 00:33:39.096798  5070 net.cpp:84] Creating Layer res3a_branch2a_relu
I0523 00:33:39.096801  5070 net.cpp:406] res3a_branch2a_relu <- res3a_branch2a
I0523 00:33:39.096802  5070 net.cpp:367] res3a_branch2a_relu -> res3a_branch2a (in-place)
I0523 00:33:39.097249  5070 net.cpp:122] Setting up res3a_branch2a_relu
I0523 00:33:39.097254  5070 net.cpp:129] Top shape: 5 128 28 28 (501760)
I0523 00:33:39.097256  5070 net.cpp:137] Memory required for data: 593080340
I0523 00:33:39.097257  5070 layer_factory.hpp:77] Creating layer res3a_branch2b
I0523 00:33:39.097262  5070 net.cpp:84] Creating Layer res3a_branch2b
I0523 00:33:39.097265  5070 net.cpp:406] res3a_branch2b <- res3a_branch2a
I0523 00:33:39.097267  5070 net.cpp:380] res3a_branch2b -> res3a_branch2b
I0523 00:33:39.099598  5070 net.cpp:122] Setting up res3a_branch2b
I0523 00:33:39.099604  5070 net.cpp:129] Top shape: 5 128 28 28 (501760)
I0523 00:33:39.099606  5070 net.cpp:137] Memory required for data: 595087380
I0523 00:33:39.099609  5070 layer_factory.hpp:77] Creating layer bn3a_branch2b
I0523 00:33:39.099612  5070 net.cpp:84] Creating Layer bn3a_branch2b
I0523 00:33:39.099614  5070 net.cpp:406] bn3a_branch2b <- res3a_branch2b
I0523 00:33:39.099617  5070 net.cpp:367] bn3a_branch2b -> res3a_branch2b (in-place)
I0523 00:33:39.099764  5070 net.cpp:122] Setting up bn3a_branch2b
I0523 00:33:39.099767  5070 net.cpp:129] Top shape: 5 128 28 28 (501760)
I0523 00:33:39.099769  5070 net.cpp:137] Memory required for data: 597094420
I0523 00:33:39.099772  5070 layer_factory.hpp:77] Creating layer scale3a_branch2b
I0523 00:33:39.099776  5070 net.cpp:84] Creating Layer scale3a_branch2b
I0523 00:33:39.099782  5070 net.cpp:406] scale3a_branch2b <- res3a_branch2b
I0523 00:33:39.099786  5070 net.cpp:367] scale3a_branch2b -> res3a_branch2b (in-place)
I0523 00:33:39.099812  5070 layer_factory.hpp:77] Creating layer scale3a_branch2b
I0523 00:33:39.099889  5070 net.cpp:122] Setting up scale3a_branch2b
I0523 00:33:39.099891  5070 net.cpp:129] Top shape: 5 128 28 28 (501760)
I0523 00:33:39.099894  5070 net.cpp:137] Memory required for data: 599101460
I0523 00:33:39.099895  5070 layer_factory.hpp:77] Creating layer res3a_branch2b_relu
I0523 00:33:39.099900  5070 net.cpp:84] Creating Layer res3a_branch2b_relu
I0523 00:33:39.099901  5070 net.cpp:406] res3a_branch2b_relu <- res3a_branch2b
I0523 00:33:39.099903  5070 net.cpp:367] res3a_branch2b_relu -> res3a_branch2b (in-place)
I0523 00:33:39.100248  5070 net.cpp:122] Setting up res3a_branch2b_relu
I0523 00:33:39.100253  5070 net.cpp:129] Top shape: 5 128 28 28 (501760)
I0523 00:33:39.100255  5070 net.cpp:137] Memory required for data: 601108500
I0523 00:33:39.100257  5070 layer_factory.hpp:77] Creating layer res3a_branch2c
I0523 00:33:39.100261  5070 net.cpp:84] Creating Layer res3a_branch2c
I0523 00:33:39.100263  5070 net.cpp:406] res3a_branch2c <- res3a_branch2b
I0523 00:33:39.100267  5070 net.cpp:380] res3a_branch2c -> res3a_branch2c
I0523 00:33:39.102100  5070 net.cpp:122] Setting up res3a_branch2c
I0523 00:33:39.102107  5070 net.cpp:129] Top shape: 5 512 28 28 (2007040)
I0523 00:33:39.102108  5070 net.cpp:137] Memory required for data: 609136660
I0523 00:33:39.102111  5070 layer_factory.hpp:77] Creating layer bn3a_branch2c
I0523 00:33:39.102118  5070 net.cpp:84] Creating Layer bn3a_branch2c
I0523 00:33:39.102123  5070 net.cpp:406] bn3a_branch2c <- res3a_branch2c
I0523 00:33:39.102128  5070 net.cpp:367] bn3a_branch2c -> res3a_branch2c (in-place)
I0523 00:33:39.102267  5070 net.cpp:122] Setting up bn3a_branch2c
I0523 00:33:39.102270  5070 net.cpp:129] Top shape: 5 512 28 28 (2007040)
I0523 00:33:39.102272  5070 net.cpp:137] Memory required for data: 617164820
I0523 00:33:39.102275  5070 layer_factory.hpp:77] Creating layer scale3a_branch2c
I0523 00:33:39.102278  5070 net.cpp:84] Creating Layer scale3a_branch2c
I0523 00:33:39.102280  5070 net.cpp:406] scale3a_branch2c <- res3a_branch2c
I0523 00:33:39.102283  5070 net.cpp:367] scale3a_branch2c -> res3a_branch2c (in-place)
I0523 00:33:39.102309  5070 layer_factory.hpp:77] Creating layer scale3a_branch2c
I0523 00:33:39.102385  5070 net.cpp:122] Setting up scale3a_branch2c
I0523 00:33:39.102388  5070 net.cpp:129] Top shape: 5 512 28 28 (2007040)
I0523 00:33:39.102389  5070 net.cpp:137] Memory required for data: 625192980
I0523 00:33:39.102392  5070 layer_factory.hpp:77] Creating layer res3a
I0523 00:33:39.102396  5070 net.cpp:84] Creating Layer res3a
I0523 00:33:39.102397  5070 net.cpp:406] res3a <- res3a_branch1
I0523 00:33:39.102399  5070 net.cpp:406] res3a <- res3a_branch2c
I0523 00:33:39.102402  5070 net.cpp:380] res3a -> res3a
I0523 00:33:39.102418  5070 net.cpp:122] Setting up res3a
I0523 00:33:39.102421  5070 net.cpp:129] Top shape: 5 512 28 28 (2007040)
I0523 00:33:39.102422  5070 net.cpp:137] Memory required for data: 633221140
I0523 00:33:39.102427  5070 layer_factory.hpp:77] Creating layer res3a_relu
I0523 00:33:39.102432  5070 net.cpp:84] Creating Layer res3a_relu
I0523 00:33:39.102433  5070 net.cpp:406] res3a_relu <- res3a
I0523 00:33:39.102435  5070 net.cpp:367] res3a_relu -> res3a (in-place)
I0523 00:33:39.102779  5070 net.cpp:122] Setting up res3a_relu
I0523 00:33:39.102783  5070 net.cpp:129] Top shape: 5 512 28 28 (2007040)
I0523 00:33:39.102785  5070 net.cpp:137] Memory required for data: 641249300
I0523 00:33:39.102787  5070 layer_factory.hpp:77] Creating layer res3a_res3a_relu_0_split
I0523 00:33:39.102790  5070 net.cpp:84] Creating Layer res3a_res3a_relu_0_split
I0523 00:33:39.102792  5070 net.cpp:406] res3a_res3a_relu_0_split <- res3a
I0523 00:33:39.102795  5070 net.cpp:380] res3a_res3a_relu_0_split -> res3a_res3a_relu_0_split_0
I0523 00:33:39.102799  5070 net.cpp:380] res3a_res3a_relu_0_split -> res3a_res3a_relu_0_split_1
I0523 00:33:39.102833  5070 net.cpp:122] Setting up res3a_res3a_relu_0_split
I0523 00:33:39.102835  5070 net.cpp:129] Top shape: 5 512 28 28 (2007040)
I0523 00:33:39.102838  5070 net.cpp:129] Top shape: 5 512 28 28 (2007040)
I0523 00:33:39.102839  5070 net.cpp:137] Memory required for data: 657305620
I0523 00:33:39.102841  5070 layer_factory.hpp:77] Creating layer res3b1_branch2a
I0523 00:33:39.102846  5070 net.cpp:84] Creating Layer res3b1_branch2a
I0523 00:33:39.102849  5070 net.cpp:406] res3b1_branch2a <- res3a_res3a_relu_0_split_0
I0523 00:33:39.102851  5070 net.cpp:380] res3b1_branch2a -> res3b1_branch2a
I0523 00:33:39.104607  5070 net.cpp:122] Setting up res3b1_branch2a
I0523 00:33:39.104614  5070 net.cpp:129] Top shape: 5 128 28 28 (501760)
I0523 00:33:39.104616  5070 net.cpp:137] Memory required for data: 659312660
I0523 00:33:39.104619  5070 layer_factory.hpp:77] Creating layer bn3b1_branch2a
I0523 00:33:39.104622  5070 net.cpp:84] Creating Layer bn3b1_branch2a
I0523 00:33:39.104624  5070 net.cpp:406] bn3b1_branch2a <- res3b1_branch2a
I0523 00:33:39.104629  5070 net.cpp:367] bn3b1_branch2a -> res3b1_branch2a (in-place)
I0523 00:33:39.104770  5070 net.cpp:122] Setting up bn3b1_branch2a
I0523 00:33:39.104773  5070 net.cpp:129] Top shape: 5 128 28 28 (501760)
I0523 00:33:39.104775  5070 net.cpp:137] Memory required for data: 661319700
I0523 00:33:39.104779  5070 layer_factory.hpp:77] Creating layer scale3b1_branch2a
I0523 00:33:39.104781  5070 net.cpp:84] Creating Layer scale3b1_branch2a
I0523 00:33:39.104784  5070 net.cpp:406] scale3b1_branch2a <- res3b1_branch2a
I0523 00:33:39.104786  5070 net.cpp:367] scale3b1_branch2a -> res3b1_branch2a (in-place)
I0523 00:33:39.104816  5070 layer_factory.hpp:77] Creating layer scale3b1_branch2a
I0523 00:33:39.104892  5070 net.cpp:122] Setting up scale3b1_branch2a
I0523 00:33:39.104894  5070 net.cpp:129] Top shape: 5 128 28 28 (501760)
I0523 00:33:39.104897  5070 net.cpp:137] Memory required for data: 663326740
I0523 00:33:39.104898  5070 layer_factory.hpp:77] Creating layer res3b1_branch2a_relu
I0523 00:33:39.104902  5070 net.cpp:84] Creating Layer res3b1_branch2a_relu
I0523 00:33:39.104904  5070 net.cpp:406] res3b1_branch2a_relu <- res3b1_branch2a
I0523 00:33:39.104907  5070 net.cpp:367] res3b1_branch2a_relu -> res3b1_branch2a (in-place)
I0523 00:33:39.105381  5070 net.cpp:122] Setting up res3b1_branch2a_relu
I0523 00:33:39.105387  5070 net.cpp:129] Top shape: 5 128 28 28 (501760)
I0523 00:33:39.105389  5070 net.cpp:137] Memory required for data: 665333780
I0523 00:33:39.105391  5070 layer_factory.hpp:77] Creating layer res3b1_branch2b
I0523 00:33:39.105396  5070 net.cpp:84] Creating Layer res3b1_branch2b
I0523 00:33:39.105398  5070 net.cpp:406] res3b1_branch2b <- res3b1_branch2a
I0523 00:33:39.105401  5070 net.cpp:380] res3b1_branch2b -> res3b1_branch2b
I0523 00:33:39.108328  5070 net.cpp:122] Setting up res3b1_branch2b
I0523 00:33:39.108335  5070 net.cpp:129] Top shape: 5 128 28 28 (501760)
I0523 00:33:39.108337  5070 net.cpp:137] Memory required for data: 667340820
I0523 00:33:39.108340  5070 layer_factory.hpp:77] Creating layer bn3b1_branch2b
I0523 00:33:39.108345  5070 net.cpp:84] Creating Layer bn3b1_branch2b
I0523 00:33:39.108346  5070 net.cpp:406] bn3b1_branch2b <- res3b1_branch2b
I0523 00:33:39.108350  5070 net.cpp:367] bn3b1_branch2b -> res3b1_branch2b (in-place)
I0523 00:33:39.108496  5070 net.cpp:122] Setting up bn3b1_branch2b
I0523 00:33:39.108500  5070 net.cpp:129] Top shape: 5 128 28 28 (501760)
I0523 00:33:39.108502  5070 net.cpp:137] Memory required for data: 669347860
I0523 00:33:39.108505  5070 layer_factory.hpp:77] Creating layer scale3b1_branch2b
I0523 00:33:39.108510  5070 net.cpp:84] Creating Layer scale3b1_branch2b
I0523 00:33:39.108511  5070 net.cpp:406] scale3b1_branch2b <- res3b1_branch2b
I0523 00:33:39.108513  5070 net.cpp:367] scale3b1_branch2b -> res3b1_branch2b (in-place)
I0523 00:33:39.108541  5070 layer_factory.hpp:77] Creating layer scale3b1_branch2b
I0523 00:33:39.108625  5070 net.cpp:122] Setting up scale3b1_branch2b
I0523 00:33:39.108633  5070 net.cpp:129] Top shape: 5 128 28 28 (501760)
I0523 00:33:39.108635  5070 net.cpp:137] Memory required for data: 671354900
I0523 00:33:39.108638  5070 layer_factory.hpp:77] Creating layer res3b1_branch2b_relu
I0523 00:33:39.108640  5070 net.cpp:84] Creating Layer res3b1_branch2b_relu
I0523 00:33:39.108642  5070 net.cpp:406] res3b1_branch2b_relu <- res3b1_branch2b
I0523 00:33:39.108645  5070 net.cpp:367] res3b1_branch2b_relu -> res3b1_branch2b (in-place)
I0523 00:33:39.109037  5070 net.cpp:122] Setting up res3b1_branch2b_relu
I0523 00:33:39.109042  5070 net.cpp:129] Top shape: 5 128 28 28 (501760)
I0523 00:33:39.109043  5070 net.cpp:137] Memory required for data: 673361940
I0523 00:33:39.109045  5070 layer_factory.hpp:77] Creating layer res3b1_branch2c
I0523 00:33:39.109050  5070 net.cpp:84] Creating Layer res3b1_branch2c
I0523 00:33:39.109052  5070 net.cpp:406] res3b1_branch2c <- res3b1_branch2b
I0523 00:33:39.109056  5070 net.cpp:380] res3b1_branch2c -> res3b1_branch2c
I0523 00:33:39.110782  5070 net.cpp:122] Setting up res3b1_branch2c
I0523 00:33:39.110788  5070 net.cpp:129] Top shape: 5 512 28 28 (2007040)
I0523 00:33:39.110790  5070 net.cpp:137] Memory required for data: 681390100
I0523 00:33:39.110797  5070 layer_factory.hpp:77] Creating layer bn3b1_branch2c
I0523 00:33:39.110801  5070 net.cpp:84] Creating Layer bn3b1_branch2c
I0523 00:33:39.110803  5070 net.cpp:406] bn3b1_branch2c <- res3b1_branch2c
I0523 00:33:39.110806  5070 net.cpp:367] bn3b1_branch2c -> res3b1_branch2c (in-place)
I0523 00:33:39.110954  5070 net.cpp:122] Setting up bn3b1_branch2c
I0523 00:33:39.110956  5070 net.cpp:129] Top shape: 5 512 28 28 (2007040)
I0523 00:33:39.110958  5070 net.cpp:137] Memory required for data: 689418260
I0523 00:33:39.110962  5070 layer_factory.hpp:77] Creating layer scale3b1_branch2c
I0523 00:33:39.110965  5070 net.cpp:84] Creating Layer scale3b1_branch2c
I0523 00:33:39.110967  5070 net.cpp:406] scale3b1_branch2c <- res3b1_branch2c
I0523 00:33:39.110970  5070 net.cpp:367] scale3b1_branch2c -> res3b1_branch2c (in-place)
I0523 00:33:39.110996  5070 layer_factory.hpp:77] Creating layer scale3b1_branch2c
I0523 00:33:39.111071  5070 net.cpp:122] Setting up scale3b1_branch2c
I0523 00:33:39.111075  5070 net.cpp:129] Top shape: 5 512 28 28 (2007040)
I0523 00:33:39.111076  5070 net.cpp:137] Memory required for data: 697446420
I0523 00:33:39.111079  5070 layer_factory.hpp:77] Creating layer res3b1
I0523 00:33:39.111083  5070 net.cpp:84] Creating Layer res3b1
I0523 00:33:39.111085  5070 net.cpp:406] res3b1 <- res3a_res3a_relu_0_split_1
I0523 00:33:39.111088  5070 net.cpp:406] res3b1 <- res3b1_branch2c
I0523 00:33:39.111090  5070 net.cpp:380] res3b1 -> res3b1
I0523 00:33:39.111106  5070 net.cpp:122] Setting up res3b1
I0523 00:33:39.111109  5070 net.cpp:129] Top shape: 5 512 28 28 (2007040)
I0523 00:33:39.111111  5070 net.cpp:137] Memory required for data: 705474580
I0523 00:33:39.111114  5070 layer_factory.hpp:77] Creating layer res3b1_relu
I0523 00:33:39.111117  5070 net.cpp:84] Creating Layer res3b1_relu
I0523 00:33:39.111119  5070 net.cpp:406] res3b1_relu <- res3b1
I0523 00:33:39.111121  5070 net.cpp:367] res3b1_relu -> res3b1 (in-place)
I0523 00:33:39.111578  5070 net.cpp:122] Setting up res3b1_relu
I0523 00:33:39.111584  5070 net.cpp:129] Top shape: 5 512 28 28 (2007040)
I0523 00:33:39.111587  5070 net.cpp:137] Memory required for data: 713502740
I0523 00:33:39.111588  5070 layer_factory.hpp:77] Creating layer res3b1_res3b1_relu_0_split
I0523 00:33:39.111593  5070 net.cpp:84] Creating Layer res3b1_res3b1_relu_0_split
I0523 00:33:39.111594  5070 net.cpp:406] res3b1_res3b1_relu_0_split <- res3b1
I0523 00:33:39.111598  5070 net.cpp:380] res3b1_res3b1_relu_0_split -> res3b1_res3b1_relu_0_split_0
I0523 00:33:39.111601  5070 net.cpp:380] res3b1_res3b1_relu_0_split -> res3b1_res3b1_relu_0_split_1
I0523 00:33:39.111631  5070 net.cpp:122] Setting up res3b1_res3b1_relu_0_split
I0523 00:33:39.111634  5070 net.cpp:129] Top shape: 5 512 28 28 (2007040)
I0523 00:33:39.111636  5070 net.cpp:129] Top shape: 5 512 28 28 (2007040)
I0523 00:33:39.111642  5070 net.cpp:137] Memory required for data: 729559060
I0523 00:33:39.111644  5070 layer_factory.hpp:77] Creating layer res3b2_branch2a
I0523 00:33:39.111649  5070 net.cpp:84] Creating Layer res3b2_branch2a
I0523 00:33:39.111650  5070 net.cpp:406] res3b2_branch2a <- res3b1_res3b1_relu_0_split_0
I0523 00:33:39.111654  5070 net.cpp:380] res3b2_branch2a -> res3b2_branch2a
I0523 00:33:39.113384  5070 net.cpp:122] Setting up res3b2_branch2a
I0523 00:33:39.113389  5070 net.cpp:129] Top shape: 5 128 28 28 (501760)
I0523 00:33:39.113391  5070 net.cpp:137] Memory required for data: 731566100
I0523 00:33:39.113394  5070 layer_factory.hpp:77] Creating layer bn3b2_branch2a
I0523 00:33:39.113397  5070 net.cpp:84] Creating Layer bn3b2_branch2a
I0523 00:33:39.113400  5070 net.cpp:406] bn3b2_branch2a <- res3b2_branch2a
I0523 00:33:39.113402  5070 net.cpp:367] bn3b2_branch2a -> res3b2_branch2a (in-place)
I0523 00:33:39.113551  5070 net.cpp:122] Setting up bn3b2_branch2a
I0523 00:33:39.113554  5070 net.cpp:129] Top shape: 5 128 28 28 (501760)
I0523 00:33:39.113556  5070 net.cpp:137] Memory required for data: 733573140
I0523 00:33:39.113559  5070 layer_factory.hpp:77] Creating layer scale3b2_branch2a
I0523 00:33:39.113562  5070 net.cpp:84] Creating Layer scale3b2_branch2a
I0523 00:33:39.113564  5070 net.cpp:406] scale3b2_branch2a <- res3b2_branch2a
I0523 00:33:39.113567  5070 net.cpp:367] scale3b2_branch2a -> res3b2_branch2a (in-place)
I0523 00:33:39.113591  5070 layer_factory.hpp:77] Creating layer scale3b2_branch2a
I0523 00:33:39.113670  5070 net.cpp:122] Setting up scale3b2_branch2a
I0523 00:33:39.113673  5070 net.cpp:129] Top shape: 5 128 28 28 (501760)
I0523 00:33:39.113675  5070 net.cpp:137] Memory required for data: 735580180
I0523 00:33:39.113677  5070 layer_factory.hpp:77] Creating layer res3b2_branch2a_relu
I0523 00:33:39.113680  5070 net.cpp:84] Creating Layer res3b2_branch2a_relu
I0523 00:33:39.113682  5070 net.cpp:406] res3b2_branch2a_relu <- res3b2_branch2a
I0523 00:33:39.113684  5070 net.cpp:367] res3b2_branch2a_relu -> res3b2_branch2a (in-place)
I0523 00:33:39.114042  5070 net.cpp:122] Setting up res3b2_branch2a_relu
I0523 00:33:39.114046  5070 net.cpp:129] Top shape: 5 128 28 28 (501760)
I0523 00:33:39.114048  5070 net.cpp:137] Memory required for data: 737587220
I0523 00:33:39.114050  5070 layer_factory.hpp:77] Creating layer res3b2_branch2b
I0523 00:33:39.114055  5070 net.cpp:84] Creating Layer res3b2_branch2b
I0523 00:33:39.114058  5070 net.cpp:406] res3b2_branch2b <- res3b2_branch2a
I0523 00:33:39.114059  5070 net.cpp:380] res3b2_branch2b -> res3b2_branch2b
I0523 00:33:39.116513  5070 net.cpp:122] Setting up res3b2_branch2b
I0523 00:33:39.116519  5070 net.cpp:129] Top shape: 5 128 28 28 (501760)
I0523 00:33:39.116521  5070 net.cpp:137] Memory required for data: 739594260
I0523 00:33:39.116524  5070 layer_factory.hpp:77] Creating layer bn3b2_branch2b
I0523 00:33:39.116528  5070 net.cpp:84] Creating Layer bn3b2_branch2b
I0523 00:33:39.116529  5070 net.cpp:406] bn3b2_branch2b <- res3b2_branch2b
I0523 00:33:39.116533  5070 net.cpp:367] bn3b2_branch2b -> res3b2_branch2b (in-place)
I0523 00:33:39.116681  5070 net.cpp:122] Setting up bn3b2_branch2b
I0523 00:33:39.116684  5070 net.cpp:129] Top shape: 5 128 28 28 (501760)
I0523 00:33:39.116685  5070 net.cpp:137] Memory required for data: 741601300
I0523 00:33:39.116689  5070 layer_factory.hpp:77] Creating layer scale3b2_branch2b
I0523 00:33:39.116693  5070 net.cpp:84] Creating Layer scale3b2_branch2b
I0523 00:33:39.116694  5070 net.cpp:406] scale3b2_branch2b <- res3b2_branch2b
I0523 00:33:39.116696  5070 net.cpp:367] scale3b2_branch2b -> res3b2_branch2b (in-place)
I0523 00:33:39.116727  5070 layer_factory.hpp:77] Creating layer scale3b2_branch2b
I0523 00:33:39.116806  5070 net.cpp:122] Setting up scale3b2_branch2b
I0523 00:33:39.116808  5070 net.cpp:129] Top shape: 5 128 28 28 (501760)
I0523 00:33:39.116811  5070 net.cpp:137] Memory required for data: 743608340
I0523 00:33:39.116813  5070 layer_factory.hpp:77] Creating layer res3b2_branch2b_relu
I0523 00:33:39.116822  5070 net.cpp:84] Creating Layer res3b2_branch2b_relu
I0523 00:33:39.116823  5070 net.cpp:406] res3b2_branch2b_relu <- res3b2_branch2b
I0523 00:33:39.116825  5070 net.cpp:367] res3b2_branch2b_relu -> res3b2_branch2b (in-place)
I0523 00:33:39.117179  5070 net.cpp:122] Setting up res3b2_branch2b_relu
I0523 00:33:39.117184  5070 net.cpp:129] Top shape: 5 128 28 28 (501760)
I0523 00:33:39.117187  5070 net.cpp:137] Memory required for data: 745615380
I0523 00:33:39.117188  5070 layer_factory.hpp:77] Creating layer res3b2_branch2c
I0523 00:33:39.117192  5070 net.cpp:84] Creating Layer res3b2_branch2c
I0523 00:33:39.117194  5070 net.cpp:406] res3b2_branch2c <- res3b2_branch2b
I0523 00:33:39.117197  5070 net.cpp:380] res3b2_branch2c -> res3b2_branch2c
I0523 00:33:39.118958  5070 net.cpp:122] Setting up res3b2_branch2c
I0523 00:33:39.118964  5070 net.cpp:129] Top shape: 5 512 28 28 (2007040)
I0523 00:33:39.118966  5070 net.cpp:137] Memory required for data: 753643540
I0523 00:33:39.118969  5070 layer_factory.hpp:77] Creating layer bn3b2_branch2c
I0523 00:33:39.118973  5070 net.cpp:84] Creating Layer bn3b2_branch2c
I0523 00:33:39.118975  5070 net.cpp:406] bn3b2_branch2c <- res3b2_branch2c
I0523 00:33:39.118978  5070 net.cpp:367] bn3b2_branch2c -> res3b2_branch2c (in-place)
I0523 00:33:39.119122  5070 net.cpp:122] Setting up bn3b2_branch2c
I0523 00:33:39.119124  5070 net.cpp:129] Top shape: 5 512 28 28 (2007040)
I0523 00:33:39.119127  5070 net.cpp:137] Memory required for data: 761671700
I0523 00:33:39.119129  5070 layer_factory.hpp:77] Creating layer scale3b2_branch2c
I0523 00:33:39.119132  5070 net.cpp:84] Creating Layer scale3b2_branch2c
I0523 00:33:39.119134  5070 net.cpp:406] scale3b2_branch2c <- res3b2_branch2c
I0523 00:33:39.119138  5070 net.cpp:367] scale3b2_branch2c -> res3b2_branch2c (in-place)
I0523 00:33:39.119163  5070 layer_factory.hpp:77] Creating layer scale3b2_branch2c
I0523 00:33:39.119246  5070 net.cpp:122] Setting up scale3b2_branch2c
I0523 00:33:39.119249  5070 net.cpp:129] Top shape: 5 512 28 28 (2007040)
I0523 00:33:39.119251  5070 net.cpp:137] Memory required for data: 769699860
I0523 00:33:39.119253  5070 layer_factory.hpp:77] Creating layer res3b2
I0523 00:33:39.119257  5070 net.cpp:84] Creating Layer res3b2
I0523 00:33:39.119259  5070 net.cpp:406] res3b2 <- res3b1_res3b1_relu_0_split_1
I0523 00:33:39.119262  5070 net.cpp:406] res3b2 <- res3b2_branch2c
I0523 00:33:39.119264  5070 net.cpp:380] res3b2 -> res3b2
I0523 00:33:39.119280  5070 net.cpp:122] Setting up res3b2
I0523 00:33:39.119283  5070 net.cpp:129] Top shape: 5 512 28 28 (2007040)
I0523 00:33:39.119285  5070 net.cpp:137] Memory required for data: 777728020
I0523 00:33:39.119287  5070 layer_factory.hpp:77] Creating layer res3b2_relu
I0523 00:33:39.119289  5070 net.cpp:84] Creating Layer res3b2_relu
I0523 00:33:39.119292  5070 net.cpp:406] res3b2_relu <- res3b2
I0523 00:33:39.119293  5070 net.cpp:367] res3b2_relu -> res3b2 (in-place)
I0523 00:33:39.119755  5070 net.cpp:122] Setting up res3b2_relu
I0523 00:33:39.119760  5070 net.cpp:129] Top shape: 5 512 28 28 (2007040)
I0523 00:33:39.119762  5070 net.cpp:137] Memory required for data: 785756180
I0523 00:33:39.119765  5070 layer_factory.hpp:77] Creating layer res3b2_res3b2_relu_0_split
I0523 00:33:39.119767  5070 net.cpp:84] Creating Layer res3b2_res3b2_relu_0_split
I0523 00:33:39.119770  5070 net.cpp:406] res3b2_res3b2_relu_0_split <- res3b2
I0523 00:33:39.119773  5070 net.cpp:380] res3b2_res3b2_relu_0_split -> res3b2_res3b2_relu_0_split_0
I0523 00:33:39.119777  5070 net.cpp:380] res3b2_res3b2_relu_0_split -> res3b2_res3b2_relu_0_split_1
I0523 00:33:39.119808  5070 net.cpp:122] Setting up res3b2_res3b2_relu_0_split
I0523 00:33:39.119812  5070 net.cpp:129] Top shape: 5 512 28 28 (2007040)
I0523 00:33:39.119813  5070 net.cpp:129] Top shape: 5 512 28 28 (2007040)
I0523 00:33:39.119815  5070 net.cpp:137] Memory required for data: 801812500
I0523 00:33:39.119817  5070 layer_factory.hpp:77] Creating layer res3b3_branch2a
I0523 00:33:39.119822  5070 net.cpp:84] Creating Layer res3b3_branch2a
I0523 00:33:39.119827  5070 net.cpp:406] res3b3_branch2a <- res3b2_res3b2_relu_0_split_0
I0523 00:33:39.119830  5070 net.cpp:380] res3b3_branch2a -> res3b3_branch2a
I0523 00:33:39.122135  5070 net.cpp:122] Setting up res3b3_branch2a
I0523 00:33:39.122141  5070 net.cpp:129] Top shape: 5 128 28 28 (501760)
I0523 00:33:39.122143  5070 net.cpp:137] Memory required for data: 803819540
I0523 00:33:39.122146  5070 layer_factory.hpp:77] Creating layer bn3b3_branch2a
I0523 00:33:39.122149  5070 net.cpp:84] Creating Layer bn3b3_branch2a
I0523 00:33:39.122153  5070 net.cpp:406] bn3b3_branch2a <- res3b3_branch2a
I0523 00:33:39.122155  5070 net.cpp:367] bn3b3_branch2a -> res3b3_branch2a (in-place)
I0523 00:33:39.122308  5070 net.cpp:122] Setting up bn3b3_branch2a
I0523 00:33:39.122311  5070 net.cpp:129] Top shape: 5 128 28 28 (501760)
I0523 00:33:39.122313  5070 net.cpp:137] Memory required for data: 805826580
I0523 00:33:39.122323  5070 layer_factory.hpp:77] Creating layer scale3b3_branch2a
I0523 00:33:39.122325  5070 net.cpp:84] Creating Layer scale3b3_branch2a
I0523 00:33:39.122328  5070 net.cpp:406] scale3b3_branch2a <- res3b3_branch2a
I0523 00:33:39.122329  5070 net.cpp:367] scale3b3_branch2a -> res3b3_branch2a (in-place)
I0523 00:33:39.122357  5070 layer_factory.hpp:77] Creating layer scale3b3_branch2a
I0523 00:33:39.122438  5070 net.cpp:122] Setting up scale3b3_branch2a
I0523 00:33:39.122442  5070 net.cpp:129] Top shape: 5 128 28 28 (501760)
I0523 00:33:39.122442  5070 net.cpp:137] Memory required for data: 807833620
I0523 00:33:39.122445  5070 layer_factory.hpp:77] Creating layer res3b3_branch2a_relu
I0523 00:33:39.122449  5070 net.cpp:84] Creating Layer res3b3_branch2a_relu
I0523 00:33:39.122452  5070 net.cpp:406] res3b3_branch2a_relu <- res3b3_branch2a
I0523 00:33:39.122453  5070 net.cpp:367] res3b3_branch2a_relu -> res3b3_branch2a (in-place)
I0523 00:33:39.122815  5070 net.cpp:122] Setting up res3b3_branch2a_relu
I0523 00:33:39.122819  5070 net.cpp:129] Top shape: 5 128 28 28 (501760)
I0523 00:33:39.122822  5070 net.cpp:137] Memory required for data: 809840660
I0523 00:33:39.122823  5070 layer_factory.hpp:77] Creating layer res3b3_branch2b
I0523 00:33:39.122828  5070 net.cpp:84] Creating Layer res3b3_branch2b
I0523 00:33:39.122831  5070 net.cpp:406] res3b3_branch2b <- res3b3_branch2a
I0523 00:33:39.122834  5070 net.cpp:380] res3b3_branch2b -> res3b3_branch2b
I0523 00:33:39.125169  5070 net.cpp:122] Setting up res3b3_branch2b
I0523 00:33:39.125174  5070 net.cpp:129] Top shape: 5 128 28 28 (501760)
I0523 00:33:39.125176  5070 net.cpp:137] Memory required for data: 811847700
I0523 00:33:39.125180  5070 layer_factory.hpp:77] Creating layer bn3b3_branch2b
I0523 00:33:39.125183  5070 net.cpp:84] Creating Layer bn3b3_branch2b
I0523 00:33:39.125185  5070 net.cpp:406] bn3b3_branch2b <- res3b3_branch2b
I0523 00:33:39.125188  5070 net.cpp:367] bn3b3_branch2b -> res3b3_branch2b (in-place)
I0523 00:33:39.125339  5070 net.cpp:122] Setting up bn3b3_branch2b
I0523 00:33:39.125341  5070 net.cpp:129] Top shape: 5 128 28 28 (501760)
I0523 00:33:39.125344  5070 net.cpp:137] Memory required for data: 813854740
I0523 00:33:39.125346  5070 layer_factory.hpp:77] Creating layer scale3b3_branch2b
I0523 00:33:39.125349  5070 net.cpp:84] Creating Layer scale3b3_branch2b
I0523 00:33:39.125351  5070 net.cpp:406] scale3b3_branch2b <- res3b3_branch2b
I0523 00:33:39.125353  5070 net.cpp:367] scale3b3_branch2b -> res3b3_branch2b (in-place)
I0523 00:33:39.125381  5070 layer_factory.hpp:77] Creating layer scale3b3_branch2b
I0523 00:33:39.125468  5070 net.cpp:122] Setting up scale3b3_branch2b
I0523 00:33:39.125471  5070 net.cpp:129] Top shape: 5 128 28 28 (501760)
I0523 00:33:39.125473  5070 net.cpp:137] Memory required for data: 815861780
I0523 00:33:39.125476  5070 layer_factory.hpp:77] Creating layer res3b3_branch2b_relu
I0523 00:33:39.125479  5070 net.cpp:84] Creating Layer res3b3_branch2b_relu
I0523 00:33:39.125481  5070 net.cpp:406] res3b3_branch2b_relu <- res3b3_branch2b
I0523 00:33:39.125484  5070 net.cpp:367] res3b3_branch2b_relu -> res3b3_branch2b (in-place)
I0523 00:33:39.125949  5070 net.cpp:122] Setting up res3b3_branch2b_relu
I0523 00:33:39.125954  5070 net.cpp:129] Top shape: 5 128 28 28 (501760)
I0523 00:33:39.125957  5070 net.cpp:137] Memory required for data: 817868820
I0523 00:33:39.125958  5070 layer_factory.hpp:77] Creating layer res3b3_branch2c
I0523 00:33:39.125963  5070 net.cpp:84] Creating Layer res3b3_branch2c
I0523 00:33:39.125965  5070 net.cpp:406] res3b3_branch2c <- res3b3_branch2b
I0523 00:33:39.125968  5070 net.cpp:380] res3b3_branch2c -> res3b3_branch2c
I0523 00:33:39.127719  5070 net.cpp:122] Setting up res3b3_branch2c
I0523 00:33:39.127725  5070 net.cpp:129] Top shape: 5 512 28 28 (2007040)
I0523 00:33:39.127727  5070 net.cpp:137] Memory required for data: 825896980
I0523 00:33:39.127730  5070 layer_factory.hpp:77] Creating layer bn3b3_branch2c
I0523 00:33:39.127734  5070 net.cpp:84] Creating Layer bn3b3_branch2c
I0523 00:33:39.127737  5070 net.cpp:406] bn3b3_branch2c <- res3b3_branch2c
I0523 00:33:39.127739  5070 net.cpp:367] bn3b3_branch2c -> res3b3_branch2c (in-place)
I0523 00:33:39.127894  5070 net.cpp:122] Setting up bn3b3_branch2c
I0523 00:33:39.127897  5070 net.cpp:129] Top shape: 5 512 28 28 (2007040)
I0523 00:33:39.127899  5070 net.cpp:137] Memory required for data: 833925140
I0523 00:33:39.127902  5070 layer_factory.hpp:77] Creating layer scale3b3_branch2c
I0523 00:33:39.127905  5070 net.cpp:84] Creating Layer scale3b3_branch2c
I0523 00:33:39.127907  5070 net.cpp:406] scale3b3_branch2c <- res3b3_branch2c
I0523 00:33:39.127909  5070 net.cpp:367] scale3b3_branch2c -> res3b3_branch2c (in-place)
I0523 00:33:39.127936  5070 layer_factory.hpp:77] Creating layer scale3b3_branch2c
I0523 00:33:39.128016  5070 net.cpp:122] Setting up scale3b3_branch2c
I0523 00:33:39.128021  5070 net.cpp:129] Top shape: 5 512 28 28 (2007040)
I0523 00:33:39.128022  5070 net.cpp:137] Memory required for data: 841953300
I0523 00:33:39.128024  5070 layer_factory.hpp:77] Creating layer res3b3
I0523 00:33:39.128027  5070 net.cpp:84] Creating Layer res3b3
I0523 00:33:39.128029  5070 net.cpp:406] res3b3 <- res3b2_res3b2_relu_0_split_1
I0523 00:33:39.128031  5070 net.cpp:406] res3b3 <- res3b3_branch2c
I0523 00:33:39.128034  5070 net.cpp:380] res3b3 -> res3b3
I0523 00:33:39.128057  5070 net.cpp:122] Setting up res3b3
I0523 00:33:39.128060  5070 net.cpp:129] Top shape: 5 512 28 28 (2007040)
I0523 00:33:39.128062  5070 net.cpp:137] Memory required for data: 849981460
I0523 00:33:39.128063  5070 layer_factory.hpp:77] Creating layer res3b3_relu
I0523 00:33:39.128067  5070 net.cpp:84] Creating Layer res3b3_relu
I0523 00:33:39.128069  5070 net.cpp:406] res3b3_relu <- res3b3
I0523 00:33:39.128072  5070 net.cpp:367] res3b3_relu -> res3b3 (in-place)
I0523 00:33:39.128422  5070 net.cpp:122] Setting up res3b3_relu
I0523 00:33:39.128425  5070 net.cpp:129] Top shape: 5 512 28 28 (2007040)
I0523 00:33:39.128428  5070 net.cpp:137] Memory required for data: 858009620
I0523 00:33:39.128430  5070 layer_factory.hpp:77] Creating layer res3b3_res3b3_relu_0_split
I0523 00:33:39.128433  5070 net.cpp:84] Creating Layer res3b3_res3b3_relu_0_split
I0523 00:33:39.128435  5070 net.cpp:406] res3b3_res3b3_relu_0_split <- res3b3
I0523 00:33:39.128438  5070 net.cpp:380] res3b3_res3b3_relu_0_split -> res3b3_res3b3_relu_0_split_0
I0523 00:33:39.128443  5070 net.cpp:380] res3b3_res3b3_relu_0_split -> res3b3_res3b3_relu_0_split_1
I0523 00:33:39.128471  5070 net.cpp:122] Setting up res3b3_res3b3_relu_0_split
I0523 00:33:39.128474  5070 net.cpp:129] Top shape: 5 512 28 28 (2007040)
I0523 00:33:39.128477  5070 net.cpp:129] Top shape: 5 512 28 28 (2007040)
I0523 00:33:39.128479  5070 net.cpp:137] Memory required for data: 874065940
I0523 00:33:39.128480  5070 layer_factory.hpp:77] Creating layer res3b4_branch2a
I0523 00:33:39.128485  5070 net.cpp:84] Creating Layer res3b4_branch2a
I0523 00:33:39.128487  5070 net.cpp:406] res3b4_branch2a <- res3b3_res3b3_relu_0_split_0
I0523 00:33:39.128490  5070 net.cpp:380] res3b4_branch2a -> res3b4_branch2a
I0523 00:33:39.130327  5070 net.cpp:122] Setting up res3b4_branch2a
I0523 00:33:39.130338  5070 net.cpp:129] Top shape: 5 128 28 28 (501760)
I0523 00:33:39.130339  5070 net.cpp:137] Memory required for data: 876072980
I0523 00:33:39.130342  5070 layer_factory.hpp:77] Creating layer bn3b4_branch2a
I0523 00:33:39.130347  5070 net.cpp:84] Creating Layer bn3b4_branch2a
I0523 00:33:39.130349  5070 net.cpp:406] bn3b4_branch2a <- res3b4_branch2a
I0523 00:33:39.130352  5070 net.cpp:367] bn3b4_branch2a -> res3b4_branch2a (in-place)
I0523 00:33:39.130508  5070 net.cpp:122] Setting up bn3b4_branch2a
I0523 00:33:39.130511  5070 net.cpp:129] Top shape: 5 128 28 28 (501760)
I0523 00:33:39.130513  5070 net.cpp:137] Memory required for data: 878080020
I0523 00:33:39.130517  5070 layer_factory.hpp:77] Creating layer scale3b4_branch2a
I0523 00:33:39.130519  5070 net.cpp:84] Creating Layer scale3b4_branch2a
I0523 00:33:39.130522  5070 net.cpp:406] scale3b4_branch2a <- res3b4_branch2a
I0523 00:33:39.130523  5070 net.cpp:367] scale3b4_branch2a -> res3b4_branch2a (in-place)
I0523 00:33:39.130550  5070 layer_factory.hpp:77] Creating layer scale3b4_branch2a
I0523 00:33:39.130632  5070 net.cpp:122] Setting up scale3b4_branch2a
I0523 00:33:39.130635  5070 net.cpp:129] Top shape: 5 128 28 28 (501760)
I0523 00:33:39.130637  5070 net.cpp:137] Memory required for data: 880087060
I0523 00:33:39.130640  5070 layer_factory.hpp:77] Creating layer res3b4_branch2a_relu
I0523 00:33:39.130643  5070 net.cpp:84] Creating Layer res3b4_branch2a_relu
I0523 00:33:39.130645  5070 net.cpp:406] res3b4_branch2a_relu <- res3b4_branch2a
I0523 00:33:39.130647  5070 net.cpp:367] res3b4_branch2a_relu -> res3b4_branch2a (in-place)
I0523 00:33:39.131011  5070 net.cpp:122] Setting up res3b4_branch2a_relu
I0523 00:33:39.131016  5070 net.cpp:129] Top shape: 5 128 28 28 (501760)
I0523 00:33:39.131016  5070 net.cpp:137] Memory required for data: 882094100
I0523 00:33:39.131018  5070 layer_factory.hpp:77] Creating layer res3b4_branch2b
I0523 00:33:39.131023  5070 net.cpp:84] Creating Layer res3b4_branch2b
I0523 00:33:39.131026  5070 net.cpp:406] res3b4_branch2b <- res3b4_branch2a
I0523 00:33:39.131028  5070 net.cpp:380] res3b4_branch2b -> res3b4_branch2b
I0523 00:33:39.134016  5070 net.cpp:122] Setting up res3b4_branch2b
I0523 00:33:39.134023  5070 net.cpp:129] Top shape: 5 128 28 28 (501760)
I0523 00:33:39.134025  5070 net.cpp:137] Memory required for data: 884101140
I0523 00:33:39.134028  5070 layer_factory.hpp:77] Creating layer bn3b4_branch2b
I0523 00:33:39.134032  5070 net.cpp:84] Creating Layer bn3b4_branch2b
I0523 00:33:39.134033  5070 net.cpp:406] bn3b4_branch2b <- res3b4_branch2b
I0523 00:33:39.134037  5070 net.cpp:367] bn3b4_branch2b -> res3b4_branch2b (in-place)
I0523 00:33:39.134197  5070 net.cpp:122] Setting up bn3b4_branch2b
I0523 00:33:39.134201  5070 net.cpp:129] Top shape: 5 128 28 28 (501760)
I0523 00:33:39.134202  5070 net.cpp:137] Memory required for data: 886108180
I0523 00:33:39.134207  5070 layer_factory.hpp:77] Creating layer scale3b4_branch2b
I0523 00:33:39.134208  5070 net.cpp:84] Creating Layer scale3b4_branch2b
I0523 00:33:39.134212  5070 net.cpp:406] scale3b4_branch2b <- res3b4_branch2b
I0523 00:33:39.134213  5070 net.cpp:367] scale3b4_branch2b -> res3b4_branch2b (in-place)
I0523 00:33:39.134241  5070 layer_factory.hpp:77] Creating layer scale3b4_branch2b
I0523 00:33:39.134330  5070 net.cpp:122] Setting up scale3b4_branch2b
I0523 00:33:39.134332  5070 net.cpp:129] Top shape: 5 128 28 28 (501760)
I0523 00:33:39.134335  5070 net.cpp:137] Memory required for data: 888115220
I0523 00:33:39.134336  5070 layer_factory.hpp:77] Creating layer res3b4_branch2b_relu
I0523 00:33:39.134341  5070 net.cpp:84] Creating Layer res3b4_branch2b_relu
I0523 00:33:39.134342  5070 net.cpp:406] res3b4_branch2b_relu <- res3b4_branch2b
I0523 00:33:39.134344  5070 net.cpp:367] res3b4_branch2b_relu -> res3b4_branch2b (in-place)
I0523 00:33:39.134697  5070 net.cpp:122] Setting up res3b4_branch2b_relu
I0523 00:33:39.134701  5070 net.cpp:129] Top shape: 5 128 28 28 (501760)
I0523 00:33:39.134703  5070 net.cpp:137] Memory required for data: 890122260
I0523 00:33:39.134711  5070 layer_factory.hpp:77] Creating layer res3b4_branch2c
I0523 00:33:39.134716  5070 net.cpp:84] Creating Layer res3b4_branch2c
I0523 00:33:39.134717  5070 net.cpp:406] res3b4_branch2c <- res3b4_branch2b
I0523 00:33:39.134721  5070 net.cpp:380] res3b4_branch2c -> res3b4_branch2c
I0523 00:33:39.136570  5070 net.cpp:122] Setting up res3b4_branch2c
I0523 00:33:39.136576  5070 net.cpp:129] Top shape: 5 512 28 28 (2007040)
I0523 00:33:39.136581  5070 net.cpp:137] Memory required for data: 898150420
I0523 00:33:39.136585  5070 layer_factory.hpp:77] Creating layer bn3b4_branch2c
I0523 00:33:39.136590  5070 net.cpp:84] Creating Layer bn3b4_branch2c
I0523 00:33:39.136592  5070 net.cpp:406] bn3b4_branch2c <- res3b4_branch2c
I0523 00:33:39.136595  5070 net.cpp:367] bn3b4_branch2c -> res3b4_branch2c (in-place)
I0523 00:33:39.136747  5070 net.cpp:122] Setting up bn3b4_branch2c
I0523 00:33:39.136750  5070 net.cpp:129] Top shape: 5 512 28 28 (2007040)
I0523 00:33:39.136752  5070 net.cpp:137] Memory required for data: 906178580
I0523 00:33:39.136755  5070 layer_factory.hpp:77] Creating layer scale3b4_branch2c
I0523 00:33:39.136759  5070 net.cpp:84] Creating Layer scale3b4_branch2c
I0523 00:33:39.136761  5070 net.cpp:406] scale3b4_branch2c <- res3b4_branch2c
I0523 00:33:39.136764  5070 net.cpp:367] scale3b4_branch2c -> res3b4_branch2c (in-place)
I0523 00:33:39.136791  5070 layer_factory.hpp:77] Creating layer scale3b4_branch2c
I0523 00:33:39.136878  5070 net.cpp:122] Setting up scale3b4_branch2c
I0523 00:33:39.136881  5070 net.cpp:129] Top shape: 5 512 28 28 (2007040)
I0523 00:33:39.136883  5070 net.cpp:137] Memory required for data: 914206740
I0523 00:33:39.136885  5070 layer_factory.hpp:77] Creating layer res3b4
I0523 00:33:39.136888  5070 net.cpp:84] Creating Layer res3b4
I0523 00:33:39.136890  5070 net.cpp:406] res3b4 <- res3b3_res3b3_relu_0_split_1
I0523 00:33:39.136893  5070 net.cpp:406] res3b4 <- res3b4_branch2c
I0523 00:33:39.136896  5070 net.cpp:380] res3b4 -> res3b4
I0523 00:33:39.136912  5070 net.cpp:122] Setting up res3b4
I0523 00:33:39.136915  5070 net.cpp:129] Top shape: 5 512 28 28 (2007040)
I0523 00:33:39.136919  5070 net.cpp:137] Memory required for data: 922234900
I0523 00:33:39.136919  5070 layer_factory.hpp:77] Creating layer res3b4_relu
I0523 00:33:39.136922  5070 net.cpp:84] Creating Layer res3b4_relu
I0523 00:33:39.136924  5070 net.cpp:406] res3b4_relu <- res3b4
I0523 00:33:39.136926  5070 net.cpp:367] res3b4_relu -> res3b4 (in-place)
I0523 00:33:39.137281  5070 net.cpp:122] Setting up res3b4_relu
I0523 00:33:39.137285  5070 net.cpp:129] Top shape: 5 512 28 28 (2007040)
I0523 00:33:39.137287  5070 net.cpp:137] Memory required for data: 930263060
I0523 00:33:39.137290  5070 layer_factory.hpp:77] Creating layer res3b4_res3b4_relu_0_split
I0523 00:33:39.137292  5070 net.cpp:84] Creating Layer res3b4_res3b4_relu_0_split
I0523 00:33:39.137295  5070 net.cpp:406] res3b4_res3b4_relu_0_split <- res3b4
I0523 00:33:39.137298  5070 net.cpp:380] res3b4_res3b4_relu_0_split -> res3b4_res3b4_relu_0_split_0
I0523 00:33:39.137302  5070 net.cpp:380] res3b4_res3b4_relu_0_split -> res3b4_res3b4_relu_0_split_1
I0523 00:33:39.137333  5070 net.cpp:122] Setting up res3b4_res3b4_relu_0_split
I0523 00:33:39.137336  5070 net.cpp:129] Top shape: 5 512 28 28 (2007040)
I0523 00:33:39.137338  5070 net.cpp:129] Top shape: 5 512 28 28 (2007040)
I0523 00:33:39.137341  5070 net.cpp:137] Memory required for data: 946319380
I0523 00:33:39.137341  5070 layer_factory.hpp:77] Creating layer res3b5_branch2a
I0523 00:33:39.137346  5070 net.cpp:84] Creating Layer res3b5_branch2a
I0523 00:33:39.137348  5070 net.cpp:406] res3b5_branch2a <- res3b4_res3b4_relu_0_split_0
I0523 00:33:39.137351  5070 net.cpp:380] res3b5_branch2a -> res3b5_branch2a
I0523 00:33:39.139199  5070 net.cpp:122] Setting up res3b5_branch2a
I0523 00:33:39.139205  5070 net.cpp:129] Top shape: 5 128 28 28 (501760)
I0523 00:33:39.139207  5070 net.cpp:137] Memory required for data: 948326420
I0523 00:33:39.139209  5070 layer_factory.hpp:77] Creating layer bn3b5_branch2a
I0523 00:33:39.139222  5070 net.cpp:84] Creating Layer bn3b5_branch2a
I0523 00:33:39.139225  5070 net.cpp:406] bn3b5_branch2a <- res3b5_branch2a
I0523 00:33:39.139228  5070 net.cpp:367] bn3b5_branch2a -> res3b5_branch2a (in-place)
I0523 00:33:39.139379  5070 net.cpp:122] Setting up bn3b5_branch2a
I0523 00:33:39.139382  5070 net.cpp:129] Top shape: 5 128 28 28 (501760)
I0523 00:33:39.139384  5070 net.cpp:137] Memory required for data: 950333460
I0523 00:33:39.139387  5070 layer_factory.hpp:77] Creating layer scale3b5_branch2a
I0523 00:33:39.139390  5070 net.cpp:84] Creating Layer scale3b5_branch2a
I0523 00:33:39.139392  5070 net.cpp:406] scale3b5_branch2a <- res3b5_branch2a
I0523 00:33:39.139394  5070 net.cpp:367] scale3b5_branch2a -> res3b5_branch2a (in-place)
I0523 00:33:39.139422  5070 layer_factory.hpp:77] Creating layer scale3b5_branch2a
I0523 00:33:39.139510  5070 net.cpp:122] Setting up scale3b5_branch2a
I0523 00:33:39.139513  5070 net.cpp:129] Top shape: 5 128 28 28 (501760)
I0523 00:33:39.139515  5070 net.cpp:137] Memory required for data: 952340500
I0523 00:33:39.139518  5070 layer_factory.hpp:77] Creating layer res3b5_branch2a_relu
I0523 00:33:39.139525  5070 net.cpp:84] Creating Layer res3b5_branch2a_relu
I0523 00:33:39.139528  5070 net.cpp:406] res3b5_branch2a_relu <- res3b5_branch2a
I0523 00:33:39.139529  5070 net.cpp:367] res3b5_branch2a_relu -> res3b5_branch2a (in-place)
I0523 00:33:39.139994  5070 net.cpp:122] Setting up res3b5_branch2a_relu
I0523 00:33:39.139999  5070 net.cpp:129] Top shape: 5 128 28 28 (501760)
I0523 00:33:39.140002  5070 net.cpp:137] Memory required for data: 954347540
I0523 00:33:39.140003  5070 layer_factory.hpp:77] Creating layer res3b5_branch2b
I0523 00:33:39.140008  5070 net.cpp:84] Creating Layer res3b5_branch2b
I0523 00:33:39.140010  5070 net.cpp:406] res3b5_branch2b <- res3b5_branch2a
I0523 00:33:39.140014  5070 net.cpp:380] res3b5_branch2b -> res3b5_branch2b
I0523 00:33:39.142374  5070 net.cpp:122] Setting up res3b5_branch2b
I0523 00:33:39.142379  5070 net.cpp:129] Top shape: 5 128 28 28 (501760)
I0523 00:33:39.142381  5070 net.cpp:137] Memory required for data: 956354580
I0523 00:33:39.142385  5070 layer_factory.hpp:77] Creating layer bn3b5_branch2b
I0523 00:33:39.142388  5070 net.cpp:84] Creating Layer bn3b5_branch2b
I0523 00:33:39.142390  5070 net.cpp:406] bn3b5_branch2b <- res3b5_branch2b
I0523 00:33:39.142393  5070 net.cpp:367] bn3b5_branch2b -> res3b5_branch2b (in-place)
I0523 00:33:39.142551  5070 net.cpp:122] Setting up bn3b5_branch2b
I0523 00:33:39.142554  5070 net.cpp:129] Top shape: 5 128 28 28 (501760)
I0523 00:33:39.142556  5070 net.cpp:137] Memory required for data: 958361620
I0523 00:33:39.142560  5070 layer_factory.hpp:77] Creating layer scale3b5_branch2b
I0523 00:33:39.142562  5070 net.cpp:84] Creating Layer scale3b5_branch2b
I0523 00:33:39.142565  5070 net.cpp:406] scale3b5_branch2b <- res3b5_branch2b
I0523 00:33:39.142568  5070 net.cpp:367] scale3b5_branch2b -> res3b5_branch2b (in-place)
I0523 00:33:39.142596  5070 layer_factory.hpp:77] Creating layer scale3b5_branch2b
I0523 00:33:39.142686  5070 net.cpp:122] Setting up scale3b5_branch2b
I0523 00:33:39.142690  5070 net.cpp:129] Top shape: 5 128 28 28 (501760)
I0523 00:33:39.142691  5070 net.cpp:137] Memory required for data: 960368660
I0523 00:33:39.142694  5070 layer_factory.hpp:77] Creating layer res3b5_branch2b_relu
I0523 00:33:39.142698  5070 net.cpp:84] Creating Layer res3b5_branch2b_relu
I0523 00:33:39.142699  5070 net.cpp:406] res3b5_branch2b_relu <- res3b5_branch2b
I0523 00:33:39.142701  5070 net.cpp:367] res3b5_branch2b_relu -> res3b5_branch2b (in-place)
I0523 00:33:39.143059  5070 net.cpp:122] Setting up res3b5_branch2b_relu
I0523 00:33:39.143064  5070 net.cpp:129] Top shape: 5 128 28 28 (501760)
I0523 00:33:39.143065  5070 net.cpp:137] Memory required for data: 962375700
I0523 00:33:39.143067  5070 layer_factory.hpp:77] Creating layer res3b5_branch2c
I0523 00:33:39.143071  5070 net.cpp:84] Creating Layer res3b5_branch2c
I0523 00:33:39.143074  5070 net.cpp:406] res3b5_branch2c <- res3b5_branch2b
I0523 00:33:39.143081  5070 net.cpp:380] res3b5_branch2c -> res3b5_branch2c
I0523 00:33:39.144843  5070 net.cpp:122] Setting up res3b5_branch2c
I0523 00:33:39.144850  5070 net.cpp:129] Top shape: 5 512 28 28 (2007040)
I0523 00:33:39.144850  5070 net.cpp:137] Memory required for data: 970403860
I0523 00:33:39.144853  5070 layer_factory.hpp:77] Creating layer bn3b5_branch2c
I0523 00:33:39.144857  5070 net.cpp:84] Creating Layer bn3b5_branch2c
I0523 00:33:39.144860  5070 net.cpp:406] bn3b5_branch2c <- res3b5_branch2c
I0523 00:33:39.144862  5070 net.cpp:367] bn3b5_branch2c -> res3b5_branch2c (in-place)
I0523 00:33:39.145020  5070 net.cpp:122] Setting up bn3b5_branch2c
I0523 00:33:39.145023  5070 net.cpp:129] Top shape: 5 512 28 28 (2007040)
I0523 00:33:39.145025  5070 net.cpp:137] Memory required for data: 978432020
I0523 00:33:39.145028  5070 layer_factory.hpp:77] Creating layer scale3b5_branch2c
I0523 00:33:39.145031  5070 net.cpp:84] Creating Layer scale3b5_branch2c
I0523 00:33:39.145033  5070 net.cpp:406] scale3b5_branch2c <- res3b5_branch2c
I0523 00:33:39.145035  5070 net.cpp:367] scale3b5_branch2c -> res3b5_branch2c (in-place)
I0523 00:33:39.145064  5070 layer_factory.hpp:77] Creating layer scale3b5_branch2c
I0523 00:33:39.145144  5070 net.cpp:122] Setting up scale3b5_branch2c
I0523 00:33:39.145148  5070 net.cpp:129] Top shape: 5 512 28 28 (2007040)
I0523 00:33:39.145149  5070 net.cpp:137] Memory required for data: 986460180
I0523 00:33:39.145153  5070 layer_factory.hpp:77] Creating layer res3b5
I0523 00:33:39.145155  5070 net.cpp:84] Creating Layer res3b5
I0523 00:33:39.145159  5070 net.cpp:406] res3b5 <- res3b4_res3b4_relu_0_split_1
I0523 00:33:39.145160  5070 net.cpp:406] res3b5 <- res3b5_branch2c
I0523 00:33:39.145164  5070 net.cpp:380] res3b5 -> res3b5
I0523 00:33:39.145179  5070 net.cpp:122] Setting up res3b5
I0523 00:33:39.145186  5070 net.cpp:129] Top shape: 5 512 28 28 (2007040)
I0523 00:33:39.145190  5070 net.cpp:137] Memory required for data: 994488340
I0523 00:33:39.145190  5070 layer_factory.hpp:77] Creating layer res3b5_relu
I0523 00:33:39.145193  5070 net.cpp:84] Creating Layer res3b5_relu
I0523 00:33:39.145195  5070 net.cpp:406] res3b5_relu <- res3b5
I0523 00:33:39.145198  5070 net.cpp:367] res3b5_relu -> res3b5 (in-place)
I0523 00:33:39.145663  5070 net.cpp:122] Setting up res3b5_relu
I0523 00:33:39.145668  5070 net.cpp:129] Top shape: 5 512 28 28 (2007040)
I0523 00:33:39.145670  5070 net.cpp:137] Memory required for data: 1002516500
I0523 00:33:39.145673  5070 layer_factory.hpp:77] Creating layer res3b5_res3b5_relu_0_split
I0523 00:33:39.145675  5070 net.cpp:84] Creating Layer res3b5_res3b5_relu_0_split
I0523 00:33:39.145678  5070 net.cpp:406] res3b5_res3b5_relu_0_split <- res3b5
I0523 00:33:39.145681  5070 net.cpp:380] res3b5_res3b5_relu_0_split -> res3b5_res3b5_relu_0_split_0
I0523 00:33:39.145685  5070 net.cpp:380] res3b5_res3b5_relu_0_split -> res3b5_res3b5_relu_0_split_1
I0523 00:33:39.145716  5070 net.cpp:122] Setting up res3b5_res3b5_relu_0_split
I0523 00:33:39.145720  5070 net.cpp:129] Top shape: 5 512 28 28 (2007040)
I0523 00:33:39.145721  5070 net.cpp:129] Top shape: 5 512 28 28 (2007040)
I0523 00:33:39.145723  5070 net.cpp:137] Memory required for data: 1018572820
I0523 00:33:39.145725  5070 layer_factory.hpp:77] Creating layer res3b6_branch2a
I0523 00:33:39.145730  5070 net.cpp:84] Creating Layer res3b6_branch2a
I0523 00:33:39.145732  5070 net.cpp:406] res3b6_branch2a <- res3b5_res3b5_relu_0_split_0
I0523 00:33:39.145735  5070 net.cpp:380] res3b6_branch2a -> res3b6_branch2a
I0523 00:33:39.147491  5070 net.cpp:122] Setting up res3b6_branch2a
I0523 00:33:39.147497  5070 net.cpp:129] Top shape: 5 128 28 28 (501760)
I0523 00:33:39.147500  5070 net.cpp:137] Memory required for data: 1020579860
I0523 00:33:39.147502  5070 layer_factory.hpp:77] Creating layer bn3b6_branch2a
I0523 00:33:39.147506  5070 net.cpp:84] Creating Layer bn3b6_branch2a
I0523 00:33:39.147508  5070 net.cpp:406] bn3b6_branch2a <- res3b6_branch2a
I0523 00:33:39.147512  5070 net.cpp:367] bn3b6_branch2a -> res3b6_branch2a (in-place)
I0523 00:33:39.147668  5070 net.cpp:122] Setting up bn3b6_branch2a
I0523 00:33:39.147671  5070 net.cpp:129] Top shape: 5 128 28 28 (501760)
I0523 00:33:39.147673  5070 net.cpp:137] Memory required for data: 1022586900
I0523 00:33:39.147676  5070 layer_factory.hpp:77] Creating layer scale3b6_branch2a
I0523 00:33:39.147680  5070 net.cpp:84] Creating Layer scale3b6_branch2a
I0523 00:33:39.147682  5070 net.cpp:406] scale3b6_branch2a <- res3b6_branch2a
I0523 00:33:39.147684  5070 net.cpp:367] scale3b6_branch2a -> res3b6_branch2a (in-place)
I0523 00:33:39.147719  5070 layer_factory.hpp:77] Creating layer scale3b6_branch2a
I0523 00:33:39.147802  5070 net.cpp:122] Setting up scale3b6_branch2a
I0523 00:33:39.147806  5070 net.cpp:129] Top shape: 5 128 28 28 (501760)
I0523 00:33:39.147807  5070 net.cpp:137] Memory required for data: 1024593940
I0523 00:33:39.147810  5070 layer_factory.hpp:77] Creating layer res3b6_branch2a_relu
I0523 00:33:39.147814  5070 net.cpp:84] Creating Layer res3b6_branch2a_relu
I0523 00:33:39.147816  5070 net.cpp:406] res3b6_branch2a_relu <- res3b6_branch2a
I0523 00:33:39.147819  5070 net.cpp:367] res3b6_branch2a_relu -> res3b6_branch2a (in-place)
I0523 00:33:39.148174  5070 net.cpp:122] Setting up res3b6_branch2a_relu
I0523 00:33:39.148178  5070 net.cpp:129] Top shape: 5 128 28 28 (501760)
I0523 00:33:39.148180  5070 net.cpp:137] Memory required for data: 1026600980
I0523 00:33:39.148181  5070 layer_factory.hpp:77] Creating layer res3b6_branch2b
I0523 00:33:39.148187  5070 net.cpp:84] Creating Layer res3b6_branch2b
I0523 00:33:39.148190  5070 net.cpp:406] res3b6_branch2b <- res3b6_branch2a
I0523 00:33:39.148192  5070 net.cpp:380] res3b6_branch2b -> res3b6_branch2b
I0523 00:33:39.150681  5070 net.cpp:122] Setting up res3b6_branch2b
I0523 00:33:39.150687  5070 net.cpp:129] Top shape: 5 128 28 28 (501760)
I0523 00:33:39.150689  5070 net.cpp:137] Memory required for data: 1028608020
I0523 00:33:39.150692  5070 layer_factory.hpp:77] Creating layer bn3b6_branch2b
I0523 00:33:39.150696  5070 net.cpp:84] Creating Layer bn3b6_branch2b
I0523 00:33:39.150698  5070 net.cpp:406] bn3b6_branch2b <- res3b6_branch2b
I0523 00:33:39.150701  5070 net.cpp:367] bn3b6_branch2b -> res3b6_branch2b (in-place)
I0523 00:33:39.150867  5070 net.cpp:122] Setting up bn3b6_branch2b
I0523 00:33:39.150871  5070 net.cpp:129] Top shape: 5 128 28 28 (501760)
I0523 00:33:39.150873  5070 net.cpp:137] Memory required for data: 1030615060
I0523 00:33:39.150876  5070 layer_factory.hpp:77] Creating layer scale3b6_branch2b
I0523 00:33:39.150880  5070 net.cpp:84] Creating Layer scale3b6_branch2b
I0523 00:33:39.150882  5070 net.cpp:406] scale3b6_branch2b <- res3b6_branch2b
I0523 00:33:39.150884  5070 net.cpp:367] scale3b6_branch2b -> res3b6_branch2b (in-place)
I0523 00:33:39.150913  5070 layer_factory.hpp:77] Creating layer scale3b6_branch2b
I0523 00:33:39.150998  5070 net.cpp:122] Setting up scale3b6_branch2b
I0523 00:33:39.151001  5070 net.cpp:129] Top shape: 5 128 28 28 (501760)
I0523 00:33:39.151003  5070 net.cpp:137] Memory required for data: 1032622100
I0523 00:33:39.151005  5070 layer_factory.hpp:77] Creating layer res3b6_branch2b_relu
I0523 00:33:39.151008  5070 net.cpp:84] Creating Layer res3b6_branch2b_relu
I0523 00:33:39.151010  5070 net.cpp:406] res3b6_branch2b_relu <- res3b6_branch2b
I0523 00:33:39.151013  5070 net.cpp:367] res3b6_branch2b_relu -> res3b6_branch2b (in-place)
I0523 00:33:39.151371  5070 net.cpp:122] Setting up res3b6_branch2b_relu
I0523 00:33:39.151376  5070 net.cpp:129] Top shape: 5 128 28 28 (501760)
I0523 00:33:39.151377  5070 net.cpp:137] Memory required for data: 1034629140
I0523 00:33:39.151378  5070 layer_factory.hpp:77] Creating layer res3b6_branch2c
I0523 00:33:39.151384  5070 net.cpp:84] Creating Layer res3b6_branch2c
I0523 00:33:39.151386  5070 net.cpp:406] res3b6_branch2c <- res3b6_branch2b
I0523 00:33:39.151391  5070 net.cpp:380] res3b6_branch2c -> res3b6_branch2c
I0523 00:33:39.153151  5070 net.cpp:122] Setting up res3b6_branch2c
I0523 00:33:39.153157  5070 net.cpp:129] Top shape: 5 512 28 28 (2007040)
I0523 00:33:39.153163  5070 net.cpp:137] Memory required for data: 1042657300
I0523 00:33:39.153167  5070 layer_factory.hpp:77] Creating layer bn3b6_branch2c
I0523 00:33:39.153169  5070 net.cpp:84] Creating Layer bn3b6_branch2c
I0523 00:33:39.153172  5070 net.cpp:406] bn3b6_branch2c <- res3b6_branch2c
I0523 00:33:39.153175  5070 net.cpp:367] bn3b6_branch2c -> res3b6_branch2c (in-place)
I0523 00:33:39.153337  5070 net.cpp:122] Setting up bn3b6_branch2c
I0523 00:33:39.153342  5070 net.cpp:129] Top shape: 5 512 28 28 (2007040)
I0523 00:33:39.153342  5070 net.cpp:137] Memory required for data: 1050685460
I0523 00:33:39.153347  5070 layer_factory.hpp:77] Creating layer scale3b6_branch2c
I0523 00:33:39.153348  5070 net.cpp:84] Creating Layer scale3b6_branch2c
I0523 00:33:39.153350  5070 net.cpp:406] scale3b6_branch2c <- res3b6_branch2c
I0523 00:33:39.153353  5070 net.cpp:367] scale3b6_branch2c -> res3b6_branch2c (in-place)
I0523 00:33:39.153380  5070 layer_factory.hpp:77] Creating layer scale3b6_branch2c
I0523 00:33:39.153463  5070 net.cpp:122] Setting up scale3b6_branch2c
I0523 00:33:39.153466  5070 net.cpp:129] Top shape: 5 512 28 28 (2007040)
I0523 00:33:39.153468  5070 net.cpp:137] Memory required for data: 1058713620
I0523 00:33:39.153471  5070 layer_factory.hpp:77] Creating layer res3b6
I0523 00:33:39.153475  5070 net.cpp:84] Creating Layer res3b6
I0523 00:33:39.153477  5070 net.cpp:406] res3b6 <- res3b5_res3b5_relu_0_split_1
I0523 00:33:39.153479  5070 net.cpp:406] res3b6 <- res3b6_branch2c
I0523 00:33:39.153481  5070 net.cpp:380] res3b6 -> res3b6
I0523 00:33:39.153498  5070 net.cpp:122] Setting up res3b6
I0523 00:33:39.153501  5070 net.cpp:129] Top shape: 5 512 28 28 (2007040)
I0523 00:33:39.153502  5070 net.cpp:137] Memory required for data: 1066741780
I0523 00:33:39.153504  5070 layer_factory.hpp:77] Creating layer res3b6_relu
I0523 00:33:39.153506  5070 net.cpp:84] Creating Layer res3b6_relu
I0523 00:33:39.153508  5070 net.cpp:406] res3b6_relu <- res3b6
I0523 00:33:39.153512  5070 net.cpp:367] res3b6_relu -> res3b6 (in-place)
I0523 00:33:39.153986  5070 net.cpp:122] Setting up res3b6_relu
I0523 00:33:39.153991  5070 net.cpp:129] Top shape: 5 512 28 28 (2007040)
I0523 00:33:39.153993  5070 net.cpp:137] Memory required for data: 1074769940
I0523 00:33:39.153995  5070 layer_factory.hpp:77] Creating layer res3b6_res3b6_relu_0_split
I0523 00:33:39.154000  5070 net.cpp:84] Creating Layer res3b6_res3b6_relu_0_split
I0523 00:33:39.154001  5070 net.cpp:406] res3b6_res3b6_relu_0_split <- res3b6
I0523 00:33:39.154004  5070 net.cpp:380] res3b6_res3b6_relu_0_split -> res3b6_res3b6_relu_0_split_0
I0523 00:33:39.154008  5070 net.cpp:380] res3b6_res3b6_relu_0_split -> res3b6_res3b6_relu_0_split_1
I0523 00:33:39.154040  5070 net.cpp:122] Setting up res3b6_res3b6_relu_0_split
I0523 00:33:39.154043  5070 net.cpp:129] Top shape: 5 512 28 28 (2007040)
I0523 00:33:39.154045  5070 net.cpp:129] Top shape: 5 512 28 28 (2007040)
I0523 00:33:39.154047  5070 net.cpp:137] Memory required for data: 1090826260
I0523 00:33:39.154048  5070 layer_factory.hpp:77] Creating layer res3b7_branch2a
I0523 00:33:39.154053  5070 net.cpp:84] Creating Layer res3b7_branch2a
I0523 00:33:39.154055  5070 net.cpp:406] res3b7_branch2a <- res3b6_res3b6_relu_0_split_0
I0523 00:33:39.154058  5070 net.cpp:380] res3b7_branch2a -> res3b7_branch2a
I0523 00:33:39.156414  5070 net.cpp:122] Setting up res3b7_branch2a
I0523 00:33:39.156420  5070 net.cpp:129] Top shape: 5 128 28 28 (501760)
I0523 00:33:39.156422  5070 net.cpp:137] Memory required for data: 1092833300
I0523 00:33:39.156425  5070 layer_factory.hpp:77] Creating layer bn3b7_branch2a
I0523 00:33:39.156430  5070 net.cpp:84] Creating Layer bn3b7_branch2a
I0523 00:33:39.156432  5070 net.cpp:406] bn3b7_branch2a <- res3b7_branch2a
I0523 00:33:39.156435  5070 net.cpp:367] bn3b7_branch2a -> res3b7_branch2a (in-place)
I0523 00:33:39.156599  5070 net.cpp:122] Setting up bn3b7_branch2a
I0523 00:33:39.156603  5070 net.cpp:129] Top shape: 5 128 28 28 (501760)
I0523 00:33:39.156605  5070 net.cpp:137] Memory required for data: 1094840340
I0523 00:33:39.156613  5070 layer_factory.hpp:77] Creating layer scale3b7_branch2a
I0523 00:33:39.156616  5070 net.cpp:84] Creating Layer scale3b7_branch2a
I0523 00:33:39.156618  5070 net.cpp:406] scale3b7_branch2a <- res3b7_branch2a
I0523 00:33:39.156620  5070 net.cpp:367] scale3b7_branch2a -> res3b7_branch2a (in-place)
I0523 00:33:39.156649  5070 layer_factory.hpp:77] Creating layer scale3b7_branch2a
I0523 00:33:39.156734  5070 net.cpp:122] Setting up scale3b7_branch2a
I0523 00:33:39.156738  5070 net.cpp:129] Top shape: 5 128 28 28 (501760)
I0523 00:33:39.156739  5070 net.cpp:137] Memory required for data: 1096847380
I0523 00:33:39.156743  5070 layer_factory.hpp:77] Creating layer res3b7_branch2a_relu
I0523 00:33:39.156745  5070 net.cpp:84] Creating Layer res3b7_branch2a_relu
I0523 00:33:39.156747  5070 net.cpp:406] res3b7_branch2a_relu <- res3b7_branch2a
I0523 00:33:39.156750  5070 net.cpp:367] res3b7_branch2a_relu -> res3b7_branch2a (in-place)
I0523 00:33:39.157112  5070 net.cpp:122] Setting up res3b7_branch2a_relu
I0523 00:33:39.157117  5070 net.cpp:129] Top shape: 5 128 28 28 (501760)
I0523 00:33:39.157119  5070 net.cpp:137] Memory required for data: 1098854420
I0523 00:33:39.157120  5070 layer_factory.hpp:77] Creating layer res3b7_branch2b
I0523 00:33:39.157125  5070 net.cpp:84] Creating Layer res3b7_branch2b
I0523 00:33:39.157127  5070 net.cpp:406] res3b7_branch2b <- res3b7_branch2a
I0523 00:33:39.157130  5070 net.cpp:380] res3b7_branch2b -> res3b7_branch2b
I0523 00:33:39.160060  5070 net.cpp:122] Setting up res3b7_branch2b
I0523 00:33:39.160069  5070 net.cpp:129] Top shape: 5 128 28 28 (501760)
I0523 00:33:39.160071  5070 net.cpp:137] Memory required for data: 1100861460
I0523 00:33:39.160074  5070 layer_factory.hpp:77] Creating layer bn3b7_branch2b
I0523 00:33:39.160078  5070 net.cpp:84] Creating Layer bn3b7_branch2b
I0523 00:33:39.160079  5070 net.cpp:406] bn3b7_branch2b <- res3b7_branch2b
I0523 00:33:39.160084  5070 net.cpp:367] bn3b7_branch2b -> res3b7_branch2b (in-place)
I0523 00:33:39.160248  5070 net.cpp:122] Setting up bn3b7_branch2b
I0523 00:33:39.160250  5070 net.cpp:129] Top shape: 5 128 28 28 (501760)
I0523 00:33:39.160253  5070 net.cpp:137] Memory required for data: 1102868500
I0523 00:33:39.160255  5070 layer_factory.hpp:77] Creating layer scale3b7_branch2b
I0523 00:33:39.160259  5070 net.cpp:84] Creating Layer scale3b7_branch2b
I0523 00:33:39.160260  5070 net.cpp:406] scale3b7_branch2b <- res3b7_branch2b
I0523 00:33:39.160262  5070 net.cpp:367] scale3b7_branch2b -> res3b7_branch2b (in-place)
I0523 00:33:39.160291  5070 layer_factory.hpp:77] Creating layer scale3b7_branch2b
I0523 00:33:39.160383  5070 net.cpp:122] Setting up scale3b7_branch2b
I0523 00:33:39.160387  5070 net.cpp:129] Top shape: 5 128 28 28 (501760)
I0523 00:33:39.160388  5070 net.cpp:137] Memory required for data: 1104875540
I0523 00:33:39.160392  5070 layer_factory.hpp:77] Creating layer res3b7_branch2b_relu
I0523 00:33:39.160395  5070 net.cpp:84] Creating Layer res3b7_branch2b_relu
I0523 00:33:39.160398  5070 net.cpp:406] res3b7_branch2b_relu <- res3b7_branch2b
I0523 00:33:39.160399  5070 net.cpp:367] res3b7_branch2b_relu -> res3b7_branch2b (in-place)
I0523 00:33:39.160867  5070 net.cpp:122] Setting up res3b7_branch2b_relu
I0523 00:33:39.160872  5070 net.cpp:129] Top shape: 5 128 28 28 (501760)
I0523 00:33:39.160874  5070 net.cpp:137] Memory required for data: 1106882580
I0523 00:33:39.160876  5070 layer_factory.hpp:77] Creating layer res3b7_branch2c
I0523 00:33:39.160881  5070 net.cpp:84] Creating Layer res3b7_branch2c
I0523 00:33:39.160883  5070 net.cpp:406] res3b7_branch2c <- res3b7_branch2b
I0523 00:33:39.160887  5070 net.cpp:380] res3b7_branch2c -> res3b7_branch2c
I0523 00:33:39.162689  5070 net.cpp:122] Setting up res3b7_branch2c
I0523 00:33:39.162694  5070 net.cpp:129] Top shape: 5 512 28 28 (2007040)
I0523 00:33:39.162696  5070 net.cpp:137] Memory required for data: 1114910740
I0523 00:33:39.162699  5070 layer_factory.hpp:77] Creating layer bn3b7_branch2c
I0523 00:33:39.162703  5070 net.cpp:84] Creating Layer bn3b7_branch2c
I0523 00:33:39.162710  5070 net.cpp:406] bn3b7_branch2c <- res3b7_branch2c
I0523 00:33:39.162714  5070 net.cpp:367] bn3b7_branch2c -> res3b7_branch2c (in-place)
I0523 00:33:39.162881  5070 net.cpp:122] Setting up bn3b7_branch2c
I0523 00:33:39.162884  5070 net.cpp:129] Top shape: 5 512 28 28 (2007040)
I0523 00:33:39.162886  5070 net.cpp:137] Memory required for data: 1122938900
I0523 00:33:39.162889  5070 layer_factory.hpp:77] Creating layer scale3b7_branch2c
I0523 00:33:39.162894  5070 net.cpp:84] Creating Layer scale3b7_branch2c
I0523 00:33:39.162895  5070 net.cpp:406] scale3b7_branch2c <- res3b7_branch2c
I0523 00:33:39.162897  5070 net.cpp:367] scale3b7_branch2c -> res3b7_branch2c (in-place)
I0523 00:33:39.162926  5070 layer_factory.hpp:77] Creating layer scale3b7_branch2c
I0523 00:33:39.163012  5070 net.cpp:122] Setting up scale3b7_branch2c
I0523 00:33:39.163014  5070 net.cpp:129] Top shape: 5 512 28 28 (2007040)
I0523 00:33:39.163017  5070 net.cpp:137] Memory required for data: 1130967060
I0523 00:33:39.163018  5070 layer_factory.hpp:77] Creating layer res3b7
I0523 00:33:39.163022  5070 net.cpp:84] Creating Layer res3b7
I0523 00:33:39.163024  5070 net.cpp:406] res3b7 <- res3b6_res3b6_relu_0_split_1
I0523 00:33:39.163028  5070 net.cpp:406] res3b7 <- res3b7_branch2c
I0523 00:33:39.163029  5070 net.cpp:380] res3b7 -> res3b7
I0523 00:33:39.163053  5070 net.cpp:122] Setting up res3b7
I0523 00:33:39.163056  5070 net.cpp:129] Top shape: 5 512 28 28 (2007040)
I0523 00:33:39.163058  5070 net.cpp:137] Memory required for data: 1138995220
I0523 00:33:39.163060  5070 layer_factory.hpp:77] Creating layer res3b7_relu
I0523 00:33:39.163063  5070 net.cpp:84] Creating Layer res3b7_relu
I0523 00:33:39.163064  5070 net.cpp:406] res3b7_relu <- res3b7
I0523 00:33:39.163067  5070 net.cpp:367] res3b7_relu -> res3b7 (in-place)
I0523 00:33:39.163429  5070 net.cpp:122] Setting up res3b7_relu
I0523 00:33:39.163432  5070 net.cpp:129] Top shape: 5 512 28 28 (2007040)
I0523 00:33:39.163435  5070 net.cpp:137] Memory required for data: 1147023380
I0523 00:33:39.163437  5070 layer_factory.hpp:77] Creating layer res3b7_res3b7_relu_0_split
I0523 00:33:39.163440  5070 net.cpp:84] Creating Layer res3b7_res3b7_relu_0_split
I0523 00:33:39.163442  5070 net.cpp:406] res3b7_res3b7_relu_0_split <- res3b7
I0523 00:33:39.163446  5070 net.cpp:380] res3b7_res3b7_relu_0_split -> res3b7_res3b7_relu_0_split_0
I0523 00:33:39.163450  5070 net.cpp:380] res3b7_res3b7_relu_0_split -> res3b7_res3b7_relu_0_split_1
I0523 00:33:39.163482  5070 net.cpp:122] Setting up res3b7_res3b7_relu_0_split
I0523 00:33:39.163486  5070 net.cpp:129] Top shape: 5 512 28 28 (2007040)
I0523 00:33:39.163487  5070 net.cpp:129] Top shape: 5 512 28 28 (2007040)
I0523 00:33:39.163489  5070 net.cpp:137] Memory required for data: 1163079700
I0523 00:33:39.163491  5070 layer_factory.hpp:77] Creating layer res4a_branch1
I0523 00:33:39.163496  5070 net.cpp:84] Creating Layer res4a_branch1
I0523 00:33:39.163497  5070 net.cpp:406] res4a_branch1 <- res3b7_res3b7_relu_0_split_0
I0523 00:33:39.163501  5070 net.cpp:380] res4a_branch1 -> res4a_branch1
I0523 00:33:39.168718  5070 net.cpp:122] Setting up res4a_branch1
I0523 00:33:39.168725  5070 net.cpp:129] Top shape: 5 1024 14 14 (1003520)
I0523 00:33:39.168727  5070 net.cpp:137] Memory required for data: 1167093780
I0523 00:33:39.168730  5070 layer_factory.hpp:77] Creating layer bn4a_branch1
I0523 00:33:39.168735  5070 net.cpp:84] Creating Layer bn4a_branch1
I0523 00:33:39.168736  5070 net.cpp:406] bn4a_branch1 <- res4a_branch1
I0523 00:33:39.168740  5070 net.cpp:367] bn4a_branch1 -> res4a_branch1 (in-place)
I0523 00:33:39.168915  5070 net.cpp:122] Setting up bn4a_branch1
I0523 00:33:39.168918  5070 net.cpp:129] Top shape: 5 1024 14 14 (1003520)
I0523 00:33:39.168920  5070 net.cpp:137] Memory required for data: 1171107860
I0523 00:33:39.168923  5070 layer_factory.hpp:77] Creating layer scale4a_branch1
I0523 00:33:39.168928  5070 net.cpp:84] Creating Layer scale4a_branch1
I0523 00:33:39.168931  5070 net.cpp:406] scale4a_branch1 <- res4a_branch1
I0523 00:33:39.168938  5070 net.cpp:367] scale4a_branch1 -> res4a_branch1 (in-place)
I0523 00:33:39.168967  5070 layer_factory.hpp:77] Creating layer scale4a_branch1
I0523 00:33:39.169059  5070 net.cpp:122] Setting up scale4a_branch1
I0523 00:33:39.169062  5070 net.cpp:129] Top shape: 5 1024 14 14 (1003520)
I0523 00:33:39.169064  5070 net.cpp:137] Memory required for data: 1175121940
I0523 00:33:39.169067  5070 layer_factory.hpp:77] Creating layer res4a_branch2a
I0523 00:33:39.169072  5070 net.cpp:84] Creating Layer res4a_branch2a
I0523 00:33:39.169075  5070 net.cpp:406] res4a_branch2a <- res3b7_res3b7_relu_0_split_1
I0523 00:33:39.169077  5070 net.cpp:380] res4a_branch2a -> res4a_branch2a
I0523 00:33:39.171279  5070 net.cpp:122] Setting up res4a_branch2a
I0523 00:33:39.171285  5070 net.cpp:129] Top shape: 5 256 14 14 (250880)
I0523 00:33:39.171288  5070 net.cpp:137] Memory required for data: 1176125460
I0523 00:33:39.171289  5070 layer_factory.hpp:77] Creating layer bn4a_branch2a
I0523 00:33:39.171294  5070 net.cpp:84] Creating Layer bn4a_branch2a
I0523 00:33:39.171298  5070 net.cpp:406] bn4a_branch2a <- res4a_branch2a
I0523 00:33:39.171300  5070 net.cpp:367] bn4a_branch2a -> res4a_branch2a (in-place)
I0523 00:33:39.171460  5070 net.cpp:122] Setting up bn4a_branch2a
I0523 00:33:39.171463  5070 net.cpp:129] Top shape: 5 256 14 14 (250880)
I0523 00:33:39.171465  5070 net.cpp:137] Memory required for data: 1177128980
I0523 00:33:39.171468  5070 layer_factory.hpp:77] Creating layer scale4a_branch2a
I0523 00:33:39.171471  5070 net.cpp:84] Creating Layer scale4a_branch2a
I0523 00:33:39.171473  5070 net.cpp:406] scale4a_branch2a <- res4a_branch2a
I0523 00:33:39.171475  5070 net.cpp:367] scale4a_branch2a -> res4a_branch2a (in-place)
I0523 00:33:39.171511  5070 layer_factory.hpp:77] Creating layer scale4a_branch2a
I0523 00:33:39.171597  5070 net.cpp:122] Setting up scale4a_branch2a
I0523 00:33:39.171602  5070 net.cpp:129] Top shape: 5 256 14 14 (250880)
I0523 00:33:39.188201  5070 net.cpp:137] Memory required for data: 1178132500
I0523 00:33:39.188207  5070 layer_factory.hpp:77] Creating layer res4a_branch2a_relu
I0523 00:33:39.188211  5070 net.cpp:84] Creating Layer res4a_branch2a_relu
I0523 00:33:39.188213  5070 net.cpp:406] res4a_branch2a_relu <- res4a_branch2a
I0523 00:33:39.188216  5070 net.cpp:367] res4a_branch2a_relu -> res4a_branch2a (in-place)
I0523 00:33:39.188711  5070 net.cpp:122] Setting up res4a_branch2a_relu
I0523 00:33:39.188717  5070 net.cpp:129] Top shape: 5 256 14 14 (250880)
I0523 00:33:39.188719  5070 net.cpp:137] Memory required for data: 1179136020
I0523 00:33:39.188721  5070 layer_factory.hpp:77] Creating layer res4a_branch2b
I0523 00:33:39.188727  5070 net.cpp:84] Creating Layer res4a_branch2b
I0523 00:33:39.188730  5070 net.cpp:406] res4a_branch2b <- res4a_branch2a
I0523 00:33:39.188733  5070 net.cpp:380] res4a_branch2b -> res4a_branch2b
I0523 00:33:39.194458  5070 net.cpp:122] Setting up res4a_branch2b
I0523 00:33:39.194464  5070 net.cpp:129] Top shape: 5 256 14 14 (250880)
I0523 00:33:39.194466  5070 net.cpp:137] Memory required for data: 1180139540
I0523 00:33:39.194469  5070 layer_factory.hpp:77] Creating layer bn4a_branch2b
I0523 00:33:39.194474  5070 net.cpp:84] Creating Layer bn4a_branch2b
I0523 00:33:39.194476  5070 net.cpp:406] bn4a_branch2b <- res4a_branch2b
I0523 00:33:39.194479  5070 net.cpp:367] bn4a_branch2b -> res4a_branch2b (in-place)
I0523 00:33:39.194643  5070 net.cpp:122] Setting up bn4a_branch2b
I0523 00:33:39.194645  5070 net.cpp:129] Top shape: 5 256 14 14 (250880)
I0523 00:33:39.194648  5070 net.cpp:137] Memory required for data: 1181143060
I0523 00:33:39.194650  5070 layer_factory.hpp:77] Creating layer scale4a_branch2b
I0523 00:33:39.194654  5070 net.cpp:84] Creating Layer scale4a_branch2b
I0523 00:33:39.194656  5070 net.cpp:406] scale4a_branch2b <- res4a_branch2b
I0523 00:33:39.194658  5070 net.cpp:367] scale4a_branch2b -> res4a_branch2b (in-place)
I0523 00:33:39.194689  5070 layer_factory.hpp:77] Creating layer scale4a_branch2b
I0523 00:33:39.194779  5070 net.cpp:122] Setting up scale4a_branch2b
I0523 00:33:39.194788  5070 net.cpp:129] Top shape: 5 256 14 14 (250880)
I0523 00:33:39.194789  5070 net.cpp:137] Memory required for data: 1182146580
I0523 00:33:39.194792  5070 layer_factory.hpp:77] Creating layer res4a_branch2b_relu
I0523 00:33:39.194797  5070 net.cpp:84] Creating Layer res4a_branch2b_relu
I0523 00:33:39.194798  5070 net.cpp:406] res4a_branch2b_relu <- res4a_branch2b
I0523 00:33:39.194800  5070 net.cpp:367] res4a_branch2b_relu -> res4a_branch2b (in-place)
I0523 00:33:39.195266  5070 net.cpp:122] Setting up res4a_branch2b_relu
I0523 00:33:39.195271  5070 net.cpp:129] Top shape: 5 256 14 14 (250880)
I0523 00:33:39.195273  5070 net.cpp:137] Memory required for data: 1183150100
I0523 00:33:39.195276  5070 layer_factory.hpp:77] Creating layer res4a_branch2c
I0523 00:33:39.195279  5070 net.cpp:84] Creating Layer res4a_branch2c
I0523 00:33:39.195282  5070 net.cpp:406] res4a_branch2c <- res4a_branch2b
I0523 00:33:39.195286  5070 net.cpp:380] res4a_branch2c -> res4a_branch2c
I0523 00:33:39.198853  5070 net.cpp:122] Setting up res4a_branch2c
I0523 00:33:39.198859  5070 net.cpp:129] Top shape: 5 1024 14 14 (1003520)
I0523 00:33:39.198861  5070 net.cpp:137] Memory required for data: 1187164180
I0523 00:33:39.198864  5070 layer_factory.hpp:77] Creating layer bn4a_branch2c
I0523 00:33:39.198869  5070 net.cpp:84] Creating Layer bn4a_branch2c
I0523 00:33:39.198871  5070 net.cpp:406] bn4a_branch2c <- res4a_branch2c
I0523 00:33:39.198874  5070 net.cpp:367] bn4a_branch2c -> res4a_branch2c (in-place)
I0523 00:33:39.199046  5070 net.cpp:122] Setting up bn4a_branch2c
I0523 00:33:39.199049  5070 net.cpp:129] Top shape: 5 1024 14 14 (1003520)
I0523 00:33:39.199051  5070 net.cpp:137] Memory required for data: 1191178260
I0523 00:33:39.199054  5070 layer_factory.hpp:77] Creating layer scale4a_branch2c
I0523 00:33:39.199059  5070 net.cpp:84] Creating Layer scale4a_branch2c
I0523 00:33:39.199061  5070 net.cpp:406] scale4a_branch2c <- res4a_branch2c
I0523 00:33:39.199064  5070 net.cpp:367] scale4a_branch2c -> res4a_branch2c (in-place)
I0523 00:33:39.199091  5070 layer_factory.hpp:77] Creating layer scale4a_branch2c
I0523 00:33:39.199188  5070 net.cpp:122] Setting up scale4a_branch2c
I0523 00:33:39.199193  5070 net.cpp:129] Top shape: 5 1024 14 14 (1003520)
I0523 00:33:39.199193  5070 net.cpp:137] Memory required for data: 1195192340
I0523 00:33:39.199196  5070 layer_factory.hpp:77] Creating layer res4a
I0523 00:33:39.199199  5070 net.cpp:84] Creating Layer res4a
I0523 00:33:39.199201  5070 net.cpp:406] res4a <- res4a_branch1
I0523 00:33:39.199203  5070 net.cpp:406] res4a <- res4a_branch2c
I0523 00:33:39.199206  5070 net.cpp:380] res4a -> res4a
I0523 00:33:39.199225  5070 net.cpp:122] Setting up res4a
I0523 00:33:39.199229  5070 net.cpp:129] Top shape: 5 1024 14 14 (1003520)
I0523 00:33:39.199229  5070 net.cpp:137] Memory required for data: 1199206420
I0523 00:33:39.199231  5070 layer_factory.hpp:77] Creating layer res4a_relu
I0523 00:33:39.199234  5070 net.cpp:84] Creating Layer res4a_relu
I0523 00:33:39.199235  5070 net.cpp:406] res4a_relu <- res4a
I0523 00:33:39.199239  5070 net.cpp:367] res4a_relu -> res4a (in-place)
I0523 00:33:39.199601  5070 net.cpp:122] Setting up res4a_relu
I0523 00:33:39.199605  5070 net.cpp:129] Top shape: 5 1024 14 14 (1003520)
I0523 00:33:39.199607  5070 net.cpp:137] Memory required for data: 1203220500
I0523 00:33:39.199609  5070 layer_factory.hpp:77] Creating layer res4a_res4a_relu_0_split
I0523 00:33:39.199612  5070 net.cpp:84] Creating Layer res4a_res4a_relu_0_split
I0523 00:33:39.199615  5070 net.cpp:406] res4a_res4a_relu_0_split <- res4a
I0523 00:33:39.199617  5070 net.cpp:380] res4a_res4a_relu_0_split -> res4a_res4a_relu_0_split_0
I0523 00:33:39.199622  5070 net.cpp:380] res4a_res4a_relu_0_split -> res4a_res4a_relu_0_split_1
I0523 00:33:39.199654  5070 net.cpp:122] Setting up res4a_res4a_relu_0_split
I0523 00:33:39.199657  5070 net.cpp:129] Top shape: 5 1024 14 14 (1003520)
I0523 00:33:39.199661  5070 net.cpp:129] Top shape: 5 1024 14 14 (1003520)
I0523 00:33:39.199666  5070 net.cpp:137] Memory required for data: 1211248660
I0523 00:33:39.199668  5070 layer_factory.hpp:77] Creating layer res4b1_branch2a
I0523 00:33:39.199674  5070 net.cpp:84] Creating Layer res4b1_branch2a
I0523 00:33:39.199676  5070 net.cpp:406] res4b1_branch2a <- res4a_res4a_relu_0_split_0
I0523 00:33:39.199679  5070 net.cpp:380] res4b1_branch2a -> res4b1_branch2a
I0523 00:33:39.202841  5070 net.cpp:122] Setting up res4b1_branch2a
I0523 00:33:39.202847  5070 net.cpp:129] Top shape: 5 256 14 14 (250880)
I0523 00:33:39.202848  5070 net.cpp:137] Memory required for data: 1212252180
I0523 00:33:39.202852  5070 layer_factory.hpp:77] Creating layer bn4b1_branch2a
I0523 00:33:39.202855  5070 net.cpp:84] Creating Layer bn4b1_branch2a
I0523 00:33:39.202858  5070 net.cpp:406] bn4b1_branch2a <- res4b1_branch2a
I0523 00:33:39.202862  5070 net.cpp:367] bn4b1_branch2a -> res4b1_branch2a (in-place)
I0523 00:33:39.203028  5070 net.cpp:122] Setting up bn4b1_branch2a
I0523 00:33:39.203032  5070 net.cpp:129] Top shape: 5 256 14 14 (250880)
I0523 00:33:39.203033  5070 net.cpp:137] Memory required for data: 1213255700
I0523 00:33:39.203037  5070 layer_factory.hpp:77] Creating layer scale4b1_branch2a
I0523 00:33:39.203039  5070 net.cpp:84] Creating Layer scale4b1_branch2a
I0523 00:33:39.203042  5070 net.cpp:406] scale4b1_branch2a <- res4b1_branch2a
I0523 00:33:39.203043  5070 net.cpp:367] scale4b1_branch2a -> res4b1_branch2a (in-place)
I0523 00:33:39.203073  5070 layer_factory.hpp:77] Creating layer scale4b1_branch2a
I0523 00:33:39.203161  5070 net.cpp:122] Setting up scale4b1_branch2a
I0523 00:33:39.203163  5070 net.cpp:129] Top shape: 5 256 14 14 (250880)
I0523 00:33:39.203166  5070 net.cpp:137] Memory required for data: 1214259220
I0523 00:33:39.203168  5070 layer_factory.hpp:77] Creating layer res4b1_branch2a_relu
I0523 00:33:39.203171  5070 net.cpp:84] Creating Layer res4b1_branch2a_relu
I0523 00:33:39.219355  5070 net.cpp:406] res4b1_branch2a_relu <- res4b1_branch2a
I0523 00:33:39.219362  5070 net.cpp:367] res4b1_branch2a_relu -> res4b1_branch2a (in-place)
I0523 00:33:39.219743  5070 net.cpp:122] Setting up res4b1_branch2a_relu
I0523 00:33:39.219749  5070 net.cpp:129] Top shape: 5 256 14 14 (250880)
I0523 00:33:39.219750  5070 net.cpp:137] Memory required for data: 1215262740
I0523 00:33:39.219753  5070 layer_factory.hpp:77] Creating layer res4b1_branch2b
I0523 00:33:39.219758  5070 net.cpp:84] Creating Layer res4b1_branch2b
I0523 00:33:39.219760  5070 net.cpp:406] res4b1_branch2b <- res4b1_branch2a
I0523 00:33:39.219763  5070 net.cpp:380] res4b1_branch2b -> res4b1_branch2b
I0523 00:33:39.225528  5070 net.cpp:122] Setting up res4b1_branch2b
I0523 00:33:39.225535  5070 net.cpp:129] Top shape: 5 256 14 14 (250880)
I0523 00:33:39.225538  5070 net.cpp:137] Memory required for data: 1216266260
I0523 00:33:39.225541  5070 layer_factory.hpp:77] Creating layer bn4b1_branch2b
I0523 00:33:39.225545  5070 net.cpp:84] Creating Layer bn4b1_branch2b
I0523 00:33:39.225548  5070 net.cpp:406] bn4b1_branch2b <- res4b1_branch2b
I0523 00:33:39.225551  5070 net.cpp:367] bn4b1_branch2b -> res4b1_branch2b (in-place)
I0523 00:33:39.225719  5070 net.cpp:122] Setting up bn4b1_branch2b
I0523 00:33:39.225723  5070 net.cpp:129] Top shape: 5 256 14 14 (250880)
I0523 00:33:39.225724  5070 net.cpp:137] Memory required for data: 1217269780
I0523 00:33:39.225728  5070 layer_factory.hpp:77] Creating layer scale4b1_branch2b
I0523 00:33:39.225731  5070 net.cpp:84] Creating Layer scale4b1_branch2b
I0523 00:33:39.225733  5070 net.cpp:406] scale4b1_branch2b <- res4b1_branch2b
I0523 00:33:39.225736  5070 net.cpp:367] scale4b1_branch2b -> res4b1_branch2b (in-place)
I0523 00:33:39.225767  5070 layer_factory.hpp:77] Creating layer scale4b1_branch2b
I0523 00:33:39.225865  5070 net.cpp:122] Setting up scale4b1_branch2b
I0523 00:33:39.225869  5070 net.cpp:129] Top shape: 5 256 14 14 (250880)
I0523 00:33:39.225870  5070 net.cpp:137] Memory required for data: 1218273300
I0523 00:33:39.225873  5070 layer_factory.hpp:77] Creating layer res4b1_branch2b_relu
I0523 00:33:39.225883  5070 net.cpp:84] Creating Layer res4b1_branch2b_relu
I0523 00:33:39.225884  5070 net.cpp:406] res4b1_branch2b_relu <- res4b1_branch2b
I0523 00:33:39.225888  5070 net.cpp:367] res4b1_branch2b_relu -> res4b1_branch2b (in-place)
I0523 00:33:39.226369  5070 net.cpp:122] Setting up res4b1_branch2b_relu
I0523 00:33:39.226374  5070 net.cpp:129] Top shape: 5 256 14 14 (250880)
I0523 00:33:39.226377  5070 net.cpp:137] Memory required for data: 1219276820
I0523 00:33:39.226378  5070 layer_factory.hpp:77] Creating layer res4b1_branch2c
I0523 00:33:39.226383  5070 net.cpp:84] Creating Layer res4b1_branch2c
I0523 00:33:39.226385  5070 net.cpp:406] res4b1_branch2c <- res4b1_branch2b
I0523 00:33:39.226388  5070 net.cpp:380] res4b1_branch2c -> res4b1_branch2c
I0523 00:33:39.230083  5070 net.cpp:122] Setting up res4b1_branch2c
I0523 00:33:39.230090  5070 net.cpp:129] Top shape: 5 1024 14 14 (1003520)
I0523 00:33:39.230093  5070 net.cpp:137] Memory required for data: 1223290900
I0523 00:33:39.230095  5070 layer_factory.hpp:77] Creating layer bn4b1_branch2c
I0523 00:33:39.230100  5070 net.cpp:84] Creating Layer bn4b1_branch2c
I0523 00:33:39.230103  5070 net.cpp:406] bn4b1_branch2c <- res4b1_branch2c
I0523 00:33:39.230105  5070 net.cpp:367] bn4b1_branch2c -> res4b1_branch2c (in-place)
I0523 00:33:39.230279  5070 net.cpp:122] Setting up bn4b1_branch2c
I0523 00:33:39.230283  5070 net.cpp:129] Top shape: 5 1024 14 14 (1003520)
I0523 00:33:39.230284  5070 net.cpp:137] Memory required for data: 1227304980
I0523 00:33:39.230288  5070 layer_factory.hpp:77] Creating layer scale4b1_branch2c
I0523 00:33:39.230291  5070 net.cpp:84] Creating Layer scale4b1_branch2c
I0523 00:33:39.230293  5070 net.cpp:406] scale4b1_branch2c <- res4b1_branch2c
I0523 00:33:39.230295  5070 net.cpp:367] scale4b1_branch2c -> res4b1_branch2c (in-place)
I0523 00:33:39.230325  5070 layer_factory.hpp:77] Creating layer scale4b1_branch2c
I0523 00:33:39.230425  5070 net.cpp:122] Setting up scale4b1_branch2c
I0523 00:33:39.230428  5070 net.cpp:129] Top shape: 5 1024 14 14 (1003520)
I0523 00:33:39.230430  5070 net.cpp:137] Memory required for data: 1231319060
I0523 00:33:39.230442  5070 layer_factory.hpp:77] Creating layer res4b1
I0523 00:33:39.230446  5070 net.cpp:84] Creating Layer res4b1
I0523 00:33:39.230448  5070 net.cpp:406] res4b1 <- res4a_res4a_relu_0_split_1
I0523 00:33:39.230450  5070 net.cpp:406] res4b1 <- res4b1_branch2c
I0523 00:33:39.230453  5070 net.cpp:380] res4b1 -> res4b1
I0523 00:33:39.230471  5070 net.cpp:122] Setting up res4b1
I0523 00:33:39.230474  5070 net.cpp:129] Top shape: 5 1024 14 14 (1003520)
I0523 00:33:39.230475  5070 net.cpp:137] Memory required for data: 1235333140
I0523 00:33:39.230478  5070 layer_factory.hpp:77] Creating layer res4b1_relu
I0523 00:33:39.230481  5070 net.cpp:84] Creating Layer res4b1_relu
I0523 00:33:39.230484  5070 net.cpp:406] res4b1_relu <- res4b1
I0523 00:33:39.230485  5070 net.cpp:367] res4b1_relu -> res4b1 (in-place)
I0523 00:33:39.230861  5070 net.cpp:122] Setting up res4b1_relu
I0523 00:33:39.230866  5070 net.cpp:129] Top shape: 5 1024 14 14 (1003520)
I0523 00:33:39.230868  5070 net.cpp:137] Memory required for data: 1239347220
I0523 00:33:39.230870  5070 layer_factory.hpp:77] Creating layer res4b1_res4b1_relu_0_split
I0523 00:33:39.230875  5070 net.cpp:84] Creating Layer res4b1_res4b1_relu_0_split
I0523 00:33:39.230876  5070 net.cpp:406] res4b1_res4b1_relu_0_split <- res4b1
I0523 00:33:39.230880  5070 net.cpp:380] res4b1_res4b1_relu_0_split -> res4b1_res4b1_relu_0_split_0
I0523 00:33:39.230885  5070 net.cpp:380] res4b1_res4b1_relu_0_split -> res4b1_res4b1_relu_0_split_1
I0523 00:33:39.230917  5070 net.cpp:122] Setting up res4b1_res4b1_relu_0_split
I0523 00:33:39.230921  5070 net.cpp:129] Top shape: 5 1024 14 14 (1003520)
I0523 00:33:39.230923  5070 net.cpp:129] Top shape: 5 1024 14 14 (1003520)
I0523 00:33:39.230924  5070 net.cpp:137] Memory required for data: 1247375380
I0523 00:33:39.230926  5070 layer_factory.hpp:77] Creating layer res4b2_branch2a
I0523 00:33:39.230931  5070 net.cpp:84] Creating Layer res4b2_branch2a
I0523 00:33:39.230939  5070 net.cpp:406] res4b2_branch2a <- res4b1_res4b1_relu_0_split_0
I0523 00:33:39.230943  5070 net.cpp:380] res4b2_branch2a -> res4b2_branch2a
I0523 00:33:39.234055  5070 net.cpp:122] Setting up res4b2_branch2a
I0523 00:33:39.234061  5070 net.cpp:129] Top shape: 5 256 14 14 (250880)
I0523 00:33:39.234062  5070 net.cpp:137] Memory required for data: 1248378900
I0523 00:33:39.234066  5070 layer_factory.hpp:77] Creating layer bn4b2_branch2a
I0523 00:33:39.234068  5070 net.cpp:84] Creating Layer bn4b2_branch2a
I0523 00:33:39.234071  5070 net.cpp:406] bn4b2_branch2a <- res4b2_branch2a
I0523 00:33:39.234074  5070 net.cpp:367] bn4b2_branch2a -> res4b2_branch2a (in-place)
I0523 00:33:39.234263  5070 net.cpp:122] Setting up bn4b2_branch2a
I0523 00:33:39.234267  5070 net.cpp:129] Top shape: 5 256 14 14 (250880)
I0523 00:33:39.234269  5070 net.cpp:137] Memory required for data: 1249382420
I0523 00:33:39.234273  5070 layer_factory.hpp:77] Creating layer scale4b2_branch2a
I0523 00:33:39.234275  5070 net.cpp:84] Creating Layer scale4b2_branch2a
I0523 00:33:39.234278  5070 net.cpp:406] scale4b2_branch2a <- res4b2_branch2a
I0523 00:33:39.234280  5070 net.cpp:367] scale4b2_branch2a -> res4b2_branch2a (in-place)
I0523 00:33:39.234310  5070 layer_factory.hpp:77] Creating layer scale4b2_branch2a
I0523 00:33:39.234400  5070 net.cpp:122] Setting up scale4b2_branch2a
I0523 00:33:39.234403  5070 net.cpp:129] Top shape: 5 256 14 14 (250880)
I0523 00:33:39.234405  5070 net.cpp:137] Memory required for data: 1250385940
I0523 00:33:39.234407  5070 layer_factory.hpp:77] Creating layer res4b2_branch2a_relu
I0523 00:33:39.234411  5070 net.cpp:84] Creating Layer res4b2_branch2a_relu
I0523 00:33:39.234413  5070 net.cpp:406] res4b2_branch2a_relu <- res4b2_branch2a
I0523 00:33:39.234416  5070 net.cpp:367] res4b2_branch2a_relu -> res4b2_branch2a (in-place)
I0523 00:33:39.251266  5070 net.cpp:122] Setting up res4b2_branch2a_relu
I0523 00:33:39.251272  5070 net.cpp:129] Top shape: 5 256 14 14 (250880)
I0523 00:33:39.251274  5070 net.cpp:137] Memory required for data: 1251389460
I0523 00:33:39.251276  5070 layer_factory.hpp:77] Creating layer res4b2_branch2b
I0523 00:33:39.251281  5070 net.cpp:84] Creating Layer res4b2_branch2b
I0523 00:33:39.251284  5070 net.cpp:406] res4b2_branch2b <- res4b2_branch2a
I0523 00:33:39.251287  5070 net.cpp:380] res4b2_branch2b -> res4b2_branch2b
I0523 00:33:39.257014  5070 net.cpp:122] Setting up res4b2_branch2b
I0523 00:33:39.257022  5070 net.cpp:129] Top shape: 5 256 14 14 (250880)
I0523 00:33:39.257025  5070 net.cpp:137] Memory required for data: 1252392980
I0523 00:33:39.257027  5070 layer_factory.hpp:77] Creating layer bn4b2_branch2b
I0523 00:33:39.257032  5070 net.cpp:84] Creating Layer bn4b2_branch2b
I0523 00:33:39.257035  5070 net.cpp:406] bn4b2_branch2b <- res4b2_branch2b
I0523 00:33:39.257037  5070 net.cpp:367] bn4b2_branch2b -> res4b2_branch2b (in-place)
I0523 00:33:39.257210  5070 net.cpp:122] Setting up bn4b2_branch2b
I0523 00:33:39.257215  5070 net.cpp:129] Top shape: 5 256 14 14 (250880)
I0523 00:33:39.257215  5070 net.cpp:137] Memory required for data: 1253396500
I0523 00:33:39.257220  5070 layer_factory.hpp:77] Creating layer scale4b2_branch2b
I0523 00:33:39.257223  5070 net.cpp:84] Creating Layer scale4b2_branch2b
I0523 00:33:39.257225  5070 net.cpp:406] scale4b2_branch2b <- res4b2_branch2b
I0523 00:33:39.257228  5070 net.cpp:367] scale4b2_branch2b -> res4b2_branch2b (in-place)
I0523 00:33:39.257266  5070 layer_factory.hpp:77] Creating layer scale4b2_branch2b
I0523 00:33:39.257357  5070 net.cpp:122] Setting up scale4b2_branch2b
I0523 00:33:39.257361  5070 net.cpp:129] Top shape: 5 256 14 14 (250880)
I0523 00:33:39.257364  5070 net.cpp:137] Memory required for data: 1254400020
I0523 00:33:39.257365  5070 layer_factory.hpp:77] Creating layer res4b2_branch2b_relu
I0523 00:33:39.257369  5070 net.cpp:84] Creating Layer res4b2_branch2b_relu
I0523 00:33:39.257371  5070 net.cpp:406] res4b2_branch2b_relu <- res4b2_branch2b
I0523 00:33:39.257374  5070 net.cpp:367] res4b2_branch2b_relu -> res4b2_branch2b (in-place)
I0523 00:33:39.257748  5070 net.cpp:122] Setting up res4b2_branch2b_relu
I0523 00:33:39.257753  5070 net.cpp:129] Top shape: 5 256 14 14 (250880)
I0523 00:33:39.257755  5070 net.cpp:137] Memory required for data: 1255403540
I0523 00:33:39.257757  5070 layer_factory.hpp:77] Creating layer res4b2_branch2c
I0523 00:33:39.257762  5070 net.cpp:84] Creating Layer res4b2_branch2c
I0523 00:33:39.257764  5070 net.cpp:406] res4b2_branch2c <- res4b2_branch2b
I0523 00:33:39.257768  5070 net.cpp:380] res4b2_branch2c -> res4b2_branch2c
I0523 00:33:39.261445  5070 net.cpp:122] Setting up res4b2_branch2c
I0523 00:33:39.261451  5070 net.cpp:129] Top shape: 5 1024 14 14 (1003520)
I0523 00:33:39.261452  5070 net.cpp:137] Memory required for data: 1259417620
I0523 00:33:39.261456  5070 layer_factory.hpp:77] Creating layer bn4b2_branch2c
I0523 00:33:39.261461  5070 net.cpp:84] Creating Layer bn4b2_branch2c
I0523 00:33:39.261462  5070 net.cpp:406] bn4b2_branch2c <- res4b2_branch2c
I0523 00:33:39.261466  5070 net.cpp:367] bn4b2_branch2c -> res4b2_branch2c (in-place)
I0523 00:33:39.261647  5070 net.cpp:122] Setting up bn4b2_branch2c
I0523 00:33:39.261651  5070 net.cpp:129] Top shape: 5 1024 14 14 (1003520)
I0523 00:33:39.261652  5070 net.cpp:137] Memory required for data: 1263431700
I0523 00:33:39.261656  5070 layer_factory.hpp:77] Creating layer scale4b2_branch2c
I0523 00:33:39.261658  5070 net.cpp:84] Creating Layer scale4b2_branch2c
I0523 00:33:39.261660  5070 net.cpp:406] scale4b2_branch2c <- res4b2_branch2c
I0523 00:33:39.261663  5070 net.cpp:367] scale4b2_branch2c -> res4b2_branch2c (in-place)
I0523 00:33:39.261694  5070 layer_factory.hpp:77] Creating layer scale4b2_branch2c
I0523 00:33:39.261795  5070 net.cpp:122] Setting up scale4b2_branch2c
I0523 00:33:39.261799  5070 net.cpp:129] Top shape: 5 1024 14 14 (1003520)
I0523 00:33:39.261801  5070 net.cpp:137] Memory required for data: 1267445780
I0523 00:33:39.261804  5070 layer_factory.hpp:77] Creating layer res4b2
I0523 00:33:39.261807  5070 net.cpp:84] Creating Layer res4b2
I0523 00:33:39.261811  5070 net.cpp:406] res4b2 <- res4b1_res4b1_relu_0_split_1
I0523 00:33:39.261812  5070 net.cpp:406] res4b2 <- res4b2_branch2c
I0523 00:33:39.261816  5070 net.cpp:380] res4b2 -> res4b2
I0523 00:33:39.261834  5070 net.cpp:122] Setting up res4b2
I0523 00:33:39.261837  5070 net.cpp:129] Top shape: 5 1024 14 14 (1003520)
I0523 00:33:39.261838  5070 net.cpp:137] Memory required for data: 1271459860
I0523 00:33:39.261840  5070 layer_factory.hpp:77] Creating layer res4b2_relu
I0523 00:33:39.261844  5070 net.cpp:84] Creating Layer res4b2_relu
I0523 00:33:39.261847  5070 net.cpp:406] res4b2_relu <- res4b2
I0523 00:33:39.261848  5070 net.cpp:367] res4b2_relu -> res4b2 (in-place)
I0523 00:33:39.262204  5070 net.cpp:122] Setting up res4b2_relu
I0523 00:33:39.262208  5070 net.cpp:129] Top shape: 5 1024 14 14 (1003520)
I0523 00:33:39.262210  5070 net.cpp:137] Memory required for data: 1275473940
I0523 00:33:39.262212  5070 layer_factory.hpp:77] Creating layer res4b2_res4b2_relu_0_split
I0523 00:33:39.262217  5070 net.cpp:84] Creating Layer res4b2_res4b2_relu_0_split
I0523 00:33:39.262218  5070 net.cpp:406] res4b2_res4b2_relu_0_split <- res4b2
I0523 00:33:39.262221  5070 net.cpp:380] res4b2_res4b2_relu_0_split -> res4b2_res4b2_relu_0_split_0
I0523 00:33:39.262225  5070 net.cpp:380] res4b2_res4b2_relu_0_split -> res4b2_res4b2_relu_0_split_1
I0523 00:33:39.262259  5070 net.cpp:122] Setting up res4b2_res4b2_relu_0_split
I0523 00:33:39.262264  5070 net.cpp:129] Top shape: 5 1024 14 14 (1003520)
I0523 00:33:39.262265  5070 net.cpp:129] Top shape: 5 1024 14 14 (1003520)
I0523 00:33:39.262266  5070 net.cpp:137] Memory required for data: 1283502100
I0523 00:33:39.262269  5070 layer_factory.hpp:77] Creating layer res4b3_branch2a
…
I0523 00:33:42.268877  5070 net.cpp:406] bn4b33_branch2a <- res4b33_branch2a
I0523 00:33:42.268882  5070 net.cpp:367] bn4b33_branch2a -> res4b33_branch2a (in-place)
I0523 00:33:42.269039  5070 net.cpp:122] Setting up bn4b33_branch2a
I0523 00:33:42.269042  5070 net.cpp:129] Top shape: 1 256 14 14 (50176)
I0523 00:33:42.269044  5070 net.cpp:137] Memory required for data: 473862160
I0523 00:33:42.269048  5070 layer_factory.hpp:77] Creating layer scale4b33_branch2a
I0523 00:33:42.269052  5070 net.cpp:84] Creating Layer scale4b33_branch2a
I0523 00:33:42.269053  5070 net.cpp:406] scale4b33_branch2a <- res4b33_branch2a
I0523 00:33:42.269055  5070 net.cpp:367] scale4b33_branch2a -> res4b33_branch2a (in-place)
I0523 00:33:42.269083  5070 layer_factory.hpp:77] Creating layer scale4b33_branch2a
I0523 00:33:42.269162  5070 net.cpp:122] Setting up scale4b33_branch2a
I0523 00:33:42.269165  5070 net.cpp:129] Top shape: 1 256 14 14 (50176)
I0523 00:33:42.269167  5070 net.cpp:137] Memory required for data: 474062864
I0523 00:33:42.269170  5070 layer_factory.hpp:77] Creating layer res4b33_branch2a_relu
I0523 00:33:42.269173  5070 net.cpp:84] Creating Layer res4b33_branch2a_relu
I0523 00:33:42.269176  5070 net.cpp:406] res4b33_branch2a_relu <- res4b33_branch2a
I0523 00:33:42.269178  5070 net.cpp:367] res4b33_branch2a_relu -> res4b33_branch2a (in-place)
I0523 00:33:42.269611  5070 net.cpp:122] Setting up res4b33_branch2a_relu
I0523 00:33:42.269616  5070 net.cpp:129] Top shape: 1 256 14 14 (50176)
I0523 00:33:42.269618  5070 net.cpp:137] Memory required for data: 474263568
I0523 00:33:42.269619  5070 layer_factory.hpp:77] Creating layer res4b33_branch2b
I0523 00:33:42.269624  5070 net.cpp:84] Creating Layer res4b33_branch2b
I0523 00:33:42.269628  5070 net.cpp:406] res4b33_branch2b <- res4b33_branch2a
I0523 00:33:42.269630  5070 net.cpp:380] res4b33_branch2b -> res4b33_branch2b
I0523 00:33:42.275907  5070 net.cpp:122] Setting up res4b33_branch2b
I0523 00:33:42.275914  5070 net.cpp:129] Top shape: 1 256 14 14 (50176)
I0523 00:33:42.275916  5070 net.cpp:137] Memory required for data: 474464272
I0523 00:33:42.275919  5070 layer_factory.hpp:77] Creating layer bn4b33_branch2b
I0523 00:33:42.275924  5070 net.cpp:84] Creating Layer bn4b33_branch2b
I0523 00:33:42.275929  5070 net.cpp:406] bn4b33_branch2b <- res4b33_branch2b
I0523 00:33:42.275935  5070 net.cpp:367] bn4b33_branch2b -> res4b33_branch2b (in-place)
I0523 00:33:42.276093  5070 net.cpp:122] Setting up bn4b33_branch2b
I0523 00:33:42.276096  5070 net.cpp:129] Top shape: 1 256 14 14 (50176)
I0523 00:33:42.276098  5070 net.cpp:137] Memory required for data: 474664976
I0523 00:33:42.276101  5070 layer_factory.hpp:77] Creating layer scale4b33_branch2b
I0523 00:33:42.276110  5070 net.cpp:84] Creating Layer scale4b33_branch2b
I0523 00:33:42.276113  5070 net.cpp:406] scale4b33_branch2b <- res4b33_branch2b
I0523 00:33:42.276116  5070 net.cpp:367] scale4b33_branch2b -> res4b33_branch2b (in-place)
I0523 00:33:42.276144  5070 layer_factory.hpp:77] Creating layer scale4b33_branch2b
I0523 00:33:42.276226  5070 net.cpp:122] Setting up scale4b33_branch2b
I0523 00:33:42.276229  5070 net.cpp:129] Top shape: 1 256 14 14 (50176)
I0523 00:33:42.276232  5070 net.cpp:137] Memory required for data: 474865680
I0523 00:33:42.276233  5070 layer_factory.hpp:77] Creating layer res4b33_branch2b_relu
I0523 00:33:42.276239  5070 net.cpp:84] Creating Layer res4b33_branch2b_relu
I0523 00:33:42.276243  5070 net.cpp:406] res4b33_branch2b_relu <- res4b33_branch2b
I0523 00:33:42.276247  5070 net.cpp:367] res4b33_branch2b_relu -> res4b33_branch2b (in-place)
I0523 00:33:42.276675  5070 net.cpp:122] Setting up res4b33_branch2b_relu
I0523 00:33:42.276680  5070 net.cpp:129] Top shape: 1 256 14 14 (50176)
I0523 00:33:42.276681  5070 net.cpp:137] Memory required for data: 475066384
I0523 00:33:42.276684  5070 layer_factory.hpp:77] Creating layer res4b33_branch2c
I0523 00:33:42.276690  5070 net.cpp:84] Creating Layer res4b33_branch2c
I0523 00:33:42.276691  5070 net.cpp:406] res4b33_branch2c <- res4b33_branch2b
I0523 00:33:42.276695  5070 net.cpp:380] res4b33_branch2c -> res4b33_branch2c
I0523 00:33:42.279970  5070 net.cpp:122] Setting up res4b33_branch2c
I0523 00:33:42.279976  5070 net.cpp:129] Top shape: 1 1024 14 14 (200704)
I0523 00:33:42.279978  5070 net.cpp:137] Memory required for data: 475869200
I0523 00:33:42.279981  5070 layer_factory.hpp:77] Creating layer bn4b33_branch2c
I0523 00:33:42.279984  5070 net.cpp:84] Creating Layer bn4b33_branch2c
I0523 00:33:42.279987  5070 net.cpp:406] bn4b33_branch2c <- res4b33_branch2c
I0523 00:33:42.279992  5070 net.cpp:367] bn4b33_branch2c -> res4b33_branch2c (in-place)
I0523 00:33:42.280210  5070 net.cpp:122] Setting up bn4b33_branch2c
I0523 00:33:42.280212  5070 net.cpp:129] Top shape: 1 1024 14 14 (200704)
I0523 00:33:42.295709  5070 net.cpp:137] Memory required for data: 476672016
I0523 00:33:42.295717  5070 layer_factory.hpp:77] Creating layer scale4b33_branch2c
I0523 00:33:42.295720  5070 net.cpp:84] Creating Layer scale4b33_branch2c
I0523 00:33:42.295723  5070 net.cpp:406] scale4b33_branch2c <- res4b33_branch2c
I0523 00:33:42.295727  5070 net.cpp:367] scale4b33_branch2c -> res4b33_branch2c (in-place)
I0523 00:33:42.295794  5070 layer_factory.hpp:77] Creating layer scale4b33_branch2c
I0523 00:33:42.295915  5070 net.cpp:122] Setting up scale4b33_branch2c
I0523 00:33:42.295919  5070 net.cpp:129] Top shape: 1 1024 14 14 (200704)
I0523 00:33:42.295922  5070 net.cpp:137] Memory required for data: 477474832
I0523 00:33:42.295923  5070 layer_factory.hpp:77] Creating layer res4b33
I0523 00:33:42.295928  5070 net.cpp:84] Creating Layer res4b33
I0523 00:33:42.295930  5070 net.cpp:406] res4b33 <- res4b32_res4b32_relu_0_split_1
I0523 00:33:42.295933  5070 net.cpp:406] res4b33 <- res4b33_branch2c
I0523 00:33:42.295935  5070 net.cpp:380] res4b33 -> res4b33
I0523 00:33:42.295953  5070 net.cpp:122] Setting up res4b33
I0523 00:33:42.295956  5070 net.cpp:129] Top shape: 1 1024 14 14 (200704)
I0523 00:33:42.295958  5070 net.cpp:137] Memory required for data: 478277648
I0523 00:33:42.295959  5070 layer_factory.hpp:77] Creating layer res4b33_relu
I0523 00:33:42.295969  5070 net.cpp:84] Creating Layer res4b33_relu
I0523 00:33:42.295971  5070 net.cpp:406] res4b33_relu <- res4b33
I0523 00:33:42.295974  5070 net.cpp:367] res4b33_relu -> res4b33 (in-place)
I0523 00:33:42.296569  5070 net.cpp:122] Setting up res4b33_relu
I0523 00:33:42.296576  5070 net.cpp:129] Top shape: 1 1024 14 14 (200704)
I0523 00:33:42.296577  5070 net.cpp:137] Memory required for data: 479080464
I0523 00:33:42.296579  5070 layer_factory.hpp:77] Creating layer res4b33_res4b33_relu_0_split
I0523 00:33:42.296582  5070 net.cpp:84] Creating Layer res4b33_res4b33_relu_0_split
I0523 00:33:42.296584  5070 net.cpp:406] res4b33_res4b33_relu_0_split <- res4b33
I0523 00:33:42.296594  5070 net.cpp:380] res4b33_res4b33_relu_0_split -> res4b33_res4b33_relu_0_split_0
I0523 00:33:42.296598  5070 net.cpp:380] res4b33_res4b33_relu_0_split -> res4b33_res4b33_relu_0_split_1
I0523 00:33:42.296633  5070 net.cpp:122] Setting up res4b33_res4b33_relu_0_split
I0523 00:33:42.296636  5070 net.cpp:129] Top shape: 1 1024 14 14 (200704)
I0523 00:33:42.296639  5070 net.cpp:129] Top shape: 1 1024 14 14 (200704)
I0523 00:33:42.296640  5070 net.cpp:137] Memory required for data: 480686096
I0523 00:33:42.296643  5070 layer_factory.hpp:77] Creating layer res4b34_branch2a
I0523 00:33:42.296648  5070 net.cpp:84] Creating Layer res4b34_branch2a
I0523 00:33:42.296650  5070 net.cpp:406] res4b34_branch2a <- res4b33_res4b33_relu_0_split_0
I0523 00:33:42.296653  5070 net.cpp:380] res4b34_branch2a -> res4b34_branch2a
I0523 00:33:42.300670  5070 net.cpp:122] Setting up res4b34_branch2a
I0523 00:33:42.300678  5070 net.cpp:129] Top shape: 1 256 14 14 (50176)
I0523 00:33:42.300681  5070 net.cpp:137] Memory required for data: 480886800
I0523 00:33:42.300684  5070 layer_factory.hpp:77] Creating layer bn4b34_branch2a
I0523 00:33:42.300695  5070 net.cpp:84] Creating Layer bn4b34_branch2a
I0523 00:33:42.300698  5070 net.cpp:406] bn4b34_branch2a <- res4b34_branch2a
I0523 00:33:42.300701  5070 net.cpp:367] bn4b34_branch2a -> res4b34_branch2a (in-place)
I0523 00:33:42.300865  5070 net.cpp:122] Setting up bn4b34_branch2a
I0523 00:33:42.300869  5070 net.cpp:129] Top shape: 1 256 14 14 (50176)
I0523 00:33:42.300871  5070 net.cpp:137] Memory required for data: 481087504
I0523 00:33:42.300874  5070 layer_factory.hpp:77] Creating layer scale4b34_branch2a
I0523 00:33:42.300879  5070 net.cpp:84] Creating Layer scale4b34_branch2a
I0523 00:33:42.300881  5070 net.cpp:406] scale4b34_branch2a <- res4b34_branch2a
I0523 00:33:42.300884  5070 net.cpp:367] scale4b34_branch2a -> res4b34_branch2a (in-place)
I0523 00:33:42.300911  5070 layer_factory.hpp:77] Creating layer scale4b34_branch2a
I0523 00:33:42.301000  5070 net.cpp:122] Setting up scale4b34_branch2a
I0523 00:33:42.301003  5070 net.cpp:129] Top shape: 1 256 14 14 (50176)
I0523 00:33:42.301005  5070 net.cpp:137] Memory required for data: 481288208
I0523 00:33:42.301008  5070 layer_factory.hpp:77] Creating layer res4b34_branch2a_relu
I0523 00:33:42.301012  5070 net.cpp:84] Creating Layer res4b34_branch2a_relu
I0523 00:33:42.301013  5070 net.cpp:406] res4b34_branch2a_relu <- res4b34_branch2a
I0523 00:33:42.301017  5070 net.cpp:367] res4b34_branch2a_relu -> res4b34_branch2a (in-place)
I0523 00:33:42.301443  5070 net.cpp:122] Setting up res4b34_branch2a_relu
I0523 00:33:42.301448  5070 net.cpp:129] Top shape: 1 256 14 14 (50176)
I0523 00:33:42.301450  5070 net.cpp:137] Memory required for data: 481488912
I0523 00:33:42.301452  5070 layer_factory.hpp:77] Creating layer res4b34_branch2b
I0523 00:33:42.301457  5070 net.cpp:84] Creating Layer res4b34_branch2b
I0523 00:33:42.301460  5070 net.cpp:406] res4b34_branch2b <- res4b34_branch2a
I0523 00:33:42.301463  5070 net.cpp:380] res4b34_branch2b -> res4b34_branch2b
I0523 00:33:42.307528  5070 net.cpp:122] Setting up res4b34_branch2b
I0523 00:33:42.307535  5070 net.cpp:129] Top shape: 1 256 14 14 (50176)
I0523 00:33:42.307538  5070 net.cpp:137] Memory required for data: 481689616
I0523 00:33:42.307540  5070 layer_factory.hpp:77] Creating layer bn4b34_branch2b
I0523 00:33:42.307545  5070 net.cpp:84] Creating Layer bn4b34_branch2b
I0523 00:33:42.307548  5070 net.cpp:406] bn4b34_branch2b <- res4b34_branch2b
I0523 00:33:42.307551  5070 net.cpp:367] bn4b34_branch2b -> res4b34_branch2b (in-place)
I0523 00:33:42.307713  5070 net.cpp:122] Setting up bn4b34_branch2b
I0523 00:33:42.307716  5070 net.cpp:129] Top shape: 1 256 14 14 (50176)
I0523 00:33:42.307718  5070 net.cpp:137] Memory required for data: 481890320
I0523 00:33:42.307721  5070 layer_factory.hpp:77] Creating layer scale4b34_branch2b
I0523 00:33:42.307725  5070 net.cpp:84] Creating Layer scale4b34_branch2b
I0523 00:33:42.307729  5070 net.cpp:406] scale4b34_branch2b <- res4b34_branch2b
I0523 00:33:42.307737  5070 net.cpp:367] scale4b34_branch2b -> res4b34_branch2b (in-place)
I0523 00:33:42.307766  5070 layer_factory.hpp:77] Creating layer scale4b34_branch2b
I0523 00:33:42.307850  5070 net.cpp:122] Setting up scale4b34_branch2b
I0523 00:33:42.307853  5070 net.cpp:129] Top shape: 1 256 14 14 (50176)
I0523 00:33:42.307855  5070 net.cpp:137] Memory required for data: 482091024
I0523 00:33:42.307858  5070 layer_factory.hpp:77] Creating layer res4b34_branch2b_relu
I0523 00:33:42.307862  5070 net.cpp:84] Creating Layer res4b34_branch2b_relu
I0523 00:33:42.307864  5070 net.cpp:406] res4b34_branch2b_relu <- res4b34_branch2b
I0523 00:33:42.307866  5070 net.cpp:367] res4b34_branch2b_relu -> res4b34_branch2b (in-place)
I0523 00:33:42.308466  5070 net.cpp:122] Setting up res4b34_branch2b_relu
I0523 00:33:42.308471  5070 net.cpp:129] Top shape: 1 256 14 14 (50176)
I0523 00:33:42.308473  5070 net.cpp:137] Memory required for data: 482291728
I0523 00:33:42.308475  5070 layer_factory.hpp:77] Creating layer res4b34_branch2c
I0523 00:33:42.308480  5070 net.cpp:84] Creating Layer res4b34_branch2c
I0523 00:33:42.308482  5070 net.cpp:406] res4b34_branch2c <- res4b34_branch2b
I0523 00:33:42.308486  5070 net.cpp:380] res4b34_branch2c -> res4b34_branch2c
I0523 00:33:42.311816  5070 net.cpp:122] Setting up res4b34_branch2c
I0523 00:33:42.311823  5070 net.cpp:129] Top shape: 1 1024 14 14 (200704)
I0523 00:33:42.311825  5070 net.cpp:137] Memory required for data: 483094544
I0523 00:33:42.311828  5070 layer_factory.hpp:77] Creating layer bn4b34_branch2c
I0523 00:33:42.311832  5070 net.cpp:84] Creating Layer bn4b34_branch2c
I0523 00:33:42.311834  5070 net.cpp:406] bn4b34_branch2c <- res4b34_branch2c
I0523 00:33:42.311837  5070 net.cpp:367] bn4b34_branch2c -> res4b34_branch2c (in-place)
I0523 00:33:42.312064  5070 net.cpp:122] Setting up bn4b34_branch2c
I0523 00:33:42.312067  5070 net.cpp:129] Top shape: 1 1024 14 14 (200704)
I0523 00:33:42.327121  5070 net.cpp:137] Memory required for data: 483897360
I0523 00:33:42.327128  5070 layer_factory.hpp:77] Creating layer scale4b34_branch2c
I0523 00:33:42.327134  5070 net.cpp:84] Creating Layer scale4b34_branch2c
I0523 00:33:42.327136  5070 net.cpp:406] scale4b34_branch2c <- res4b34_branch2c
I0523 00:33:42.327139  5070 net.cpp:367] scale4b34_branch2c -> res4b34_branch2c (in-place)
I0523 00:33:42.327208  5070 layer_factory.hpp:77] Creating layer scale4b34_branch2c
I0523 00:33:42.327333  5070 net.cpp:122] Setting up scale4b34_branch2c
I0523 00:33:42.327337  5070 net.cpp:129] Top shape: 1 1024 14 14 (200704)
I0523 00:33:42.327338  5070 net.cpp:137] Memory required for data: 484700176
I0523 00:33:42.327342  5070 layer_factory.hpp:77] Creating layer res4b34
I0523 00:33:42.327345  5070 net.cpp:84] Creating Layer res4b34
I0523 00:33:42.327348  5070 net.cpp:406] res4b34 <- res4b33_res4b33_relu_0_split_1
I0523 00:33:42.327350  5070 net.cpp:406] res4b34 <- res4b34_branch2c
I0523 00:33:42.327353  5070 net.cpp:380] res4b34 -> res4b34
I0523 00:33:42.327378  5070 net.cpp:122] Setting up res4b34
I0523 00:33:42.327380  5070 net.cpp:129] Top shape: 1 1024 14 14 (200704)
I0523 00:33:42.327383  5070 net.cpp:137] Memory required for data: 485502992
I0523 00:33:42.327384  5070 layer_factory.hpp:77] Creating layer res4b34_relu
I0523 00:33:42.327388  5070 net.cpp:84] Creating Layer res4b34_relu
I0523 00:33:42.327389  5070 net.cpp:406] res4b34_relu <- res4b34
I0523 00:33:42.327392  5070 net.cpp:367] res4b34_relu -> res4b34 (in-place)
I0523 00:33:42.327831  5070 net.cpp:122] Setting up res4b34_relu
I0523 00:33:42.327836  5070 net.cpp:129] Top shape: 1 1024 14 14 (200704)
I0523 00:33:42.327838  5070 net.cpp:137] Memory required for data: 486305808
I0523 00:33:42.327841  5070 layer_factory.hpp:77] Creating layer res4b34_res4b34_relu_0_split
I0523 00:33:42.327844  5070 net.cpp:84] Creating Layer res4b34_res4b34_relu_0_split
I0523 00:33:42.327847  5070 net.cpp:406] res4b34_res4b34_relu_0_split <- res4b34
I0523 00:33:42.327849  5070 net.cpp:380] res4b34_res4b34_relu_0_split -> res4b34_res4b34_relu_0_split_0
I0523 00:33:42.327859  5070 net.cpp:380] res4b34_res4b34_relu_0_split -> res4b34_res4b34_relu_0_split_1
I0523 00:33:42.327893  5070 net.cpp:122] Setting up res4b34_res4b34_relu_0_split
I0523 00:33:42.327896  5070 net.cpp:129] Top shape: 1 1024 14 14 (200704)
I0523 00:33:42.327898  5070 net.cpp:129] Top shape: 1 1024 14 14 (200704)
I0523 00:33:42.327900  5070 net.cpp:137] Memory required for data: 487911440
I0523 00:33:42.327903  5070 layer_factory.hpp:77] Creating layer res4b35_branch2a
I0523 00:33:42.327908  5070 net.cpp:84] Creating Layer res4b35_branch2a
I0523 00:33:42.327909  5070 net.cpp:406] res4b35_branch2a <- res4b34_res4b34_relu_0_split_0
I0523 00:33:42.327913  5070 net.cpp:380] res4b35_branch2a -> res4b35_branch2a
I0523 00:33:42.331981  5070 net.cpp:122] Setting up res4b35_branch2a
I0523 00:33:42.331989  5070 net.cpp:129] Top shape: 1 256 14 14 (50176)
I0523 00:33:42.331990  5070 net.cpp:137] Memory required for data: 488112144
I0523 00:33:42.331993  5070 layer_factory.hpp:77] Creating layer bn4b35_branch2a
I0523 00:33:42.331998  5070 net.cpp:84] Creating Layer bn4b35_branch2a
I0523 00:33:42.332001  5070 net.cpp:406] bn4b35_branch2a <- res4b35_branch2a
I0523 00:33:42.332003  5070 net.cpp:367] bn4b35_branch2a -> res4b35_branch2a (in-place)
I0523 00:33:42.332168  5070 net.cpp:122] Setting up bn4b35_branch2a
I0523 00:33:42.332171  5070 net.cpp:129] Top shape: 1 256 14 14 (50176)
I0523 00:33:42.332173  5070 net.cpp:137] Memory required for data: 488312848
I0523 00:33:42.332176  5070 layer_factory.hpp:77] Creating layer scale4b35_branch2a
I0523 00:33:42.332180  5070 net.cpp:84] Creating Layer scale4b35_branch2a
I0523 00:33:42.332181  5070 net.cpp:406] scale4b35_branch2a <- res4b35_branch2a
I0523 00:33:42.332185  5070 net.cpp:367] scale4b35_branch2a -> res4b35_branch2a (in-place)
I0523 00:33:42.332213  5070 layer_factory.hpp:77] Creating layer scale4b35_branch2a
I0523 00:33:42.332295  5070 net.cpp:122] Setting up scale4b35_branch2a
I0523 00:33:42.332298  5070 net.cpp:129] Top shape: 1 256 14 14 (50176)
I0523 00:33:42.332300  5070 net.cpp:137] Memory required for data: 488513552
I0523 00:33:42.332304  5070 layer_factory.hpp:77] Creating layer res4b35_branch2a_relu
I0523 00:33:42.332306  5070 net.cpp:84] Creating Layer res4b35_branch2a_relu
I0523 00:33:42.332309  5070 net.cpp:406] res4b35_branch2a_relu <- res4b35_branch2a
I0523 00:33:42.332311  5070 net.cpp:367] res4b35_branch2a_relu -> res4b35_branch2a (in-place)
I0523 00:33:42.332743  5070 net.cpp:122] Setting up res4b35_branch2a_relu
I0523 00:33:42.332747  5070 net.cpp:129] Top shape: 1 256 14 14 (50176)
I0523 00:33:42.332749  5070 net.cpp:137] Memory required for data: 488714256
I0523 00:33:42.332751  5070 layer_factory.hpp:77] Creating layer res4b35_branch2b
I0523 00:33:42.332756  5070 net.cpp:84] Creating Layer res4b35_branch2b
I0523 00:33:42.332758  5070 net.cpp:406] res4b35_branch2b <- res4b35_branch2a
I0523 00:33:42.332762  5070 net.cpp:380] res4b35_branch2b -> res4b35_branch2b
I0523 00:33:42.338752  5070 net.cpp:122] Setting up res4b35_branch2b
I0523 00:33:42.338759  5070 net.cpp:129] Top shape: 1 256 14 14 (50176)
I0523 00:33:42.338762  5070 net.cpp:137] Memory required for data: 488914960
I0523 00:33:42.338770  5070 layer_factory.hpp:77] Creating layer bn4b35_branch2b
I0523 00:33:42.338775  5070 net.cpp:84] Creating Layer bn4b35_branch2b
I0523 00:33:42.338778  5070 net.cpp:406] bn4b35_branch2b <- res4b35_branch2b
I0523 00:33:42.338781  5070 net.cpp:367] bn4b35_branch2b -> res4b35_branch2b (in-place)
I0523 00:33:42.338943  5070 net.cpp:122] Setting up bn4b35_branch2b
I0523 00:33:42.338946  5070 net.cpp:129] Top shape: 1 256 14 14 (50176)
I0523 00:33:42.338948  5070 net.cpp:137] Memory required for data: 489115664
I0523 00:33:42.338951  5070 layer_factory.hpp:77] Creating layer scale4b35_branch2b
I0523 00:33:42.338954  5070 net.cpp:84] Creating Layer scale4b35_branch2b
I0523 00:33:42.338956  5070 net.cpp:406] scale4b35_branch2b <- res4b35_branch2b
I0523 00:33:42.338959  5070 net.cpp:367] scale4b35_branch2b -> res4b35_branch2b (in-place)
I0523 00:33:42.338992  5070 layer_factory.hpp:77] Creating layer scale4b35_branch2b
I0523 00:33:42.339082  5070 net.cpp:122] Setting up scale4b35_branch2b
I0523 00:33:42.339084  5070 net.cpp:129] Top shape: 1 256 14 14 (50176)
I0523 00:33:42.339087  5070 net.cpp:137] Memory required for data: 489316368
I0523 00:33:42.339088  5070 layer_factory.hpp:77] Creating layer res4b35_branch2b_relu
I0523 00:33:42.339092  5070 net.cpp:84] Creating Layer res4b35_branch2b_relu
I0523 00:33:42.339093  5070 net.cpp:406] res4b35_branch2b_relu <- res4b35_branch2b
I0523 00:33:42.339097  5070 net.cpp:367] res4b35_branch2b_relu -> res4b35_branch2b (in-place)
I0523 00:33:42.339530  5070 net.cpp:122] Setting up res4b35_branch2b_relu
I0523 00:33:42.339535  5070 net.cpp:129] Top shape: 1 256 14 14 (50176)
I0523 00:33:42.339537  5070 net.cpp:137] Memory required for data: 489517072
I0523 00:33:42.339540  5070 layer_factory.hpp:77] Creating layer res4b35_branch2c
I0523 00:33:42.339543  5070 net.cpp:84] Creating Layer res4b35_branch2c
I0523 00:33:42.339546  5070 net.cpp:406] res4b35_branch2c <- res4b35_branch2b
I0523 00:33:42.339550  5070 net.cpp:380] res4b35_branch2c -> res4b35_branch2c
I0523 00:33:42.343168  5070 net.cpp:122] Setting up res4b35_branch2c
I0523 00:33:42.343174  5070 net.cpp:129] Top shape: 1 1024 14 14 (200704)
I0523 00:33:42.343176  5070 net.cpp:137] Memory required for data: 490319888
I0523 00:33:42.343179  5070 layer_factory.hpp:77] Creating layer bn4b35_branch2c
I0523 00:33:42.343183  5070 net.cpp:84] Creating Layer bn4b35_branch2c
I0523 00:33:42.343186  5070 net.cpp:406] bn4b35_branch2c <- res4b35_branch2c
I0523 00:33:42.343189  5070 net.cpp:367] bn4b35_branch2c -> res4b35_branch2c (in-place)
I0523 00:33:42.343420  5070 net.cpp:122] Setting up bn4b35_branch2c
I0523 00:33:42.343423  5070 net.cpp:129] Top shape: 1 1024 14 14 (200704)
I0523 00:33:42.358846  5070 net.cpp:137] Memory required for data: 491122704
I0523 00:33:42.358853  5070 layer_factory.hpp:77] Creating layer scale4b35_branch2c
I0523 00:33:42.358860  5070 net.cpp:84] Creating Layer scale4b35_branch2c
I0523 00:33:42.358862  5070 net.cpp:406] scale4b35_branch2c <- res4b35_branch2c
I0523 00:33:42.358865  5070 net.cpp:367] scale4b35_branch2c -> res4b35_branch2c (in-place)
I0523 00:33:42.358934  5070 layer_factory.hpp:77] Creating layer scale4b35_branch2c
I0523 00:33:42.359061  5070 net.cpp:122] Setting up scale4b35_branch2c
I0523 00:33:42.359066  5070 net.cpp:129] Top shape: 1 1024 14 14 (200704)
I0523 00:33:42.359066  5070 net.cpp:137] Memory required for data: 491925520
I0523 00:33:42.359069  5070 layer_factory.hpp:77] Creating layer res4b35
I0523 00:33:42.359073  5070 net.cpp:84] Creating Layer res4b35
I0523 00:33:42.359076  5070 net.cpp:406] res4b35 <- res4b34_res4b34_relu_0_split_1
I0523 00:33:42.359078  5070 net.cpp:406] res4b35 <- res4b35_branch2c
I0523 00:33:42.359081  5070 net.cpp:380] res4b35 -> res4b35
I0523 00:33:42.359105  5070 net.cpp:122] Setting up res4b35
I0523 00:33:42.359108  5070 net.cpp:129] Top shape: 1 1024 14 14 (200704)
I0523 00:33:42.359110  5070 net.cpp:137] Memory required for data: 492728336
I0523 00:33:42.359112  5070 layer_factory.hpp:77] Creating layer res4b35_relu
I0523 00:33:42.359114  5070 net.cpp:84] Creating Layer res4b35_relu
I0523 00:33:42.359117  5070 net.cpp:406] res4b35_relu <- res4b35
I0523 00:33:42.359119  5070 net.cpp:367] res4b35_relu -> res4b35 (in-place)
I0523 00:33:42.359551  5070 net.cpp:122] Setting up res4b35_relu
I0523 00:33:42.359556  5070 net.cpp:129] Top shape: 1 1024 14 14 (200704)
I0523 00:33:42.359558  5070 net.cpp:137] Memory required for data: 493531152
I0523 00:33:42.359560  5070 layer_factory.hpp:77] Creating layer res4b35_res4b35_relu_0_split
I0523 00:33:42.359563  5070 net.cpp:84] Creating Layer res4b35_res4b35_relu_0_split
I0523 00:33:42.359566  5070 net.cpp:406] res4b35_res4b35_relu_0_split <- res4b35
I0523 00:33:42.359570  5070 net.cpp:380] res4b35_res4b35_relu_0_split -> res4b35_res4b35_relu_0_split_0
I0523 00:33:42.359575  5070 net.cpp:380] res4b35_res4b35_relu_0_split -> res4b35_res4b35_relu_0_split_1
I0523 00:33:42.359616  5070 net.cpp:122] Setting up res4b35_res4b35_relu_0_split
I0523 00:33:42.359619  5070 net.cpp:129] Top shape: 1 1024 14 14 (200704)
I0523 00:33:42.359622  5070 net.cpp:129] Top shape: 1 1024 14 14 (200704)
I0523 00:33:42.359623  5070 net.cpp:137] Memory required for data: 495136784
I0523 00:33:42.359624  5070 layer_factory.hpp:77] Creating layer res5a_branch1
I0523 00:33:42.359629  5070 net.cpp:84] Creating Layer res5a_branch1
I0523 00:33:42.359632  5070 net.cpp:406] res5a_branch1 <- res4b35_res4b35_relu_0_split_0
I0523 00:33:42.359635  5070 net.cpp:380] res5a_branch1 -> res5a_branch1
I0523 00:33:42.376250  5070 net.cpp:122] Setting up res5a_branch1
I0523 00:33:42.376266  5070 net.cpp:129] Top shape: 1 2048 7 7 (100352)
I0523 00:33:42.376268  5070 net.cpp:137] Memory required for data: 495538192
I0523 00:33:42.376273  5070 layer_factory.hpp:77] Creating layer bn5a_branch1
I0523 00:33:42.376279  5070 net.cpp:84] Creating Layer bn5a_branch1
I0523 00:33:42.376283  5070 net.cpp:406] bn5a_branch1 <- res5a_branch1
I0523 00:33:42.376286  5070 net.cpp:367] bn5a_branch1 -> res5a_branch1 (in-place)
I0523 00:33:42.376543  5070 net.cpp:122] Setting up bn5a_branch1
I0523 00:33:42.376547  5070 net.cpp:129] Top shape: 1 2048 7 7 (100352)
I0523 00:33:42.376549  5070 net.cpp:137] Memory required for data: 495939600
I0523 00:33:42.376554  5070 layer_factory.hpp:77] Creating layer scale5a_branch1
I0523 00:33:42.376557  5070 net.cpp:84] Creating Layer scale5a_branch1
I0523 00:33:42.376559  5070 net.cpp:406] scale5a_branch1 <- res5a_branch1
I0523 00:33:42.376562  5070 net.cpp:367] scale5a_branch1 -> res5a_branch1 (in-place)
I0523 00:33:42.376615  5070 layer_factory.hpp:77] Creating layer scale5a_branch1
I0523 00:33:42.376740  5070 net.cpp:122] Setting up scale5a_branch1
I0523 00:33:42.376744  5070 net.cpp:129] Top shape: 1 2048 7 7 (100352)
I0523 00:33:42.376746  5070 net.cpp:137] Memory required for data: 496341008
I0523 00:33:42.376749  5070 layer_factory.hpp:77] Creating layer res5a_branch2a
I0523 00:33:42.376754  5070 net.cpp:84] Creating Layer res5a_branch2a
I0523 00:33:42.376757  5070 net.cpp:406] res5a_branch2a <- res4b35_res4b35_relu_0_split_1
I0523 00:33:42.376761  5070 net.cpp:380] res5a_branch2a -> res5a_branch2a
I0523 00:33:42.382381  5070 net.cpp:122] Setting up res5a_branch2a
I0523 00:33:42.382388  5070 net.cpp:129] Top shape: 1 512 7 7 (25088)
I0523 00:33:42.382390  5070 net.cpp:137] Memory required for data: 496441360
I0523 00:33:42.382393  5070 layer_factory.hpp:77] Creating layer bn5a_branch2a
I0523 00:33:42.382397  5070 net.cpp:84] Creating Layer bn5a_branch2a
I0523 00:33:42.382400  5070 net.cpp:406] bn5a_branch2a <- res5a_branch2a
I0523 00:33:42.382403  5070 net.cpp:367] bn5a_branch2a -> res5a_branch2a (in-place)
I0523 00:33:42.382622  5070 net.cpp:122] Setting up bn5a_branch2a
I0523 00:33:42.382627  5070 net.cpp:129] Top shape: 1 512 7 7 (25088)
I0523 00:33:42.382627  5070 net.cpp:137] Memory required for data: 496541712
I0523 00:33:42.382632  5070 layer_factory.hpp:77] Creating layer scale5a_branch2a
I0523 00:33:42.382634  5070 net.cpp:84] Creating Layer scale5a_branch2a
I0523 00:33:42.382637  5070 net.cpp:406] scale5a_branch2a <- res5a_branch2a
I0523 00:33:42.382638  5070 net.cpp:367] scale5a_branch2a -> res5a_branch2a (in-place)
I0523 00:33:42.382697  5070 layer_factory.hpp:77] Creating layer scale5a_branch2a
I0523 00:33:42.382817  5070 net.cpp:122] Setting up scale5a_branch2a
I0523 00:33:42.382819  5070 net.cpp:129] Top shape: 1 512 7 7 (25088)
I0523 00:33:42.382822  5070 net.cpp:137] Memory required for data: 496642064
I0523 00:33:42.382824  5070 layer_factory.hpp:77] Creating layer res5a_branch2a_relu
I0523 00:33:42.382827  5070 net.cpp:84] Creating Layer res5a_branch2a_relu
I0523 00:33:42.382830  5070 net.cpp:406] res5a_branch2a_relu <- res5a_branch2a
I0523 00:33:42.382833  5070 net.cpp:367] res5a_branch2a_relu -> res5a_branch2a (in-place)
I0523 00:33:42.383256  5070 net.cpp:122] Setting up res5a_branch2a_relu
I0523 00:33:42.383260  5070 net.cpp:129] Top shape: 1 512 7 7 (25088)
I0523 00:33:42.383262  5070 net.cpp:137] Memory required for data: 496742416
I0523 00:33:42.383277  5070 layer_factory.hpp:77] Creating layer res5a_branch2b
I0523 00:33:42.383282  5070 net.cpp:84] Creating Layer res5a_branch2b
I0523 00:33:42.383285  5070 net.cpp:406] res5a_branch2b <- res5a_branch2a
I0523 00:33:42.383287  5070 net.cpp:380] res5a_branch2b -> res5a_branch2b
I0523 00:33:42.401926  5070 net.cpp:122] Setting up res5a_branch2b
I0523 00:33:42.401938  5070 net.cpp:129] Top shape: 1 512 7 7 (25088)
I0523 00:33:42.401940  5070 net.cpp:137] Memory required for data: 496842768
I0523 00:33:42.401945  5070 layer_factory.hpp:77] Creating layer bn5a_branch2b
I0523 00:33:42.401950  5070 net.cpp:84] Creating Layer bn5a_branch2b
I0523 00:33:42.401954  5070 net.cpp:406] bn5a_branch2b <- res5a_branch2b
I0523 00:33:42.401958  5070 net.cpp:367] bn5a_branch2b -> res5a_branch2b (in-place)
I0523 00:33:42.402210  5070 net.cpp:122] Setting up bn5a_branch2b
I0523 00:33:42.402213  5070 net.cpp:129] Top shape: 1 512 7 7 (25088)
I0523 00:33:42.402215  5070 net.cpp:137] Memory required for data: 496943120
I0523 00:33:42.402220  5070 layer_factory.hpp:77] Creating layer scale5a_branch2b
I0523 00:33:42.402222  5070 net.cpp:84] Creating Layer scale5a_branch2b
I0523 00:33:42.402225  5070 net.cpp:406] scale5a_branch2b <- res5a_branch2b
I0523 00:33:42.402227  5070 net.cpp:367] scale5a_branch2b -> res5a_branch2b (in-place)
I0523 00:33:42.402281  5070 layer_factory.hpp:77] Creating layer scale5a_branch2b
I0523 00:33:42.402405  5070 net.cpp:122] Setting up scale5a_branch2b
I0523 00:33:42.402410  5070 net.cpp:129] Top shape: 1 512 7 7 (25088)
I0523 00:33:42.402411  5070 net.cpp:137] Memory required for data: 497043472
I0523 00:33:42.402413  5070 layer_factory.hpp:77] Creating layer res5a_branch2b_relu
I0523 00:33:42.402420  5070 net.cpp:84] Creating Layer res5a_branch2b_relu
I0523 00:33:42.402421  5070 net.cpp:406] res5a_branch2b_relu <- res5a_branch2b
I0523 00:33:42.402423  5070 net.cpp:367] res5a_branch2b_relu -> res5a_branch2b (in-place)
I0523 00:33:42.402849  5070 net.cpp:122] Setting up res5a_branch2b_relu
I0523 00:33:42.402854  5070 net.cpp:129] Top shape: 1 512 7 7 (25088)
I0523 00:33:42.402855  5070 net.cpp:137] Memory required for data: 497143824
I0523 00:33:42.402858  5070 layer_factory.hpp:77] Creating layer res5a_branch2c
I0523 00:33:42.402863  5070 net.cpp:84] Creating Layer res5a_branch2c
I0523 00:33:42.402865  5070 net.cpp:406] res5a_branch2c <- res5a_branch2b
I0523 00:33:42.402868  5070 net.cpp:380] res5a_branch2c -> res5a_branch2c
I0523 00:33:42.412215  5070 net.cpp:122] Setting up res5a_branch2c
I0523 00:33:42.412225  5070 net.cpp:129] Top shape: 1 2048 7 7 (100352)
I0523 00:33:42.412227  5070 net.cpp:137] Memory required for data: 497545232
I0523 00:33:42.412231  5070 layer_factory.hpp:77] Creating layer bn5a_branch2c
I0523 00:33:42.412237  5070 net.cpp:84] Creating Layer bn5a_branch2c
I0523 00:33:42.412240  5070 net.cpp:406] bn5a_branch2c <- res5a_branch2c
I0523 00:33:42.412243  5070 net.cpp:367] bn5a_branch2c -> res5a_branch2c (in-place)
I0523 00:33:42.412487  5070 net.cpp:122] Setting up bn5a_branch2c
I0523 00:33:42.412490  5070 net.cpp:129] Top shape: 1 2048 7 7 (100352)
I0523 00:33:42.412492  5070 net.cpp:137] Memory required for data: 497946640
I0523 00:33:42.412495  5070 layer_factory.hpp:77] Creating layer scale5a_branch2c
I0523 00:33:42.412498  5070 net.cpp:84] Creating Layer scale5a_branch2c
I0523 00:33:42.412501  5070 net.cpp:406] scale5a_branch2c <- res5a_branch2c
I0523 00:33:42.412503  5070 net.cpp:367] scale5a_branch2c -> res5a_branch2c (in-place)
I0523 00:33:42.412556  5070 layer_factory.hpp:77] Creating layer scale5a_branch2c
I0523 00:33:42.412685  5070 net.cpp:122] Setting up scale5a_branch2c
I0523 00:33:42.412688  5070 net.cpp:129] Top shape: 1 2048 7 7 (100352)
I0523 00:33:42.412690  5070 net.cpp:137] Memory required for data: 498348048
I0523 00:33:42.412693  5070 layer_factory.hpp:77] Creating layer res5a
I0523 00:33:42.412698  5070 net.cpp:84] Creating Layer res5a
I0523 00:33:42.412699  5070 net.cpp:406] res5a <- res5a_branch1
I0523 00:33:42.412710  5070 net.cpp:406] res5a <- res5a_branch2c
I0523 00:33:42.412714  5070 net.cpp:380] res5a -> res5a
I0523 00:33:42.412731  5070 net.cpp:122] Setting up res5a
I0523 00:33:42.412734  5070 net.cpp:129] Top shape: 1 2048 7 7 (100352)
I0523 00:33:42.412736  5070 net.cpp:137] Memory required for data: 498749456
I0523 00:33:42.412739  5070 layer_factory.hpp:77] Creating layer res5a_relu
I0523 00:33:42.412742  5070 net.cpp:84] Creating Layer res5a_relu
I0523 00:33:42.412744  5070 net.cpp:406] res5a_relu <- res5a
I0523 00:33:42.412746  5070 net.cpp:367] res5a_relu -> res5a (in-place)
I0523 00:33:42.413166  5070 net.cpp:122] Setting up res5a_relu
I0523 00:33:42.413172  5070 net.cpp:129] Top shape: 1 2048 7 7 (100352)
I0523 00:33:42.413172  5070 net.cpp:137] Memory required for data: 499150864
I0523 00:33:42.413174  5070 layer_factory.hpp:77] Creating layer res5a_res5a_relu_0_split
I0523 00:33:42.413178  5070 net.cpp:84] Creating Layer res5a_res5a_relu_0_split
I0523 00:33:42.413182  5070 net.cpp:406] res5a_res5a_relu_0_split <- res5a
I0523 00:33:42.413184  5070 net.cpp:380] res5a_res5a_relu_0_split -> res5a_res5a_relu_0_split_0
I0523 00:33:42.413188  5070 net.cpp:380] res5a_res5a_relu_0_split -> res5a_res5a_relu_0_split_1
I0523 00:33:42.413223  5070 net.cpp:122] Setting up res5a_res5a_relu_0_split
I0523 00:33:42.413226  5070 net.cpp:129] Top shape: 1 2048 7 7 (100352)
I0523 00:33:42.413228  5070 net.cpp:129] Top shape: 1 2048 7 7 (100352)
I0523 00:33:42.413230  5070 net.cpp:137] Memory required for data: 499953680
I0523 00:33:42.413233  5070 layer_factory.hpp:77] Creating layer res5b_branch2a
I0523 00:33:42.413238  5070 net.cpp:84] Creating Layer res5b_branch2a
I0523 00:33:42.413239  5070 net.cpp:406] res5b_branch2a <- res5a_res5a_relu_0_split_0
I0523 00:33:42.413244  5070 net.cpp:380] res5b_branch2a -> res5b_branch2a
I0523 00:33:42.422340  5070 net.cpp:122] Setting up res5b_branch2a
I0523 00:33:42.422350  5070 net.cpp:129] Top shape: 1 512 7 7 (25088)
I0523 00:33:42.422353  5070 net.cpp:137] Memory required for data: 500054032
I0523 00:33:42.422356  5070 layer_factory.hpp:77] Creating layer bn5b_branch2a
I0523 00:33:42.422361  5070 net.cpp:84] Creating Layer bn5b_branch2a
I0523 00:33:42.422365  5070 net.cpp:406] bn5b_branch2a <- res5b_branch2a
I0523 00:33:42.422369  5070 net.cpp:367] bn5b_branch2a -> res5b_branch2a (in-place)
I0523 00:33:42.422605  5070 net.cpp:122] Setting up bn5b_branch2a
I0523 00:33:42.422610  5070 net.cpp:129] Top shape: 1 512 7 7 (25088)
I0523 00:33:42.422613  5070 net.cpp:137] Memory required for data: 500154384
I0523 00:33:42.422619  5070 layer_factory.hpp:77] Creating layer scale5b_branch2a
I0523 00:33:42.422622  5070 net.cpp:84] Creating Layer scale5b_branch2a
I0523 00:33:42.422624  5070 net.cpp:406] scale5b_branch2a <- res5b_branch2a
I0523 00:33:42.422629  5070 net.cpp:367] scale5b_branch2a -> res5b_branch2a (in-place)
I0523 00:33:42.422679  5070 layer_factory.hpp:77] Creating layer scale5b_branch2a
I0523 00:33:42.422801  5070 net.cpp:122] Setting up scale5b_branch2a
I0523 00:33:42.422804  5070 net.cpp:129] Top shape: 1 512 7 7 (25088)
I0523 00:33:42.422806  5070 net.cpp:137] Memory required for data: 500254736
I0523 00:33:42.422809  5070 layer_factory.hpp:77] Creating layer res5b_branch2a_relu
I0523 00:33:42.422812  5070 net.cpp:84] Creating Layer res5b_branch2a_relu
I0523 00:33:42.422814  5070 net.cpp:406] res5b_branch2a_relu <- res5b_branch2a
I0523 00:33:42.422817  5070 net.cpp:367] res5b_branch2a_relu -> res5b_branch2a (in-place)
I0523 00:33:42.423444  5070 net.cpp:122] Setting up res5b_branch2a_relu
I0523 00:33:42.423449  5070 net.cpp:129] Top shape: 1 512 7 7 (25088)
I0523 00:33:42.423451  5070 net.cpp:137] Memory required for data: 500355088
I0523 00:33:42.423454  5070 layer_factory.hpp:77] Creating layer res5b_branch2b
I0523 00:33:42.423460  5070 net.cpp:84] Creating Layer res5b_branch2b
I0523 00:33:42.423461  5070 net.cpp:406] res5b_branch2b <- res5b_branch2a
I0523 00:33:42.423465  5070 net.cpp:380] res5b_branch2b -> res5b_branch2b
I0523 00:33:42.442049  5070 net.cpp:122] Setting up res5b_branch2b
I0523 00:33:42.442077  5070 net.cpp:129] Top shape: 1 512 7 7 (25088)
I0523 00:33:42.442081  5070 net.cpp:137] Memory required for data: 500455440
I0523 00:33:42.442086  5070 layer_factory.hpp:77] Creating layer bn5b_branch2b
I0523 00:33:42.442092  5070 net.cpp:84] Creating Layer bn5b_branch2b
I0523 00:33:42.442096  5070 net.cpp:406] bn5b_branch2b <- res5b_branch2b
I0523 00:33:42.442100  5070 net.cpp:367] bn5b_branch2b -> res5b_branch2b (in-place)
I0523 00:33:42.442350  5070 net.cpp:122] Setting up bn5b_branch2b
I0523 00:33:42.442353  5070 net.cpp:129] Top shape: 1 512 7 7 (25088)
I0523 00:33:42.442355  5070 net.cpp:137] Memory required for data: 500555792
I0523 00:33:42.442359  5070 layer_factory.hpp:77] Creating layer scale5b_branch2b
I0523 00:33:42.442363  5070 net.cpp:84] Creating Layer scale5b_branch2b
I0523 00:33:42.442364  5070 net.cpp:406] scale5b_branch2b <- res5b_branch2b
I0523 00:33:42.442368  5070 net.cpp:367] scale5b_branch2b -> res5b_branch2b (in-place)
I0523 00:33:42.442426  5070 layer_factory.hpp:77] Creating layer scale5b_branch2b
I0523 00:33:42.442550  5070 net.cpp:122] Setting up scale5b_branch2b
I0523 00:33:42.442554  5070 net.cpp:129] Top shape: 1 512 7 7 (25088)
I0523 00:33:42.442555  5070 net.cpp:137] Memory required for data: 500656144
I0523 00:33:42.442559  5070 layer_factory.hpp:77] Creating layer res5b_branch2b_relu
I0523 00:33:42.442561  5070 net.cpp:84] Creating Layer res5b_branch2b_relu
I0523 00:33:42.442564  5070 net.cpp:406] res5b_branch2b_relu <- res5b_branch2b
I0523 00:33:42.442566  5070 net.cpp:367] res5b_branch2b_relu -> res5b_branch2b (in-place)
I0523 00:33:42.443001  5070 net.cpp:122] Setting up res5b_branch2b_relu
I0523 00:33:42.443006  5070 net.cpp:129] Top shape: 1 512 7 7 (25088)
I0523 00:33:42.443007  5070 net.cpp:137] Memory required for data: 500756496
I0523 00:33:42.443009  5070 layer_factory.hpp:77] Creating layer res5b_branch2c
I0523 00:33:42.443014  5070 net.cpp:84] Creating Layer res5b_branch2c
I0523 00:33:42.443017  5070 net.cpp:406] res5b_branch2c <- res5b_branch2b
I0523 00:33:42.443020  5070 net.cpp:380] res5b_branch2c -> res5b_branch2c
I0523 00:33:42.452138  5070 net.cpp:122] Setting up res5b_branch2c
I0523 00:33:42.452150  5070 net.cpp:129] Top shape: 1 2048 7 7 (100352)
I0523 00:33:42.452152  5070 net.cpp:137] Memory required for data: 501157904
I0523 00:33:42.452157  5070 layer_factory.hpp:77] Creating layer bn5b_branch2c
I0523 00:33:42.452160  5070 net.cpp:84] Creating Layer bn5b_branch2c
I0523 00:33:42.452163  5070 net.cpp:406] bn5b_branch2c <- res5b_branch2c
I0523 00:33:42.452167  5070 net.cpp:367] bn5b_branch2c -> res5b_branch2c (in-place)
I0523 00:33:42.452410  5070 net.cpp:122] Setting up bn5b_branch2c
I0523 00:33:42.452414  5070 net.cpp:129] Top shape: 1 2048 7 7 (100352)
I0523 00:33:42.452415  5070 net.cpp:137] Memory required for data: 501559312
I0523 00:33:42.452419  5070 layer_factory.hpp:77] Creating layer scale5b_branch2c
I0523 00:33:42.452422  5070 net.cpp:84] Creating Layer scale5b_branch2c
I0523 00:33:42.452425  5070 net.cpp:406] scale5b_branch2c <- res5b_branch2c
I0523 00:33:42.452427  5070 net.cpp:367] scale5b_branch2c -> res5b_branch2c (in-place)
I0523 00:33:42.452481  5070 layer_factory.hpp:77] Creating layer scale5b_branch2c
I0523 00:33:42.452605  5070 net.cpp:122] Setting up scale5b_branch2c
I0523 00:33:42.452607  5070 net.cpp:129] Top shape: 1 2048 7 7 (100352)
I0523 00:33:42.452610  5070 net.cpp:137] Memory required for data: 501960720
I0523 00:33:42.452612  5070 layer_factory.hpp:77] Creating layer res5b
I0523 00:33:42.452616  5070 net.cpp:84] Creating Layer res5b
I0523 00:33:42.452620  5070 net.cpp:406] res5b <- res5a_res5a_relu_0_split_1
I0523 00:33:42.452621  5070 net.cpp:406] res5b <- res5b_branch2c
I0523 00:33:42.452625  5070 net.cpp:380] res5b -> res5b
I0523 00:33:42.452649  5070 net.cpp:122] Setting up res5b
I0523 00:33:42.452652  5070 net.cpp:129] Top shape: 1 2048 7 7 (100352)
I0523 00:33:42.452653  5070 net.cpp:137] Memory required for data: 502362128
I0523 00:33:42.452656  5070 layer_factory.hpp:77] Creating layer res5b_relu
I0523 00:33:42.452664  5070 net.cpp:84] Creating Layer res5b_relu
I0523 00:33:42.452666  5070 net.cpp:406] res5b_relu <- res5b
I0523 00:33:42.452670  5070 net.cpp:367] res5b_relu -> res5b (in-place)
I0523 00:33:42.453289  5070 net.cpp:122] Setting up res5b_relu
I0523 00:33:42.453294  5070 net.cpp:129] Top shape: 1 2048 7 7 (100352)
I0523 00:33:42.453296  5070 net.cpp:137] Memory required for data: 502763536
I0523 00:33:42.453299  5070 layer_factory.hpp:77] Creating layer res5b_res5b_relu_0_split
I0523 00:33:42.453301  5070 net.cpp:84] Creating Layer res5b_res5b_relu_0_split
I0523 00:33:42.453305  5070 net.cpp:406] res5b_res5b_relu_0_split <- res5b
I0523 00:33:42.453308  5070 net.cpp:380] res5b_res5b_relu_0_split -> res5b_res5b_relu_0_split_0
I0523 00:33:42.453312  5070 net.cpp:380] res5b_res5b_relu_0_split -> res5b_res5b_relu_0_split_1
I0523 00:33:42.453348  5070 net.cpp:122] Setting up res5b_res5b_relu_0_split
I0523 00:33:42.453351  5070 net.cpp:129] Top shape: 1 2048 7 7 (100352)
I0523 00:33:42.453353  5070 net.cpp:129] Top shape: 1 2048 7 7 (100352)
I0523 00:33:42.453356  5070 net.cpp:137] Memory required for data: 503566352
I0523 00:33:42.453357  5070 layer_factory.hpp:77] Creating layer res5c_branch2a
I0523 00:33:42.453362  5070 net.cpp:84] Creating Layer res5c_branch2a
I0523 00:33:42.453366  5070 net.cpp:406] res5c_branch2a <- res5b_res5b_relu_0_split_0
I0523 00:33:42.453368  5070 net.cpp:380] res5c_branch2a -> res5c_branch2a
I0523 00:33:42.462518  5070 net.cpp:122] Setting up res5c_branch2a
I0523 00:33:42.462529  5070 net.cpp:129] Top shape: 1 512 7 7 (25088)
I0523 00:33:42.462532  5070 net.cpp:137] Memory required for data: 503666704
I0523 00:33:42.462541  5070 layer_factory.hpp:77] Creating layer bn5c_branch2a
I0523 00:33:42.462546  5070 net.cpp:84] Creating Layer bn5c_branch2a
I0523 00:33:42.462549  5070 net.cpp:406] bn5c_branch2a <- res5c_branch2a
I0523 00:33:42.462553  5070 net.cpp:367] bn5c_branch2a -> res5c_branch2a (in-place)
I0523 00:33:42.462792  5070 net.cpp:122] Setting up bn5c_branch2a
I0523 00:33:42.462796  5070 net.cpp:129] Top shape: 1 512 7 7 (25088)
I0523 00:33:42.462798  5070 net.cpp:137] Memory required for data: 503767056
I0523 00:33:42.462801  5070 layer_factory.hpp:77] Creating layer scale5c_branch2a
I0523 00:33:42.462805  5070 net.cpp:84] Creating Layer scale5c_branch2a
I0523 00:33:42.462806  5070 net.cpp:406] scale5c_branch2a <- res5c_branch2a
I0523 00:33:42.462810  5070 net.cpp:367] scale5c_branch2a -> res5c_branch2a (in-place)
I0523 00:33:42.462869  5070 layer_factory.hpp:77] Creating layer scale5c_branch2a
I0523 00:33:42.462992  5070 net.cpp:122] Setting up scale5c_branch2a
I0523 00:33:42.462996  5070 net.cpp:129] Top shape: 1 512 7 7 (25088)
I0523 00:33:42.462997  5070 net.cpp:137] Memory required for data: 503867408
I0523 00:33:42.463001  5070 layer_factory.hpp:77] Creating layer res5c_branch2a_relu
I0523 00:33:42.463004  5070 net.cpp:84] Creating Layer res5c_branch2a_relu
I0523 00:33:42.463007  5070 net.cpp:406] res5c_branch2a_relu <- res5c_branch2a
I0523 00:33:42.463009  5070 net.cpp:367] res5c_branch2a_relu -> res5c_branch2a (in-place)
I0523 00:33:42.463436  5070 net.cpp:122] Setting up res5c_branch2a_relu
I0523 00:33:42.463441  5070 net.cpp:129] Top shape: 1 512 7 7 (25088)
I0523 00:33:42.463443  5070 net.cpp:137] Memory required for data: 503967760
I0523 00:33:42.463445  5070 layer_factory.hpp:77] Creating layer res5c_branch2b
I0523 00:33:42.463449  5070 net.cpp:84] Creating Layer res5c_branch2b
I0523 00:33:42.463452  5070 net.cpp:406] res5c_branch2b <- res5c_branch2a
I0523 00:33:42.463456  5070 net.cpp:380] res5c_branch2b -> res5c_branch2b
I0523 00:33:42.482414  5070 net.cpp:122] Setting up res5c_branch2b
I0523 00:33:42.482429  5070 net.cpp:129] Top shape: 1 512 7 7 (25088)
I0523 00:33:42.482431  5070 net.cpp:137] Memory required for data: 504068112
I0523 00:33:42.482435  5070 layer_factory.hpp:77] Creating layer bn5c_branch2b
I0523 00:33:42.482441  5070 net.cpp:84] Creating Layer bn5c_branch2b
I0523 00:33:42.482445  5070 net.cpp:406] bn5c_branch2b <- res5c_branch2b
I0523 00:33:42.482456  5070 net.cpp:367] bn5c_branch2b -> res5c_branch2b (in-place)
I0523 00:33:42.482714  5070 net.cpp:122] Setting up bn5c_branch2b
I0523 00:33:42.482719  5070 net.cpp:129] Top shape: 1 512 7 7 (25088)
I0523 00:33:42.482720  5070 net.cpp:137] Memory required for data: 504168464
I0523 00:33:42.482724  5070 layer_factory.hpp:77] Creating layer scale5c_branch2b
I0523 00:33:42.482728  5070 net.cpp:84] Creating Layer scale5c_branch2b
I0523 00:33:42.482730  5070 net.cpp:406] scale5c_branch2b <- res5c_branch2b
I0523 00:33:42.482733  5070 net.cpp:367] scale5c_branch2b -> res5c_branch2b (in-place)
I0523 00:33:42.482787  5070 layer_factory.hpp:77] Creating layer scale5c_branch2b
I0523 00:33:42.482913  5070 net.cpp:122] Setting up scale5c_branch2b
I0523 00:33:42.482915  5070 net.cpp:129] Top shape: 1 512 7 7 (25088)
I0523 00:33:42.482918  5070 net.cpp:137] Memory required for data: 504268816
I0523 00:33:42.482920  5070 layer_factory.hpp:77] Creating layer res5c_branch2b_relu
I0523 00:33:42.482924  5070 net.cpp:84] Creating Layer res5c_branch2b_relu
I0523 00:33:42.482926  5070 net.cpp:406] res5c_branch2b_relu <- res5c_branch2b
I0523 00:33:42.482929  5070 net.cpp:367] res5c_branch2b_relu -> res5c_branch2b (in-place)
I0523 00:33:42.483366  5070 net.cpp:122] Setting up res5c_branch2b_relu
I0523 00:33:42.483369  5070 net.cpp:129] Top shape: 1 512 7 7 (25088)
I0523 00:33:42.483371  5070 net.cpp:137] Memory required for data: 504369168
I0523 00:33:42.483373  5070 layer_factory.hpp:77] Creating layer res5c_branch2c
I0523 00:33:42.483378  5070 net.cpp:84] Creating Layer res5c_branch2c
I0523 00:33:42.483381  5070 net.cpp:406] res5c_branch2c <- res5c_branch2b
I0523 00:33:42.483384  5070 net.cpp:380] res5c_branch2c -> res5c_branch2c
I0523 00:33:42.492534  5070 net.cpp:122] Setting up res5c_branch2c
I0523 00:33:42.492552  5070 net.cpp:129] Top shape: 1 2048 7 7 (100352)
I0523 00:33:42.492553  5070 net.cpp:137] Memory required for data: 504770576
I0523 00:33:42.492558  5070 layer_factory.hpp:77] Creating layer bn5c_branch2c
I0523 00:33:42.492563  5070 net.cpp:84] Creating Layer bn5c_branch2c
I0523 00:33:42.492566  5070 net.cpp:406] bn5c_branch2c <- res5c_branch2c
I0523 00:33:42.492569  5070 net.cpp:367] bn5c_branch2c -> res5c_branch2c (in-place)
I0523 00:33:42.492812  5070 net.cpp:122] Setting up bn5c_branch2c
I0523 00:33:42.492816  5070 net.cpp:129] Top shape: 1 2048 7 7 (100352)
I0523 00:33:42.492818  5070 net.cpp:137] Memory required for data: 505171984
I0523 00:33:42.492821  5070 layer_factory.hpp:77] Creating layer scale5c_branch2c
I0523 00:33:42.492825  5070 net.cpp:84] Creating Layer scale5c_branch2c
I0523 00:33:42.492827  5070 net.cpp:406] scale5c_branch2c <- res5c_branch2c
I0523 00:33:42.492830  5070 net.cpp:367] scale5c_branch2c -> res5c_branch2c (in-place)
I0523 00:33:42.492889  5070 layer_factory.hpp:77] Creating layer scale5c_branch2c
I0523 00:33:42.493014  5070 net.cpp:122] Setting up scale5c_branch2c
I0523 00:33:42.493018  5070 net.cpp:129] Top shape: 1 2048 7 7 (100352)
I0523 00:33:42.493021  5070 net.cpp:137] Memory required for data: 505573392
I0523 00:33:42.493022  5070 layer_factory.hpp:77] Creating layer res5c
I0523 00:33:42.493026  5070 net.cpp:84] Creating Layer res5c
I0523 00:33:42.493028  5070 net.cpp:406] res5c <- res5b_res5b_relu_0_split_1
I0523 00:33:42.493031  5070 net.cpp:406] res5c <- res5c_branch2c
I0523 00:33:42.493033  5070 net.cpp:380] res5c -> res5c
I0523 00:33:42.493052  5070 net.cpp:122] Setting up res5c
I0523 00:33:42.493054  5070 net.cpp:129] Top shape: 1 2048 7 7 (100352)
I0523 00:33:42.493057  5070 net.cpp:137] Memory required for data: 505974800
I0523 00:33:42.493058  5070 layer_factory.hpp:77] Creating layer res5c_relu
I0523 00:33:42.493062  5070 net.cpp:84] Creating Layer res5c_relu
I0523 00:33:42.493063  5070 net.cpp:406] res5c_relu <- res5c
I0523 00:33:42.493067  5070 net.cpp:367] res5c_relu -> res5c (in-place)
I0523 00:33:42.493687  5070 net.cpp:122] Setting up res5c_relu
I0523 00:33:42.493692  5070 net.cpp:129] Top shape: 1 2048 7 7 (100352)
I0523 00:33:42.493695  5070 net.cpp:137] Memory required for data: 506376208
I0523 00:33:42.493703  5070 layer_factory.hpp:77] Creating layer pool5
I0523 00:33:42.493707  5070 net.cpp:84] Creating Layer pool5
I0523 00:33:42.493710  5070 net.cpp:406] pool5 <- res5c
I0523 00:33:42.493713  5070 net.cpp:380] pool5 -> pool5
I0523 00:33:42.494166  5070 net.cpp:122] Setting up pool5
I0523 00:33:42.494171  5070 net.cpp:129] Top shape: 1 2048 1 1 (2048)
I0523 00:33:42.494174  5070 net.cpp:137] Memory required for data: 506384400
I0523 00:33:42.494175  5070 layer_factory.hpp:77] Creating layer fc1000-skin
I0523 00:33:42.494179  5070 net.cpp:84] Creating Layer fc1000-skin
I0523 00:33:42.494181  5070 net.cpp:406] fc1000-skin <- pool5
I0523 00:33:42.494186  5070 net.cpp:380] fc1000-skin -> fc1000-skin
I0523 00:33:42.494397  5070 net.cpp:122] Setting up fc1000-skin
I0523 00:33:42.494400  5070 net.cpp:129] Top shape: 1 12 (12)
I0523 00:33:42.494402  5070 net.cpp:137] Memory required for data: 506384448
I0523 00:33:42.494405  5070 layer_factory.hpp:77] Creating layer fc1000-skin_fc1000-skin_0_split
I0523 00:33:42.494408  5070 net.cpp:84] Creating Layer fc1000-skin_fc1000-skin_0_split
I0523 00:33:42.494410  5070 net.cpp:406] fc1000-skin_fc1000-skin_0_split <- fc1000-skin
I0523 00:33:42.494415  5070 net.cpp:380] fc1000-skin_fc1000-skin_0_split -> fc1000-skin_fc1000-skin_0_split_0
I0523 00:33:42.494418  5070 net.cpp:380] fc1000-skin_fc1000-skin_0_split -> fc1000-skin_fc1000-skin_0_split_1
I0523 00:33:42.494421  5070 net.cpp:380] fc1000-skin_fc1000-skin_0_split -> fc1000-skin_fc1000-skin_0_split_2
I0523 00:33:42.494462  5070 net.cpp:122] Setting up fc1000-skin_fc1000-skin_0_split
I0523 00:33:42.494464  5070 net.cpp:129] Top shape: 1 12 (12)
I0523 00:33:42.494467  5070 net.cpp:129] Top shape: 1 12 (12)
I0523 00:33:42.494468  5070 net.cpp:129] Top shape: 1 12 (12)
I0523 00:33:42.494469  5070 net.cpp:137] Memory required for data: 506384592
I0523 00:33:42.494472  5070 layer_factory.hpp:77] Creating layer loss
I0523 00:33:42.494474  5070 net.cpp:84] Creating Layer loss
I0523 00:33:42.494477  5070 net.cpp:406] loss <- fc1000-skin_fc1000-skin_0_split_0
I0523 00:33:42.494479  5070 net.cpp:406] loss <- label_data_1_split_0
I0523 00:33:42.494482  5070 net.cpp:380] loss -> loss
…
