…
I0518 02:04:53.022209  7095 net.cpp:51] Initializing net from parameters: 
name: "ResNet-152"
state {
  phase: TRAIN
  level: 0
  stage: ""
}
layer {
  name: "data"
  type: "Data"
  top: "data"
  top: "label"
  include {
    phase: TRAIN
  }
  transform_param {
    mirror: true
    crop_size: 224
    mean_file: "/home/danilo/Documents/FGA/2018-1/TCC1/data/edited/Med_atlas_edin_29x_lmdb/input/mean.binaryproto"
  }
  data_param {
    source: "/home/danilo/Documents/FGA/2018-1/TCC1/data/edited/Med_atlas_edin_29x_lmdb/train"
    batch_size: 5
    backend: LMDB
  }
}
layer {
  name: "conv1"
  type: "Convolution"
  bottom: "data"
  top: "conv1"
  convolution_param {
    num_output: 64
    bias_term: false
    pad: 3
    kernel_size: 7
    stride: 2
    weight_filler {
      type: "msra"
    }
  }
}
layer {
  name: "bn_conv1"
  type: "BatchNorm"
  bottom: "conv1"
  top: "conv1"
  batch_norm_param {
    use_global_stats: false
  }
}
layer {
  name: "scale_conv1"
  type: "Scale"
  bottom: "conv1"
  top: "conv1"
  scale_param {
    bias_term: true
  }
}
layer {
  name: "conv1_relu"
  type: "ReLU"
  bottom: "conv1"
  top: "conv1"
}
layer {
  name: "pool1"
  type: "Pooling"
  bottom: "conv1"
  top: "pool1"
  pooling_param {
    pool: MAX
    kernel_size: 3
    stride: 2
  }
}
layer {
  name: "res2a_branch1"
  type: "Convolution"
  bottom: "pool1"
  top: "res2a_branch1"
  convolution_param {
    num_output: 256
    bias_term: false
    pad: 0
    kernel_size: 1
    stride: 1
    weight_filler {
      type: "msra"
    }
  }
}
layer {
  name: "bn2a_branch1"
  type: "BatchNorm"
  bottom: "res2a_branch1"
  top: "res2a_branch1"
  batch_norm_param {
    use_global_stats: false
  }
}
layer {
  name: "scale2a_branch1"
  type: "Scale"
  bottom: "res2a_branch1"
  top: "res2a_branch1"
  scale_param {
    bias_term: true
  }
}
layer {
  name: "res2a_branch2a"
  type: "Convolution"
  bottom: "pool1"
  top: "res2a_branch2a"
  convolution_param {
    num_output: 64
    bias_term: false
    pad: 0
    kernel_size: 1
    stride: 1
    weight_filler {
      type: "msra"
    }
  }
}
layer {
  name: "bn2a_branch2a"
  type: "BatchNorm"
  bottom: "res2a_branch2a"
  top: "res2a_branch2a"
  batch_norm_param {
    use_global_stats: false
  }
}
layer {
  name: "scale2a_branch2a"
  type: "Scale"
  bottom: "res2a_branch2a"
  top: "res2a_branch2a"
  scale_param {
    bias_term: true
  }
}
layer {
  name: "res2a_branch2a_relu"
  type: "ReLU"
  bottom: "res2a_branch2a"
  top: "res2a_branch2a"
}
layer {
  name: "res2a_branch2b"
  type: "Convolution"
  bottom: "res2a_branch2a"
  top: "res2a_branch2b"
  convolution_param {
    num_output: 64
    bias_term: false
    pad: 1
    kernel_size: 3
    stride: 1
    weight_filler {
      type: "msra"
    }
  }
}
layer {
  name: "bn2a_branch2b"
  type: "BatchNorm"
  bottom: "res2a_branch2b"
  top: "res2a_branch2b"
  batch_norm_param {
    use_global_stats: false
  }
}
layer {
  name: "scale2a_branch2b"
  type: "Scale"
  bottom: "res2a_branch2b"
  top: "res2a_branch2b"
  scale_param {
    bias_term: true
  }
}
layer {
  name: "res2a_branch2b_relu"
  type: "ReLU"
  bottom: "res2a_branch2b"
  top: "res2a_branch2b"
}
layer {
  name: "res2a_branch2c"
  type: "Convolution"
  bottom: "res2a_branch2b"
  top: "res2a_branch2c"
  convolution_param {
    num_output: 256
    bias_term: false
    pad: 0
    kernel_size: 1
    stride: 1
    weight_filler {
      type: "msra"
    }
  }
}
layer {
  name: "bn2a_branch2c"
  type: "BatchNorm"
  bottom: "res2a_branch2c"
  top: "res2a_branch2c"
  batch_norm_param {
    use_global_stats: false
  }
}
layer {
  name: "scale2a_branch2c"
  type: "Scale"
  bottom: "res2a_branch2c"
  top: "res2a_branch2c"
  scale_param {
    bias_term: true
  }
}
layer {
  name: "res2a"
  type: "Eltwise"
  bottom: "res2a_branch1"
  bottom: "res2a_branch2c"
  top: "res2a"
  eltwise_param {
    operation: SUM
  }
}
layer {
  name: "res2a_relu"
  type: "ReLU"
  bottom: "res2a"
  top: "res2a"
}
layer {
  name: "res2b_branch2a"
  type: "Convolution"
  bottom: "res2a"
  top: "res2b_branch2a"
  convolution_param {
    num_output: 64
    bias_term: false
    pad: 0
    kernel_size: 1
    stride: 1
    weight_filler {
      type: "msra"
    }
  }
}
layer {
  name: "bn2b_branch2a"
  type: "BatchNorm"
  bottom: "res2b_branch2a"
  top: "res2b_branch2a"
  batch_norm_param {
    use_global_stats: false
  }
}
layer {
  name: "scale2b_branch2a"
  type: "Scale"
  bottom: "res2b_branch2a"
  top: "res2b_branch2a"
  scale_param {
    bias_term: true
  }
}
layer {
  name: "res2b_branch2a_relu"
  type: "ReLU"
  bottom: "res2b_branch2a"
  top: "res2b_branch2a"
}
layer {
  name: "res2b_branch2b"
  type: "Convolution"
  bottom: "res2b_branch2a"
  top: "res2b_branch2b"
  convolution_param {
    num_output: 64
    bias_term: false
    pad: 1
    kernel_size: 3
    stride: 1
    weight_filler {
      type: "msra"
    }
  }
}
layer {
  name: "bn2b_branch2b"
  type: "BatchNorm"
  bottom: "res2b_branch2b"
  top: "res2b_branch2b"
  batch_norm_param {
    use_global_stats: false
  }
}
layer {
  name: "scale2b_branch2b"
  type: "Scale"
  bottom: "res2b_branch2b"
  top: "res2b_branch2b"
  scale_param {
    bias_term: true
  }
}
layer {
  name: "res2b_branch2b_relu"
  type: "ReLU"
  bottom: "res2b_branch2b"
  top: "res2b_branch2b"
}
layer {
  name: "res2b_branch2c"
  type: "Convolution"
  bottom: "res2b_branch2b"
  top: "res2b_branch2c"
  convolution_param {
    num_output: 256
    bias_term: false
    pad: 0
    kernel_size: 1
    stride: 1
    weight_filler {
      type: "msra"
    }
  }
}
layer {
  name: "bn2b_branch2c"
  type: "BatchNorm"
  bottom: "res2b_branch2c"
  top: "res2b_branch2c"
  batch_norm_param {
    use_global_stats: false
  }
}
layer {
  name: "scale2b_branch2c"
  type: "Scale"
  bottom: "res2b_branch2c"
  top: "res2b_branch2c"
  scale_param {
    bias_term: true
  }
}
layer {
  name: "res2b"
  type: "Eltwise"
  bottom: "res2a"
  bottom: "res2b_branch2c"
  top: "res2b"
  eltwise_param {
    operation: SUM
  }
}
layer {
  name: "res2b_relu"
  type: "ReLU"
  bottom: "res2b"
  top: "res2b"
}
layer {
  name: "res2c_branch2a"
  type: "Convolution"
  bottom: "res2b"
  top: "res2c_branch2a"
  convolution_param {
    num_output: 64
    bias_term: false
    pad: 0
    kernel_size: 1
    stride: 1
    weight_filler {
      type: "msra"
    }
  }
}
layer {
  name: "bn2c_branch2a"
  type: "BatchNorm"
  bottom: "res2c_branch2a"
  top: "res2c_branch2a"
  batch_norm_param {
    use_global_stats: false
  }
}
layer {
  name: "scale2c_branch2a"
  type: "Scale"
  bottom: "res2c_branch2a"
  top: "res2c_branch2a"
  scale_param {
    bias_term: true
  }
}
layer {
  name: "res2c_branch2a_relu"
  type: "ReLU"
  bottom: "res2c_branch2a"
  top: "res2c_branch2a"
}
layer {
  name: "res2c_branch2b"
  type: "Convolution"
  bottom: "res2c_branch2a"
  top: "res2c_branch2b"
  convolution_param {
    num_output: 64
    bias_term: false
    pad: 1
    kernel_size: 3
    stride: 1
    weight_filler {
      type: "msra"
    }
  }
}
layer {
  name: "bn2c_branch2b"
  type: "BatchNorm"
  bottom: "res2c_branch2b"
  top: "res2c_branch2b"
  batch_norm_param {
    use_global_stats: false
  }
}
layer {
  name: "scale2c_branch2b"
  type: "Scale"
  bottom: "res2c_branch2b"
  top: "res2c_branch2b"
  scale_param {
    bias_term: true
  }
}
layer {
  name: "res2c_branch2b_relu"
  type: "ReLU"
  bottom: "res2c_branch2b"
  top: "res2c_branch2b"
}
layer {
  name: "res2c_branch2c"
  type: "Convolution"
  bottom: "res2c_branch2b"
  top: "res2c_branch2c"
  convolution_param {
    num_output: 256
    bias_term: false
    pad: 0
    kernel_size: 1
    stride: 1
    weight_filler {
      type: "msra"
    }
  }
}
layer {
  name: "bn2c_branch2c"
  type: "BatchNorm"
  bottom: "res2c_branch2c"
  top: "res2c_branch2c"
  batch_norm_param {
    use_global_stats: false
  }
}
layer {
  name: "scale2c_branch2c"
  type: "Scale"
  bottom: "res2c_branch2c"
  top: "res2c_branch2c"
  scale_param {
    bias_term: true
  }
}
layer {
  name: "res2c"
  type: "Eltwise"
  bottom: "res2b"
  bottom: "res2c_branch2c"
  top: "res2c"
  eltwise_param {
    operation: SUM
  }
}
layer {
  name: "res2c_relu"
  type: "ReLU"
  bottom: "res2c"
  top: "res2c"
}
layer {
  name: "res3a_branch1"
  type: "Convolution"
  bottom: "res2c"
  top: "res3a_branch1"
  convolution_param {
    num_output: 512
    bias_term: false
    pad: 0
    kernel_size: 1
    stride: 2
    weight_filler {
      type: "msra"
    }
  }
}
layer {
  name: "bn3a_branch1"
  type: "BatchNorm"
  bottom: "res3a_branch1"
  top: "res3a_branch1"
  batch_norm_param {
    use_global_stats: false
  }
}
layer {
  name: "scale3a_branch1"
  type: "Scale"
  bottom: "res3a_branch1"
  top: "res3a_branch1"
  scale_param {
    bias_term: true
  }
}
layer {
  name: "res3a_branch2a"
  type: "Convolution"
  bottom: "res2c"
  top: "res3a_branch2a"
  convolution_param {
    num_output: 128
    bias_term: false
    pad: 0
    kernel_size: 1
    stride: 2
    weight_filler {
      type: "msra"
    }
  }
}
layer {
  name: "bn3a_branch2a"
  type: "BatchNorm"
  bottom: "res3a_branch2a"
  top: "res3a_branch2a"
  batch_norm_param {
    use_global_stats: false
  }
}
layer {
  name: "scale3a_branch2a"
  type: "Scale"
  bottom: "res3a_branch2a"
  top: "res3a_branch2a"
  scale_param {
    bias_term: true
  }
}
layer {
  name: "res3a_branch2a_relu"
  type: "ReLU"
  bottom: "res3a_branch2a"
  top: "res3a_branch2a"
}
layer {
  name: "res3a_branch2b"
  type: "Convolution"
  bottom: "res3a_branch2a"
  top: "res3a_branch2b"
  convolution_param {
    num_output: 128
    bias_term: false
    pad: 1
    kernel_size: 3
    stride: 1
    weight_filler {
      type: "msra"
    }
  }
}
layer {
  name: "bn3a_branch2b"
  type: "BatchNorm"
  bottom: "res3a_branch2b"
  top: "res3a_branch2b"
  batch_norm_param {
    use_global_stats: false
  }
}
layer {
  name: "scale3a_branch2b"
  type: "Scale"
  bottom: "res3a_branch2b"
  top: "res3a_branch2b"
  scale_param {
    bias_term: true
  }
}
layer {
  name: "res3a_branch2b_relu"
  type: "ReLU"
  bottom: "res3a_branch2b"
  top: "res3a_branch2b"
}
layer {
  name: "res3a_branch2c"
  type: "Convolution"
  bottom: "res3a_branch2b"
  top: "res3a_branch2c"
  convolution_param {
    num_output: 512
    bias_term: false
    pad: 0
    kernel_size: 1
    stride: 1
    weight_filler {
      type: "msra"
    }
  }
}
layer {
  name: "bn3a_branch2c"
  type: "BatchNorm"
  bottom: "res3a_branch2c"
  top: "res3a_branch2c"
  batch_norm_param {
    use_global_stats: false
  }
}
layer {
  name: "scale3a_branch2c"
  type: "Scale"
  bottom: "res3a_branch2c"
  top: "res3a_branch2c"
  scale_param {
    bias_term: true
  }
}
layer {
  name: "res3a"
  type: "Eltwise"
  bottom: "res3a_branch1"
  bottom: "res3a_branch2c"
  top: "res3a"
  eltwise_param {
    operation: SUM
  }
}
layer {
  name: "res3a_relu"
  type: "ReLU"
  bottom: "res3a"
  top: "res3a"
}
layer {
  name: "res3b1_branch2a"
  type: "Convolution"
  bottom: "res3a"
  top: "res3b1_branch2a"
  convolution_param {
    num_output: 128
    bias_term: false
    pad: 0
    kernel_size: 1
    stride: 1
    weight_filler {
      type: "msra"
    }
  }
}
layer {
  name: "bn3b1_branch2a"
  type: "BatchNorm"
  bottom: "res3b1_branch2a"
  top: "res3b1_branch2a"
  batch_norm_param {
    use_global_stats: false
  }
}
layer {
  name: "scale3b1_branch2a"
  type: "Scale"
  bottom: "res3b1_branch2a"
  top: "res3b1_branch2a"
  scale_param {
    bias_term: true
  }
}
layer {
  name: "res3b1_branch2a_relu"
  type: "ReLU"
  bottom: "res3b1_branch2a"
  top: "res3b1_branch2a"
}
layer {
  name: "res3b1_branch2b"
  type: "Convolution"
  bottom: "res3b1_branch2a"
  top: "res3b1_branch2b"
  convolution_param {
    num_output: 128
    bias_term: false
    pad: 1
    kernel_size: 3
    stride: 1
    weight_filler {
      type: "msra"
    }
  }
}
layer {
  name: "bn3b1_branch2b"
  type: "BatchNorm"
  bottom: "res3b1_branch2b"
  top: "res3b1_branch2b"
  batch_norm_param {
    use_global_stats: false
  }
}
layer {
  name: "scale3b1_branch2b"
  type: "Scale"
  bottom: "res3b1_branch2b"
  top: "res3b1_branch2b"
  scale_param {
    bias_term: true
  }
}
layer {
  name: "res3b1_branch2b_relu"
  type: "ReLU"
  bottom: "res3b1_branch2b"
  top: "res3b1_branch2b"
}
layer {
  name: "res3b1_branch2c"
  type: "Convolution"
  bottom: "res3b1_branch2b"
  top: "res3b1_branch2c"
  convolution_param {
    num_output: 512
    bias_term: false
    pad: 0
    kernel_size: 1
    stride: 1
    weight_filler {
      type: "msra"
    }
  }
}
layer {
  name: "bn3b1_branch2c"
  type: "BatchNorm"
  bottom: "res3b1_branch2c"
  top: "res3b1_branch2c"
  batch_norm_param {
    use_global_stats: false
  }
}
layer {
  name: "scale3b1_branch2c"
  type: "Scale"
  bottom: "res3b1_branch2c"
  top: "res3b1_branch2c"
  scale_param {
    bias_term: true
  }
}
layer {
  name: "res3b1"
  type: "Eltwise"
  bottom: "res3a"
  bottom: "res3b1_branch2c"
  top: "res3b1"
  eltwise_param {
    operation: SUM
  }
}
layer {
  name: "res3b1_relu"
  type: "ReLU"
  bottom: "res3b1"
  top: "res3b1"
}
layer {
  name: "res3b2_branch2a"
  type: "Convolution"
  bottom: "res3b1"
  top: "res3b2_branch2a"
  convolution_param {
    num_output: 128
    bias_term: false
    pad: 0
    kernel_size: 1
    stride: 1
    weight_filler {
      type: "msra"
    }
  }
}
layer {
  name: "bn3b2_branch2a"
  type: "BatchNorm"
  bottom: "res3b2_branch2a"
  top: "res3b2_branch2a"
  batch_norm_param {
    use_global_stats: false
  }
}
layer {
  name: "scale3b2_branch2a"
  type: "Scale"
  bottom: "res3b2_branch2a"
  top: "res3b2_branch2a"
  scale_param {
    bias_term: true
  }
}
layer {
  name: "res3b2_branch2a_relu"
  type: "ReLU"
  bottom: "res3b2_branch2a"
  top: "res3b2_branch2a"
}
layer {
  name: "res3b2_branch2b"
  type: "Convolution"
  bottom: "res3b2_branch2a"
  top: "res3b2_branch2b"
  convolution_param {
    num_output: 128
    bias_term: false
    pad: 1
    kernel_size: 3
    stride: 1
    weight_filler {
      type: "msra"
    }
  }
}
layer {
  name: "bn3b2_branch2b"
  type: "BatchNorm"
  bottom: "res3b2_branch2b"
  top: "res3b2_branch2b"
  batch_norm_param {
    use_global_stats: false
  }
}
layer {
  name: "scale3b2_branch2b"
  type: "Scale"
  bottom: "res3b2_branch2b"
  top: "res3b2_branch2b"
  scale_param {
    bias_term: true
  }
}
layer {
  name: "res3b2_branch2b_relu"
  type: "ReLU"
  bottom: "res3b2_branch2b"
  top: "res3b2_branch2b"
}
layer {
  name: "res3b2_branch2c"
  type: "Convolution"
  bottom: "res3b2_branch2b"
  top: "res3b2_branch2c"
  convolution_param {
    num_output: 512
    bias_term: false
    pad: 0
    kernel_size: 1
    stride: 1
    weight_filler {
      type: "msra"
    }
  }
}
layer {
  name: "bn3b2_branch2c"
  type: "BatchNorm"
  bottom: "res3b2_branch2c"
  top: "res3b2_branch2c"
  batch_norm_param {
    use_global_stats: false
  }
}
layer {
  name: "scale3b2_branch2c"
  type: "Scale"
  bottom: "res3b2_branch2c"
  top: "res3b2_branch2c"
  scale_param {
    bias_term: true
  }
}
layer {
  name: "res3b2"
  type: "Eltwise"
  bottom: "res3b1"
  bottom: "res3b2_branch2c"
  top: "res3b2"
  eltwise_param {
    operation: SUM
  }
}
layer {
  name: "res3b2_relu"
  type: "ReLU"
  bottom: "res3b2"
  top: "res3b2"
}
layer {
  name: "res3b3_branch2a"
  type: "Convolution"
  bottom: "res3b2"
  top: "res3b3_branch2a"
  convolution_param {
    num_output: 128
    bias_term: false
    pad: 0
    kernel_size: 1
    stride: 1
    weight_filler {
      type: "msra"
    }
  }
}
layer {
  name: "bn3b3_branch2a"
  type: "BatchNorm"
  bottom: "res3b3_branch2a"
  top: "res3b3_branch2a"
  batch_norm_param {
    use_global_stats: false
  }
}
layer {
  name: "scale3b3_branch2a"
  type: "Scale"
  bottom: "res3b3_branch2a"
  top: "res3b3_branch2a"
  scale_param {
    bias_term: true
  }
}
layer {
  name: "res3b3_branch2a_relu"
  type: "ReLU"
  bottom: "res3b3_branch2a"
  top: "res3b3_branch2a"
}
layer {
  name: "res3b3_branch2b"
  type: "Convolution"
  bottom: "res3b3_branch2a"
  top: "res3b3_branch2b"
  convolution_param {
    num_output: 128
    bias_term: false
    pad: 1
    kernel_size: 3
    stride: 1
    weight_filler {
      type: "msra"
    }
  }
}
layer {
  name: "bn3b3_branch2b"
  type: "BatchNorm"
  bottom: "res3b3_branch2b"
  top: "res3b3_branch2b"
  batch_norm_param {
    use_global_stats: false
  }
}
layer {
  name: "scale3b3_branch2b"
  type: "Scale"
  bottom: "res3b3_branch2b"
  top: "res3b3_branch2b"
  scale_param {
    bias_term: true
  }
}
layer {
  name: "res3b3_branch2b_relu"
  type: "ReLU"
  bottom: "res3b3_branch2b"
  top: "res3b3_branch2b"
}
layer {
  name: "res3b3_branch2c"
  type: "Convolution"
  bottom: "res3b3_branch2b"
  top: "res3b3_branch2c"
  convolution_param {
    num_output: 512
    bias_term: false
    pad: 0
    kernel_size: 1
    stride: 1
    weight_filler {
      type: "msra"
    }
  }
}
layer {
  name: "bn3b3_branch2c"
  type: "BatchNorm"
  bottom: "res3b3_branch2c"
  top: "res3b3_branch2c"
  batch_norm_param {
    use_global_stats: false
  }
}
layer {
  name: "scale3b3_branch2c"
  type: "Scale"
  bottom: "res3b3_branch2c"
  top: "res3b3_branch2c"
  scale_param {
    bias_term: true
  }
}
layer {
  name: "res3b3"
  type: "Eltwise"
  bottom: "res3b2"
  bottom: "res3b3_branch2c"
  top: "res3b3"
  eltwise_param {
    operation: SUM
  }
}
layer {
  name: "res3b3_relu"
  type: "ReLU"
  bottom: "res3b3"
  top: "res3b3"
}
layer {
  name: "res3b4_branch2a"
  type: "Convolution"
  bottom: "res3b3"
  top: "res3b4_branch2a"
  convolution_param {
    num_output: 128
    bias_term: false
    pad: 0
    kernel_size: 1
    stride: 1
    weight_filler {
      type: "msra"
    }
  }
}
layer {
  name: "bn3b4_branch2a"
  type: "BatchNorm"
  bottom: "res3b4_branch2a"
  top: "res3b4_branch2a"
  batch_norm_param {
    use_global_stats: false
  }
}
layer {
  name: "scale3b4_branch2a"
  type: "Scale"
  bottom: "res3b4_branch2a"
  top: "res3b4_branch2a"
  scale_param {
    bias_term: true
  }
}
layer {
  name: "res3b4_branch2a_relu"
  type: "ReLU"
  bottom: "res3b4_branch2a"
  top: "res3b4_branch2a"
}
layer {
  name: "res3b4_branch2b"
  type: "Convolution"
  bottom: "res3b4_branch2a"
  top: "res3b4_branch2b"
  convolution_param {
    num_output: 128
    bias_term: false
    pad: 1
    kernel_size: 3
    stride: 1
    weight_filler {
      type: "msra"
    }
  }
}
layer {
  name: "bn3b4_branch2b"
  type: "BatchNorm"
  bottom: "res3b4_branch2b"
  top: "res3b4_branch2b"
  batch_norm_param {
    use_global_stats: false
  }
}
layer {
  name: "scale3b4_branch2b"
  type: "Scale"
  bottom: "res3b4_branch2b"
  top: "res3b4_branch2b"
  scale_param {
    bias_term: true
  }
}
layer {
  name: "res3b4_branch2b_relu"
  type: "ReLU"
  bottom: "res3b4_branch2b"
  top: "res3b4_branch2b"
}
layer {
  name: "res3b4_branch2c"
  type: "Convolution"
  bottom: "res3b4_branch2b"
  top: "res3b4_branch2c"
  convolution_param {
    num_output: 512
    bias_term: false
    pad: 0
    kernel_size: 1
    stride: 1
    weight_filler {
      type: "msra"
    }
  }
}
layer {
  name: "bn3b4_branch2c"
  type: "BatchNorm"
  bottom: "res3b4_branch2c"
  top: "res3b4_branch2c"
  batch_norm_param {
    use_global_stats: false
  }
}
layer {
  name: "scale3b4_branch2c"
  type: "Scale"
  bottom: "res3b4_branch2c"
  top: "res3b4_branch2c"
  scale_param {
    bias_term: true
  }
}
layer {
  name: "res3b4"
  type: "Eltwise"
  bottom: "res3b3"
  bottom: "res3b4_branch2c"
  top: "res3b4"
  eltwise_param {
    operation: SUM
  }
}
layer {
  name: "res3b4_relu"
  type: "ReLU"
  bottom: "res3b4"
  top: "res3b4"
}
layer {
  name: "res3b5_branch2a"
  type: "Convolution"
  bottom: "res3b4"
  top: "res3b5_branch2a"
  convolution_param {
    num_output: 128
    bias_term: false
    pad: 0
    kernel_size: 1
    stride: 1
    weight_filler {
      type: "msra"
    }
  }
}
layer {
  name: "bn3b5_branch2a"
  type: "BatchNorm"
  bottom: "res3b5_branch2a"
  top: "res3b5_branch2a"
  batch_norm_param {
    use_global_stats: false
  }
}
layer {
  name: "scale3b5_branch2a"
  type: "Scale"
  bottom: "res3b5_branch2a"
  top: "res3b5_branch2a"
  scale_param {
    bias_term: true
  }
}
layer {
  name: "res3b5_branch2a_relu"
  type: "ReLU"
  bottom: "res3b5_branch2a"
  top: "res3b5_branch2a"
}
layer {
  name: "res3b5_branch2b"
  type: "Convolution"
  bottom: "res3b5_branch2a"
  top: "res3b5_branch2b"
  convolution_param {
    num_output: 128
    bias_term: false
    pad: 1
    kernel_size: 3
    stride: 1
    weight_filler {
      type: "msra"
    }
  }
}
layer {
  name: "bn3b5_branch2b"
  type: "BatchNorm"
  bottom: "res3b5_branch2b"
  top: "res3b5_branch2b"
  batch_norm_param {
    use_global_stats: false
  }
}
layer {
  name: "scale3b5_branch2b"
  type: "Scale"
  bottom: "res3b5_branch2b"
  top: "res3b5_branch2b"
  scale_param {
    bias_term: true
  }
}
layer {
  name: "res3b5_branch2b_relu"
  type: "ReLU"
  bottom: "res3b5_branch2b"
  top: "res3b5_branch2b"
}
layer {
  name: "res3b5_branch2c"
  type: "Convolution"
  bottom: "res3b5_branch2b"
  top: "res3b5_branch2c"
  convolution_param {
    num_output: 512
    bias_term: false
    pad: 0
    kernel_size: 1
    stride: 1
    weight_filler {
      type: "msra"
    }
  }
}
layer {
  name: "bn3b5_branch2c"
  type: "BatchNorm"
  bottom: "res3b5_branch2c"
  top: "res3b5_branch2c"
  batch_norm_param {
    use_global_stats: false
  }
}
layer {
  name: "scale3b5_branch2c"
  type: "Scale"
  bottom: "res3b5_branch2c"
  top: "res3b5_branch2c"
  scale_param {
    bias_term: true
  }
}
layer {
  name: "res3b5"
  type: "Eltwise"
  bottom: "res3b4"
  bottom: "res3b5_branch2c"
  top: "res3b5"
  eltwise_param {
    operation: SUM
  }
}
layer {
  name: "res3b5_relu"
  type: "ReLU"
  bottom: "res3b5"
  top: "res3b5"
}
layer {
  name: "res3b6_branch2a"
  type: "Convolution"
  bottom: "res3b5"
  top: "res3b6_branch2a"
  convolution_param {
    num_output: 128
    bias_term: false
    pad: 0
    kernel_size: 1
    stride: 1
    weight_filler {
      type: "msra"
    }
  }
}
layer {
  name: "bn3b6_branch2a"
  type: "BatchNorm"
  bottom: "res3b6_branch2a"
  top: "res3b6_branch2a"
  batch_norm_param {
    use_global_stats: false
  }
}
layer {
  name: "scale3b6_branch2a"
  type: "Scale"
  bottom: "res3b6_branch2a"
  top: "res3b6_branch2a"
  scale_param {
    bias_term: true
  }
}
layer {
  name: "res3b6_branch2a_relu"
  type: "ReLU"
  bottom: "res3b6_branch2a"
  top: "res3b6_branch2a"
}
layer {
  name: "res3b6_branch2b"
  type: "Convolution"
  bottom: "res3b6_branch2a"
  top: "res3b6_branch2b"
  convolution_param {
    num_output: 128
    bias_term: false
    pad: 1
    kernel_size: 3
    stride: 1
    weight_filler {
      type: "msra"
    }
  }
}
layer {
  name: "bn3b6_branch2b"
  type: "BatchNorm"
  bottom: "res3b6_branch2b"
  top: "res3b6_branch2b"
  batch_norm_param {
    use_global_stats: false
  }
}
layer {
  name: "scale3b6_branch2b"
  type: "Scale"
  bottom: "res3b6_branch2b"
  top: "res3b6_branch2b"
  scale_param {
    bias_term: true
  }
}
layer {
  name: "res3b6_branch2b_relu"
  type: "ReLU"
  bottom: "res3b6_branch2b"
  top: "res3b6_branch2b"
}
layer {
  name: "res3b6_branch2c"
  type: "Convolution"
  bottom: "res3b6_branch2b"
  top: "res3b6_branch2c"
  convolution_param {
    num_output: 512
    bias_term: false
    pad: 0
    kernel_size: 1
    stride: 1
    weight_filler {
      type: "msra"
    }
  }
}
layer {
  name: "bn3b6_branch2c"
  type: "BatchNorm"
  bottom: "res3b6_branch2c"
  top: "res3b6_branch2c"
  batch_norm_param {
    use_global_stats: false
  }
}
layer {
  name: "scale3b6_branch2c"
  type: "Scale"
  bottom: "res3b6_branch2c"
  top: "res3b6_branch2c"
  scale_param {
    bias_term: true
  }
}
layer {
  name: "res3b6"
  type: "Eltwise"
  bottom: "res3b5"
  bottom: "res3b6_branch2c"
  top: "res3b6"
  eltwise_param {
    operation: SUM
  }
}
layer {
  name: "res3b6_relu"
  type: "ReLU"
  bottom: "res3b6"
  top: "res3b6"
}
layer {
  name: "res3b7_branch2a"
  type: "Convolution"
  bottom: "res3b6"
  top: "res3b7_branch2a"
  convolution_param {
    num_output: 128
    bias_term: false
    pad: 0
    kernel_size: 1
    stride: 1
    weight_filler {
      type: "msra"
    }
  }
}
layer {
  name: "bn3b7_branch2a"
  type: "BatchNorm"
  bottom: "res3b7_branch2a"
  top: "res3b7_branch2a"
  batch_norm_param {
    use_global_stats: false
  }
}
layer {
  name: "scale3b7_branch2a"
  type: "Scale"
  bottom: "res3b7_branch2a"
  top: "res3b7_branch2a"
  scale_param {
    bias_term: true
  }
}
layer {
  name: "res3b7_branch2a_relu"
  type: "ReLU"
  bottom: "res3b7_branch2a"
  top: "res3b7_branch2a"
}
layer {
  name: "res3b7_branch2b"
  type: "Convolution"
  bottom: "res3b7_branch2a"
  top: "res3b7_branch2b"
  convolution_param {
    num_output: 128
    bias_term: false
    pad: 1
    kernel_size: 3
    stride: 1
    weight_filler {
      type: "msra"
    }
  }
}
layer {
  name: "bn3b7_branch2b"
  type: "BatchNorm"
  bottom: "res3b7_branch2b"
  top: "res3b7_branch2b"
  batch_norm_param {
    use_global_stats: false
  }
}
layer {
  name: "scale3b7_branch2b"
  type: "Scale"
  bottom: "res3b7_branch2b"
  top: "res3b7_branch2b"
  scale_param {
    bias_term: true
  }
}
layer {
  name: "res3b7_branch2b_relu"
  type: "ReLU"
  bottom: "res3b7_branch2b"
  top: "res3b7_branch2b"
}
layer {
  name: "res3b7_branch2c"
  type: "Convolution"
  bottom: "res3b7_branch2b"
  top: "res3b7_branch2c"
  convolution_param {
    num_output: 512
    bias_term: false
    pad: 0
    kernel_size: 1
    stride: 1
    weight_filler {
      type: "msra"
    }
  }
}
layer {
  name: "bn3b7_branch2c"
  type: "BatchNorm"
  bottom: "res3b7_branch2c"
  top: "res3b7_branch2c"
  batch_norm_param {
    use_global_stats: false
  }
}
layer {
  name: "scale3b7_branch2c"
  type: "Scale"
  bottom: "res3b7_branch2c"
  top: "res3b7_branch2c"
  scale_param {
    bias_term: true
  }
}
layer {
  name: "res3b7"
  type: "Eltwise"
  bottom: "res3b6"
  bottom: "res3b7_branch2c"
  top: "res3b7"
  eltwise_param {
    operation: SUM
  }
}
layer {
  name: "res3b7_relu"
  type: "ReLU"
  bottom: "res3b7"
  top: "res3b7"
}
layer {
  name: "res4a_branch1"
  type: "Convolution"
  bottom: "res3b7"
  top: "res4a_branch1"
  convolution_param {
    num_output: 1024
    bias_term: false
    pad: 0
    kernel_size: 1
    stride: 2
    weight_filler {
      type: "msra"
    }
  }
}
layer {
  name: "bn4a_branch1"
  type: "BatchNorm"
  bottom: "res4a_branch1"
  top: "res4a_branch1"
  batch_norm_param {
    use_global_stats: false
  }
}
layer {
  name: "scale4a_branch1"
  type: "Scale"
  bottom: "res4a_branch1"
  top: "res4a_branch1"
  scale_param {
    bias_term: true
  }
}
layer {
  name: "res4a_branch2a"
  type: "Convolution"
  bottom: "res3b7"
  top: "res4a_branch2a"
  convolution_param {
    num_output: 256
    bias_term: false
    pad: 0
    kernel_size: 1
    stride: 2
    weight_filler {
      type: "msra"
    }
  }
}
layer {
  name: "bn4a_branch2a"
  type: "BatchNorm"
  bottom: "res4a_branch2a"
  top: "res4a_branch2a"
  batch_norm_param {
    use_global_stats: false
  }
}
layer {
  name: "scale4a_branch2a"
  type: "Scale"
  bottom: "res4a_branch2a"
  top: "res4a_branch2a"
  scale_param {
    bias_term: true
  }
}
layer {
  name: "res4a_branch2a_relu"
  type: "ReLU"
  bottom: "res4a_branch2a"
  top: "res4a_branch2a"
}
layer {
  name: "res4a_branch2b"
  type: "Convolution"
  bottom: "res4a_branch2a"
  top: "res4a_branch2b"
  convolution_param {
    num_output: 256
    bias_term: false
    pad: 1
    kernel_size: 3
    stride: 1
    weight_filler {
      type: "msra"
    }
  }
}
layer {
  name: "bn4a_branch2b"
  type: "BatchNorm"
  bottom: "res4a_branch2b"
  top: "res4a_branch2b"
  batch_norm_param {
    use_global_stats: false
  }
}
layer {
  name: "scale4a_branch2b"
  type: "Scale"
  bottom: "res4a_branch2b"
  top: "res4a_branch2b"
  scale_param {
    bias_term: true
  }
}
layer {
  name: "res4a_branch2b_relu"
  type: "ReLU"
  bottom: "res4a_branch2b"
  top: "res4a_branch2b"
}
layer {
  name: "res4a_branch2c"
  type: "Convolution"
  bottom: "res4a_branch2b"
  top: "res4a_branch2c"
  convolution_param {
    num_output: 1024
    bias_term: false
    pad: 0
    kernel_size: 1
    stride: 1
    weight_filler {
      type: "msra"
    }
  }
}
layer {
  name: "bn4a_branch2c"
  type: "BatchNorm"
  bottom: "res4a_branch2c"
  top: "res4a_branch2c"
  batch_norm_param {
    use_global_stats: false
  }
}
layer {
  name: "scale4a_branch2c"
  type: "Scale"
  bottom: "res4a_branch2c"
  top: "res4a_branch2c"
  scale_param {
    bias_term: true
  }
}
layer {
  name: "res4a"
  type: "Eltwise"
  bottom: "res4a_branch1"
  bottom: "res4a_branch2c"
  top: "res4a"
  eltwise_param {
    operation: SUM
  }
}
layer {
  name: "res4a_relu"
  type: "ReLU"
  bottom: "res4a"
  top: "res4a"
}
layer {
  name: "res4b1_branch2a"
  type: "Convolution"
  bottom: "res4a"
  top: "res4b1_branch2a"
  convolution_param {
    num_output: 256
    bias_term: false
    pad: 0
    kernel_size: 1
    stride: 1
    weight_filler {
      type: "msra"
    }
  }
}
layer {
  name: "bn4b1_branch2a"
  type: "BatchNorm"
  bottom: "res4b1_branch2a"
  top: "res4b1_branch2a"
  batch_norm_param {
    use_global_stats: false
  }
}
layer {
  name: "scale4b1_branch2a"
  type: "Scale"
  bottom: "res4b1_branch2a"
  top: "res4b1_branch2a"
  scale_param {
    bias_term: true
  }
}
layer {
  name: "res4b1_branch2a_relu"
  type: "ReLU"
  bottom: "res4b1_branch2a"
  top: "res4b1_branch2a"
}
layer {
  name: "res4b1_branch2b"
  type: "Convolution"
  bottom: "res4b1_branch2a"
  top: "res4b1_branch2b"
  convolution_param {
    num_output: 256
    bias_term: false
    pad: 1
    kernel_size: 3
    stride: 1
    weight_filler {
      type: "msra"
    }
  }
}
layer {
  name: "bn4b1_branch2b"
  type: "BatchNorm"
  bottom: "res4b1_branch2b"
  top: "res4b1_branch2b"
  batch_norm_param {
    use_global_stats: false
  }
}
layer {
  name: "scale4b1_branch2b"
  type: "Scale"
  bottom: "res4b1_branch2b"
  top: "res4b1_branch2b"
  scale_param {
    bias_term: true
  }
}
layer {
  name: "
I0518 02:04:53.024840  7095 layer_factory.hpp:77] Creating layer data
I0518 02:04:53.024922  7095 db_lmdb.cpp:35] Opened lmdb /home/danilo/Documents/FGA/2018-1/TCC1/data/edited/Med_atlas_edin_29x_lmdb/train
I0518 02:04:53.066535  7095 net.cpp:84] Creating Layer data
I0518 02:04:53.066596  7095 net.cpp:380] data -> data
I0518 02:04:53.066640  7095 net.cpp:380] data -> label
I0518 02:04:53.066671  7095 data_transformer.cpp:25] Loading mean file from: /home/danilo/Documents/FGA/2018-1/TCC1/data/edited/Med_atlas_edin_29x_lmdb/input/mean.binaryproto
I0518 02:04:53.104686  7095 data_layer.cpp:45] output data size: 5,3,224,224
I0518 02:04:53.124466  7095 net.cpp:122] Setting up data
I0518 02:04:53.124528  7095 net.cpp:129] Top shape: 5 3 224 224 (752640)
I0518 02:04:53.124549  7095 net.cpp:129] Top shape: 5 (5)
I0518 02:04:53.124563  7095 net.cpp:137] Memory required for data: 3010580
I0518 02:04:53.124581  7095 layer_factory.hpp:77] Creating layer conv1
I0518 02:04:53.124619  7095 net.cpp:84] Creating Layer conv1
I0518 02:04:53.124634  7095 net.cpp:406] conv1 <- data
I0518 02:04:53.124660  7095 net.cpp:380] conv1 -> conv1
I0518 02:04:56.974527  7095 net.cpp:122] Setting up conv1
I0518 02:04:56.974578  7095 net.cpp:129] Top shape: 5 64 112 112 (4014080)
I0518 02:04:56.974591  7095 net.cpp:137] Memory required for data: 19066900
I0518 02:04:56.974647  7095 layer_factory.hpp:77] Creating layer bn_conv1
I0518 02:04:56.974669  7095 net.cpp:84] Creating Layer bn_conv1
I0518 02:04:56.974683  7095 net.cpp:406] bn_conv1 <- conv1
I0518 02:04:56.974696  7095 net.cpp:367] bn_conv1 -> conv1 (in-place)
I0518 02:04:56.975383  7095 net.cpp:122] Setting up bn_conv1
I0518 02:04:56.975404  7095 net.cpp:129] Top shape: 5 64 112 112 (4014080)
I0518 02:04:56.975412  7095 net.cpp:137] Memory required for data: 35123220
I0518 02:04:56.975435  7095 layer_factory.hpp:77] Creating layer scale_conv1
I0518 02:04:56.975452  7095 net.cpp:84] Creating Layer scale_conv1
I0518 02:04:56.975462  7095 net.cpp:406] scale_conv1 <- conv1
I0518 02:04:56.975474  7095 net.cpp:367] scale_conv1 -> conv1 (in-place)
I0518 02:04:56.979722  7095 layer_factory.hpp:77] Creating layer scale_conv1
I0518 02:04:56.980185  7095 net.cpp:122] Setting up scale_conv1
I0518 02:04:56.980214  7095 net.cpp:129] Top shape: 5 64 112 112 (4014080)
I0518 02:04:56.980224  7095 net.cpp:137] Memory required for data: 51179540
I0518 02:04:56.980247  7095 layer_factory.hpp:77] Creating layer conv1_relu
I0518 02:04:56.980263  7095 net.cpp:84] Creating Layer conv1_relu
I0518 02:04:56.980274  7095 net.cpp:406] conv1_relu <- conv1
I0518 02:04:56.980288  7095 net.cpp:367] conv1_relu -> conv1 (in-place)
I0518 02:04:56.981735  7095 net.cpp:122] Setting up conv1_relu
I0518 02:04:56.981765  7095 net.cpp:129] Top shape: 5 64 112 112 (4014080)
I0518 02:04:56.981773  7095 net.cpp:137] Memory required for data: 67235860
I0518 02:04:56.981784  7095 layer_factory.hpp:77] Creating layer pool1
I0518 02:04:56.981798  7095 net.cpp:84] Creating Layer pool1
I0518 02:04:56.981809  7095 net.cpp:406] pool1 <- conv1
I0518 02:04:56.981823  7095 net.cpp:380] pool1 -> pool1
I0518 02:04:56.981963  7095 net.cpp:122] Setting up pool1
I0518 02:04:56.981982  7095 net.cpp:129] Top shape: 5 64 56 56 (1003520)
I0518 02:04:56.981992  7095 net.cpp:137] Memory required for data: 71249940
I0518 02:04:56.982000  7095 layer_factory.hpp:77] Creating layer pool1_pool1_0_split
I0518 02:04:56.982014  7095 net.cpp:84] Creating Layer pool1_pool1_0_split
I0518 02:04:56.982025  7095 net.cpp:406] pool1_pool1_0_split <- pool1
I0518 02:04:56.982038  7095 net.cpp:380] pool1_pool1_0_split -> pool1_pool1_0_split_0
I0518 02:04:56.982056  7095 net.cpp:380] pool1_pool1_0_split -> pool1_pool1_0_split_1
I0518 02:04:56.982156  7095 net.cpp:122] Setting up pool1_pool1_0_split
I0518 02:04:56.982173  7095 net.cpp:129] Top shape: 5 64 56 56 (1003520)
I0518 02:04:56.982185  7095 net.cpp:129] Top shape: 5 64 56 56 (1003520)
I0518 02:04:56.982193  7095 net.cpp:137] Memory required for data: 79278100
I0518 02:04:56.982203  7095 layer_factory.hpp:77] Creating layer res2a_branch1
I0518 02:04:56.982223  7095 net.cpp:84] Creating Layer res2a_branch1
I0518 02:04:56.982233  7095 net.cpp:406] res2a_branch1 <- pool1_pool1_0_split_0
I0518 02:04:56.982246  7095 net.cpp:380] res2a_branch1 -> res2a_branch1
I0518 02:04:56.989215  7095 net.cpp:122] Setting up res2a_branch1
I0518 02:04:56.989266  7095 net.cpp:129] Top shape: 5 256 56 56 (4014080)
I0518 02:04:56.989282  7095 net.cpp:137] Memory required for data: 95334420
I0518 02:04:56.989305  7095 layer_factory.hpp:77] Creating layer bn2a_branch1
I0518 02:04:56.989333  7095 net.cpp:84] Creating Layer bn2a_branch1
I0518 02:04:56.989351  7095 net.cpp:406] bn2a_branch1 <- res2a_branch1
I0518 02:04:56.989372  7095 net.cpp:367] bn2a_branch1 -> res2a_branch1 (in-place)
I0518 02:04:56.994298  7095 net.cpp:122] Setting up bn2a_branch1
I0518 02:04:56.994348  7095 net.cpp:129] Top shape: 5 256 56 56 (4014080)
I0518 02:04:56.994364  7095 net.cpp:137] Memory required for data: 111390740
I0518 02:04:56.994402  7095 layer_factory.hpp:77] Creating layer scale2a_branch1
I0518 02:04:56.994428  7095 net.cpp:84] Creating Layer scale2a_branch1
I0518 02:04:56.994465  7095 net.cpp:406] scale2a_branch1 <- res2a_branch1
I0518 02:04:56.994487  7095 net.cpp:367] scale2a_branch1 -> res2a_branch1 (in-place)
I0518 02:04:56.994666  7095 layer_factory.hpp:77] Creating layer scale2a_branch1
I0518 02:04:56.995208  7095 net.cpp:122] Setting up scale2a_branch1
I0518 02:04:56.995239  7095 net.cpp:129] Top shape: 5 256 56 56 (4014080)
I0518 02:04:56.995252  7095 net.cpp:137] Memory required for data: 127447060
I0518 02:04:56.995275  7095 layer_factory.hpp:77] Creating layer res2a_branch2a
I0518 02:04:56.995306  7095 net.cpp:84] Creating Layer res2a_branch2a
I0518 02:04:56.995321  7095 net.cpp:406] res2a_branch2a <- pool1_pool1_0_split_1
I0518 02:04:56.995344  7095 net.cpp:380] res2a_branch2a -> res2a_branch2a
I0518 02:04:57.002184  7095 net.cpp:122] Setting up res2a_branch2a
I0518 02:04:57.002224  7095 net.cpp:129] Top shape: 5 64 56 56 (1003520)
I0518 02:04:57.002234  7095 net.cpp:137] Memory required for data: 131461140
I0518 02:04:57.002249  7095 layer_factory.hpp:77] Creating layer bn2a_branch2a
I0518 02:04:57.002267  7095 net.cpp:84] Creating Layer bn2a_branch2a
I0518 02:04:57.002279  7095 net.cpp:406] bn2a_branch2a <- res2a_branch2a
I0518 02:04:57.002292  7095 net.cpp:367] bn2a_branch2a -> res2a_branch2a (in-place)
I0518 02:04:57.003121  7095 net.cpp:122] Setting up bn2a_branch2a
I0518 02:04:57.003157  7095 net.cpp:129] Top shape: 5 64 56 56 (1003520)
I0518 02:04:57.003167  7095 net.cpp:137] Memory required for data: 135475220
I0518 02:04:57.003191  7095 layer_factory.hpp:77] Creating layer scale2a_branch2a
I0518 02:04:57.003214  7095 net.cpp:84] Creating Layer scale2a_branch2a
I0518 02:04:57.003231  7095 net.cpp:406] scale2a_branch2a <- res2a_branch2a
I0518 02:04:57.003250  7095 net.cpp:367] scale2a_branch2a -> res2a_branch2a (in-place)
I0518 02:04:57.003415  7095 layer_factory.hpp:77] Creating layer scale2a_branch2a
I0518 02:04:57.003841  7095 net.cpp:122] Setting up scale2a_branch2a
I0518 02:04:57.003867  7095 net.cpp:129] Top shape: 5 64 56 56 (1003520)
I0518 02:04:57.003876  7095 net.cpp:137] Memory required for data: 139489300
I0518 02:04:57.003897  7095 layer_factory.hpp:77] Creating layer res2a_branch2a_relu
I0518 02:04:57.003912  7095 net.cpp:84] Creating Layer res2a_branch2a_relu
I0518 02:04:57.003922  7095 net.cpp:406] res2a_branch2a_relu <- res2a_branch2a
I0518 02:04:57.003937  7095 net.cpp:367] res2a_branch2a_relu -> res2a_branch2a (in-place)
I0518 02:04:57.005360  7095 net.cpp:122] Setting up res2a_branch2a_relu
I0518 02:04:57.005388  7095 net.cpp:129] Top shape: 5 64 56 56 (1003520)
I0518 02:04:57.005398  7095 net.cpp:137] Memory required for data: 143503380
I0518 02:04:57.005408  7095 layer_factory.hpp:77] Creating layer res2a_branch2b
I0518 02:04:57.005426  7095 net.cpp:84] Creating Layer res2a_branch2b
I0518 02:04:57.005436  7095 net.cpp:406] res2a_branch2b <- res2a_branch2a
I0518 02:04:57.005451  7095 net.cpp:380] res2a_branch2b -> res2a_branch2b
I0518 02:04:57.012779  7095 net.cpp:122] Setting up res2a_branch2b
I0518 02:04:57.012805  7095 net.cpp:129] Top shape: 5 64 56 56 (1003520)
I0518 02:04:57.012811  7095 net.cpp:137] Memory required for data: 147517460
I0518 02:04:57.012820  7095 layer_factory.hpp:77] Creating layer bn2a_branch2b
I0518 02:04:57.012831  7095 net.cpp:84] Creating Layer bn2a_branch2b
I0518 02:04:57.012837  7095 net.cpp:406] bn2a_branch2b <- res2a_branch2b
I0518 02:04:57.012845  7095 net.cpp:367] bn2a_branch2b -> res2a_branch2b (in-place)
I0518 02:04:57.013290  7095 net.cpp:122] Setting up bn2a_branch2b
I0518 02:04:57.013310  7095 net.cpp:129] Top shape: 5 64 56 56 (1003520)
I0518 02:04:57.013319  7095 net.cpp:137] Memory required for data: 151531540
I0518 02:04:57.013332  7095 layer_factory.hpp:77] Creating layer scale2a_branch2b
I0518 02:04:57.013350  7095 net.cpp:84] Creating Layer scale2a_branch2b
I0518 02:04:57.013358  7095 net.cpp:406] scale2a_branch2b <- res2a_branch2b
I0518 02:04:57.013368  7095 net.cpp:367] scale2a_branch2b -> res2a_branch2b (in-place)
I0518 02:04:57.013484  7095 layer_factory.hpp:77] Creating layer scale2a_branch2b
I0518 02:04:57.013777  7095 net.cpp:122] Setting up scale2a_branch2b
I0518 02:04:57.013792  7095 net.cpp:129] Top shape: 5 64 56 56 (1003520)
I0518 02:04:57.013800  7095 net.cpp:137] Memory required for data: 155545620
I0518 02:04:57.013831  7095 layer_factory.hpp:77] Creating layer res2a_branch2b_relu
I0518 02:04:57.013842  7095 net.cpp:84] Creating Layer res2a_branch2b_relu
I0518 02:04:57.013850  7095 net.cpp:406] res2a_branch2b_relu <- res2a_branch2b
I0518 02:04:57.013864  7095 net.cpp:367] res2a_branch2b_relu -> res2a_branch2b (in-place)
I0518 02:04:57.015239  7095 net.cpp:122] Setting up res2a_branch2b_relu
I0518 02:04:57.015264  7095 net.cpp:129] Top shape: 5 64 56 56 (1003520)
I0518 02:04:57.015270  7095 net.cpp:137] Memory required for data: 159559700
I0518 02:04:57.015278  7095 layer_factory.hpp:77] Creating layer res2a_branch2c
I0518 02:04:57.015295  7095 net.cpp:84] Creating Layer res2a_branch2c
I0518 02:04:57.015302  7095 net.cpp:406] res2a_branch2c <- res2a_branch2b
I0518 02:04:57.015313  7095 net.cpp:380] res2a_branch2c -> res2a_branch2c
I0518 02:04:57.018424  7095 net.cpp:122] Setting up res2a_branch2c
I0518 02:04:57.018440  7095 net.cpp:129] Top shape: 5 256 56 56 (4014080)
I0518 02:04:57.018445  7095 net.cpp:137] Memory required for data: 175616020
I0518 02:04:57.018450  7095 layer_factory.hpp:77] Creating layer bn2a_branch2c
I0518 02:04:57.018460  7095 net.cpp:84] Creating Layer bn2a_branch2c
I0518 02:04:57.018463  7095 net.cpp:406] bn2a_branch2c <- res2a_branch2c
I0518 02:04:57.018470  7095 net.cpp:367] bn2a_branch2c -> res2a_branch2c (in-place)
I0518 02:04:57.018743  7095 net.cpp:122] Setting up bn2a_branch2c
I0518 02:04:57.018750  7095 net.cpp:129] Top shape: 5 256 56 56 (4014080)
I0518 02:04:57.018754  7095 net.cpp:137] Memory required for data: 191672340
I0518 02:04:57.018761  7095 layer_factory.hpp:77] Creating layer scale2a_branch2c
I0518 02:04:57.018770  7095 net.cpp:84] Creating Layer scale2a_branch2c
I0518 02:04:57.018774  7095 net.cpp:406] scale2a_branch2c <- res2a_branch2c
I0518 02:04:57.018779  7095 net.cpp:367] scale2a_branch2c -> res2a_branch2c (in-place)
I0518 02:04:57.018829  7095 layer_factory.hpp:77] Creating layer scale2a_branch2c
I0518 02:04:57.018990  7095 net.cpp:122] Setting up scale2a_branch2c
I0518 02:04:57.018997  7095 net.cpp:129] Top shape: 5 256 56 56 (4014080)
I0518 02:04:57.019001  7095 net.cpp:137] Memory required for data: 207728660
I0518 02:04:57.019006  7095 layer_factory.hpp:77] Creating layer res2a
I0518 02:04:57.019013  7095 net.cpp:84] Creating Layer res2a
I0518 02:04:57.019017  7095 net.cpp:406] res2a <- res2a_branch1
I0518 02:04:57.019021  7095 net.cpp:406] res2a <- res2a_branch2c
I0518 02:04:57.019029  7095 net.cpp:380] res2a -> res2a
I0518 02:04:57.019060  7095 net.cpp:122] Setting up res2a
I0518 02:04:57.019068  7095 net.cpp:129] Top shape: 5 256 56 56 (4014080)
I0518 02:04:57.019070  7095 net.cpp:137] Memory required for data: 223784980
I0518 02:04:57.019074  7095 layer_factory.hpp:77] Creating layer res2a_relu
I0518 02:04:57.019079  7095 net.cpp:84] Creating Layer res2a_relu
I0518 02:04:57.019083  7095 net.cpp:406] res2a_relu <- res2a
I0518 02:04:57.019088  7095 net.cpp:367] res2a_relu -> res2a (in-place)
I0518 02:04:57.019807  7095 net.cpp:122] Setting up res2a_relu
I0518 02:04:57.019819  7095 net.cpp:129] Top shape: 5 256 56 56 (4014080)
I0518 02:04:57.019824  7095 net.cpp:137] Memory required for data: 239841300
I0518 02:04:57.019827  7095 layer_factory.hpp:77] Creating layer res2a_res2a_relu_0_split
I0518 02:04:57.019834  7095 net.cpp:84] Creating Layer res2a_res2a_relu_0_split
I0518 02:04:57.019837  7095 net.cpp:406] res2a_res2a_relu_0_split <- res2a
I0518 02:04:57.019845  7095 net.cpp:380] res2a_res2a_relu_0_split -> res2a_res2a_relu_0_split_0
I0518 02:04:57.019855  7095 net.cpp:380] res2a_res2a_relu_0_split -> res2a_res2a_relu_0_split_1
I0518 02:04:57.019914  7095 net.cpp:122] Setting up res2a_res2a_relu_0_split
I0518 02:04:57.019922  7095 net.cpp:129] Top shape: 5 256 56 56 (4014080)
I0518 02:04:57.019927  7095 net.cpp:129] Top shape: 5 256 56 56 (4014080)
I0518 02:04:57.019929  7095 net.cpp:137] Memory required for data: 271953940
I0518 02:04:57.019933  7095 layer_factory.hpp:77] Creating layer res2b_branch2a
I0518 02:04:57.019942  7095 net.cpp:84] Creating Layer res2b_branch2a
I0518 02:04:57.019956  7095 net.cpp:406] res2b_branch2a <- res2a_res2a_relu_0_split_0
I0518 02:04:57.019963  7095 net.cpp:380] res2b_branch2a -> res2b_branch2a
I0518 02:04:57.022827  7095 net.cpp:122] Setting up res2b_branch2a
I0518 02:04:57.022842  7095 net.cpp:129] Top shape: 5 64 56 56 (1003520)
I0518 02:04:57.022845  7095 net.cpp:137] Memory required for data: 275968020
I0518 02:04:57.022851  7095 layer_factory.hpp:77] Creating layer bn2b_branch2a
I0518 02:04:57.022859  7095 net.cpp:84] Creating Layer bn2b_branch2a
I0518 02:04:57.022863  7095 net.cpp:406] bn2b_branch2a <- res2b_branch2a
I0518 02:04:57.022868  7095 net.cpp:367] bn2b_branch2a -> res2b_branch2a (in-place)
I0518 02:04:57.023108  7095 net.cpp:122] Setting up bn2b_branch2a
I0518 02:04:57.023115  7095 net.cpp:129] Top shape: 5 64 56 56 (1003520)
I0518 02:04:57.023118  7095 net.cpp:137] Memory required for data: 279982100
I0518 02:04:57.023128  7095 layer_factory.hpp:77] Creating layer scale2b_branch2a
I0518 02:04:57.023135  7095 net.cpp:84] Creating Layer scale2b_branch2a
I0518 02:04:57.023139  7095 net.cpp:406] scale2b_branch2a <- res2b_branch2a
I0518 02:04:57.023144  7095 net.cpp:367] scale2b_branch2a -> res2b_branch2a (in-place)
I0518 02:04:57.023191  7095 layer_factory.hpp:77] Creating layer scale2b_branch2a
I0518 02:04:57.023332  7095 net.cpp:122] Setting up scale2b_branch2a
I0518 02:04:57.023339  7095 net.cpp:129] Top shape: 5 64 56 56 (1003520)
I0518 02:04:57.023342  7095 net.cpp:137] Memory required for data: 283996180
I0518 02:04:57.023347  7095 layer_factory.hpp:77] Creating layer res2b_branch2a_relu
I0518 02:04:57.023353  7095 net.cpp:84] Creating Layer res2b_branch2a_relu
I0518 02:04:57.023358  7095 net.cpp:406] res2b_branch2a_relu <- res2b_branch2a
I0518 02:04:57.023363  7095 net.cpp:367] res2b_branch2a_relu -> res2b_branch2a (in-place)
I0518 02:04:57.023958  7095 net.cpp:122] Setting up res2b_branch2a_relu
I0518 02:04:57.023968  7095 net.cpp:129] Top shape: 5 64 56 56 (1003520)
I0518 02:04:57.023972  7095 net.cpp:137] Memory required for data: 288010260
I0518 02:04:57.023975  7095 layer_factory.hpp:77] Creating layer res2b_branch2b
I0518 02:04:57.023984  7095 net.cpp:84] Creating Layer res2b_branch2b
I0518 02:04:57.023988  7095 net.cpp:406] res2b_branch2b <- res2b_branch2a
I0518 02:04:57.023993  7095 net.cpp:380] res2b_branch2b -> res2b_branch2b
I0518 02:04:57.026615  7095 net.cpp:122] Setting up res2b_branch2b
I0518 02:04:57.026628  7095 net.cpp:129] Top shape: 5 64 56 56 (1003520)
I0518 02:04:57.026630  7095 net.cpp:137] Memory required for data: 292024340
I0518 02:04:57.026634  7095 layer_factory.hpp:77] Creating layer bn2b_branch2b
I0518 02:04:57.026641  7095 net.cpp:84] Creating Layer bn2b_branch2b
I0518 02:04:57.026644  7095 net.cpp:406] bn2b_branch2b <- res2b_branch2b
I0518 02:04:57.026649  7095 net.cpp:367] bn2b_branch2b -> res2b_branch2b (in-place)
I0518 02:04:57.026865  7095 net.cpp:122] Setting up bn2b_branch2b
I0518 02:04:57.026872  7095 net.cpp:129] Top shape: 5 64 56 56 (1003520)
I0518 02:04:57.026875  7095 net.cpp:137] Memory required for data: 296038420
I0518 02:04:57.026880  7095 layer_factory.hpp:77] Creating layer scale2b_branch2b
I0518 02:04:57.026885  7095 net.cpp:84] Creating Layer scale2b_branch2b
I0518 02:04:57.026887  7095 net.cpp:406] scale2b_branch2b <- res2b_branch2b
I0518 02:04:57.026891  7095 net.cpp:367] scale2b_branch2b -> res2b_branch2b (in-place)
I0518 02:04:57.026932  7095 layer_factory.hpp:77] Creating layer scale2b_branch2b
I0518 02:04:57.027051  7095 net.cpp:122] Setting up scale2b_branch2b
I0518 02:04:57.027057  7095 net.cpp:129] Top shape: 5 64 56 56 (1003520)
I0518 02:04:57.027060  7095 net.cpp:137] Memory required for data: 300052500
I0518 02:04:57.027065  7095 layer_factory.hpp:77] Creating layer res2b_branch2b_relu
I0518 02:04:57.027070  7095 net.cpp:84] Creating Layer res2b_branch2b_relu
I0518 02:04:57.027072  7095 net.cpp:406] res2b_branch2b_relu <- res2b_branch2b
I0518 02:04:57.027076  7095 net.cpp:367] res2b_branch2b_relu -> res2b_branch2b (in-place)
I0518 02:04:57.027720  7095 net.cpp:122] Setting up res2b_branch2b_relu
I0518 02:04:57.027737  7095 net.cpp:129] Top shape: 5 64 56 56 (1003520)
I0518 02:04:57.027740  7095 net.cpp:137] Memory required for data: 304066580
I0518 02:04:57.027743  7095 layer_factory.hpp:77] Creating layer res2b_branch2c
I0518 02:04:57.027753  7095 net.cpp:84] Creating Layer res2b_branch2c
I0518 02:04:57.027756  7095 net.cpp:406] res2b_branch2c <- res2b_branch2b
I0518 02:04:57.027762  7095 net.cpp:380] res2b_branch2c -> res2b_branch2c
I0518 02:04:57.029806  7095 net.cpp:122] Setting up res2b_branch2c
I0518 02:04:57.029816  7095 net.cpp:129] Top shape: 5 256 56 56 (4014080)
I0518 02:04:57.029819  7095 net.cpp:137] Memory required for data: 320122900
I0518 02:04:57.029824  7095 layer_factory.hpp:77] Creating layer bn2b_branch2c
I0518 02:04:57.029830  7095 net.cpp:84] Creating Layer bn2b_branch2c
I0518 02:04:57.029834  7095 net.cpp:406] bn2b_branch2c <- res2b_branch2c
I0518 02:04:57.029839  7095 net.cpp:367] bn2b_branch2c -> res2b_branch2c (in-place)
I0518 02:04:57.030035  7095 net.cpp:122] Setting up bn2b_branch2c
I0518 02:04:57.030041  7095 net.cpp:129] Top shape: 5 256 56 56 (4014080)
I0518 02:04:57.030043  7095 net.cpp:137] Memory required for data: 336179220
I0518 02:04:57.030048  7095 layer_factory.hpp:77] Creating layer scale2b_branch2c
I0518 02:04:57.030055  7095 net.cpp:84] Creating Layer scale2b_branch2c
I0518 02:04:57.030057  7095 net.cpp:406] scale2b_branch2c <- res2b_branch2c
I0518 02:04:57.030061  7095 net.cpp:367] scale2b_branch2c -> res2b_branch2c (in-place)
I0518 02:04:57.030097  7095 layer_factory.hpp:77] Creating layer scale2b_branch2c
I0518 02:04:57.030220  7095 net.cpp:122] Setting up scale2b_branch2c
I0518 02:04:57.030226  7095 net.cpp:129] Top shape: 5 256 56 56 (4014080)
I0518 02:04:57.030230  7095 net.cpp:137] Memory required for data: 352235540
I0518 02:04:57.030233  7095 layer_factory.hpp:77] Creating layer res2b
I0518 02:04:57.030239  7095 net.cpp:84] Creating Layer res2b
I0518 02:04:57.030242  7095 net.cpp:406] res2b <- res2a_res2a_relu_0_split_1
I0518 02:04:57.030246  7095 net.cpp:406] res2b <- res2b_branch2c
I0518 02:04:57.030249  7095 net.cpp:380] res2b -> res2b
I0518 02:04:57.030273  7095 net.cpp:122] Setting up res2b
I0518 02:04:57.030278  7095 net.cpp:129] Top shape: 5 256 56 56 (4014080)
I0518 02:04:57.030282  7095 net.cpp:137] Memory required for data: 368291860
I0518 02:04:57.030283  7095 layer_factory.hpp:77] Creating layer res2b_relu
I0518 02:04:57.030287  7095 net.cpp:84] Creating Layer res2b_relu
I0518 02:04:57.030290  7095 net.cpp:406] res2b_relu <- res2b
I0518 02:04:57.030294  7095 net.cpp:367] res2b_relu -> res2b (in-place)
I0518 02:04:57.030798  7095 net.cpp:122] Setting up res2b_relu
I0518 02:04:57.030807  7095 net.cpp:129] Top shape: 5 256 56 56 (4014080)
I0518 02:04:57.030809  7095 net.cpp:137] Memory required for data: 384348180
I0518 02:04:57.030812  7095 layer_factory.hpp:77] Creating layer res2b_res2b_relu_0_split
I0518 02:04:57.030817  7095 net.cpp:84] Creating Layer res2b_res2b_relu_0_split
I0518 02:04:57.030819  7095 net.cpp:406] res2b_res2b_relu_0_split <- res2b
I0518 02:04:57.030825  7095 net.cpp:380] res2b_res2b_relu_0_split -> res2b_res2b_relu_0_split_0
I0518 02:04:57.030831  7095 net.cpp:380] res2b_res2b_relu_0_split -> res2b_res2b_relu_0_split_1
I0518 02:04:57.030872  7095 net.cpp:122] Setting up res2b_res2b_relu_0_split
I0518 02:04:57.030877  7095 net.cpp:129] Top shape: 5 256 56 56 (4014080)
I0518 02:04:57.030881  7095 net.cpp:129] Top shape: 5 256 56 56 (4014080)
I0518 02:04:57.030884  7095 net.cpp:137] Memory required for data: 416460820
I0518 02:04:57.030885  7095 layer_factory.hpp:77] Creating layer res2c_branch2a
I0518 02:04:57.030894  7095 net.cpp:84] Creating Layer res2c_branch2a
I0518 02:04:57.030896  7095 net.cpp:406] res2c_branch2a <- res2b_res2b_relu_0_split_0
I0518 02:04:57.030900  7095 net.cpp:380] res2c_branch2a -> res2c_branch2a
I0518 02:04:57.032737  7095 net.cpp:122] Setting up res2c_branch2a
I0518 02:04:57.032745  7095 net.cpp:129] Top shape: 5 64 56 56 (1003520)
I0518 02:04:57.032747  7095 net.cpp:137] Memory required for data: 420474900
I0518 02:04:57.032758  7095 layer_factory.hpp:77] Creating layer bn2c_branch2a
I0518 02:04:57.032764  7095 net.cpp:84] Creating Layer bn2c_branch2a
I0518 02:04:57.032768  7095 net.cpp:406] bn2c_branch2a <- res2c_branch2a
I0518 02:04:57.032771  7095 net.cpp:367] bn2c_branch2a -> res2c_branch2a (in-place)
I0518 02:04:57.032954  7095 net.cpp:122] Setting up bn2c_branch2a
I0518 02:04:57.032959  7095 net.cpp:129] Top shape: 5 64 56 56 (1003520)
I0518 02:04:57.032961  7095 net.cpp:137] Memory required for data: 424488980
I0518 02:04:57.032966  7095 layer_factory.hpp:77] Creating layer scale2c_branch2a
I0518 02:04:57.032970  7095 net.cpp:84] Creating Layer scale2c_branch2a
I0518 02:04:57.032972  7095 net.cpp:406] scale2c_branch2a <- res2c_branch2a
I0518 02:04:57.032975  7095 net.cpp:367] scale2c_branch2a -> res2c_branch2a (in-place)
I0518 02:04:57.033010  7095 layer_factory.hpp:77] Creating layer scale2c_branch2a
I0518 02:04:57.033113  7095 net.cpp:122] Setting up scale2c_branch2a
I0518 02:04:57.033118  7095 net.cpp:129] Top shape: 5 64 56 56 (1003520)
I0518 02:04:57.033120  7095 net.cpp:137] Memory required for data: 428503060
I0518 02:04:57.033124  7095 layer_factory.hpp:77] Creating layer res2c_branch2a_relu
I0518 02:04:57.033129  7095 net.cpp:84] Creating Layer res2c_branch2a_relu
I0518 02:04:57.033131  7095 net.cpp:406] res2c_branch2a_relu <- res2c_branch2a
I0518 02:04:57.033135  7095 net.cpp:367] res2c_branch2a_relu -> res2c_branch2a (in-place)
I0518 02:04:57.033715  7095 net.cpp:122] Setting up res2c_branch2a_relu
I0518 02:04:57.033722  7095 net.cpp:129] Top shape: 5 64 56 56 (1003520)
I0518 02:04:57.033725  7095 net.cpp:137] Memory required for data: 432517140
I0518 02:04:57.033727  7095 layer_factory.hpp:77] Creating layer res2c_branch2b
I0518 02:04:57.033736  7095 net.cpp:84] Creating Layer res2c_branch2b
I0518 02:04:57.033738  7095 net.cpp:406] res2c_branch2b <- res2c_branch2a
I0518 02:04:57.033742  7095 net.cpp:380] res2c_branch2b -> res2c_branch2b
I0518 02:04:57.035691  7095 net.cpp:122] Setting up res2c_branch2b
I0518 02:04:57.035699  7095 net.cpp:129] Top shape: 5 64 56 56 (1003520)
I0518 02:04:57.035702  7095 net.cpp:137] Memory required for data: 436531220
I0518 02:04:57.035706  7095 layer_factory.hpp:77] Creating layer bn2c_branch2b
I0518 02:04:57.035713  7095 net.cpp:84] Creating Layer bn2c_branch2b
I0518 02:04:57.035715  7095 net.cpp:406] bn2c_branch2b <- res2c_branch2b
I0518 02:04:57.035719  7095 net.cpp:367] bn2c_branch2b -> res2c_branch2b (in-place)
I0518 02:04:57.035904  7095 net.cpp:122] Setting up bn2c_branch2b
I0518 02:04:57.035912  7095 net.cpp:129] Top shape: 5 64 56 56 (1003520)
I0518 02:04:57.035914  7095 net.cpp:137] Memory required for data: 440545300
I0518 02:04:57.035920  7095 layer_factory.hpp:77] Creating layer scale2c_branch2b
I0518 02:04:57.035928  7095 net.cpp:84] Creating Layer scale2c_branch2b
I0518 02:04:57.035933  7095 net.cpp:406] scale2c_branch2b <- res2c_branch2b
I0518 02:04:57.035938  7095 net.cpp:367] scale2c_branch2b -> res2c_branch2b (in-place)
I0518 02:04:57.035974  7095 layer_factory.hpp:77] Creating layer scale2c_branch2b
I0518 02:04:57.036082  7095 net.cpp:122] Setting up scale2c_branch2b
I0518 02:04:57.036087  7095 net.cpp:129] Top shape: 5 64 56 56 (1003520)
I0518 02:04:57.036089  7095 net.cpp:137] Memory required for data: 444559380
I0518 02:04:57.036093  7095 layer_factory.hpp:77] Creating layer res2c_branch2b_relu
I0518 02:04:57.036097  7095 net.cpp:84] Creating Layer res2c_branch2b_relu
I0518 02:04:57.036099  7095 net.cpp:406] res2c_branch2b_relu <- res2c_branch2b
I0518 02:04:57.036104  7095 net.cpp:367] res2c_branch2b_relu -> res2c_branch2b (in-place)
I0518 02:04:57.036540  7095 net.cpp:122] Setting up res2c_branch2b_relu
I0518 02:04:57.036546  7095 net.cpp:129] Top shape: 5 64 56 56 (1003520)
I0518 02:04:57.036548  7095 net.cpp:137] Memory required for data: 448573460
I0518 02:04:57.036550  7095 layer_factory.hpp:77] Creating layer res2c_branch2c
I0518 02:04:57.036556  7095 net.cpp:84] Creating Layer res2c_branch2c
I0518 02:04:57.036563  7095 net.cpp:406] res2c_branch2c <- res2c_branch2b
I0518 02:04:57.036567  7095 net.cpp:380] res2c_branch2c -> res2c_branch2c
I0518 02:04:57.038302  7095 net.cpp:122] Setting up res2c_branch2c
I0518 02:04:57.038311  7095 net.cpp:129] Top shape: 5 256 56 56 (4014080)
I0518 02:04:57.038313  7095 net.cpp:137] Memory required for data: 464629780
I0518 02:04:57.038316  7095 layer_factory.hpp:77] Creating layer bn2c_branch2c
I0518 02:04:57.038321  7095 net.cpp:84] Creating Layer bn2c_branch2c
I0518 02:04:57.038323  7095 net.cpp:406] bn2c_branch2c <- res2c_branch2c
I0518 02:04:57.038326  7095 net.cpp:367] bn2c_branch2c -> res2c_branch2c (in-place)
I0518 02:04:57.038486  7095 net.cpp:122] Setting up bn2c_branch2c
I0518 02:04:57.038491  7095 net.cpp:129] Top shape: 5 256 56 56 (4014080)
I0518 02:04:57.038492  7095 net.cpp:137] Memory required for data: 480686100
I0518 02:04:57.038496  7095 layer_factory.hpp:77] Creating layer scale2c_branch2c
I0518 02:04:57.038499  7095 net.cpp:84] Creating Layer scale2c_branch2c
I0518 02:04:57.038501  7095 net.cpp:406] scale2c_branch2c <- res2c_branch2c
I0518 02:04:57.038504  7095 net.cpp:367] scale2c_branch2c -> res2c_branch2c (in-place)
I0518 02:04:57.038534  7095 layer_factory.hpp:77] Creating layer scale2c_branch2c
I0518 02:04:57.038625  7095 net.cpp:122] Setting up scale2c_branch2c
I0518 02:04:57.038630  7095 net.cpp:129] Top shape: 5 256 56 56 (4014080)
I0518 02:04:57.038632  7095 net.cpp:137] Memory required for data: 496742420
I0518 02:04:57.038640  7095 layer_factory.hpp:77] Creating layer res2c
I0518 02:04:57.038645  7095 net.cpp:84] Creating Layer res2c
I0518 02:04:57.038646  7095 net.cpp:406] res2c <- res2b_res2b_relu_0_split_1
I0518 02:04:57.038650  7095 net.cpp:406] res2c <- res2c_branch2c
I0518 02:04:57.038652  7095 net.cpp:380] res2c -> res2c
I0518 02:04:57.038671  7095 net.cpp:122] Setting up res2c
I0518 02:04:57.038674  7095 net.cpp:129] Top shape: 5 256 56 56 (4014080)
I0518 02:04:57.038676  7095 net.cpp:137] Memory required for data: 512798740
I0518 02:04:57.038678  7095 layer_factory.hpp:77] Creating layer res2c_relu
I0518 02:04:57.038681  7095 net.cpp:84] Creating Layer res2c_relu
I0518 02:04:57.038683  7095 net.cpp:406] res2c_relu <- res2c
I0518 02:04:57.038686  7095 net.cpp:367] res2c_relu -> res2c (in-place)
I0518 02:04:57.039077  7095 net.cpp:122] Setting up res2c_relu
I0518 02:04:57.039083  7095 net.cpp:129] Top shape: 5 256 56 56 (4014080)
I0518 02:04:57.039085  7095 net.cpp:137] Memory required for data: 528855060
I0518 02:04:57.039088  7095 layer_factory.hpp:77] Creating layer res2c_res2c_relu_0_split
I0518 02:04:57.039093  7095 net.cpp:84] Creating Layer res2c_res2c_relu_0_split
I0518 02:04:57.039095  7095 net.cpp:406] res2c_res2c_relu_0_split <- res2c
I0518 02:04:57.039098  7095 net.cpp:380] res2c_res2c_relu_0_split -> res2c_res2c_relu_0_split_0
I0518 02:04:57.039103  7095 net.cpp:380] res2c_res2c_relu_0_split -> res2c_res2c_relu_0_split_1
I0518 02:04:57.039135  7095 net.cpp:122] Setting up res2c_res2c_relu_0_split
I0518 02:04:57.039139  7095 net.cpp:129] Top shape: 5 256 56 56 (4014080)
I0518 02:04:57.039142  7095 net.cpp:129] Top shape: 5 256 56 56 (4014080)
I0518 02:04:57.039144  7095 net.cpp:137] Memory required for data: 560967700
I0518 02:04:57.039146  7095 layer_factory.hpp:77] Creating layer res3a_branch1
I0518 02:04:57.039151  7095 net.cpp:84] Creating Layer res3a_branch1
I0518 02:04:57.039155  7095 net.cpp:406] res3a_branch1 <- res2c_res2c_relu_0_split_0
I0518 02:04:57.039157  7095 net.cpp:380] res3a_branch1 -> res3a_branch1
I0518 02:04:57.041699  7095 net.cpp:122] Setting up res3a_branch1
I0518 02:04:57.041708  7095 net.cpp:129] Top shape: 5 512 28 28 (2007040)
I0518 02:04:57.041710  7095 net.cpp:137] Memory required for data: 568995860
I0518 02:04:57.041713  7095 layer_factory.hpp:77] Creating layer bn3a_branch1
I0518 02:04:57.041718  7095 net.cpp:84] Creating Layer bn3a_branch1
I0518 02:04:57.041720  7095 net.cpp:406] bn3a_branch1 <- res3a_branch1
I0518 02:04:57.041723  7095 net.cpp:367] bn3a_branch1 -> res3a_branch1 (in-place)
I0518 02:04:57.042482  7095 net.cpp:122] Setting up bn3a_branch1
I0518 02:04:57.042495  7095 net.cpp:129] Top shape: 5 512 28 28 (2007040)
I0518 02:04:57.042497  7095 net.cpp:137] Memory required for data: 577024020
I0518 02:04:57.042505  7095 layer_factory.hpp:77] Creating layer scale3a_branch1
I0518 02:04:57.042510  7095 net.cpp:84] Creating Layer scale3a_branch1
I0518 02:04:57.042515  7095 net.cpp:406] scale3a_branch1 <- res3a_branch1
I0518 02:04:57.042520  7095 net.cpp:367] scale3a_branch1 -> res3a_branch1 (in-place)
I0518 02:04:57.042563  7095 layer_factory.hpp:77] Creating layer scale3a_branch1
I0518 02:04:57.042670  7095 net.cpp:122] Setting up scale3a_branch1
I0518 02:04:57.042676  7095 net.cpp:129] Top shape: 5 512 28 28 (2007040)
I0518 02:04:57.042680  7095 net.cpp:137] Memory required for data: 585052180
I0518 02:04:57.042683  7095 layer_factory.hpp:77] Creating layer res3a_branch2a
I0518 02:04:57.042692  7095 net.cpp:84] Creating Layer res3a_branch2a
I0518 02:04:57.042696  7095 net.cpp:406] res3a_branch2a <- res2c_res2c_relu_0_split_1
I0518 02:04:57.042701  7095 net.cpp:380] res3a_branch2a -> res3a_branch2a
I0518 02:04:57.044590  7095 net.cpp:122] Setting up res3a_branch2a
I0518 02:04:57.044600  7095 net.cpp:129] Top shape: 5 128 28 28 (501760)
I0518 02:04:57.044603  7095 net.cpp:137] Memory required for data: 587059220
I0518 02:04:57.044608  7095 layer_factory.hpp:77] Creating layer bn3a_branch2a
I0518 02:04:57.044616  7095 net.cpp:84] Creating Layer bn3a_branch2a
I0518 02:04:57.044620  7095 net.cpp:406] bn3a_branch2a <- res3a_branch2a
I0518 02:04:57.044625  7095 net.cpp:367] bn3a_branch2a -> res3a_branch2a (in-place)
I0518 02:04:57.044778  7095 net.cpp:122] Setting up bn3a_branch2a
I0518 02:04:57.044783  7095 net.cpp:129] Top shape: 5 128 28 28 (501760)
I0518 02:04:57.044786  7095 net.cpp:137] Memory required for data: 589066260
I0518 02:04:57.044792  7095 layer_factory.hpp:77] Creating layer scale3a_branch2a
I0518 02:04:57.044797  7095 net.cpp:84] Creating Layer scale3a_branch2a
I0518 02:04:57.044800  7095 net.cpp:406] scale3a_branch2a <- res3a_branch2a
I0518 02:04:57.044806  7095 net.cpp:367] scale3a_branch2a -> res3a_branch2a (in-place)
I0518 02:04:57.044839  7095 layer_factory.hpp:77] Creating layer scale3a_branch2a
I0518 02:04:57.044926  7095 net.cpp:122] Setting up scale3a_branch2a
I0518 02:04:57.044931  7095 net.cpp:129] Top shape: 5 128 28 28 (501760)
I0518 02:04:57.044934  7095 net.cpp:137] Memory required for data: 591073300
I0518 02:04:57.044939  7095 layer_factory.hpp:77] Creating layer res3a_branch2a_relu
I0518 02:04:57.044944  7095 net.cpp:84] Creating Layer res3a_branch2a_relu
I0518 02:04:57.044947  7095 net.cpp:406] res3a_branch2a_relu <- res3a_branch2a
I0518 02:04:57.044951  7095 net.cpp:367] res3a_branch2a_relu -> res3a_branch2a (in-place)
I0518 02:04:57.045424  7095 net.cpp:122] Setting up res3a_branch2a_relu
I0518 02:04:57.045431  7095 net.cpp:129] Top shape: 5 128 28 28 (501760)
I0518 02:04:57.045434  7095 net.cpp:137] Memory required for data: 593080340
I0518 02:04:57.045437  7095 layer_factory.hpp:77] Creating layer res3a_branch2b
I0518 02:04:57.045445  7095 net.cpp:84] Creating Layer res3a_branch2b
I0518 02:04:57.045449  7095 net.cpp:406] res3a_branch2b <- res3a_branch2a
I0518 02:04:57.045454  7095 net.cpp:380] res3a_branch2b -> res3a_branch2b
I0518 02:04:57.047823  7095 net.cpp:122] Setting up res3a_branch2b
I0518 02:04:57.047832  7095 net.cpp:129] Top shape: 5 128 28 28 (501760)
I0518 02:04:57.047834  7095 net.cpp:137] Memory required for data: 595087380
I0518 02:04:57.047839  7095 layer_factory.hpp:77] Creating layer bn3a_branch2b
I0518 02:04:57.047843  7095 net.cpp:84] Creating Layer bn3a_branch2b
I0518 02:04:57.047847  7095 net.cpp:406] bn3a_branch2b <- res3a_branch2b
I0518 02:04:57.047850  7095 net.cpp:367] bn3a_branch2b -> res3a_branch2b (in-place)
I0518 02:04:57.047997  7095 net.cpp:122] Setting up bn3a_branch2b
I0518 02:04:57.048002  7095 net.cpp:129] Top shape: 5 128 28 28 (501760)
I0518 02:04:57.048005  7095 net.cpp:137] Memory required for data: 597094420
I0518 02:04:57.048012  7095 layer_factory.hpp:77] Creating layer scale3a_branch2b
I0518 02:04:57.048023  7095 net.cpp:84] Creating Layer scale3a_branch2b
I0518 02:04:57.048027  7095 net.cpp:406] scale3a_branch2b <- res3a_branch2b
I0518 02:04:57.048030  7095 net.cpp:367] scale3a_branch2b -> res3a_branch2b (in-place)
I0518 02:04:57.048063  7095 layer_factory.hpp:77] Creating layer scale3a_branch2b
I0518 02:04:57.048147  7095 net.cpp:122] Setting up scale3a_branch2b
I0518 02:04:57.048152  7095 net.cpp:129] Top shape: 5 128 28 28 (501760)
I0518 02:04:57.048156  7095 net.cpp:137] Memory required for data: 599101460
I0518 02:04:57.048159  7095 layer_factory.hpp:77] Creating layer res3a_branch2b_relu
I0518 02:04:57.048166  7095 net.cpp:84] Creating Layer res3a_branch2b_relu
I0518 02:04:57.048168  7095 net.cpp:406] res3a_branch2b_relu <- res3a_branch2b
I0518 02:04:57.048172  7095 net.cpp:367] res3a_branch2b_relu -> res3a_branch2b (in-place)
I0518 02:04:57.048517  7095 net.cpp:122] Setting up res3a_branch2b_relu
I0518 02:04:57.048523  7095 net.cpp:129] Top shape: 5 128 28 28 (501760)
I0518 02:04:57.048527  7095 net.cpp:137] Memory required for data: 601108500
I0518 02:04:57.048529  7095 layer_factory.hpp:77] Creating layer res3a_branch2c
I0518 02:04:57.048537  7095 net.cpp:84] Creating Layer res3a_branch2c
I0518 02:04:57.048539  7095 net.cpp:406] res3a_branch2c <- res3a_branch2b
I0518 02:04:57.048545  7095 net.cpp:380] res3a_branch2c -> res3a_branch2c
I0518 02:04:57.050369  7095 net.cpp:122] Setting up res3a_branch2c
I0518 02:04:57.050377  7095 net.cpp:129] Top shape: 5 512 28 28 (2007040)
I0518 02:04:57.050380  7095 net.cpp:137] Memory required for data: 609136660
I0518 02:04:57.050384  7095 layer_factory.hpp:77] Creating layer bn3a_branch2c
I0518 02:04:57.050395  7095 net.cpp:84] Creating Layer bn3a_branch2c
I0518 02:04:57.050398  7095 net.cpp:406] bn3a_branch2c <- res3a_branch2c
I0518 02:04:57.050402  7095 net.cpp:367] bn3a_branch2c -> res3a_branch2c (in-place)
I0518 02:04:57.050549  7095 net.cpp:122] Setting up bn3a_branch2c
I0518 02:04:57.050552  7095 net.cpp:129] Top shape: 5 512 28 28 (2007040)
I0518 02:04:57.050555  7095 net.cpp:137] Memory required for data: 617164820
I0518 02:04:57.050561  7095 layer_factory.hpp:77] Creating layer scale3a_branch2c
I0518 02:04:57.050566  7095 net.cpp:84] Creating Layer scale3a_branch2c
I0518 02:04:57.050570  7095 net.cpp:406] scale3a_branch2c <- res3a_branch2c
I0518 02:04:57.050576  7095 net.cpp:367] scale3a_branch2c -> res3a_branch2c (in-place)
I0518 02:04:57.050606  7095 layer_factory.hpp:77] Creating layer scale3a_branch2c
I0518 02:04:57.050688  7095 net.cpp:122] Setting up scale3a_branch2c
I0518 02:04:57.050693  7095 net.cpp:129] Top shape: 5 512 28 28 (2007040)
I0518 02:04:57.050695  7095 net.cpp:137] Memory required for data: 625192980
I0518 02:04:57.050699  7095 layer_factory.hpp:77] Creating layer res3a
I0518 02:04:57.050704  7095 net.cpp:84] Creating Layer res3a
I0518 02:04:57.050707  7095 net.cpp:406] res3a <- res3a_branch1
I0518 02:04:57.050711  7095 net.cpp:406] res3a <- res3a_branch2c
I0518 02:04:57.050715  7095 net.cpp:380] res3a -> res3a
I0518 02:04:57.050736  7095 net.cpp:122] Setting up res3a
I0518 02:04:57.050741  7095 net.cpp:129] Top shape: 5 512 28 28 (2007040)
I0518 02:04:57.050743  7095 net.cpp:137] Memory required for data: 633221140
I0518 02:04:57.050746  7095 layer_factory.hpp:77] Creating layer res3a_relu
I0518 02:04:57.050751  7095 net.cpp:84] Creating Layer res3a_relu
I0518 02:04:57.050755  7095 net.cpp:406] res3a_relu <- res3a
I0518 02:04:57.050760  7095 net.cpp:367] res3a_relu -> res3a (in-place)
I0518 02:04:57.051107  7095 net.cpp:122] Setting up res3a_relu
I0518 02:04:57.051113  7095 net.cpp:129] Top shape: 5 512 28 28 (2007040)
I0518 02:04:57.051116  7095 net.cpp:137] Memory required for data: 641249300
I0518 02:04:57.051120  7095 layer_factory.hpp:77] Creating layer res3a_res3a_relu_0_split
I0518 02:04:57.051123  7095 net.cpp:84] Creating Layer res3a_res3a_relu_0_split
I0518 02:04:57.051126  7095 net.cpp:406] res3a_res3a_relu_0_split <- res3a
I0518 02:04:57.051131  7095 net.cpp:380] res3a_res3a_relu_0_split -> res3a_res3a_relu_0_split_0
I0518 02:04:57.051143  7095 net.cpp:380] res3a_res3a_relu_0_split -> res3a_res3a_relu_0_split_1
I0518 02:04:57.051179  7095 net.cpp:122] Setting up res3a_res3a_relu_0_split
I0518 02:04:57.051184  7095 net.cpp:129] Top shape: 5 512 28 28 (2007040)
I0518 02:04:57.051187  7095 net.cpp:129] Top shape: 5 512 28 28 (2007040)
I0518 02:04:57.051189  7095 net.cpp:137] Memory required for data: 657305620
I0518 02:04:57.051192  7095 layer_factory.hpp:77] Creating layer res3b1_branch2a
I0518 02:04:57.051201  7095 net.cpp:84] Creating Layer res3b1_branch2a
I0518 02:04:57.051204  7095 net.cpp:406] res3b1_branch2a <- res3a_res3a_relu_0_split_0
I0518 02:04:57.051208  7095 net.cpp:380] res3b1_branch2a -> res3b1_branch2a
I0518 02:04:57.052991  7095 net.cpp:122] Setting up res3b1_branch2a
I0518 02:04:57.052999  7095 net.cpp:129] Top shape: 5 128 28 28 (501760)
I0518 02:04:57.053004  7095 net.cpp:137] Memory required for data: 659312660
I0518 02:04:57.053009  7095 layer_factory.hpp:77] Creating layer bn3b1_branch2a
I0518 02:04:57.053012  7095 net.cpp:84] Creating Layer bn3b1_branch2a
I0518 02:04:57.053019  7095 net.cpp:406] bn3b1_branch2a <- res3b1_branch2a
I0518 02:04:57.053022  7095 net.cpp:367] bn3b1_branch2a -> res3b1_branch2a (in-place)
I0518 02:04:57.053172  7095 net.cpp:122] Setting up bn3b1_branch2a
I0518 02:04:57.053179  7095 net.cpp:129] Top shape: 5 128 28 28 (501760)
I0518 02:04:57.053180  7095 net.cpp:137] Memory required for data: 661319700
I0518 02:04:57.053185  7095 layer_factory.hpp:77] Creating layer scale3b1_branch2a
I0518 02:04:57.053190  7095 net.cpp:84] Creating Layer scale3b1_branch2a
I0518 02:04:57.053194  7095 net.cpp:406] scale3b1_branch2a <- res3b1_branch2a
I0518 02:04:57.053198  7095 net.cpp:367] scale3b1_branch2a -> res3b1_branch2a (in-place)
I0518 02:04:57.053241  7095 layer_factory.hpp:77] Creating layer scale3b1_branch2a
I0518 02:04:57.053325  7095 net.cpp:122] Setting up scale3b1_branch2a
I0518 02:04:57.053330  7095 net.cpp:129] Top shape: 5 128 28 28 (501760)
I0518 02:04:57.053333  7095 net.cpp:137] Memory required for data: 663326740
I0518 02:04:57.053337  7095 layer_factory.hpp:77] Creating layer res3b1_branch2a_relu
I0518 02:04:57.053344  7095 net.cpp:84] Creating Layer res3b1_branch2a_relu
I0518 02:04:57.053347  7095 net.cpp:406] res3b1_branch2a_relu <- res3b1_branch2a
I0518 02:04:57.053351  7095 net.cpp:367] res3b1_branch2a_relu -> res3b1_branch2a (in-place)
I0518 02:04:57.053838  7095 net.cpp:122] Setting up res3b1_branch2a_relu
I0518 02:04:57.053844  7095 net.cpp:129] Top shape: 5 128 28 28 (501760)
I0518 02:04:57.053848  7095 net.cpp:137] Memory required for data: 665333780
I0518 02:04:57.053850  7095 layer_factory.hpp:77] Creating layer res3b1_branch2b
I0518 02:04:57.053858  7095 net.cpp:84] Creating Layer res3b1_branch2b
I0518 02:04:57.053861  7095 net.cpp:406] res3b1_branch2b <- res3b1_branch2a
I0518 02:04:57.053866  7095 net.cpp:380] res3b1_branch2b -> res3b1_branch2b
I0518 02:04:57.056834  7095 net.cpp:122] Setting up res3b1_branch2b
I0518 02:04:57.056845  7095 net.cpp:129] Top shape: 5 128 28 28 (501760)
I0518 02:04:57.056849  7095 net.cpp:137] Memory required for data: 667340820
I0518 02:04:57.056854  7095 layer_factory.hpp:77] Creating layer bn3b1_branch2b
I0518 02:04:57.056860  7095 net.cpp:84] Creating Layer bn3b1_branch2b
I0518 02:04:57.056865  7095 net.cpp:406] bn3b1_branch2b <- res3b1_branch2b
I0518 02:04:57.056870  7095 net.cpp:367] bn3b1_branch2b -> res3b1_branch2b (in-place)
I0518 02:04:57.057024  7095 net.cpp:122] Setting up bn3b1_branch2b
I0518 02:04:57.057030  7095 net.cpp:129] Top shape: 5 128 28 28 (501760)
I0518 02:04:57.057032  7095 net.cpp:137] Memory required for data: 669347860
I0518 02:04:57.057039  7095 layer_factory.hpp:77] Creating layer scale3b1_branch2b
I0518 02:04:57.057044  7095 net.cpp:84] Creating Layer scale3b1_branch2b
I0518 02:04:57.057049  7095 net.cpp:406] scale3b1_branch2b <- res3b1_branch2b
I0518 02:04:57.057052  7095 net.cpp:367] scale3b1_branch2b -> res3b1_branch2b (in-place)
I0518 02:04:57.057087  7095 layer_factory.hpp:77] Creating layer scale3b1_branch2b
I0518 02:04:57.057199  7095 net.cpp:122] Setting up scale3b1_branch2b
I0518 02:04:57.057206  7095 net.cpp:129] Top shape: 5 128 28 28 (501760)
I0518 02:04:57.057209  7095 net.cpp:137] Memory required for data: 671354900
I0518 02:04:57.057214  7095 layer_factory.hpp:77] Creating layer res3b1_branch2b_relu
I0518 02:04:57.057217  7095 net.cpp:84] Creating Layer res3b1_branch2b_relu
I0518 02:04:57.057220  7095 net.cpp:406] res3b1_branch2b_relu <- res3b1_branch2b
I0518 02:04:57.057224  7095 net.cpp:367] res3b1_branch2b_relu -> res3b1_branch2b (in-place)
I0518 02:04:57.057775  7095 net.cpp:122] Setting up res3b1_branch2b_relu
I0518 02:04:57.057783  7095 net.cpp:129] Top shape: 5 128 28 28 (501760)
I0518 02:04:57.057786  7095 net.cpp:137] Memory required for data: 673361940
I0518 02:04:57.057790  7095 layer_factory.hpp:77] Creating layer res3b1_branch2c
I0518 02:04:57.057797  7095 net.cpp:84] Creating Layer res3b1_branch2c
I0518 02:04:57.057801  7095 net.cpp:406] res3b1_branch2c <- res3b1_branch2b
I0518 02:04:57.057806  7095 net.cpp:380] res3b1_branch2c -> res3b1_branch2c
I0518 02:04:57.060099  7095 net.cpp:122] Setting up res3b1_branch2c
I0518 02:04:57.060112  7095 net.cpp:129] Top shape: 5 512 28 28 (2007040)
I0518 02:04:57.060114  7095 net.cpp:137] Memory required for data: 681390100
I0518 02:04:57.060117  7095 layer_factory.hpp:77] Creating layer bn3b1_branch2c
I0518 02:04:57.060122  7095 net.cpp:84] Creating Layer bn3b1_branch2c
I0518 02:04:57.060123  7095 net.cpp:406] bn3b1_branch2c <- res3b1_branch2c
I0518 02:04:57.060127  7095 net.cpp:367] bn3b1_branch2c -> res3b1_branch2c (in-place)
I0518 02:04:57.060269  7095 net.cpp:122] Setting up bn3b1_branch2c
I0518 02:04:57.060273  7095 net.cpp:129] Top shape: 5 512 28 28 (2007040)
I0518 02:04:57.060274  7095 net.cpp:137] Memory required for data: 689418260
I0518 02:04:57.060278  7095 layer_factory.hpp:77] Creating layer scale3b1_branch2c
I0518 02:04:57.060282  7095 net.cpp:84] Creating Layer scale3b1_branch2c
I0518 02:04:57.060284  7095 net.cpp:406] scale3b1_branch2c <- res3b1_branch2c
I0518 02:04:57.060286  7095 net.cpp:367] scale3b1_branch2c -> res3b1_branch2c (in-place)
I0518 02:04:57.060314  7095 layer_factory.hpp:77] Creating layer scale3b1_branch2c
I0518 02:04:57.060392  7095 net.cpp:122] Setting up scale3b1_branch2c
I0518 02:04:57.060396  7095 net.cpp:129] Top shape: 5 512 28 28 (2007040)
I0518 02:04:57.060397  7095 net.cpp:137] Memory required for data: 697446420
I0518 02:04:57.060400  7095 layer_factory.hpp:77] Creating layer res3b1
I0518 02:04:57.060405  7095 net.cpp:84] Creating Layer res3b1
I0518 02:04:57.060407  7095 net.cpp:406] res3b1 <- res3a_res3a_relu_0_split_1
I0518 02:04:57.060410  7095 net.cpp:406] res3b1 <- res3b1_branch2c
I0518 02:04:57.060412  7095 net.cpp:380] res3b1 -> res3b1
I0518 02:04:57.060430  7095 net.cpp:122] Setting up res3b1
I0518 02:04:57.060432  7095 net.cpp:129] Top shape: 5 512 28 28 (2007040)
I0518 02:04:57.060434  7095 net.cpp:137] Memory required for data: 705474580
I0518 02:04:57.060436  7095 layer_factory.hpp:77] Creating layer res3b1_relu
I0518 02:04:57.060438  7095 net.cpp:84] Creating Layer res3b1_relu
I0518 02:04:57.060442  7095 net.cpp:406] res3b1_relu <- res3b1
I0518 02:04:57.060446  7095 net.cpp:367] res3b1_relu -> res3b1 (in-place)
I0518 02:04:57.060904  7095 net.cpp:122] Setting up res3b1_relu
I0518 02:04:57.060909  7095 net.cpp:129] Top shape: 5 512 28 28 (2007040)
I0518 02:04:57.060911  7095 net.cpp:137] Memory required for data: 713502740
I0518 02:04:57.060914  7095 layer_factory.hpp:77] Creating layer res3b1_res3b1_relu_0_split
I0518 02:04:57.060917  7095 net.cpp:84] Creating Layer res3b1_res3b1_relu_0_split
I0518 02:04:57.060920  7095 net.cpp:406] res3b1_res3b1_relu_0_split <- res3b1
I0518 02:04:57.060922  7095 net.cpp:380] res3b1_res3b1_relu_0_split -> res3b1_res3b1_relu_0_split_0
I0518 02:04:57.060926  7095 net.cpp:380] res3b1_res3b1_relu_0_split -> res3b1_res3b1_relu_0_split_1
I0518 02:04:57.060956  7095 net.cpp:122] Setting up res3b1_res3b1_relu_0_split
I0518 02:04:57.060966  7095 net.cpp:129] Top shape: 5 512 28 28 (2007040)
I0518 02:04:57.060967  7095 net.cpp:129] Top shape: 5 512 28 28 (2007040)
I0518 02:04:57.060969  7095 net.cpp:137] Memory required for data: 729559060
I0518 02:04:57.060971  7095 layer_factory.hpp:77] Creating layer res3b2_branch2a
I0518 02:04:57.060976  7095 net.cpp:84] Creating Layer res3b2_branch2a
I0518 02:04:57.060978  7095 net.cpp:406] res3b2_branch2a <- res3b1_res3b1_relu_0_split_0
I0518 02:04:57.060982  7095 net.cpp:380] res3b2_branch2a -> res3b2_branch2a
I0518 02:04:57.062690  7095 net.cpp:122] Setting up res3b2_branch2a
I0518 02:04:57.062697  7095 net.cpp:129] Top shape: 5 128 28 28 (501760)
I0518 02:04:57.062700  7095 net.cpp:137] Memory required for data: 731566100
I0518 02:04:57.062702  7095 layer_factory.hpp:77] Creating layer bn3b2_branch2a
I0518 02:04:57.062706  7095 net.cpp:84] Creating Layer bn3b2_branch2a
I0518 02:04:57.062710  7095 net.cpp:406] bn3b2_branch2a <- res3b2_branch2a
I0518 02:04:57.062713  7095 net.cpp:367] bn3b2_branch2a -> res3b2_branch2a (in-place)
I0518 02:04:57.062860  7095 net.cpp:122] Setting up bn3b2_branch2a
I0518 02:04:57.062863  7095 net.cpp:129] Top shape: 5 128 28 28 (501760)
I0518 02:04:57.062865  7095 net.cpp:137] Memory required for data: 733573140
I0518 02:04:57.062868  7095 layer_factory.hpp:77] Creating layer scale3b2_branch2a
I0518 02:04:57.062871  7095 net.cpp:84] Creating Layer scale3b2_branch2a
I0518 02:04:57.062873  7095 net.cpp:406] scale3b2_branch2a <- res3b2_branch2a
I0518 02:04:57.062875  7095 net.cpp:367] scale3b2_branch2a -> res3b2_branch2a (in-place)
I0518 02:04:57.062904  7095 layer_factory.hpp:77] Creating layer scale3b2_branch2a
I0518 02:04:57.062983  7095 net.cpp:122] Setting up scale3b2_branch2a
I0518 02:04:57.062988  7095 net.cpp:129] Top shape: 5 128 28 28 (501760)
I0518 02:04:57.062988  7095 net.cpp:137] Memory required for data: 735580180
I0518 02:04:57.062991  7095 layer_factory.hpp:77] Creating layer res3b2_branch2a_relu
I0518 02:04:57.062995  7095 net.cpp:84] Creating Layer res3b2_branch2a_relu
I0518 02:04:57.062997  7095 net.cpp:406] res3b2_branch2a_relu <- res3b2_branch2a
I0518 02:04:57.062999  7095 net.cpp:367] res3b2_branch2a_relu -> res3b2_branch2a (in-place)
I0518 02:04:57.063345  7095 net.cpp:122] Setting up res3b2_branch2a_relu
I0518 02:04:57.063350  7095 net.cpp:129] Top shape: 5 128 28 28 (501760)
I0518 02:04:57.063351  7095 net.cpp:137] Memory required for data: 737587220
I0518 02:04:57.063354  7095 layer_factory.hpp:77] Creating layer res3b2_branch2b
I0518 02:04:57.063359  7095 net.cpp:84] Creating Layer res3b2_branch2b
I0518 02:04:57.063360  7095 net.cpp:406] res3b2_branch2b <- res3b2_branch2a
I0518 02:04:57.063364  7095 net.cpp:380] res3b2_branch2b -> res3b2_branch2b
I0518 02:04:57.065806  7095 net.cpp:122] Setting up res3b2_branch2b
I0518 02:04:57.065814  7095 net.cpp:129] Top shape: 5 128 28 28 (501760)
I0518 02:04:57.065814  7095 net.cpp:137] Memory required for data: 739594260
I0518 02:04:57.065817  7095 layer_factory.hpp:77] Creating layer bn3b2_branch2b
I0518 02:04:57.065820  7095 net.cpp:84] Creating Layer bn3b2_branch2b
I0518 02:04:57.065824  7095 net.cpp:406] bn3b2_branch2b <- res3b2_branch2b
I0518 02:04:57.065826  7095 net.cpp:367] bn3b2_branch2b -> res3b2_branch2b (in-place)
I0518 02:04:57.065975  7095 net.cpp:122] Setting up bn3b2_branch2b
I0518 02:04:57.065979  7095 net.cpp:129] Top shape: 5 128 28 28 (501760)
I0518 02:04:57.065980  7095 net.cpp:137] Memory required for data: 741601300
I0518 02:04:57.065984  7095 layer_factory.hpp:77] Creating layer scale3b2_branch2b
I0518 02:04:57.065986  7095 net.cpp:84] Creating Layer scale3b2_branch2b
I0518 02:04:57.065989  7095 net.cpp:406] scale3b2_branch2b <- res3b2_branch2b
I0518 02:04:57.065991  7095 net.cpp:367] scale3b2_branch2b -> res3b2_branch2b (in-place)
I0518 02:04:57.066018  7095 layer_factory.hpp:77] Creating layer scale3b2_branch2b
I0518 02:04:57.066098  7095 net.cpp:122] Setting up scale3b2_branch2b
I0518 02:04:57.066102  7095 net.cpp:129] Top shape: 5 128 28 28 (501760)
I0518 02:04:57.066102  7095 net.cpp:137] Memory required for data: 743608340
I0518 02:04:57.066112  7095 layer_factory.hpp:77] Creating layer res3b2_branch2b_relu
I0518 02:04:57.066117  7095 net.cpp:84] Creating Layer res3b2_branch2b_relu
I0518 02:04:57.066118  7095 net.cpp:406] res3b2_branch2b_relu <- res3b2_branch2b
I0518 02:04:57.066120  7095 net.cpp:367] res3b2_branch2b_relu -> res3b2_branch2b (in-place)
I0518 02:04:57.066468  7095 net.cpp:122] Setting up res3b2_branch2b_relu
I0518 02:04:57.066473  7095 net.cpp:129] Top shape: 5 128 28 28 (501760)
I0518 02:04:57.066473  7095 net.cpp:137] Memory required for data: 745615380
I0518 02:04:57.066475  7095 layer_factory.hpp:77] Creating layer res3b2_branch2c
I0518 02:04:57.066480  7095 net.cpp:84] Creating Layer res3b2_branch2c
I0518 02:04:57.066483  7095 net.cpp:406] res3b2_branch2c <- res3b2_branch2b
I0518 02:04:57.066486  7095 net.cpp:380] res3b2_branch2c -> res3b2_branch2c
I0518 02:04:57.068270  7095 net.cpp:122] Setting up res3b2_branch2c
I0518 02:04:57.068279  7095 net.cpp:129] Top shape: 5 512 28 28 (2007040)
I0518 02:04:57.068280  7095 net.cpp:137] Memory required for data: 753643540
I0518 02:04:57.068282  7095 layer_factory.hpp:77] Creating layer bn3b2_branch2c
I0518 02:04:57.068287  7095 net.cpp:84] Creating Layer bn3b2_branch2c
I0518 02:04:57.068289  7095 net.cpp:406] bn3b2_branch2c <- res3b2_branch2c
I0518 02:04:57.068292  7095 net.cpp:367] bn3b2_branch2c -> res3b2_branch2c (in-place)
I0518 02:04:57.068436  7095 net.cpp:122] Setting up bn3b2_branch2c
I0518 02:04:57.068440  7095 net.cpp:129] Top shape: 5 512 28 28 (2007040)
I0518 02:04:57.068442  7095 net.cpp:137] Memory required for data: 761671700
I0518 02:04:57.068445  7095 layer_factory.hpp:77] Creating layer scale3b2_branch2c
I0518 02:04:57.068449  7095 net.cpp:84] Creating Layer scale3b2_branch2c
I0518 02:04:57.068450  7095 net.cpp:406] scale3b2_branch2c <- res3b2_branch2c
I0518 02:04:57.068454  7095 net.cpp:367] scale3b2_branch2c -> res3b2_branch2c (in-place)
I0518 02:04:57.068482  7095 layer_factory.hpp:77] Creating layer scale3b2_branch2c
I0518 02:04:57.068563  7095 net.cpp:122] Setting up scale3b2_branch2c
I0518 02:04:57.068567  7095 net.cpp:129] Top shape: 5 512 28 28 (2007040)
I0518 02:04:57.068569  7095 net.cpp:137] Memory required for data: 769699860
I0518 02:04:57.068572  7095 layer_factory.hpp:77] Creating layer res3b2
I0518 02:04:57.068574  7095 net.cpp:84] Creating Layer res3b2
I0518 02:04:57.068578  7095 net.cpp:406] res3b2 <- res3b1_res3b1_relu_0_split_1
I0518 02:04:57.068580  7095 net.cpp:406] res3b2 <- res3b2_branch2c
I0518 02:04:57.068583  7095 net.cpp:380] res3b2 -> res3b2
I0518 02:04:57.068599  7095 net.cpp:122] Setting up res3b2
I0518 02:04:57.068603  7095 net.cpp:129] Top shape: 5 512 28 28 (2007040)
I0518 02:04:57.068604  7095 net.cpp:137] Memory required for data: 777728020
I0518 02:04:57.068606  7095 layer_factory.hpp:77] Creating layer res3b2_relu
I0518 02:04:57.068608  7095 net.cpp:84] Creating Layer res3b2_relu
I0518 02:04:57.068610  7095 net.cpp:406] res3b2_relu <- res3b2
I0518 02:04:57.068614  7095 net.cpp:367] res3b2_relu -> res3b2 (in-place)
I0518 02:04:57.069074  7095 net.cpp:122] Setting up res3b2_relu
I0518 02:04:57.069082  7095 net.cpp:129] Top shape: 5 512 28 28 (2007040)
I0518 02:04:57.069083  7095 net.cpp:137] Memory required for data: 785756180
I0518 02:04:57.069085  7095 layer_factory.hpp:77] Creating layer res3b2_res3b2_relu_0_split
I0518 02:04:57.069089  7095 net.cpp:84] Creating Layer res3b2_res3b2_relu_0_split
I0518 02:04:57.069092  7095 net.cpp:406] res3b2_res3b2_relu_0_split <- res3b2
I0518 02:04:57.069093  7095 net.cpp:380] res3b2_res3b2_relu_0_split -> res3b2_res3b2_relu_0_split_0
I0518 02:04:57.069098  7095 net.cpp:380] res3b2_res3b2_relu_0_split -> res3b2_res3b2_relu_0_split_1
I0518 02:04:57.069130  7095 net.cpp:122] Setting up res3b2_res3b2_relu_0_split
I0518 02:04:57.069134  7095 net.cpp:129] Top shape: 5 512 28 28 (2007040)
I0518 02:04:57.069136  7095 net.cpp:129] Top shape: 5 512 28 28 (2007040)
I0518 02:04:57.069139  7095 net.cpp:137] Memory required for data: 801812500
I0518 02:04:57.069145  7095 layer_factory.hpp:77] Creating layer res3b3_branch2a
I0518 02:04:57.069150  7095 net.cpp:84] Creating Layer res3b3_branch2a
I0518 02:04:57.069152  7095 net.cpp:406] res3b3_branch2a <- res3b2_res3b2_relu_0_split_0
I0518 02:04:57.069154  7095 net.cpp:380] res3b3_branch2a -> res3b3_branch2a
I0518 02:04:57.071491  7095 net.cpp:122] Setting up res3b3_branch2a
I0518 02:04:57.071501  7095 net.cpp:129] Top shape: 5 128 28 28 (501760)
I0518 02:04:57.071502  7095 net.cpp:137] Memory required for data: 803819540
I0518 02:04:57.071506  7095 layer_factory.hpp:77] Creating layer bn3b3_branch2a
I0518 02:04:57.071511  7095 net.cpp:84] Creating Layer bn3b3_branch2a
I0518 02:04:57.071513  7095 net.cpp:406] bn3b3_branch2a <- res3b3_branch2a
I0518 02:04:57.071516  7095 net.cpp:367] bn3b3_branch2a -> res3b3_branch2a (in-place)
I0518 02:04:57.071667  7095 net.cpp:122] Setting up bn3b3_branch2a
I0518 02:04:57.071671  7095 net.cpp:129] Top shape: 5 128 28 28 (501760)
I0518 02:04:57.071673  7095 net.cpp:137] Memory required for data: 805826580
I0518 02:04:57.071684  7095 layer_factory.hpp:77] Creating layer scale3b3_branch2a
I0518 02:04:57.071687  7095 net.cpp:84] Creating Layer scale3b3_branch2a
I0518 02:04:57.071689  7095 net.cpp:406] scale3b3_branch2a <- res3b3_branch2a
I0518 02:04:57.071692  7095 net.cpp:367] scale3b3_branch2a -> res3b3_branch2a (in-place)
I0518 02:04:57.071724  7095 layer_factory.hpp:77] Creating layer scale3b3_branch2a
I0518 02:04:57.071807  7095 net.cpp:122] Setting up scale3b3_branch2a
I0518 02:04:57.071811  7095 net.cpp:129] Top shape: 5 128 28 28 (501760)
I0518 02:04:57.071813  7095 net.cpp:137] Memory required for data: 807833620
I0518 02:04:57.071816  7095 layer_factory.hpp:77] Creating layer res3b3_branch2a_relu
I0518 02:04:57.071820  7095 net.cpp:84] Creating Layer res3b3_branch2a_relu
I0518 02:04:57.071821  7095 net.cpp:406] res3b3_branch2a_relu <- res3b3_branch2a
I0518 02:04:57.071825  7095 net.cpp:367] res3b3_branch2a_relu -> res3b3_branch2a (in-place)
I0518 02:04:57.072178  7095 net.cpp:122] Setting up res3b3_branch2a_relu
I0518 02:04:57.072183  7095 net.cpp:129] Top shape: 5 128 28 28 (501760)
I0518 02:04:57.072185  7095 net.cpp:137] Memory required for data: 809840660
I0518 02:04:57.072187  7095 layer_factory.hpp:77] Creating layer res3b3_branch2b
I0518 02:04:57.072192  7095 net.cpp:84] Creating Layer res3b3_branch2b
I0518 02:04:57.072196  7095 net.cpp:406] res3b3_branch2b <- res3b3_branch2a
I0518 02:04:57.072198  7095 net.cpp:380] res3b3_branch2b -> res3b3_branch2b
I0518 02:04:57.074582  7095 net.cpp:122] Setting up res3b3_branch2b
I0518 02:04:57.074591  7095 net.cpp:129] Top shape: 5 128 28 28 (501760)
I0518 02:04:57.074594  7095 net.cpp:137] Memory required for data: 811847700
I0518 02:04:57.074596  7095 layer_factory.hpp:77] Creating layer bn3b3_branch2b
I0518 02:04:57.074601  7095 net.cpp:84] Creating Layer bn3b3_branch2b
I0518 02:04:57.074604  7095 net.cpp:406] bn3b3_branch2b <- res3b3_branch2b
I0518 02:04:57.074606  7095 net.cpp:367] bn3b3_branch2b -> res3b3_branch2b (in-place)
I0518 02:04:57.074764  7095 net.cpp:122] Setting up bn3b3_branch2b
I0518 02:04:57.074767  7095 net.cpp:129] Top shape: 5 128 28 28 (501760)
I0518 02:04:57.074769  7095 net.cpp:137] Memory required for data: 813854740
I0518 02:04:57.074772  7095 layer_factory.hpp:77] Creating layer scale3b3_branch2b
I0518 02:04:57.074775  7095 net.cpp:84] Creating Layer scale3b3_branch2b
I0518 02:04:57.074777  7095 net.cpp:406] scale3b3_branch2b <- res3b3_branch2b
I0518 02:04:57.074779  7095 net.cpp:367] scale3b3_branch2b -> res3b3_branch2b (in-place)
I0518 02:04:57.074812  7095 layer_factory.hpp:77] Creating layer scale3b3_branch2b
I0518 02:04:57.074903  7095 net.cpp:122] Setting up scale3b3_branch2b
I0518 02:04:57.074908  7095 net.cpp:129] Top shape: 5 128 28 28 (501760)
I0518 02:04:57.074909  7095 net.cpp:137] Memory required for data: 815861780
I0518 02:04:57.074913  7095 layer_factory.hpp:77] Creating layer res3b3_branch2b_relu
I0518 02:04:57.074915  7095 net.cpp:84] Creating Layer res3b3_branch2b_relu
I0518 02:04:57.074918  7095 net.cpp:406] res3b3_branch2b_relu <- res3b3_branch2b
I0518 02:04:57.074928  7095 net.cpp:367] res3b3_branch2b_relu -> res3b3_branch2b (in-place)
I0518 02:04:57.075397  7095 net.cpp:122] Setting up res3b3_branch2b_relu
I0518 02:04:57.075403  7095 net.cpp:129] Top shape: 5 128 28 28 (501760)
I0518 02:04:57.075405  7095 net.cpp:137] Memory required for data: 817868820
I0518 02:04:57.075407  7095 layer_factory.hpp:77] Creating layer res3b3_branch2c
I0518 02:04:57.075412  7095 net.cpp:84] Creating Layer res3b3_branch2c
I0518 02:04:57.075414  7095 net.cpp:406] res3b3_branch2c <- res3b3_branch2b
I0518 02:04:57.075417  7095 net.cpp:380] res3b3_branch2c -> res3b3_branch2c
I0518 02:04:57.077174  7095 net.cpp:122] Setting up res3b3_branch2c
I0518 02:04:57.077181  7095 net.cpp:129] Top shape: 5 512 28 28 (2007040)
I0518 02:04:57.077183  7095 net.cpp:137] Memory required for data: 825896980
I0518 02:04:57.077186  7095 layer_factory.hpp:77] Creating layer bn3b3_branch2c
I0518 02:04:57.077190  7095 net.cpp:84] Creating Layer bn3b3_branch2c
I0518 02:04:57.077193  7095 net.cpp:406] bn3b3_branch2c <- res3b3_branch2c
I0518 02:04:57.077195  7095 net.cpp:367] bn3b3_branch2c -> res3b3_branch2c (in-place)
I0518 02:04:57.077350  7095 net.cpp:122] Setting up bn3b3_branch2c
I0518 02:04:57.077354  7095 net.cpp:129] Top shape: 5 512 28 28 (2007040)
I0518 02:04:57.077356  7095 net.cpp:137] Memory required for data: 833925140
I0518 02:04:57.077359  7095 layer_factory.hpp:77] Creating layer scale3b3_branch2c
I0518 02:04:57.077363  7095 net.cpp:84] Creating Layer scale3b3_branch2c
I0518 02:04:57.077365  7095 net.cpp:406] scale3b3_branch2c <- res3b3_branch2c
I0518 02:04:57.077368  7095 net.cpp:367] scale3b3_branch2c -> res3b3_branch2c (in-place)
I0518 02:04:57.077399  7095 layer_factory.hpp:77] Creating layer scale3b3_branch2c
I0518 02:04:57.077487  7095 net.cpp:122] Setting up scale3b3_branch2c
I0518 02:04:57.077491  7095 net.cpp:129] Top shape: 5 512 28 28 (2007040)
I0518 02:04:57.077493  7095 net.cpp:137] Memory required for data: 841953300
I0518 02:04:57.077495  7095 layer_factory.hpp:77] Creating layer res3b3
I0518 02:04:57.077499  7095 net.cpp:84] Creating Layer res3b3
I0518 02:04:57.077502  7095 net.cpp:406] res3b3 <- res3b2_res3b2_relu_0_split_1
I0518 02:04:57.077503  7095 net.cpp:406] res3b3 <- res3b3_branch2c
I0518 02:04:57.077508  7095 net.cpp:380] res3b3 -> res3b3
I0518 02:04:57.077527  7095 net.cpp:122] Setting up res3b3
I0518 02:04:57.077530  7095 net.cpp:129] Top shape: 5 512 28 28 (2007040)
I0518 02:04:57.077533  7095 net.cpp:137] Memory required for data: 849981460
I0518 02:04:57.077535  7095 layer_factory.hpp:77] Creating layer res3b3_relu
I0518 02:04:57.077539  7095 net.cpp:84] Creating Layer res3b3_relu
I0518 02:04:57.077544  7095 net.cpp:406] res3b3_relu <- res3b3
I0518 02:04:57.077548  7095 net.cpp:367] res3b3_relu -> res3b3 (in-place)
I0518 02:04:57.077903  7095 net.cpp:122] Setting up res3b3_relu
I0518 02:04:57.077908  7095 net.cpp:129] Top shape: 5 512 28 28 (2007040)
I0518 02:04:57.077909  7095 net.cpp:137] Memory required for data: 858009620
I0518 02:04:57.077911  7095 layer_factory.hpp:77] Creating layer res3b3_res3b3_relu_0_split
I0518 02:04:57.077914  7095 net.cpp:84] Creating Layer res3b3_res3b3_relu_0_split
I0518 02:04:57.077916  7095 net.cpp:406] res3b3_res3b3_relu_0_split <- res3b3
I0518 02:04:57.077920  7095 net.cpp:380] res3b3_res3b3_relu_0_split -> res3b3_res3b3_relu_0_split_0
I0518 02:04:57.077924  7095 net.cpp:380] res3b3_res3b3_relu_0_split -> res3b3_res3b3_relu_0_split_1
I0518 02:04:57.077958  7095 net.cpp:122] Setting up res3b3_res3b3_relu_0_split
I0518 02:04:57.077962  7095 net.cpp:129] Top shape: 5 512 28 28 (2007040)
I0518 02:04:57.077965  7095 net.cpp:129] Top shape: 5 512 28 28 (2007040)
I0518 02:04:57.077966  7095 net.cpp:137] Memory required for data: 874065940
I0518 02:04:57.077968  7095 layer_factory.hpp:77] Creating layer res3b4_branch2a
I0518 02:04:57.077972  7095 net.cpp:84] Creating Layer res3b4_branch2a
I0518 02:04:57.077975  7095 net.cpp:406] res3b4_branch2a <- res3b3_res3b3_relu_0_split_0
I0518 02:04:57.077982  7095 net.cpp:380] res3b4_branch2a -> res3b4_branch2a
I0518 02:04:57.079816  7095 net.cpp:122] Setting up res3b4_branch2a
I0518 02:04:57.079823  7095 net.cpp:129] Top shape: 5 128 28 28 (501760)
I0518 02:04:57.079825  7095 net.cpp:137] Memory required for data: 876072980
I0518 02:04:57.079828  7095 layer_factory.hpp:77] Creating layer bn3b4_branch2a
I0518 02:04:57.079833  7095 net.cpp:84] Creating Layer bn3b4_branch2a
I0518 02:04:57.079834  7095 net.cpp:406] bn3b4_branch2a <- res3b4_branch2a
I0518 02:04:57.079838  7095 net.cpp:367] bn3b4_branch2a -> res3b4_branch2a (in-place)
I0518 02:04:57.079993  7095 net.cpp:122] Setting up bn3b4_branch2a
I0518 02:04:57.079996  7095 net.cpp:129] Top shape: 5 128 28 28 (501760)
I0518 02:04:57.079998  7095 net.cpp:137] Memory required for data: 878080020
I0518 02:04:57.080003  7095 layer_factory.hpp:77] Creating layer scale3b4_branch2a
I0518 02:04:57.080005  7095 net.cpp:84] Creating Layer scale3b4_branch2a
I0518 02:04:57.080008  7095 net.cpp:406] scale3b4_branch2a <- res3b4_branch2a
I0518 02:04:57.080009  7095 net.cpp:367] scale3b4_branch2a -> res3b4_branch2a (in-place)
I0518 02:04:57.080042  7095 layer_factory.hpp:77] Creating layer scale3b4_branch2a
I0518 02:04:57.080135  7095 net.cpp:122] Setting up scale3b4_branch2a
I0518 02:04:57.080140  7095 net.cpp:129] Top shape: 5 128 28 28 (501760)
I0518 02:04:57.080142  7095 net.cpp:137] Memory required for data: 880087060
I0518 02:04:57.080144  7095 layer_factory.hpp:77] Creating layer res3b4_branch2a_relu
I0518 02:04:57.080148  7095 net.cpp:84] Creating Layer res3b4_branch2a_relu
I0518 02:04:57.080150  7095 net.cpp:406] res3b4_branch2a_relu <- res3b4_branch2a
I0518 02:04:57.080153  7095 net.cpp:367] res3b4_branch2a_relu -> res3b4_branch2a (in-place)
I0518 02:04:57.080508  7095 net.cpp:122] Setting up res3b4_branch2a_relu
I0518 02:04:57.080513  7095 net.cpp:129] Top shape: 5 128 28 28 (501760)
I0518 02:04:57.080515  7095 net.cpp:137] Memory required for data: 882094100
I0518 02:04:57.080518  7095 layer_factory.hpp:77] Creating layer res3b4_branch2b
I0518 02:04:57.080523  7095 net.cpp:84] Creating Layer res3b4_branch2b
I0518 02:04:57.080524  7095 net.cpp:406] res3b4_branch2b <- res3b4_branch2a
I0518 02:04:57.080528  7095 net.cpp:380] res3b4_branch2b -> res3b4_branch2b
I0518 02:04:57.083539  7095 net.cpp:122] Setting up res3b4_branch2b
I0518 02:04:57.083546  7095 net.cpp:129] Top shape: 5 128 28 28 (501760)
I0518 02:04:57.083549  7095 net.cpp:137] Memory required for data: 884101140
I0518 02:04:57.083551  7095 layer_factory.hpp:77] Creating layer bn3b4_branch2b
I0518 02:04:57.083555  7095 net.cpp:84] Creating Layer bn3b4_branch2b
I0518 02:04:57.083559  7095 net.cpp:406] bn3b4_branch2b <- res3b4_branch2b
I0518 02:04:57.083561  7095 net.cpp:367] bn3b4_branch2b -> res3b4_branch2b (in-place)
I0518 02:04:57.083724  7095 net.cpp:122] Setting up bn3b4_branch2b
I0518 02:04:57.083729  7095 net.cpp:129] Top shape: 5 128 28 28 (501760)
I0518 02:04:57.083730  7095 net.cpp:137] Memory required for data: 886108180
I0518 02:04:57.083734  7095 layer_factory.hpp:77] Creating layer scale3b4_branch2b
I0518 02:04:57.083737  7095 net.cpp:84] Creating Layer scale3b4_branch2b
I0518 02:04:57.083739  7095 net.cpp:406] scale3b4_branch2b <- res3b4_branch2b
I0518 02:04:57.083742  7095 net.cpp:367] scale3b4_branch2b -> res3b4_branch2b (in-place)
I0518 02:04:57.083775  7095 layer_factory.hpp:77] Creating layer scale3b4_branch2b
I0518 02:04:57.083865  7095 net.cpp:122] Setting up scale3b4_branch2b
I0518 02:04:57.083869  7095 net.cpp:129] Top shape: 5 128 28 28 (501760)
I0518 02:04:57.083871  7095 net.cpp:137] Memory required for data: 888115220
I0518 02:04:57.083874  7095 layer_factory.hpp:77] Creating layer res3b4_branch2b_relu
I0518 02:04:57.083878  7095 net.cpp:84] Creating Layer res3b4_branch2b_relu
I0518 02:04:57.083879  7095 net.cpp:406] res3b4_branch2b_relu <- res3b4_branch2b
I0518 02:04:57.083881  7095 net.cpp:367] res3b4_branch2b_relu -> res3b4_branch2b (in-place)
I0518 02:04:57.084236  7095 net.cpp:122] Setting up res3b4_branch2b_relu
I0518 02:04:57.084249  7095 net.cpp:129] Top shape: 5 128 28 28 (501760)
I0518 02:04:57.084250  7095 net.cpp:137] Memory required for data: 890122260
I0518 02:04:57.084252  7095 layer_factory.hpp:77] Creating layer res3b4_branch2c
I0518 02:04:57.084257  7095 net.cpp:84] Creating Layer res3b4_branch2c
I0518 02:04:57.084259  7095 net.cpp:406] res3b4_branch2c <- res3b4_branch2b
I0518 02:04:57.084262  7095 net.cpp:380] res3b4_branch2c -> res3b4_branch2c
I0518 02:04:57.086323  7095 net.cpp:122] Setting up res3b4_branch2c
I0518 02:04:57.086331  7095 net.cpp:129] Top shape: 5 512 28 28 (2007040)
I0518 02:04:57.086333  7095 net.cpp:137] Memory required for data: 898150420
I0518 02:04:57.086336  7095 layer_factory.hpp:77] Creating layer bn3b4_branch2c
I0518 02:04:57.086340  7095 net.cpp:84] Creating Layer bn3b4_branch2c
I0518 02:04:57.086344  7095 net.cpp:406] bn3b4_branch2c <- res3b4_branch2c
I0518 02:04:57.086346  7095 net.cpp:367] bn3b4_branch2c -> res3b4_branch2c (in-place)
I0518 02:04:57.086506  7095 net.cpp:122] Setting up bn3b4_branch2c
I0518 02:04:57.086511  7095 net.cpp:129] Top shape: 5 512 28 28 (2007040)
I0518 02:04:57.086513  7095 net.cpp:137] Memory required for data: 906178580
I0518 02:04:57.086516  7095 layer_factory.hpp:77] Creating layer scale3b4_branch2c
I0518 02:04:57.086520  7095 net.cpp:84] Creating Layer scale3b4_branch2c
I0518 02:04:57.086522  7095 net.cpp:406] scale3b4_branch2c <- res3b4_branch2c
I0518 02:04:57.086525  7095 net.cpp:367] scale3b4_branch2c -> res3b4_branch2c (in-place)
I0518 02:04:57.086556  7095 layer_factory.hpp:77] Creating layer scale3b4_branch2c
I0518 02:04:57.086645  7095 net.cpp:122] Setting up scale3b4_branch2c
I0518 02:04:57.086649  7095 net.cpp:129] Top shape: 5 512 28 28 (2007040)
I0518 02:04:57.086652  7095 net.cpp:137] Memory required for data: 914206740
I0518 02:04:57.086654  7095 layer_factory.hpp:77] Creating layer res3b4
I0518 02:04:57.086658  7095 net.cpp:84] Creating Layer res3b4
I0518 02:04:57.086660  7095 net.cpp:406] res3b4 <- res3b3_res3b3_relu_0_split_1
I0518 02:04:57.086663  7095 net.cpp:406] res3b4 <- res3b4_branch2c
I0518 02:04:57.086665  7095 net.cpp:380] res3b4 -> res3b4
I0518 02:04:57.086684  7095 net.cpp:122] Setting up res3b4
I0518 02:04:57.086689  7095 net.cpp:129] Top shape: 5 512 28 28 (2007040)
I0518 02:04:57.086691  7095 net.cpp:137] Memory required for data: 922234900
I0518 02:04:57.086694  7095 layer_factory.hpp:77] Creating layer res3b4_relu
I0518 02:04:57.086699  7095 net.cpp:84] Creating Layer res3b4_relu
I0518 02:04:57.086701  7095 net.cpp:406] res3b4_relu <- res3b4
I0518 02:04:57.086706  7095 net.cpp:367] res3b4_relu -> res3b4 (in-place)
I0518 02:04:57.087071  7095 net.cpp:122] Setting up res3b4_relu
I0518 02:04:57.087077  7095 net.cpp:129] Top shape: 5 512 28 28 (2007040)
I0518 02:04:57.087080  7095 net.cpp:137] Memory required for data: 930263060
I0518 02:04:57.087081  7095 layer_factory.hpp:77] Creating layer res3b4_res3b4_relu_0_split
I0518 02:04:57.087085  7095 net.cpp:84] Creating Layer res3b4_res3b4_relu_0_split
I0518 02:04:57.087088  7095 net.cpp:406] res3b4_res3b4_relu_0_split <- res3b4
I0518 02:04:57.087090  7095 net.cpp:380] res3b4_res3b4_relu_0_split -> res3b4_res3b4_relu_0_split_0
I0518 02:04:57.087095  7095 net.cpp:380] res3b4_res3b4_relu_0_split -> res3b4_res3b4_relu_0_split_1
I0518 02:04:57.087129  7095 net.cpp:122] Setting up res3b4_res3b4_relu_0_split
I0518 02:04:57.087133  7095 net.cpp:129] Top shape: 5 512 28 28 (2007040)
I0518 02:04:57.087136  7095 net.cpp:129] Top shape: 5 512 28 28 (2007040)
I0518 02:04:57.087137  7095 net.cpp:137] Memory required for data: 946319380
I0518 02:04:57.087139  7095 layer_factory.hpp:77] Creating layer res3b5_branch2a
I0518 02:04:57.087144  7095 net.cpp:84] Creating Layer res3b5_branch2a
I0518 02:04:57.087146  7095 net.cpp:406] res3b5_branch2a <- res3b4_res3b4_relu_0_split_0
I0518 02:04:57.087149  7095 net.cpp:380] res3b5_branch2a -> res3b5_branch2a
I0518 02:04:57.089021  7095 net.cpp:122] Setting up res3b5_branch2a
I0518 02:04:57.089028  7095 net.cpp:129] Top shape: 5 128 28 28 (501760)
I0518 02:04:57.089036  7095 net.cpp:137] Memory required for data: 948326420
I0518 02:04:57.089040  7095 layer_factory.hpp:77] Creating layer bn3b5_branch2a
I0518 02:04:57.089043  7095 net.cpp:84] Creating Layer bn3b5_branch2a
I0518 02:04:57.089046  7095 net.cpp:406] bn3b5_branch2a <- res3b5_branch2a
I0518 02:04:57.089048  7095 net.cpp:367] bn3b5_branch2a -> res3b5_branch2a (in-place)
I0518 02:04:57.089203  7095 net.cpp:122] Setting up bn3b5_branch2a
I0518 02:04:57.089207  7095 net.cpp:129] Top shape: 5 128 28 28 (501760)
I0518 02:04:57.089210  7095 net.cpp:137] Memory required for data: 950333460
I0518 02:04:57.089213  7095 layer_factory.hpp:77] Creating layer scale3b5_branch2a
I0518 02:04:57.089216  7095 net.cpp:84] Creating Layer scale3b5_branch2a
I0518 02:04:57.089218  7095 net.cpp:406] scale3b5_branch2a <- res3b5_branch2a
I0518 02:04:57.089222  7095 net.cpp:367] scale3b5_branch2a -> res3b5_branch2a (in-place)
I0518 02:04:57.089249  7095 layer_factory.hpp:77] Creating layer scale3b5_branch2a
I0518 02:04:57.089337  7095 net.cpp:122] Setting up scale3b5_branch2a
I0518 02:04:57.089340  7095 net.cpp:129] Top shape: 5 128 28 28 (501760)
I0518 02:04:57.089342  7095 net.cpp:137] Memory required for data: 952340500
I0518 02:04:57.089345  7095 layer_factory.hpp:77] Creating layer res3b5_branch2a_relu
I0518 02:04:57.089351  7095 net.cpp:84] Creating Layer res3b5_branch2a_relu
I0518 02:04:57.089354  7095 net.cpp:406] res3b5_branch2a_relu <- res3b5_branch2a
I0518 02:04:57.089356  7095 net.cpp:367] res3b5_branch2a_relu -> res3b5_branch2a (in-place)
I0518 02:04:57.089823  7095 net.cpp:122] Setting up res3b5_branch2a_relu
I0518 02:04:57.089829  7095 net.cpp:129] Top shape: 5 128 28 28 (501760)
I0518 02:04:57.089831  7095 net.cpp:137] Memory required for data: 954347540
I0518 02:04:57.089833  7095 layer_factory.hpp:77] Creating layer res3b5_branch2b
I0518 02:04:57.089838  7095 net.cpp:84] Creating Layer res3b5_branch2b
I0518 02:04:57.089840  7095 net.cpp:406] res3b5_branch2b <- res3b5_branch2a
I0518 02:04:57.089843  7095 net.cpp:380] res3b5_branch2b -> res3b5_branch2b
I0518 02:04:57.092200  7095 net.cpp:122] Setting up res3b5_branch2b
I0518 02:04:57.092206  7095 net.cpp:129] Top shape: 5 128 28 28 (501760)
I0518 02:04:57.092208  7095 net.cpp:137] Memory required for data: 956354580
I0518 02:04:57.092211  7095 layer_factory.hpp:77] Creating layer bn3b5_branch2b
I0518 02:04:57.092216  7095 net.cpp:84] Creating Layer bn3b5_branch2b
I0518 02:04:57.092218  7095 net.cpp:406] bn3b5_branch2b <- res3b5_branch2b
I0518 02:04:57.092222  7095 net.cpp:367] bn3b5_branch2b -> res3b5_branch2b (in-place)
I0518 02:04:57.092382  7095 net.cpp:122] Setting up bn3b5_branch2b
I0518 02:04:57.092386  7095 net.cpp:129] Top shape: 5 128 28 28 (501760)
I0518 02:04:57.092387  7095 net.cpp:137] Memory required for data: 958361620
I0518 02:04:57.092391  7095 layer_factory.hpp:77] Creating layer scale3b5_branch2b
I0518 02:04:57.092396  7095 net.cpp:84] Creating Layer scale3b5_branch2b
I0518 02:04:57.092397  7095 net.cpp:406] scale3b5_branch2b <- res3b5_branch2b
I0518 02:04:57.092399  7095 net.cpp:367] scale3b5_branch2b -> res3b5_branch2b (in-place)
I0518 02:04:57.092428  7095 layer_factory.hpp:77] Creating layer scale3b5_branch2b
I0518 02:04:57.092515  7095 net.cpp:122] Setting up scale3b5_branch2b
I0518 02:04:57.092519  7095 net.cpp:129] Top shape: 5 128 28 28 (501760)
I0518 02:04:57.092521  7095 net.cpp:137] Memory required for data: 960368660
I0518 02:04:57.092525  7095 layer_factory.hpp:77] Creating layer res3b5_branch2b_relu
I0518 02:04:57.092528  7095 net.cpp:84] Creating Layer res3b5_branch2b_relu
I0518 02:04:57.092530  7095 net.cpp:406] res3b5_branch2b_relu <- res3b5_branch2b
I0518 02:04:57.092532  7095 net.cpp:367] res3b5_branch2b_relu -> res3b5_branch2b (in-place)
I0518 02:04:57.092888  7095 net.cpp:122] Setting up res3b5_branch2b_relu
I0518 02:04:57.092895  7095 net.cpp:129] Top shape: 5 128 28 28 (501760)
I0518 02:04:57.092896  7095 net.cpp:137] Memory required for data: 962375700
I0518 02:04:57.092898  7095 layer_factory.hpp:77] Creating layer res3b5_branch2c
I0518 02:04:57.092908  7095 net.cpp:84] Creating Layer res3b5_branch2c
I0518 02:04:57.092911  7095 net.cpp:406] res3b5_branch2c <- res3b5_branch2b
I0518 02:04:57.092914  7095 net.cpp:380] res3b5_branch2c -> res3b5_branch2c
I0518 02:04:57.094677  7095 net.cpp:122] Setting up res3b5_branch2c
I0518 02:04:57.094684  7095 net.cpp:129] Top shape: 5 512 28 28 (2007040)
I0518 02:04:57.094686  7095 net.cpp:137] Memory required for data: 970403860
I0518 02:04:57.094689  7095 layer_factory.hpp:77] Creating layer bn3b5_branch2c
I0518 02:04:57.094693  7095 net.cpp:84] Creating Layer bn3b5_branch2c
I0518 02:04:57.094696  7095 net.cpp:406] bn3b5_branch2c <- res3b5_branch2c
I0518 02:04:57.094698  7095 net.cpp:367] bn3b5_branch2c -> res3b5_branch2c (in-place)
I0518 02:04:57.094862  7095 net.cpp:122] Setting up bn3b5_branch2c
I0518 02:04:57.094866  7095 net.cpp:129] Top shape: 5 512 28 28 (2007040)
I0518 02:04:57.094868  7095 net.cpp:137] Memory required for data: 978432020
I0518 02:04:57.094872  7095 layer_factory.hpp:77] Creating layer scale3b5_branch2c
I0518 02:04:57.094875  7095 net.cpp:84] Creating Layer scale3b5_branch2c
I0518 02:04:57.094877  7095 net.cpp:406] scale3b5_branch2c <- res3b5_branch2c
I0518 02:04:57.094879  7095 net.cpp:367] scale3b5_branch2c -> res3b5_branch2c (in-place)
I0518 02:04:57.094911  7095 layer_factory.hpp:77] Creating layer scale3b5_branch2c
I0518 02:04:57.095000  7095 net.cpp:122] Setting up scale3b5_branch2c
I0518 02:04:57.095005  7095 net.cpp:129] Top shape: 5 512 28 28 (2007040)
I0518 02:04:57.095007  7095 net.cpp:137] Memory required for data: 986460180
I0518 02:04:57.095010  7095 layer_factory.hpp:77] Creating layer res3b5
I0518 02:04:57.095012  7095 net.cpp:84] Creating Layer res3b5
I0518 02:04:57.095016  7095 net.cpp:406] res3b5 <- res3b4_res3b4_relu_0_split_1
I0518 02:04:57.095017  7095 net.cpp:406] res3b5 <- res3b5_branch2c
I0518 02:04:57.095021  7095 net.cpp:380] res3b5 -> res3b5
I0518 02:04:57.095038  7095 net.cpp:122] Setting up res3b5
I0518 02:04:57.095042  7095 net.cpp:129] Top shape: 5 512 28 28 (2007040)
I0518 02:04:57.095047  7095 net.cpp:137] Memory required for data: 994488340
I0518 02:04:57.095049  7095 layer_factory.hpp:77] Creating layer res3b5_relu
I0518 02:04:57.095054  7095 net.cpp:84] Creating Layer res3b5_relu
I0518 02:04:57.095057  7095 net.cpp:406] res3b5_relu <- res3b5
I0518 02:04:57.095062  7095 net.cpp:367] res3b5_relu -> res3b5 (in-place)
I0518 02:04:57.095538  7095 net.cpp:122] Setting up res3b5_relu
I0518 02:04:57.095544  7095 net.cpp:129] Top shape: 5 512 28 28 (2007040)
I0518 02:04:57.095546  7095 net.cpp:137] Memory required for data: 1002516500
I0518 02:04:57.095548  7095 layer_factory.hpp:77] Creating layer res3b5_res3b5_relu_0_split
I0518 02:04:57.095552  7095 net.cpp:84] Creating Layer res3b5_res3b5_relu_0_split
I0518 02:04:57.095554  7095 net.cpp:406] res3b5_res3b5_relu_0_split <- res3b5
I0518 02:04:57.095557  7095 net.cpp:380] res3b5_res3b5_relu_0_split -> res3b5_res3b5_relu_0_split_0
I0518 02:04:57.095562  7095 net.cpp:380] res3b5_res3b5_relu_0_split -> res3b5_res3b5_relu_0_split_1
I0518 02:04:57.095597  7095 net.cpp:122] Setting up res3b5_res3b5_relu_0_split
I0518 02:04:57.095602  7095 net.cpp:129] Top shape: 5 512 28 28 (2007040)
I0518 02:04:57.095603  7095 net.cpp:129] Top shape: 5 512 28 28 (2007040)
I0518 02:04:57.095605  7095 net.cpp:137] Memory required for data: 1018572820
I0518 02:04:57.095607  7095 layer_factory.hpp:77] Creating layer res3b6_branch2a
I0518 02:04:57.095612  7095 net.cpp:84] Creating Layer res3b6_branch2a
I0518 02:04:57.095614  7095 net.cpp:406] res3b6_branch2a <- res3b5_res3b5_relu_0_split_0
I0518 02:04:57.095618  7095 net.cpp:380] res3b6_branch2a -> res3b6_branch2a
I0518 02:04:57.097416  7095 net.cpp:122] Setting up res3b6_branch2a
I0518 02:04:57.097424  7095 net.cpp:129] Top shape: 5 128 28 28 (501760)
I0518 02:04:57.097425  7095 net.cpp:137] Memory required for data: 1020579860
I0518 02:04:57.097429  7095 layer_factory.hpp:77] Creating layer bn3b6_branch2a
I0518 02:04:57.097434  7095 net.cpp:84] Creating Layer bn3b6_branch2a
I0518 02:04:57.097440  7095 net.cpp:406] bn3b6_branch2a <- res3b6_branch2a
I0518 02:04:57.097443  7095 net.cpp:367] bn3b6_branch2a -> res3b6_branch2a (in-place)
I0518 02:04:57.097607  7095 net.cpp:122] Setting up bn3b6_branch2a
I0518 02:04:57.097611  7095 net.cpp:129] Top shape: 5 128 28 28 (501760)
I0518 02:04:57.097614  7095 net.cpp:137] Memory required for data: 1022586900
I0518 02:04:57.097617  7095 layer_factory.hpp:77] Creating layer scale3b6_branch2a
I0518 02:04:57.097620  7095 net.cpp:84] Creating Layer scale3b6_branch2a
I0518 02:04:57.097622  7095 net.cpp:406] scale3b6_branch2a <- res3b6_branch2a
I0518 02:04:57.097625  7095 net.cpp:367] scale3b6_branch2a -> res3b6_branch2a (in-place)
I0518 02:04:57.097658  7095 layer_factory.hpp:77] Creating layer scale3b6_branch2a
I0518 02:04:57.097748  7095 net.cpp:122] Setting up scale3b6_branch2a
I0518 02:04:57.097753  7095 net.cpp:129] Top shape: 5 128 28 28 (501760)
I0518 02:04:57.097754  7095 net.cpp:137] Memory required for data: 1024593940
I0518 02:04:57.097757  7095 layer_factory.hpp:77] Creating layer res3b6_branch2a_relu
I0518 02:04:57.097761  7095 net.cpp:84] Creating Layer res3b6_branch2a_relu
I0518 02:04:57.097764  7095 net.cpp:406] res3b6_branch2a_relu <- res3b6_branch2a
I0518 02:04:57.097765  7095 net.cpp:367] res3b6_branch2a_relu -> res3b6_branch2a (in-place)
I0518 02:04:57.098124  7095 net.cpp:122] Setting up res3b6_branch2a_relu
I0518 02:04:57.098129  7095 net.cpp:129] Top shape: 5 128 28 28 (501760)
I0518 02:04:57.098131  7095 net.cpp:137] Memory required for data: 1026600980
I0518 02:04:57.098134  7095 layer_factory.hpp:77] Creating layer res3b6_branch2b
I0518 02:04:57.098139  7095 net.cpp:84] Creating Layer res3b6_branch2b
I0518 02:04:57.098140  7095 net.cpp:406] res3b6_branch2b <- res3b6_branch2a
I0518 02:04:57.098143  7095 net.cpp:380] res3b6_branch2b -> res3b6_branch2b
I0518 02:04:57.100670  7095 net.cpp:122] Setting up res3b6_branch2b
I0518 02:04:57.100679  7095 net.cpp:129] Top shape: 5 128 28 28 (501760)
I0518 02:04:57.100682  7095 net.cpp:137] Memory required for data: 1028608020
I0518 02:04:57.100684  7095 layer_factory.hpp:77] Creating layer bn3b6_branch2b
I0518 02:04:57.100689  7095 net.cpp:84] Creating Layer bn3b6_branch2b
I0518 02:04:57.100693  7095 net.cpp:406] bn3b6_branch2b <- res3b6_branch2b
I0518 02:04:57.100697  7095 net.cpp:367] bn3b6_branch2b -> res3b6_branch2b (in-place)
I0518 02:04:57.100865  7095 net.cpp:122] Setting up bn3b6_branch2b
I0518 02:04:57.100869  7095 net.cpp:129] Top shape: 5 128 28 28 (501760)
I0518 02:04:57.100872  7095 net.cpp:137] Memory required for data: 1030615060
I0518 02:04:57.100875  7095 layer_factory.hpp:77] Creating layer scale3b6_branch2b
I0518 02:04:57.100883  7095 net.cpp:84] Creating Layer scale3b6_branch2b
I0518 02:04:57.100885  7095 net.cpp:406] scale3b6_branch2b <- res3b6_branch2b
I0518 02:04:57.100889  7095 net.cpp:367] scale3b6_branch2b -> res3b6_branch2b (in-place)
I0518 02:04:57.100925  7095 layer_factory.hpp:77] Creating layer scale3b6_branch2b
I0518 02:04:57.101017  7095 net.cpp:122] Setting up scale3b6_branch2b
I0518 02:04:57.101022  7095 net.cpp:129] Top shape: 5 128 28 28 (501760)
I0518 02:04:57.101022  7095 net.cpp:137] Memory required for data: 1032622100
I0518 02:04:57.101027  7095 layer_factory.hpp:77] Creating layer res3b6_branch2b_relu
I0518 02:04:57.101032  7095 net.cpp:84] Creating Layer res3b6_branch2b_relu
I0518 02:04:57.101035  7095 net.cpp:406] res3b6_branch2b_relu <- res3b6_branch2b
I0518 02:04:57.101038  7095 net.cpp:367] res3b6_branch2b_relu -> res3b6_branch2b (in-place)
I0518 02:04:57.101610  7095 net.cpp:122] Setting up res3b6_branch2b_relu
I0518 02:04:57.101616  7095 net.cpp:129] Top shape: 5 128 28 28 (501760)
I0518 02:04:57.101619  7095 net.cpp:137] Memory required for data: 1034629140
I0518 02:04:57.101620  7095 layer_factory.hpp:77] Creating layer res3b6_branch2c
I0518 02:04:57.101626  7095 net.cpp:84] Creating Layer res3b6_branch2c
I0518 02:04:57.101629  7095 net.cpp:406] res3b6_branch2c <- res3b6_branch2b
I0518 02:04:57.101632  7095 net.cpp:380] res3b6_branch2c -> res3b6_branch2c
I0518 02:04:57.103446  7095 net.cpp:122] Setting up res3b6_branch2c
I0518 02:04:57.103454  7095 net.cpp:129] Top shape: 5 512 28 28 (2007040)
I0518 02:04:57.103456  7095 net.cpp:137] Memory required for data: 1042657300
I0518 02:04:57.103459  7095 layer_factory.hpp:77] Creating layer bn3b6_branch2c
I0518 02:04:57.103463  7095 net.cpp:84] Creating Layer bn3b6_branch2c
I0518 02:04:57.103466  7095 net.cpp:406] bn3b6_branch2c <- res3b6_branch2c
I0518 02:04:57.103468  7095 net.cpp:367] bn3b6_branch2c -> res3b6_branch2c (in-place)
I0518 02:04:57.103631  7095 net.cpp:122] Setting up bn3b6_branch2c
I0518 02:04:57.103636  7095 net.cpp:129] Top shape: 5 512 28 28 (2007040)
I0518 02:04:57.103637  7095 net.cpp:137] Memory required for data: 1050685460
I0518 02:04:57.103641  7095 layer_factory.hpp:77] Creating layer scale3b6_branch2c
I0518 02:04:57.103643  7095 net.cpp:84] Creating Layer scale3b6_branch2c
I0518 02:04:57.103646  7095 net.cpp:406] scale3b6_branch2c <- res3b6_branch2c
I0518 02:04:57.103648  7095 net.cpp:367] scale3b6_branch2c -> res3b6_branch2c (in-place)
I0518 02:04:57.103679  7095 layer_factory.hpp:77] Creating layer scale3b6_branch2c
I0518 02:04:57.103765  7095 net.cpp:122] Setting up scale3b6_branch2c
I0518 02:04:57.103770  7095 net.cpp:129] Top shape: 5 512 28 28 (2007040)
I0518 02:04:57.103771  7095 net.cpp:137] Memory required for data: 1058713620
I0518 02:04:57.103775  7095 layer_factory.hpp:77] Creating layer res3b6
I0518 02:04:57.103777  7095 net.cpp:84] Creating Layer res3b6
I0518 02:04:57.103780  7095 net.cpp:406] res3b6 <- res3b5_res3b5_relu_0_split_1
I0518 02:04:57.103781  7095 net.cpp:406] res3b6 <- res3b6_branch2c
I0518 02:04:57.103783  7095 net.cpp:380] res3b6 -> res3b6
I0518 02:04:57.103801  7095 net.cpp:122] Setting up res3b6
I0518 02:04:57.103804  7095 net.cpp:129] Top shape: 5 512 28 28 (2007040)
I0518 02:04:57.103806  7095 net.cpp:137] Memory required for data: 1066741780
I0518 02:04:57.103807  7095 layer_factory.hpp:77] Creating layer res3b6_relu
I0518 02:04:57.103811  7095 net.cpp:84] Creating Layer res3b6_relu
I0518 02:04:57.103816  7095 net.cpp:406] res3b6_relu <- res3b6
I0518 02:04:57.103817  7095 net.cpp:367] res3b6_relu -> res3b6 (in-place)
I0518 02:04:57.104285  7095 net.cpp:122] Setting up res3b6_relu
I0518 02:04:57.104292  7095 net.cpp:129] Top shape: 5 512 28 28 (2007040)
I0518 02:04:57.104295  7095 net.cpp:137] Memory required for data: 1074769940
I0518 02:04:57.104296  7095 layer_factory.hpp:77] Creating layer res3b6_res3b6_relu_0_split
I0518 02:04:57.104300  7095 net.cpp:84] Creating Layer res3b6_res3b6_relu_0_split
I0518 02:04:57.104302  7095 net.cpp:406] res3b6_res3b6_relu_0_split <- res3b6
I0518 02:04:57.104305  7095 net.cpp:380] res3b6_res3b6_relu_0_split -> res3b6_res3b6_relu_0_split_0
I0518 02:04:57.104310  7095 net.cpp:380] res3b6_res3b6_relu_0_split -> res3b6_res3b6_relu_0_split_1
I0518 02:04:57.104342  7095 net.cpp:122] Setting up res3b6_res3b6_relu_0_split
I0518 02:04:57.104347  7095 net.cpp:129] Top shape: 5 512 28 28 (2007040)
I0518 02:04:57.104349  7095 net.cpp:129] Top shape: 5 512 28 28 (2007040)
I0518 02:04:57.104351  7095 net.cpp:137] Memory required for data: 1090826260
I0518 02:04:57.104352  7095 layer_factory.hpp:77] Creating layer res3b7_branch2a
I0518 02:04:57.104357  7095 net.cpp:84] Creating Layer res3b7_branch2a
I0518 02:04:57.104358  7095 net.cpp:406] res3b7_branch2a <- res3b6_res3b6_relu_0_split_0
I0518 02:04:57.104363  7095 net.cpp:380] res3b7_branch2a -> res3b7_branch2a
I0518 02:04:57.107497  7095 net.cpp:122] Setting up res3b7_branch2a
I0518 02:04:57.107509  7095 net.cpp:129] Top shape: 5 128 28 28 (501760)
I0518 02:04:57.107511  7095 net.cpp:137] Memory required for data: 1092833300
I0518 02:04:57.107515  7095 layer_factory.hpp:77] Creating layer bn3b7_branch2a
I0518 02:04:57.107520  7095 net.cpp:84] Creating Layer bn3b7_branch2a
I0518 02:04:57.107522  7095 net.cpp:406] bn3b7_branch2a <- res3b7_branch2a
I0518 02:04:57.107527  7095 net.cpp:367] bn3b7_branch2a -> res3b7_branch2a (in-place)
I0518 02:04:57.107693  7095 net.cpp:122] Setting up bn3b7_branch2a
I0518 02:04:57.107703  7095 net.cpp:129] Top shape: 5 128 28 28 (501760)
I0518 02:04:57.107705  7095 net.cpp:137] Memory required for data: 1094840340
I0518 02:04:57.107709  7095 layer_factory.hpp:77] Creating layer scale3b7_branch2a
I0518 02:04:57.107714  7095 net.cpp:84] Creating Layer scale3b7_branch2a
I0518 02:04:57.107717  7095 net.cpp:406] scale3b7_branch2a <- res3b7_branch2a
I0518 02:04:57.107719  7095 net.cpp:367] scale3b7_branch2a -> res3b7_branch2a (in-place)
I0518 02:04:57.107751  7095 layer_factory.hpp:77] Creating layer scale3b7_branch2a
I0518 02:04:57.107841  7095 net.cpp:122] Setting up scale3b7_branch2a
I0518 02:04:57.107844  7095 net.cpp:129] Top shape: 5 128 28 28 (501760)
I0518 02:04:57.107846  7095 net.cpp:137] Memory required for data: 1096847380
I0518 02:04:57.107849  7095 layer_factory.hpp:77] Creating layer res3b7_branch2a_relu
I0518 02:04:57.107852  7095 net.cpp:84] Creating Layer res3b7_branch2a_relu
I0518 02:04:57.107854  7095 net.cpp:406] res3b7_branch2a_relu <- res3b7_branch2a
I0518 02:04:57.107857  7095 net.cpp:367] res3b7_branch2a_relu -> res3b7_branch2a (in-place)
I0518 02:04:57.108219  7095 net.cpp:122] Setting up res3b7_branch2a_relu
I0518 02:04:57.108224  7095 net.cpp:129] Top shape: 5 128 28 28 (501760)
I0518 02:04:57.108227  7095 net.cpp:137] Memory required for data: 1098854420
I0518 02:04:57.108228  7095 layer_factory.hpp:77] Creating layer res3b7_branch2b
I0518 02:04:57.108233  7095 net.cpp:84] Creating Layer res3b7_branch2b
I0518 02:04:57.108235  7095 net.cpp:406] res3b7_branch2b <- res3b7_branch2a
I0518 02:04:57.108239  7095 net.cpp:380] res3b7_branch2b -> res3b7_branch2b
I0518 02:04:57.111203  7095 net.cpp:122] Setting up res3b7_branch2b
I0518 02:04:57.111212  7095 net.cpp:129] Top shape: 5 128 28 28 (501760)
I0518 02:04:57.111213  7095 net.cpp:137] Memory required for data: 1100861460
I0518 02:04:57.111217  7095 layer_factory.hpp:77] Creating layer bn3b7_branch2b
I0518 02:04:57.111222  7095 net.cpp:84] Creating Layer bn3b7_branch2b
I0518 02:04:57.111225  7095 net.cpp:406] bn3b7_branch2b <- res3b7_branch2b
I0518 02:04:57.111228  7095 net.cpp:367] bn3b7_branch2b -> res3b7_branch2b (in-place)
I0518 02:04:57.111397  7095 net.cpp:122] Setting up bn3b7_branch2b
I0518 02:04:57.111400  7095 net.cpp:129] Top shape: 5 128 28 28 (501760)
I0518 02:04:57.111402  7095 net.cpp:137] Memory required for data: 1102868500
I0518 02:04:57.111405  7095 layer_factory.hpp:77] Creating layer scale3b7_branch2b
I0518 02:04:57.111409  7095 net.cpp:84] Creating Layer scale3b7_branch2b
I0518 02:04:57.111412  7095 net.cpp:406] scale3b7_branch2b <- res3b7_branch2b
I0518 02:04:57.111414  7095 net.cpp:367] scale3b7_branch2b -> res3b7_branch2b (in-place)
I0518 02:04:57.111449  7095 layer_factory.hpp:77] Creating layer scale3b7_branch2b
I0518 02:04:57.111544  7095 net.cpp:122] Setting up scale3b7_branch2b
I0518 02:04:57.111548  7095 net.cpp:129] Top shape: 5 128 28 28 (501760)
I0518 02:04:57.111551  7095 net.cpp:137] Memory required for data: 1104875540
I0518 02:04:57.111552  7095 layer_factory.hpp:77] Creating layer res3b7_branch2b_relu
I0518 02:04:57.111555  7095 net.cpp:84] Creating Layer res3b7_branch2b_relu
I0518 02:04:57.111557  7095 net.cpp:406] res3b7_branch2b_relu <- res3b7_branch2b
I0518 02:04:57.111559  7095 net.cpp:367] res3b7_branch2b_relu -> res3b7_branch2b (in-place)
I0518 02:04:57.112025  7095 net.cpp:122] Setting up res3b7_branch2b_relu
I0518 02:04:57.112032  7095 net.cpp:129] Top shape: 5 128 28 28 (501760)
I0518 02:04:57.112035  7095 net.cpp:137] Memory required for data: 1106882580
I0518 02:04:57.112036  7095 layer_factory.hpp:77] Creating layer res3b7_branch2c
I0518 02:04:57.112041  7095 net.cpp:84] Creating Layer res3b7_branch2c
I0518 02:04:57.112043  7095 net.cpp:406] res3b7_branch2c <- res3b7_branch2b
I0518 02:04:57.112046  7095 net.cpp:380] res3b7_branch2c -> res3b7_branch2c
I0518 02:04:57.113855  7095 net.cpp:122] Setting up res3b7_branch2c
I0518 02:04:57.113863  7095 net.cpp:129] Top shape: 5 512 28 28 (2007040)
I0518 02:04:57.113864  7095 net.cpp:137] Memory required for data: 1114910740
I0518 02:04:57.113873  7095 layer_factory.hpp:77] Creating layer bn3b7_branch2c
I0518 02:04:57.113878  7095 net.cpp:84] Creating Layer bn3b7_branch2c
I0518 02:04:57.113880  7095 net.cpp:406] bn3b7_branch2c <- res3b7_branch2c
I0518 02:04:57.113883  7095 net.cpp:367] bn3b7_branch2c -> res3b7_branch2c (in-place)
I0518 02:04:57.114048  7095 net.cpp:122] Setting up bn3b7_branch2c
I0518 02:04:57.114053  7095 net.cpp:129] Top shape: 5 512 28 28 (2007040)
I0518 02:04:57.114054  7095 net.cpp:137] Memory required for data: 1122938900
I0518 02:04:57.114058  7095 layer_factory.hpp:77] Creating layer scale3b7_branch2c
I0518 02:04:57.114063  7095 net.cpp:84] Creating Layer scale3b7_branch2c
I0518 02:04:57.114064  7095 net.cpp:406] scale3b7_branch2c <- res3b7_branch2c
I0518 02:04:57.114066  7095 net.cpp:367] scale3b7_branch2c -> res3b7_branch2c (in-place)
I0518 02:04:57.114099  7095 layer_factory.hpp:77] Creating layer scale3b7_branch2c
I0518 02:04:57.114192  7095 net.cpp:122] Setting up scale3b7_branch2c
I0518 02:04:57.114195  7095 net.cpp:129] Top shape: 5 512 28 28 (2007040)
I0518 02:04:57.114197  7095 net.cpp:137] Memory required for data: 1130967060
I0518 02:04:57.114199  7095 layer_factory.hpp:77] Creating layer res3b7
I0518 02:04:57.114203  7095 net.cpp:84] Creating Layer res3b7
I0518 02:04:57.114205  7095 net.cpp:406] res3b7 <- res3b6_res3b6_relu_0_split_1
I0518 02:04:57.114208  7095 net.cpp:406] res3b7 <- res3b7_branch2c
I0518 02:04:57.114212  7095 net.cpp:380] res3b7 -> res3b7
I0518 02:04:57.114231  7095 net.cpp:122] Setting up res3b7
I0518 02:04:57.114235  7095 net.cpp:129] Top shape: 5 512 28 28 (2007040)
I0518 02:04:57.114238  7095 net.cpp:137] Memory required for data: 1138995220
I0518 02:04:57.114240  7095 layer_factory.hpp:77] Creating layer res3b7_relu
I0518 02:04:57.114245  7095 net.cpp:84] Creating Layer res3b7_relu
I0518 02:04:57.114249  7095 net.cpp:406] res3b7_relu <- res3b7
I0518 02:04:57.114251  7095 net.cpp:367] res3b7_relu -> res3b7 (in-place)
I0518 02:04:57.114614  7095 net.cpp:122] Setting up res3b7_relu
I0518 02:04:57.114620  7095 net.cpp:129] Top shape: 5 512 28 28 (2007040)
I0518 02:04:57.114622  7095 net.cpp:137] Memory required for data: 1147023380
I0518 02:04:57.114624  7095 layer_factory.hpp:77] Creating layer res3b7_res3b7_relu_0_split
I0518 02:04:57.114629  7095 net.cpp:84] Creating Layer res3b7_res3b7_relu_0_split
I0518 02:04:57.114630  7095 net.cpp:406] res3b7_res3b7_relu_0_split <- res3b7
I0518 02:04:57.114634  7095 net.cpp:380] res3b7_res3b7_relu_0_split -> res3b7_res3b7_relu_0_split_0
I0518 02:04:57.114639  7095 net.cpp:380] res3b7_res3b7_relu_0_split -> res3b7_res3b7_relu_0_split_1
I0518 02:04:57.114673  7095 net.cpp:122] Setting up res3b7_res3b7_relu_0_split
I0518 02:04:57.114677  7095 net.cpp:129] Top shape: 5 512 28 28 (2007040)
I0518 02:04:57.114679  7095 net.cpp:129] Top shape: 5 512 28 28 (2007040)
I0518 02:04:57.114681  7095 net.cpp:137] Memory required for data: 1163079700
I0518 02:04:57.114683  7095 layer_factory.hpp:77] Creating layer res4a_branch1
I0518 02:04:57.114687  7095 net.cpp:84] Creating Layer res4a_branch1
I0518 02:04:57.114691  7095 net.cpp:406] res4a_branch1 <- res3b7_res3b7_relu_0_split_0
I0518 02:04:57.114694  7095 net.cpp:380] res4a_branch1 -> res4a_branch1
I0518 02:04:57.119989  7095 net.cpp:122] Setting up res4a_branch1
I0518 02:04:57.119999  7095 net.cpp:129] Top shape: 5 1024 14 14 (1003520)
I0518 02:04:57.120002  7095 net.cpp:137] Memory required for data: 1167093780
I0518 02:04:57.120005  7095 layer_factory.hpp:77] Creating layer bn4a_branch1
I0518 02:04:57.120010  7095 net.cpp:84] Creating Layer bn4a_branch1
I0518 02:04:57.120013  7095 net.cpp:406] bn4a_branch1 <- res4a_branch1
I0518 02:04:57.120016  7095 net.cpp:367] bn4a_branch1 -> res4a_branch1 (in-place)
I0518 02:04:57.120216  7095 net.cpp:122] Setting up bn4a_branch1
I0518 02:04:57.120221  7095 net.cpp:129] Top shape: 5 1024 14 14 (1003520)
I0518 02:04:57.120223  7095 net.cpp:137] Memory required for data: 1171107860
I0518 02:04:57.120227  7095 layer_factory.hpp:77] Creating layer scale4a_branch1
I0518 02:04:57.120236  7095 net.cpp:84] Creating Layer scale4a_branch1
I0518 02:04:57.120239  7095 net.cpp:406] scale4a_branch1 <- res4a_branch1
I0518 02:04:57.120240  7095 net.cpp:367] scale4a_branch1 -> res4a_branch1 (in-place)
I0518 02:04:57.120276  7095 layer_factory.hpp:77] Creating layer scale4a_branch1
I0518 02:04:57.120375  7095 net.cpp:122] Setting up scale4a_branch1
I0518 02:04:57.120379  7095 net.cpp:129] Top shape: 5 1024 14 14 (1003520)
I0518 02:04:57.120380  7095 net.cpp:137] Memory required for data: 1175121940
I0518 02:04:57.120383  7095 layer_factory.hpp:77] Creating layer res4a_branch2a
I0518 02:04:57.120388  7095 net.cpp:84] Creating Layer res4a_branch2a
I0518 02:04:57.120390  7095 net.cpp:406] res4a_branch2a <- res3b7_res3b7_relu_0_split_1
I0518 02:04:57.120393  7095 net.cpp:380] res4a_branch2a -> res4a_branch2a
I0518 02:04:57.122586  7095 net.cpp:122] Setting up res4a_branch2a
I0518 02:04:57.122593  7095 net.cpp:129] Top shape: 5 256 14 14 (250880)
I0518 02:04:57.122596  7095 net.cpp:137] Memory required for data: 1176125460
I0518 02:04:57.122598  7095 layer_factory.hpp:77] Creating layer bn4a_branch2a
I0518 02:04:57.122602  7095 net.cpp:84] Creating Layer bn4a_branch2a
I0518 02:04:57.122606  7095 net.cpp:406] bn4a_branch2a <- res4a_branch2a
I0518 02:04:57.122607  7095 net.cpp:367] bn4a_branch2a -> res4a_branch2a (in-place)
I0518 02:04:57.122776  7095 net.cpp:122] Setting up bn4a_branch2a
I0518 02:04:57.122781  7095 net.cpp:129] Top shape: 5 256 14 14 (250880)
I0518 02:04:57.122782  7095 net.cpp:137] Memory required for data: 1177128980
I0518 02:04:57.122786  7095 layer_factory.hpp:77] Creating layer scale4a_branch2a
I0518 02:04:57.122789  7095 net.cpp:84] Creating Layer scale4a_branch2a
I0518 02:04:57.122792  7095 net.cpp:406] scale4a_branch2a <- res4a_branch2a
I0518 02:04:57.122794  7095 net.cpp:367] scale4a_branch2a -> res4a_branch2a (in-place)
I0518 02:04:57.122824  7095 layer_factory.hpp:77] Creating layer scale4a_branch2a
I0518 02:04:57.122913  7095 net.cpp:122] Setting up scale4a_branch2a
I0518 02:04:57.122916  7095 net.cpp:129] Top shape: 5 256 14 14 (250880)
I0518 02:04:57.122918  7095 net.cpp:137] Memory required for data: 1178132500
I0518 02:04:57.122921  7095 layer_factory.hpp:77] Creating layer res4a_branch2a_relu
I0518 02:04:57.122925  7095 net.cpp:84] Creating Layer res4a_branch2a_relu
I0518 02:04:57.122926  7095 net.cpp:406] res4a_branch2a_relu <- res4a_branch2a
I0518 02:04:57.122930  7095 net.cpp:367] res4a_branch2a_relu -> res4a_branch2a (in-place)
I0518 02:04:57.123402  7095 net.cpp:122] Setting up res4a_branch2a_relu
I0518 02:04:57.123409  7095 net.cpp:129] Top shape: 5 256 14 14 (250880)
I0518 02:04:57.123410  7095 net.cpp:137] Memory required for data: 1179136020
I0518 02:04:57.123412  7095 layer_factory.hpp:77] Creating layer res4a_branch2b
I0518 02:04:57.123416  7095 net.cpp:84] Creating Layer res4a_branch2b
I0518 02:04:57.123420  7095 net.cpp:406] res4a_branch2b <- res4a_branch2a
I0518 02:04:57.123421  7095 net.cpp:380] res4a_branch2b -> res4a_branch2b
I0518 02:04:57.129169  7095 net.cpp:122] Setting up res4a_branch2b
I0518 02:04:57.129179  7095 net.cpp:129] Top shape: 5 256 14 14 (250880)
I0518 02:04:57.129180  7095 net.cpp:137] Memory required for data: 1180139540
I0518 02:04:57.129184  7095 layer_factory.hpp:77] Creating layer bn4a_branch2b
I0518 02:04:57.129189  7095 net.cpp:84] Creating Layer bn4a_branch2b
I0518 02:04:57.129190  7095 net.cpp:406] bn4a_branch2b <- res4a_branch2b
I0518 02:04:57.129194  7095 net.cpp:367] bn4a_branch2b -> res4a_branch2b (in-place)
I0518 02:04:57.129364  7095 net.cpp:122] Setting up bn4a_branch2b
I0518 02:04:57.129367  7095 net.cpp:129] Top shape: 5 256 14 14 (250880)
I0518 02:04:57.129369  7095 net.cpp:137] Memory required for data: 1181143060
I0518 02:04:57.129372  7095 layer_factory.hpp:77] Creating layer scale4a_branch2b
I0518 02:04:57.129375  7095 net.cpp:84] Creating Layer scale4a_branch2b
I0518 02:04:57.129377  7095 net.cpp:406] scale4a_branch2b <- res4a_branch2b
I0518 02:04:57.129380  7095 net.cpp:367] scale4a_branch2b -> res4a_branch2b (in-place)
I0518 02:04:57.129420  7095 layer_factory.hpp:77] Creating layer scale4a_branch2b
I0518 02:04:57.129511  7095 net.cpp:122] Setting up scale4a_branch2b
I0518 02:04:57.129515  7095 net.cpp:129] Top shape: 5 256 14 14 (250880)
I0518 02:04:57.129518  7095 net.cpp:137] Memory required for data: 1182146580
I0518 02:04:57.129520  7095 layer_factory.hpp:77] Creating layer res4a_branch2b_relu
I0518 02:04:57.129523  7095 net.cpp:84] Creating Layer res4a_branch2b_relu
I0518 02:04:57.129524  7095 net.cpp:406] res4a_branch2b_relu <- res4a_branch2b
I0518 02:04:57.129528  7095 net.cpp:367] res4a_branch2b_relu -> res4a_branch2b (in-place)
I0518 02:04:57.129992  7095 net.cpp:122] Setting up res4a_branch2b_relu
I0518 02:04:57.129999  7095 net.cpp:129] Top shape: 5 256 14 14 (250880)
I0518 02:04:57.130002  7095 net.cpp:137] Memory required for data: 1183150100
I0518 02:04:57.130003  7095 layer_factory.hpp:77] Creating layer res4a_branch2c
I0518 02:04:57.130008  7095 net.cpp:84] Creating Layer res4a_branch2c
I0518 02:04:57.130012  7095 net.cpp:406] res4a_branch2c <- res4a_branch2b
I0518 02:04:57.130014  7095 net.cpp:380] res4a_branch2c -> res4a_branch2c
I0518 02:04:57.133684  7095 net.cpp:122] Setting up res4a_branch2c
I0518 02:04:57.133695  7095 net.cpp:129] Top shape: 5 1024 14 14 (1003520)
I0518 02:04:57.133697  7095 net.cpp:137] Memory required for data: 1187164180
I0518 02:04:57.133702  7095 layer_factory.hpp:77] Creating layer bn4a_branch2c
I0518 02:04:57.133708  7095 net.cpp:84] Creating Layer bn4a_branch2c
I0518 02:04:57.133710  7095 net.cpp:406] bn4a_branch2c <- res4a_branch2c
I0518 02:04:57.133714  7095 net.cpp:367] bn4a_branch2c -> res4a_branch2c (in-place)
I0518 02:04:57.133885  7095 net.cpp:122] Setting up bn4a_branch2c
I0518 02:04:57.133890  7095 net.cpp:129] Top shape: 5 1024 14 14 (1003520)
I0518 02:04:57.133891  7095 net.cpp:137] Memory required for data: 1191178260
I0518 02:04:57.133895  7095 layer_factory.hpp:77] Creating layer scale4a_branch2c
I0518 02:04:57.133900  7095 net.cpp:84] Creating Layer scale4a_branch2c
I0518 02:04:57.133903  7095 net.cpp:406] scale4a_branch2c <- res4a_branch2c
I0518 02:04:57.133905  7095 net.cpp:367] scale4a_branch2c -> res4a_branch2c (in-place)
I0518 02:04:57.133936  7095 layer_factory.hpp:77] Creating layer scale4a_branch2c
I0518 02:04:57.134033  7095 net.cpp:122] Setting up scale4a_branch2c
I0518 02:04:57.134037  7095 net.cpp:129] Top shape: 5 1024 14 14 (1003520)
I0518 02:04:57.134039  7095 net.cpp:137] Memory required for data: 1195192340
I0518 02:04:57.134042  7095 layer_factory.hpp:77] Creating layer res4a
I0518 02:04:57.134047  7095 net.cpp:84] Creating Layer res4a
I0518 02:04:57.134048  7095 net.cpp:406] res4a <- res4a_branch1
I0518 02:04:57.134050  7095 net.cpp:406] res4a <- res4a_branch2c
I0518 02:04:57.134053  7095 net.cpp:380] res4a -> res4a
I0518 02:04:57.134071  7095 net.cpp:122] Setting up res4a
I0518 02:04:57.134074  7095 net.cpp:129] Top shape: 5 1024 14 14 (1003520)
I0518 02:04:57.134078  7095 net.cpp:137] Memory required for data: 1199206420
I0518 02:04:57.134079  7095 layer_factory.hpp:77] Creating layer res4a_relu
I0518 02:04:57.134083  7095 net.cpp:84] Creating Layer res4a_relu
I0518 02:04:57.134085  7095 net.cpp:406] res4a_relu <- res4a
I0518 02:04:57.134088  7095 net.cpp:367] res4a_relu -> res4a (in-place)
I0518 02:04:57.134450  7095 net.cpp:122] Setting up res4a_relu
I0518 02:04:57.134455  7095 net.cpp:129] Top shape: 5 1024 14 14 (1003520)
I0518 02:04:57.134457  7095 net.cpp:137] Memory required for data: 1203220500
I0518 02:04:57.134459  7095 layer_factory.hpp:77] Creating layer res4a_res4a_relu_0_split
I0518 02:04:57.134462  7095 net.cpp:84] Creating Layer res4a_res4a_relu_0_split
I0518 02:04:57.134464  7095 net.cpp:406] res4a_res4a_relu_0_split <- res4a
I0518 02:04:57.134469  7095 net.cpp:380] res4a_res4a_relu_0_split -> res4a_res4a_relu_0_split_0
I0518 02:04:57.134472  7095 net.cpp:380] res4a_res4a_relu_0_split -> res4a_res4a_relu_0_split_1
I0518 02:04:57.134506  7095 net.cpp:122] Setting up res4a_res4a_relu_0_split
I0518 02:04:57.134510  7095 net.cpp:129] Top shape: 5 1024 14 14 (1003520)
I0518 02:04:57.134519  7095 net.cpp:129] Top shape: 5 1024 14 14 (1003520)
I0518 02:04:57.134521  7095 net.cpp:137] Memory required for data: 1211248660
I0518 02:04:57.134522  7095 layer_factory.hpp:77] Creating layer res4b1_branch2a
I0518 02:04:57.134528  7095 net.cpp:84] Creating Layer res4b1_branch2a
I0518 02:04:57.134531  7095 net.cpp:406] res4b1_branch2a <- res4a_res4a_relu_0_split_0
I0518 02:04:57.134533  7095 net.cpp:380] res4b1_branch2a -> res4b1_branch2a
I0518 02:04:57.137755  7095 net.cpp:122] Setting up res4b1_branch2a
I0518 02:04:57.137763  7095 net.cpp:129] Top shape: 5 256 14 14 (250880)
I0518 02:04:57.137765  7095 net.cpp:137] Memory required for data: 1212252180
I0518 02:04:57.137768  7095 layer_factory.hpp:77] Creating layer bn4b1_branch2a
I0518 02:04:57.137773  7095 net.cpp:84] Creating Layer bn4b1_branch2a
I0518 02:04:57.137775  7095 net.cpp:406] bn4b1_branch2a <- res4b1_branch2a
I0518 02:04:57.137778  7095 net.cpp:367] bn4b1_branch2a -> res4b1_branch2a (in-place)
I0518 02:04:57.137948  7095 net.cpp:122] Setting up bn4b1_branch2a
I0518 02:04:57.137951  7095 net.cpp:129] Top shape: 5 256 14 14 (250880)
I0518 02:04:57.137953  7095 net.cpp:137] Memory required for data: 1213255700
I0518 02:04:57.137956  7095 layer_factory.hpp:77] Creating layer scale4b1_branch2a
I0518 02:04:57.137959  7095 net.cpp:84] Creating Layer scale4b1_branch2a
I0518 02:04:57.137961  7095 net.cpp:406] scale4b1_branch2a <- res4b1_branch2a
I0518 02:04:57.137964  7095 net.cpp:367] scale4b1_branch2a -> res4b1_branch2a (in-place)
I0518 02:04:57.137995  7095 layer_factory.hpp:77] Creating layer scale4b1_branch2a
I0518 02:04:57.138088  7095 net.cpp:122] Setting up scale4b1_branch2a
I0518 02:04:57.138092  7095 net.cpp:129] Top shape: 5 256 14 14 (250880)
I0518 02:04:57.138093  7095 net.cpp:137] Memory required for data: 1214259220
I0518 02:04:57.138097  7095 layer_factory.hpp:77] Creating layer res4b1_branch2a_relu
I0518 02:04:57.138100  7095 net.cpp:84] Creating Layer res4b1_branch2a_relu
I0518 02:04:57.138103  7095 net.cpp:406] res4b1_branch2a_relu <- res4b1_branch2a
I0518 02:04:57.138104  7095 net.cpp:367] res4b1_branch2a_relu -> res4b1_branch2a (in-place)
I0518 02:04:57.138465  7095 net.cpp:122] Setting up res4b1_branch2a_relu
I0518 02:04:57.138470  7095 net.cpp:129] Top shape: 5 256 14 14 (250880)
I0518 02:04:57.138473  7095 net.cpp:137] Memory required for data: 1215262740
I0518 02:04:57.138474  7095 layer_factory.hpp:77] Creating layer res4b1_branch2b
I0518 02:04:57.138478  7095 net.cpp:84] Creating Layer res4b1_branch2b
I0518 02:04:57.138481  7095 net.cpp:406] res4b1_branch2b <- res4b1_branch2a
I0518 02:04:57.138484  7095 net.cpp:380] res4b1_branch2b -> res4b1_branch2b
I0518 02:04:57.145356  7095 net.cpp:122] Setting up res4b1_branch2b
I0518 02:04:57.145370  7095 net.cpp:129] Top shape: 5 256 14 14 (250880)
I0518 02:04:57.145372  7095 net.cpp:137] Memory required for data: 1216266260
I0518 02:04:57.145377  7095 layer_factory.hpp:77] Creating layer bn4b1_branch2b
I0518 02:04:57.145382  7095 net.cpp:84] Creating Layer bn4b1_branch2b
I0518 02:04:57.145386  7095 net.cpp:406] bn4b1_branch2b <- res4b1_branch2b
I0518 02:04:57.145390  7095 net.cpp:367] bn4b1_branch2b -> res4b1_branch2b (in-place)
I0518 02:04:57.145565  7095 net.cpp:122] Setting up bn4b1_branch2b
I0518 02:04:57.145570  7095 net.cpp:129] Top shape: 5 256 14 14 (250880)
I0518 02:04:57.145571  7095 net.cpp:137] Memory required for data: 1217269780
I0518 02:04:57.145576  7095 layer_factory.hpp:77] Creating layer scale4b1_branch2b
I0518 02:04:57.145579  7095 net.cpp:84] Creating Layer scale4b1_branch2b
I0518 02:04:57.145581  7095 net.cpp:406] scale4b1_branch2b <- res4b1_branch2b
I0518 02:04:57.145584  7095 net.cpp:367] scale4b1_branch2b -> res4b1_branch2b (in-place)
I0518 02:04:57.145619  7095 layer_factory.hpp:77] Creating layer scale4b1_branch2b
I0518 02:04:57.145715  7095 net.cpp:122] Setting up scale4b1_branch2b
I0518 02:04:57.145720  7095 net.cpp:129] Top shape: 5 256 14 14 (250880)
I0518 02:04:57.145721  7095 net.cpp:137] Memory required for data: 1218273300
I0518 02:04:57.145730  7095 layer_factory.hpp:77] Creating layer res4b1_branch2b_relu
I0518 02:04:57.145735  7095 net.cpp:84] Creating Layer res4b1_branch2b_relu
I0518 02:04:57.145737  7095 net.cpp:406] res4b1_branch2b_relu <- res4b1_branch2b
I0518 02:04:57.145740  7095 net.cpp:367] res4b1_branch2b_relu -> res4b1_branch2b (in-place)
I0518 02:04:57.146221  7095 net.cpp:122] Setting up res4b1_branch2b_relu
I0518 02:04:57.146229  7095 net.cpp:129] Top shape: 5 256 14 14 (250880)
I0518 02:04:57.146230  7095 net.cpp:137] Memory required for data: 1219276820
I0518 02:04:57.146232  7095 layer_factory.hpp:77] Creating layer res4b1_branch2c
I0518 02:04:57.146237  7095 net.cpp:84] Creating Layer res4b1_branch2c
I0518 02:04:57.146239  7095 net.cpp:406] res4b1_branch2c <- res4b1_branch2b
I0518 02:04:57.146242  7095 net.cpp:380] res4b1_branch2c -> res4b1_branch2c
I0518 02:04:57.149955  7095 net.cpp:122] Setting up res4b1_branch2c
I0518 02:04:57.149966  7095 net.cpp:129] Top shape: 5 1024 14 14 (1003520)
I0518 02:04:57.149967  7095 net.cpp:137] Memory required for data: 1223290900
I0518 02:04:57.149971  7095 layer_factory.hpp:77] Creating layer bn4b1_branch2c
I0518 02:04:57.149976  7095 net.cpp:84] Creating Layer bn4b1_branch2c
I0518 02:04:57.149977  7095 net.cpp:406] bn4b1_branch2c <- res4b1_branch2c
I0518 02:04:57.149981  7095 net.cpp:367] bn4b1_branch2c -> res4b1_branch2c (in-place)
I0518 02:04:57.150163  7095 net.cpp:122] Setting up bn4b1_branch2c
I0518 02:04:57.150167  7095 net.cpp:129] Top shape: 5 1024 14 14 (1003520)
I0518 02:04:57.150169  7095 net.cpp:137] Memory required for data: 1227304980
I0518 02:04:57.150173  7095 layer_factory.hpp:77] Creating layer scale4b1_branch2c
I0518 02:04:57.150177  7095 net.cpp:84] Creating Layer scale4b1_branch2c
I0518 02:04:57.150178  7095 net.cpp:406] scale4b1_branch2c <- res4b1_branch2c
I0518 02:04:57.150180  7095 net.cpp:367] scale4b1_branch2c -> res4b1_branch2c (in-place)
I0518 02:04:57.150213  7095 layer_factory.hpp:77] Creating layer scale4b1_branch2c
I0518 02:04:57.150308  7095 net.cpp:122] Setting up scale4b1_branch2c
I0518 02:04:57.150312  7095 net.cpp:129] Top shape: 5 1024 14 14 (1003520)
I0518 02:04:57.150315  7095 net.cpp:137] Memory required for data: 1231319060
I0518 02:04:57.150326  7095 layer_factory.hpp:77] Creating layer res4b1
I0518 02:04:57.150331  7095 net.cpp:84] Creating Layer res4b1
I0518 02:04:57.150332  7095 net.cpp:406] res4b1 <- res4a_res4a_relu_0_split_1
I0518 02:04:57.150334  7095 net.cpp:406] res4b1 <- res4b1_branch2c
I0518 02:04:57.150337  7095 net.cpp:380] res4b1 -> res4b1
I0518 02:04:57.150357  7095 net.cpp:122] Setting up res4b1
I0518 02:04:57.150360  7095 net.cpp:129] Top shape: 5 1024 14 14 (1003520)
I0518 02:04:57.150362  7095 net.cpp:137] Memory required for data: 1235333140
I0518 02:04:57.150363  7095 layer_factory.hpp:77] Creating layer res4b1_relu
I0518 02:04:57.150367  7095 net.cpp:84] Creating Layer res4b1_relu
I0518 02:04:57.150368  7095 net.cpp:406] res4b1_relu <- res4b1
I0518 02:04:57.150370  7095 net.cpp:367] res4b1_relu -> res4b1 (in-place)
I0518 02:04:57.150734  7095 net.cpp:122] Setting up res4b1_relu
I0518 02:04:57.150739  7095 net.cpp:129] Top shape: 5 1024 14 14 (1003520)
I0518 02:04:57.150741  7095 net.cpp:137] Memory required for data: 1239347220
I0518 02:04:57.150743  7095 layer_factory.hpp:77] Creating layer res4b1_res4b1_relu_0_split
I0518 02:04:57.150746  7095 net.cpp:84] Creating Layer res4b1_res4b1_relu_0_split
I0518 02:04:57.150748  7095 net.cpp:406] res4b1_res4b1_relu_0_split <- res4b1
I0518 02:04:57.150753  7095 net.cpp:380] res4b1_res4b1_relu_0_split -> res4b1_res4b1_relu_0_split_0
I0518 02:04:57.150756  7095 net.cpp:380] res4b1_res4b1_relu_0_split -> res4b1_res4b1_relu_0_split_1
I0518 02:04:57.150792  7095 net.cpp:122] Setting up res4b1_res4b1_relu_0_split
I0518 02:04:57.150795  7095 net.cpp:129] Top shape: 5 1024 14 14 (1003520)
I0518 02:04:57.150799  7095 net.cpp:129] Top shape: 5 1024 14 14 (1003520)
I0518 02:04:57.150799  7095 net.cpp:137] Memory required for data: 1247375380
I0518 02:04:57.150801  7095 layer_factory.hpp:77] Creating layer res4b2_branch2a
I0518 02:04:57.150811  7095 net.cpp:84] Creating Layer res4b2_branch2a
I0518 02:04:57.150813  7095 net.cpp:406] res4b2_branch2a <- res4b1_res4b1_relu_0_split_0
I0518 02:04:57.150816  7095 net.cpp:380] res4b2_branch2a -> res4b2_branch2a
I0518 02:04:57.154068  7095 net.cpp:122] Setting up res4b2_branch2a
I0518 02:04:57.154081  7095 net.cpp:129] Top shape: 5 256 14 14 (250880)
I0518 02:04:57.154083  7095 net.cpp:137] Memory required for data: 1248378900
I0518 02:04:57.154088  7095 layer_factory.hpp:77] Creating layer bn4b2_branch2a
I0518 02:04:57.154093  7095 net.cpp:84] Creating Layer bn4b2_branch2a
I0518 02:04:57.154098  7095 net.cpp:406] bn4b2_branch2a <- res4b2_branch2a
I0518 02:04:57.154100  7095 net.cpp:367] bn4b2_branch2a -> res4b2_branch2a (in-place)
I0518 02:04:57.154279  7095 net.cpp:122] Setting up bn4b2_branch2a
I0518 02:04:57.154284  7095 net.cpp:129] Top shape: 5 256 14 14 (250880)
I0518 02:04:57.154285  7095 net.cpp:137] Memory required for data: 1249382420
I0518 02:04:57.154289  7095 layer_factory.hpp:77] Creating layer scale4b2_branch2a
I0518 02:04:57.154294  7095 net.cpp:84] Creating Layer scale4b2_branch2a
I0518 02:04:57.154296  7095 net.cpp:406] scale4b2_branch2a <- res4b2_branch2a
I0518 02:04:57.154299  7095 net.cpp:367] scale4b2_branch2a -> res4b2_branch2a (in-place)
I0518 02:04:57.154335  7095 layer_factory.hpp:77] Creating layer scale4b2_branch2a
I0518 02:04:57.154430  7095 net.cpp:122] Setting up scale4b2_branch2a
I0518 02:04:57.154434  7095 net.cpp:129] Top shape: 5 256 14 14 (250880)
I0518 02:04:57.154436  7095 net.cpp:137] Memory required for data: 1250385940
I0518 02:04:57.154439  7095 layer_factory.hpp:77] Creating layer res4b2_branch2a_relu
I0518 02:04:57.154443  7095 net.cpp:84] Creating Layer res4b2_branch2a_relu
I0518 02:04:57.154444  7095 net.cpp:406] res4b2_branch2a_relu <- res4b2_branch2a
I0518 02:04:57.154448  7095 net.cpp:367] res4b2_branch2a_relu -> res4b2_branch2a (in-place)
I0518 02:04:57.154937  7095 net.cpp:122] Setting up res4b2_branch2a_relu
I0518 02:04:57.154943  7095 net.cpp:129] Top shape: 5 256 14 14 (250880)
I0518 02:04:57.154945  7095 net.cpp:137] Memory required for data: 1251389460
I0518 02:04:57.154947  7095 layer_factory.hpp:77] Creating layer res4b2_branch2b
I0518 02:04:57.154953  7095 net.cpp:84] Creating Layer res4b2_branch2b
I0518 02:04:57.154956  7095 net.cpp:406] res4b2_branch2b <- res4b2_branch2a
I0518 02:04:57.154959  7095 net.cpp:380] res4b2_branch2b -> res4b2_branch2b
I0518 02:04:57.160760  7095 net.cpp:122] Setting up res4b2_branch2b
I0518 02:04:57.160771  7095 net.cpp:129] Top shape: 5 256 14 14 (250880)
I0518 02:04:57.160773  7095 net.cpp:137] Memory required for data: 1252392980
I0518 02:04:57.160778  7095 layer_factory.hpp:77] Creating layer bn4b2_branch2b
I0518 02:04:57.160782  7095 net.cpp:84] Creating Layer bn4b2_branch2b
I0518 02:04:57.160785  7095 net.cpp:406] bn4b2_branch2b <- res4b2_branch2b
I0518 02:04:57.160789  7095 net.cpp:367] bn4b2_branch2b -> res4b2_branch2b (in-place)
I0518 02:04:57.160964  7095 net.cpp:122] Setting up bn4b2_branch2b
I0518 02:04:57.160969  7095 net.cpp:129] Top shape: 5 256 14 14 (250880)
I0518 02:04:57.160971  7095 net.cpp:137] Memory required for data: 1253396500
I0518 02:04:57.160975  7095 layer_factory.hpp:77] Creating layer scale4b2_branch2b
I0518 02:04:57.160979  7095 net.cpp:84] Creating Layer scale4b2_branch2b
I0518 02:04:57.160981  7095 net.cpp:406] scale4b2_branch2b <- res4b2_branch2b
I0518 02:04:57.160984  7095 net.cpp:367] scale4b2_branch2b -> res4b2_branch2b (in-place)
I0518 02:04:57.161017  7095 layer_factory.hpp:77] Creating layer scale4b2_branch2b
I0518 02:04:57.161113  7095 net.cpp:122] Setting up scale4b2_branch2b
I0518 02:04:57.161116  7095 net.cpp:129] Top shape: 5 256 14 14 (250880)
I0518 02:04:57.161118  7095 net.cpp:137] Memory required for data: 1254400020
I0518 02:04:57.161120  7095 layer_factory.hpp:77] Creating layer res4b2_branch2b_relu
I0518 02:04:57.161124  7095 net.cpp:84] Creating Layer res4b2_branch2b_relu
I0518 02:04:57.161126  7095 net.cpp:406] res4b2_branch2b_relu <- res4b2_branch2b
I0518 02:04:57.161135  7095 net.cpp:367] res4b2_branch2b_relu -> res4b2_branch2b (in-place)
I0518 02:04:57.161492  7095 net.cpp:122] Setting up res4b2_branch2b_relu
I0518 02:04:57.161499  7095 net.cpp:129] Top shape: 5 256 14 14 (250880)
I0518 02:04:57.161500  7095 net.cpp:137] Memory required for data: 1255403540
I0518 02:04:57.161502  7095 layer_factory.hpp:77] Creating layer res4b2_branch2c
I0518 02:04:57.161507  7095 net.cpp:84] Creating Layer res4b2_branch2c
I0518 02:04:57.161510  7095 net.cpp:406] res4b2_branch2c <- res4b2_branch2b
I0518 02:04:57.161514  7095 net.cpp:380] res4b2_branch2c -> res4b2_branch2c
I0518 02:04:57.165344  7095 net.cpp:122] Setting up res4b2_branch2c
I0518 02:04:57.165356  7095 net.cpp:129] Top shape: 5 1024 14 14 (1003520)
I0518 02:04:57.165359  7095 net.cpp:137] Memory required for data: 1259417620
I0518 02:04:57.165364  7095 layer_factory.hpp:77] Creating layer bn4b2_branch2c
I0518 02:04:57.165369  7095 net.cpp:84] Creating Layer bn4b2_branch2c
I0518 02:04:57.165374  7095 net.cpp:406] bn4b2_branch2c <- res4b2_branch2c
I0518 02:04:57.165377  7095 net.cpp:367] bn4b2_branch2c -> res4b2_branch2c (in-place)
I0518 02:04:57.165562  7095 net.cpp:122] Setting up bn4b2_branch2c
I0518 02:04:57.165566  7095 net.cpp:129] Top shape: 5 1024 14 14 (1003520)
I0518 02:04:57.165568  7095 net.cpp:137] Memory required for data: 1263431700
I0518 02:04:57.165571  7095 layer_factory.hpp:77] Creating layer scale4b2_branch2c
I0518 02:04:57.165576  7095 net.cpp:84] Creating Layer scale4b2_branch2c
I0518 02:04:57.165578  7095 net.cpp:406] scale4b2_branch2c <- res4b2_branch2c
I0518 02:04:57.165580  7095 net.cpp:367] scale4b2_branch2c -> res4b2_branch2c (in-place)
I0518 02:04:57.165614  7095 layer_factory.hpp:77] Creating layer scale4b2_branch2c
I0518 02:04:57.165715  7095 net.cpp:122] Setting up scale4b2_branch2c
I0518 02:04:57.165719  7095 net.cpp:129] Top shape: 5 1024 14 14 (1003520)
I0518 02:04:57.165721  7095 net.cpp:137] Memory required for data: 1267445780
I0518 02:04:57.165724  7095 layer_factory.hpp:77] Creating layer res4b2
I0518 02:04:57.165727  7095 net.cpp:84] Creating Layer res4b2
I0518 02:04:57.165729  7095 net.cpp:406] res4b2 <- res4b1_res4b1_relu_0_split_1
I0518 02:04:57.165731  7095 net.cpp:406] res4b2 <- res4b2_branch2c
I0518 02:04:57.165735  7095 net.cpp:380] res4b2 -> res4b2
I0518 02:04:57.165755  7095 net.cpp:122] Setting up res4b2
I0518 02:04:57.165760  7095 net.cpp:129] Top shape: 5 1024 14 14 (1003520)
I0518 02:04:57.165761  7095 net.cpp:137] Memory required for data: 1271459860
I0518 02:04:57.165762  7095 layer_factory.hpp:77] Creating layer res4b2_relu
I0518 02:04:57.165766  7095 net.cpp:84] Creating Layer res4b2_relu
I0518 02:04:57.165767  7095 net.cpp:406] res4b2_relu <- res4b2
I0518 02:04:57.165771  7095 net.cpp:367] res4b2_relu -> res4b2 (in-place)
I0518 02:04:57.166126  7095 net.cpp:122] Setting up res4b2_relu
I0518 02:04:57.166131  7095 net.cpp:129] Top shape: 5 1024 14 14 (1003520)
I0518 02:04:57.166132  7095 net.cpp:137] Memory required for data: 1275473940
I0518 02:04:57.166133  7095 layer_factory.hpp:77] Creating layer res4b2_res4b2_relu_0_split
I0518 02:04:57.166136  7095 net.cpp:84] Creating Layer res4b2_res4b2_relu_0_split
I0518 02:04:57.166139  7095 net.cpp:406] res4b2_res4b2_relu_0_split <- res4b2
I0518 02:04:57.166142  7095 net.cpp:380] res4b2_res4b2_relu_0_split -> res4b2_res4b2_relu_0_split_0
I0518 02:04:57.166146  7095 net.cpp:380] res4b2_res4b2_relu_0_split -> res4b2_res4b2_relu_0_split_1
I0518 02:04:57.166182  7095 net.cpp:122] Setting up res4b2_res4b2_relu_0_split
I0518 02:04:57.166185  7095 net.cpp:129] Top shape: 5 1024 14 14 (1003520)
I0518 02:04:57.166188  7095 net.cpp:129] Top shape: 5 1024 14 14 (1003520)
I0518 02:04:57.166189  7095 net.cpp:137] Memory required for data: 1283502100
I0518 02:04:57.166190  7095 layer_factory.hpp:77] Creating layer res4b3_branch2a
…
I0518 02:05:00.266104  7095 net.cpp:406] bn4b33_branch2a <- res4b33_branch2a
I0518 02:05:00.266108  7095 net.cpp:367] bn4b33_branch2a -> res4b33_branch2a (in-place)
I0518 02:05:00.266265  7095 net.cpp:122] Setting up bn4b33_branch2a
I0518 02:05:00.266269  7095 net.cpp:129] Top shape: 1 256 14 14 (50176)
I0518 02:05:00.266271  7095 net.cpp:137] Memory required for data: 473862160
I0518 02:05:00.266274  7095 layer_factory.hpp:77] Creating layer scale4b33_branch2a
I0518 02:05:00.266278  7095 net.cpp:84] Creating Layer scale4b33_branch2a
I0518 02:05:00.266279  7095 net.cpp:406] scale4b33_branch2a <- res4b33_branch2a
I0518 02:05:00.266283  7095 net.cpp:367] scale4b33_branch2a -> res4b33_branch2a (in-place)
I0518 02:05:00.266311  7095 layer_factory.hpp:77] Creating layer scale4b33_branch2a
I0518 02:05:00.266391  7095 net.cpp:122] Setting up scale4b33_branch2a
I0518 02:05:00.266396  7095 net.cpp:129] Top shape: 1 256 14 14 (50176)
I0518 02:05:00.266397  7095 net.cpp:137] Memory required for data: 474062864
I0518 02:05:00.266399  7095 layer_factory.hpp:77] Creating layer res4b33_branch2a_relu
I0518 02:05:00.266402  7095 net.cpp:84] Creating Layer res4b33_branch2a_relu
I0518 02:05:00.266407  7095 net.cpp:406] res4b33_branch2a_relu <- res4b33_branch2a
I0518 02:05:00.266408  7095 net.cpp:367] res4b33_branch2a_relu -> res4b33_branch2a (in-place)
I0518 02:05:00.266841  7095 net.cpp:122] Setting up res4b33_branch2a_relu
I0518 02:05:00.266847  7095 net.cpp:129] Top shape: 1 256 14 14 (50176)
I0518 02:05:00.266849  7095 net.cpp:137] Memory required for data: 474263568
I0518 02:05:00.266851  7095 layer_factory.hpp:77] Creating layer res4b33_branch2b
I0518 02:05:00.266856  7095 net.cpp:84] Creating Layer res4b33_branch2b
I0518 02:05:00.266858  7095 net.cpp:406] res4b33_branch2b <- res4b33_branch2a
I0518 02:05:00.266862  7095 net.cpp:380] res4b33_branch2b -> res4b33_branch2b
I0518 02:05:00.273316  7095 net.cpp:122] Setting up res4b33_branch2b
I0518 02:05:00.273329  7095 net.cpp:129] Top shape: 1 256 14 14 (50176)
I0518 02:05:00.273330  7095 net.cpp:137] Memory required for data: 474464272
I0518 02:05:00.273334  7095 layer_factory.hpp:77] Creating layer bn4b33_branch2b
I0518 02:05:00.273340  7095 net.cpp:84] Creating Layer bn4b33_branch2b
I0518 02:05:00.273344  7095 net.cpp:406] bn4b33_branch2b <- res4b33_branch2b
I0518 02:05:00.273347  7095 net.cpp:367] bn4b33_branch2b -> res4b33_branch2b (in-place)
I0518 02:05:00.273521  7095 net.cpp:122] Setting up bn4b33_branch2b
I0518 02:05:00.273526  7095 net.cpp:129] Top shape: 1 256 14 14 (50176)
I0518 02:05:00.273528  7095 net.cpp:137] Memory required for data: 474664976
I0518 02:05:00.273532  7095 layer_factory.hpp:77] Creating layer scale4b33_branch2b
I0518 02:05:00.273535  7095 net.cpp:84] Creating Layer scale4b33_branch2b
I0518 02:05:00.273538  7095 net.cpp:406] scale4b33_branch2b <- res4b33_branch2b
I0518 02:05:00.273540  7095 net.cpp:367] scale4b33_branch2b -> res4b33_branch2b (in-place)
I0518 02:05:00.273571  7095 layer_factory.hpp:77] Creating layer scale4b33_branch2b
I0518 02:05:00.273653  7095 net.cpp:122] Setting up scale4b33_branch2b
I0518 02:05:00.273658  7095 net.cpp:129] Top shape: 1 256 14 14 (50176)
I0518 02:05:00.273659  7095 net.cpp:137] Memory required for data: 474865680
I0518 02:05:00.273663  7095 layer_factory.hpp:77] Creating layer res4b33_branch2b_relu
I0518 02:05:00.273666  7095 net.cpp:84] Creating Layer res4b33_branch2b_relu
I0518 02:05:00.273669  7095 net.cpp:406] res4b33_branch2b_relu <- res4b33_branch2b
I0518 02:05:00.273671  7095 net.cpp:367] res4b33_branch2b_relu -> res4b33_branch2b (in-place)
I0518 02:05:00.274096  7095 net.cpp:122] Setting up res4b33_branch2b_relu
I0518 02:05:00.274101  7095 net.cpp:129] Top shape: 1 256 14 14 (50176)
I0518 02:05:00.274102  7095 net.cpp:137] Memory required for data: 475066384
I0518 02:05:00.274104  7095 layer_factory.hpp:77] Creating layer res4b33_branch2c
I0518 02:05:00.274111  7095 net.cpp:84] Creating Layer res4b33_branch2c
I0518 02:05:00.274112  7095 net.cpp:406] res4b33_branch2c <- res4b33_branch2b
I0518 02:05:00.274116  7095 net.cpp:380] res4b33_branch2c -> res4b33_branch2c
I0518 02:05:00.277402  7095 net.cpp:122] Setting up res4b33_branch2c
I0518 02:05:00.277410  7095 net.cpp:129] Top shape: 1 1024 14 14 (200704)
I0518 02:05:00.277412  7095 net.cpp:137] Memory required for data: 475869200
I0518 02:05:00.277415  7095 layer_factory.hpp:77] Creating layer bn4b33_branch2c
I0518 02:05:00.277420  7095 net.cpp:84] Creating Layer bn4b33_branch2c
I0518 02:05:00.277422  7095 net.cpp:406] bn4b33_branch2c <- res4b33_branch2c
I0518 02:05:00.277424  7095 net.cpp:367] bn4b33_branch2c -> res4b33_branch2c (in-place)
I0518 02:05:00.277643  7095 net.cpp:122] Setting up bn4b33_branch2c
I0518 02:05:00.277647  7095 net.cpp:129] Top shape: 1 1024 14 14 (200704)
I0518 02:05:00.277649  7095 net.cpp:137] Memory required for data: 476672016
I0518 02:05:00.277653  7095 layer_factory.hpp:77] Creating layer scale4b33_branch2c
I0518 02:05:00.277657  7095 net.cpp:84] Creating Layer scale4b33_branch2c
I0518 02:05:00.277658  7095 net.cpp:406] scale4b33_branch2c <- res4b33_branch2c
I0518 02:05:00.277660  7095 net.cpp:367] scale4b33_branch2c -> res4b33_branch2c (in-place)
I0518 02:05:00.277710  7095 layer_factory.hpp:77] Creating layer scale4b33_branch2c
I0518 02:05:00.277825  7095 net.cpp:122] Setting up scale4b33_branch2c
I0518 02:05:00.277829  7095 net.cpp:129] Top shape: 1 1024 14 14 (200704)
I0518 02:05:00.277832  7095 net.cpp:137] Memory required for data: 477474832
I0518 02:05:00.277833  7095 layer_factory.hpp:77] Creating layer res4b33
I0518 02:05:00.277837  7095 net.cpp:84] Creating Layer res4b33
I0518 02:05:00.277839  7095 net.cpp:406] res4b33 <- res4b32_res4b32_relu_0_split_1
I0518 02:05:00.277842  7095 net.cpp:406] res4b33 <- res4b33_branch2c
I0518 02:05:00.277845  7095 net.cpp:380] res4b33 -> res4b33
I0518 02:05:00.277861  7095 net.cpp:122] Setting up res4b33
I0518 02:05:00.277871  7095 net.cpp:129] Top shape: 1 1024 14 14 (200704)
I0518 02:05:00.277873  7095 net.cpp:137] Memory required for data: 478277648
I0518 02:05:00.277875  7095 layer_factory.hpp:77] Creating layer res4b33_relu
I0518 02:05:00.277879  7095 net.cpp:84] Creating Layer res4b33_relu
I0518 02:05:00.277882  7095 net.cpp:406] res4b33_relu <- res4b33
I0518 02:05:00.277885  7095 net.cpp:367] res4b33_relu -> res4b33 (in-place)
I0518 02:05:00.278473  7095 net.cpp:122] Setting up res4b33_relu
I0518 02:05:00.278479  7095 net.cpp:129] Top shape: 1 1024 14 14 (200704)
I0518 02:05:00.278481  7095 net.cpp:137] Memory required for data: 479080464
I0518 02:05:00.278483  7095 layer_factory.hpp:77] Creating layer res4b33_res4b33_relu_0_split
I0518 02:05:00.278487  7095 net.cpp:84] Creating Layer res4b33_res4b33_relu_0_split
I0518 02:05:00.278489  7095 net.cpp:406] res4b33_res4b33_relu_0_split <- res4b33
I0518 02:05:00.278493  7095 net.cpp:380] res4b33_res4b33_relu_0_split -> res4b33_res4b33_relu_0_split_0
I0518 02:05:00.278497  7095 net.cpp:380] res4b33_res4b33_relu_0_split -> res4b33_res4b33_relu_0_split_1
I0518 02:05:00.278530  7095 net.cpp:122] Setting up res4b33_res4b33_relu_0_split
I0518 02:05:00.278534  7095 net.cpp:129] Top shape: 1 1024 14 14 (200704)
I0518 02:05:00.278537  7095 net.cpp:129] Top shape: 1 1024 14 14 (200704)
I0518 02:05:00.278538  7095 net.cpp:137] Memory required for data: 480686096
I0518 02:05:00.278540  7095 layer_factory.hpp:77] Creating layer res4b34_branch2a
I0518 02:05:00.278547  7095 net.cpp:84] Creating Layer res4b34_branch2a
I0518 02:05:00.278548  7095 net.cpp:406] res4b34_branch2a <- res4b33_res4b33_relu_0_split_0
I0518 02:05:00.278550  7095 net.cpp:380] res4b34_branch2a -> res4b34_branch2a
I0518 02:05:00.282440  7095 net.cpp:122] Setting up res4b34_branch2a
I0518 02:05:00.282451  7095 net.cpp:129] Top shape: 1 256 14 14 (50176)
I0518 02:05:00.282454  7095 net.cpp:137] Memory required for data: 480886800
I0518 02:05:00.282457  7095 layer_factory.hpp:77] Creating layer bn4b34_branch2a
I0518 02:05:00.282461  7095 net.cpp:84] Creating Layer bn4b34_branch2a
I0518 02:05:00.282464  7095 net.cpp:406] bn4b34_branch2a <- res4b34_branch2a
I0518 02:05:00.282467  7095 net.cpp:367] bn4b34_branch2a -> res4b34_branch2a (in-place)
I0518 02:05:00.282629  7095 net.cpp:122] Setting up bn4b34_branch2a
I0518 02:05:00.282632  7095 net.cpp:129] Top shape: 1 256 14 14 (50176)
I0518 02:05:00.282634  7095 net.cpp:137] Memory required for data: 481087504
I0518 02:05:00.282639  7095 layer_factory.hpp:77] Creating layer scale4b34_branch2a
I0518 02:05:00.282641  7095 net.cpp:84] Creating Layer scale4b34_branch2a
I0518 02:05:00.282644  7095 net.cpp:406] scale4b34_branch2a <- res4b34_branch2a
I0518 02:05:00.282646  7095 net.cpp:367] scale4b34_branch2a -> res4b34_branch2a (in-place)
I0518 02:05:00.282675  7095 layer_factory.hpp:77] Creating layer scale4b34_branch2a
I0518 02:05:00.282757  7095 net.cpp:122] Setting up scale4b34_branch2a
I0518 02:05:00.282759  7095 net.cpp:129] Top shape: 1 256 14 14 (50176)
I0518 02:05:00.282761  7095 net.cpp:137] Memory required for data: 481288208
I0518 02:05:00.282764  7095 layer_factory.hpp:77] Creating layer res4b34_branch2a_relu
I0518 02:05:00.282769  7095 net.cpp:84] Creating Layer res4b34_branch2a_relu
I0518 02:05:00.282771  7095 net.cpp:406] res4b34_branch2a_relu <- res4b34_branch2a
I0518 02:05:00.282773  7095 net.cpp:367] res4b34_branch2a_relu -> res4b34_branch2a (in-place)
I0518 02:05:00.283192  7095 net.cpp:122] Setting up res4b34_branch2a_relu
I0518 02:05:00.283197  7095 net.cpp:129] Top shape: 1 256 14 14 (50176)
I0518 02:05:00.283200  7095 net.cpp:137] Memory required for data: 481488912
I0518 02:05:00.283201  7095 layer_factory.hpp:77] Creating layer res4b34_branch2b
I0518 02:05:00.283207  7095 net.cpp:84] Creating Layer res4b34_branch2b
I0518 02:05:00.283210  7095 net.cpp:406] res4b34_branch2b <- res4b34_branch2a
I0518 02:05:00.283213  7095 net.cpp:380] res4b34_branch2b -> res4b34_branch2b
I0518 02:05:00.289719  7095 net.cpp:122] Setting up res4b34_branch2b
I0518 02:05:00.289736  7095 net.cpp:129] Top shape: 1 256 14 14 (50176)
I0518 02:05:00.289746  7095 net.cpp:137] Memory required for data: 481689616
I0518 02:05:00.289752  7095 layer_factory.hpp:77] Creating layer bn4b34_branch2b
I0518 02:05:00.289758  7095 net.cpp:84] Creating Layer bn4b34_branch2b
I0518 02:05:00.289762  7095 net.cpp:406] bn4b34_branch2b <- res4b34_branch2b
I0518 02:05:00.289768  7095 net.cpp:367] bn4b34_branch2b -> res4b34_branch2b (in-place)
I0518 02:05:00.290004  7095 net.cpp:122] Setting up bn4b34_branch2b
I0518 02:05:00.290012  7095 net.cpp:129] Top shape: 1 256 14 14 (50176)
I0518 02:05:00.290014  7095 net.cpp:137] Memory required for data: 481890320
I0518 02:05:00.290019  7095 layer_factory.hpp:77] Creating layer scale4b34_branch2b
I0518 02:05:00.290024  7095 net.cpp:84] Creating Layer scale4b34_branch2b
I0518 02:05:00.290025  7095 net.cpp:406] scale4b34_branch2b <- res4b34_branch2b
I0518 02:05:00.290029  7095 net.cpp:367] scale4b34_branch2b -> res4b34_branch2b (in-place)
I0518 02:05:00.290061  7095 layer_factory.hpp:77] Creating layer scale4b34_branch2b
I0518 02:05:00.290153  7095 net.cpp:122] Setting up scale4b34_branch2b
I0518 02:05:00.290159  7095 net.cpp:129] Top shape: 1 256 14 14 (50176)
I0518 02:05:00.290160  7095 net.cpp:137] Memory required for data: 482091024
I0518 02:05:00.290163  7095 layer_factory.hpp:77] Creating layer res4b34_branch2b_relu
I0518 02:05:00.290166  7095 net.cpp:84] Creating Layer res4b34_branch2b_relu
I0518 02:05:00.290169  7095 net.cpp:406] res4b34_branch2b_relu <- res4b34_branch2b
I0518 02:05:00.290171  7095 net.cpp:367] res4b34_branch2b_relu -> res4b34_branch2b (in-place)
I0518 02:05:00.290791  7095 net.cpp:122] Setting up res4b34_branch2b_relu
I0518 02:05:00.290796  7095 net.cpp:129] Top shape: 1 256 14 14 (50176)
I0518 02:05:00.290798  7095 net.cpp:137] Memory required for data: 482291728
I0518 02:05:00.290801  7095 layer_factory.hpp:77] Creating layer res4b34_branch2c
I0518 02:05:00.290807  7095 net.cpp:84] Creating Layer res4b34_branch2c
I0518 02:05:00.290810  7095 net.cpp:406] res4b34_branch2c <- res4b34_branch2b
I0518 02:05:00.290813  7095 net.cpp:380] res4b34_branch2c -> res4b34_branch2c
I0518 02:05:00.294363  7095 net.cpp:122] Setting up res4b34_branch2c
I0518 02:05:00.294376  7095 net.cpp:129] Top shape: 1 1024 14 14 (200704)
I0518 02:05:00.294378  7095 net.cpp:137] Memory required for data: 483094544
I0518 02:05:00.294384  7095 layer_factory.hpp:77] Creating layer bn4b34_branch2c
I0518 02:05:00.294389  7095 net.cpp:84] Creating Layer bn4b34_branch2c
I0518 02:05:00.294392  7095 net.cpp:406] bn4b34_branch2c <- res4b34_branch2c
I0518 02:05:00.294396  7095 net.cpp:367] bn4b34_branch2c -> res4b34_branch2c (in-place)
I0518 02:05:00.294629  7095 net.cpp:122] Setting up bn4b34_branch2c
I0518 02:05:00.294634  7095 net.cpp:129] Top shape: 1 1024 14 14 (200704)
I0518 02:05:00.294636  7095 net.cpp:137] Memory required for data: 483897360
I0518 02:05:00.294641  7095 layer_factory.hpp:77] Creating layer scale4b34_branch2c
I0518 02:05:00.294646  7095 net.cpp:84] Creating Layer scale4b34_branch2c
I0518 02:05:00.294647  7095 net.cpp:406] scale4b34_branch2c <- res4b34_branch2c
I0518 02:05:00.294651  7095 net.cpp:367] scale4b34_branch2c -> res4b34_branch2c (in-place)
I0518 02:05:00.294703  7095 layer_factory.hpp:77] Creating layer scale4b34_branch2c
I0518 02:05:00.294821  7095 net.cpp:122] Setting up scale4b34_branch2c
I0518 02:05:00.294824  7095 net.cpp:129] Top shape: 1 1024 14 14 (200704)
I0518 02:05:00.294826  7095 net.cpp:137] Memory required for data: 484700176
I0518 02:05:00.294829  7095 layer_factory.hpp:77] Creating layer res4b34
I0518 02:05:00.294832  7095 net.cpp:84] Creating Layer res4b34
I0518 02:05:00.294834  7095 net.cpp:406] res4b34 <- res4b33_res4b33_relu_0_split_1
I0518 02:05:00.294837  7095 net.cpp:406] res4b34 <- res4b34_branch2c
I0518 02:05:00.294840  7095 net.cpp:380] res4b34 -> res4b34
I0518 02:05:00.294858  7095 net.cpp:122] Setting up res4b34
I0518 02:05:00.294862  7095 net.cpp:129] Top shape: 1 1024 14 14 (200704)
I0518 02:05:00.294863  7095 net.cpp:137] Memory required for data: 485502992
I0518 02:05:00.294873  7095 layer_factory.hpp:77] Creating layer res4b34_relu
I0518 02:05:00.294876  7095 net.cpp:84] Creating Layer res4b34_relu
I0518 02:05:00.294878  7095 net.cpp:406] res4b34_relu <- res4b34
I0518 02:05:00.294881  7095 net.cpp:367] res4b34_relu -> res4b34 (in-place)
I0518 02:05:00.295310  7095 net.cpp:122] Setting up res4b34_relu
I0518 02:05:00.295315  7095 net.cpp:129] Top shape: 1 1024 14 14 (200704)
I0518 02:05:00.295316  7095 net.cpp:137] Memory required for data: 486305808
I0518 02:05:00.295318  7095 layer_factory.hpp:77] Creating layer res4b34_res4b34_relu_0_split
I0518 02:05:00.295321  7095 net.cpp:84] Creating Layer res4b34_res4b34_relu_0_split
I0518 02:05:00.295323  7095 net.cpp:406] res4b34_res4b34_relu_0_split <- res4b34
I0518 02:05:00.295327  7095 net.cpp:380] res4b34_res4b34_relu_0_split -> res4b34_res4b34_relu_0_split_0
I0518 02:05:00.295331  7095 net.cpp:380] res4b34_res4b34_relu_0_split -> res4b34_res4b34_relu_0_split_1
I0518 02:05:00.295366  7095 net.cpp:122] Setting up res4b34_res4b34_relu_0_split
I0518 02:05:00.295369  7095 net.cpp:129] Top shape: 1 1024 14 14 (200704)
I0518 02:05:00.295372  7095 net.cpp:129] Top shape: 1 1024 14 14 (200704)
I0518 02:05:00.295373  7095 net.cpp:137] Memory required for data: 487911440
I0518 02:05:00.295374  7095 layer_factory.hpp:77] Creating layer res4b35_branch2a
I0518 02:05:00.295380  7095 net.cpp:84] Creating Layer res4b35_branch2a
I0518 02:05:00.295382  7095 net.cpp:406] res4b35_branch2a <- res4b34_res4b34_relu_0_split_0
I0518 02:05:00.295385  7095 net.cpp:380] res4b35_branch2a -> res4b35_branch2a
I0518 02:05:00.299515  7095 net.cpp:122] Setting up res4b35_branch2a
I0518 02:05:00.299525  7095 net.cpp:129] Top shape: 1 256 14 14 (50176)
I0518 02:05:00.299527  7095 net.cpp:137] Memory required for data: 488112144
I0518 02:05:00.299530  7095 layer_factory.hpp:77] Creating layer bn4b35_branch2a
I0518 02:05:00.299535  7095 net.cpp:84] Creating Layer bn4b35_branch2a
I0518 02:05:00.299538  7095 net.cpp:406] bn4b35_branch2a <- res4b35_branch2a
I0518 02:05:00.299541  7095 net.cpp:367] bn4b35_branch2a -> res4b35_branch2a (in-place)
I0518 02:05:00.299705  7095 net.cpp:122] Setting up bn4b35_branch2a
I0518 02:05:00.299708  7095 net.cpp:129] Top shape: 1 256 14 14 (50176)
I0518 02:05:00.299710  7095 net.cpp:137] Memory required for data: 488312848
I0518 02:05:00.299713  7095 layer_factory.hpp:77] Creating layer scale4b35_branch2a
I0518 02:05:00.299718  7095 net.cpp:84] Creating Layer scale4b35_branch2a
I0518 02:05:00.299721  7095 net.cpp:406] scale4b35_branch2a <- res4b35_branch2a
I0518 02:05:00.299723  7095 net.cpp:367] scale4b35_branch2a -> res4b35_branch2a (in-place)
I0518 02:05:00.299751  7095 layer_factory.hpp:77] Creating layer scale4b35_branch2a
I0518 02:05:00.299835  7095 net.cpp:122] Setting up scale4b35_branch2a
I0518 02:05:00.299839  7095 net.cpp:129] Top shape: 1 256 14 14 (50176)
I0518 02:05:00.299841  7095 net.cpp:137] Memory required for data: 488513552
I0518 02:05:00.299844  7095 layer_factory.hpp:77] Creating layer res4b35_branch2a_relu
I0518 02:05:00.299849  7095 net.cpp:84] Creating Layer res4b35_branch2a_relu
I0518 02:05:00.299850  7095 net.cpp:406] res4b35_branch2a_relu <- res4b35_branch2a
I0518 02:05:00.299852  7095 net.cpp:367] res4b35_branch2a_relu -> res4b35_branch2a (in-place)
I0518 02:05:00.300283  7095 net.cpp:122] Setting up res4b35_branch2a_relu
I0518 02:05:00.300289  7095 net.cpp:129] Top shape: 1 256 14 14 (50176)
I0518 02:05:00.300292  7095 net.cpp:137] Memory required for data: 488714256
I0518 02:05:00.300293  7095 layer_factory.hpp:77] Creating layer res4b35_branch2b
I0518 02:05:00.300299  7095 net.cpp:84] Creating Layer res4b35_branch2b
I0518 02:05:00.300302  7095 net.cpp:406] res4b35_branch2b <- res4b35_branch2a
I0518 02:05:00.300304  7095 net.cpp:380] res4b35_branch2b -> res4b35_branch2b
I0518 02:05:00.307086  7095 net.cpp:122] Setting up res4b35_branch2b
I0518 02:05:00.307103  7095 net.cpp:129] Top shape: 1 256 14 14 (50176)
I0518 02:05:00.307106  7095 net.cpp:137] Memory required for data: 488914960
I0518 02:05:00.307121  7095 layer_factory.hpp:77] Creating layer bn4b35_branch2b
I0518 02:05:00.307130  7095 net.cpp:84] Creating Layer bn4b35_branch2b
I0518 02:05:00.307135  7095 net.cpp:406] bn4b35_branch2b <- res4b35_branch2b
I0518 02:05:00.307140  7095 net.cpp:367] bn4b35_branch2b -> res4b35_branch2b (in-place)
I0518 02:05:00.307379  7095 net.cpp:122] Setting up bn4b35_branch2b
I0518 02:05:00.307385  7095 net.cpp:129] Top shape: 1 256 14 14 (50176)
I0518 02:05:00.307387  7095 net.cpp:137] Memory required for data: 489115664
I0518 02:05:00.307394  7095 layer_factory.hpp:77] Creating layer scale4b35_branch2b
I0518 02:05:00.307399  7095 net.cpp:84] Creating Layer scale4b35_branch2b
I0518 02:05:00.307402  7095 net.cpp:406] scale4b35_branch2b <- res4b35_branch2b
I0518 02:05:00.307405  7095 net.cpp:367] scale4b35_branch2b -> res4b35_branch2b (in-place)
I0518 02:05:00.307449  7095 layer_factory.hpp:77] Creating layer scale4b35_branch2b
I0518 02:05:00.307559  7095 net.cpp:122] Setting up scale4b35_branch2b
I0518 02:05:00.307564  7095 net.cpp:129] Top shape: 1 256 14 14 (50176)
I0518 02:05:00.307567  7095 net.cpp:137] Memory required for data: 489316368
I0518 02:05:00.307571  7095 layer_factory.hpp:77] Creating layer res4b35_branch2b_relu
I0518 02:05:00.307576  7095 net.cpp:84] Creating Layer res4b35_branch2b_relu
I0518 02:05:00.307579  7095 net.cpp:406] res4b35_branch2b_relu <- res4b35_branch2b
I0518 02:05:00.307584  7095 net.cpp:367] res4b35_branch2b_relu -> res4b35_branch2b (in-place)
I0518 02:05:00.308087  7095 net.cpp:122] Setting up res4b35_branch2b_relu
I0518 02:05:00.308095  7095 net.cpp:129] Top shape: 1 256 14 14 (50176)
I0518 02:05:00.308097  7095 net.cpp:137] Memory required for data: 489517072
I0518 02:05:00.308099  7095 layer_factory.hpp:77] Creating layer res4b35_branch2c
I0518 02:05:00.308104  7095 net.cpp:84] Creating Layer res4b35_branch2c
I0518 02:05:00.308107  7095 net.cpp:406] res4b35_branch2c <- res4b35_branch2b
I0518 02:05:00.308111  7095 net.cpp:380] res4b35_branch2c -> res4b35_branch2c
I0518 02:05:00.311781  7095 net.cpp:122] Setting up res4b35_branch2c
I0518 02:05:00.311790  7095 net.cpp:129] Top shape: 1 1024 14 14 (200704)
I0518 02:05:00.311792  7095 net.cpp:137] Memory required for data: 490319888
I0518 02:05:00.311795  7095 layer_factory.hpp:77] Creating layer bn4b35_branch2c
I0518 02:05:00.311800  7095 net.cpp:84] Creating Layer bn4b35_branch2c
I0518 02:05:00.311802  7095 net.cpp:406] bn4b35_branch2c <- res4b35_branch2c
I0518 02:05:00.311808  7095 net.cpp:367] bn4b35_branch2c -> res4b35_branch2c (in-place)
I0518 02:05:00.312036  7095 net.cpp:122] Setting up bn4b35_branch2c
I0518 02:05:00.312039  7095 net.cpp:129] Top shape: 1 1024 14 14 (200704)
I0518 02:05:00.312041  7095 net.cpp:137] Memory required for data: 491122704
I0518 02:05:00.312044  7095 layer_factory.hpp:77] Creating layer scale4b35_branch2c
I0518 02:05:00.312049  7095 net.cpp:84] Creating Layer scale4b35_branch2c
I0518 02:05:00.312052  7095 net.cpp:406] scale4b35_branch2c <- res4b35_branch2c
I0518 02:05:00.312053  7095 net.cpp:367] scale4b35_branch2c -> res4b35_branch2c (in-place)
I0518 02:05:00.312103  7095 layer_factory.hpp:77] Creating layer scale4b35_branch2c
I0518 02:05:00.312224  7095 net.cpp:122] Setting up scale4b35_branch2c
I0518 02:05:00.312228  7095 net.cpp:129] Top shape: 1 1024 14 14 (200704)
I0518 02:05:00.312230  7095 net.cpp:137] Memory required for data: 491925520
I0518 02:05:00.312232  7095 layer_factory.hpp:77] Creating layer res4b35
I0518 02:05:00.312237  7095 net.cpp:84] Creating Layer res4b35
I0518 02:05:00.312239  7095 net.cpp:406] res4b35 <- res4b34_res4b34_relu_0_split_1
I0518 02:05:00.312242  7095 net.cpp:406] res4b35 <- res4b35_branch2c
I0518 02:05:00.312244  7095 net.cpp:380] res4b35 -> res4b35
I0518 02:05:00.312263  7095 net.cpp:122] Setting up res4b35
I0518 02:05:00.312265  7095 net.cpp:129] Top shape: 1 1024 14 14 (200704)
I0518 02:05:00.312268  7095 net.cpp:137] Memory required for data: 492728336
I0518 02:05:00.312270  7095 layer_factory.hpp:77] Creating layer res4b35_relu
I0518 02:05:00.312273  7095 net.cpp:84] Creating Layer res4b35_relu
I0518 02:05:00.312281  7095 net.cpp:406] res4b35_relu <- res4b35
I0518 02:05:00.312285  7095 net.cpp:367] res4b35_relu -> res4b35 (in-place)
I0518 02:05:00.312701  7095 net.cpp:122] Setting up res4b35_relu
I0518 02:05:00.312707  7095 net.cpp:129] Top shape: 1 1024 14 14 (200704)
I0518 02:05:00.312710  7095 net.cpp:137] Memory required for data: 493531152
I0518 02:05:00.312711  7095 layer_factory.hpp:77] Creating layer res4b35_res4b35_relu_0_split
I0518 02:05:00.312716  7095 net.cpp:84] Creating Layer res4b35_res4b35_relu_0_split
I0518 02:05:00.312717  7095 net.cpp:406] res4b35_res4b35_relu_0_split <- res4b35
I0518 02:05:00.312721  7095 net.cpp:380] res4b35_res4b35_relu_0_split -> res4b35_res4b35_relu_0_split_0
I0518 02:05:00.312724  7095 net.cpp:380] res4b35_res4b35_relu_0_split -> res4b35_res4b35_relu_0_split_1
I0518 02:05:00.312758  7095 net.cpp:122] Setting up res4b35_res4b35_relu_0_split
I0518 02:05:00.312762  7095 net.cpp:129] Top shape: 1 1024 14 14 (200704)
I0518 02:05:00.312764  7095 net.cpp:129] Top shape: 1 1024 14 14 (200704)
I0518 02:05:00.312767  7095 net.cpp:137] Memory required for data: 495136784
I0518 02:05:00.312768  7095 layer_factory.hpp:77] Creating layer res5a_branch1
I0518 02:05:00.312774  7095 net.cpp:84] Creating Layer res5a_branch1
I0518 02:05:00.312777  7095 net.cpp:406] res5a_branch1 <- res4b35_res4b35_relu_0_split_0
I0518 02:05:00.312779  7095 net.cpp:380] res5a_branch1 -> res5a_branch1
I0518 02:05:00.330531  7095 net.cpp:122] Setting up res5a_branch1
I0518 02:05:00.330545  7095 net.cpp:129] Top shape: 1 2048 7 7 (100352)
I0518 02:05:00.330548  7095 net.cpp:137] Memory required for data: 495538192
I0518 02:05:00.330552  7095 layer_factory.hpp:77] Creating layer bn5a_branch1
I0518 02:05:00.330559  7095 net.cpp:84] Creating Layer bn5a_branch1
I0518 02:05:00.330561  7095 net.cpp:406] bn5a_branch1 <- res5a_branch1
I0518 02:05:00.330565  7095 net.cpp:367] bn5a_branch1 -> res5a_branch1 (in-place)
I0518 02:05:00.330807  7095 net.cpp:122] Setting up bn5a_branch1
I0518 02:05:00.330812  7095 net.cpp:129] Top shape: 1 2048 7 7 (100352)
I0518 02:05:00.330814  7095 net.cpp:137] Memory required for data: 495939600
I0518 02:05:00.330817  7095 layer_factory.hpp:77] Creating layer scale5a_branch1
I0518 02:05:00.330821  7095 net.cpp:84] Creating Layer scale5a_branch1
I0518 02:05:00.330823  7095 net.cpp:406] scale5a_branch1 <- res5a_branch1
I0518 02:05:00.330826  7095 net.cpp:367] scale5a_branch1 -> res5a_branch1 (in-place)
I0518 02:05:00.330878  7095 layer_factory.hpp:77] Creating layer scale5a_branch1
I0518 02:05:00.330998  7095 net.cpp:122] Setting up scale5a_branch1
I0518 02:05:00.331002  7095 net.cpp:129] Top shape: 1 2048 7 7 (100352)
I0518 02:05:00.331004  7095 net.cpp:137] Memory required for data: 496341008
I0518 02:05:00.331007  7095 layer_factory.hpp:77] Creating layer res5a_branch2a
I0518 02:05:00.331012  7095 net.cpp:84] Creating Layer res5a_branch2a
I0518 02:05:00.331015  7095 net.cpp:406] res5a_branch2a <- res4b35_res4b35_relu_0_split_1
I0518 02:05:00.331018  7095 net.cpp:380] res5a_branch2a -> res5a_branch2a
I0518 02:05:00.336792  7095 net.cpp:122] Setting up res5a_branch2a
I0518 02:05:00.336804  7095 net.cpp:129] Top shape: 1 512 7 7 (25088)
I0518 02:05:00.336807  7095 net.cpp:137] Memory required for data: 496441360
I0518 02:05:00.336810  7095 layer_factory.hpp:77] Creating layer bn5a_branch2a
I0518 02:05:00.336817  7095 net.cpp:84] Creating Layer bn5a_branch2a
I0518 02:05:00.336819  7095 net.cpp:406] bn5a_branch2a <- res5a_branch2a
I0518 02:05:00.336822  7095 net.cpp:367] bn5a_branch2a -> res5a_branch2a (in-place)
I0518 02:05:00.337054  7095 net.cpp:122] Setting up bn5a_branch2a
I0518 02:05:00.337057  7095 net.cpp:129] Top shape: 1 512 7 7 (25088)
I0518 02:05:00.337059  7095 net.cpp:137] Memory required for data: 496541712
I0518 02:05:00.337064  7095 layer_factory.hpp:77] Creating layer scale5a_branch2a
I0518 02:05:00.337067  7095 net.cpp:84] Creating Layer scale5a_branch2a
I0518 02:05:00.337070  7095 net.cpp:406] scale5a_branch2a <- res5a_branch2a
I0518 02:05:00.337080  7095 net.cpp:367] scale5a_branch2a -> res5a_branch2a (in-place)
I0518 02:05:00.337133  7095 layer_factory.hpp:77] Creating layer scale5a_branch2a
I0518 02:05:00.337257  7095 net.cpp:122] Setting up scale5a_branch2a
I0518 02:05:00.337262  7095 net.cpp:129] Top shape: 1 512 7 7 (25088)
I0518 02:05:00.337263  7095 net.cpp:137] Memory required for data: 496642064
I0518 02:05:00.337266  7095 layer_factory.hpp:77] Creating layer res5a_branch2a_relu
I0518 02:05:00.337270  7095 net.cpp:84] Creating Layer res5a_branch2a_relu
I0518 02:05:00.337273  7095 net.cpp:406] res5a_branch2a_relu <- res5a_branch2a
I0518 02:05:00.337275  7095 net.cpp:367] res5a_branch2a_relu -> res5a_branch2a (in-place)
I0518 02:05:00.337693  7095 net.cpp:122] Setting up res5a_branch2a_relu
I0518 02:05:00.337698  7095 net.cpp:129] Top shape: 1 512 7 7 (25088)
I0518 02:05:00.337700  7095 net.cpp:137] Memory required for data: 496742416
I0518 02:05:00.337702  7095 layer_factory.hpp:77] Creating layer res5a_branch2b
I0518 02:05:00.337708  7095 net.cpp:84] Creating Layer res5a_branch2b
I0518 02:05:00.337710  7095 net.cpp:406] res5a_branch2b <- res5a_branch2a
I0518 02:05:00.337713  7095 net.cpp:380] res5a_branch2b -> res5a_branch2b
I0518 02:05:00.357676  7095 net.cpp:122] Setting up res5a_branch2b
I0518 02:05:00.357693  7095 net.cpp:129] Top shape: 1 512 7 7 (25088)
I0518 02:05:00.357697  7095 net.cpp:137] Memory required for data: 496842768
I0518 02:05:00.357702  7095 layer_factory.hpp:77] Creating layer bn5a_branch2b
I0518 02:05:00.357712  7095 net.cpp:84] Creating Layer bn5a_branch2b
I0518 02:05:00.357717  7095 net.cpp:406] bn5a_branch2b <- res5a_branch2b
I0518 02:05:00.357722  7095 net.cpp:367] bn5a_branch2b -> res5a_branch2b (in-place)
I0518 02:05:00.358070  7095 net.cpp:122] Setting up bn5a_branch2b
I0518 02:05:00.358079  7095 net.cpp:129] Top shape: 1 512 7 7 (25088)
I0518 02:05:00.358083  7095 net.cpp:137] Memory required for data: 496943120
I0518 02:05:00.358088  7095 layer_factory.hpp:77] Creating layer scale5a_branch2b
I0518 02:05:00.358093  7095 net.cpp:84] Creating Layer scale5a_branch2b
I0518 02:05:00.358098  7095 net.cpp:406] scale5a_branch2b <- res5a_branch2b
I0518 02:05:00.358100  7095 net.cpp:367] scale5a_branch2b -> res5a_branch2b (in-place)
I0518 02:05:00.358173  7095 layer_factory.hpp:77] Creating layer scale5a_branch2b
I0518 02:05:00.358340  7095 net.cpp:122] Setting up scale5a_branch2b
I0518 02:05:00.358345  7095 net.cpp:129] Top shape: 1 512 7 7 (25088)
I0518 02:05:00.358347  7095 net.cpp:137] Memory required for data: 497043472
I0518 02:05:00.358352  7095 layer_factory.hpp:77] Creating layer res5a_branch2b_relu
I0518 02:05:00.358358  7095 net.cpp:84] Creating Layer res5a_branch2b_relu
I0518 02:05:00.358361  7095 net.cpp:406] res5a_branch2b_relu <- res5a_branch2b
I0518 02:05:00.358366  7095 net.cpp:367] res5a_branch2b_relu -> res5a_branch2b (in-place)
I0518 02:05:00.358863  7095 net.cpp:122] Setting up res5a_branch2b_relu
I0518 02:05:00.358870  7095 net.cpp:129] Top shape: 1 512 7 7 (25088)
I0518 02:05:00.358872  7095 net.cpp:137] Memory required for data: 497143824
I0518 02:05:00.358875  7095 layer_factory.hpp:77] Creating layer res5a_branch2c
I0518 02:05:00.358881  7095 net.cpp:84] Creating Layer res5a_branch2c
I0518 02:05:00.358883  7095 net.cpp:406] res5a_branch2c <- res5a_branch2b
I0518 02:05:00.358887  7095 net.cpp:380] res5a_branch2c -> res5a_branch2c
I0518 02:05:00.368305  7095 net.cpp:122] Setting up res5a_branch2c
I0518 02:05:00.368319  7095 net.cpp:129] Top shape: 1 2048 7 7 (100352)
I0518 02:05:00.368321  7095 net.cpp:137] Memory required for data: 497545232
I0518 02:05:00.368326  7095 layer_factory.hpp:77] Creating layer bn5a_branch2c
I0518 02:05:00.368331  7095 net.cpp:84] Creating Layer bn5a_branch2c
I0518 02:05:00.368335  7095 net.cpp:406] bn5a_branch2c <- res5a_branch2c
I0518 02:05:00.368338  7095 net.cpp:367] bn5a_branch2c -> res5a_branch2c (in-place)
I0518 02:05:00.368582  7095 net.cpp:122] Setting up bn5a_branch2c
I0518 02:05:00.368587  7095 net.cpp:129] Top shape: 1 2048 7 7 (100352)
I0518 02:05:00.368589  7095 net.cpp:137] Memory required for data: 497946640
I0518 02:05:00.368599  7095 layer_factory.hpp:77] Creating layer scale5a_branch2c
I0518 02:05:00.368604  7095 net.cpp:84] Creating Layer scale5a_branch2c
I0518 02:05:00.368607  7095 net.cpp:406] scale5a_branch2c <- res5a_branch2c
I0518 02:05:00.368609  7095 net.cpp:367] scale5a_branch2c -> res5a_branch2c (in-place)
I0518 02:05:00.368664  7095 layer_factory.hpp:77] Creating layer scale5a_branch2c
I0518 02:05:00.368789  7095 net.cpp:122] Setting up scale5a_branch2c
I0518 02:05:00.368793  7095 net.cpp:129] Top shape: 1 2048 7 7 (100352)
I0518 02:05:00.368795  7095 net.cpp:137] Memory required for data: 498348048
I0518 02:05:00.368798  7095 layer_factory.hpp:77] Creating layer res5a
I0518 02:05:00.368801  7095 net.cpp:84] Creating Layer res5a
I0518 02:05:00.368803  7095 net.cpp:406] res5a <- res5a_branch1
I0518 02:05:00.368806  7095 net.cpp:406] res5a <- res5a_branch2c
I0518 02:05:00.368809  7095 net.cpp:380] res5a -> res5a
I0518 02:05:00.368827  7095 net.cpp:122] Setting up res5a
I0518 02:05:00.368832  7095 net.cpp:129] Top shape: 1 2048 7 7 (100352)
I0518 02:05:00.368834  7095 net.cpp:137] Memory required for data: 498749456
I0518 02:05:00.368836  7095 layer_factory.hpp:77] Creating layer res5a_relu
I0518 02:05:00.368839  7095 net.cpp:84] Creating Layer res5a_relu
I0518 02:05:00.368841  7095 net.cpp:406] res5a_relu <- res5a
I0518 02:05:00.368844  7095 net.cpp:367] res5a_relu -> res5a (in-place)
I0518 02:05:00.369262  7095 net.cpp:122] Setting up res5a_relu
I0518 02:05:00.369267  7095 net.cpp:129] Top shape: 1 2048 7 7 (100352)
I0518 02:05:00.369269  7095 net.cpp:137] Memory required for data: 499150864
I0518 02:05:00.369271  7095 layer_factory.hpp:77] Creating layer res5a_res5a_relu_0_split
I0518 02:05:00.369274  7095 net.cpp:84] Creating Layer res5a_res5a_relu_0_split
I0518 02:05:00.369277  7095 net.cpp:406] res5a_res5a_relu_0_split <- res5a
I0518 02:05:00.369282  7095 net.cpp:380] res5a_res5a_relu_0_split -> res5a_res5a_relu_0_split_0
I0518 02:05:00.369287  7095 net.cpp:380] res5a_res5a_relu_0_split -> res5a_res5a_relu_0_split_1
I0518 02:05:00.369323  7095 net.cpp:122] Setting up res5a_res5a_relu_0_split
I0518 02:05:00.369328  7095 net.cpp:129] Top shape: 1 2048 7 7 (100352)
I0518 02:05:00.369331  7095 net.cpp:129] Top shape: 1 2048 7 7 (100352)
I0518 02:05:00.369333  7095 net.cpp:137] Memory required for data: 499953680
I0518 02:05:00.369336  7095 layer_factory.hpp:77] Creating layer res5b_branch2a
I0518 02:05:00.369343  7095 net.cpp:84] Creating Layer res5b_branch2a
I0518 02:05:00.369345  7095 net.cpp:406] res5b_branch2a <- res5a_res5a_relu_0_split_0
I0518 02:05:00.369349  7095 net.cpp:380] res5b_branch2a -> res5b_branch2a
I0518 02:05:00.379330  7095 net.cpp:122] Setting up res5b_branch2a
I0518 02:05:00.379346  7095 net.cpp:129] Top shape: 1 512 7 7 (25088)
I0518 02:05:00.379348  7095 net.cpp:137] Memory required for data: 500054032
I0518 02:05:00.379354  7095 layer_factory.hpp:77] Creating layer bn5b_branch2a
I0518 02:05:00.379360  7095 net.cpp:84] Creating Layer bn5b_branch2a
I0518 02:05:00.379364  7095 net.cpp:406] bn5b_branch2a <- res5b_branch2a
I0518 02:05:00.379367  7095 net.cpp:367] bn5b_branch2a -> res5b_branch2a (in-place)
I0518 02:05:00.379611  7095 net.cpp:122] Setting up bn5b_branch2a
I0518 02:05:00.379616  7095 net.cpp:129] Top shape: 1 512 7 7 (25088)
I0518 02:05:00.379618  7095 net.cpp:137] Memory required for data: 500154384
I0518 02:05:00.379622  7095 layer_factory.hpp:77] Creating layer scale5b_branch2a
I0518 02:05:00.379626  7095 net.cpp:84] Creating Layer scale5b_branch2a
I0518 02:05:00.379628  7095 net.cpp:406] scale5b_branch2a <- res5b_branch2a
I0518 02:05:00.379631  7095 net.cpp:367] scale5b_branch2a -> res5b_branch2a (in-place)
I0518 02:05:00.379686  7095 layer_factory.hpp:77] Creating layer scale5b_branch2a
I0518 02:05:00.379811  7095 net.cpp:122] Setting up scale5b_branch2a
I0518 02:05:00.379815  7095 net.cpp:129] Top shape: 1 512 7 7 (25088)
I0518 02:05:00.379817  7095 net.cpp:137] Memory required for data: 500254736
I0518 02:05:00.379819  7095 layer_factory.hpp:77] Creating layer res5b_branch2a_relu
I0518 02:05:00.379832  7095 net.cpp:84] Creating Layer res5b_branch2a_relu
I0518 02:05:00.379833  7095 net.cpp:406] res5b_branch2a_relu <- res5b_branch2a
I0518 02:05:00.379835  7095 net.cpp:367] res5b_branch2a_relu -> res5b_branch2a (in-place)
I0518 02:05:00.380461  7095 net.cpp:122] Setting up res5b_branch2a_relu
I0518 02:05:00.380468  7095 net.cpp:129] Top shape: 1 512 7 7 (25088)
I0518 02:05:00.380470  7095 net.cpp:137] Memory required for data: 500355088
I0518 02:05:00.380472  7095 layer_factory.hpp:77] Creating layer res5b_branch2b
I0518 02:05:00.380477  7095 net.cpp:84] Creating Layer res5b_branch2b
I0518 02:05:00.380481  7095 net.cpp:406] res5b_branch2b <- res5b_branch2a
I0518 02:05:00.380483  7095 net.cpp:380] res5b_branch2b -> res5b_branch2b
I0518 02:05:00.400180  7095 net.cpp:122] Setting up res5b_branch2b
I0518 02:05:00.400195  7095 net.cpp:129] Top shape: 1 512 7 7 (25088)
I0518 02:05:00.400197  7095 net.cpp:137] Memory required for data: 500455440
I0518 02:05:00.400202  7095 layer_factory.hpp:77] Creating layer bn5b_branch2b
I0518 02:05:00.400209  7095 net.cpp:84] Creating Layer bn5b_branch2b
I0518 02:05:00.400213  7095 net.cpp:406] bn5b_branch2b <- res5b_branch2b
I0518 02:05:00.400218  7095 net.cpp:367] bn5b_branch2b -> res5b_branch2b (in-place)
I0518 02:05:00.400465  7095 net.cpp:122] Setting up bn5b_branch2b
I0518 02:05:00.400470  7095 net.cpp:129] Top shape: 1 512 7 7 (25088)
I0518 02:05:00.400472  7095 net.cpp:137] Memory required for data: 500555792
I0518 02:05:00.400475  7095 layer_factory.hpp:77] Creating layer scale5b_branch2b
I0518 02:05:00.400480  7095 net.cpp:84] Creating Layer scale5b_branch2b
I0518 02:05:00.400482  7095 net.cpp:406] scale5b_branch2b <- res5b_branch2b
I0518 02:05:00.400485  7095 net.cpp:367] scale5b_branch2b -> res5b_branch2b (in-place)
I0518 02:05:00.400539  7095 layer_factory.hpp:77] Creating layer scale5b_branch2b
I0518 02:05:00.400665  7095 net.cpp:122] Setting up scale5b_branch2b
I0518 02:05:00.400668  7095 net.cpp:129] Top shape: 1 512 7 7 (25088)
I0518 02:05:00.400671  7095 net.cpp:137] Memory required for data: 500656144
I0518 02:05:00.400672  7095 layer_factory.hpp:77] Creating layer res5b_branch2b_relu
I0518 02:05:00.400677  7095 net.cpp:84] Creating Layer res5b_branch2b_relu
I0518 02:05:00.400679  7095 net.cpp:406] res5b_branch2b_relu <- res5b_branch2b
I0518 02:05:00.400682  7095 net.cpp:367] res5b_branch2b_relu -> res5b_branch2b (in-place)
I0518 02:05:00.401111  7095 net.cpp:122] Setting up res5b_branch2b_relu
I0518 02:05:00.401118  7095 net.cpp:129] Top shape: 1 512 7 7 (25088)
I0518 02:05:00.401119  7095 net.cpp:137] Memory required for data: 500756496
I0518 02:05:00.401121  7095 layer_factory.hpp:77] Creating layer res5b_branch2c
I0518 02:05:00.401126  7095 net.cpp:84] Creating Layer res5b_branch2c
I0518 02:05:00.401129  7095 net.cpp:406] res5b_branch2c <- res5b_branch2b
I0518 02:05:00.401132  7095 net.cpp:380] res5b_branch2c -> res5b_branch2c
I0518 02:05:00.411053  7095 net.cpp:122] Setting up res5b_branch2c
I0518 02:05:00.411068  7095 net.cpp:129] Top shape: 1 2048 7 7 (100352)
I0518 02:05:00.411070  7095 net.cpp:137] Memory required for data: 501157904
I0518 02:05:00.411075  7095 layer_factory.hpp:77] Creating layer bn5b_branch2c
I0518 02:05:00.411080  7095 net.cpp:84] Creating Layer bn5b_branch2c
I0518 02:05:00.411084  7095 net.cpp:406] bn5b_branch2c <- res5b_branch2c
I0518 02:05:00.411087  7095 net.cpp:367] bn5b_branch2c -> res5b_branch2c (in-place)
I0518 02:05:00.411353  7095 net.cpp:122] Setting up bn5b_branch2c
I0518 02:05:00.411358  7095 net.cpp:129] Top shape: 1 2048 7 7 (100352)
I0518 02:05:00.411360  7095 net.cpp:137] Memory required for data: 501559312
I0518 02:05:00.411365  7095 layer_factory.hpp:77] Creating layer scale5b_branch2c
I0518 02:05:00.411367  7095 net.cpp:84] Creating Layer scale5b_branch2c
I0518 02:05:00.411370  7095 net.cpp:406] scale5b_branch2c <- res5b_branch2c
I0518 02:05:00.411372  7095 net.cpp:367] scale5b_branch2c -> res5b_branch2c (in-place)
I0518 02:05:00.411427  7095 layer_factory.hpp:77] Creating layer scale5b_branch2c
I0518 02:05:00.411563  7095 net.cpp:122] Setting up scale5b_branch2c
I0518 02:05:00.411567  7095 net.cpp:129] Top shape: 1 2048 7 7 (100352)
I0518 02:05:00.411569  7095 net.cpp:137] Memory required for data: 501960720
I0518 02:05:00.411571  7095 layer_factory.hpp:77] Creating layer res5b
I0518 02:05:00.411576  7095 net.cpp:84] Creating Layer res5b
I0518 02:05:00.411578  7095 net.cpp:406] res5b <- res5a_res5a_relu_0_split_1
I0518 02:05:00.411581  7095 net.cpp:406] res5b <- res5b_branch2c
I0518 02:05:00.411584  7095 net.cpp:380] res5b -> res5b
I0518 02:05:00.411602  7095 net.cpp:122] Setting up res5b
I0518 02:05:00.411607  7095 net.cpp:129] Top shape: 1 2048 7 7 (100352)
I0518 02:05:00.411608  7095 net.cpp:137] Memory required for data: 502362128
I0518 02:05:00.411609  7095 layer_factory.hpp:77] Creating layer res5b_relu
I0518 02:05:00.411614  7095 net.cpp:84] Creating Layer res5b_relu
I0518 02:05:00.411617  7095 net.cpp:406] res5b_relu <- res5b
I0518 02:05:00.411619  7095 net.cpp:367] res5b_relu -> res5b (in-place)
I0518 02:05:00.412243  7095 net.cpp:122] Setting up res5b_relu
I0518 02:05:00.412250  7095 net.cpp:129] Top shape: 1 2048 7 7 (100352)
I0518 02:05:00.412252  7095 net.cpp:137] Memory required for data: 502763536
I0518 02:05:00.412255  7095 layer_factory.hpp:77] Creating layer res5b_res5b_relu_0_split
I0518 02:05:00.412259  7095 net.cpp:84] Creating Layer res5b_res5b_relu_0_split
I0518 02:05:00.412261  7095 net.cpp:406] res5b_res5b_relu_0_split <- res5b
I0518 02:05:00.412264  7095 net.cpp:380] res5b_res5b_relu_0_split -> res5b_res5b_relu_0_split_0
I0518 02:05:00.412268  7095 net.cpp:380] res5b_res5b_relu_0_split -> res5b_res5b_relu_0_split_1
I0518 02:05:00.412305  7095 net.cpp:122] Setting up res5b_res5b_relu_0_split
I0518 02:05:00.412308  7095 net.cpp:129] Top shape: 1 2048 7 7 (100352)
I0518 02:05:00.412312  7095 net.cpp:129] Top shape: 1 2048 7 7 (100352)
I0518 02:05:00.412312  7095 net.cpp:137] Memory required for data: 503566352
I0518 02:05:00.412314  7095 layer_factory.hpp:77] Creating layer res5c_branch2a
I0518 02:05:00.412319  7095 net.cpp:84] Creating Layer res5c_branch2a
I0518 02:05:00.412322  7095 net.cpp:406] res5c_branch2a <- res5b_res5b_relu_0_split_0
I0518 02:05:00.412325  7095 net.cpp:380] res5c_branch2a -> res5c_branch2a
I0518 02:05:00.421509  7095 net.cpp:122] Setting up res5c_branch2a
I0518 02:05:00.421522  7095 net.cpp:129] Top shape: 1 512 7 7 (25088)
I0518 02:05:00.421525  7095 net.cpp:137] Memory required for data: 503666704
I0518 02:05:00.421530  7095 layer_factory.hpp:77] Creating layer bn5c_branch2a
I0518 02:05:00.421535  7095 net.cpp:84] Creating Layer bn5c_branch2a
I0518 02:05:00.421538  7095 net.cpp:406] bn5c_branch2a <- res5c_branch2a
I0518 02:05:00.421542  7095 net.cpp:367] bn5c_branch2a -> res5c_branch2a (in-place)
I0518 02:05:00.421788  7095 net.cpp:122] Setting up bn5c_branch2a
I0518 02:05:00.421794  7095 net.cpp:129] Top shape: 1 512 7 7 (25088)
I0518 02:05:00.421795  7095 net.cpp:137] Memory required for data: 503767056
I0518 02:05:00.421799  7095 layer_factory.hpp:77] Creating layer scale5c_branch2a
I0518 02:05:00.421803  7095 net.cpp:84] Creating Layer scale5c_branch2a
I0518 02:05:00.421805  7095 net.cpp:406] scale5c_branch2a <- res5c_branch2a
I0518 02:05:00.421808  7095 net.cpp:367] scale5c_branch2a -> res5c_branch2a (in-place)
I0518 02:05:00.421861  7095 layer_factory.hpp:77] Creating layer scale5c_branch2a
I0518 02:05:00.421988  7095 net.cpp:122] Setting up scale5c_branch2a
I0518 02:05:00.421991  7095 net.cpp:129] Top shape: 1 512 7 7 (25088)
I0518 02:05:00.421993  7095 net.cpp:137] Memory required for data: 503867408
I0518 02:05:00.421996  7095 layer_factory.hpp:77] Creating layer res5c_branch2a_relu
I0518 02:05:00.422000  7095 net.cpp:84] Creating Layer res5c_branch2a_relu
I0518 02:05:00.422003  7095 net.cpp:406] res5c_branch2a_relu <- res5c_branch2a
I0518 02:05:00.422004  7095 net.cpp:367] res5c_branch2a_relu -> res5c_branch2a (in-place)
I0518 02:05:00.422427  7095 net.cpp:122] Setting up res5c_branch2a_relu
I0518 02:05:00.422439  7095 net.cpp:129] Top shape: 1 512 7 7 (25088)
I0518 02:05:00.422441  7095 net.cpp:137] Memory required for data: 503967760
I0518 02:05:00.422443  7095 layer_factory.hpp:77] Creating layer res5c_branch2b
I0518 02:05:00.422449  7095 net.cpp:84] Creating Layer res5c_branch2b
I0518 02:05:00.422451  7095 net.cpp:406] res5c_branch2b <- res5c_branch2a
I0518 02:05:00.422454  7095 net.cpp:380] res5c_branch2b -> res5c_branch2b
I0518 02:05:00.441607  7095 net.cpp:122] Setting up res5c_branch2b
I0518 02:05:00.441622  7095 net.cpp:129] Top shape: 1 512 7 7 (25088)
I0518 02:05:00.441624  7095 net.cpp:137] Memory required for data: 504068112
I0518 02:05:00.441628  7095 layer_factory.hpp:77] Creating layer bn5c_branch2b
I0518 02:05:00.441635  7095 net.cpp:84] Creating Layer bn5c_branch2b
I0518 02:05:00.441639  7095 net.cpp:406] bn5c_branch2b <- res5c_branch2b
I0518 02:05:00.441642  7095 net.cpp:367] bn5c_branch2b -> res5c_branch2b (in-place)
I0518 02:05:00.441900  7095 net.cpp:122] Setting up bn5c_branch2b
I0518 02:05:00.441905  7095 net.cpp:129] Top shape: 1 512 7 7 (25088)
I0518 02:05:00.441906  7095 net.cpp:137] Memory required for data: 504168464
I0518 02:05:00.441911  7095 layer_factory.hpp:77] Creating layer scale5c_branch2b
I0518 02:05:00.441915  7095 net.cpp:84] Creating Layer scale5c_branch2b
I0518 02:05:00.441917  7095 net.cpp:406] scale5c_branch2b <- res5c_branch2b
I0518 02:05:00.441920  7095 net.cpp:367] scale5c_branch2b -> res5c_branch2b (in-place)
I0518 02:05:00.441974  7095 layer_factory.hpp:77] Creating layer scale5c_branch2b
I0518 02:05:00.442104  7095 net.cpp:122] Setting up scale5c_branch2b
I0518 02:05:00.442108  7095 net.cpp:129] Top shape: 1 512 7 7 (25088)
I0518 02:05:00.442111  7095 net.cpp:137] Memory required for data: 504268816
I0518 02:05:00.442112  7095 layer_factory.hpp:77] Creating layer res5c_branch2b_relu
I0518 02:05:00.442116  7095 net.cpp:84] Creating Layer res5c_branch2b_relu
I0518 02:05:00.442119  7095 net.cpp:406] res5c_branch2b_relu <- res5c_branch2b
I0518 02:05:00.442121  7095 net.cpp:367] res5c_branch2b_relu -> res5c_branch2b (in-place)
I0518 02:05:00.442551  7095 net.cpp:122] Setting up res5c_branch2b_relu
I0518 02:05:00.442559  7095 net.cpp:129] Top shape: 1 512 7 7 (25088)
I0518 02:05:00.442560  7095 net.cpp:137] Memory required for data: 504369168
I0518 02:05:00.442562  7095 layer_factory.hpp:77] Creating layer res5c_branch2c
I0518 02:05:00.442567  7095 net.cpp:84] Creating Layer res5c_branch2c
I0518 02:05:00.442569  7095 net.cpp:406] res5c_branch2c <- res5c_branch2b
I0518 02:05:00.442572  7095 net.cpp:380] res5c_branch2c -> res5c_branch2c
I0518 02:05:00.451880  7095 net.cpp:122] Setting up res5c_branch2c
I0518 02:05:00.451894  7095 net.cpp:129] Top shape: 1 2048 7 7 (100352)
I0518 02:05:00.451895  7095 net.cpp:137] Memory required for data: 504770576
I0518 02:05:00.451900  7095 layer_factory.hpp:77] Creating layer bn5c_branch2c
I0518 02:05:00.451906  7095 net.cpp:84] Creating Layer bn5c_branch2c
I0518 02:05:00.451910  7095 net.cpp:406] bn5c_branch2c <- res5c_branch2c
I0518 02:05:00.451912  7095 net.cpp:367] bn5c_branch2c -> res5c_branch2c (in-place)
I0518 02:05:00.452167  7095 net.cpp:122] Setting up bn5c_branch2c
I0518 02:05:00.452173  7095 net.cpp:129] Top shape: 1 2048 7 7 (100352)
I0518 02:05:00.452174  7095 net.cpp:137] Memory required for data: 505171984
I0518 02:05:00.452178  7095 layer_factory.hpp:77] Creating layer scale5c_branch2c
I0518 02:05:00.452183  7095 net.cpp:84] Creating Layer scale5c_branch2c
I0518 02:05:00.452184  7095 net.cpp:406] scale5c_branch2c <- res5c_branch2c
I0518 02:05:00.452188  7095 net.cpp:367] scale5c_branch2c -> res5c_branch2c (in-place)
I0518 02:05:00.452244  7095 layer_factory.hpp:77] Creating layer scale5c_branch2c
I0518 02:05:00.452373  7095 net.cpp:122] Setting up scale5c_branch2c
I0518 02:05:00.452376  7095 net.cpp:129] Top shape: 1 2048 7 7 (100352)
I0518 02:05:00.452378  7095 net.cpp:137] Memory required for data: 505573392
I0518 02:05:00.452381  7095 layer_factory.hpp:77] Creating layer res5c
I0518 02:05:00.452385  7095 net.cpp:84] Creating Layer res5c
I0518 02:05:00.452397  7095 net.cpp:406] res5c <- res5b_res5b_relu_0_split_1
I0518 02:05:00.452399  7095 net.cpp:406] res5c <- res5c_branch2c
I0518 02:05:00.452402  7095 net.cpp:380] res5c -> res5c
I0518 02:05:00.452422  7095 net.cpp:122] Setting up res5c
I0518 02:05:00.452426  7095 net.cpp:129] Top shape: 1 2048 7 7 (100352)
I0518 02:05:00.452427  7095 net.cpp:137] Memory required for data: 505974800
I0518 02:05:00.452430  7095 layer_factory.hpp:77] Creating layer res5c_relu
I0518 02:05:00.452432  7095 net.cpp:84] Creating Layer res5c_relu
I0518 02:05:00.452435  7095 net.cpp:406] res5c_relu <- res5c
I0518 02:05:00.452436  7095 net.cpp:367] res5c_relu -> res5c (in-place)
I0518 02:05:00.453104  7095 net.cpp:122] Setting up res5c_relu
I0518 02:05:00.453111  7095 net.cpp:129] Top shape: 1 2048 7 7 (100352)
I0518 02:05:00.453114  7095 net.cpp:137] Memory required for data: 506376208
I0518 02:05:00.453115  7095 layer_factory.hpp:77] Creating layer pool5
I0518 02:05:00.453119  7095 net.cpp:84] Creating Layer pool5
I0518 02:05:00.453121  7095 net.cpp:406] pool5 <- res5c
I0518 02:05:00.453125  7095 net.cpp:380] pool5 -> pool5
I0518 02:05:00.453574  7095 net.cpp:122] Setting up pool5
I0518 02:05:00.453580  7095 net.cpp:129] Top shape: 1 2048 1 1 (2048)
I0518 02:05:00.453583  7095 net.cpp:137] Memory required for data: 506384400
I0518 02:05:00.453584  7095 layer_factory.hpp:77] Creating layer fc1000-skin
I0518 02:05:00.453589  7095 net.cpp:84] Creating Layer fc1000-skin
I0518 02:05:00.453593  7095 net.cpp:406] fc1000-skin <- pool5
I0518 02:05:00.453596  7095 net.cpp:380] fc1000-skin -> fc1000-skin
I0518 02:05:00.453802  7095 net.cpp:122] Setting up fc1000-skin
I0518 02:05:00.453806  7095 net.cpp:129] Top shape: 1 12 (12)
I0518 02:05:00.453809  7095 net.cpp:137] Memory required for data: 506384448
I0518 02:05:00.453811  7095 layer_factory.hpp:77] Creating layer fc1000-skin_fc1000-skin_0_split
I0518 02:05:00.453816  7095 net.cpp:84] Creating Layer fc1000-skin_fc1000-skin_0_split
I0518 02:05:00.453819  7095 net.cpp:406] fc1000-skin_fc1000-skin_0_split <- fc1000-skin
I0518 02:05:00.453821  7095 net.cpp:380] fc1000-skin_fc1000-skin_0_split -> fc1000-skin_fc1000-skin_0_split_0
I0518 02:05:00.453825  7095 net.cpp:380] fc1000-skin_fc1000-skin_0_split -> fc1000-skin_fc1000-skin_0_split_1
I0518 02:05:00.453829  7095 net.cpp:380] fc1000-skin_fc1000-skin_0_split -> fc1000-skin_fc1000-skin_0_split_2
I0518 02:05:00.453869  7095 net.cpp:122] Setting up fc1000-skin_fc1000-skin_0_split
I0518 02:05:00.453873  7095 net.cpp:129] Top shape: 1 12 (12)
I0518 02:05:00.453876  7095 net.cpp:129] Top shape: 1 12 (12)
I0518 02:05:00.453877  7095 net.cpp:129] Top shape: 1 12 (12)
I0518 02:05:00.453878  7095 net.cpp:137] Memory required for data: 506384592
I0518 02:05:00.453881  7095 layer_factory.hpp:77] Creating layer loss
I0518 02:05:00.453883  7095 net.cpp:84] Creating Layer loss
I0518 02:05:00.453886  7095 net.cpp:406] loss <- fc1000-skin_fc1000-skin_0_split_0
I0518 02:05:00.453888  7095 net.cpp:406] loss <- label_data_1_split_0
I0518 02:05:00.453891  7095 net.cpp:380] loss -> loss
…
