…
I0521 02:34:10.292848  2976 net.cpp:51] Initializing net from parameters: 
name: "ResNet-152"
state {
  phase: TRAIN
  level: 0
  stage: ""
}
layer {
  name: "data"
  type: "Data"
  top: "data"
  top: "label"
  include {
    phase: TRAIN
  }
  transform_param {
    mirror: true
    crop_size: 224
    mean_file: "/home/danilo/Documents/FGA/2018-1/TCC1/data/edited/Med_atlas_edin_29x_lmdb/input/mean.binaryproto"
  }
  data_param {
    source: "/home/danilo/Documents/FGA/2018-1/TCC1/data/edited/Med_atlas_edin_29x_lmdb/train"
    batch_size: 5
    backend: LMDB
  }
}
layer {
  name: "conv1"
  type: "Convolution"
  bottom: "data"
  top: "conv1"
  convolution_param {
    num_output: 64
    bias_term: false
    pad: 3
    kernel_size: 7
    stride: 2
    weight_filler {
      type: "msra"
    }
  }
}
layer {
  name: "bn_conv1"
  type: "BatchNorm"
  bottom: "conv1"
  top: "conv1"
  batch_norm_param {
    use_global_stats: false
  }
}
layer {
  name: "scale_conv1"
  type: "Scale"
  bottom: "conv1"
  top: "conv1"
  scale_param {
    bias_term: true
  }
}
layer {
  name: "conv1_relu"
  type: "ReLU"
  bottom: "conv1"
  top: "conv1"
}
layer {
  name: "pool1"
  type: "Pooling"
  bottom: "conv1"
  top: "pool1"
  pooling_param {
    pool: MAX
    kernel_size: 3
    stride: 2
  }
}
layer {
  name: "res2a_branch1"
  type: "Convolution"
  bottom: "pool1"
  top: "res2a_branch1"
  convolution_param {
    num_output: 256
    bias_term: false
    pad: 0
    kernel_size: 1
    stride: 1
    weight_filler {
      type: "msra"
    }
  }
}
layer {
  name: "bn2a_branch1"
  type: "BatchNorm"
  bottom: "res2a_branch1"
  top: "res2a_branch1"
  batch_norm_param {
    use_global_stats: false
  }
}
layer {
  name: "scale2a_branch1"
  type: "Scale"
  bottom: "res2a_branch1"
  top: "res2a_branch1"
  scale_param {
    bias_term: true
  }
}
layer {
  name: "res2a_branch2a"
  type: "Convolution"
  bottom: "pool1"
  top: "res2a_branch2a"
  convolution_param {
    num_output: 64
    bias_term: false
    pad: 0
    kernel_size: 1
    stride: 1
    weight_filler {
      type: "msra"
    }
  }
}
layer {
  name: "bn2a_branch2a"
  type: "BatchNorm"
  bottom: "res2a_branch2a"
  top: "res2a_branch2a"
  batch_norm_param {
    use_global_stats: false
  }
}
layer {
  name: "scale2a_branch2a"
  type: "Scale"
  bottom: "res2a_branch2a"
  top: "res2a_branch2a"
  scale_param {
    bias_term: true
  }
}
layer {
  name: "res2a_branch2a_relu"
  type: "ReLU"
  bottom: "res2a_branch2a"
  top: "res2a_branch2a"
}
layer {
  name: "res2a_branch2b"
  type: "Convolution"
  bottom: "res2a_branch2a"
  top: "res2a_branch2b"
  convolution_param {
    num_output: 64
    bias_term: false
    pad: 1
    kernel_size: 3
    stride: 1
    weight_filler {
      type: "msra"
    }
  }
}
layer {
  name: "bn2a_branch2b"
  type: "BatchNorm"
  bottom: "res2a_branch2b"
  top: "res2a_branch2b"
  batch_norm_param {
    use_global_stats: false
  }
}
layer {
  name: "scale2a_branch2b"
  type: "Scale"
  bottom: "res2a_branch2b"
  top: "res2a_branch2b"
  scale_param {
    bias_term: true
  }
}
layer {
  name: "res2a_branch2b_relu"
  type: "ReLU"
  bottom: "res2a_branch2b"
  top: "res2a_branch2b"
}
layer {
  name: "res2a_branch2c"
  type: "Convolution"
  bottom: "res2a_branch2b"
  top: "res2a_branch2c"
  convolution_param {
    num_output: 256
    bias_term: false
    pad: 0
    kernel_size: 1
    stride: 1
    weight_filler {
      type: "msra"
    }
  }
}
layer {
  name: "bn2a_branch2c"
  type: "BatchNorm"
  bottom: "res2a_branch2c"
  top: "res2a_branch2c"
  batch_norm_param {
    use_global_stats: false
  }
}
layer {
  name: "scale2a_branch2c"
  type: "Scale"
  bottom: "res2a_branch2c"
  top: "res2a_branch2c"
  scale_param {
    bias_term: true
  }
}
layer {
  name: "res2a"
  type: "Eltwise"
  bottom: "res2a_branch1"
  bottom: "res2a_branch2c"
  top: "res2a"
  eltwise_param {
    operation: SUM
  }
}
layer {
  name: "res2a_relu"
  type: "ReLU"
  bottom: "res2a"
  top: "res2a"
}
layer {
  name: "res2b_branch2a"
  type: "Convolution"
  bottom: "res2a"
  top: "res2b_branch2a"
  convolution_param {
    num_output: 64
    bias_term: false
    pad: 0
    kernel_size: 1
    stride: 1
    weight_filler {
      type: "msra"
    }
  }
}
layer {
  name: "bn2b_branch2a"
  type: "BatchNorm"
  bottom: "res2b_branch2a"
  top: "res2b_branch2a"
  batch_norm_param {
    use_global_stats: false
  }
}
layer {
  name: "scale2b_branch2a"
  type: "Scale"
  bottom: "res2b_branch2a"
  top: "res2b_branch2a"
  scale_param {
    bias_term: true
  }
}
layer {
  name: "res2b_branch2a_relu"
  type: "ReLU"
  bottom: "res2b_branch2a"
  top: "res2b_branch2a"
}
layer {
  name: "res2b_branch2b"
  type: "Convolution"
  bottom: "res2b_branch2a"
  top: "res2b_branch2b"
  convolution_param {
    num_output: 64
    bias_term: false
    pad: 1
    kernel_size: 3
    stride: 1
    weight_filler {
      type: "msra"
    }
  }
}
layer {
  name: "bn2b_branch2b"
  type: "BatchNorm"
  bottom: "res2b_branch2b"
  top: "res2b_branch2b"
  batch_norm_param {
    use_global_stats: false
  }
}
layer {
  name: "scale2b_branch2b"
  type: "Scale"
  bottom: "res2b_branch2b"
  top: "res2b_branch2b"
  scale_param {
    bias_term: true
  }
}
layer {
  name: "res2b_branch2b_relu"
  type: "ReLU"
  bottom: "res2b_branch2b"
  top: "res2b_branch2b"
}
layer {
  name: "res2b_branch2c"
  type: "Convolution"
  bottom: "res2b_branch2b"
  top: "res2b_branch2c"
  convolution_param {
    num_output: 256
    bias_term: false
    pad: 0
    kernel_size: 1
    stride: 1
    weight_filler {
      type: "msra"
    }
  }
}
layer {
  name: "bn2b_branch2c"
  type: "BatchNorm"
  bottom: "res2b_branch2c"
  top: "res2b_branch2c"
  batch_norm_param {
    use_global_stats: false
  }
}
layer {
  name: "scale2b_branch2c"
  type: "Scale"
  bottom: "res2b_branch2c"
  top: "res2b_branch2c"
  scale_param {
    bias_term: true
  }
}
layer {
  name: "res2b"
  type: "Eltwise"
  bottom: "res2a"
  bottom: "res2b_branch2c"
  top: "res2b"
  eltwise_param {
    operation: SUM
  }
}
layer {
  name: "res2b_relu"
  type: "ReLU"
  bottom: "res2b"
  top: "res2b"
}
layer {
  name: "res2c_branch2a"
  type: "Convolution"
  bottom: "res2b"
  top: "res2c_branch2a"
  convolution_param {
    num_output: 64
    bias_term: false
    pad: 0
    kernel_size: 1
    stride: 1
    weight_filler {
      type: "msra"
    }
  }
}
layer {
  name: "bn2c_branch2a"
  type: "BatchNorm"
  bottom: "res2c_branch2a"
  top: "res2c_branch2a"
  batch_norm_param {
    use_global_stats: false
  }
}
layer {
  name: "scale2c_branch2a"
  type: "Scale"
  bottom: "res2c_branch2a"
  top: "res2c_branch2a"
  scale_param {
    bias_term: true
  }
}
layer {
  name: "res2c_branch2a_relu"
  type: "ReLU"
  bottom: "res2c_branch2a"
  top: "res2c_branch2a"
}
layer {
  name: "res2c_branch2b"
  type: "Convolution"
  bottom: "res2c_branch2a"
  top: "res2c_branch2b"
  convolution_param {
    num_output: 64
    bias_term: false
    pad: 1
    kernel_size: 3
    stride: 1
    weight_filler {
      type: "msra"
    }
  }
}
layer {
  name: "bn2c_branch2b"
  type: "BatchNorm"
  bottom: "res2c_branch2b"
  top: "res2c_branch2b"
  batch_norm_param {
    use_global_stats: false
  }
}
layer {
  name: "scale2c_branch2b"
  type: "Scale"
  bottom: "res2c_branch2b"
  top: "res2c_branch2b"
  scale_param {
    bias_term: true
  }
}
layer {
  name: "res2c_branch2b_relu"
  type: "ReLU"
  bottom: "res2c_branch2b"
  top: "res2c_branch2b"
}
layer {
  name: "res2c_branch2c"
  type: "Convolution"
  bottom: "res2c_branch2b"
  top: "res2c_branch2c"
  convolution_param {
    num_output: 256
    bias_term: false
    pad: 0
    kernel_size: 1
    stride: 1
    weight_filler {
      type: "msra"
    }
  }
}
layer {
  name: "bn2c_branch2c"
  type: "BatchNorm"
  bottom: "res2c_branch2c"
  top: "res2c_branch2c"
  batch_norm_param {
    use_global_stats: false
  }
}
layer {
  name: "scale2c_branch2c"
  type: "Scale"
  bottom: "res2c_branch2c"
  top: "res2c_branch2c"
  scale_param {
    bias_term: true
  }
}
layer {
  name: "res2c"
  type: "Eltwise"
  bottom: "res2b"
  bottom: "res2c_branch2c"
  top: "res2c"
  eltwise_param {
    operation: SUM
  }
}
layer {
  name: "res2c_relu"
  type: "ReLU"
  bottom: "res2c"
  top: "res2c"
}
layer {
  name: "res3a_branch1"
  type: "Convolution"
  bottom: "res2c"
  top: "res3a_branch1"
  convolution_param {
    num_output: 512
    bias_term: false
    pad: 0
    kernel_size: 1
    stride: 2
    weight_filler {
      type: "msra"
    }
  }
}
layer {
  name: "bn3a_branch1"
  type: "BatchNorm"
  bottom: "res3a_branch1"
  top: "res3a_branch1"
  batch_norm_param {
    use_global_stats: false
  }
}
layer {
  name: "scale3a_branch1"
  type: "Scale"
  bottom: "res3a_branch1"
  top: "res3a_branch1"
  scale_param {
    bias_term: true
  }
}
layer {
  name: "res3a_branch2a"
  type: "Convolution"
  bottom: "res2c"
  top: "res3a_branch2a"
  convolution_param {
    num_output: 128
    bias_term: false
    pad: 0
    kernel_size: 1
    stride: 2
    weight_filler {
      type: "msra"
    }
  }
}
layer {
  name: "bn3a_branch2a"
  type: "BatchNorm"
  bottom: "res3a_branch2a"
  top: "res3a_branch2a"
  batch_norm_param {
    use_global_stats: false
  }
}
layer {
  name: "scale3a_branch2a"
  type: "Scale"
  bottom: "res3a_branch2a"
  top: "res3a_branch2a"
  scale_param {
    bias_term: true
  }
}
layer {
  name: "res3a_branch2a_relu"
  type: "ReLU"
  bottom: "res3a_branch2a"
  top: "res3a_branch2a"
}
layer {
  name: "res3a_branch2b"
  type: "Convolution"
  bottom: "res3a_branch2a"
  top: "res3a_branch2b"
  convolution_param {
    num_output: 128
    bias_term: false
    pad: 1
    kernel_size: 3
    stride: 1
    weight_filler {
      type: "msra"
    }
  }
}
layer {
  name: "bn3a_branch2b"
  type: "BatchNorm"
  bottom: "res3a_branch2b"
  top: "res3a_branch2b"
  batch_norm_param {
    use_global_stats: false
  }
}
layer {
  name: "scale3a_branch2b"
  type: "Scale"
  bottom: "res3a_branch2b"
  top: "res3a_branch2b"
  scale_param {
    bias_term: true
  }
}
layer {
  name: "res3a_branch2b_relu"
  type: "ReLU"
  bottom: "res3a_branch2b"
  top: "res3a_branch2b"
}
layer {
  name: "res3a_branch2c"
  type: "Convolution"
  bottom: "res3a_branch2b"
  top: "res3a_branch2c"
  convolution_param {
    num_output: 512
    bias_term: false
    pad: 0
    kernel_size: 1
    stride: 1
    weight_filler {
      type: "msra"
    }
  }
}
layer {
  name: "bn3a_branch2c"
  type: "BatchNorm"
  bottom: "res3a_branch2c"
  top: "res3a_branch2c"
  batch_norm_param {
    use_global_stats: false
  }
}
layer {
  name: "scale3a_branch2c"
  type: "Scale"
  bottom: "res3a_branch2c"
  top: "res3a_branch2c"
  scale_param {
    bias_term: true
  }
}
layer {
  name: "res3a"
  type: "Eltwise"
  bottom: "res3a_branch1"
  bottom: "res3a_branch2c"
  top: "res3a"
  eltwise_param {
    operation: SUM
  }
}
layer {
  name: "res3a_relu"
  type: "ReLU"
  bottom: "res3a"
  top: "res3a"
}
layer {
  name: "res3b1_branch2a"
  type: "Convolution"
  bottom: "res3a"
  top: "res3b1_branch2a"
  convolution_param {
    num_output: 128
    bias_term: false
    pad: 0
    kernel_size: 1
    stride: 1
    weight_filler {
      type: "msra"
    }
  }
}
layer {
  name: "bn3b1_branch2a"
  type: "BatchNorm"
  bottom: "res3b1_branch2a"
  top: "res3b1_branch2a"
  batch_norm_param {
    use_global_stats: false
  }
}
layer {
  name: "scale3b1_branch2a"
  type: "Scale"
  bottom: "res3b1_branch2a"
  top: "res3b1_branch2a"
  scale_param {
    bias_term: true
  }
}
layer {
  name: "res3b1_branch2a_relu"
  type: "ReLU"
  bottom: "res3b1_branch2a"
  top: "res3b1_branch2a"
}
layer {
  name: "res3b1_branch2b"
  type: "Convolution"
  bottom: "res3b1_branch2a"
  top: "res3b1_branch2b"
  convolution_param {
    num_output: 128
    bias_term: false
    pad: 1
    kernel_size: 3
    stride: 1
    weight_filler {
      type: "msra"
    }
  }
}
layer {
  name: "bn3b1_branch2b"
  type: "BatchNorm"
  bottom: "res3b1_branch2b"
  top: "res3b1_branch2b"
  batch_norm_param {
    use_global_stats: false
  }
}
layer {
  name: "scale3b1_branch2b"
  type: "Scale"
  bottom: "res3b1_branch2b"
  top: "res3b1_branch2b"
  scale_param {
    bias_term: true
  }
}
layer {
  name: "res3b1_branch2b_relu"
  type: "ReLU"
  bottom: "res3b1_branch2b"
  top: "res3b1_branch2b"
}
layer {
  name: "res3b1_branch2c"
  type: "Convolution"
  bottom: "res3b1_branch2b"
  top: "res3b1_branch2c"
  convolution_param {
    num_output: 512
    bias_term: false
    pad: 0
    kernel_size: 1
    stride: 1
    weight_filler {
      type: "msra"
    }
  }
}
layer {
  name: "bn3b1_branch2c"
  type: "BatchNorm"
  bottom: "res3b1_branch2c"
  top: "res3b1_branch2c"
  batch_norm_param {
    use_global_stats: false
  }
}
layer {
  name: "scale3b1_branch2c"
  type: "Scale"
  bottom: "res3b1_branch2c"
  top: "res3b1_branch2c"
  scale_param {
    bias_term: true
  }
}
layer {
  name: "res3b1"
  type: "Eltwise"
  bottom: "res3a"
  bottom: "res3b1_branch2c"
  top: "res3b1"
  eltwise_param {
    operation: SUM
  }
}
layer {
  name: "res3b1_relu"
  type: "ReLU"
  bottom: "res3b1"
  top: "res3b1"
}
layer {
  name: "res3b2_branch2a"
  type: "Convolution"
  bottom: "res3b1"
  top: "res3b2_branch2a"
  convolution_param {
    num_output: 128
    bias_term: false
    pad: 0
    kernel_size: 1
    stride: 1
    weight_filler {
      type: "msra"
    }
  }
}
layer {
  name: "bn3b2_branch2a"
  type: "BatchNorm"
  bottom: "res3b2_branch2a"
  top: "res3b2_branch2a"
  batch_norm_param {
    use_global_stats: false
  }
}
layer {
  name: "scale3b2_branch2a"
  type: "Scale"
  bottom: "res3b2_branch2a"
  top: "res3b2_branch2a"
  scale_param {
    bias_term: true
  }
}
layer {
  name: "res3b2_branch2a_relu"
  type: "ReLU"
  bottom: "res3b2_branch2a"
  top: "res3b2_branch2a"
}
layer {
  name: "res3b2_branch2b"
  type: "Convolution"
  bottom: "res3b2_branch2a"
  top: "res3b2_branch2b"
  convolution_param {
    num_output: 128
    bias_term: false
    pad: 1
    kernel_size: 3
    stride: 1
    weight_filler {
      type: "msra"
    }
  }
}
layer {
  name: "bn3b2_branch2b"
  type: "BatchNorm"
  bottom: "res3b2_branch2b"
  top: "res3b2_branch2b"
  batch_norm_param {
    use_global_stats: false
  }
}
layer {
  name: "scale3b2_branch2b"
  type: "Scale"
  bottom: "res3b2_branch2b"
  top: "res3b2_branch2b"
  scale_param {
    bias_term: true
  }
}
layer {
  name: "res3b2_branch2b_relu"
  type: "ReLU"
  bottom: "res3b2_branch2b"
  top: "res3b2_branch2b"
}
layer {
  name: "res3b2_branch2c"
  type: "Convolution"
  bottom: "res3b2_branch2b"
  top: "res3b2_branch2c"
  convolution_param {
    num_output: 512
    bias_term: false
    pad: 0
    kernel_size: 1
    stride: 1
    weight_filler {
      type: "msra"
    }
  }
}
layer {
  name: "bn3b2_branch2c"
  type: "BatchNorm"
  bottom: "res3b2_branch2c"
  top: "res3b2_branch2c"
  batch_norm_param {
    use_global_stats: false
  }
}
layer {
  name: "scale3b2_branch2c"
  type: "Scale"
  bottom: "res3b2_branch2c"
  top: "res3b2_branch2c"
  scale_param {
    bias_term: true
  }
}
layer {
  name: "res3b2"
  type: "Eltwise"
  bottom: "res3b1"
  bottom: "res3b2_branch2c"
  top: "res3b2"
  eltwise_param {
    operation: SUM
  }
}
layer {
  name: "res3b2_relu"
  type: "ReLU"
  bottom: "res3b2"
  top: "res3b2"
}
layer {
  name: "res3b3_branch2a"
  type: "Convolution"
  bottom: "res3b2"
  top: "res3b3_branch2a"
  convolution_param {
    num_output: 128
    bias_term: false
    pad: 0
    kernel_size: 1
    stride: 1
    weight_filler {
      type: "msra"
    }
  }
}
layer {
  name: "bn3b3_branch2a"
  type: "BatchNorm"
  bottom: "res3b3_branch2a"
  top: "res3b3_branch2a"
  batch_norm_param {
    use_global_stats: false
  }
}
layer {
  name: "scale3b3_branch2a"
  type: "Scale"
  bottom: "res3b3_branch2a"
  top: "res3b3_branch2a"
  scale_param {
    bias_term: true
  }
}
layer {
  name: "res3b3_branch2a_relu"
  type: "ReLU"
  bottom: "res3b3_branch2a"
  top: "res3b3_branch2a"
}
layer {
  name: "res3b3_branch2b"
  type: "Convolution"
  bottom: "res3b3_branch2a"
  top: "res3b3_branch2b"
  convolution_param {
    num_output: 128
    bias_term: false
    pad: 1
    kernel_size: 3
    stride: 1
    weight_filler {
      type: "msra"
    }
  }
}
layer {
  name: "bn3b3_branch2b"
  type: "BatchNorm"
  bottom: "res3b3_branch2b"
  top: "res3b3_branch2b"
  batch_norm_param {
    use_global_stats: false
  }
}
layer {
  name: "scale3b3_branch2b"
  type: "Scale"
  bottom: "res3b3_branch2b"
  top: "res3b3_branch2b"
  scale_param {
    bias_term: true
  }
}
layer {
  name: "res3b3_branch2b_relu"
  type: "ReLU"
  bottom: "res3b3_branch2b"
  top: "res3b3_branch2b"
}
layer {
  name: "res3b3_branch2c"
  type: "Convolution"
  bottom: "res3b3_branch2b"
  top: "res3b3_branch2c"
  convolution_param {
    num_output: 512
    bias_term: false
    pad: 0
    kernel_size: 1
    stride: 1
    weight_filler {
      type: "msra"
    }
  }
}
layer {
  name: "bn3b3_branch2c"
  type: "BatchNorm"
  bottom: "res3b3_branch2c"
  top: "res3b3_branch2c"
  batch_norm_param {
    use_global_stats: false
  }
}
layer {
  name: "scale3b3_branch2c"
  type: "Scale"
  bottom: "res3b3_branch2c"
  top: "res3b3_branch2c"
  scale_param {
    bias_term: true
  }
}
layer {
  name: "res3b3"
  type: "Eltwise"
  bottom: "res3b2"
  bottom: "res3b3_branch2c"
  top: "res3b3"
  eltwise_param {
    operation: SUM
  }
}
layer {
  name: "res3b3_relu"
  type: "ReLU"
  bottom: "res3b3"
  top: "res3b3"
}
layer {
  name: "res3b4_branch2a"
  type: "Convolution"
  bottom: "res3b3"
  top: "res3b4_branch2a"
  convolution_param {
    num_output: 128
    bias_term: false
    pad: 0
    kernel_size: 1
    stride: 1
    weight_filler {
      type: "msra"
    }
  }
}
layer {
  name: "bn3b4_branch2a"
  type: "BatchNorm"
  bottom: "res3b4_branch2a"
  top: "res3b4_branch2a"
  batch_norm_param {
    use_global_stats: false
  }
}
layer {
  name: "scale3b4_branch2a"
  type: "Scale"
  bottom: "res3b4_branch2a"
  top: "res3b4_branch2a"
  scale_param {
    bias_term: true
  }
}
layer {
  name: "res3b4_branch2a_relu"
  type: "ReLU"
  bottom: "res3b4_branch2a"
  top: "res3b4_branch2a"
}
layer {
  name: "res3b4_branch2b"
  type: "Convolution"
  bottom: "res3b4_branch2a"
  top: "res3b4_branch2b"
  convolution_param {
    num_output: 128
    bias_term: false
    pad: 1
    kernel_size: 3
    stride: 1
    weight_filler {
      type: "msra"
    }
  }
}
layer {
  name: "bn3b4_branch2b"
  type: "BatchNorm"
  bottom: "res3b4_branch2b"
  top: "res3b4_branch2b"
  batch_norm_param {
    use_global_stats: false
  }
}
layer {
  name: "scale3b4_branch2b"
  type: "Scale"
  bottom: "res3b4_branch2b"
  top: "res3b4_branch2b"
  scale_param {
    bias_term: true
  }
}
layer {
  name: "res3b4_branch2b_relu"
  type: "ReLU"
  bottom: "res3b4_branch2b"
  top: "res3b4_branch2b"
}
layer {
  name: "res3b4_branch2c"
  type: "Convolution"
  bottom: "res3b4_branch2b"
  top: "res3b4_branch2c"
  convolution_param {
    num_output: 512
    bias_term: false
    pad: 0
    kernel_size: 1
    stride: 1
    weight_filler {
      type: "msra"
    }
  }
}
layer {
  name: "bn3b4_branch2c"
  type: "BatchNorm"
  bottom: "res3b4_branch2c"
  top: "res3b4_branch2c"
  batch_norm_param {
    use_global_stats: false
  }
}
layer {
  name: "scale3b4_branch2c"
  type: "Scale"
  bottom: "res3b4_branch2c"
  top: "res3b4_branch2c"
  scale_param {
    bias_term: true
  }
}
layer {
  name: "res3b4"
  type: "Eltwise"
  bottom: "res3b3"
  bottom: "res3b4_branch2c"
  top: "res3b4"
  eltwise_param {
    operation: SUM
  }
}
layer {
  name: "res3b4_relu"
  type: "ReLU"
  bottom: "res3b4"
  top: "res3b4"
}
layer {
  name: "res3b5_branch2a"
  type: "Convolution"
  bottom: "res3b4"
  top: "res3b5_branch2a"
  convolution_param {
    num_output: 128
    bias_term: false
    pad: 0
    kernel_size: 1
    stride: 1
    weight_filler {
      type: "msra"
    }
  }
}
layer {
  name: "bn3b5_branch2a"
  type: "BatchNorm"
  bottom: "res3b5_branch2a"
  top: "res3b5_branch2a"
  batch_norm_param {
    use_global_stats: false
  }
}
layer {
  name: "scale3b5_branch2a"
  type: "Scale"
  bottom: "res3b5_branch2a"
  top: "res3b5_branch2a"
  scale_param {
    bias_term: true
  }
}
layer {
  name: "res3b5_branch2a_relu"
  type: "ReLU"
  bottom: "res3b5_branch2a"
  top: "res3b5_branch2a"
}
layer {
  name: "res3b5_branch2b"
  type: "Convolution"
  bottom: "res3b5_branch2a"
  top: "res3b5_branch2b"
  convolution_param {
    num_output: 128
    bias_term: false
    pad: 1
    kernel_size: 3
    stride: 1
    weight_filler {
      type: "msra"
    }
  }
}
layer {
  name: "bn3b5_branch2b"
  type: "BatchNorm"
  bottom: "res3b5_branch2b"
  top: "res3b5_branch2b"
  batch_norm_param {
    use_global_stats: false
  }
}
layer {
  name: "scale3b5_branch2b"
  type: "Scale"
  bottom: "res3b5_branch2b"
  top: "res3b5_branch2b"
  scale_param {
    bias_term: true
  }
}
layer {
  name: "res3b5_branch2b_relu"
  type: "ReLU"
  bottom: "res3b5_branch2b"
  top: "res3b5_branch2b"
}
layer {
  name: "res3b5_branch2c"
  type: "Convolution"
  bottom: "res3b5_branch2b"
  top: "res3b5_branch2c"
  convolution_param {
    num_output: 512
    bias_term: false
    pad: 0
    kernel_size: 1
    stride: 1
    weight_filler {
      type: "msra"
    }
  }
}
layer {
  name: "bn3b5_branch2c"
  type: "BatchNorm"
  bottom: "res3b5_branch2c"
  top: "res3b5_branch2c"
  batch_norm_param {
    use_global_stats: false
  }
}
layer {
  name: "scale3b5_branch2c"
  type: "Scale"
  bottom: "res3b5_branch2c"
  top: "res3b5_branch2c"
  scale_param {
    bias_term: true
  }
}
layer {
  name: "res3b5"
  type: "Eltwise"
  bottom: "res3b4"
  bottom: "res3b5_branch2c"
  top: "res3b5"
  eltwise_param {
    operation: SUM
  }
}
layer {
  name: "res3b5_relu"
  type: "ReLU"
  bottom: "res3b5"
  top: "res3b5"
}
layer {
  name: "res3b6_branch2a"
  type: "Convolution"
  bottom: "res3b5"
  top: "res3b6_branch2a"
  convolution_param {
    num_output: 128
    bias_term: false
    pad: 0
    kernel_size: 1
    stride: 1
    weight_filler {
      type: "msra"
    }
  }
}
layer {
  name: "bn3b6_branch2a"
  type: "BatchNorm"
  bottom: "res3b6_branch2a"
  top: "res3b6_branch2a"
  batch_norm_param {
    use_global_stats: false
  }
}
layer {
  name: "scale3b6_branch2a"
  type: "Scale"
  bottom: "res3b6_branch2a"
  top: "res3b6_branch2a"
  scale_param {
    bias_term: true
  }
}
layer {
  name: "res3b6_branch2a_relu"
  type: "ReLU"
  bottom: "res3b6_branch2a"
  top: "res3b6_branch2a"
}
layer {
  name: "res3b6_branch2b"
  type: "Convolution"
  bottom: "res3b6_branch2a"
  top: "res3b6_branch2b"
  convolution_param {
    num_output: 128
    bias_term: false
    pad: 1
    kernel_size: 3
    stride: 1
    weight_filler {
      type: "msra"
    }
  }
}
layer {
  name: "bn3b6_branch2b"
  type: "BatchNorm"
  bottom: "res3b6_branch2b"
  top: "res3b6_branch2b"
  batch_norm_param {
    use_global_stats: false
  }
}
layer {
  name: "scale3b6_branch2b"
  type: "Scale"
  bottom: "res3b6_branch2b"
  top: "res3b6_branch2b"
  scale_param {
    bias_term: true
  }
}
layer {
  name: "res3b6_branch2b_relu"
  type: "ReLU"
  bottom: "res3b6_branch2b"
  top: "res3b6_branch2b"
}
layer {
  name: "res3b6_branch2c"
  type: "Convolution"
  bottom: "res3b6_branch2b"
  top: "res3b6_branch2c"
  convolution_param {
    num_output: 512
    bias_term: false
    pad: 0
    kernel_size: 1
    stride: 1
    weight_filler {
      type: "msra"
    }
  }
}
layer {
  name: "bn3b6_branch2c"
  type: "BatchNorm"
  bottom: "res3b6_branch2c"
  top: "res3b6_branch2c"
  batch_norm_param {
    use_global_stats: false
  }
}
layer {
  name: "scale3b6_branch2c"
  type: "Scale"
  bottom: "res3b6_branch2c"
  top: "res3b6_branch2c"
  scale_param {
    bias_term: true
  }
}
layer {
  name: "res3b6"
  type: "Eltwise"
  bottom: "res3b5"
  bottom: "res3b6_branch2c"
  top: "res3b6"
  eltwise_param {
    operation: SUM
  }
}
layer {
  name: "res3b6_relu"
  type: "ReLU"
  bottom: "res3b6"
  top: "res3b6"
}
layer {
  name: "res3b7_branch2a"
  type: "Convolution"
  bottom: "res3b6"
  top: "res3b7_branch2a"
  convolution_param {
    num_output: 128
    bias_term: false
    pad: 0
    kernel_size: 1
    stride: 1
    weight_filler {
      type: "msra"
    }
  }
}
layer {
  name: "bn3b7_branch2a"
  type: "BatchNorm"
  bottom: "res3b7_branch2a"
  top: "res3b7_branch2a"
  batch_norm_param {
    use_global_stats: false
  }
}
layer {
  name: "scale3b7_branch2a"
  type: "Scale"
  bottom: "res3b7_branch2a"
  top: "res3b7_branch2a"
  scale_param {
    bias_term: true
  }
}
layer {
  name: "res3b7_branch2a_relu"
  type: "ReLU"
  bottom: "res3b7_branch2a"
  top: "res3b7_branch2a"
}
layer {
  name: "res3b7_branch2b"
  type: "Convolution"
  bottom: "res3b7_branch2a"
  top: "res3b7_branch2b"
  convolution_param {
    num_output: 128
    bias_term: false
    pad: 1
    kernel_size: 3
    stride: 1
    weight_filler {
      type: "msra"
    }
  }
}
layer {
  name: "bn3b7_branch2b"
  type: "BatchNorm"
  bottom: "res3b7_branch2b"
  top: "res3b7_branch2b"
  batch_norm_param {
    use_global_stats: false
  }
}
layer {
  name: "scale3b7_branch2b"
  type: "Scale"
  bottom: "res3b7_branch2b"
  top: "res3b7_branch2b"
  scale_param {
    bias_term: true
  }
}
layer {
  name: "res3b7_branch2b_relu"
  type: "ReLU"
  bottom: "res3b7_branch2b"
  top: "res3b7_branch2b"
}
layer {
  name: "res3b7_branch2c"
  type: "Convolution"
  bottom: "res3b7_branch2b"
  top: "res3b7_branch2c"
  convolution_param {
    num_output: 512
    bias_term: false
    pad: 0
    kernel_size: 1
    stride: 1
    weight_filler {
      type: "msra"
    }
  }
}
layer {
  name: "bn3b7_branch2c"
  type: "BatchNorm"
  bottom: "res3b7_branch2c"
  top: "res3b7_branch2c"
  batch_norm_param {
    use_global_stats: false
  }
}
layer {
  name: "scale3b7_branch2c"
  type: "Scale"
  bottom: "res3b7_branch2c"
  top: "res3b7_branch2c"
  scale_param {
    bias_term: true
  }
}
layer {
  name: "res3b7"
  type: "Eltwise"
  bottom: "res3b6"
  bottom: "res3b7_branch2c"
  top: "res3b7"
  eltwise_param {
    operation: SUM
  }
}
layer {
  name: "res3b7_relu"
  type: "ReLU"
  bottom: "res3b7"
  top: "res3b7"
}
layer {
  name: "res4a_branch1"
  type: "Convolution"
  bottom: "res3b7"
  top: "res4a_branch1"
  convolution_param {
    num_output: 1024
    bias_term: false
    pad: 0
    kernel_size: 1
    stride: 2
    weight_filler {
      type: "msra"
    }
  }
}
layer {
  name: "bn4a_branch1"
  type: "BatchNorm"
  bottom: "res4a_branch1"
  top: "res4a_branch1"
  batch_norm_param {
    use_global_stats: false
  }
}
layer {
  name: "scale4a_branch1"
  type: "Scale"
  bottom: "res4a_branch1"
  top: "res4a_branch1"
  scale_param {
    bias_term: true
  }
}
layer {
  name: "res4a_branch2a"
  type: "Convolution"
  bottom: "res3b7"
  top: "res4a_branch2a"
  convolution_param {
    num_output: 256
    bias_term: false
    pad: 0
    kernel_size: 1
    stride: 2
    weight_filler {
      type: "msra"
    }
  }
}
layer {
  name: "bn4a_branch2a"
  type: "BatchNorm"
  bottom: "res4a_branch2a"
  top: "res4a_branch2a"
  batch_norm_param {
    use_global_stats: false
  }
}
layer {
  name: "scale4a_branch2a"
  type: "Scale"
  bottom: "res4a_branch2a"
  top: "res4a_branch2a"
  scale_param {
    bias_term: true
  }
}
layer {
  name: "res4a_branch2a_relu"
  type: "ReLU"
  bottom: "res4a_branch2a"
  top: "res4a_branch2a"
}
layer {
  name: "res4a_branch2b"
  type: "Convolution"
  bottom: "res4a_branch2a"
  top: "res4a_branch2b"
  convolution_param {
    num_output: 256
    bias_term: false
    pad: 1
    kernel_size: 3
    stride: 1
    weight_filler {
      type: "msra"
    }
  }
}
layer {
  name: "bn4a_branch2b"
  type: "BatchNorm"
  bottom: "res4a_branch2b"
  top: "res4a_branch2b"
  batch_norm_param {
    use_global_stats: false
  }
}
layer {
  name: "scale4a_branch2b"
  type: "Scale"
  bottom: "res4a_branch2b"
  top: "res4a_branch2b"
  scale_param {
    bias_term: true
  }
}
layer {
  name: "res4a_branch2b_relu"
  type: "ReLU"
  bottom: "res4a_branch2b"
  top: "res4a_branch2b"
}
layer {
  name: "res4a_branch2c"
  type: "Convolution"
  bottom: "res4a_branch2b"
  top: "res4a_branch2c"
  convolution_param {
    num_output: 1024
    bias_term: false
    pad: 0
    kernel_size: 1
    stride: 1
    weight_filler {
      type: "msra"
    }
  }
}
layer {
  name: "bn4a_branch2c"
  type: "BatchNorm"
  bottom: "res4a_branch2c"
  top: "res4a_branch2c"
  batch_norm_param {
    use_global_stats: false
  }
}
layer {
  name: "scale4a_branch2c"
  type: "Scale"
  bottom: "res4a_branch2c"
  top: "res4a_branch2c"
  scale_param {
    bias_term: true
  }
}
layer {
  name: "res4a"
  type: "Eltwise"
  bottom: "res4a_branch1"
  bottom: "res4a_branch2c"
  top: "res4a"
  eltwise_param {
    operation: SUM
  }
}
layer {
  name: "res4a_relu"
  type: "ReLU"
  bottom: "res4a"
  top: "res4a"
}
layer {
  name: "res4b1_branch2a"
  type: "Convolution"
  bottom: "res4a"
  top: "res4b1_branch2a"
  convolution_param {
    num_output: 256
    bias_term: false
    pad: 0
    kernel_size: 1
    stride: 1
    weight_filler {
      type: "msra"
    }
  }
}
layer {
  name: "bn4b1_branch2a"
  type: "BatchNorm"
  bottom: "res4b1_branch2a"
  top: "res4b1_branch2a"
  batch_norm_param {
    use_global_stats: false
  }
}
layer {
  name: "scale4b1_branch2a"
  type: "Scale"
  bottom: "res4b1_branch2a"
  top: "res4b1_branch2a"
  scale_param {
    bias_term: true
  }
}
layer {
  name: "res4b1_branch2a_relu"
  type: "ReLU"
  bottom: "res4b1_branch2a"
  top: "res4b1_branch2a"
}
layer {
  name: "res4b1_branch2b"
  type: "Convolution"
  bottom: "res4b1_branch2a"
  top: "res4b1_branch2b"
  convolution_param {
    num_output: 256
    bias_term: false
    pad: 1
    kernel_size: 3
    stride: 1
    weight_filler {
      type: "msra"
    }
  }
}
layer {
  name: "bn4b1_branch2b"
  type: "BatchNorm"
  bottom: "res4b1_branch2b"
  top: "res4b1_branch2b"
  batch_norm_param {
    use_global_stats: false
  }
}
layer {
  name: "scale4b1_branch2b"
  type: "Scale"
  bottom: "res4b1_branch2b"
  top: "res4b1_branch2b"
  scale_param {
    bias_term: true
  }
}
layer {
  name: "
I0521 02:34:10.294296  2976 layer_factory.hpp:77] Creating layer data
I0521 02:34:10.346160  2976 db_lmdb.cpp:35] Opened lmdb /home/danilo/Documents/FGA/2018-1/TCC1/data/edited/Med_atlas_edin_29x_lmdb/train
I0521 02:34:10.381790  2976 net.cpp:84] Creating Layer data
I0521 02:34:10.381829  2976 net.cpp:380] data -> data
I0521 02:34:10.381857  2976 net.cpp:380] data -> label
I0521 02:34:10.381878  2976 data_transformer.cpp:25] Loading mean file from: /home/danilo/Documents/FGA/2018-1/TCC1/data/edited/Med_atlas_edin_29x_lmdb/input/mean.binaryproto
I0521 02:34:10.394850  2976 data_layer.cpp:45] output data size: 5,3,224,224
I0521 02:34:10.414446  2976 net.cpp:122] Setting up data
I0521 02:34:10.414500  2976 net.cpp:129] Top shape: 5 3 224 224 (752640)
I0521 02:34:10.414520  2976 net.cpp:129] Top shape: 5 (5)
I0521 02:34:10.414535  2976 net.cpp:137] Memory required for data: 3010580
I0521 02:34:10.414551  2976 layer_factory.hpp:77] Creating layer conv1
I0521 02:34:10.414588  2976 net.cpp:84] Creating Layer conv1
I0521 02:34:10.414610  2976 net.cpp:406] conv1 <- data
I0521 02:34:10.414640  2976 net.cpp:380] conv1 -> conv1
I0521 02:34:10.813030  2976 net.cpp:122] Setting up conv1
I0521 02:34:10.813045  2976 net.cpp:129] Top shape: 5 64 112 112 (4014080)
I0521 02:34:10.813048  2976 net.cpp:137] Memory required for data: 19066900
I0521 02:34:10.813055  2976 layer_factory.hpp:77] Creating layer bn_conv1
I0521 02:34:10.813063  2976 net.cpp:84] Creating Layer bn_conv1
I0521 02:34:10.813077  2976 net.cpp:406] bn_conv1 <- conv1
I0521 02:34:10.813082  2976 net.cpp:367] bn_conv1 -> conv1 (in-place)
I0521 02:34:10.813225  2976 net.cpp:122] Setting up bn_conv1
I0521 02:34:10.813230  2976 net.cpp:129] Top shape: 5 64 112 112 (4014080)
I0521 02:34:10.813232  2976 net.cpp:137] Memory required for data: 35123220
I0521 02:34:10.813239  2976 layer_factory.hpp:77] Creating layer scale_conv1
I0521 02:34:10.813246  2976 net.cpp:84] Creating Layer scale_conv1
I0521 02:34:10.813248  2976 net.cpp:406] scale_conv1 <- conv1
I0521 02:34:10.813253  2976 net.cpp:367] scale_conv1 -> conv1 (in-place)
I0521 02:34:10.813282  2976 layer_factory.hpp:77] Creating layer scale_conv1
I0521 02:34:10.813366  2976 net.cpp:122] Setting up scale_conv1
I0521 02:34:10.813370  2976 net.cpp:129] Top shape: 5 64 112 112 (4014080)
I0521 02:34:10.813374  2976 net.cpp:137] Memory required for data: 51179540
I0521 02:34:10.813379  2976 layer_factory.hpp:77] Creating layer conv1_relu
I0521 02:34:10.813385  2976 net.cpp:84] Creating Layer conv1_relu
I0521 02:34:10.813388  2976 net.cpp:406] conv1_relu <- conv1
I0521 02:34:10.813392  2976 net.cpp:367] conv1_relu -> conv1 (in-place)
I0521 02:34:10.813670  2976 net.cpp:122] Setting up conv1_relu
I0521 02:34:10.813676  2976 net.cpp:129] Top shape: 5 64 112 112 (4014080)
I0521 02:34:10.813679  2976 net.cpp:137] Memory required for data: 67235860
I0521 02:34:10.813683  2976 layer_factory.hpp:77] Creating layer pool1
I0521 02:34:10.813688  2976 net.cpp:84] Creating Layer pool1
I0521 02:34:10.813689  2976 net.cpp:406] pool1 <- conv1
I0521 02:34:10.813694  2976 net.cpp:380] pool1 -> pool1
I0521 02:34:10.813727  2976 net.cpp:122] Setting up pool1
I0521 02:34:10.813732  2976 net.cpp:129] Top shape: 5 64 56 56 (1003520)
I0521 02:34:10.813735  2976 net.cpp:137] Memory required for data: 71249940
I0521 02:34:10.813737  2976 layer_factory.hpp:77] Creating layer pool1_pool1_0_split
I0521 02:34:10.813742  2976 net.cpp:84] Creating Layer pool1_pool1_0_split
I0521 02:34:10.813746  2976 net.cpp:406] pool1_pool1_0_split <- pool1
I0521 02:34:10.813750  2976 net.cpp:380] pool1_pool1_0_split -> pool1_pool1_0_split_0
I0521 02:34:10.813756  2976 net.cpp:380] pool1_pool1_0_split -> pool1_pool1_0_split_1
I0521 02:34:10.813782  2976 net.cpp:122] Setting up pool1_pool1_0_split
I0521 02:34:10.813786  2976 net.cpp:129] Top shape: 5 64 56 56 (1003520)
I0521 02:34:10.813791  2976 net.cpp:129] Top shape: 5 64 56 56 (1003520)
I0521 02:34:10.813792  2976 net.cpp:137] Memory required for data: 79278100
I0521 02:34:10.813796  2976 layer_factory.hpp:77] Creating layer res2a_branch1
I0521 02:34:10.813802  2976 net.cpp:84] Creating Layer res2a_branch1
I0521 02:34:10.813805  2976 net.cpp:406] res2a_branch1 <- pool1_pool1_0_split_0
I0521 02:34:10.813809  2976 net.cpp:380] res2a_branch1 -> res2a_branch1
I0521 02:34:10.815059  2976 net.cpp:122] Setting up res2a_branch1
I0521 02:34:10.815068  2976 net.cpp:129] Top shape: 5 256 56 56 (4014080)
I0521 02:34:10.815070  2976 net.cpp:137] Memory required for data: 95334420
I0521 02:34:10.815078  2976 layer_factory.hpp:77] Creating layer bn2a_branch1
I0521 02:34:10.815084  2976 net.cpp:84] Creating Layer bn2a_branch1
I0521 02:34:10.815088  2976 net.cpp:406] bn2a_branch1 <- res2a_branch1
I0521 02:34:10.815091  2976 net.cpp:367] bn2a_branch1 -> res2a_branch1 (in-place)
I0521 02:34:10.815767  2976 net.cpp:122] Setting up bn2a_branch1
I0521 02:34:10.815773  2976 net.cpp:129] Top shape: 5 256 56 56 (4014080)
I0521 02:34:10.815776  2976 net.cpp:137] Memory required for data: 111390740
I0521 02:34:10.815783  2976 layer_factory.hpp:77] Creating layer scale2a_branch1
I0521 02:34:10.815788  2976 net.cpp:84] Creating Layer scale2a_branch1
I0521 02:34:10.815791  2976 net.cpp:406] scale2a_branch1 <- res2a_branch1
I0521 02:34:10.815795  2976 net.cpp:367] scale2a_branch1 -> res2a_branch1 (in-place)
I0521 02:34:10.815826  2976 layer_factory.hpp:77] Creating layer scale2a_branch1
I0521 02:34:10.815901  2976 net.cpp:122] Setting up scale2a_branch1
I0521 02:34:10.815907  2976 net.cpp:129] Top shape: 5 256 56 56 (4014080)
I0521 02:34:10.815917  2976 net.cpp:137] Memory required for data: 127447060
I0521 02:34:10.815922  2976 layer_factory.hpp:77] Creating layer res2a_branch2a
I0521 02:34:10.815928  2976 net.cpp:84] Creating Layer res2a_branch2a
I0521 02:34:10.815932  2976 net.cpp:406] res2a_branch2a <- pool1_pool1_0_split_1
I0521 02:34:10.815937  2976 net.cpp:380] res2a_branch2a -> res2a_branch2a
I0521 02:34:10.817028  2976 net.cpp:122] Setting up res2a_branch2a
I0521 02:34:10.817035  2976 net.cpp:129] Top shape: 5 64 56 56 (1003520)
I0521 02:34:10.817037  2976 net.cpp:137] Memory required for data: 131461140
I0521 02:34:10.817042  2976 layer_factory.hpp:77] Creating layer bn2a_branch2a
I0521 02:34:10.817046  2976 net.cpp:84] Creating Layer bn2a_branch2a
I0521 02:34:10.817052  2976 net.cpp:406] bn2a_branch2a <- res2a_branch2a
I0521 02:34:10.817056  2976 net.cpp:367] bn2a_branch2a -> res2a_branch2a (in-place)
I0521 02:34:10.817183  2976 net.cpp:122] Setting up bn2a_branch2a
I0521 02:34:10.817188  2976 net.cpp:129] Top shape: 5 64 56 56 (1003520)
I0521 02:34:10.817189  2976 net.cpp:137] Memory required for data: 135475220
I0521 02:34:10.817194  2976 layer_factory.hpp:77] Creating layer scale2a_branch2a
I0521 02:34:10.817200  2976 net.cpp:84] Creating Layer scale2a_branch2a
I0521 02:34:10.817203  2976 net.cpp:406] scale2a_branch2a <- res2a_branch2a
I0521 02:34:10.817207  2976 net.cpp:367] scale2a_branch2a -> res2a_branch2a (in-place)
I0521 02:34:10.817235  2976 layer_factory.hpp:77] Creating layer scale2a_branch2a
I0521 02:34:10.817315  2976 net.cpp:122] Setting up scale2a_branch2a
I0521 02:34:10.817320  2976 net.cpp:129] Top shape: 5 64 56 56 (1003520)
I0521 02:34:10.817322  2976 net.cpp:137] Memory required for data: 139489300
I0521 02:34:10.817328  2976 layer_factory.hpp:77] Creating layer res2a_branch2a_relu
I0521 02:34:10.817332  2976 net.cpp:84] Creating Layer res2a_branch2a_relu
I0521 02:34:10.817335  2976 net.cpp:406] res2a_branch2a_relu <- res2a_branch2a
I0521 02:34:10.817339  2976 net.cpp:367] res2a_branch2a_relu -> res2a_branch2a (in-place)
I0521 02:34:10.817620  2976 net.cpp:122] Setting up res2a_branch2a_relu
I0521 02:34:10.817625  2976 net.cpp:129] Top shape: 5 64 56 56 (1003520)
I0521 02:34:10.817628  2976 net.cpp:137] Memory required for data: 143503380
I0521 02:34:10.817631  2976 layer_factory.hpp:77] Creating layer res2a_branch2b
I0521 02:34:10.817636  2976 net.cpp:84] Creating Layer res2a_branch2b
I0521 02:34:10.817641  2976 net.cpp:406] res2a_branch2b <- res2a_branch2a
I0521 02:34:10.817644  2976 net.cpp:380] res2a_branch2b -> res2a_branch2b
I0521 02:34:10.819494  2976 net.cpp:122] Setting up res2a_branch2b
I0521 02:34:10.819502  2976 net.cpp:129] Top shape: 5 64 56 56 (1003520)
I0521 02:34:10.819504  2976 net.cpp:137] Memory required for data: 147517460
I0521 02:34:10.819509  2976 layer_factory.hpp:77] Creating layer bn2a_branch2b
I0521 02:34:10.819514  2976 net.cpp:84] Creating Layer bn2a_branch2b
I0521 02:34:10.819517  2976 net.cpp:406] bn2a_branch2b <- res2a_branch2b
I0521 02:34:10.819521  2976 net.cpp:367] bn2a_branch2b -> res2a_branch2b (in-place)
I0521 02:34:10.819656  2976 net.cpp:122] Setting up bn2a_branch2b
I0521 02:34:10.819661  2976 net.cpp:129] Top shape: 5 64 56 56 (1003520)
I0521 02:34:10.819664  2976 net.cpp:137] Memory required for data: 151531540
I0521 02:34:10.819669  2976 layer_factory.hpp:77] Creating layer scale2a_branch2b
I0521 02:34:10.819675  2976 net.cpp:84] Creating Layer scale2a_branch2b
I0521 02:34:10.819679  2976 net.cpp:406] scale2a_branch2b <- res2a_branch2b
I0521 02:34:10.819684  2976 net.cpp:367] scale2a_branch2b -> res2a_branch2b (in-place)
I0521 02:34:10.819710  2976 layer_factory.hpp:77] Creating layer scale2a_branch2b
I0521 02:34:10.819789  2976 net.cpp:122] Setting up scale2a_branch2b
I0521 02:34:10.819794  2976 net.cpp:129] Top shape: 5 64 56 56 (1003520)
I0521 02:34:10.819797  2976 net.cpp:137] Memory required for data: 155545620
I0521 02:34:10.819802  2976 layer_factory.hpp:77] Creating layer res2a_branch2b_relu
I0521 02:34:10.819805  2976 net.cpp:84] Creating Layer res2a_branch2b_relu
I0521 02:34:10.819814  2976 net.cpp:406] res2a_branch2b_relu <- res2a_branch2b
I0521 02:34:10.819818  2976 net.cpp:367] res2a_branch2b_relu -> res2a_branch2b (in-place)
I0521 02:34:10.820200  2976 net.cpp:122] Setting up res2a_branch2b_relu
I0521 02:34:10.820207  2976 net.cpp:129] Top shape: 5 64 56 56 (1003520)
I0521 02:34:10.820210  2976 net.cpp:137] Memory required for data: 159559700
I0521 02:34:10.820214  2976 layer_factory.hpp:77] Creating layer res2a_branch2c
I0521 02:34:10.820219  2976 net.cpp:84] Creating Layer res2a_branch2c
I0521 02:34:10.820224  2976 net.cpp:406] res2a_branch2c <- res2a_branch2b
I0521 02:34:10.820228  2976 net.cpp:380] res2a_branch2c -> res2a_branch2c
I0521 02:34:10.821393  2976 net.cpp:122] Setting up res2a_branch2c
I0521 02:34:10.821400  2976 net.cpp:129] Top shape: 5 256 56 56 (4014080)
I0521 02:34:10.821403  2976 net.cpp:137] Memory required for data: 175616020
I0521 02:34:10.821408  2976 layer_factory.hpp:77] Creating layer bn2a_branch2c
I0521 02:34:10.821413  2976 net.cpp:84] Creating Layer bn2a_branch2c
I0521 02:34:10.821415  2976 net.cpp:406] bn2a_branch2c <- res2a_branch2c
I0521 02:34:10.821421  2976 net.cpp:367] bn2a_branch2c -> res2a_branch2c (in-place)
I0521 02:34:10.821549  2976 net.cpp:122] Setting up bn2a_branch2c
I0521 02:34:10.821554  2976 net.cpp:129] Top shape: 5 256 56 56 (4014080)
I0521 02:34:10.821557  2976 net.cpp:137] Memory required for data: 191672340
I0521 02:34:10.821563  2976 layer_factory.hpp:77] Creating layer scale2a_branch2c
I0521 02:34:10.821568  2976 net.cpp:84] Creating Layer scale2a_branch2c
I0521 02:34:10.821570  2976 net.cpp:406] scale2a_branch2c <- res2a_branch2c
I0521 02:34:10.821574  2976 net.cpp:367] scale2a_branch2c -> res2a_branch2c (in-place)
I0521 02:34:10.821602  2976 layer_factory.hpp:77] Creating layer scale2a_branch2c
I0521 02:34:10.821678  2976 net.cpp:122] Setting up scale2a_branch2c
I0521 02:34:10.821683  2976 net.cpp:129] Top shape: 5 256 56 56 (4014080)
I0521 02:34:10.821686  2976 net.cpp:137] Memory required for data: 207728660
I0521 02:34:10.821691  2976 layer_factory.hpp:77] Creating layer res2a
I0521 02:34:10.821696  2976 net.cpp:84] Creating Layer res2a
I0521 02:34:10.821699  2976 net.cpp:406] res2a <- res2a_branch1
I0521 02:34:10.821704  2976 net.cpp:406] res2a <- res2a_branch2c
I0521 02:34:10.821708  2976 net.cpp:380] res2a -> res2a
I0521 02:34:10.821727  2976 net.cpp:122] Setting up res2a
I0521 02:34:10.821732  2976 net.cpp:129] Top shape: 5 256 56 56 (4014080)
I0521 02:34:10.821733  2976 net.cpp:137] Memory required for data: 223784980
I0521 02:34:10.821736  2976 layer_factory.hpp:77] Creating layer res2a_relu
I0521 02:34:10.821744  2976 net.cpp:84] Creating Layer res2a_relu
I0521 02:34:10.821748  2976 net.cpp:406] res2a_relu <- res2a
I0521 02:34:10.821751  2976 net.cpp:367] res2a_relu -> res2a (in-place)
I0521 02:34:10.822034  2976 net.cpp:122] Setting up res2a_relu
I0521 02:34:10.822041  2976 net.cpp:129] Top shape: 5 256 56 56 (4014080)
I0521 02:34:10.822043  2976 net.cpp:137] Memory required for data: 239841300
I0521 02:34:10.822046  2976 layer_factory.hpp:77] Creating layer res2a_res2a_relu_0_split
I0521 02:34:10.822051  2976 net.cpp:84] Creating Layer res2a_res2a_relu_0_split
I0521 02:34:10.822053  2976 net.cpp:406] res2a_res2a_relu_0_split <- res2a
I0521 02:34:10.822057  2976 net.cpp:380] res2a_res2a_relu_0_split -> res2a_res2a_relu_0_split_0
I0521 02:34:10.822064  2976 net.cpp:380] res2a_res2a_relu_0_split -> res2a_res2a_relu_0_split_1
I0521 02:34:10.822093  2976 net.cpp:122] Setting up res2a_res2a_relu_0_split
I0521 02:34:10.822098  2976 net.cpp:129] Top shape: 5 256 56 56 (4014080)
I0521 02:34:10.822101  2976 net.cpp:129] Top shape: 5 256 56 56 (4014080)
I0521 02:34:10.822103  2976 net.cpp:137] Memory required for data: 271953940
I0521 02:34:10.822106  2976 layer_factory.hpp:77] Creating layer res2b_branch2a
I0521 02:34:10.822111  2976 net.cpp:84] Creating Layer res2b_branch2a
I0521 02:34:10.822114  2976 net.cpp:406] res2b_branch2a <- res2a_res2a_relu_0_split_0
I0521 02:34:10.822124  2976 net.cpp:380] res2b_branch2a -> res2b_branch2a
I0521 02:34:10.823442  2976 net.cpp:122] Setting up res2b_branch2a
I0521 02:34:10.823451  2976 net.cpp:129] Top shape: 5 64 56 56 (1003520)
I0521 02:34:10.823453  2976 net.cpp:137] Memory required for data: 275968020
I0521 02:34:10.823457  2976 layer_factory.hpp:77] Creating layer bn2b_branch2a
I0521 02:34:10.823462  2976 net.cpp:84] Creating Layer bn2b_branch2a
I0521 02:34:10.823465  2976 net.cpp:406] bn2b_branch2a <- res2b_branch2a
I0521 02:34:10.823469  2976 net.cpp:367] bn2b_branch2a -> res2b_branch2a (in-place)
I0521 02:34:10.823607  2976 net.cpp:122] Setting up bn2b_branch2a
I0521 02:34:10.823612  2976 net.cpp:129] Top shape: 5 64 56 56 (1003520)
I0521 02:34:10.823614  2976 net.cpp:137] Memory required for data: 279982100
I0521 02:34:10.823622  2976 layer_factory.hpp:77] Creating layer scale2b_branch2a
I0521 02:34:10.823627  2976 net.cpp:84] Creating Layer scale2b_branch2a
I0521 02:34:10.823631  2976 net.cpp:406] scale2b_branch2a <- res2b_branch2a
I0521 02:34:10.823634  2976 net.cpp:367] scale2b_branch2a -> res2b_branch2a (in-place)
I0521 02:34:10.823662  2976 layer_factory.hpp:77] Creating layer scale2b_branch2a
I0521 02:34:10.823743  2976 net.cpp:122] Setting up scale2b_branch2a
I0521 02:34:10.823748  2976 net.cpp:129] Top shape: 5 64 56 56 (1003520)
I0521 02:34:10.823750  2976 net.cpp:137] Memory required for data: 283996180
I0521 02:34:10.823755  2976 layer_factory.hpp:77] Creating layer res2b_branch2a_relu
I0521 02:34:10.823760  2976 net.cpp:84] Creating Layer res2b_branch2a_relu
I0521 02:34:10.823763  2976 net.cpp:406] res2b_branch2a_relu <- res2b_branch2a
I0521 02:34:10.823767  2976 net.cpp:367] res2b_branch2a_relu -> res2b_branch2a (in-place)
I0521 02:34:10.824050  2976 net.cpp:122] Setting up res2b_branch2a_relu
I0521 02:34:10.824057  2976 net.cpp:129] Top shape: 5 64 56 56 (1003520)
I0521 02:34:10.824059  2976 net.cpp:137] Memory required for data: 288010260
I0521 02:34:10.824062  2976 layer_factory.hpp:77] Creating layer res2b_branch2b
I0521 02:34:10.824067  2976 net.cpp:84] Creating Layer res2b_branch2b
I0521 02:34:10.824069  2976 net.cpp:406] res2b_branch2b <- res2b_branch2a
I0521 02:34:10.824072  2976 net.cpp:380] res2b_branch2b -> res2b_branch2b
I0521 02:34:10.825541  2976 net.cpp:122] Setting up res2b_branch2b
I0521 02:34:10.825548  2976 net.cpp:129] Top shape: 5 64 56 56 (1003520)
I0521 02:34:10.825551  2976 net.cpp:137] Memory required for data: 292024340
I0521 02:34:10.825553  2976 layer_factory.hpp:77] Creating layer bn2b_branch2b
I0521 02:34:10.825557  2976 net.cpp:84] Creating Layer bn2b_branch2b
I0521 02:34:10.825559  2976 net.cpp:406] bn2b_branch2b <- res2b_branch2b
I0521 02:34:10.825562  2976 net.cpp:367] bn2b_branch2b -> res2b_branch2b (in-place)
I0521 02:34:10.825714  2976 net.cpp:122] Setting up bn2b_branch2b
I0521 02:34:10.825718  2976 net.cpp:129] Top shape: 5 64 56 56 (1003520)
I0521 02:34:10.825721  2976 net.cpp:137] Memory required for data: 296038420
I0521 02:34:10.825723  2976 layer_factory.hpp:77] Creating layer scale2b_branch2b
I0521 02:34:10.825726  2976 net.cpp:84] Creating Layer scale2b_branch2b
I0521 02:34:10.825728  2976 net.cpp:406] scale2b_branch2b <- res2b_branch2b
I0521 02:34:10.825731  2976 net.cpp:367] scale2b_branch2b -> res2b_branch2b (in-place)
I0521 02:34:10.825755  2976 layer_factory.hpp:77] Creating layer scale2b_branch2b
I0521 02:34:10.825834  2976 net.cpp:122] Setting up scale2b_branch2b
I0521 02:34:10.825836  2976 net.cpp:129] Top shape: 5 64 56 56 (1003520)
I0521 02:34:10.825839  2976 net.cpp:137] Memory required for data: 300052500
I0521 02:34:10.825841  2976 layer_factory.hpp:77] Creating layer res2b_branch2b_relu
I0521 02:34:10.825844  2976 net.cpp:84] Creating Layer res2b_branch2b_relu
I0521 02:34:10.825845  2976 net.cpp:406] res2b_branch2b_relu <- res2b_branch2b
I0521 02:34:10.825848  2976 net.cpp:367] res2b_branch2b_relu -> res2b_branch2b (in-place)
I0521 02:34:10.826228  2976 net.cpp:122] Setting up res2b_branch2b_relu
I0521 02:34:10.826234  2976 net.cpp:129] Top shape: 5 64 56 56 (1003520)
I0521 02:34:10.826241  2976 net.cpp:137] Memory required for data: 304066580
I0521 02:34:10.826243  2976 layer_factory.hpp:77] Creating layer res2b_branch2c
I0521 02:34:10.826248  2976 net.cpp:84] Creating Layer res2b_branch2c
I0521 02:34:10.826251  2976 net.cpp:406] res2b_branch2c <- res2b_branch2b
I0521 02:34:10.826253  2976 net.cpp:380] res2b_branch2c -> res2b_branch2c
I0521 02:34:10.827433  2976 net.cpp:122] Setting up res2b_branch2c
I0521 02:34:10.827440  2976 net.cpp:129] Top shape: 5 256 56 56 (4014080)
I0521 02:34:10.827442  2976 net.cpp:137] Memory required for data: 320122900
I0521 02:34:10.827445  2976 layer_factory.hpp:77] Creating layer bn2b_branch2c
I0521 02:34:10.827448  2976 net.cpp:84] Creating Layer bn2b_branch2c
I0521 02:34:10.827450  2976 net.cpp:406] bn2b_branch2c <- res2b_branch2c
I0521 02:34:10.827453  2976 net.cpp:367] bn2b_branch2c -> res2b_branch2c (in-place)
I0521 02:34:10.827582  2976 net.cpp:122] Setting up bn2b_branch2c
I0521 02:34:10.827586  2976 net.cpp:129] Top shape: 5 256 56 56 (4014080)
I0521 02:34:10.827589  2976 net.cpp:137] Memory required for data: 336179220
I0521 02:34:10.827591  2976 layer_factory.hpp:77] Creating layer scale2b_branch2c
I0521 02:34:10.827594  2976 net.cpp:84] Creating Layer scale2b_branch2c
I0521 02:34:10.827596  2976 net.cpp:406] scale2b_branch2c <- res2b_branch2c
I0521 02:34:10.827600  2976 net.cpp:367] scale2b_branch2c -> res2b_branch2c (in-place)
I0521 02:34:10.827622  2976 layer_factory.hpp:77] Creating layer scale2b_branch2c
I0521 02:34:10.827693  2976 net.cpp:122] Setting up scale2b_branch2c
I0521 02:34:10.827697  2976 net.cpp:129] Top shape: 5 256 56 56 (4014080)
I0521 02:34:10.827698  2976 net.cpp:137] Memory required for data: 352235540
I0521 02:34:10.827702  2976 layer_factory.hpp:77] Creating layer res2b
I0521 02:34:10.827704  2976 net.cpp:84] Creating Layer res2b
I0521 02:34:10.827706  2976 net.cpp:406] res2b <- res2a_res2a_relu_0_split_1
I0521 02:34:10.827708  2976 net.cpp:406] res2b <- res2b_branch2c
I0521 02:34:10.827711  2976 net.cpp:380] res2b -> res2b
I0521 02:34:10.827725  2976 net.cpp:122] Setting up res2b
I0521 02:34:10.827728  2976 net.cpp:129] Top shape: 5 256 56 56 (4014080)
I0521 02:34:10.827730  2976 net.cpp:137] Memory required for data: 368291860
I0521 02:34:10.827733  2976 layer_factory.hpp:77] Creating layer res2b_relu
I0521 02:34:10.827735  2976 net.cpp:84] Creating Layer res2b_relu
I0521 02:34:10.827738  2976 net.cpp:406] res2b_relu <- res2b
I0521 02:34:10.827739  2976 net.cpp:367] res2b_relu -> res2b (in-place)
I0521 02:34:10.828013  2976 net.cpp:122] Setting up res2b_relu
I0521 02:34:10.828018  2976 net.cpp:129] Top shape: 5 256 56 56 (4014080)
I0521 02:34:10.828021  2976 net.cpp:137] Memory required for data: 384348180
I0521 02:34:10.828022  2976 layer_factory.hpp:77] Creating layer res2b_res2b_relu_0_split
I0521 02:34:10.828025  2976 net.cpp:84] Creating Layer res2b_res2b_relu_0_split
I0521 02:34:10.828027  2976 net.cpp:406] res2b_res2b_relu_0_split <- res2b
I0521 02:34:10.828029  2976 net.cpp:380] res2b_res2b_relu_0_split -> res2b_res2b_relu_0_split_0
I0521 02:34:10.828033  2976 net.cpp:380] res2b_res2b_relu_0_split -> res2b_res2b_relu_0_split_1
I0521 02:34:10.828058  2976 net.cpp:122] Setting up res2b_res2b_relu_0_split
I0521 02:34:10.828063  2976 net.cpp:129] Top shape: 5 256 56 56 (4014080)
I0521 02:34:10.828064  2976 net.cpp:129] Top shape: 5 256 56 56 (4014080)
I0521 02:34:10.828066  2976 net.cpp:137] Memory required for data: 416460820
I0521 02:34:10.828068  2976 layer_factory.hpp:77] Creating layer res2c_branch2a
I0521 02:34:10.828071  2976 net.cpp:84] Creating Layer res2c_branch2a
I0521 02:34:10.828074  2976 net.cpp:406] res2c_branch2a <- res2b_res2b_relu_0_split_0
I0521 02:34:10.828078  2976 net.cpp:380] res2c_branch2a -> res2c_branch2a
I0521 02:34:10.829362  2976 net.cpp:122] Setting up res2c_branch2a
I0521 02:34:10.829370  2976 net.cpp:129] Top shape: 5 64 56 56 (1003520)
I0521 02:34:10.829371  2976 net.cpp:137] Memory required for data: 420474900
I0521 02:34:10.829375  2976 layer_factory.hpp:77] Creating layer bn2c_branch2a
I0521 02:34:10.829383  2976 net.cpp:84] Creating Layer bn2c_branch2a
I0521 02:34:10.829385  2976 net.cpp:406] bn2c_branch2a <- res2c_branch2a
I0521 02:34:10.829388  2976 net.cpp:367] bn2c_branch2a -> res2c_branch2a (in-place)
I0521 02:34:10.829532  2976 net.cpp:122] Setting up bn2c_branch2a
I0521 02:34:10.829536  2976 net.cpp:129] Top shape: 5 64 56 56 (1003520)
I0521 02:34:10.829538  2976 net.cpp:137] Memory required for data: 424488980
I0521 02:34:10.829541  2976 layer_factory.hpp:77] Creating layer scale2c_branch2a
I0521 02:34:10.829545  2976 net.cpp:84] Creating Layer scale2c_branch2a
I0521 02:34:10.829547  2976 net.cpp:406] scale2c_branch2a <- res2c_branch2a
I0521 02:34:10.829550  2976 net.cpp:367] scale2c_branch2a -> res2c_branch2a (in-place)
I0521 02:34:10.829574  2976 layer_factory.hpp:77] Creating layer scale2c_branch2a
I0521 02:34:10.829658  2976 net.cpp:122] Setting up scale2c_branch2a
I0521 02:34:10.829660  2976 net.cpp:129] Top shape: 5 64 56 56 (1003520)
I0521 02:34:10.829663  2976 net.cpp:137] Memory required for data: 428503060
I0521 02:34:10.829665  2976 layer_factory.hpp:77] Creating layer res2c_branch2a_relu
I0521 02:34:10.829668  2976 net.cpp:84] Creating Layer res2c_branch2a_relu
I0521 02:34:10.829670  2976 net.cpp:406] res2c_branch2a_relu <- res2c_branch2a
I0521 02:34:10.829674  2976 net.cpp:367] res2c_branch2a_relu -> res2c_branch2a (in-place)
I0521 02:34:10.830116  2976 net.cpp:122] Setting up res2c_branch2a_relu
I0521 02:34:10.830121  2976 net.cpp:129] Top shape: 5 64 56 56 (1003520)
I0521 02:34:10.830123  2976 net.cpp:137] Memory required for data: 432517140
I0521 02:34:10.830126  2976 layer_factory.hpp:77] Creating layer res2c_branch2b
I0521 02:34:10.830129  2976 net.cpp:84] Creating Layer res2c_branch2b
I0521 02:34:10.830132  2976 net.cpp:406] res2c_branch2b <- res2c_branch2a
I0521 02:34:10.830134  2976 net.cpp:380] res2c_branch2b -> res2c_branch2b
I0521 02:34:10.831653  2976 net.cpp:122] Setting up res2c_branch2b
I0521 02:34:10.831660  2976 net.cpp:129] Top shape: 5 64 56 56 (1003520)
I0521 02:34:10.831662  2976 net.cpp:137] Memory required for data: 436531220
I0521 02:34:10.831665  2976 layer_factory.hpp:77] Creating layer bn2c_branch2b
I0521 02:34:10.831668  2976 net.cpp:84] Creating Layer bn2c_branch2b
I0521 02:34:10.831670  2976 net.cpp:406] bn2c_branch2b <- res2c_branch2b
I0521 02:34:10.831674  2976 net.cpp:367] bn2c_branch2b -> res2c_branch2b (in-place)
I0521 02:34:10.831828  2976 net.cpp:122] Setting up bn2c_branch2b
I0521 02:34:10.831833  2976 net.cpp:129] Top shape: 5 64 56 56 (1003520)
I0521 02:34:10.831835  2976 net.cpp:137] Memory required for data: 440545300
I0521 02:34:10.831838  2976 layer_factory.hpp:77] Creating layer scale2c_branch2b
I0521 02:34:10.831842  2976 net.cpp:84] Creating Layer scale2c_branch2b
I0521 02:34:10.831845  2976 net.cpp:406] scale2c_branch2b <- res2c_branch2b
I0521 02:34:10.831847  2976 net.cpp:367] scale2c_branch2b -> res2c_branch2b (in-place)
I0521 02:34:10.831872  2976 layer_factory.hpp:77] Creating layer scale2c_branch2b
I0521 02:34:10.831956  2976 net.cpp:122] Setting up scale2c_branch2b
I0521 02:34:10.831961  2976 net.cpp:129] Top shape: 5 64 56 56 (1003520)
I0521 02:34:10.831964  2976 net.cpp:137] Memory required for data: 444559380
I0521 02:34:10.831967  2976 layer_factory.hpp:77] Creating layer res2c_branch2b_relu
I0521 02:34:10.831972  2976 net.cpp:84] Creating Layer res2c_branch2b_relu
I0521 02:34:10.831976  2976 net.cpp:406] res2c_branch2b_relu <- res2c_branch2b
I0521 02:34:10.831979  2976 net.cpp:367] res2c_branch2b_relu -> res2c_branch2b (in-place)
I0521 02:34:10.832337  2976 net.cpp:122] Setting up res2c_branch2b_relu
I0521 02:34:10.832343  2976 net.cpp:129] Top shape: 5 64 56 56 (1003520)
I0521 02:34:10.832345  2976 net.cpp:137] Memory required for data: 448573460
I0521 02:34:10.832347  2976 layer_factory.hpp:77] Creating layer res2c_branch2c
I0521 02:34:10.832352  2976 net.cpp:84] Creating Layer res2c_branch2c
I0521 02:34:10.832355  2976 net.cpp:406] res2c_branch2c <- res2c_branch2b
I0521 02:34:10.832357  2976 net.cpp:380] res2c_branch2c -> res2c_branch2c
I0521 02:34:10.834061  2976 net.cpp:122] Setting up res2c_branch2c
I0521 02:34:10.834069  2976 net.cpp:129] Top shape: 5 256 56 56 (4014080)
I0521 02:34:10.834071  2976 net.cpp:137] Memory required for data: 464629780
I0521 02:34:10.834074  2976 layer_factory.hpp:77] Creating layer bn2c_branch2c
I0521 02:34:10.834079  2976 net.cpp:84] Creating Layer bn2c_branch2c
I0521 02:34:10.834081  2976 net.cpp:406] bn2c_branch2c <- res2c_branch2c
I0521 02:34:10.834084  2976 net.cpp:367] bn2c_branch2c -> res2c_branch2c (in-place)
I0521 02:34:10.834224  2976 net.cpp:122] Setting up bn2c_branch2c
I0521 02:34:10.834228  2976 net.cpp:129] Top shape: 5 256 56 56 (4014080)
I0521 02:34:10.834229  2976 net.cpp:137] Memory required for data: 480686100
I0521 02:34:10.834233  2976 layer_factory.hpp:77] Creating layer scale2c_branch2c
I0521 02:34:10.834236  2976 net.cpp:84] Creating Layer scale2c_branch2c
I0521 02:34:10.834239  2976 net.cpp:406] scale2c_branch2c <- res2c_branch2c
I0521 02:34:10.834240  2976 net.cpp:367] scale2c_branch2c -> res2c_branch2c (in-place)
I0521 02:34:10.834269  2976 layer_factory.hpp:77] Creating layer scale2c_branch2c
I0521 02:34:10.834345  2976 net.cpp:122] Setting up scale2c_branch2c
I0521 02:34:10.834349  2976 net.cpp:129] Top shape: 5 256 56 56 (4014080)
I0521 02:34:10.834352  2976 net.cpp:137] Memory required for data: 496742420
I0521 02:34:10.834357  2976 layer_factory.hpp:77] Creating layer res2c
I0521 02:34:10.834362  2976 net.cpp:84] Creating Layer res2c
I0521 02:34:10.834364  2976 net.cpp:406] res2c <- res2b_res2b_relu_0_split_1
I0521 02:34:10.834367  2976 net.cpp:406] res2c <- res2c_branch2c
I0521 02:34:10.834368  2976 net.cpp:380] res2c -> res2c
I0521 02:34:10.834384  2976 net.cpp:122] Setting up res2c
I0521 02:34:10.834388  2976 net.cpp:129] Top shape: 5 256 56 56 (4014080)
I0521 02:34:10.834389  2976 net.cpp:137] Memory required for data: 512798740
I0521 02:34:10.834391  2976 layer_factory.hpp:77] Creating layer res2c_relu
I0521 02:34:10.834393  2976 net.cpp:84] Creating Layer res2c_relu
I0521 02:34:10.834395  2976 net.cpp:406] res2c_relu <- res2c
I0521 02:34:10.834398  2976 net.cpp:367] res2c_relu -> res2c (in-place)
I0521 02:34:10.834738  2976 net.cpp:122] Setting up res2c_relu
I0521 02:34:10.834744  2976 net.cpp:129] Top shape: 5 256 56 56 (4014080)
I0521 02:34:10.834745  2976 net.cpp:137] Memory required for data: 528855060
I0521 02:34:10.834748  2976 layer_factory.hpp:77] Creating layer res2c_res2c_relu_0_split
I0521 02:34:10.834751  2976 net.cpp:84] Creating Layer res2c_res2c_relu_0_split
I0521 02:34:10.834753  2976 net.cpp:406] res2c_res2c_relu_0_split <- res2c
I0521 02:34:10.834756  2976 net.cpp:380] res2c_res2c_relu_0_split -> res2c_res2c_relu_0_split_0
I0521 02:34:10.834761  2976 net.cpp:380] res2c_res2c_relu_0_split -> res2c_res2c_relu_0_split_1
I0521 02:34:10.834789  2976 net.cpp:122] Setting up res2c_res2c_relu_0_split
I0521 02:34:10.834794  2976 net.cpp:129] Top shape: 5 256 56 56 (4014080)
I0521 02:34:10.834795  2976 net.cpp:129] Top shape: 5 256 56 56 (4014080)
I0521 02:34:10.834796  2976 net.cpp:137] Memory required for data: 560967700
I0521 02:34:10.834798  2976 layer_factory.hpp:77] Creating layer res3a_branch1
I0521 02:34:10.834803  2976 net.cpp:84] Creating Layer res3a_branch1
I0521 02:34:10.834805  2976 net.cpp:406] res3a_branch1 <- res2c_res2c_relu_0_split_0
I0521 02:34:10.834808  2976 net.cpp:380] res3a_branch1 -> res3a_branch1
I0521 02:34:10.837036  2976 net.cpp:122] Setting up res3a_branch1
I0521 02:34:10.837044  2976 net.cpp:129] Top shape: 5 512 28 28 (2007040)
I0521 02:34:10.837045  2976 net.cpp:137] Memory required for data: 568995860
I0521 02:34:10.837049  2976 layer_factory.hpp:77] Creating layer bn3a_branch1
I0521 02:34:10.837054  2976 net.cpp:84] Creating Layer bn3a_branch1
I0521 02:34:10.837055  2976 net.cpp:406] bn3a_branch1 <- res3a_branch1
I0521 02:34:10.837059  2976 net.cpp:367] bn3a_branch1 -> res3a_branch1 (in-place)
I0521 02:34:10.837750  2976 net.cpp:122] Setting up bn3a_branch1
I0521 02:34:10.837756  2976 net.cpp:129] Top shape: 5 512 28 28 (2007040)
I0521 02:34:10.837764  2976 net.cpp:137] Memory required for data: 577024020
I0521 02:34:10.837769  2976 layer_factory.hpp:77] Creating layer scale3a_branch1
I0521 02:34:10.837771  2976 net.cpp:84] Creating Layer scale3a_branch1
I0521 02:34:10.837774  2976 net.cpp:406] scale3a_branch1 <- res3a_branch1
I0521 02:34:10.837776  2976 net.cpp:367] scale3a_branch1 -> res3a_branch1 (in-place)
I0521 02:34:10.837806  2976 layer_factory.hpp:77] Creating layer scale3a_branch1
I0521 02:34:10.837884  2976 net.cpp:122] Setting up scale3a_branch1
I0521 02:34:10.837888  2976 net.cpp:129] Top shape: 5 512 28 28 (2007040)
I0521 02:34:10.837889  2976 net.cpp:137] Memory required for data: 585052180
I0521 02:34:10.837893  2976 layer_factory.hpp:77] Creating layer res3a_branch2a
I0521 02:34:10.837898  2976 net.cpp:84] Creating Layer res3a_branch2a
I0521 02:34:10.837899  2976 net.cpp:406] res3a_branch2a <- res2c_res2c_relu_0_split_1
I0521 02:34:10.837901  2976 net.cpp:380] res3a_branch2a -> res3a_branch2a
I0521 02:34:10.839507  2976 net.cpp:122] Setting up res3a_branch2a
I0521 02:34:10.839514  2976 net.cpp:129] Top shape: 5 128 28 28 (501760)
I0521 02:34:10.839516  2976 net.cpp:137] Memory required for data: 587059220
I0521 02:34:10.839519  2976 layer_factory.hpp:77] Creating layer bn3a_branch2a
I0521 02:34:10.839524  2976 net.cpp:84] Creating Layer bn3a_branch2a
I0521 02:34:10.839525  2976 net.cpp:406] bn3a_branch2a <- res3a_branch2a
I0521 02:34:10.839529  2976 net.cpp:367] bn3a_branch2a -> res3a_branch2a (in-place)
I0521 02:34:10.839666  2976 net.cpp:122] Setting up bn3a_branch2a
I0521 02:34:10.839670  2976 net.cpp:129] Top shape: 5 128 28 28 (501760)
I0521 02:34:10.839673  2976 net.cpp:137] Memory required for data: 589066260
I0521 02:34:10.839675  2976 layer_factory.hpp:77] Creating layer scale3a_branch2a
I0521 02:34:10.839679  2976 net.cpp:84] Creating Layer scale3a_branch2a
I0521 02:34:10.839680  2976 net.cpp:406] scale3a_branch2a <- res3a_branch2a
I0521 02:34:10.839682  2976 net.cpp:367] scale3a_branch2a -> res3a_branch2a (in-place)
I0521 02:34:10.839709  2976 layer_factory.hpp:77] Creating layer scale3a_branch2a
I0521 02:34:10.839784  2976 net.cpp:122] Setting up scale3a_branch2a
I0521 02:34:10.839787  2976 net.cpp:129] Top shape: 5 128 28 28 (501760)
I0521 02:34:10.839789  2976 net.cpp:137] Memory required for data: 591073300
I0521 02:34:10.839792  2976 layer_factory.hpp:77] Creating layer res3a_branch2a_relu
I0521 02:34:10.839797  2976 net.cpp:84] Creating Layer res3a_branch2a_relu
I0521 02:34:10.839798  2976 net.cpp:406] res3a_branch2a_relu <- res3a_branch2a
I0521 02:34:10.839800  2976 net.cpp:367] res3a_branch2a_relu -> res3a_branch2a (in-place)
I0521 02:34:10.840252  2976 net.cpp:122] Setting up res3a_branch2a_relu
I0521 02:34:10.840258  2976 net.cpp:129] Top shape: 5 128 28 28 (501760)
I0521 02:34:10.840260  2976 net.cpp:137] Memory required for data: 593080340
I0521 02:34:10.840262  2976 layer_factory.hpp:77] Creating layer res3a_branch2b
I0521 02:34:10.840267  2976 net.cpp:84] Creating Layer res3a_branch2b
I0521 02:34:10.840270  2976 net.cpp:406] res3a_branch2b <- res3a_branch2a
I0521 02:34:10.840272  2976 net.cpp:380] res3a_branch2b -> res3a_branch2b
I0521 02:34:10.843067  2976 net.cpp:122] Setting up res3a_branch2b
I0521 02:34:10.843076  2976 net.cpp:129] Top shape: 5 128 28 28 (501760)
I0521 02:34:10.843078  2976 net.cpp:137] Memory required for data: 595087380
I0521 02:34:10.843081  2976 layer_factory.hpp:77] Creating layer bn3a_branch2b
I0521 02:34:10.843086  2976 net.cpp:84] Creating Layer bn3a_branch2b
I0521 02:34:10.843088  2976 net.cpp:406] bn3a_branch2b <- res3a_branch2b
I0521 02:34:10.843091  2976 net.cpp:367] bn3a_branch2b -> res3a_branch2b (in-place)
I0521 02:34:10.843237  2976 net.cpp:122] Setting up bn3a_branch2b
I0521 02:34:10.843241  2976 net.cpp:129] Top shape: 5 128 28 28 (501760)
I0521 02:34:10.843243  2976 net.cpp:137] Memory required for data: 597094420
I0521 02:34:10.843246  2976 layer_factory.hpp:77] Creating layer scale3a_branch2b
I0521 02:34:10.843250  2976 net.cpp:84] Creating Layer scale3a_branch2b
I0521 02:34:10.843257  2976 net.cpp:406] scale3a_branch2b <- res3a_branch2b
I0521 02:34:10.843260  2976 net.cpp:367] scale3a_branch2b -> res3a_branch2b (in-place)
I0521 02:34:10.843287  2976 layer_factory.hpp:77] Creating layer scale3a_branch2b
I0521 02:34:10.843367  2976 net.cpp:122] Setting up scale3a_branch2b
I0521 02:34:10.843371  2976 net.cpp:129] Top shape: 5 128 28 28 (501760)
I0521 02:34:10.843374  2976 net.cpp:137] Memory required for data: 599101460
I0521 02:34:10.843375  2976 layer_factory.hpp:77] Creating layer res3a_branch2b_relu
I0521 02:34:10.843379  2976 net.cpp:84] Creating Layer res3a_branch2b_relu
I0521 02:34:10.843380  2976 net.cpp:406] res3a_branch2b_relu <- res3a_branch2b
I0521 02:34:10.843382  2976 net.cpp:367] res3a_branch2b_relu -> res3a_branch2b (in-place)
I0521 02:34:10.843729  2976 net.cpp:122] Setting up res3a_branch2b_relu
I0521 02:34:10.843734  2976 net.cpp:129] Top shape: 5 128 28 28 (501760)
I0521 02:34:10.843735  2976 net.cpp:137] Memory required for data: 601108500
I0521 02:34:10.843737  2976 layer_factory.hpp:77] Creating layer res3a_branch2c
I0521 02:34:10.843742  2976 net.cpp:84] Creating Layer res3a_branch2c
I0521 02:34:10.843744  2976 net.cpp:406] res3a_branch2c <- res3a_branch2b
I0521 02:34:10.843747  2976 net.cpp:380] res3a_branch2c -> res3a_branch2c
I0521 02:34:10.845669  2976 net.cpp:122] Setting up res3a_branch2c
I0521 02:34:10.845676  2976 net.cpp:129] Top shape: 5 512 28 28 (2007040)
I0521 02:34:10.845679  2976 net.cpp:137] Memory required for data: 609136660
I0521 02:34:10.845681  2976 layer_factory.hpp:77] Creating layer bn3a_branch2c
I0521 02:34:10.845690  2976 net.cpp:84] Creating Layer bn3a_branch2c
I0521 02:34:10.845691  2976 net.cpp:406] bn3a_branch2c <- res3a_branch2c
I0521 02:34:10.845695  2976 net.cpp:367] bn3a_branch2c -> res3a_branch2c (in-place)
I0521 02:34:10.845837  2976 net.cpp:122] Setting up bn3a_branch2c
I0521 02:34:10.845841  2976 net.cpp:129] Top shape: 5 512 28 28 (2007040)
I0521 02:34:10.845842  2976 net.cpp:137] Memory required for data: 617164820
I0521 02:34:10.845846  2976 layer_factory.hpp:77] Creating layer scale3a_branch2c
I0521 02:34:10.845850  2976 net.cpp:84] Creating Layer scale3a_branch2c
I0521 02:34:10.845852  2976 net.cpp:406] scale3a_branch2c <- res3a_branch2c
I0521 02:34:10.845854  2976 net.cpp:367] scale3a_branch2c -> res3a_branch2c (in-place)
I0521 02:34:10.845880  2976 layer_factory.hpp:77] Creating layer scale3a_branch2c
I0521 02:34:10.845958  2976 net.cpp:122] Setting up scale3a_branch2c
I0521 02:34:10.845963  2976 net.cpp:129] Top shape: 5 512 28 28 (2007040)
I0521 02:34:10.845964  2976 net.cpp:137] Memory required for data: 625192980
I0521 02:34:10.845966  2976 layer_factory.hpp:77] Creating layer res3a
I0521 02:34:10.845970  2976 net.cpp:84] Creating Layer res3a
I0521 02:34:10.845973  2976 net.cpp:406] res3a <- res3a_branch1
I0521 02:34:10.845975  2976 net.cpp:406] res3a <- res3a_branch2c
I0521 02:34:10.845978  2976 net.cpp:380] res3a -> res3a
I0521 02:34:10.845993  2976 net.cpp:122] Setting up res3a
I0521 02:34:10.845996  2976 net.cpp:129] Top shape: 5 512 28 28 (2007040)
I0521 02:34:10.845999  2976 net.cpp:137] Memory required for data: 633221140
I0521 02:34:10.846000  2976 layer_factory.hpp:77] Creating layer res3a_relu
I0521 02:34:10.846002  2976 net.cpp:84] Creating Layer res3a_relu
I0521 02:34:10.846004  2976 net.cpp:406] res3a_relu <- res3a
I0521 02:34:10.846007  2976 net.cpp:367] res3a_relu -> res3a (in-place)
I0521 02:34:10.846354  2976 net.cpp:122] Setting up res3a_relu
I0521 02:34:10.846359  2976 net.cpp:129] Top shape: 5 512 28 28 (2007040)
I0521 02:34:10.846360  2976 net.cpp:137] Memory required for data: 641249300
I0521 02:34:10.846362  2976 layer_factory.hpp:77] Creating layer res3a_res3a_relu_0_split
I0521 02:34:10.846366  2976 net.cpp:84] Creating Layer res3a_res3a_relu_0_split
I0521 02:34:10.846369  2976 net.cpp:406] res3a_res3a_relu_0_split <- res3a
I0521 02:34:10.846371  2976 net.cpp:380] res3a_res3a_relu_0_split -> res3a_res3a_relu_0_split_0
I0521 02:34:10.846375  2976 net.cpp:380] res3a_res3a_relu_0_split -> res3a_res3a_relu_0_split_1
I0521 02:34:10.846410  2976 net.cpp:122] Setting up res3a_res3a_relu_0_split
I0521 02:34:10.846413  2976 net.cpp:129] Top shape: 5 512 28 28 (2007040)
I0521 02:34:10.846415  2976 net.cpp:129] Top shape: 5 512 28 28 (2007040)
I0521 02:34:10.846417  2976 net.cpp:137] Memory required for data: 657305620
I0521 02:34:10.846420  2976 layer_factory.hpp:77] Creating layer res3b1_branch2a
I0521 02:34:10.846424  2976 net.cpp:84] Creating Layer res3b1_branch2a
I0521 02:34:10.846426  2976 net.cpp:406] res3b1_branch2a <- res3a_res3a_relu_0_split_0
I0521 02:34:10.846429  2976 net.cpp:380] res3b1_branch2a -> res3b1_branch2a
I0521 02:34:10.848182  2976 net.cpp:122] Setting up res3b1_branch2a
I0521 02:34:10.848191  2976 net.cpp:129] Top shape: 5 128 28 28 (501760)
I0521 02:34:10.848192  2976 net.cpp:137] Memory required for data: 659312660
I0521 02:34:10.848196  2976 layer_factory.hpp:77] Creating layer bn3b1_branch2a
I0521 02:34:10.848199  2976 net.cpp:84] Creating Layer bn3b1_branch2a
I0521 02:34:10.848201  2976 net.cpp:406] bn3b1_branch2a <- res3b1_branch2a
I0521 02:34:10.848204  2976 net.cpp:367] bn3b1_branch2a -> res3b1_branch2a (in-place)
I0521 02:34:10.848356  2976 net.cpp:122] Setting up bn3b1_branch2a
I0521 02:34:10.848361  2976 net.cpp:129] Top shape: 5 128 28 28 (501760)
I0521 02:34:10.848363  2976 net.cpp:137] Memory required for data: 661319700
I0521 02:34:10.848367  2976 layer_factory.hpp:77] Creating layer scale3b1_branch2a
I0521 02:34:10.848371  2976 net.cpp:84] Creating Layer scale3b1_branch2a
I0521 02:34:10.848372  2976 net.cpp:406] scale3b1_branch2a <- res3b1_branch2a
I0521 02:34:10.848374  2976 net.cpp:367] scale3b1_branch2a -> res3b1_branch2a (in-place)
I0521 02:34:10.848402  2976 layer_factory.hpp:77] Creating layer scale3b1_branch2a
I0521 02:34:10.848487  2976 net.cpp:122] Setting up scale3b1_branch2a
I0521 02:34:10.848492  2976 net.cpp:129] Top shape: 5 128 28 28 (501760)
I0521 02:34:10.848493  2976 net.cpp:137] Memory required for data: 663326740
I0521 02:34:10.848496  2976 layer_factory.hpp:77] Creating layer res3b1_branch2a_relu
I0521 02:34:10.848500  2976 net.cpp:84] Creating Layer res3b1_branch2a_relu
I0521 02:34:10.848502  2976 net.cpp:406] res3b1_branch2a_relu <- res3b1_branch2a
I0521 02:34:10.848505  2976 net.cpp:367] res3b1_branch2a_relu -> res3b1_branch2a (in-place)
I0521 02:34:10.849254  2976 net.cpp:122] Setting up res3b1_branch2a_relu
I0521 02:34:10.849262  2976 net.cpp:129] Top shape: 5 128 28 28 (501760)
I0521 02:34:10.849264  2976 net.cpp:137] Memory required for data: 665333780
I0521 02:34:10.849267  2976 layer_factory.hpp:77] Creating layer res3b1_branch2b
I0521 02:34:10.849272  2976 net.cpp:84] Creating Layer res3b1_branch2b
I0521 02:34:10.849274  2976 net.cpp:406] res3b1_branch2b <- res3b1_branch2a
I0521 02:34:10.849277  2976 net.cpp:380] res3b1_branch2b -> res3b1_branch2b
I0521 02:34:10.852192  2976 net.cpp:122] Setting up res3b1_branch2b
I0521 02:34:10.852200  2976 net.cpp:129] Top shape: 5 128 28 28 (501760)
I0521 02:34:10.852202  2976 net.cpp:137] Memory required for data: 667340820
I0521 02:34:10.852206  2976 layer_factory.hpp:77] Creating layer bn3b1_branch2b
I0521 02:34:10.852210  2976 net.cpp:84] Creating Layer bn3b1_branch2b
I0521 02:34:10.852211  2976 net.cpp:406] bn3b1_branch2b <- res3b1_branch2b
I0521 02:34:10.852216  2976 net.cpp:367] bn3b1_branch2b -> res3b1_branch2b (in-place)
I0521 02:34:10.852365  2976 net.cpp:122] Setting up bn3b1_branch2b
I0521 02:34:10.852370  2976 net.cpp:129] Top shape: 5 128 28 28 (501760)
I0521 02:34:10.852370  2976 net.cpp:137] Memory required for data: 669347860
I0521 02:34:10.852375  2976 layer_factory.hpp:77] Creating layer scale3b1_branch2b
I0521 02:34:10.852377  2976 net.cpp:84] Creating Layer scale3b1_branch2b
I0521 02:34:10.852380  2976 net.cpp:406] scale3b1_branch2b <- res3b1_branch2b
I0521 02:34:10.852381  2976 net.cpp:367] scale3b1_branch2b -> res3b1_branch2b (in-place)
I0521 02:34:10.852409  2976 layer_factory.hpp:77] Creating layer scale3b1_branch2b
I0521 02:34:10.852491  2976 net.cpp:122] Setting up scale3b1_branch2b
I0521 02:34:10.852500  2976 net.cpp:129] Top shape: 5 128 28 28 (501760)
I0521 02:34:10.852502  2976 net.cpp:137] Memory required for data: 671354900
I0521 02:34:10.852504  2976 layer_factory.hpp:77] Creating layer res3b1_branch2b_relu
I0521 02:34:10.852509  2976 net.cpp:84] Creating Layer res3b1_branch2b_relu
I0521 02:34:10.852510  2976 net.cpp:406] res3b1_branch2b_relu <- res3b1_branch2b
I0521 02:34:10.852514  2976 net.cpp:367] res3b1_branch2b_relu -> res3b1_branch2b (in-place)
I0521 02:34:10.852910  2976 net.cpp:122] Setting up res3b1_branch2b_relu
I0521 02:34:10.852915  2976 net.cpp:129] Top shape: 5 128 28 28 (501760)
I0521 02:34:10.852916  2976 net.cpp:137] Memory required for data: 673361940
I0521 02:34:10.852918  2976 layer_factory.hpp:77] Creating layer res3b1_branch2c
I0521 02:34:10.852923  2976 net.cpp:84] Creating Layer res3b1_branch2c
I0521 02:34:10.852926  2976 net.cpp:406] res3b1_branch2c <- res3b1_branch2b
I0521 02:34:10.852928  2976 net.cpp:380] res3b1_branch2c -> res3b1_branch2c
I0521 02:34:10.854637  2976 net.cpp:122] Setting up res3b1_branch2c
I0521 02:34:10.854645  2976 net.cpp:129] Top shape: 5 512 28 28 (2007040)
I0521 02:34:10.854646  2976 net.cpp:137] Memory required for data: 681390100
I0521 02:34:10.854648  2976 layer_factory.hpp:77] Creating layer bn3b1_branch2c
I0521 02:34:10.854652  2976 net.cpp:84] Creating Layer bn3b1_branch2c
I0521 02:34:10.854655  2976 net.cpp:406] bn3b1_branch2c <- res3b1_branch2c
I0521 02:34:10.854657  2976 net.cpp:367] bn3b1_branch2c -> res3b1_branch2c (in-place)
I0521 02:34:10.854799  2976 net.cpp:122] Setting up bn3b1_branch2c
I0521 02:34:10.854804  2976 net.cpp:129] Top shape: 5 512 28 28 (2007040)
I0521 02:34:10.854805  2976 net.cpp:137] Memory required for data: 689418260
I0521 02:34:10.854809  2976 layer_factory.hpp:77] Creating layer scale3b1_branch2c
I0521 02:34:10.854812  2976 net.cpp:84] Creating Layer scale3b1_branch2c
I0521 02:34:10.854815  2976 net.cpp:406] scale3b1_branch2c <- res3b1_branch2c
I0521 02:34:10.854817  2976 net.cpp:367] scale3b1_branch2c -> res3b1_branch2c (in-place)
I0521 02:34:10.854843  2976 layer_factory.hpp:77] Creating layer scale3b1_branch2c
I0521 02:34:10.854921  2976 net.cpp:122] Setting up scale3b1_branch2c
I0521 02:34:10.854925  2976 net.cpp:129] Top shape: 5 512 28 28 (2007040)
I0521 02:34:10.854928  2976 net.cpp:137] Memory required for data: 697446420
I0521 02:34:10.854929  2976 layer_factory.hpp:77] Creating layer res3b1
I0521 02:34:10.854933  2976 net.cpp:84] Creating Layer res3b1
I0521 02:34:10.854934  2976 net.cpp:406] res3b1 <- res3a_res3a_relu_0_split_1
I0521 02:34:10.854938  2976 net.cpp:406] res3b1 <- res3b1_branch2c
I0521 02:34:10.854940  2976 net.cpp:380] res3b1 -> res3b1
I0521 02:34:10.854957  2976 net.cpp:122] Setting up res3b1
I0521 02:34:10.854960  2976 net.cpp:129] Top shape: 5 512 28 28 (2007040)
I0521 02:34:10.854961  2976 net.cpp:137] Memory required for data: 705474580
I0521 02:34:10.854964  2976 layer_factory.hpp:77] Creating layer res3b1_relu
I0521 02:34:10.854966  2976 net.cpp:84] Creating Layer res3b1_relu
I0521 02:34:10.854969  2976 net.cpp:406] res3b1_relu <- res3b1
I0521 02:34:10.854970  2976 net.cpp:367] res3b1_relu -> res3b1 (in-place)
I0521 02:34:10.855432  2976 net.cpp:122] Setting up res3b1_relu
I0521 02:34:10.855438  2976 net.cpp:129] Top shape: 5 512 28 28 (2007040)
I0521 02:34:10.855440  2976 net.cpp:137] Memory required for data: 713502740
I0521 02:34:10.855443  2976 layer_factory.hpp:77] Creating layer res3b1_res3b1_relu_0_split
I0521 02:34:10.855445  2976 net.cpp:84] Creating Layer res3b1_res3b1_relu_0_split
I0521 02:34:10.855448  2976 net.cpp:406] res3b1_res3b1_relu_0_split <- res3b1
I0521 02:34:10.855451  2976 net.cpp:380] res3b1_res3b1_relu_0_split -> res3b1_res3b1_relu_0_split_0
I0521 02:34:10.855455  2976 net.cpp:380] res3b1_res3b1_relu_0_split -> res3b1_res3b1_relu_0_split_1
I0521 02:34:10.855485  2976 net.cpp:122] Setting up res3b1_res3b1_relu_0_split
I0521 02:34:10.855489  2976 net.cpp:129] Top shape: 5 512 28 28 (2007040)
I0521 02:34:10.855491  2976 net.cpp:129] Top shape: 5 512 28 28 (2007040)
I0521 02:34:10.855497  2976 net.cpp:137] Memory required for data: 729559060
I0521 02:34:10.855499  2976 layer_factory.hpp:77] Creating layer res3b2_branch2a
I0521 02:34:10.855504  2976 net.cpp:84] Creating Layer res3b2_branch2a
I0521 02:34:10.855506  2976 net.cpp:406] res3b2_branch2a <- res3b1_res3b1_relu_0_split_0
I0521 02:34:10.855509  2976 net.cpp:380] res3b2_branch2a -> res3b2_branch2a
I0521 02:34:10.857213  2976 net.cpp:122] Setting up res3b2_branch2a
I0521 02:34:10.857220  2976 net.cpp:129] Top shape: 5 128 28 28 (501760)
I0521 02:34:10.857223  2976 net.cpp:137] Memory required for data: 731566100
I0521 02:34:10.857225  2976 layer_factory.hpp:77] Creating layer bn3b2_branch2a
I0521 02:34:10.857230  2976 net.cpp:84] Creating Layer bn3b2_branch2a
I0521 02:34:10.857233  2976 net.cpp:406] bn3b2_branch2a <- res3b2_branch2a
I0521 02:34:10.857234  2976 net.cpp:367] bn3b2_branch2a -> res3b2_branch2a (in-place)
I0521 02:34:10.857386  2976 net.cpp:122] Setting up bn3b2_branch2a
I0521 02:34:10.857390  2976 net.cpp:129] Top shape: 5 128 28 28 (501760)
I0521 02:34:10.857393  2976 net.cpp:137] Memory required for data: 733573140
I0521 02:34:10.857395  2976 layer_factory.hpp:77] Creating layer scale3b2_branch2a
I0521 02:34:10.857398  2976 net.cpp:84] Creating Layer scale3b2_branch2a
I0521 02:34:10.857400  2976 net.cpp:406] scale3b2_branch2a <- res3b2_branch2a
I0521 02:34:10.857403  2976 net.cpp:367] scale3b2_branch2a -> res3b2_branch2a (in-place)
I0521 02:34:10.857430  2976 layer_factory.hpp:77] Creating layer scale3b2_branch2a
I0521 02:34:10.857511  2976 net.cpp:122] Setting up scale3b2_branch2a
I0521 02:34:10.857514  2976 net.cpp:129] Top shape: 5 128 28 28 (501760)
I0521 02:34:10.857515  2976 net.cpp:137] Memory required for data: 735580180
I0521 02:34:10.857518  2976 layer_factory.hpp:77] Creating layer res3b2_branch2a_relu
I0521 02:34:10.857522  2976 net.cpp:84] Creating Layer res3b2_branch2a_relu
I0521 02:34:10.857523  2976 net.cpp:406] res3b2_branch2a_relu <- res3b2_branch2a
I0521 02:34:10.857527  2976 net.cpp:367] res3b2_branch2a_relu -> res3b2_branch2a (in-place)
I0521 02:34:10.857872  2976 net.cpp:122] Setting up res3b2_branch2a_relu
I0521 02:34:10.857877  2976 net.cpp:129] Top shape: 5 128 28 28 (501760)
I0521 02:34:10.857879  2976 net.cpp:137] Memory required for data: 737587220
I0521 02:34:10.857882  2976 layer_factory.hpp:77] Creating layer res3b2_branch2b
I0521 02:34:10.857887  2976 net.cpp:84] Creating Layer res3b2_branch2b
I0521 02:34:10.857888  2976 net.cpp:406] res3b2_branch2b <- res3b2_branch2a
I0521 02:34:10.857892  2976 net.cpp:380] res3b2_branch2b -> res3b2_branch2b
I0521 02:34:10.860317  2976 net.cpp:122] Setting up res3b2_branch2b
I0521 02:34:10.860324  2976 net.cpp:129] Top shape: 5 128 28 28 (501760)
I0521 02:34:10.860327  2976 net.cpp:137] Memory required for data: 739594260
I0521 02:34:10.860329  2976 layer_factory.hpp:77] Creating layer bn3b2_branch2b
I0521 02:34:10.860333  2976 net.cpp:84] Creating Layer bn3b2_branch2b
I0521 02:34:10.860337  2976 net.cpp:406] bn3b2_branch2b <- res3b2_branch2b
I0521 02:34:10.860338  2976 net.cpp:367] bn3b2_branch2b -> res3b2_branch2b (in-place)
I0521 02:34:10.860491  2976 net.cpp:122] Setting up bn3b2_branch2b
I0521 02:34:10.860496  2976 net.cpp:129] Top shape: 5 128 28 28 (501760)
I0521 02:34:10.860496  2976 net.cpp:137] Memory required for data: 741601300
I0521 02:34:10.860500  2976 layer_factory.hpp:77] Creating layer scale3b2_branch2b
I0521 02:34:10.860502  2976 net.cpp:84] Creating Layer scale3b2_branch2b
I0521 02:34:10.860504  2976 net.cpp:406] scale3b2_branch2b <- res3b2_branch2b
I0521 02:34:10.860507  2976 net.cpp:367] scale3b2_branch2b -> res3b2_branch2b (in-place)
I0521 02:34:10.860534  2976 layer_factory.hpp:77] Creating layer scale3b2_branch2b
I0521 02:34:10.860616  2976 net.cpp:122] Setting up scale3b2_branch2b
I0521 02:34:10.860620  2976 net.cpp:129] Top shape: 5 128 28 28 (501760)
I0521 02:34:10.860622  2976 net.cpp:137] Memory required for data: 743608340
I0521 02:34:10.860625  2976 layer_factory.hpp:77] Creating layer res3b2_branch2b_relu
I0521 02:34:10.860632  2976 net.cpp:84] Creating Layer res3b2_branch2b_relu
I0521 02:34:10.860635  2976 net.cpp:406] res3b2_branch2b_relu <- res3b2_branch2b
I0521 02:34:10.860637  2976 net.cpp:367] res3b2_branch2b_relu -> res3b2_branch2b (in-place)
I0521 02:34:10.860986  2976 net.cpp:122] Setting up res3b2_branch2b_relu
I0521 02:34:10.860991  2976 net.cpp:129] Top shape: 5 128 28 28 (501760)
I0521 02:34:10.860993  2976 net.cpp:137] Memory required for data: 745615380
I0521 02:34:10.860996  2976 layer_factory.hpp:77] Creating layer res3b2_branch2c
I0521 02:34:10.861001  2976 net.cpp:84] Creating Layer res3b2_branch2c
I0521 02:34:10.861002  2976 net.cpp:406] res3b2_branch2c <- res3b2_branch2b
I0521 02:34:10.861004  2976 net.cpp:380] res3b2_branch2c -> res3b2_branch2c
I0521 02:34:10.862763  2976 net.cpp:122] Setting up res3b2_branch2c
I0521 02:34:10.862771  2976 net.cpp:129] Top shape: 5 512 28 28 (2007040)
I0521 02:34:10.862772  2976 net.cpp:137] Memory required for data: 753643540
I0521 02:34:10.862776  2976 layer_factory.hpp:77] Creating layer bn3b2_branch2c
I0521 02:34:10.862778  2976 net.cpp:84] Creating Layer bn3b2_branch2c
I0521 02:34:10.862782  2976 net.cpp:406] bn3b2_branch2c <- res3b2_branch2c
I0521 02:34:10.862784  2976 net.cpp:367] bn3b2_branch2c -> res3b2_branch2c (in-place)
I0521 02:34:10.862929  2976 net.cpp:122] Setting up bn3b2_branch2c
I0521 02:34:10.862933  2976 net.cpp:129] Top shape: 5 512 28 28 (2007040)
I0521 02:34:10.862936  2976 net.cpp:137] Memory required for data: 761671700
I0521 02:34:10.862938  2976 layer_factory.hpp:77] Creating layer scale3b2_branch2c
I0521 02:34:10.862942  2976 net.cpp:84] Creating Layer scale3b2_branch2c
I0521 02:34:10.862944  2976 net.cpp:406] scale3b2_branch2c <- res3b2_branch2c
I0521 02:34:10.862946  2976 net.cpp:367] scale3b2_branch2c -> res3b2_branch2c (in-place)
I0521 02:34:10.862973  2976 layer_factory.hpp:77] Creating layer scale3b2_branch2c
I0521 02:34:10.863054  2976 net.cpp:122] Setting up scale3b2_branch2c
I0521 02:34:10.863057  2976 net.cpp:129] Top shape: 5 512 28 28 (2007040)
I0521 02:34:10.863059  2976 net.cpp:137] Memory required for data: 769699860
I0521 02:34:10.863062  2976 layer_factory.hpp:77] Creating layer res3b2
I0521 02:34:10.863066  2976 net.cpp:84] Creating Layer res3b2
I0521 02:34:10.863068  2976 net.cpp:406] res3b2 <- res3b1_res3b1_relu_0_split_1
I0521 02:34:10.863070  2976 net.cpp:406] res3b2 <- res3b2_branch2c
I0521 02:34:10.863073  2976 net.cpp:380] res3b2 -> res3b2
I0521 02:34:10.863090  2976 net.cpp:122] Setting up res3b2
I0521 02:34:10.863093  2976 net.cpp:129] Top shape: 5 512 28 28 (2007040)
I0521 02:34:10.863095  2976 net.cpp:137] Memory required for data: 777728020
I0521 02:34:10.863096  2976 layer_factory.hpp:77] Creating layer res3b2_relu
I0521 02:34:10.863099  2976 net.cpp:84] Creating Layer res3b2_relu
I0521 02:34:10.863101  2976 net.cpp:406] res3b2_relu <- res3b2
I0521 02:34:10.863104  2976 net.cpp:367] res3b2_relu -> res3b2 (in-place)
I0521 02:34:10.863561  2976 net.cpp:122] Setting up res3b2_relu
I0521 02:34:10.863567  2976 net.cpp:129] Top shape: 5 512 28 28 (2007040)
I0521 02:34:10.863569  2976 net.cpp:137] Memory required for data: 785756180
I0521 02:34:10.863571  2976 layer_factory.hpp:77] Creating layer res3b2_res3b2_relu_0_split
I0521 02:34:10.863575  2976 net.cpp:84] Creating Layer res3b2_res3b2_relu_0_split
I0521 02:34:10.863579  2976 net.cpp:406] res3b2_res3b2_relu_0_split <- res3b2
I0521 02:34:10.863581  2976 net.cpp:380] res3b2_res3b2_relu_0_split -> res3b2_res3b2_relu_0_split_0
I0521 02:34:10.863585  2976 net.cpp:380] res3b2_res3b2_relu_0_split -> res3b2_res3b2_relu_0_split_1
I0521 02:34:10.863617  2976 net.cpp:122] Setting up res3b2_res3b2_relu_0_split
I0521 02:34:10.863620  2976 net.cpp:129] Top shape: 5 512 28 28 (2007040)
I0521 02:34:10.863622  2976 net.cpp:129] Top shape: 5 512 28 28 (2007040)
I0521 02:34:10.863625  2976 net.cpp:137] Memory required for data: 801812500
I0521 02:34:10.863626  2976 layer_factory.hpp:77] Creating layer res3b3_branch2a
I0521 02:34:10.863631  2976 net.cpp:84] Creating Layer res3b3_branch2a
I0521 02:34:10.863637  2976 net.cpp:406] res3b3_branch2a <- res3b2_res3b2_relu_0_split_0
I0521 02:34:10.863641  2976 net.cpp:380] res3b3_branch2a -> res3b3_branch2a
I0521 02:34:10.865942  2976 net.cpp:122] Setting up res3b3_branch2a
I0521 02:34:10.865949  2976 net.cpp:129] Top shape: 5 128 28 28 (501760)
I0521 02:34:10.865952  2976 net.cpp:137] Memory required for data: 803819540
I0521 02:34:10.865954  2976 layer_factory.hpp:77] Creating layer bn3b3_branch2a
I0521 02:34:10.865958  2976 net.cpp:84] Creating Layer bn3b3_branch2a
I0521 02:34:10.865962  2976 net.cpp:406] bn3b3_branch2a <- res3b3_branch2a
I0521 02:34:10.865964  2976 net.cpp:367] bn3b3_branch2a -> res3b3_branch2a (in-place)
I0521 02:34:10.866111  2976 net.cpp:122] Setting up bn3b3_branch2a
I0521 02:34:10.866116  2976 net.cpp:129] Top shape: 5 128 28 28 (501760)
I0521 02:34:10.866117  2976 net.cpp:137] Memory required for data: 805826580
I0521 02:34:10.866128  2976 layer_factory.hpp:77] Creating layer scale3b3_branch2a
I0521 02:34:10.866132  2976 net.cpp:84] Creating Layer scale3b3_branch2a
I0521 02:34:10.866133  2976 net.cpp:406] scale3b3_branch2a <- res3b3_branch2a
I0521 02:34:10.866137  2976 net.cpp:367] scale3b3_branch2a -> res3b3_branch2a (in-place)
I0521 02:34:10.866165  2976 layer_factory.hpp:77] Creating layer scale3b3_branch2a
I0521 02:34:10.866245  2976 net.cpp:122] Setting up scale3b3_branch2a
I0521 02:34:10.866247  2976 net.cpp:129] Top shape: 5 128 28 28 (501760)
I0521 02:34:10.866250  2976 net.cpp:137] Memory required for data: 807833620
I0521 02:34:10.866252  2976 layer_factory.hpp:77] Creating layer res3b3_branch2a_relu
I0521 02:34:10.866255  2976 net.cpp:84] Creating Layer res3b3_branch2a_relu
I0521 02:34:10.866257  2976 net.cpp:406] res3b3_branch2a_relu <- res3b3_branch2a
I0521 02:34:10.866259  2976 net.cpp:367] res3b3_branch2a_relu -> res3b3_branch2a (in-place)
I0521 02:34:10.866611  2976 net.cpp:122] Setting up res3b3_branch2a_relu
I0521 02:34:10.866616  2976 net.cpp:129] Top shape: 5 128 28 28 (501760)
I0521 02:34:10.866617  2976 net.cpp:137] Memory required for data: 809840660
I0521 02:34:10.866619  2976 layer_factory.hpp:77] Creating layer res3b3_branch2b
I0521 02:34:10.866623  2976 net.cpp:84] Creating Layer res3b3_branch2b
I0521 02:34:10.866626  2976 net.cpp:406] res3b3_branch2b <- res3b3_branch2a
I0521 02:34:10.866628  2976 net.cpp:380] res3b3_branch2b -> res3b3_branch2b
I0521 02:34:10.868958  2976 net.cpp:122] Setting up res3b3_branch2b
I0521 02:34:10.868965  2976 net.cpp:129] Top shape: 5 128 28 28 (501760)
I0521 02:34:10.868968  2976 net.cpp:137] Memory required for data: 811847700
I0521 02:34:10.868970  2976 layer_factory.hpp:77] Creating layer bn3b3_branch2b
I0521 02:34:10.868973  2976 net.cpp:84] Creating Layer bn3b3_branch2b
I0521 02:34:10.868976  2976 net.cpp:406] bn3b3_branch2b <- res3b3_branch2b
I0521 02:34:10.868979  2976 net.cpp:367] bn3b3_branch2b -> res3b3_branch2b (in-place)
I0521 02:34:10.869130  2976 net.cpp:122] Setting up bn3b3_branch2b
I0521 02:34:10.869134  2976 net.cpp:129] Top shape: 5 128 28 28 (501760)
I0521 02:34:10.869137  2976 net.cpp:137] Memory required for data: 813854740
I0521 02:34:10.869139  2976 layer_factory.hpp:77] Creating layer scale3b3_branch2b
I0521 02:34:10.869143  2976 net.cpp:84] Creating Layer scale3b3_branch2b
I0521 02:34:10.869145  2976 net.cpp:406] scale3b3_branch2b <- res3b3_branch2b
I0521 02:34:10.869148  2976 net.cpp:367] scale3b3_branch2b -> res3b3_branch2b (in-place)
I0521 02:34:10.869174  2976 layer_factory.hpp:77] Creating layer scale3b3_branch2b
I0521 02:34:10.869257  2976 net.cpp:122] Setting up scale3b3_branch2b
I0521 02:34:10.869261  2976 net.cpp:129] Top shape: 5 128 28 28 (501760)
I0521 02:34:10.869262  2976 net.cpp:137] Memory required for data: 815861780
I0521 02:34:10.869266  2976 layer_factory.hpp:77] Creating layer res3b3_branch2b_relu
I0521 02:34:10.869269  2976 net.cpp:84] Creating Layer res3b3_branch2b_relu
I0521 02:34:10.869271  2976 net.cpp:406] res3b3_branch2b_relu <- res3b3_branch2b
I0521 02:34:10.869273  2976 net.cpp:367] res3b3_branch2b_relu -> res3b3_branch2b (in-place)
I0521 02:34:10.869729  2976 net.cpp:122] Setting up res3b3_branch2b_relu
I0521 02:34:10.869736  2976 net.cpp:129] Top shape: 5 128 28 28 (501760)
I0521 02:34:10.869738  2976 net.cpp:137] Memory required for data: 817868820
I0521 02:34:10.869740  2976 layer_factory.hpp:77] Creating layer res3b3_branch2c
I0521 02:34:10.869745  2976 net.cpp:84] Creating Layer res3b3_branch2c
I0521 02:34:10.869748  2976 net.cpp:406] res3b3_branch2c <- res3b3_branch2b
I0521 02:34:10.869751  2976 net.cpp:380] res3b3_branch2c -> res3b3_branch2c
I0521 02:34:10.871484  2976 net.cpp:122] Setting up res3b3_branch2c
I0521 02:34:10.871490  2976 net.cpp:129] Top shape: 5 512 28 28 (2007040)
I0521 02:34:10.871492  2976 net.cpp:137] Memory required for data: 825896980
I0521 02:34:10.871495  2976 layer_factory.hpp:77] Creating layer bn3b3_branch2c
I0521 02:34:10.871500  2976 net.cpp:84] Creating Layer bn3b3_branch2c
I0521 02:34:10.871501  2976 net.cpp:406] bn3b3_branch2c <- res3b3_branch2c
I0521 02:34:10.871505  2976 net.cpp:367] bn3b3_branch2c -> res3b3_branch2c (in-place)
I0521 02:34:10.871654  2976 net.cpp:122] Setting up bn3b3_branch2c
I0521 02:34:10.871657  2976 net.cpp:129] Top shape: 5 512 28 28 (2007040)
I0521 02:34:10.871659  2976 net.cpp:137] Memory required for data: 833925140
I0521 02:34:10.871662  2976 layer_factory.hpp:77] Creating layer scale3b3_branch2c
I0521 02:34:10.871665  2976 net.cpp:84] Creating Layer scale3b3_branch2c
I0521 02:34:10.871667  2976 net.cpp:406] scale3b3_branch2c <- res3b3_branch2c
I0521 02:34:10.871670  2976 net.cpp:367] scale3b3_branch2c -> res3b3_branch2c (in-place)
I0521 02:34:10.871697  2976 layer_factory.hpp:77] Creating layer scale3b3_branch2c
I0521 02:34:10.871785  2976 net.cpp:122] Setting up scale3b3_branch2c
I0521 02:34:10.871789  2976 net.cpp:129] Top shape: 5 512 28 28 (2007040)
I0521 02:34:10.871791  2976 net.cpp:137] Memory required for data: 841953300
I0521 02:34:10.871794  2976 layer_factory.hpp:77] Creating layer res3b3
I0521 02:34:10.871798  2976 net.cpp:84] Creating Layer res3b3
I0521 02:34:10.871799  2976 net.cpp:406] res3b3 <- res3b2_res3b2_relu_0_split_1
I0521 02:34:10.871801  2976 net.cpp:406] res3b3 <- res3b3_branch2c
I0521 02:34:10.871805  2976 net.cpp:380] res3b3 -> res3b3
I0521 02:34:10.871822  2976 net.cpp:122] Setting up res3b3
I0521 02:34:10.871825  2976 net.cpp:129] Top shape: 5 512 28 28 (2007040)
I0521 02:34:10.871827  2976 net.cpp:137] Memory required for data: 849981460
I0521 02:34:10.871829  2976 layer_factory.hpp:77] Creating layer res3b3_relu
I0521 02:34:10.871831  2976 net.cpp:84] Creating Layer res3b3_relu
I0521 02:34:10.871834  2976 net.cpp:406] res3b3_relu <- res3b3
I0521 02:34:10.871836  2976 net.cpp:367] res3b3_relu -> res3b3 (in-place)
I0521 02:34:10.872189  2976 net.cpp:122] Setting up res3b3_relu
I0521 02:34:10.872193  2976 net.cpp:129] Top shape: 5 512 28 28 (2007040)
I0521 02:34:10.872195  2976 net.cpp:137] Memory required for data: 858009620
I0521 02:34:10.872197  2976 layer_factory.hpp:77] Creating layer res3b3_res3b3_relu_0_split
I0521 02:34:10.872200  2976 net.cpp:84] Creating Layer res3b3_res3b3_relu_0_split
I0521 02:34:10.872202  2976 net.cpp:406] res3b3_res3b3_relu_0_split <- res3b3
I0521 02:34:10.872206  2976 net.cpp:380] res3b3_res3b3_relu_0_split -> res3b3_res3b3_relu_0_split_0
I0521 02:34:10.872210  2976 net.cpp:380] res3b3_res3b3_relu_0_split -> res3b3_res3b3_relu_0_split_1
I0521 02:34:10.872241  2976 net.cpp:122] Setting up res3b3_res3b3_relu_0_split
I0521 02:34:10.872244  2976 net.cpp:129] Top shape: 5 512 28 28 (2007040)
I0521 02:34:10.872246  2976 net.cpp:129] Top shape: 5 512 28 28 (2007040)
I0521 02:34:10.872248  2976 net.cpp:137] Memory required for data: 874065940
I0521 02:34:10.872249  2976 layer_factory.hpp:77] Creating layer res3b4_branch2a
I0521 02:34:10.872254  2976 net.cpp:84] Creating Layer res3b4_branch2a
I0521 02:34:10.872256  2976 net.cpp:406] res3b4_branch2a <- res3b3_res3b3_relu_0_split_0
I0521 02:34:10.872259  2976 net.cpp:380] res3b4_branch2a -> res3b4_branch2a
I0521 02:34:10.874426  2976 net.cpp:122] Setting up res3b4_branch2a
I0521 02:34:10.874444  2976 net.cpp:129] Top shape: 5 128 28 28 (501760)
I0521 02:34:10.874446  2976 net.cpp:137] Memory required for data: 876072980
I0521 02:34:10.874451  2976 layer_factory.hpp:77] Creating layer bn3b4_branch2a
I0521 02:34:10.874459  2976 net.cpp:84] Creating Layer bn3b4_branch2a
I0521 02:34:10.874461  2976 net.cpp:406] bn3b4_branch2a <- res3b4_branch2a
I0521 02:34:10.874466  2976 net.cpp:367] bn3b4_branch2a -> res3b4_branch2a (in-place)
I0521 02:34:10.874660  2976 net.cpp:122] Setting up bn3b4_branch2a
I0521 02:34:10.874666  2976 net.cpp:129] Top shape: 5 128 28 28 (501760)
I0521 02:34:10.874668  2976 net.cpp:137] Memory required for data: 878080020
I0521 02:34:10.874672  2976 layer_factory.hpp:77] Creating layer scale3b4_branch2a
I0521 02:34:10.874676  2976 net.cpp:84] Creating Layer scale3b4_branch2a
I0521 02:34:10.874678  2976 net.cpp:406] scale3b4_branch2a <- res3b4_branch2a
I0521 02:34:10.874681  2976 net.cpp:367] scale3b4_branch2a -> res3b4_branch2a (in-place)
I0521 02:34:10.874717  2976 layer_factory.hpp:77] Creating layer scale3b4_branch2a
I0521 02:34:10.874804  2976 net.cpp:122] Setting up scale3b4_branch2a
I0521 02:34:10.874806  2976 net.cpp:129] Top shape: 5 128 28 28 (501760)
I0521 02:34:10.874809  2976 net.cpp:137] Memory required for data: 880087060
I0521 02:34:10.874811  2976 layer_factory.hpp:77] Creating layer res3b4_branch2a_relu
I0521 02:34:10.874814  2976 net.cpp:84] Creating Layer res3b4_branch2a_relu
I0521 02:34:10.874816  2976 net.cpp:406] res3b4_branch2a_relu <- res3b4_branch2a
I0521 02:34:10.874819  2976 net.cpp:367] res3b4_branch2a_relu -> res3b4_branch2a (in-place)
I0521 02:34:10.875188  2976 net.cpp:122] Setting up res3b4_branch2a_relu
I0521 02:34:10.875195  2976 net.cpp:129] Top shape: 5 128 28 28 (501760)
I0521 02:34:10.875196  2976 net.cpp:137] Memory required for data: 882094100
I0521 02:34:10.875198  2976 layer_factory.hpp:77] Creating layer res3b4_branch2b
I0521 02:34:10.875203  2976 net.cpp:84] Creating Layer res3b4_branch2b
I0521 02:34:10.875206  2976 net.cpp:406] res3b4_branch2b <- res3b4_branch2a
I0521 02:34:10.875210  2976 net.cpp:380] res3b4_branch2b -> res3b4_branch2b
I0521 02:34:10.878223  2976 net.cpp:122] Setting up res3b4_branch2b
I0521 02:34:10.878232  2976 net.cpp:129] Top shape: 5 128 28 28 (501760)
I0521 02:34:10.878233  2976 net.cpp:137] Memory required for data: 884101140
I0521 02:34:10.878237  2976 layer_factory.hpp:77] Creating layer bn3b4_branch2b
I0521 02:34:10.878242  2976 net.cpp:84] Creating Layer bn3b4_branch2b
I0521 02:34:10.878243  2976 net.cpp:406] bn3b4_branch2b <- res3b4_branch2b
I0521 02:34:10.878247  2976 net.cpp:367] bn3b4_branch2b -> res3b4_branch2b (in-place)
I0521 02:34:10.878404  2976 net.cpp:122] Setting up bn3b4_branch2b
I0521 02:34:10.878413  2976 net.cpp:129] Top shape: 5 128 28 28 (501760)
I0521 02:34:10.878415  2976 net.cpp:137] Memory required for data: 886108180
I0521 02:34:10.878418  2976 layer_factory.hpp:77] Creating layer scale3b4_branch2b
I0521 02:34:10.878422  2976 net.cpp:84] Creating Layer scale3b4_branch2b
I0521 02:34:10.878424  2976 net.cpp:406] scale3b4_branch2b <- res3b4_branch2b
I0521 02:34:10.878427  2976 net.cpp:367] scale3b4_branch2b -> res3b4_branch2b (in-place)
I0521 02:34:10.878458  2976 layer_factory.hpp:77] Creating layer scale3b4_branch2b
I0521 02:34:10.878543  2976 net.cpp:122] Setting up scale3b4_branch2b
I0521 02:34:10.878547  2976 net.cpp:129] Top shape: 5 128 28 28 (501760)
I0521 02:34:10.878549  2976 net.cpp:137] Memory required for data: 888115220
I0521 02:34:10.878552  2976 layer_factory.hpp:77] Creating layer res3b4_branch2b_relu
I0521 02:34:10.878556  2976 net.cpp:84] Creating Layer res3b4_branch2b_relu
I0521 02:34:10.878556  2976 net.cpp:406] res3b4_branch2b_relu <- res3b4_branch2b
I0521 02:34:10.878561  2976 net.cpp:367] res3b4_branch2b_relu -> res3b4_branch2b (in-place)
I0521 02:34:10.878911  2976 net.cpp:122] Setting up res3b4_branch2b_relu
I0521 02:34:10.878916  2976 net.cpp:129] Top shape: 5 128 28 28 (501760)
I0521 02:34:10.878918  2976 net.cpp:137] Memory required for data: 890122260
I0521 02:34:10.878924  2976 layer_factory.hpp:77] Creating layer res3b4_branch2c
I0521 02:34:10.878929  2976 net.cpp:84] Creating Layer res3b4_branch2c
I0521 02:34:10.878932  2976 net.cpp:406] res3b4_branch2c <- res3b4_branch2b
I0521 02:34:10.878935  2976 net.cpp:380] res3b4_branch2c -> res3b4_branch2c
I0521 02:34:10.880784  2976 net.cpp:122] Setting up res3b4_branch2c
I0521 02:34:10.880790  2976 net.cpp:129] Top shape: 5 512 28 28 (2007040)
I0521 02:34:10.880792  2976 net.cpp:137] Memory required for data: 898150420
I0521 02:34:10.880795  2976 layer_factory.hpp:77] Creating layer bn3b4_branch2c
I0521 02:34:10.880798  2976 net.cpp:84] Creating Layer bn3b4_branch2c
I0521 02:34:10.880800  2976 net.cpp:406] bn3b4_branch2c <- res3b4_branch2c
I0521 02:34:10.880803  2976 net.cpp:367] bn3b4_branch2c -> res3b4_branch2c (in-place)
I0521 02:34:10.880967  2976 net.cpp:122] Setting up bn3b4_branch2c
I0521 02:34:10.880971  2976 net.cpp:129] Top shape: 5 512 28 28 (2007040)
I0521 02:34:10.880973  2976 net.cpp:137] Memory required for data: 906178580
I0521 02:34:10.880977  2976 layer_factory.hpp:77] Creating layer scale3b4_branch2c
I0521 02:34:10.880980  2976 net.cpp:84] Creating Layer scale3b4_branch2c
I0521 02:34:10.880982  2976 net.cpp:406] scale3b4_branch2c <- res3b4_branch2c
I0521 02:34:10.880985  2976 net.cpp:367] scale3b4_branch2c -> res3b4_branch2c (in-place)
I0521 02:34:10.881014  2976 layer_factory.hpp:77] Creating layer scale3b4_branch2c
I0521 02:34:10.881103  2976 net.cpp:122] Setting up scale3b4_branch2c
I0521 02:34:10.881108  2976 net.cpp:129] Top shape: 5 512 28 28 (2007040)
I0521 02:34:10.881109  2976 net.cpp:137] Memory required for data: 914206740
I0521 02:34:10.881112  2976 layer_factory.hpp:77] Creating layer res3b4
I0521 02:34:10.881116  2976 net.cpp:84] Creating Layer res3b4
I0521 02:34:10.881120  2976 net.cpp:406] res3b4 <- res3b3_res3b3_relu_0_split_1
I0521 02:34:10.881122  2976 net.cpp:406] res3b4 <- res3b4_branch2c
I0521 02:34:10.881125  2976 net.cpp:380] res3b4 -> res3b4
I0521 02:34:10.881142  2976 net.cpp:122] Setting up res3b4
I0521 02:34:10.881145  2976 net.cpp:129] Top shape: 5 512 28 28 (2007040)
I0521 02:34:10.881147  2976 net.cpp:137] Memory required for data: 922234900
I0521 02:34:10.881150  2976 layer_factory.hpp:77] Creating layer res3b4_relu
I0521 02:34:10.881151  2976 net.cpp:84] Creating Layer res3b4_relu
I0521 02:34:10.881153  2976 net.cpp:406] res3b4_relu <- res3b4
I0521 02:34:10.881157  2976 net.cpp:367] res3b4_relu -> res3b4 (in-place)
I0521 02:34:10.881525  2976 net.cpp:122] Setting up res3b4_relu
I0521 02:34:10.881531  2976 net.cpp:129] Top shape: 5 512 28 28 (2007040)
I0521 02:34:10.881531  2976 net.cpp:137] Memory required for data: 930263060
I0521 02:34:10.881533  2976 layer_factory.hpp:77] Creating layer res3b4_res3b4_relu_0_split
I0521 02:34:10.881538  2976 net.cpp:84] Creating Layer res3b4_res3b4_relu_0_split
I0521 02:34:10.881541  2976 net.cpp:406] res3b4_res3b4_relu_0_split <- res3b4
I0521 02:34:10.881543  2976 net.cpp:380] res3b4_res3b4_relu_0_split -> res3b4_res3b4_relu_0_split_0
I0521 02:34:10.881547  2976 net.cpp:380] res3b4_res3b4_relu_0_split -> res3b4_res3b4_relu_0_split_1
I0521 02:34:10.881580  2976 net.cpp:122] Setting up res3b4_res3b4_relu_0_split
I0521 02:34:10.881584  2976 net.cpp:129] Top shape: 5 512 28 28 (2007040)
I0521 02:34:10.881587  2976 net.cpp:129] Top shape: 5 512 28 28 (2007040)
I0521 02:34:10.881588  2976 net.cpp:137] Memory required for data: 946319380
I0521 02:34:10.881589  2976 layer_factory.hpp:77] Creating layer res3b5_branch2a
I0521 02:34:10.881594  2976 net.cpp:84] Creating Layer res3b5_branch2a
I0521 02:34:10.881597  2976 net.cpp:406] res3b5_branch2a <- res3b4_res3b4_relu_0_split_0
I0521 02:34:10.881602  2976 net.cpp:380] res3b5_branch2a -> res3b5_branch2a
I0521 02:34:10.883471  2976 net.cpp:122] Setting up res3b5_branch2a
I0521 02:34:10.883478  2976 net.cpp:129] Top shape: 5 128 28 28 (501760)
I0521 02:34:10.883481  2976 net.cpp:137] Memory required for data: 948326420
I0521 02:34:10.883483  2976 layer_factory.hpp:77] Creating layer bn3b5_branch2a
I0521 02:34:10.883492  2976 net.cpp:84] Creating Layer bn3b5_branch2a
I0521 02:34:10.883496  2976 net.cpp:406] bn3b5_branch2a <- res3b5_branch2a
I0521 02:34:10.883497  2976 net.cpp:367] bn3b5_branch2a -> res3b5_branch2a (in-place)
I0521 02:34:10.883651  2976 net.cpp:122] Setting up bn3b5_branch2a
I0521 02:34:10.883654  2976 net.cpp:129] Top shape: 5 128 28 28 (501760)
I0521 02:34:10.883656  2976 net.cpp:137] Memory required for data: 950333460
I0521 02:34:10.883661  2976 layer_factory.hpp:77] Creating layer scale3b5_branch2a
I0521 02:34:10.883664  2976 net.cpp:84] Creating Layer scale3b5_branch2a
I0521 02:34:10.883666  2976 net.cpp:406] scale3b5_branch2a <- res3b5_branch2a
I0521 02:34:10.883669  2976 net.cpp:367] scale3b5_branch2a -> res3b5_branch2a (in-place)
I0521 02:34:10.883698  2976 layer_factory.hpp:77] Creating layer scale3b5_branch2a
I0521 02:34:10.883783  2976 net.cpp:122] Setting up scale3b5_branch2a
I0521 02:34:10.883787  2976 net.cpp:129] Top shape: 5 128 28 28 (501760)
I0521 02:34:10.883790  2976 net.cpp:137] Memory required for data: 952340500
I0521 02:34:10.883791  2976 layer_factory.hpp:77] Creating layer res3b5_branch2a_relu
I0521 02:34:10.883798  2976 net.cpp:84] Creating Layer res3b5_branch2a_relu
I0521 02:34:10.883800  2976 net.cpp:406] res3b5_branch2a_relu <- res3b5_branch2a
I0521 02:34:10.883802  2976 net.cpp:367] res3b5_branch2a_relu -> res3b5_branch2a (in-place)
I0521 02:34:10.884265  2976 net.cpp:122] Setting up res3b5_branch2a_relu
I0521 02:34:10.884271  2976 net.cpp:129] Top shape: 5 128 28 28 (501760)
I0521 02:34:10.884274  2976 net.cpp:137] Memory required for data: 954347540
I0521 02:34:10.884275  2976 layer_factory.hpp:77] Creating layer res3b5_branch2b
I0521 02:34:10.884280  2976 net.cpp:84] Creating Layer res3b5_branch2b
I0521 02:34:10.884282  2976 net.cpp:406] res3b5_branch2b <- res3b5_branch2a
I0521 02:34:10.884285  2976 net.cpp:380] res3b5_branch2b -> res3b5_branch2b
I0521 02:34:10.886629  2976 net.cpp:122] Setting up res3b5_branch2b
I0521 02:34:10.886636  2976 net.cpp:129] Top shape: 5 128 28 28 (501760)
I0521 02:34:10.886638  2976 net.cpp:137] Memory required for data: 956354580
I0521 02:34:10.886641  2976 layer_factory.hpp:77] Creating layer bn3b5_branch2b
I0521 02:34:10.886646  2976 net.cpp:84] Creating Layer bn3b5_branch2b
I0521 02:34:10.886648  2976 net.cpp:406] bn3b5_branch2b <- res3b5_branch2b
I0521 02:34:10.886651  2976 net.cpp:367] bn3b5_branch2b -> res3b5_branch2b (in-place)
I0521 02:34:10.886811  2976 net.cpp:122] Setting up bn3b5_branch2b
I0521 02:34:10.886814  2976 net.cpp:129] Top shape: 5 128 28 28 (501760)
I0521 02:34:10.886816  2976 net.cpp:137] Memory required for data: 958361620
I0521 02:34:10.886819  2976 layer_factory.hpp:77] Creating layer scale3b5_branch2b
I0521 02:34:10.886822  2976 net.cpp:84] Creating Layer scale3b5_branch2b
I0521 02:34:10.886824  2976 net.cpp:406] scale3b5_branch2b <- res3b5_branch2b
I0521 02:34:10.886826  2976 net.cpp:367] scale3b5_branch2b -> res3b5_branch2b (in-place)
I0521 02:34:10.886857  2976 layer_factory.hpp:77] Creating layer scale3b5_branch2b
I0521 02:34:10.886941  2976 net.cpp:122] Setting up scale3b5_branch2b
I0521 02:34:10.886945  2976 net.cpp:129] Top shape: 5 128 28 28 (501760)
I0521 02:34:10.886947  2976 net.cpp:137] Memory required for data: 960368660
I0521 02:34:10.886950  2976 layer_factory.hpp:77] Creating layer res3b5_branch2b_relu
I0521 02:34:10.886953  2976 net.cpp:84] Creating Layer res3b5_branch2b_relu
I0521 02:34:10.886955  2976 net.cpp:406] res3b5_branch2b_relu <- res3b5_branch2b
I0521 02:34:10.886957  2976 net.cpp:367] res3b5_branch2b_relu -> res3b5_branch2b (in-place)
I0521 02:34:10.887312  2976 net.cpp:122] Setting up res3b5_branch2b_relu
I0521 02:34:10.887317  2976 net.cpp:129] Top shape: 5 128 28 28 (501760)
I0521 02:34:10.887320  2976 net.cpp:137] Memory required for data: 962375700
I0521 02:34:10.887321  2976 layer_factory.hpp:77] Creating layer res3b5_branch2c
I0521 02:34:10.887326  2976 net.cpp:84] Creating Layer res3b5_branch2c
I0521 02:34:10.887327  2976 net.cpp:406] res3b5_branch2c <- res3b5_branch2b
I0521 02:34:10.887336  2976 net.cpp:380] res3b5_branch2c -> res3b5_branch2c
I0521 02:34:10.889086  2976 net.cpp:122] Setting up res3b5_branch2c
I0521 02:34:10.889093  2976 net.cpp:129] Top shape: 5 512 28 28 (2007040)
I0521 02:34:10.889096  2976 net.cpp:137] Memory required for data: 970403860
I0521 02:34:10.889098  2976 layer_factory.hpp:77] Creating layer bn3b5_branch2c
I0521 02:34:10.889102  2976 net.cpp:84] Creating Layer bn3b5_branch2c
I0521 02:34:10.889104  2976 net.cpp:406] bn3b5_branch2c <- res3b5_branch2c
I0521 02:34:10.889107  2976 net.cpp:367] bn3b5_branch2c -> res3b5_branch2c (in-place)
I0521 02:34:10.889261  2976 net.cpp:122] Setting up bn3b5_branch2c
I0521 02:34:10.889264  2976 net.cpp:129] Top shape: 5 512 28 28 (2007040)
I0521 02:34:10.889266  2976 net.cpp:137] Memory required for data: 978432020
I0521 02:34:10.889269  2976 layer_factory.hpp:77] Creating layer scale3b5_branch2c
I0521 02:34:10.889273  2976 net.cpp:84] Creating Layer scale3b5_branch2c
I0521 02:34:10.889274  2976 net.cpp:406] scale3b5_branch2c <- res3b5_branch2c
I0521 02:34:10.889277  2976 net.cpp:367] scale3b5_branch2c -> res3b5_branch2c (in-place)
I0521 02:34:10.889305  2976 layer_factory.hpp:77] Creating layer scale3b5_branch2c
I0521 02:34:10.889389  2976 net.cpp:122] Setting up scale3b5_branch2c
I0521 02:34:10.889392  2976 net.cpp:129] Top shape: 5 512 28 28 (2007040)
I0521 02:34:10.889394  2976 net.cpp:137] Memory required for data: 986460180
I0521 02:34:10.889396  2976 layer_factory.hpp:77] Creating layer res3b5
I0521 02:34:10.889400  2976 net.cpp:84] Creating Layer res3b5
I0521 02:34:10.889402  2976 net.cpp:406] res3b5 <- res3b4_res3b4_relu_0_split_1
I0521 02:34:10.889405  2976 net.cpp:406] res3b5 <- res3b5_branch2c
I0521 02:34:10.889407  2976 net.cpp:380] res3b5 -> res3b5
I0521 02:34:10.889425  2976 net.cpp:122] Setting up res3b5
I0521 02:34:10.889427  2976 net.cpp:129] Top shape: 5 512 28 28 (2007040)
I0521 02:34:10.889430  2976 net.cpp:137] Memory required for data: 994488340
I0521 02:34:10.889430  2976 layer_factory.hpp:77] Creating layer res3b5_relu
I0521 02:34:10.889434  2976 net.cpp:84] Creating Layer res3b5_relu
I0521 02:34:10.889437  2976 net.cpp:406] res3b5_relu <- res3b5
I0521 02:34:10.889441  2976 net.cpp:367] res3b5_relu -> res3b5 (in-place)
I0521 02:34:10.889896  2976 net.cpp:122] Setting up res3b5_relu
I0521 02:34:10.889902  2976 net.cpp:129] Top shape: 5 512 28 28 (2007040)
I0521 02:34:10.889904  2976 net.cpp:137] Memory required for data: 1002516500
I0521 02:34:10.889906  2976 layer_factory.hpp:77] Creating layer res3b5_res3b5_relu_0_split
I0521 02:34:10.889910  2976 net.cpp:84] Creating Layer res3b5_res3b5_relu_0_split
I0521 02:34:10.889912  2976 net.cpp:406] res3b5_res3b5_relu_0_split <- res3b5
I0521 02:34:10.889915  2976 net.cpp:380] res3b5_res3b5_relu_0_split -> res3b5_res3b5_relu_0_split_0
I0521 02:34:10.889919  2976 net.cpp:380] res3b5_res3b5_relu_0_split -> res3b5_res3b5_relu_0_split_1
I0521 02:34:10.889950  2976 net.cpp:122] Setting up res3b5_res3b5_relu_0_split
I0521 02:34:10.889953  2976 net.cpp:129] Top shape: 5 512 28 28 (2007040)
I0521 02:34:10.889956  2976 net.cpp:129] Top shape: 5 512 28 28 (2007040)
I0521 02:34:10.889957  2976 net.cpp:137] Memory required for data: 1018572820
I0521 02:34:10.889959  2976 layer_factory.hpp:77] Creating layer res3b6_branch2a
I0521 02:34:10.889964  2976 net.cpp:84] Creating Layer res3b6_branch2a
I0521 02:34:10.889966  2976 net.cpp:406] res3b6_branch2a <- res3b5_res3b5_relu_0_split_0
I0521 02:34:10.889969  2976 net.cpp:380] res3b6_branch2a -> res3b6_branch2a
I0521 02:34:10.891710  2976 net.cpp:122] Setting up res3b6_branch2a
I0521 02:34:10.891717  2976 net.cpp:129] Top shape: 5 128 28 28 (501760)
I0521 02:34:10.891719  2976 net.cpp:137] Memory required for data: 1020579860
I0521 02:34:10.891722  2976 layer_factory.hpp:77] Creating layer bn3b6_branch2a
I0521 02:34:10.891726  2976 net.cpp:84] Creating Layer bn3b6_branch2a
I0521 02:34:10.891728  2976 net.cpp:406] bn3b6_branch2a <- res3b6_branch2a
I0521 02:34:10.891731  2976 net.cpp:367] bn3b6_branch2a -> res3b6_branch2a (in-place)
I0521 02:34:10.891897  2976 net.cpp:122] Setting up bn3b6_branch2a
I0521 02:34:10.891901  2976 net.cpp:129] Top shape: 5 128 28 28 (501760)
I0521 02:34:10.891903  2976 net.cpp:137] Memory required for data: 1022586900
I0521 02:34:10.891906  2976 layer_factory.hpp:77] Creating layer scale3b6_branch2a
I0521 02:34:10.891909  2976 net.cpp:84] Creating Layer scale3b6_branch2a
I0521 02:34:10.891911  2976 net.cpp:406] scale3b6_branch2a <- res3b6_branch2a
I0521 02:34:10.891913  2976 net.cpp:367] scale3b6_branch2a -> res3b6_branch2a (in-place)
I0521 02:34:10.891943  2976 layer_factory.hpp:77] Creating layer scale3b6_branch2a
I0521 02:34:10.892029  2976 net.cpp:122] Setting up scale3b6_branch2a
I0521 02:34:10.892032  2976 net.cpp:129] Top shape: 5 128 28 28 (501760)
I0521 02:34:10.892035  2976 net.cpp:137] Memory required for data: 1024593940
I0521 02:34:10.892037  2976 layer_factory.hpp:77] Creating layer res3b6_branch2a_relu
I0521 02:34:10.892040  2976 net.cpp:84] Creating Layer res3b6_branch2a_relu
I0521 02:34:10.892041  2976 net.cpp:406] res3b6_branch2a_relu <- res3b6_branch2a
I0521 02:34:10.892045  2976 net.cpp:367] res3b6_branch2a_relu -> res3b6_branch2a (in-place)
I0521 02:34:10.892397  2976 net.cpp:122] Setting up res3b6_branch2a_relu
I0521 02:34:10.892402  2976 net.cpp:129] Top shape: 5 128 28 28 (501760)
I0521 02:34:10.892405  2976 net.cpp:137] Memory required for data: 1026600980
I0521 02:34:10.892406  2976 layer_factory.hpp:77] Creating layer res3b6_branch2b
I0521 02:34:10.892410  2976 net.cpp:84] Creating Layer res3b6_branch2b
I0521 02:34:10.892412  2976 net.cpp:406] res3b6_branch2b <- res3b6_branch2a
I0521 02:34:10.892416  2976 net.cpp:380] res3b6_branch2b -> res3b6_branch2b
I0521 02:34:10.894883  2976 net.cpp:122] Setting up res3b6_branch2b
I0521 02:34:10.894891  2976 net.cpp:129] Top shape: 5 128 28 28 (501760)
I0521 02:34:10.894892  2976 net.cpp:137] Memory required for data: 1028608020
I0521 02:34:10.894896  2976 layer_factory.hpp:77] Creating layer bn3b6_branch2b
I0521 02:34:10.894898  2976 net.cpp:84] Creating Layer bn3b6_branch2b
I0521 02:34:10.894901  2976 net.cpp:406] bn3b6_branch2b <- res3b6_branch2b
I0521 02:34:10.894904  2976 net.cpp:367] bn3b6_branch2b -> res3b6_branch2b (in-place)
I0521 02:34:10.895069  2976 net.cpp:122] Setting up bn3b6_branch2b
I0521 02:34:10.895084  2976 net.cpp:129] Top shape: 5 128 28 28 (501760)
I0521 02:34:10.895087  2976 net.cpp:137] Memory required for data: 1030615060
I0521 02:34:10.895092  2976 layer_factory.hpp:77] Creating layer scale3b6_branch2b
I0521 02:34:10.895093  2976 net.cpp:84] Creating Layer scale3b6_branch2b
I0521 02:34:10.895095  2976 net.cpp:406] scale3b6_branch2b <- res3b6_branch2b
I0521 02:34:10.895098  2976 net.cpp:367] scale3b6_branch2b -> res3b6_branch2b (in-place)
I0521 02:34:10.895128  2976 layer_factory.hpp:77] Creating layer scale3b6_branch2b
I0521 02:34:10.895215  2976 net.cpp:122] Setting up scale3b6_branch2b
I0521 02:34:10.895220  2976 net.cpp:129] Top shape: 5 128 28 28 (501760)
I0521 02:34:10.895221  2976 net.cpp:137] Memory required for data: 1032622100
I0521 02:34:10.895225  2976 layer_factory.hpp:77] Creating layer res3b6_branch2b_relu
I0521 02:34:10.895227  2976 net.cpp:84] Creating Layer res3b6_branch2b_relu
I0521 02:34:10.895229  2976 net.cpp:406] res3b6_branch2b_relu <- res3b6_branch2b
I0521 02:34:10.895232  2976 net.cpp:367] res3b6_branch2b_relu -> res3b6_branch2b (in-place)
I0521 02:34:10.895599  2976 net.cpp:122] Setting up res3b6_branch2b_relu
I0521 02:34:10.895606  2976 net.cpp:129] Top shape: 5 128 28 28 (501760)
I0521 02:34:10.895607  2976 net.cpp:137] Memory required for data: 1034629140
I0521 02:34:10.895611  2976 layer_factory.hpp:77] Creating layer res3b6_branch2c
I0521 02:34:10.895615  2976 net.cpp:84] Creating Layer res3b6_branch2c
I0521 02:34:10.895618  2976 net.cpp:406] res3b6_branch2c <- res3b6_branch2b
I0521 02:34:10.895622  2976 net.cpp:380] res3b6_branch2c -> res3b6_branch2c
I0521 02:34:10.897382  2976 net.cpp:122] Setting up res3b6_branch2c
I0521 02:34:10.897389  2976 net.cpp:129] Top shape: 5 512 28 28 (2007040)
I0521 02:34:10.897397  2976 net.cpp:137] Memory required for data: 1042657300
I0521 02:34:10.897399  2976 layer_factory.hpp:77] Creating layer bn3b6_branch2c
I0521 02:34:10.897403  2976 net.cpp:84] Creating Layer bn3b6_branch2c
I0521 02:34:10.897406  2976 net.cpp:406] bn3b6_branch2c <- res3b6_branch2c
I0521 02:34:10.897408  2976 net.cpp:367] bn3b6_branch2c -> res3b6_branch2c (in-place)
I0521 02:34:10.897568  2976 net.cpp:122] Setting up bn3b6_branch2c
I0521 02:34:10.897573  2976 net.cpp:129] Top shape: 5 512 28 28 (2007040)
I0521 02:34:10.897574  2976 net.cpp:137] Memory required for data: 1050685460
I0521 02:34:10.897578  2976 layer_factory.hpp:77] Creating layer scale3b6_branch2c
I0521 02:34:10.897580  2976 net.cpp:84] Creating Layer scale3b6_branch2c
I0521 02:34:10.897583  2976 net.cpp:406] scale3b6_branch2c <- res3b6_branch2c
I0521 02:34:10.897585  2976 net.cpp:367] scale3b6_branch2c -> res3b6_branch2c (in-place)
I0521 02:34:10.897614  2976 layer_factory.hpp:77] Creating layer scale3b6_branch2c
I0521 02:34:10.897698  2976 net.cpp:122] Setting up scale3b6_branch2c
I0521 02:34:10.897702  2976 net.cpp:129] Top shape: 5 512 28 28 (2007040)
I0521 02:34:10.897704  2976 net.cpp:137] Memory required for data: 1058713620
I0521 02:34:10.897707  2976 layer_factory.hpp:77] Creating layer res3b6
I0521 02:34:10.897711  2976 net.cpp:84] Creating Layer res3b6
I0521 02:34:10.897713  2976 net.cpp:406] res3b6 <- res3b5_res3b5_relu_0_split_1
I0521 02:34:10.897716  2976 net.cpp:406] res3b6 <- res3b6_branch2c
I0521 02:34:10.897717  2976 net.cpp:380] res3b6 -> res3b6
I0521 02:34:10.897734  2976 net.cpp:122] Setting up res3b6
I0521 02:34:10.897737  2976 net.cpp:129] Top shape: 5 512 28 28 (2007040)
I0521 02:34:10.897739  2976 net.cpp:137] Memory required for data: 1066741780
I0521 02:34:10.897742  2976 layer_factory.hpp:77] Creating layer res3b6_relu
I0521 02:34:10.897744  2976 net.cpp:84] Creating Layer res3b6_relu
I0521 02:34:10.897747  2976 net.cpp:406] res3b6_relu <- res3b6
I0521 02:34:10.897749  2976 net.cpp:367] res3b6_relu -> res3b6 (in-place)
I0521 02:34:10.898211  2976 net.cpp:122] Setting up res3b6_relu
I0521 02:34:10.898216  2976 net.cpp:129] Top shape: 5 512 28 28 (2007040)
I0521 02:34:10.898218  2976 net.cpp:137] Memory required for data: 1074769940
I0521 02:34:10.898221  2976 layer_factory.hpp:77] Creating layer res3b6_res3b6_relu_0_split
I0521 02:34:10.898224  2976 net.cpp:84] Creating Layer res3b6_res3b6_relu_0_split
I0521 02:34:10.898226  2976 net.cpp:406] res3b6_res3b6_relu_0_split <- res3b6
I0521 02:34:10.898229  2976 net.cpp:380] res3b6_res3b6_relu_0_split -> res3b6_res3b6_relu_0_split_0
I0521 02:34:10.898233  2976 net.cpp:380] res3b6_res3b6_relu_0_split -> res3b6_res3b6_relu_0_split_1
I0521 02:34:10.898267  2976 net.cpp:122] Setting up res3b6_res3b6_relu_0_split
I0521 02:34:10.898270  2976 net.cpp:129] Top shape: 5 512 28 28 (2007040)
I0521 02:34:10.898272  2976 net.cpp:129] Top shape: 5 512 28 28 (2007040)
I0521 02:34:10.898273  2976 net.cpp:137] Memory required for data: 1090826260
I0521 02:34:10.898275  2976 layer_factory.hpp:77] Creating layer res3b7_branch2a
I0521 02:34:10.898280  2976 net.cpp:84] Creating Layer res3b7_branch2a
I0521 02:34:10.898283  2976 net.cpp:406] res3b7_branch2a <- res3b6_res3b6_relu_0_split_0
I0521 02:34:10.898285  2976 net.cpp:380] res3b7_branch2a -> res3b7_branch2a
I0521 02:34:10.900607  2976 net.cpp:122] Setting up res3b7_branch2a
I0521 02:34:10.900614  2976 net.cpp:129] Top shape: 5 128 28 28 (501760)
I0521 02:34:10.900616  2976 net.cpp:137] Memory required for data: 1092833300
I0521 02:34:10.900619  2976 layer_factory.hpp:77] Creating layer bn3b7_branch2a
I0521 02:34:10.900624  2976 net.cpp:84] Creating Layer bn3b7_branch2a
I0521 02:34:10.900626  2976 net.cpp:406] bn3b7_branch2a <- res3b7_branch2a
I0521 02:34:10.900629  2976 net.cpp:367] bn3b7_branch2a -> res3b7_branch2a (in-place)
I0521 02:34:10.900789  2976 net.cpp:122] Setting up bn3b7_branch2a
I0521 02:34:10.900794  2976 net.cpp:129] Top shape: 5 128 28 28 (501760)
I0521 02:34:10.900795  2976 net.cpp:137] Memory required for data: 1094840340
I0521 02:34:10.900804  2976 layer_factory.hpp:77] Creating layer scale3b7_branch2a
I0521 02:34:10.900806  2976 net.cpp:84] Creating Layer scale3b7_branch2a
I0521 02:34:10.900809  2976 net.cpp:406] scale3b7_branch2a <- res3b7_branch2a
I0521 02:34:10.900810  2976 net.cpp:367] scale3b7_branch2a -> res3b7_branch2a (in-place)
I0521 02:34:10.900841  2976 layer_factory.hpp:77] Creating layer scale3b7_branch2a
I0521 02:34:10.900930  2976 net.cpp:122] Setting up scale3b7_branch2a
I0521 02:34:10.900933  2976 net.cpp:129] Top shape: 5 128 28 28 (501760)
I0521 02:34:10.900935  2976 net.cpp:137] Memory required for data: 1096847380
I0521 02:34:10.900938  2976 layer_factory.hpp:77] Creating layer res3b7_branch2a_relu
I0521 02:34:10.900941  2976 net.cpp:84] Creating Layer res3b7_branch2a_relu
I0521 02:34:10.900943  2976 net.cpp:406] res3b7_branch2a_relu <- res3b7_branch2a
I0521 02:34:10.900946  2976 net.cpp:367] res3b7_branch2a_relu -> res3b7_branch2a (in-place)
I0521 02:34:10.901304  2976 net.cpp:122] Setting up res3b7_branch2a_relu
I0521 02:34:10.901309  2976 net.cpp:129] Top shape: 5 128 28 28 (501760)
I0521 02:34:10.901311  2976 net.cpp:137] Memory required for data: 1098854420
I0521 02:34:10.901312  2976 layer_factory.hpp:77] Creating layer res3b7_branch2b
I0521 02:34:10.901317  2976 net.cpp:84] Creating Layer res3b7_branch2b
I0521 02:34:10.901319  2976 net.cpp:406] res3b7_branch2b <- res3b7_branch2a
I0521 02:34:10.901322  2976 net.cpp:380] res3b7_branch2b -> res3b7_branch2b
I0521 02:34:10.904229  2976 net.cpp:122] Setting up res3b7_branch2b
I0521 02:34:10.904237  2976 net.cpp:129] Top shape: 5 128 28 28 (501760)
I0521 02:34:10.904239  2976 net.cpp:137] Memory required for data: 1100861460
I0521 02:34:10.904242  2976 layer_factory.hpp:77] Creating layer bn3b7_branch2b
I0521 02:34:10.904247  2976 net.cpp:84] Creating Layer bn3b7_branch2b
I0521 02:34:10.904248  2976 net.cpp:406] bn3b7_branch2b <- res3b7_branch2b
I0521 02:34:10.904251  2976 net.cpp:367] bn3b7_branch2b -> res3b7_branch2b (in-place)
I0521 02:34:10.904418  2976 net.cpp:122] Setting up bn3b7_branch2b
I0521 02:34:10.904422  2976 net.cpp:129] Top shape: 5 128 28 28 (501760)
I0521 02:34:10.904424  2976 net.cpp:137] Memory required for data: 1102868500
I0521 02:34:10.904428  2976 layer_factory.hpp:77] Creating layer scale3b7_branch2b
I0521 02:34:10.904430  2976 net.cpp:84] Creating Layer scale3b7_branch2b
I0521 02:34:10.904433  2976 net.cpp:406] scale3b7_branch2b <- res3b7_branch2b
I0521 02:34:10.904435  2976 net.cpp:367] scale3b7_branch2b -> res3b7_branch2b (in-place)
I0521 02:34:10.904465  2976 layer_factory.hpp:77] Creating layer scale3b7_branch2b
I0521 02:34:10.904554  2976 net.cpp:122] Setting up scale3b7_branch2b
I0521 02:34:10.904558  2976 net.cpp:129] Top shape: 5 128 28 28 (501760)
I0521 02:34:10.904559  2976 net.cpp:137] Memory required for data: 1104875540
I0521 02:34:10.904562  2976 layer_factory.hpp:77] Creating layer res3b7_branch2b_relu
I0521 02:34:10.904566  2976 net.cpp:84] Creating Layer res3b7_branch2b_relu
I0521 02:34:10.904567  2976 net.cpp:406] res3b7_branch2b_relu <- res3b7_branch2b
I0521 02:34:10.904569  2976 net.cpp:367] res3b7_branch2b_relu -> res3b7_branch2b (in-place)
I0521 02:34:10.905030  2976 net.cpp:122] Setting up res3b7_branch2b_relu
I0521 02:34:10.905036  2976 net.cpp:129] Top shape: 5 128 28 28 (501760)
I0521 02:34:10.905038  2976 net.cpp:137] Memory required for data: 1106882580
I0521 02:34:10.905040  2976 layer_factory.hpp:77] Creating layer res3b7_branch2c
I0521 02:34:10.905045  2976 net.cpp:84] Creating Layer res3b7_branch2c
I0521 02:34:10.905047  2976 net.cpp:406] res3b7_branch2c <- res3b7_branch2b
I0521 02:34:10.905050  2976 net.cpp:380] res3b7_branch2c -> res3b7_branch2c
I0521 02:34:10.907240  2976 net.cpp:122] Setting up res3b7_branch2c
I0521 02:34:10.907248  2976 net.cpp:129] Top shape: 5 512 28 28 (2007040)
I0521 02:34:10.907251  2976 net.cpp:137] Memory required for data: 1114910740
I0521 02:34:10.907254  2976 layer_factory.hpp:77] Creating layer bn3b7_branch2c
I0521 02:34:10.907258  2976 net.cpp:84] Creating Layer bn3b7_branch2c
I0521 02:34:10.907265  2976 net.cpp:406] bn3b7_branch2c <- res3b7_branch2c
I0521 02:34:10.907269  2976 net.cpp:367] bn3b7_branch2c -> res3b7_branch2c (in-place)
I0521 02:34:10.907434  2976 net.cpp:122] Setting up bn3b7_branch2c
I0521 02:34:10.907438  2976 net.cpp:129] Top shape: 5 512 28 28 (2007040)
I0521 02:34:10.907439  2976 net.cpp:137] Memory required for data: 1122938900
I0521 02:34:10.907444  2976 layer_factory.hpp:77] Creating layer scale3b7_branch2c
I0521 02:34:10.907446  2976 net.cpp:84] Creating Layer scale3b7_branch2c
I0521 02:34:10.907449  2976 net.cpp:406] scale3b7_branch2c <- res3b7_branch2c
I0521 02:34:10.907450  2976 net.cpp:367] scale3b7_branch2c -> res3b7_branch2c (in-place)
I0521 02:34:10.907481  2976 layer_factory.hpp:77] Creating layer scale3b7_branch2c
I0521 02:34:10.907567  2976 net.cpp:122] Setting up scale3b7_branch2c
I0521 02:34:10.907572  2976 net.cpp:129] Top shape: 5 512 28 28 (2007040)
I0521 02:34:10.907573  2976 net.cpp:137] Memory required for data: 1130967060
I0521 02:34:10.907577  2976 layer_factory.hpp:77] Creating layer res3b7
I0521 02:34:10.907580  2976 net.cpp:84] Creating Layer res3b7
I0521 02:34:10.907582  2976 net.cpp:406] res3b7 <- res3b6_res3b6_relu_0_split_1
I0521 02:34:10.907584  2976 net.cpp:406] res3b7 <- res3b7_branch2c
I0521 02:34:10.907588  2976 net.cpp:380] res3b7 -> res3b7
I0521 02:34:10.907604  2976 net.cpp:122] Setting up res3b7
I0521 02:34:10.907608  2976 net.cpp:129] Top shape: 5 512 28 28 (2007040)
I0521 02:34:10.907609  2976 net.cpp:137] Memory required for data: 1138995220
I0521 02:34:10.907611  2976 layer_factory.hpp:77] Creating layer res3b7_relu
I0521 02:34:10.907614  2976 net.cpp:84] Creating Layer res3b7_relu
I0521 02:34:10.907618  2976 net.cpp:406] res3b7_relu <- res3b7
I0521 02:34:10.907620  2976 net.cpp:367] res3b7_relu -> res3b7 (in-place)
I0521 02:34:10.907981  2976 net.cpp:122] Setting up res3b7_relu
I0521 02:34:10.907986  2976 net.cpp:129] Top shape: 5 512 28 28 (2007040)
I0521 02:34:10.907987  2976 net.cpp:137] Memory required for data: 1147023380
I0521 02:34:10.907989  2976 layer_factory.hpp:77] Creating layer res3b7_res3b7_relu_0_split
I0521 02:34:10.907994  2976 net.cpp:84] Creating Layer res3b7_res3b7_relu_0_split
I0521 02:34:10.907995  2976 net.cpp:406] res3b7_res3b7_relu_0_split <- res3b7
I0521 02:34:10.907999  2976 net.cpp:380] res3b7_res3b7_relu_0_split -> res3b7_res3b7_relu_0_split_0
I0521 02:34:10.908002  2976 net.cpp:380] res3b7_res3b7_relu_0_split -> res3b7_res3b7_relu_0_split_1
I0521 02:34:10.908035  2976 net.cpp:122] Setting up res3b7_res3b7_relu_0_split
I0521 02:34:10.908040  2976 net.cpp:129] Top shape: 5 512 28 28 (2007040)
I0521 02:34:10.908041  2976 net.cpp:129] Top shape: 5 512 28 28 (2007040)
I0521 02:34:10.908042  2976 net.cpp:137] Memory required for data: 1163079700
I0521 02:34:10.908044  2976 layer_factory.hpp:77] Creating layer res4a_branch1
I0521 02:34:10.908049  2976 net.cpp:84] Creating Layer res4a_branch1
I0521 02:34:10.908051  2976 net.cpp:406] res4a_branch1 <- res3b7_res3b7_relu_0_split_0
I0521 02:34:10.908056  2976 net.cpp:380] res4a_branch1 -> res4a_branch1
I0521 02:34:10.913352  2976 net.cpp:122] Setting up res4a_branch1
I0521 02:34:10.913360  2976 net.cpp:129] Top shape: 5 1024 14 14 (1003520)
I0521 02:34:10.913362  2976 net.cpp:137] Memory required for data: 1167093780
I0521 02:34:10.913365  2976 layer_factory.hpp:77] Creating layer bn4a_branch1
I0521 02:34:10.913370  2976 net.cpp:84] Creating Layer bn4a_branch1
I0521 02:34:10.913372  2976 net.cpp:406] bn4a_branch1 <- res4a_branch1
I0521 02:34:10.913375  2976 net.cpp:367] bn4a_branch1 -> res4a_branch1 (in-place)
I0521 02:34:10.913547  2976 net.cpp:122] Setting up bn4a_branch1
I0521 02:34:10.913550  2976 net.cpp:129] Top shape: 5 1024 14 14 (1003520)
I0521 02:34:10.913552  2976 net.cpp:137] Memory required for data: 1171107860
I0521 02:34:10.913555  2976 layer_factory.hpp:77] Creating layer scale4a_branch1
I0521 02:34:10.913560  2976 net.cpp:84] Creating Layer scale4a_branch1
I0521 02:34:10.913563  2976 net.cpp:406] scale4a_branch1 <- res4a_branch1
I0521 02:34:10.913570  2976 net.cpp:367] scale4a_branch1 -> res4a_branch1 (in-place)
I0521 02:34:10.913597  2976 layer_factory.hpp:77] Creating layer scale4a_branch1
I0521 02:34:10.913691  2976 net.cpp:122] Setting up scale4a_branch1
I0521 02:34:10.913695  2976 net.cpp:129] Top shape: 5 1024 14 14 (1003520)
I0521 02:34:10.913697  2976 net.cpp:137] Memory required for data: 1175121940
I0521 02:34:10.913699  2976 layer_factory.hpp:77] Creating layer res4a_branch2a
I0521 02:34:10.913704  2976 net.cpp:84] Creating Layer res4a_branch2a
I0521 02:34:10.913707  2976 net.cpp:406] res4a_branch2a <- res3b7_res3b7_relu_0_split_1
I0521 02:34:10.913709  2976 net.cpp:380] res4a_branch2a -> res4a_branch2a
I0521 02:34:10.916206  2976 net.cpp:122] Setting up res4a_branch2a
I0521 02:34:10.916216  2976 net.cpp:129] Top shape: 5 256 14 14 (250880)
I0521 02:34:10.916218  2976 net.cpp:137] Memory required for data: 1176125460
I0521 02:34:10.916223  2976 layer_factory.hpp:77] Creating layer bn4a_branch2a
I0521 02:34:10.916227  2976 net.cpp:84] Creating Layer bn4a_branch2a
I0521 02:34:10.916229  2976 net.cpp:406] bn4a_branch2a <- res4a_branch2a
I0521 02:34:10.916232  2976 net.cpp:367] bn4a_branch2a -> res4a_branch2a (in-place)
I0521 02:34:10.916399  2976 net.cpp:122] Setting up bn4a_branch2a
I0521 02:34:10.916404  2976 net.cpp:129] Top shape: 5 256 14 14 (250880)
I0521 02:34:10.916405  2976 net.cpp:137] Memory required for data: 1177128980
I0521 02:34:10.916409  2976 layer_factory.hpp:77] Creating layer scale4a_branch2a
I0521 02:34:10.916412  2976 net.cpp:84] Creating Layer scale4a_branch2a
I0521 02:34:10.916414  2976 net.cpp:406] scale4a_branch2a <- res4a_branch2a
I0521 02:34:10.916416  2976 net.cpp:367] scale4a_branch2a -> res4a_branch2a (in-place)
I0521 02:34:10.916450  2976 layer_factory.hpp:77] Creating layer scale4a_branch2a
I0521 02:34:10.916540  2976 net.cpp:122] Setting up scale4a_branch2a
I0521 02:34:10.916543  2976 net.cpp:129] Top shape: 5 256 14 14 (250880)
I0521 02:34:10.916545  2976 net.cpp:137] Memory required for data: 1178132500
I0521 02:34:10.916548  2976 layer_factory.hpp:77] Creating layer res4a_branch2a_relu
I0521 02:34:10.916551  2976 net.cpp:84] Creating Layer res4a_branch2a_relu
I0521 02:34:10.916553  2976 net.cpp:406] res4a_branch2a_relu <- res4a_branch2a
I0521 02:34:10.916556  2976 net.cpp:367] res4a_branch2a_relu -> res4a_branch2a (in-place)
I0521 02:34:10.917034  2976 net.cpp:122] Setting up res4a_branch2a_relu
I0521 02:34:10.917039  2976 net.cpp:129] Top shape: 5 256 14 14 (250880)
I0521 02:34:10.917042  2976 net.cpp:137] Memory required for data: 1179136020
I0521 02:34:10.917043  2976 layer_factory.hpp:77] Creating layer res4a_branch2b
I0521 02:34:10.917049  2976 net.cpp:84] Creating Layer res4a_branch2b
I0521 02:34:10.917052  2976 net.cpp:406] res4a_branch2b <- res4a_branch2a
I0521 02:34:10.917055  2976 net.cpp:380] res4a_branch2b -> res4a_branch2b
I0521 02:34:10.922808  2976 net.cpp:122] Setting up res4a_branch2b
I0521 02:34:10.922817  2976 net.cpp:129] Top shape: 5 256 14 14 (250880)
I0521 02:34:10.922819  2976 net.cpp:137] Memory required for data: 1180139540
I0521 02:34:10.922822  2976 layer_factory.hpp:77] Creating layer bn4a_branch2b
I0521 02:34:10.922827  2976 net.cpp:84] Creating Layer bn4a_branch2b
I0521 02:34:10.922829  2976 net.cpp:406] bn4a_branch2b <- res4a_branch2b
I0521 02:34:10.922832  2976 net.cpp:367] bn4a_branch2b -> res4a_branch2b (in-place)
I0521 02:34:10.923000  2976 net.cpp:122] Setting up bn4a_branch2b
I0521 02:34:10.923004  2976 net.cpp:129] Top shape: 5 256 14 14 (250880)
I0521 02:34:10.923007  2976 net.cpp:137] Memory required for data: 1181143060
I0521 02:34:10.923009  2976 layer_factory.hpp:77] Creating layer scale4a_branch2b
I0521 02:34:10.923012  2976 net.cpp:84] Creating Layer scale4a_branch2b
I0521 02:34:10.923014  2976 net.cpp:406] scale4a_branch2b <- res4a_branch2b
I0521 02:34:10.923018  2976 net.cpp:367] scale4a_branch2b -> res4a_branch2b (in-place)
I0521 02:34:10.923050  2976 layer_factory.hpp:77] Creating layer scale4a_branch2b
I0521 02:34:10.923141  2976 net.cpp:122] Setting up scale4a_branch2b
I0521 02:34:10.923151  2976 net.cpp:129] Top shape: 5 256 14 14 (250880)
I0521 02:34:10.923152  2976 net.cpp:137] Memory required for data: 1182146580
I0521 02:34:10.923156  2976 layer_factory.hpp:77] Creating layer res4a_branch2b_relu
I0521 02:34:10.923158  2976 net.cpp:84] Creating Layer res4a_branch2b_relu
I0521 02:34:10.923161  2976 net.cpp:406] res4a_branch2b_relu <- res4a_branch2b
I0521 02:34:10.923162  2976 net.cpp:367] res4a_branch2b_relu -> res4a_branch2b (in-place)
I0521 02:34:10.923629  2976 net.cpp:122] Setting up res4a_branch2b_relu
I0521 02:34:10.923635  2976 net.cpp:129] Top shape: 5 256 14 14 (250880)
I0521 02:34:10.923637  2976 net.cpp:137] Memory required for data: 1183150100
I0521 02:34:10.923640  2976 layer_factory.hpp:77] Creating layer res4a_branch2c
I0521 02:34:10.923645  2976 net.cpp:84] Creating Layer res4a_branch2c
I0521 02:34:10.923647  2976 net.cpp:406] res4a_branch2c <- res4a_branch2b
I0521 02:34:10.923650  2976 net.cpp:380] res4a_branch2c -> res4a_branch2c
I0521 02:34:10.927238  2976 net.cpp:122] Setting up res4a_branch2c
I0521 02:34:10.927248  2976 net.cpp:129] Top shape: 5 1024 14 14 (1003520)
I0521 02:34:10.927249  2976 net.cpp:137] Memory required for data: 1187164180
I0521 02:34:10.927253  2976 layer_factory.hpp:77] Creating layer bn4a_branch2c
I0521 02:34:10.927256  2976 net.cpp:84] Creating Layer bn4a_branch2c
I0521 02:34:10.927258  2976 net.cpp:406] bn4a_branch2c <- res4a_branch2c
I0521 02:34:10.927261  2976 net.cpp:367] bn4a_branch2c -> res4a_branch2c (in-place)
I0521 02:34:10.927430  2976 net.cpp:122] Setting up bn4a_branch2c
I0521 02:34:10.927434  2976 net.cpp:129] Top shape: 5 1024 14 14 (1003520)
I0521 02:34:10.927436  2976 net.cpp:137] Memory required for data: 1191178260
I0521 02:34:10.927439  2976 layer_factory.hpp:77] Creating layer scale4a_branch2c
I0521 02:34:10.927443  2976 net.cpp:84] Creating Layer scale4a_branch2c
I0521 02:34:10.927444  2976 net.cpp:406] scale4a_branch2c <- res4a_branch2c
I0521 02:34:10.927446  2976 net.cpp:367] scale4a_branch2c -> res4a_branch2c (in-place)
I0521 02:34:10.927479  2976 layer_factory.hpp:77] Creating layer scale4a_branch2c
I0521 02:34:10.927572  2976 net.cpp:122] Setting up scale4a_branch2c
I0521 02:34:10.927577  2976 net.cpp:129] Top shape: 5 1024 14 14 (1003520)
I0521 02:34:10.927578  2976 net.cpp:137] Memory required for data: 1195192340
I0521 02:34:10.927582  2976 layer_factory.hpp:77] Creating layer res4a
I0521 02:34:10.927585  2976 net.cpp:84] Creating Layer res4a
I0521 02:34:10.927587  2976 net.cpp:406] res4a <- res4a_branch1
I0521 02:34:10.927589  2976 net.cpp:406] res4a <- res4a_branch2c
I0521 02:34:10.927592  2976 net.cpp:380] res4a -> res4a
I0521 02:34:10.927610  2976 net.cpp:122] Setting up res4a
I0521 02:34:10.927613  2976 net.cpp:129] Top shape: 5 1024 14 14 (1003520)
I0521 02:34:10.927615  2976 net.cpp:137] Memory required for data: 1199206420
I0521 02:34:10.927618  2976 layer_factory.hpp:77] Creating layer res4a_relu
I0521 02:34:10.927619  2976 net.cpp:84] Creating Layer res4a_relu
I0521 02:34:10.927621  2976 net.cpp:406] res4a_relu <- res4a
I0521 02:34:10.927625  2976 net.cpp:367] res4a_relu -> res4a (in-place)
I0521 02:34:10.927984  2976 net.cpp:122] Setting up res4a_relu
I0521 02:34:10.927989  2976 net.cpp:129] Top shape: 5 1024 14 14 (1003520)
I0521 02:34:10.927991  2976 net.cpp:137] Memory required for data: 1203220500
I0521 02:34:10.927994  2976 layer_factory.hpp:77] Creating layer res4a_res4a_relu_0_split
I0521 02:34:10.927996  2976 net.cpp:84] Creating Layer res4a_res4a_relu_0_split
I0521 02:34:10.927999  2976 net.cpp:406] res4a_res4a_relu_0_split <- res4a
I0521 02:34:10.928002  2976 net.cpp:380] res4a_res4a_relu_0_split -> res4a_res4a_relu_0_split_0
I0521 02:34:10.928006  2976 net.cpp:380] res4a_res4a_relu_0_split -> res4a_res4a_relu_0_split_1
I0521 02:34:10.928040  2976 net.cpp:122] Setting up res4a_res4a_relu_0_split
I0521 02:34:10.928043  2976 net.cpp:129] Top shape: 5 1024 14 14 (1003520)
I0521 02:34:10.928045  2976 net.cpp:129] Top shape: 5 1024 14 14 (1003520)
I0521 02:34:10.928053  2976 net.cpp:137] Memory required for data: 1211248660
I0521 02:34:10.928056  2976 layer_factory.hpp:77] Creating layer res4b1_branch2a
I0521 02:34:10.928059  2976 net.cpp:84] Creating Layer res4b1_branch2a
I0521 02:34:10.928062  2976 net.cpp:406] res4b1_branch2a <- res4a_res4a_relu_0_split_0
I0521 02:34:10.928066  2976 net.cpp:380] res4b1_branch2a -> res4b1_branch2a
I0521 02:34:10.931226  2976 net.cpp:122] Setting up res4b1_branch2a
I0521 02:34:10.931232  2976 net.cpp:129] Top shape: 5 256 14 14 (250880)
I0521 02:34:10.931234  2976 net.cpp:137] Memory required for data: 1212252180
I0521 02:34:10.931238  2976 layer_factory.hpp:77] Creating layer bn4b1_branch2a
I0521 02:34:10.931242  2976 net.cpp:84] Creating Layer bn4b1_branch2a
I0521 02:34:10.931244  2976 net.cpp:406] bn4b1_branch2a <- res4b1_branch2a
I0521 02:34:10.931247  2976 net.cpp:367] bn4b1_branch2a -> res4b1_branch2a (in-place)
I0521 02:34:10.931413  2976 net.cpp:122] Setting up bn4b1_branch2a
I0521 02:34:10.931417  2976 net.cpp:129] Top shape: 5 256 14 14 (250880)
I0521 02:34:10.931419  2976 net.cpp:137] Memory required for data: 1213255700
I0521 02:34:10.931422  2976 layer_factory.hpp:77] Creating layer scale4b1_branch2a
I0521 02:34:10.931427  2976 net.cpp:84] Creating Layer scale4b1_branch2a
I0521 02:34:10.931428  2976 net.cpp:406] scale4b1_branch2a <- res4b1_branch2a
I0521 02:34:10.931430  2976 net.cpp:367] scale4b1_branch2a -> res4b1_branch2a (in-place)
I0521 02:34:10.931463  2976 layer_factory.hpp:77] Creating layer scale4b1_branch2a
I0521 02:34:10.931555  2976 net.cpp:122] Setting up scale4b1_branch2a
I0521 02:34:10.931557  2976 net.cpp:129] Top shape: 5 256 14 14 (250880)
I0521 02:34:10.931560  2976 net.cpp:137] Memory required for data: 1214259220
I0521 02:34:10.931562  2976 layer_factory.hpp:77] Creating layer res4b1_branch2a_relu
I0521 02:34:10.931565  2976 net.cpp:84] Creating Layer res4b1_branch2a_relu
I0521 02:34:10.931567  2976 net.cpp:406] res4b1_branch2a_relu <- res4b1_branch2a
I0521 02:34:10.931571  2976 net.cpp:367] res4b1_branch2a_relu -> res4b1_branch2a (in-place)
I0521 02:34:10.931936  2976 net.cpp:122] Setting up res4b1_branch2a_relu
I0521 02:34:10.931941  2976 net.cpp:129] Top shape: 5 256 14 14 (250880)
I0521 02:34:10.931942  2976 net.cpp:137] Memory required for data: 1215262740
I0521 02:34:10.931944  2976 layer_factory.hpp:77] Creating layer res4b1_branch2b
I0521 02:34:10.931949  2976 net.cpp:84] Creating Layer res4b1_branch2b
I0521 02:34:10.931951  2976 net.cpp:406] res4b1_branch2b <- res4b1_branch2a
I0521 02:34:10.931954  2976 net.cpp:380] res4b1_branch2b -> res4b1_branch2b
I0521 02:34:10.938050  2976 net.cpp:122] Setting up res4b1_branch2b
I0521 02:34:10.938066  2976 net.cpp:129] Top shape: 5 256 14 14 (250880)
I0521 02:34:10.938068  2976 net.cpp:137] Memory required for data: 1216266260
I0521 02:34:10.938074  2976 layer_factory.hpp:77] Creating layer bn4b1_branch2b
I0521 02:34:10.938081  2976 net.cpp:84] Creating Layer bn4b1_branch2b
I0521 02:34:10.938084  2976 net.cpp:406] bn4b1_branch2b <- res4b1_branch2b
I0521 02:34:10.938091  2976 net.cpp:367] bn4b1_branch2b -> res4b1_branch2b (in-place)
I0521 02:34:10.938319  2976 net.cpp:122] Setting up bn4b1_branch2b
I0521 02:34:10.938326  2976 net.cpp:129] Top shape: 5 256 14 14 (250880)
I0521 02:34:10.938328  2976 net.cpp:137] Memory required for data: 1217269780
I0521 02:34:10.938331  2976 layer_factory.hpp:77] Creating layer scale4b1_branch2b
I0521 02:34:10.938335  2976 net.cpp:84] Creating Layer scale4b1_branch2b
I0521 02:34:10.938338  2976 net.cpp:406] scale4b1_branch2b <- res4b1_branch2b
I0521 02:34:10.938340  2976 net.cpp:367] scale4b1_branch2b -> res4b1_branch2b (in-place)
I0521 02:34:10.938382  2976 layer_factory.hpp:77] Creating layer scale4b1_branch2b
I0521 02:34:10.938486  2976 net.cpp:122] Setting up scale4b1_branch2b
I0521 02:34:10.938490  2976 net.cpp:129] Top shape: 5 256 14 14 (250880)
I0521 02:34:10.938493  2976 net.cpp:137] Memory required for data: 1218273300
I0521 02:34:10.938495  2976 layer_factory.hpp:77] Creating layer res4b1_branch2b_relu
I0521 02:34:10.938506  2976 net.cpp:84] Creating Layer res4b1_branch2b_relu
I0521 02:34:10.938508  2976 net.cpp:406] res4b1_branch2b_relu <- res4b1_branch2b
I0521 02:34:10.938511  2976 net.cpp:367] res4b1_branch2b_relu -> res4b1_branch2b (in-place)
I0521 02:34:10.939002  2976 net.cpp:122] Setting up res4b1_branch2b_relu
I0521 02:34:10.939007  2976 net.cpp:129] Top shape: 5 256 14 14 (250880)
I0521 02:34:10.939009  2976 net.cpp:137] Memory required for data: 1219276820
I0521 02:34:10.939011  2976 layer_factory.hpp:77] Creating layer res4b1_branch2c
I0521 02:34:10.939016  2976 net.cpp:84] Creating Layer res4b1_branch2c
I0521 02:34:10.939018  2976 net.cpp:406] res4b1_branch2c <- res4b1_branch2b
I0521 02:34:10.939023  2976 net.cpp:380] res4b1_branch2c -> res4b1_branch2c
I0521 02:34:10.942728  2976 net.cpp:122] Setting up res4b1_branch2c
I0521 02:34:10.942736  2976 net.cpp:129] Top shape: 5 1024 14 14 (1003520)
I0521 02:34:10.942739  2976 net.cpp:137] Memory required for data: 1223290900
I0521 02:34:10.942741  2976 layer_factory.hpp:77] Creating layer bn4b1_branch2c
I0521 02:34:10.942745  2976 net.cpp:84] Creating Layer bn4b1_branch2c
I0521 02:34:10.942749  2976 net.cpp:406] bn4b1_branch2c <- res4b1_branch2c
I0521 02:34:10.942751  2976 net.cpp:367] bn4b1_branch2c -> res4b1_branch2c (in-place)
I0521 02:34:10.942925  2976 net.cpp:122] Setting up bn4b1_branch2c
I0521 02:34:10.942929  2976 net.cpp:129] Top shape: 5 1024 14 14 (1003520)
I0521 02:34:10.942931  2976 net.cpp:137] Memory required for data: 1227304980
I0521 02:34:10.942934  2976 layer_factory.hpp:77] Creating layer scale4b1_branch2c
I0521 02:34:10.942939  2976 net.cpp:84] Creating Layer scale4b1_branch2c
I0521 02:34:10.942940  2976 net.cpp:406] scale4b1_branch2c <- res4b1_branch2c
I0521 02:34:10.942944  2976 net.cpp:367] scale4b1_branch2c -> res4b1_branch2c (in-place)
I0521 02:34:10.942972  2976 layer_factory.hpp:77] Creating layer scale4b1_branch2c
I0521 02:34:10.943068  2976 net.cpp:122] Setting up scale4b1_branch2c
I0521 02:34:10.943073  2976 net.cpp:129] Top shape: 5 1024 14 14 (1003520)
I0521 02:34:10.943073  2976 net.cpp:137] Memory required for data: 1231319060
I0521 02:34:10.943085  2976 layer_factory.hpp:77] Creating layer res4b1
I0521 02:34:10.943089  2976 net.cpp:84] Creating Layer res4b1
I0521 02:34:10.943091  2976 net.cpp:406] res4b1 <- res4a_res4a_relu_0_split_1
I0521 02:34:10.943094  2976 net.cpp:406] res4b1 <- res4b1_branch2c
I0521 02:34:10.943097  2976 net.cpp:380] res4b1 -> res4b1
I0521 02:34:10.943115  2976 net.cpp:122] Setting up res4b1
I0521 02:34:10.943119  2976 net.cpp:129] Top shape: 5 1024 14 14 (1003520)
I0521 02:34:10.943120  2976 net.cpp:137] Memory required for data: 1235333140
I0521 02:34:10.943122  2976 layer_factory.hpp:77] Creating layer res4b1_relu
I0521 02:34:10.943125  2976 net.cpp:84] Creating Layer res4b1_relu
I0521 02:34:10.943126  2976 net.cpp:406] res4b1_relu <- res4b1
I0521 02:34:10.943130  2976 net.cpp:367] res4b1_relu -> res4b1 (in-place)
I0521 02:34:10.943493  2976 net.cpp:122] Setting up res4b1_relu
I0521 02:34:10.943500  2976 net.cpp:129] Top shape: 5 1024 14 14 (1003520)
I0521 02:34:10.943500  2976 net.cpp:137] Memory required for data: 1239347220
I0521 02:34:10.943502  2976 layer_factory.hpp:77] Creating layer res4b1_res4b1_relu_0_split
I0521 02:34:10.943506  2976 net.cpp:84] Creating Layer res4b1_res4b1_relu_0_split
I0521 02:34:10.943507  2976 net.cpp:406] res4b1_res4b1_relu_0_split <- res4b1
I0521 02:34:10.943511  2976 net.cpp:380] res4b1_res4b1_relu_0_split -> res4b1_res4b1_relu_0_split_0
I0521 02:34:10.943516  2976 net.cpp:380] res4b1_res4b1_relu_0_split -> res4b1_res4b1_relu_0_split_1
I0521 02:34:10.943549  2976 net.cpp:122] Setting up res4b1_res4b1_relu_0_split
I0521 02:34:10.943553  2976 net.cpp:129] Top shape: 5 1024 14 14 (1003520)
I0521 02:34:10.943555  2976 net.cpp:129] Top shape: 5 1024 14 14 (1003520)
I0521 02:34:10.943557  2976 net.cpp:137] Memory required for data: 1247375380
I0521 02:34:10.943559  2976 layer_factory.hpp:77] Creating layer res4b2_branch2a
I0521 02:34:10.943564  2976 net.cpp:84] Creating Layer res4b2_branch2a
I0521 02:34:10.943572  2976 net.cpp:406] res4b2_branch2a <- res4b1_res4b1_relu_0_split_0
I0521 02:34:10.943575  2976 net.cpp:380] res4b2_branch2a -> res4b2_branch2a
I0521 02:34:10.946694  2976 net.cpp:122] Setting up res4b2_branch2a
I0521 02:34:10.946702  2976 net.cpp:129] Top shape: 5 256 14 14 (250880)
I0521 02:34:10.946704  2976 net.cpp:137] Memory required for data: 1248378900
I0521 02:34:10.946707  2976 layer_factory.hpp:77] Creating layer bn4b2_branch2a
I0521 02:34:10.946712  2976 net.cpp:84] Creating Layer bn4b2_branch2a
I0521 02:34:10.946713  2976 net.cpp:406] bn4b2_branch2a <- res4b2_branch2a
I0521 02:34:10.946717  2976 net.cpp:367] bn4b2_branch2a -> res4b2_branch2a (in-place)
I0521 02:34:10.946890  2976 net.cpp:122] Setting up bn4b2_branch2a
I0521 02:34:10.946894  2976 net.cpp:129] Top shape: 5 256 14 14 (250880)
I0521 02:34:10.946895  2976 net.cpp:137] Memory required for data: 1249382420
I0521 02:34:10.946899  2976 layer_factory.hpp:77] Creating layer scale4b2_branch2a
I0521 02:34:10.946902  2976 net.cpp:84] Creating Layer scale4b2_branch2a
I0521 02:34:10.946903  2976 net.cpp:406] scale4b2_branch2a <- res4b2_branch2a
I0521 02:34:10.946907  2976 net.cpp:367] scale4b2_branch2a -> res4b2_branch2a (in-place)
I0521 02:34:10.946938  2976 layer_factory.hpp:77] Creating layer scale4b2_branch2a
I0521 02:34:10.947031  2976 net.cpp:122] Setting up scale4b2_branch2a
I0521 02:34:10.947036  2976 net.cpp:129] Top shape: 5 256 14 14 (250880)
I0521 02:34:10.947037  2976 net.cpp:137] Memory required for data: 1250385940
I0521 02:34:10.947041  2976 layer_factory.hpp:77] Creating layer res4b2_branch2a_relu
I0521 02:34:10.947042  2976 net.cpp:84] Creating Layer res4b2_branch2a_relu
I0521 02:34:10.947044  2976 net.cpp:406] res4b2_branch2a_relu <- res4b2_branch2a
I0521 02:34:10.947048  2976 net.cpp:367] res4b2_branch2a_relu -> res4b2_branch2a (in-place)
I0521 02:34:10.947507  2976 net.cpp:122] Setting up res4b2_branch2a_relu
I0521 02:34:10.947513  2976 net.cpp:129] Top shape: 5 256 14 14 (250880)
I0521 02:34:10.947515  2976 net.cpp:137] Memory required for data: 1251389460
I0521 02:34:10.947517  2976 layer_factory.hpp:77] Creating layer res4b2_branch2b
I0521 02:34:10.947522  2976 net.cpp:84] Creating Layer res4b2_branch2b
I0521 02:34:10.947525  2976 net.cpp:406] res4b2_branch2b <- res4b2_branch2a
I0521 02:34:10.947527  2976 net.cpp:380] res4b2_branch2b -> res4b2_branch2b
I0521 02:34:10.953390  2976 net.cpp:122] Setting up res4b2_branch2b
I0521 02:34:10.953403  2976 net.cpp:129] Top shape: 5 256 14 14 (250880)
I0521 02:34:10.953405  2976 net.cpp:137] Memory required for data: 1252392980
I0521 02:34:10.953410  2976 layer_factory.hpp:77] Creating layer bn4b2_branch2b
I0521 02:34:10.953414  2976 net.cpp:84] Creating Layer bn4b2_branch2b
I0521 02:34:10.953418  2976 net.cpp:406] bn4b2_branch2b <- res4b2_branch2b
I0521 02:34:10.953423  2976 net.cpp:367] bn4b2_branch2b -> res4b2_branch2b (in-place)
I0521 02:34:10.953603  2976 net.cpp:122] Setting up bn4b2_branch2b
I0521 02:34:10.953608  2976 net.cpp:129] Top shape: 5 256 14 14 (250880)
I0521 02:34:10.953609  2976 net.cpp:137] Memory required for data: 1253396500
I0521 02:34:10.953613  2976 layer_factory.hpp:77] Creating layer scale4b2_branch2b
I0521 02:34:10.953616  2976 net.cpp:84] Creating Layer scale4b2_branch2b
I0521 02:34:10.953619  2976 net.cpp:406] scale4b2_branch2b <- res4b2_branch2b
I0521 02:34:10.953620  2976 net.cpp:367] scale4b2_branch2b -> res4b2_branch2b (in-place)
I0521 02:34:10.953655  2976 layer_factory.hpp:77] Creating layer scale4b2_branch2b
I0521 02:34:10.953749  2976 net.cpp:122] Setting up scale4b2_branch2b
I0521 02:34:10.953753  2976 net.cpp:129] Top shape: 5 256 14 14 (250880)
I0521 02:34:10.953755  2976 net.cpp:137] Memory required for data: 1254400020
I0521 02:34:10.953758  2976 layer_factory.hpp:77] Creating layer res4b2_branch2b_relu
I0521 02:34:10.953761  2976 net.cpp:84] Creating Layer res4b2_branch2b_relu
I0521 02:34:10.953763  2976 net.cpp:406] res4b2_branch2b_relu <- res4b2_branch2b
I0521 02:34:10.953765  2976 net.cpp:367] res4b2_branch2b_relu -> res4b2_branch2b (in-place)
I0521 02:34:10.954130  2976 net.cpp:122] Setting up res4b2_branch2b_relu
I0521 02:34:10.954136  2976 net.cpp:129] Top shape: 5 256 14 14 (250880)
I0521 02:34:10.954138  2976 net.cpp:137] Memory required for data: 1255403540
I0521 02:34:10.954140  2976 layer_factory.hpp:77] Creating layer res4b2_branch2c
I0521 02:34:10.954145  2976 net.cpp:84] Creating Layer res4b2_branch2c
I0521 02:34:10.954147  2976 net.cpp:406] res4b2_branch2c <- res4b2_branch2b
I0521 02:34:10.954150  2976 net.cpp:380] res4b2_branch2c -> res4b2_branch2c
I0521 02:34:10.957819  2976 net.cpp:122] Setting up res4b2_branch2c
I0521 02:34:10.957828  2976 net.cpp:129] Top shape: 5 1024 14 14 (1003520)
I0521 02:34:10.957829  2976 net.cpp:137] Memory required for data: 1259417620
I0521 02:34:10.957832  2976 layer_factory.hpp:77] Creating layer bn4b2_branch2c
I0521 02:34:10.957837  2976 net.cpp:84] Creating Layer bn4b2_branch2c
I0521 02:34:10.957839  2976 net.cpp:406] bn4b2_branch2c <- res4b2_branch2c
I0521 02:34:10.957842  2976 net.cpp:367] bn4b2_branch2c -> res4b2_branch2c (in-place)
I0521 02:34:10.958020  2976 net.cpp:122] Setting up bn4b2_branch2c
I0521 02:34:10.958024  2976 net.cpp:129] Top shape: 5 1024 14 14 (1003520)
I0521 02:34:10.958026  2976 net.cpp:137] Memory required for data: 1263431700
I0521 02:34:10.958029  2976 layer_factory.hpp:77] Creating layer scale4b2_branch2c
I0521 02:34:10.958032  2976 net.cpp:84] Creating Layer scale4b2_branch2c
I0521 02:34:10.958034  2976 net.cpp:406] scale4b2_branch2c <- res4b2_branch2c
I0521 02:34:10.958036  2976 net.cpp:367] scale4b2_branch2c -> res4b2_branch2c (in-place)
I0521 02:34:10.958068  2976 layer_factory.hpp:77] Creating layer scale4b2_branch2c
I0521 02:34:10.958166  2976 net.cpp:122] Setting up scale4b2_branch2c
I0521 02:34:10.958170  2976 net.cpp:129] Top shape: 5 1024 14 14 (1003520)
I0521 02:34:10.958173  2976 net.cpp:137] Memory required for data: 1267445780
I0521 02:34:10.958174  2976 layer_factory.hpp:77] Creating layer res4b2
I0521 02:34:10.958178  2976 net.cpp:84] Creating Layer res4b2
I0521 02:34:10.958180  2976 net.cpp:406] res4b2 <- res4b1_res4b1_relu_0_split_1
I0521 02:34:10.958182  2976 net.cpp:406] res4b2 <- res4b2_branch2c
I0521 02:34:10.958186  2976 net.cpp:380] res4b2 -> res4b2
I0521 02:34:10.958205  2976 net.cpp:122] Setting up res4b2
I0521 02:34:10.958209  2976 net.cpp:129] Top shape: 5 1024 14 14 (1003520)
I0521 02:34:10.958210  2976 net.cpp:137] Memory required for data: 1271459860
I0521 02:34:10.958211  2976 layer_factory.hpp:77] Creating layer res4b2_relu
I0521 02:34:10.958214  2976 net.cpp:84] Creating Layer res4b2_relu
I0521 02:34:10.958216  2976 net.cpp:406] res4b2_relu <- res4b2
I0521 02:34:10.958220  2976 net.cpp:367] res4b2_relu -> res4b2 (in-place)
I0521 02:34:10.958576  2976 net.cpp:122] Setting up res4b2_relu
I0521 02:34:10.958582  2976 net.cpp:129] Top shape: 5 1024 14 14 (1003520)
I0521 02:34:10.958585  2976 net.cpp:137] Memory required for data: 1275473940
I0521 02:34:10.958586  2976 layer_factory.hpp:77] Creating layer res4b2_res4b2_relu_0_split
I0521 02:34:10.958588  2976 net.cpp:84] Creating Layer res4b2_res4b2_relu_0_split
I0521 02:34:10.958591  2976 net.cpp:406] res4b2_res4b2_relu_0_split <- res4b2
I0521 02:34:10.958595  2976 net.cpp:380] res4b2_res4b2_relu_0_split -> res4b2_res4b2_relu_0_split_0
I0521 02:34:10.958598  2976 net.cpp:380] res4b2_res4b2_relu_0_split -> res4b2_res4b2_relu_0_split_1
I0521 02:34:10.958633  2976 net.cpp:122] Setting up res4b2_res4b2_relu_0_split
I0521 02:34:10.958637  2976 net.cpp:129] Top shape: 5 1024 14 14 (1003520)
I0521 02:34:10.958639  2976 net.cpp:129] Top shape: 5 1024 14 14 (1003520)
I0521 02:34:10.958640  2976 net.cpp:137] Memory required for data: 1283502100
I0521 02:34:10.958642  2976 layer_factory.hpp:77] Creating layer res4b3_branch2a
…
I0521 02:34:12.372855  2976 net.cpp:406] bn4b33_branch2a <- res4b33_branch2a
I0521 02:34:12.372859  2976 net.cpp:367] bn4b33_branch2a -> res4b33_branch2a (in-place)
I0521 02:34:12.373011  2976 net.cpp:122] Setting up bn4b33_branch2a
I0521 02:34:12.373016  2976 net.cpp:129] Top shape: 1 256 14 14 (50176)
I0521 02:34:12.373018  2976 net.cpp:137] Memory required for data: 473862160
I0521 02:34:12.373021  2976 layer_factory.hpp:77] Creating layer scale4b33_branch2a
I0521 02:34:12.373024  2976 net.cpp:84] Creating Layer scale4b33_branch2a
I0521 02:34:12.373026  2976 net.cpp:406] scale4b33_branch2a <- res4b33_branch2a
I0521 02:34:12.373028  2976 net.cpp:367] scale4b33_branch2a -> res4b33_branch2a (in-place)
I0521 02:34:12.373057  2976 layer_factory.hpp:77] Creating layer scale4b33_branch2a
I0521 02:34:12.373136  2976 net.cpp:122] Setting up scale4b33_branch2a
I0521 02:34:12.373140  2976 net.cpp:129] Top shape: 1 256 14 14 (50176)
I0521 02:34:12.373142  2976 net.cpp:137] Memory required for data: 474062864
I0521 02:34:12.373145  2976 layer_factory.hpp:77] Creating layer res4b33_branch2a_relu
I0521 02:34:12.373149  2976 net.cpp:84] Creating Layer res4b33_branch2a_relu
I0521 02:34:12.373152  2976 net.cpp:406] res4b33_branch2a_relu <- res4b33_branch2a
I0521 02:34:12.373153  2976 net.cpp:367] res4b33_branch2a_relu -> res4b33_branch2a (in-place)
I0521 02:34:12.373576  2976 net.cpp:122] Setting up res4b33_branch2a_relu
I0521 02:34:12.373581  2976 net.cpp:129] Top shape: 1 256 14 14 (50176)
I0521 02:34:12.373584  2976 net.cpp:137] Memory required for data: 474263568
I0521 02:34:12.373585  2976 layer_factory.hpp:77] Creating layer res4b33_branch2b
I0521 02:34:12.373590  2976 net.cpp:84] Creating Layer res4b33_branch2b
I0521 02:34:12.373592  2976 net.cpp:406] res4b33_branch2b <- res4b33_branch2a
I0521 02:34:12.373596  2976 net.cpp:380] res4b33_branch2b -> res4b33_branch2b
I0521 02:34:12.379932  2976 net.cpp:122] Setting up res4b33_branch2b
I0521 02:34:12.379943  2976 net.cpp:129] Top shape: 1 256 14 14 (50176)
I0521 02:34:12.379945  2976 net.cpp:137] Memory required for data: 474464272
I0521 02:34:12.379950  2976 layer_factory.hpp:77] Creating layer bn4b33_branch2b
I0521 02:34:12.379953  2976 net.cpp:84] Creating Layer bn4b33_branch2b
I0521 02:34:12.379956  2976 net.cpp:406] bn4b33_branch2b <- res4b33_branch2b
I0521 02:34:12.379961  2976 net.cpp:367] bn4b33_branch2b -> res4b33_branch2b (in-place)
I0521 02:34:12.380120  2976 net.cpp:122] Setting up bn4b33_branch2b
I0521 02:34:12.380123  2976 net.cpp:129] Top shape: 1 256 14 14 (50176)
I0521 02:34:12.380125  2976 net.cpp:137] Memory required for data: 474664976
I0521 02:34:12.380129  2976 layer_factory.hpp:77] Creating layer scale4b33_branch2b
I0521 02:34:12.380138  2976 net.cpp:84] Creating Layer scale4b33_branch2b
I0521 02:34:12.380141  2976 net.cpp:406] scale4b33_branch2b <- res4b33_branch2b
I0521 02:34:12.380143  2976 net.cpp:367] scale4b33_branch2b -> res4b33_branch2b (in-place)
I0521 02:34:12.380172  2976 layer_factory.hpp:77] Creating layer scale4b33_branch2b
I0521 02:34:12.380254  2976 net.cpp:122] Setting up scale4b33_branch2b
I0521 02:34:12.380259  2976 net.cpp:129] Top shape: 1 256 14 14 (50176)
I0521 02:34:12.380260  2976 net.cpp:137] Memory required for data: 474865680
I0521 02:34:12.380262  2976 layer_factory.hpp:77] Creating layer res4b33_branch2b_relu
I0521 02:34:12.380266  2976 net.cpp:84] Creating Layer res4b33_branch2b_relu
I0521 02:34:12.380268  2976 net.cpp:406] res4b33_branch2b_relu <- res4b33_branch2b
I0521 02:34:12.380271  2976 net.cpp:367] res4b33_branch2b_relu -> res4b33_branch2b (in-place)
I0521 02:34:12.380698  2976 net.cpp:122] Setting up res4b33_branch2b_relu
I0521 02:34:12.380703  2976 net.cpp:129] Top shape: 1 256 14 14 (50176)
I0521 02:34:12.380705  2976 net.cpp:137] Memory required for data: 475066384
I0521 02:34:12.380707  2976 layer_factory.hpp:77] Creating layer res4b33_branch2c
I0521 02:34:12.380713  2976 net.cpp:84] Creating Layer res4b33_branch2c
I0521 02:34:12.380715  2976 net.cpp:406] res4b33_branch2c <- res4b33_branch2b
I0521 02:34:12.380718  2976 net.cpp:380] res4b33_branch2c -> res4b33_branch2c
I0521 02:34:12.384008  2976 net.cpp:122] Setting up res4b33_branch2c
I0521 02:34:12.384016  2976 net.cpp:129] Top shape: 1 1024 14 14 (200704)
I0521 02:34:12.384017  2976 net.cpp:137] Memory required for data: 475869200
I0521 02:34:12.384021  2976 layer_factory.hpp:77] Creating layer bn4b33_branch2c
I0521 02:34:12.384025  2976 net.cpp:84] Creating Layer bn4b33_branch2c
I0521 02:34:12.384028  2976 net.cpp:406] bn4b33_branch2c <- res4b33_branch2c
I0521 02:34:12.384030  2976 net.cpp:367] bn4b33_branch2c -> res4b33_branch2c (in-place)
I0521 02:34:12.384245  2976 net.cpp:122] Setting up bn4b33_branch2c
I0521 02:34:12.384249  2976 net.cpp:129] Top shape: 1 1024 14 14 (200704)
I0521 02:34:12.384251  2976 net.cpp:137] Memory required for data: 476672016
I0521 02:34:12.384254  2976 layer_factory.hpp:77] Creating layer scale4b33_branch2c
I0521 02:34:12.384258  2976 net.cpp:84] Creating Layer scale4b33_branch2c
I0521 02:34:12.384260  2976 net.cpp:406] scale4b33_branch2c <- res4b33_branch2c
I0521 02:34:12.384263  2976 net.cpp:367] scale4b33_branch2c -> res4b33_branch2c (in-place)
I0521 02:34:12.384311  2976 layer_factory.hpp:77] Creating layer scale4b33_branch2c
I0521 02:34:12.384423  2976 net.cpp:122] Setting up scale4b33_branch2c
I0521 02:34:12.384428  2976 net.cpp:129] Top shape: 1 1024 14 14 (200704)
I0521 02:34:12.384429  2976 net.cpp:137] Memory required for data: 477474832
I0521 02:34:12.384433  2976 layer_factory.hpp:77] Creating layer res4b33
I0521 02:34:12.384436  2976 net.cpp:84] Creating Layer res4b33
I0521 02:34:12.384439  2976 net.cpp:406] res4b33 <- res4b32_res4b32_relu_0_split_1
I0521 02:34:12.384441  2976 net.cpp:406] res4b33 <- res4b33_branch2c
I0521 02:34:12.384444  2976 net.cpp:380] res4b33 -> res4b33
I0521 02:34:12.384460  2976 net.cpp:122] Setting up res4b33
I0521 02:34:12.384464  2976 net.cpp:129] Top shape: 1 1024 14 14 (200704)
I0521 02:34:12.384465  2976 net.cpp:137] Memory required for data: 478277648
I0521 02:34:12.384466  2976 layer_factory.hpp:77] Creating layer res4b33_relu
I0521 02:34:12.384469  2976 net.cpp:84] Creating Layer res4b33_relu
I0521 02:34:12.384471  2976 net.cpp:406] res4b33_relu <- res4b33
I0521 02:34:12.384474  2976 net.cpp:367] res4b33_relu -> res4b33 (in-place)
I0521 02:34:12.385046  2976 net.cpp:122] Setting up res4b33_relu
I0521 02:34:12.385052  2976 net.cpp:129] Top shape: 1 1024 14 14 (200704)
I0521 02:34:12.385054  2976 net.cpp:137] Memory required for data: 479080464
I0521 02:34:12.385056  2976 layer_factory.hpp:77] Creating layer res4b33_res4b33_relu_0_split
I0521 02:34:12.385059  2976 net.cpp:84] Creating Layer res4b33_res4b33_relu_0_split
I0521 02:34:12.385062  2976 net.cpp:406] res4b33_res4b33_relu_0_split <- res4b33
I0521 02:34:12.385071  2976 net.cpp:380] res4b33_res4b33_relu_0_split -> res4b33_res4b33_relu_0_split_0
I0521 02:34:12.385079  2976 net.cpp:380] res4b33_res4b33_relu_0_split -> res4b33_res4b33_relu_0_split_1
I0521 02:34:12.385114  2976 net.cpp:122] Setting up res4b33_res4b33_relu_0_split
I0521 02:34:12.385118  2976 net.cpp:129] Top shape: 1 1024 14 14 (200704)
I0521 02:34:12.385120  2976 net.cpp:129] Top shape: 1 1024 14 14 (200704)
I0521 02:34:12.385123  2976 net.cpp:137] Memory required for data: 480686096
I0521 02:34:12.385123  2976 layer_factory.hpp:77] Creating layer res4b34_branch2a
I0521 02:34:12.385128  2976 net.cpp:84] Creating Layer res4b34_branch2a
I0521 02:34:12.385131  2976 net.cpp:406] res4b34_branch2a <- res4b33_res4b33_relu_0_split_0
I0521 02:34:12.385134  2976 net.cpp:380] res4b34_branch2a -> res4b34_branch2a
I0521 02:34:12.389019  2976 net.cpp:122] Setting up res4b34_branch2a
I0521 02:34:12.389026  2976 net.cpp:129] Top shape: 1 256 14 14 (50176)
I0521 02:34:12.389029  2976 net.cpp:137] Memory required for data: 480886800
I0521 02:34:12.389031  2976 layer_factory.hpp:77] Creating layer bn4b34_branch2a
I0521 02:34:12.389036  2976 net.cpp:84] Creating Layer bn4b34_branch2a
I0521 02:34:12.389039  2976 net.cpp:406] bn4b34_branch2a <- res4b34_branch2a
I0521 02:34:12.389042  2976 net.cpp:367] bn4b34_branch2a -> res4b34_branch2a (in-place)
I0521 02:34:12.389199  2976 net.cpp:122] Setting up bn4b34_branch2a
I0521 02:34:12.389204  2976 net.cpp:129] Top shape: 1 256 14 14 (50176)
I0521 02:34:12.389205  2976 net.cpp:137] Memory required for data: 481087504
I0521 02:34:12.389209  2976 layer_factory.hpp:77] Creating layer scale4b34_branch2a
I0521 02:34:12.389212  2976 net.cpp:84] Creating Layer scale4b34_branch2a
I0521 02:34:12.389214  2976 net.cpp:406] scale4b34_branch2a <- res4b34_branch2a
I0521 02:34:12.389219  2976 net.cpp:367] scale4b34_branch2a -> res4b34_branch2a (in-place)
I0521 02:34:12.389245  2976 layer_factory.hpp:77] Creating layer scale4b34_branch2a
I0521 02:34:12.389327  2976 net.cpp:122] Setting up scale4b34_branch2a
I0521 02:34:12.389329  2976 net.cpp:129] Top shape: 1 256 14 14 (50176)
I0521 02:34:12.389331  2976 net.cpp:137] Memory required for data: 481288208
I0521 02:34:12.389334  2976 layer_factory.hpp:77] Creating layer res4b34_branch2a_relu
I0521 02:34:12.389338  2976 net.cpp:84] Creating Layer res4b34_branch2a_relu
I0521 02:34:12.389339  2976 net.cpp:406] res4b34_branch2a_relu <- res4b34_branch2a
I0521 02:34:12.389341  2976 net.cpp:367] res4b34_branch2a_relu -> res4b34_branch2a (in-place)
I0521 02:34:12.389763  2976 net.cpp:122] Setting up res4b34_branch2a_relu
I0521 02:34:12.389768  2976 net.cpp:129] Top shape: 1 256 14 14 (50176)
I0521 02:34:12.389770  2976 net.cpp:137] Memory required for data: 481488912
I0521 02:34:12.389772  2976 layer_factory.hpp:77] Creating layer res4b34_branch2b
I0521 02:34:12.389777  2976 net.cpp:84] Creating Layer res4b34_branch2b
I0521 02:34:12.389780  2976 net.cpp:406] res4b34_branch2b <- res4b34_branch2a
I0521 02:34:12.389783  2976 net.cpp:380] res4b34_branch2b -> res4b34_branch2b
I0521 02:34:12.396440  2976 net.cpp:122] Setting up res4b34_branch2b
I0521 02:34:12.396453  2976 net.cpp:129] Top shape: 1 256 14 14 (50176)
I0521 02:34:12.396456  2976 net.cpp:137] Memory required for data: 481689616
I0521 02:34:12.396459  2976 layer_factory.hpp:77] Creating layer bn4b34_branch2b
I0521 02:34:12.396466  2976 net.cpp:84] Creating Layer bn4b34_branch2b
I0521 02:34:12.396468  2976 net.cpp:406] bn4b34_branch2b <- res4b34_branch2b
I0521 02:34:12.396473  2976 net.cpp:367] bn4b34_branch2b -> res4b34_branch2b (in-place)
I0521 02:34:12.396646  2976 net.cpp:122] Setting up bn4b34_branch2b
I0521 02:34:12.396651  2976 net.cpp:129] Top shape: 1 256 14 14 (50176)
I0521 02:34:12.396651  2976 net.cpp:137] Memory required for data: 481890320
I0521 02:34:12.396656  2976 layer_factory.hpp:77] Creating layer scale4b34_branch2b
I0521 02:34:12.396658  2976 net.cpp:84] Creating Layer scale4b34_branch2b
I0521 02:34:12.396661  2976 net.cpp:406] scale4b34_branch2b <- res4b34_branch2b
I0521 02:34:12.396672  2976 net.cpp:367] scale4b34_branch2b -> res4b34_branch2b (in-place)
I0521 02:34:12.396701  2976 layer_factory.hpp:77] Creating layer scale4b34_branch2b
I0521 02:34:12.396786  2976 net.cpp:122] Setting up scale4b34_branch2b
I0521 02:34:12.396790  2976 net.cpp:129] Top shape: 1 256 14 14 (50176)
I0521 02:34:12.396792  2976 net.cpp:137] Memory required for data: 482091024
I0521 02:34:12.396795  2976 layer_factory.hpp:77] Creating layer res4b34_branch2b_relu
I0521 02:34:12.396798  2976 net.cpp:84] Creating Layer res4b34_branch2b_relu
I0521 02:34:12.396800  2976 net.cpp:406] res4b34_branch2b_relu <- res4b34_branch2b
I0521 02:34:12.396803  2976 net.cpp:367] res4b34_branch2b_relu -> res4b34_branch2b (in-place)
I0521 02:34:12.397403  2976 net.cpp:122] Setting up res4b34_branch2b_relu
I0521 02:34:12.397409  2976 net.cpp:129] Top shape: 1 256 14 14 (50176)
I0521 02:34:12.397411  2976 net.cpp:137] Memory required for data: 482291728
I0521 02:34:12.397413  2976 layer_factory.hpp:77] Creating layer res4b34_branch2c
I0521 02:34:12.397418  2976 net.cpp:84] Creating Layer res4b34_branch2c
I0521 02:34:12.397421  2976 net.cpp:406] res4b34_branch2c <- res4b34_branch2b
I0521 02:34:12.397424  2976 net.cpp:380] res4b34_branch2c -> res4b34_branch2c
I0521 02:34:12.400827  2976 net.cpp:122] Setting up res4b34_branch2c
I0521 02:34:12.400836  2976 net.cpp:129] Top shape: 1 1024 14 14 (200704)
I0521 02:34:12.400838  2976 net.cpp:137] Memory required for data: 483094544
I0521 02:34:12.400842  2976 layer_factory.hpp:77] Creating layer bn4b34_branch2c
I0521 02:34:12.400846  2976 net.cpp:84] Creating Layer bn4b34_branch2c
I0521 02:34:12.400851  2976 net.cpp:406] bn4b34_branch2c <- res4b34_branch2c
I0521 02:34:12.400854  2976 net.cpp:367] bn4b34_branch2c -> res4b34_branch2c (in-place)
I0521 02:34:12.401077  2976 net.cpp:122] Setting up bn4b34_branch2c
I0521 02:34:12.401082  2976 net.cpp:129] Top shape: 1 1024 14 14 (200704)
I0521 02:34:12.401083  2976 net.cpp:137] Memory required for data: 483897360
I0521 02:34:12.401087  2976 layer_factory.hpp:77] Creating layer scale4b34_branch2c
I0521 02:34:12.401090  2976 net.cpp:84] Creating Layer scale4b34_branch2c
I0521 02:34:12.401093  2976 net.cpp:406] scale4b34_branch2c <- res4b34_branch2c
I0521 02:34:12.401095  2976 net.cpp:367] scale4b34_branch2c -> res4b34_branch2c (in-place)
I0521 02:34:12.401145  2976 layer_factory.hpp:77] Creating layer scale4b34_branch2c
I0521 02:34:12.401262  2976 net.cpp:122] Setting up scale4b34_branch2c
I0521 02:34:12.401268  2976 net.cpp:129] Top shape: 1 1024 14 14 (200704)
I0521 02:34:12.401268  2976 net.cpp:137] Memory required for data: 484700176
I0521 02:34:12.401271  2976 layer_factory.hpp:77] Creating layer res4b34
I0521 02:34:12.401275  2976 net.cpp:84] Creating Layer res4b34
I0521 02:34:12.401278  2976 net.cpp:406] res4b34 <- res4b33_res4b33_relu_0_split_1
I0521 02:34:12.401280  2976 net.cpp:406] res4b34 <- res4b34_branch2c
I0521 02:34:12.401283  2976 net.cpp:380] res4b34 -> res4b34
I0521 02:34:12.401300  2976 net.cpp:122] Setting up res4b34
I0521 02:34:12.401304  2976 net.cpp:129] Top shape: 1 1024 14 14 (200704)
I0521 02:34:12.401305  2976 net.cpp:137] Memory required for data: 485502992
I0521 02:34:12.401307  2976 layer_factory.hpp:77] Creating layer res4b34_relu
I0521 02:34:12.401310  2976 net.cpp:84] Creating Layer res4b34_relu
I0521 02:34:12.401312  2976 net.cpp:406] res4b34_relu <- res4b34
I0521 02:34:12.401315  2976 net.cpp:367] res4b34_relu -> res4b34 (in-place)
I0521 02:34:12.401738  2976 net.cpp:122] Setting up res4b34_relu
I0521 02:34:12.401749  2976 net.cpp:129] Top shape: 1 1024 14 14 (200704)
I0521 02:34:12.401751  2976 net.cpp:137] Memory required for data: 486305808
I0521 02:34:12.401753  2976 layer_factory.hpp:77] Creating layer res4b34_res4b34_relu_0_split
I0521 02:34:12.401757  2976 net.cpp:84] Creating Layer res4b34_res4b34_relu_0_split
I0521 02:34:12.401760  2976 net.cpp:406] res4b34_res4b34_relu_0_split <- res4b34
I0521 02:34:12.401763  2976 net.cpp:380] res4b34_res4b34_relu_0_split -> res4b34_res4b34_relu_0_split_0
I0521 02:34:12.401773  2976 net.cpp:380] res4b34_res4b34_relu_0_split -> res4b34_res4b34_relu_0_split_1
I0521 02:34:12.401808  2976 net.cpp:122] Setting up res4b34_res4b34_relu_0_split
I0521 02:34:12.401811  2976 net.cpp:129] Top shape: 1 1024 14 14 (200704)
I0521 02:34:12.401813  2976 net.cpp:129] Top shape: 1 1024 14 14 (200704)
I0521 02:34:12.401815  2976 net.cpp:137] Memory required for data: 487911440
I0521 02:34:12.401816  2976 layer_factory.hpp:77] Creating layer res4b35_branch2a
I0521 02:34:12.401823  2976 net.cpp:84] Creating Layer res4b35_branch2a
I0521 02:34:12.401824  2976 net.cpp:406] res4b35_branch2a <- res4b34_res4b34_relu_0_split_0
I0521 02:34:12.401827  2976 net.cpp:380] res4b35_branch2a -> res4b35_branch2a
I0521 02:34:12.405892  2976 net.cpp:122] Setting up res4b35_branch2a
I0521 02:34:12.405901  2976 net.cpp:129] Top shape: 1 256 14 14 (50176)
I0521 02:34:12.405903  2976 net.cpp:137] Memory required for data: 488112144
I0521 02:34:12.405906  2976 layer_factory.hpp:77] Creating layer bn4b35_branch2a
I0521 02:34:12.405910  2976 net.cpp:84] Creating Layer bn4b35_branch2a
I0521 02:34:12.405913  2976 net.cpp:406] bn4b35_branch2a <- res4b35_branch2a
I0521 02:34:12.405916  2976 net.cpp:367] bn4b35_branch2a -> res4b35_branch2a (in-place)
I0521 02:34:12.406078  2976 net.cpp:122] Setting up bn4b35_branch2a
I0521 02:34:12.406082  2976 net.cpp:129] Top shape: 1 256 14 14 (50176)
I0521 02:34:12.406085  2976 net.cpp:137] Memory required for data: 488312848
I0521 02:34:12.406087  2976 layer_factory.hpp:77] Creating layer scale4b35_branch2a
I0521 02:34:12.406090  2976 net.cpp:84] Creating Layer scale4b35_branch2a
I0521 02:34:12.406092  2976 net.cpp:406] scale4b35_branch2a <- res4b35_branch2a
I0521 02:34:12.406095  2976 net.cpp:367] scale4b35_branch2a -> res4b35_branch2a (in-place)
I0521 02:34:12.406124  2976 layer_factory.hpp:77] Creating layer scale4b35_branch2a
I0521 02:34:12.406209  2976 net.cpp:122] Setting up scale4b35_branch2a
I0521 02:34:12.406213  2976 net.cpp:129] Top shape: 1 256 14 14 (50176)
I0521 02:34:12.406214  2976 net.cpp:137] Memory required for data: 488513552
I0521 02:34:12.406217  2976 layer_factory.hpp:77] Creating layer res4b35_branch2a_relu
I0521 02:34:12.406220  2976 net.cpp:84] Creating Layer res4b35_branch2a_relu
I0521 02:34:12.406222  2976 net.cpp:406] res4b35_branch2a_relu <- res4b35_branch2a
I0521 02:34:12.406225  2976 net.cpp:367] res4b35_branch2a_relu -> res4b35_branch2a (in-place)
I0521 02:34:12.406647  2976 net.cpp:122] Setting up res4b35_branch2a_relu
I0521 02:34:12.406652  2976 net.cpp:129] Top shape: 1 256 14 14 (50176)
I0521 02:34:12.406654  2976 net.cpp:137] Memory required for data: 488714256
I0521 02:34:12.406656  2976 layer_factory.hpp:77] Creating layer res4b35_branch2b
I0521 02:34:12.406661  2976 net.cpp:84] Creating Layer res4b35_branch2b
I0521 02:34:12.406664  2976 net.cpp:406] res4b35_branch2b <- res4b35_branch2a
I0521 02:34:12.406667  2976 net.cpp:380] res4b35_branch2b -> res4b35_branch2b
I0521 02:34:12.412753  2976 net.cpp:122] Setting up res4b35_branch2b
I0521 02:34:12.412763  2976 net.cpp:129] Top shape: 1 256 14 14 (50176)
I0521 02:34:12.412765  2976 net.cpp:137] Memory required for data: 488914960
I0521 02:34:12.412770  2976 layer_factory.hpp:77] Creating layer bn4b35_branch2b
I0521 02:34:12.412773  2976 net.cpp:84] Creating Layer bn4b35_branch2b
I0521 02:34:12.412776  2976 net.cpp:406] bn4b35_branch2b <- res4b35_branch2b
I0521 02:34:12.412781  2976 net.cpp:367] bn4b35_branch2b -> res4b35_branch2b (in-place)
I0521 02:34:12.412948  2976 net.cpp:122] Setting up bn4b35_branch2b
I0521 02:34:12.412952  2976 net.cpp:129] Top shape: 1 256 14 14 (50176)
I0521 02:34:12.412955  2976 net.cpp:137] Memory required for data: 489115664
I0521 02:34:12.412957  2976 layer_factory.hpp:77] Creating layer scale4b35_branch2b
I0521 02:34:12.412961  2976 net.cpp:84] Creating Layer scale4b35_branch2b
I0521 02:34:12.412963  2976 net.cpp:406] scale4b35_branch2b <- res4b35_branch2b
I0521 02:34:12.412966  2976 net.cpp:367] scale4b35_branch2b -> res4b35_branch2b (in-place)
I0521 02:34:12.413002  2976 layer_factory.hpp:77] Creating layer scale4b35_branch2b
I0521 02:34:12.413086  2976 net.cpp:122] Setting up scale4b35_branch2b
I0521 02:34:12.413090  2976 net.cpp:129] Top shape: 1 256 14 14 (50176)
I0521 02:34:12.413092  2976 net.cpp:137] Memory required for data: 489316368
I0521 02:34:12.413095  2976 layer_factory.hpp:77] Creating layer res4b35_branch2b_relu
I0521 02:34:12.413100  2976 net.cpp:84] Creating Layer res4b35_branch2b_relu
I0521 02:34:12.413101  2976 net.cpp:406] res4b35_branch2b_relu <- res4b35_branch2b
I0521 02:34:12.413105  2976 net.cpp:367] res4b35_branch2b_relu -> res4b35_branch2b (in-place)
I0521 02:34:12.413535  2976 net.cpp:122] Setting up res4b35_branch2b_relu
I0521 02:34:12.413542  2976 net.cpp:129] Top shape: 1 256 14 14 (50176)
I0521 02:34:12.413543  2976 net.cpp:137] Memory required for data: 489517072
I0521 02:34:12.413545  2976 layer_factory.hpp:77] Creating layer res4b35_branch2c
I0521 02:34:12.413552  2976 net.cpp:84] Creating Layer res4b35_branch2c
I0521 02:34:12.413553  2976 net.cpp:406] res4b35_branch2c <- res4b35_branch2b
I0521 02:34:12.413558  2976 net.cpp:380] res4b35_branch2c -> res4b35_branch2c
I0521 02:34:12.417181  2976 net.cpp:122] Setting up res4b35_branch2c
I0521 02:34:12.417188  2976 net.cpp:129] Top shape: 1 1024 14 14 (200704)
I0521 02:34:12.417191  2976 net.cpp:137] Memory required for data: 490319888
I0521 02:34:12.417193  2976 layer_factory.hpp:77] Creating layer bn4b35_branch2c
I0521 02:34:12.417198  2976 net.cpp:84] Creating Layer bn4b35_branch2c
I0521 02:34:12.417201  2976 net.cpp:406] bn4b35_branch2c <- res4b35_branch2c
I0521 02:34:12.417203  2976 net.cpp:367] bn4b35_branch2c -> res4b35_branch2c (in-place)
I0521 02:34:12.417428  2976 net.cpp:122] Setting up bn4b35_branch2c
I0521 02:34:12.417433  2976 net.cpp:129] Top shape: 1 1024 14 14 (200704)
I0521 02:34:12.417434  2976 net.cpp:137] Memory required for data: 491122704
I0521 02:34:12.417438  2976 layer_factory.hpp:77] Creating layer scale4b35_branch2c
I0521 02:34:12.417440  2976 net.cpp:84] Creating Layer scale4b35_branch2c
I0521 02:34:12.417443  2976 net.cpp:406] scale4b35_branch2c <- res4b35_branch2c
I0521 02:34:12.417445  2976 net.cpp:367] scale4b35_branch2c -> res4b35_branch2c (in-place)
I0521 02:34:12.417495  2976 layer_factory.hpp:77] Creating layer scale4b35_branch2c
I0521 02:34:12.417613  2976 net.cpp:122] Setting up scale4b35_branch2c
I0521 02:34:12.417618  2976 net.cpp:129] Top shape: 1 1024 14 14 (200704)
I0521 02:34:12.417619  2976 net.cpp:137] Memory required for data: 491925520
I0521 02:34:12.417623  2976 layer_factory.hpp:77] Creating layer res4b35
I0521 02:34:12.417625  2976 net.cpp:84] Creating Layer res4b35
I0521 02:34:12.417628  2976 net.cpp:406] res4b35 <- res4b34_res4b34_relu_0_split_1
I0521 02:34:12.417630  2976 net.cpp:406] res4b35 <- res4b35_branch2c
I0521 02:34:12.417634  2976 net.cpp:380] res4b35 -> res4b35
I0521 02:34:12.417650  2976 net.cpp:122] Setting up res4b35
I0521 02:34:12.417654  2976 net.cpp:129] Top shape: 1 1024 14 14 (200704)
I0521 02:34:12.417655  2976 net.cpp:137] Memory required for data: 492728336
I0521 02:34:12.417657  2976 layer_factory.hpp:77] Creating layer res4b35_relu
I0521 02:34:12.417661  2976 net.cpp:84] Creating Layer res4b35_relu
I0521 02:34:12.417665  2976 net.cpp:406] res4b35_relu <- res4b35
I0521 02:34:12.417667  2976 net.cpp:367] res4b35_relu -> res4b35 (in-place)
I0521 02:34:12.418084  2976 net.cpp:122] Setting up res4b35_relu
I0521 02:34:12.418089  2976 net.cpp:129] Top shape: 1 1024 14 14 (200704)
I0521 02:34:12.418090  2976 net.cpp:137] Memory required for data: 493531152
I0521 02:34:12.418092  2976 layer_factory.hpp:77] Creating layer res4b35_res4b35_relu_0_split
I0521 02:34:12.418097  2976 net.cpp:84] Creating Layer res4b35_res4b35_relu_0_split
I0521 02:34:12.418099  2976 net.cpp:406] res4b35_res4b35_relu_0_split <- res4b35
I0521 02:34:12.418102  2976 net.cpp:380] res4b35_res4b35_relu_0_split -> res4b35_res4b35_relu_0_split_0
I0521 02:34:12.418107  2976 net.cpp:380] res4b35_res4b35_relu_0_split -> res4b35_res4b35_relu_0_split_1
I0521 02:34:12.418148  2976 net.cpp:122] Setting up res4b35_res4b35_relu_0_split
I0521 02:34:12.418153  2976 net.cpp:129] Top shape: 1 1024 14 14 (200704)
I0521 02:34:12.418154  2976 net.cpp:129] Top shape: 1 1024 14 14 (200704)
I0521 02:34:12.418156  2976 net.cpp:137] Memory required for data: 495136784
I0521 02:34:12.418157  2976 layer_factory.hpp:77] Creating layer res5a_branch1
I0521 02:34:12.418161  2976 net.cpp:84] Creating Layer res5a_branch1
I0521 02:34:12.418164  2976 net.cpp:406] res5a_branch1 <- res4b35_res4b35_relu_0_split_0
I0521 02:34:12.418169  2976 net.cpp:380] res5a_branch1 -> res5a_branch1
I0521 02:34:12.435501  2976 net.cpp:122] Setting up res5a_branch1
I0521 02:34:12.435518  2976 net.cpp:129] Top shape: 1 2048 7 7 (100352)
I0521 02:34:12.435519  2976 net.cpp:137] Memory required for data: 495538192
I0521 02:34:12.435523  2976 layer_factory.hpp:77] Creating layer bn5a_branch1
I0521 02:34:12.435529  2976 net.cpp:84] Creating Layer bn5a_branch1
I0521 02:34:12.435534  2976 net.cpp:406] bn5a_branch1 <- res5a_branch1
I0521 02:34:12.435537  2976 net.cpp:367] bn5a_branch1 -> res5a_branch1 (in-place)
I0521 02:34:12.435778  2976 net.cpp:122] Setting up bn5a_branch1
I0521 02:34:12.435783  2976 net.cpp:129] Top shape: 1 2048 7 7 (100352)
I0521 02:34:12.435786  2976 net.cpp:137] Memory required for data: 495939600
I0521 02:34:12.435788  2976 layer_factory.hpp:77] Creating layer scale5a_branch1
I0521 02:34:12.435793  2976 net.cpp:84] Creating Layer scale5a_branch1
I0521 02:34:12.435796  2976 net.cpp:406] scale5a_branch1 <- res5a_branch1
I0521 02:34:12.435798  2976 net.cpp:367] scale5a_branch1 -> res5a_branch1 (in-place)
I0521 02:34:12.435850  2976 layer_factory.hpp:77] Creating layer scale5a_branch1
I0521 02:34:12.435971  2976 net.cpp:122] Setting up scale5a_branch1
I0521 02:34:12.435974  2976 net.cpp:129] Top shape: 1 2048 7 7 (100352)
I0521 02:34:12.435976  2976 net.cpp:137] Memory required for data: 496341008
I0521 02:34:12.435979  2976 layer_factory.hpp:77] Creating layer res5a_branch2a
I0521 02:34:12.435984  2976 net.cpp:84] Creating Layer res5a_branch2a
I0521 02:34:12.435987  2976 net.cpp:406] res5a_branch2a <- res4b35_res4b35_relu_0_split_1
I0521 02:34:12.435991  2976 net.cpp:380] res5a_branch2a -> res5a_branch2a
I0521 02:34:12.441643  2976 net.cpp:122] Setting up res5a_branch2a
I0521 02:34:12.441653  2976 net.cpp:129] Top shape: 1 512 7 7 (25088)
I0521 02:34:12.441654  2976 net.cpp:137] Memory required for data: 496441360
I0521 02:34:12.441658  2976 layer_factory.hpp:77] Creating layer bn5a_branch2a
I0521 02:34:12.441663  2976 net.cpp:84] Creating Layer bn5a_branch2a
I0521 02:34:12.441664  2976 net.cpp:406] bn5a_branch2a <- res5a_branch2a
I0521 02:34:12.441668  2976 net.cpp:367] bn5a_branch2a -> res5a_branch2a (in-place)
I0521 02:34:12.441896  2976 net.cpp:122] Setting up bn5a_branch2a
I0521 02:34:12.441901  2976 net.cpp:129] Top shape: 1 512 7 7 (25088)
I0521 02:34:12.441903  2976 net.cpp:137] Memory required for data: 496541712
I0521 02:34:12.441907  2976 layer_factory.hpp:77] Creating layer scale5a_branch2a
I0521 02:34:12.441910  2976 net.cpp:84] Creating Layer scale5a_branch2a
I0521 02:34:12.441912  2976 net.cpp:406] scale5a_branch2a <- res5a_branch2a
I0521 02:34:12.441915  2976 net.cpp:367] scale5a_branch2a -> res5a_branch2a (in-place)
I0521 02:34:12.441965  2976 layer_factory.hpp:77] Creating layer scale5a_branch2a
I0521 02:34:12.442087  2976 net.cpp:122] Setting up scale5a_branch2a
I0521 02:34:12.442091  2976 net.cpp:129] Top shape: 1 512 7 7 (25088)
I0521 02:34:12.442093  2976 net.cpp:137] Memory required for data: 496642064
I0521 02:34:12.442095  2976 layer_factory.hpp:77] Creating layer res5a_branch2a_relu
I0521 02:34:12.442100  2976 net.cpp:84] Creating Layer res5a_branch2a_relu
I0521 02:34:12.442101  2976 net.cpp:406] res5a_branch2a_relu <- res5a_branch2a
I0521 02:34:12.442103  2976 net.cpp:367] res5a_branch2a_relu -> res5a_branch2a (in-place)
I0521 02:34:12.442518  2976 net.cpp:122] Setting up res5a_branch2a_relu
I0521 02:34:12.442524  2976 net.cpp:129] Top shape: 1 512 7 7 (25088)
I0521 02:34:12.442526  2976 net.cpp:137] Memory required for data: 496742416
I0521 02:34:12.442533  2976 layer_factory.hpp:77] Creating layer res5a_branch2b
I0521 02:34:12.442538  2976 net.cpp:84] Creating Layer res5a_branch2b
I0521 02:34:12.442541  2976 net.cpp:406] res5a_branch2b <- res5a_branch2a
I0521 02:34:12.442544  2976 net.cpp:380] res5a_branch2b -> res5a_branch2b
I0521 02:34:12.461812  2976 net.cpp:122] Setting up res5a_branch2b
I0521 02:34:12.461827  2976 net.cpp:129] Top shape: 1 512 7 7 (25088)
I0521 02:34:12.461828  2976 net.cpp:137] Memory required for data: 496842768
I0521 02:34:12.461833  2976 layer_factory.hpp:77] Creating layer bn5a_branch2b
I0521 02:34:12.461840  2976 net.cpp:84] Creating Layer bn5a_branch2b
I0521 02:34:12.461844  2976 net.cpp:406] bn5a_branch2b <- res5a_branch2b
I0521 02:34:12.461848  2976 net.cpp:367] bn5a_branch2b -> res5a_branch2b (in-place)
I0521 02:34:12.462092  2976 net.cpp:122] Setting up bn5a_branch2b
I0521 02:34:12.462097  2976 net.cpp:129] Top shape: 1 512 7 7 (25088)
I0521 02:34:12.462100  2976 net.cpp:137] Memory required for data: 496943120
I0521 02:34:12.462102  2976 layer_factory.hpp:77] Creating layer scale5a_branch2b
I0521 02:34:12.462106  2976 net.cpp:84] Creating Layer scale5a_branch2b
I0521 02:34:12.462108  2976 net.cpp:406] scale5a_branch2b <- res5a_branch2b
I0521 02:34:12.462111  2976 net.cpp:367] scale5a_branch2b -> res5a_branch2b (in-place)
I0521 02:34:12.462164  2976 layer_factory.hpp:77] Creating layer scale5a_branch2b
I0521 02:34:12.462283  2976 net.cpp:122] Setting up scale5a_branch2b
I0521 02:34:12.462287  2976 net.cpp:129] Top shape: 1 512 7 7 (25088)
I0521 02:34:12.462290  2976 net.cpp:137] Memory required for data: 497043472
I0521 02:34:12.462292  2976 layer_factory.hpp:77] Creating layer res5a_branch2b_relu
I0521 02:34:12.462296  2976 net.cpp:84] Creating Layer res5a_branch2b_relu
I0521 02:34:12.462297  2976 net.cpp:406] res5a_branch2b_relu <- res5a_branch2b
I0521 02:34:12.462301  2976 net.cpp:367] res5a_branch2b_relu -> res5a_branch2b (in-place)
I0521 02:34:12.462725  2976 net.cpp:122] Setting up res5a_branch2b_relu
I0521 02:34:12.462730  2976 net.cpp:129] Top shape: 1 512 7 7 (25088)
I0521 02:34:12.462733  2976 net.cpp:137] Memory required for data: 497143824
I0521 02:34:12.462734  2976 layer_factory.hpp:77] Creating layer res5a_branch2c
I0521 02:34:12.462739  2976 net.cpp:84] Creating Layer res5a_branch2c
I0521 02:34:12.462743  2976 net.cpp:406] res5a_branch2c <- res5a_branch2b
I0521 02:34:12.462745  2976 net.cpp:380] res5a_branch2c -> res5a_branch2c
I0521 02:34:12.472357  2976 net.cpp:122] Setting up res5a_branch2c
I0521 02:34:12.472373  2976 net.cpp:129] Top shape: 1 2048 7 7 (100352)
I0521 02:34:12.472374  2976 net.cpp:137] Memory required for data: 497545232
I0521 02:34:12.472379  2976 layer_factory.hpp:77] Creating layer bn5a_branch2c
I0521 02:34:12.472384  2976 net.cpp:84] Creating Layer bn5a_branch2c
I0521 02:34:12.472388  2976 net.cpp:406] bn5a_branch2c <- res5a_branch2c
I0521 02:34:12.472393  2976 net.cpp:367] bn5a_branch2c -> res5a_branch2c (in-place)
I0521 02:34:12.472633  2976 net.cpp:122] Setting up bn5a_branch2c
I0521 02:34:12.472637  2976 net.cpp:129] Top shape: 1 2048 7 7 (100352)
I0521 02:34:12.472640  2976 net.cpp:137] Memory required for data: 497946640
I0521 02:34:12.472643  2976 layer_factory.hpp:77] Creating layer scale5a_branch2c
I0521 02:34:12.472647  2976 net.cpp:84] Creating Layer scale5a_branch2c
I0521 02:34:12.472651  2976 net.cpp:406] scale5a_branch2c <- res5a_branch2c
I0521 02:34:12.472652  2976 net.cpp:367] scale5a_branch2c -> res5a_branch2c (in-place)
I0521 02:34:12.472707  2976 layer_factory.hpp:77] Creating layer scale5a_branch2c
I0521 02:34:12.472829  2976 net.cpp:122] Setting up scale5a_branch2c
I0521 02:34:12.472834  2976 net.cpp:129] Top shape: 1 2048 7 7 (100352)
I0521 02:34:12.472836  2976 net.cpp:137] Memory required for data: 498348048
I0521 02:34:12.472838  2976 layer_factory.hpp:77] Creating layer res5a
I0521 02:34:12.472842  2976 net.cpp:84] Creating Layer res5a
I0521 02:34:12.472846  2976 net.cpp:406] res5a <- res5a_branch1
I0521 02:34:12.472854  2976 net.cpp:406] res5a <- res5a_branch2c
I0521 02:34:12.472857  2976 net.cpp:380] res5a -> res5a
I0521 02:34:12.472877  2976 net.cpp:122] Setting up res5a
I0521 02:34:12.472880  2976 net.cpp:129] Top shape: 1 2048 7 7 (100352)
I0521 02:34:12.472882  2976 net.cpp:137] Memory required for data: 498749456
I0521 02:34:12.472884  2976 layer_factory.hpp:77] Creating layer res5a_relu
I0521 02:34:12.472887  2976 net.cpp:84] Creating Layer res5a_relu
I0521 02:34:12.472889  2976 net.cpp:406] res5a_relu <- res5a
I0521 02:34:12.472892  2976 net.cpp:367] res5a_relu -> res5a (in-place)
I0521 02:34:12.473309  2976 net.cpp:122] Setting up res5a_relu
I0521 02:34:12.473315  2976 net.cpp:129] Top shape: 1 2048 7 7 (100352)
I0521 02:34:12.473316  2976 net.cpp:137] Memory required for data: 499150864
I0521 02:34:12.473318  2976 layer_factory.hpp:77] Creating layer res5a_res5a_relu_0_split
I0521 02:34:12.473322  2976 net.cpp:84] Creating Layer res5a_res5a_relu_0_split
I0521 02:34:12.473325  2976 net.cpp:406] res5a_res5a_relu_0_split <- res5a
I0521 02:34:12.473328  2976 net.cpp:380] res5a_res5a_relu_0_split -> res5a_res5a_relu_0_split_0
I0521 02:34:12.473332  2976 net.cpp:380] res5a_res5a_relu_0_split -> res5a_res5a_relu_0_split_1
I0521 02:34:12.473367  2976 net.cpp:122] Setting up res5a_res5a_relu_0_split
I0521 02:34:12.473371  2976 net.cpp:129] Top shape: 1 2048 7 7 (100352)
I0521 02:34:12.473373  2976 net.cpp:129] Top shape: 1 2048 7 7 (100352)
I0521 02:34:12.473376  2976 net.cpp:137] Memory required for data: 499953680
I0521 02:34:12.473376  2976 layer_factory.hpp:77] Creating layer res5b_branch2a
I0521 02:34:12.473382  2976 net.cpp:84] Creating Layer res5b_branch2a
I0521 02:34:12.473384  2976 net.cpp:406] res5b_branch2a <- res5a_res5a_relu_0_split_0
I0521 02:34:12.473387  2976 net.cpp:380] res5b_branch2a -> res5b_branch2a
I0521 02:34:12.482713  2976 net.cpp:122] Setting up res5b_branch2a
I0521 02:34:12.482726  2976 net.cpp:129] Top shape: 1 512 7 7 (25088)
I0521 02:34:12.482728  2976 net.cpp:137] Memory required for data: 500054032
I0521 02:34:12.482733  2976 layer_factory.hpp:77] Creating layer bn5b_branch2a
I0521 02:34:12.482738  2976 net.cpp:84] Creating Layer bn5b_branch2a
I0521 02:34:12.482740  2976 net.cpp:406] bn5b_branch2a <- res5b_branch2a
I0521 02:34:12.482745  2976 net.cpp:367] bn5b_branch2a -> res5b_branch2a (in-place)
I0521 02:34:12.482985  2976 net.cpp:122] Setting up bn5b_branch2a
I0521 02:34:12.482990  2976 net.cpp:129] Top shape: 1 512 7 7 (25088)
I0521 02:34:12.482992  2976 net.cpp:137] Memory required for data: 500154384
I0521 02:34:12.482996  2976 layer_factory.hpp:77] Creating layer scale5b_branch2a
I0521 02:34:12.483000  2976 net.cpp:84] Creating Layer scale5b_branch2a
I0521 02:34:12.483002  2976 net.cpp:406] scale5b_branch2a <- res5b_branch2a
I0521 02:34:12.483006  2976 net.cpp:367] scale5b_branch2a -> res5b_branch2a (in-place)
I0521 02:34:12.483057  2976 layer_factory.hpp:77] Creating layer scale5b_branch2a
I0521 02:34:12.483178  2976 net.cpp:122] Setting up scale5b_branch2a
I0521 02:34:12.483182  2976 net.cpp:129] Top shape: 1 512 7 7 (25088)
I0521 02:34:12.483184  2976 net.cpp:137] Memory required for data: 500254736
I0521 02:34:12.483187  2976 layer_factory.hpp:77] Creating layer res5b_branch2a_relu
I0521 02:34:12.483191  2976 net.cpp:84] Creating Layer res5b_branch2a_relu
I0521 02:34:12.483193  2976 net.cpp:406] res5b_branch2a_relu <- res5b_branch2a
I0521 02:34:12.483196  2976 net.cpp:367] res5b_branch2a_relu -> res5b_branch2a (in-place)
I0521 02:34:12.483805  2976 net.cpp:122] Setting up res5b_branch2a_relu
I0521 02:34:12.483813  2976 net.cpp:129] Top shape: 1 512 7 7 (25088)
I0521 02:34:12.483814  2976 net.cpp:137] Memory required for data: 500355088
I0521 02:34:12.483816  2976 layer_factory.hpp:77] Creating layer res5b_branch2b
I0521 02:34:12.483821  2976 net.cpp:84] Creating Layer res5b_branch2b
I0521 02:34:12.483824  2976 net.cpp:406] res5b_branch2b <- res5b_branch2a
I0521 02:34:12.483829  2976 net.cpp:380] res5b_branch2b -> res5b_branch2b
I0521 02:34:12.503093  2976 net.cpp:122] Setting up res5b_branch2b
I0521 02:34:12.503115  2976 net.cpp:129] Top shape: 1 512 7 7 (25088)
I0521 02:34:12.503118  2976 net.cpp:137] Memory required for data: 500455440
I0521 02:34:12.503123  2976 layer_factory.hpp:77] Creating layer bn5b_branch2b
I0521 02:34:12.503129  2976 net.cpp:84] Creating Layer bn5b_branch2b
I0521 02:34:12.503132  2976 net.cpp:406] bn5b_branch2b <- res5b_branch2b
I0521 02:34:12.503136  2976 net.cpp:367] bn5b_branch2b -> res5b_branch2b (in-place)
I0521 02:34:12.503382  2976 net.cpp:122] Setting up bn5b_branch2b
I0521 02:34:12.503387  2976 net.cpp:129] Top shape: 1 512 7 7 (25088)
I0521 02:34:12.503389  2976 net.cpp:137] Memory required for data: 500555792
I0521 02:34:12.503393  2976 layer_factory.hpp:77] Creating layer scale5b_branch2b
I0521 02:34:12.503397  2976 net.cpp:84] Creating Layer scale5b_branch2b
I0521 02:34:12.503401  2976 net.cpp:406] scale5b_branch2b <- res5b_branch2b
I0521 02:34:12.503402  2976 net.cpp:367] scale5b_branch2b -> res5b_branch2b (in-place)
I0521 02:34:12.503455  2976 layer_factory.hpp:77] Creating layer scale5b_branch2b
I0521 02:34:12.503581  2976 net.cpp:122] Setting up scale5b_branch2b
I0521 02:34:12.503584  2976 net.cpp:129] Top shape: 1 512 7 7 (25088)
I0521 02:34:12.503587  2976 net.cpp:137] Memory required for data: 500656144
I0521 02:34:12.503588  2976 layer_factory.hpp:77] Creating layer res5b_branch2b_relu
I0521 02:34:12.503593  2976 net.cpp:84] Creating Layer res5b_branch2b_relu
I0521 02:34:12.503595  2976 net.cpp:406] res5b_branch2b_relu <- res5b_branch2b
I0521 02:34:12.503597  2976 net.cpp:367] res5b_branch2b_relu -> res5b_branch2b (in-place)
I0521 02:34:12.504020  2976 net.cpp:122] Setting up res5b_branch2b_relu
I0521 02:34:12.504026  2976 net.cpp:129] Top shape: 1 512 7 7 (25088)
I0521 02:34:12.504029  2976 net.cpp:137] Memory required for data: 500756496
I0521 02:34:12.504030  2976 layer_factory.hpp:77] Creating layer res5b_branch2c
I0521 02:34:12.504036  2976 net.cpp:84] Creating Layer res5b_branch2c
I0521 02:34:12.504039  2976 net.cpp:406] res5b_branch2c <- res5b_branch2b
I0521 02:34:12.504041  2976 net.cpp:380] res5b_branch2c -> res5b_branch2c
I0521 02:34:12.513206  2976 net.cpp:122] Setting up res5b_branch2c
I0521 02:34:12.513218  2976 net.cpp:129] Top shape: 1 2048 7 7 (100352)
I0521 02:34:12.513221  2976 net.cpp:137] Memory required for data: 501157904
I0521 02:34:12.513226  2976 layer_factory.hpp:77] Creating layer bn5b_branch2c
I0521 02:34:12.513231  2976 net.cpp:84] Creating Layer bn5b_branch2c
I0521 02:34:12.513234  2976 net.cpp:406] bn5b_branch2c <- res5b_branch2c
I0521 02:34:12.513238  2976 net.cpp:367] bn5b_branch2c -> res5b_branch2c (in-place)
I0521 02:34:12.513484  2976 net.cpp:122] Setting up bn5b_branch2c
I0521 02:34:12.513489  2976 net.cpp:129] Top shape: 1 2048 7 7 (100352)
I0521 02:34:12.513491  2976 net.cpp:137] Memory required for data: 501559312
I0521 02:34:12.513494  2976 layer_factory.hpp:77] Creating layer scale5b_branch2c
I0521 02:34:12.513499  2976 net.cpp:84] Creating Layer scale5b_branch2c
I0521 02:34:12.513500  2976 net.cpp:406] scale5b_branch2c <- res5b_branch2c
I0521 02:34:12.513504  2976 net.cpp:367] scale5b_branch2c -> res5b_branch2c (in-place)
I0521 02:34:12.513558  2976 layer_factory.hpp:77] Creating layer scale5b_branch2c
I0521 02:34:12.513684  2976 net.cpp:122] Setting up scale5b_branch2c
I0521 02:34:12.513687  2976 net.cpp:129] Top shape: 1 2048 7 7 (100352)
I0521 02:34:12.513689  2976 net.cpp:137] Memory required for data: 501960720
I0521 02:34:12.513691  2976 layer_factory.hpp:77] Creating layer res5b
I0521 02:34:12.513696  2976 net.cpp:84] Creating Layer res5b
I0521 02:34:12.513700  2976 net.cpp:406] res5b <- res5a_res5a_relu_0_split_1
I0521 02:34:12.513702  2976 net.cpp:406] res5b <- res5b_branch2c
I0521 02:34:12.513705  2976 net.cpp:380] res5b -> res5b
I0521 02:34:12.513722  2976 net.cpp:122] Setting up res5b
I0521 02:34:12.513727  2976 net.cpp:129] Top shape: 1 2048 7 7 (100352)
I0521 02:34:12.513730  2976 net.cpp:137] Memory required for data: 502362128
I0521 02:34:12.513731  2976 layer_factory.hpp:77] Creating layer res5b_relu
I0521 02:34:12.513741  2976 net.cpp:84] Creating Layer res5b_relu
I0521 02:34:12.513744  2976 net.cpp:406] res5b_relu <- res5b
I0521 02:34:12.513746  2976 net.cpp:367] res5b_relu -> res5b (in-place)
I0521 02:34:12.514375  2976 net.cpp:122] Setting up res5b_relu
I0521 02:34:12.514381  2976 net.cpp:129] Top shape: 1 2048 7 7 (100352)
I0521 02:34:12.514384  2976 net.cpp:137] Memory required for data: 502763536
I0521 02:34:12.514385  2976 layer_factory.hpp:77] Creating layer res5b_res5b_relu_0_split
I0521 02:34:12.514389  2976 net.cpp:84] Creating Layer res5b_res5b_relu_0_split
I0521 02:34:12.514391  2976 net.cpp:406] res5b_res5b_relu_0_split <- res5b
I0521 02:34:12.514394  2976 net.cpp:380] res5b_res5b_relu_0_split -> res5b_res5b_relu_0_split_0
I0521 02:34:12.514400  2976 net.cpp:380] res5b_res5b_relu_0_split -> res5b_res5b_relu_0_split_1
I0521 02:34:12.514438  2976 net.cpp:122] Setting up res5b_res5b_relu_0_split
I0521 02:34:12.514442  2976 net.cpp:129] Top shape: 1 2048 7 7 (100352)
I0521 02:34:12.514446  2976 net.cpp:129] Top shape: 1 2048 7 7 (100352)
I0521 02:34:12.514446  2976 net.cpp:137] Memory required for data: 503566352
I0521 02:34:12.514448  2976 layer_factory.hpp:77] Creating layer res5c_branch2a
I0521 02:34:12.514454  2976 net.cpp:84] Creating Layer res5c_branch2a
I0521 02:34:12.514457  2976 net.cpp:406] res5c_branch2a <- res5b_res5b_relu_0_split_0
I0521 02:34:12.514461  2976 net.cpp:380] res5c_branch2a -> res5c_branch2a
I0521 02:34:12.524340  2976 net.cpp:122] Setting up res5c_branch2a
I0521 02:34:12.524354  2976 net.cpp:129] Top shape: 1 512 7 7 (25088)
I0521 02:34:12.524356  2976 net.cpp:137] Memory required for data: 503666704
I0521 02:34:12.524361  2976 layer_factory.hpp:77] Creating layer bn5c_branch2a
I0521 02:34:12.524366  2976 net.cpp:84] Creating Layer bn5c_branch2a
I0521 02:34:12.524370  2976 net.cpp:406] bn5c_branch2a <- res5c_branch2a
I0521 02:34:12.524374  2976 net.cpp:367] bn5c_branch2a -> res5c_branch2a (in-place)
I0521 02:34:12.524626  2976 net.cpp:122] Setting up bn5c_branch2a
I0521 02:34:12.524631  2976 net.cpp:129] Top shape: 1 512 7 7 (25088)
I0521 02:34:12.524633  2976 net.cpp:137] Memory required for data: 503767056
I0521 02:34:12.524637  2976 layer_factory.hpp:77] Creating layer scale5c_branch2a
I0521 02:34:12.524641  2976 net.cpp:84] Creating Layer scale5c_branch2a
I0521 02:34:12.524642  2976 net.cpp:406] scale5c_branch2a <- res5c_branch2a
I0521 02:34:12.524646  2976 net.cpp:367] scale5c_branch2a -> res5c_branch2a (in-place)
I0521 02:34:12.524703  2976 layer_factory.hpp:77] Creating layer scale5c_branch2a
I0521 02:34:12.524833  2976 net.cpp:122] Setting up scale5c_branch2a
I0521 02:34:12.524838  2976 net.cpp:129] Top shape: 1 512 7 7 (25088)
I0521 02:34:12.524840  2976 net.cpp:137] Memory required for data: 503867408
I0521 02:34:12.524842  2976 layer_factory.hpp:77] Creating layer res5c_branch2a_relu
I0521 02:34:12.524847  2976 net.cpp:84] Creating Layer res5c_branch2a_relu
I0521 02:34:12.524848  2976 net.cpp:406] res5c_branch2a_relu <- res5c_branch2a
I0521 02:34:12.524852  2976 net.cpp:367] res5c_branch2a_relu -> res5c_branch2a (in-place)
I0521 02:34:12.525283  2976 net.cpp:122] Setting up res5c_branch2a_relu
I0521 02:34:12.525290  2976 net.cpp:129] Top shape: 1 512 7 7 (25088)
I0521 02:34:12.525291  2976 net.cpp:137] Memory required for data: 503967760
I0521 02:34:12.525293  2976 layer_factory.hpp:77] Creating layer res5c_branch2b
I0521 02:34:12.525298  2976 net.cpp:84] Creating Layer res5c_branch2b
I0521 02:34:12.525301  2976 net.cpp:406] res5c_branch2b <- res5c_branch2a
I0521 02:34:12.525305  2976 net.cpp:380] res5c_branch2b -> res5c_branch2b
I0521 02:34:12.544513  2976 net.cpp:122] Setting up res5c_branch2b
I0521 02:34:12.544528  2976 net.cpp:129] Top shape: 1 512 7 7 (25088)
I0521 02:34:12.544530  2976 net.cpp:137] Memory required for data: 504068112
I0521 02:34:12.544535  2976 layer_factory.hpp:77] Creating layer bn5c_branch2b
I0521 02:34:12.544541  2976 net.cpp:84] Creating Layer bn5c_branch2b
I0521 02:34:12.544545  2976 net.cpp:406] bn5c_branch2b <- res5c_branch2b
I0521 02:34:12.544559  2976 net.cpp:367] bn5c_branch2b -> res5c_branch2b (in-place)
I0521 02:34:12.544816  2976 net.cpp:122] Setting up bn5c_branch2b
I0521 02:34:12.544821  2976 net.cpp:129] Top shape: 1 512 7 7 (25088)
I0521 02:34:12.544823  2976 net.cpp:137] Memory required for data: 504168464
I0521 02:34:12.544827  2976 layer_factory.hpp:77] Creating layer scale5c_branch2b
I0521 02:34:12.544831  2976 net.cpp:84] Creating Layer scale5c_branch2b
I0521 02:34:12.544833  2976 net.cpp:406] scale5c_branch2b <- res5c_branch2b
I0521 02:34:12.544836  2976 net.cpp:367] scale5c_branch2b -> res5c_branch2b (in-place)
I0521 02:34:12.544893  2976 layer_factory.hpp:77] Creating layer scale5c_branch2b
I0521 02:34:12.545027  2976 net.cpp:122] Setting up scale5c_branch2b
I0521 02:34:12.545032  2976 net.cpp:129] Top shape: 1 512 7 7 (25088)
I0521 02:34:12.545033  2976 net.cpp:137] Memory required for data: 504268816
I0521 02:34:12.545037  2976 layer_factory.hpp:77] Creating layer res5c_branch2b_relu
I0521 02:34:12.545039  2976 net.cpp:84] Creating Layer res5c_branch2b_relu
I0521 02:34:12.545042  2976 net.cpp:406] res5c_branch2b_relu <- res5c_branch2b
I0521 02:34:12.545045  2976 net.cpp:367] res5c_branch2b_relu -> res5c_branch2b (in-place)
I0521 02:34:12.545487  2976 net.cpp:122] Setting up res5c_branch2b_relu
I0521 02:34:12.545495  2976 net.cpp:129] Top shape: 1 512 7 7 (25088)
I0521 02:34:12.545496  2976 net.cpp:137] Memory required for data: 504369168
I0521 02:34:12.545498  2976 layer_factory.hpp:77] Creating layer res5c_branch2c
I0521 02:34:12.545505  2976 net.cpp:84] Creating Layer res5c_branch2c
I0521 02:34:12.545506  2976 net.cpp:406] res5c_branch2c <- res5c_branch2b
I0521 02:34:12.545509  2976 net.cpp:380] res5c_branch2c -> res5c_branch2c
I0521 02:34:12.555433  2976 net.cpp:122] Setting up res5c_branch2c
I0521 02:34:12.555447  2976 net.cpp:129] Top shape: 1 2048 7 7 (100352)
I0521 02:34:12.555449  2976 net.cpp:137] Memory required for data: 504770576
I0521 02:34:12.555454  2976 layer_factory.hpp:77] Creating layer bn5c_branch2c
I0521 02:34:12.555459  2976 net.cpp:84] Creating Layer bn5c_branch2c
I0521 02:34:12.555462  2976 net.cpp:406] bn5c_branch2c <- res5c_branch2c
I0521 02:34:12.555467  2976 net.cpp:367] bn5c_branch2c -> res5c_branch2c (in-place)
I0521 02:34:12.555719  2976 net.cpp:122] Setting up bn5c_branch2c
I0521 02:34:12.555724  2976 net.cpp:129] Top shape: 1 2048 7 7 (100352)
I0521 02:34:12.555727  2976 net.cpp:137] Memory required for data: 505171984
I0521 02:34:12.555730  2976 layer_factory.hpp:77] Creating layer scale5c_branch2c
I0521 02:34:12.555733  2976 net.cpp:84] Creating Layer scale5c_branch2c
I0521 02:34:12.555735  2976 net.cpp:406] scale5c_branch2c <- res5c_branch2c
I0521 02:34:12.555738  2976 net.cpp:367] scale5c_branch2c -> res5c_branch2c (in-place)
I0521 02:34:12.555797  2976 layer_factory.hpp:77] Creating layer scale5c_branch2c
I0521 02:34:12.555928  2976 net.cpp:122] Setting up scale5c_branch2c
I0521 02:34:12.555932  2976 net.cpp:129] Top shape: 1 2048 7 7 (100352)
I0521 02:34:12.555934  2976 net.cpp:137] Memory required for data: 505573392
I0521 02:34:12.555938  2976 layer_factory.hpp:77] Creating layer res5c
I0521 02:34:12.555941  2976 net.cpp:84] Creating Layer res5c
I0521 02:34:12.555944  2976 net.cpp:406] res5c <- res5b_res5b_relu_0_split_1
I0521 02:34:12.555946  2976 net.cpp:406] res5c <- res5c_branch2c
I0521 02:34:12.555949  2976 net.cpp:380] res5c -> res5c
I0521 02:34:12.555969  2976 net.cpp:122] Setting up res5c
I0521 02:34:12.555974  2976 net.cpp:129] Top shape: 1 2048 7 7 (100352)
I0521 02:34:12.555975  2976 net.cpp:137] Memory required for data: 505974800
I0521 02:34:12.555979  2976 layer_factory.hpp:77] Creating layer res5c_relu
I0521 02:34:12.555984  2976 net.cpp:84] Creating Layer res5c_relu
I0521 02:34:12.555986  2976 net.cpp:406] res5c_relu <- res5c
I0521 02:34:12.555990  2976 net.cpp:367] res5c_relu -> res5c (in-place)
I0521 02:34:12.556591  2976 net.cpp:122] Setting up res5c_relu
I0521 02:34:12.556598  2976 net.cpp:129] Top shape: 1 2048 7 7 (100352)
I0521 02:34:12.556601  2976 net.cpp:137] Memory required for data: 506376208
I0521 02:34:12.556608  2976 layer_factory.hpp:77] Creating layer pool5
I0521 02:34:12.556612  2976 net.cpp:84] Creating Layer pool5
I0521 02:34:12.556614  2976 net.cpp:406] pool5 <- res5c
I0521 02:34:12.556618  2976 net.cpp:380] pool5 -> pool5
I0521 02:34:12.557060  2976 net.cpp:122] Setting up pool5
I0521 02:34:12.557065  2976 net.cpp:129] Top shape: 1 2048 1 1 (2048)
I0521 02:34:12.557066  2976 net.cpp:137] Memory required for data: 506384400
I0521 02:34:12.557068  2976 layer_factory.hpp:77] Creating layer fc1000-skin
I0521 02:34:12.557072  2976 net.cpp:84] Creating Layer fc1000-skin
I0521 02:34:12.557075  2976 net.cpp:406] fc1000-skin <- pool5
I0521 02:34:12.557080  2976 net.cpp:380] fc1000-skin -> fc1000-skin
I0521 02:34:12.557286  2976 net.cpp:122] Setting up fc1000-skin
I0521 02:34:12.557291  2976 net.cpp:129] Top shape: 1 12 (12)
I0521 02:34:12.557291  2976 net.cpp:137] Memory required for data: 506384448
I0521 02:34:12.557294  2976 layer_factory.hpp:77] Creating layer fc1000-skin_fc1000-skin_0_split
I0521 02:34:12.557299  2976 net.cpp:84] Creating Layer fc1000-skin_fc1000-skin_0_split
I0521 02:34:12.557301  2976 net.cpp:406] fc1000-skin_fc1000-skin_0_split <- fc1000-skin
I0521 02:34:12.557304  2976 net.cpp:380] fc1000-skin_fc1000-skin_0_split -> fc1000-skin_fc1000-skin_0_split_0
I0521 02:34:12.557308  2976 net.cpp:380] fc1000-skin_fc1000-skin_0_split -> fc1000-skin_fc1000-skin_0_split_1
I0521 02:34:12.557312  2976 net.cpp:380] fc1000-skin_fc1000-skin_0_split -> fc1000-skin_fc1000-skin_0_split_2
I0521 02:34:12.557353  2976 net.cpp:122] Setting up fc1000-skin_fc1000-skin_0_split
I0521 02:34:12.557356  2976 net.cpp:129] Top shape: 1 12 (12)
I0521 02:34:12.557359  2976 net.cpp:129] Top shape: 1 12 (12)
I0521 02:34:12.557360  2976 net.cpp:129] Top shape: 1 12 (12)
I0521 02:34:12.557363  2976 net.cpp:137] Memory required for data: 506384592
I0521 02:34:12.557364  2976 layer_factory.hpp:77] Creating layer loss
I0521 02:34:12.557368  2976 net.cpp:84] Creating Layer loss
I0521 02:34:12.557369  2976 net.cpp:406] loss <- fc1000-skin_fc1000-skin_0_split_0
I0521 02:34:12.557371  2976 net.cpp:406] loss <- label_data_1_split_0
I0521 02:34:12.557374  2976 net.cpp:380] loss -> loss
…
