…
I0413 09:31:46.948462 27596 net.cpp:294] The NetState phase (0) differed from the phase (1) specified by a rule in layer acc/top-5
I0413 09:31:46.949295 27596 net.cpp:51] Initializing net from parameters: 
name: "ResNet-152"
state {
  phase: TRAIN
  level: 0
  stage: ""
}
layer {
  name: "data"
  type: "Data"
  top: "data"
  top: "label"
  include {
    phase: TRAIN
  }
  transform_param {
    mirror: true
    crop_size: 224
    mean_file: "/home/danilo/Documents/FGA/2018-1/TCC1/Datasets/FINALFINAL_Aug_input/mean.binaryproto"
  }
  data_param {
    source: "/home/danilo/Documents/FGA/2018-1/TCC1/Datasets/FINALFINAL_Aug_lmdb/train"
    batch_size: 5
    backend: LMDB
  }
}
layer {
  name: "conv1"
  type: "Convolution"
  bottom: "data"
  top: "conv1"
  convolution_param {
    num_output: 64
    bias_term: false
    pad: 3
    kernel_size: 7
    stride: 2
    weight_filler {
      type: "msra"
    }
  }
}
layer {
  name: "bn_conv1"
  type: "BatchNorm"
  bottom: "conv1"
  top: "conv1"
  batch_norm_param {
    use_global_stats: false
  }
}
layer {
  name: "scale_conv1"
  type: "Scale"
  bottom: "conv1"
  top: "conv1"
  scale_param {
    bias_term: true
  }
}
layer {
  name: "conv1_relu"
  type: "ReLU"
  bottom: "conv1"
  top: "conv1"
}
layer {
  name: "pool1"
  type: "Pooling"
  bottom: "conv1"
  top: "pool1"
  pooling_param {
    pool: MAX
    kernel_size: 3
    stride: 2
  }
}
layer {
  name: "res2a_branch1"
  type: "Convolution"
  bottom: "pool1"
  top: "res2a_branch1"
  convolution_param {
    num_output: 256
    bias_term: false
    pad: 0
    kernel_size: 1
    stride: 1
    weight_filler {
      type: "msra"
    }
  }
}
layer {
  name: "bn2a_branch1"
  type: "BatchNorm"
  bottom: "res2a_branch1"
  top: "res2a_branch1"
  batch_norm_param {
    use_global_stats: false
  }
}
layer {
  name: "scale2a_branch1"
  type: "Scale"
  bottom: "res2a_branch1"
  top: "res2a_branch1"
  scale_param {
    bias_term: true
  }
}
layer {
  name: "res2a_branch2a"
  type: "Convolution"
  bottom: "pool1"
  top: "res2a_branch2a"
  convolution_param {
    num_output: 64
    bias_term: false
    pad: 0
    kernel_size: 1
    stride: 1
    weight_filler {
      type: "msra"
    }
  }
}
layer {
  name: "bn2a_branch2a"
  type: "BatchNorm"
  bottom: "res2a_branch2a"
  top: "res2a_branch2a"
  batch_norm_param {
    use_global_stats: false
  }
}
layer {
  name: "scale2a_branch2a"
  type: "Scale"
  bottom: "res2a_branch2a"
  top: "res2a_branch2a"
  scale_param {
    bias_term: true
  }
}
layer {
  name: "res2a_branch2a_relu"
  type: "ReLU"
  bottom: "res2a_branch2a"
  top: "res2a_branch2a"
}
layer {
  name: "res2a_branch2b"
  type: "Convolution"
  bottom: "res2a_branch2a"
  top: "res2a_branch2b"
  convolution_param {
    num_output: 64
    bias_term: false
    pad: 1
    kernel_size: 3
    stride: 1
    weight_filler {
      type: "msra"
    }
  }
}
layer {
  name: "bn2a_branch2b"
  type: "BatchNorm"
  bottom: "res2a_branch2b"
  top: "res2a_branch2b"
  batch_norm_param {
    use_global_stats: false
  }
}
layer {
  name: "scale2a_branch2b"
  type: "Scale"
  bottom: "res2a_branch2b"
  top: "res2a_branch2b"
  scale_param {
    bias_term: true
  }
}
layer {
  name: "res2a_branch2b_relu"
  type: "ReLU"
  bottom: "res2a_branch2b"
  top: "res2a_branch2b"
}
layer {
  name: "res2a_branch2c"
  type: "Convolution"
  bottom: "res2a_branch2b"
  top: "res2a_branch2c"
  convolution_param {
    num_output: 256
    bias_term: false
    pad: 0
    kernel_size: 1
    stride: 1
    weight_filler {
      type: "msra"
    }
  }
}
layer {
  name: "bn2a_branch2c"
  type: "BatchNorm"
  bottom: "res2a_branch2c"
  top: "res2a_branch2c"
  batch_norm_param {
    use_global_stats: false
  }
}
layer {
  name: "scale2a_branch2c"
  type: "Scale"
  bottom: "res2a_branch2c"
  top: "res2a_branch2c"
  scale_param {
    bias_term: true
  }
}
layer {
  name: "res2a"
  type: "Eltwise"
  bottom: "res2a_branch1"
  bottom: "res2a_branch2c"
  top: "res2a"
  eltwise_param {
    operation: SUM
  }
}
layer {
  name: "res2a_relu"
  type: "ReLU"
  bottom: "res2a"
  top: "res2a"
}
layer {
  name: "res2b_branch2a"
  type: "Convolution"
  bottom: "res2a"
  top: "res2b_branch2a"
  convolution_param {
    num_output: 64
    bias_term: false
    pad: 0
    kernel_size: 1
    stride: 1
    weight_filler {
      type: "msra"
    }
  }
}
layer {
  name: "bn2b_branch2a"
  type: "BatchNorm"
  bottom: "res2b_branch2a"
  top: "res2b_branch2a"
  batch_norm_param {
    use_global_stats: false
  }
}
layer {
  name: "scale2b_branch2a"
  type: "Scale"
  bottom: "res2b_branch2a"
  top: "res2b_branch2a"
  scale_param {
    bias_term: true
  }
}
layer {
  name: "res2b_branch2a_relu"
  type: "ReLU"
  bottom: "res2b_branch2a"
  top: "res2b_branch2a"
}
layer {
  name: "res2b_branch2b"
  type: "Convolution"
  bottom: "res2b_branch2a"
  top: "res2b_branch2b"
  convolution_param {
    num_output: 64
    bias_term: false
    pad: 1
    kernel_size: 3
    stride: 1
    weight_filler {
      type: "msra"
    }
  }
}
layer {
  name: "bn2b_branch2b"
  type: "BatchNorm"
  bottom: "res2b_branch2b"
  top: "res2b_branch2b"
  batch_norm_param {
    use_global_stats: false
  }
}
layer {
  name: "scale2b_branch2b"
  type: "Scale"
  bottom: "res2b_branch2b"
  top: "res2b_branch2b"
  scale_param {
    bias_term: true
  }
}
layer {
  name: "res2b_branch2b_relu"
  type: "ReLU"
  bottom: "res2b_branch2b"
  top: "res2b_branch2b"
}
layer {
  name: "res2b_branch2c"
  type: "Convolution"
  bottom: "res2b_branch2b"
  top: "res2b_branch2c"
  convolution_param {
    num_output: 256
    bias_term: false
    pad: 0
    kernel_size: 1
    stride: 1
    weight_filler {
      type: "msra"
    }
  }
}
layer {
  name: "bn2b_branch2c"
  type: "BatchNorm"
  bottom: "res2b_branch2c"
  top: "res2b_branch2c"
  batch_norm_param {
    use_global_stats: false
  }
}
layer {
  name: "scale2b_branch2c"
  type: "Scale"
  bottom: "res2b_branch2c"
  top: "res2b_branch2c"
  scale_param {
    bias_term: true
  }
}
layer {
  name: "res2b"
  type: "Eltwise"
  bottom: "res2a"
  bottom: "res2b_branch2c"
  top: "res2b"
  eltwise_param {
    operation: SUM
  }
}
layer {
  name: "res2b_relu"
  type: "ReLU"
  bottom: "res2b"
  top: "res2b"
}
layer {
  name: "res2c_branch2a"
  type: "Convolution"
  bottom: "res2b"
  top: "res2c_branch2a"
  convolution_param {
    num_output: 64
    bias_term: false
    pad: 0
    kernel_size: 1
    stride: 1
    weight_filler {
      type: "msra"
    }
  }
}
layer {
  name: "bn2c_branch2a"
  type: "BatchNorm"
  bottom: "res2c_branch2a"
  top: "res2c_branch2a"
  batch_norm_param {
    use_global_stats: false
  }
}
layer {
  name: "scale2c_branch2a"
  type: "Scale"
  bottom: "res2c_branch2a"
  top: "res2c_branch2a"
  scale_param {
    bias_term: true
  }
}
layer {
  name: "res2c_branch2a_relu"
  type: "ReLU"
  bottom: "res2c_branch2a"
  top: "res2c_branch2a"
}
layer {
  name: "res2c_branch2b"
  type: "Convolution"
  bottom: "res2c_branch2a"
  top: "res2c_branch2b"
  convolution_param {
    num_output: 64
    bias_term: false
    pad: 1
    kernel_size: 3
    stride: 1
    weight_filler {
      type: "msra"
    }
  }
}
layer {
  name: "bn2c_branch2b"
  type: "BatchNorm"
  bottom: "res2c_branch2b"
  top: "res2c_branch2b"
  batch_norm_param {
    use_global_stats: false
  }
}
layer {
  name: "scale2c_branch2b"
  type: "Scale"
  bottom: "res2c_branch2b"
  top: "res2c_branch2b"
  scale_param {
    bias_term: true
  }
}
layer {
  name: "res2c_branch2b_relu"
  type: "ReLU"
  bottom: "res2c_branch2b"
  top: "res2c_branch2b"
}
layer {
  name: "res2c_branch2c"
  type: "Convolution"
  bottom: "res2c_branch2b"
  top: "res2c_branch2c"
  convolution_param {
    num_output: 256
    bias_term: false
    pad: 0
    kernel_size: 1
    stride: 1
    weight_filler {
      type: "msra"
    }
  }
}
layer {
  name: "bn2c_branch2c"
  type: "BatchNorm"
  bottom: "res2c_branch2c"
  top: "res2c_branch2c"
  batch_norm_param {
    use_global_stats: false
  }
}
layer {
  name: "scale2c_branch2c"
  type: "Scale"
  bottom: "res2c_branch2c"
  top: "res2c_branch2c"
  scale_param {
    bias_term: true
  }
}
layer {
  name: "res2c"
  type: "Eltwise"
  bottom: "res2b"
  bottom: "res2c_branch2c"
  top: "res2c"
  eltwise_param {
    operation: SUM
  }
}
layer {
  name: "res2c_relu"
  type: "ReLU"
  bottom: "res2c"
  top: "res2c"
}
layer {
  name: "res3a_branch1"
  type: "Convolution"
  bottom: "res2c"
  top: "res3a_branch1"
  convolution_param {
    num_output: 512
    bias_term: false
    pad: 0
    kernel_size: 1
    stride: 2
    weight_filler {
      type: "msra"
    }
  }
}
layer {
  name: "bn3a_branch1"
  type: "BatchNorm"
  bottom: "res3a_branch1"
  top: "res3a_branch1"
  batch_norm_param {
    use_global_stats: false
  }
}
layer {
  name: "scale3a_branch1"
  type: "Scale"
  bottom: "res3a_branch1"
  top: "res3a_branch1"
  scale_param {
    bias_term: true
  }
}
layer {
  name: "res3a_branch2a"
  type: "Convolution"
  bottom: "res2c"
  top: "res3a_branch2a"
  convolution_param {
    num_output: 128
    bias_term: false
    pad: 0
    kernel_size: 1
    stride: 2
    weight_filler {
      type: "msra"
    }
  }
}
layer {
  name: "bn3a_branch2a"
  type: "BatchNorm"
  bottom: "res3a_branch2a"
  top: "res3a_branch2a"
  batch_norm_param {
    use_global_stats: false
  }
}
layer {
  name: "scale3a_branch2a"
  type: "Scale"
  bottom: "res3a_branch2a"
  top: "res3a_branch2a"
  scale_param {
    bias_term: true
  }
}
layer {
  name: "res3a_branch2a_relu"
  type: "ReLU"
  bottom: "res3a_branch2a"
  top: "res3a_branch2a"
}
layer {
  name: "res3a_branch2b"
  type: "Convolution"
  bottom: "res3a_branch2a"
  top: "res3a_branch2b"
  convolution_param {
    num_output: 128
    bias_term: false
    pad: 1
    kernel_size: 3
    stride: 1
    weight_filler {
      type: "msra"
    }
  }
}
layer {
  name: "bn3a_branch2b"
  type: "BatchNorm"
  bottom: "res3a_branch2b"
  top: "res3a_branch2b"
  batch_norm_param {
    use_global_stats: false
  }
}
layer {
  name: "scale3a_branch2b"
  type: "Scale"
  bottom: "res3a_branch2b"
  top: "res3a_branch2b"
  scale_param {
    bias_term: true
  }
}
layer {
  name: "res3a_branch2b_relu"
  type: "ReLU"
  bottom: "res3a_branch2b"
  top: "res3a_branch2b"
}
layer {
  name: "res3a_branch2c"
  type: "Convolution"
  bottom: "res3a_branch2b"
  top: "res3a_branch2c"
  convolution_param {
    num_output: 512
    bias_term: false
    pad: 0
    kernel_size: 1
    stride: 1
    weight_filler {
      type: "msra"
    }
  }
}
layer {
  name: "bn3a_branch2c"
  type: "BatchNorm"
  bottom: "res3a_branch2c"
  top: "res3a_branch2c"
  batch_norm_param {
    use_global_stats: false
  }
}
layer {
  name: "scale3a_branch2c"
  type: "Scale"
  bottom: "res3a_branch2c"
  top: "res3a_branch2c"
  scale_param {
    bias_term: true
  }
}
layer {
  name: "res3a"
  type: "Eltwise"
  bottom: "res3a_branch1"
  bottom: "res3a_branch2c"
  top: "res3a"
  eltwise_param {
    operation: SUM
  }
}
layer {
  name: "res3a_relu"
  type: "ReLU"
  bottom: "res3a"
  top: "res3a"
}
layer {
  name: "res3b1_branch2a"
  type: "Convolution"
  bottom: "res3a"
  top: "res3b1_branch2a"
  convolution_param {
    num_output: 128
    bias_term: false
    pad: 0
    kernel_size: 1
    stride: 1
    weight_filler {
      type: "msra"
    }
  }
}
layer {
  name: "bn3b1_branch2a"
  type: "BatchNorm"
  bottom: "res3b1_branch2a"
  top: "res3b1_branch2a"
  batch_norm_param {
    use_global_stats: false
  }
}
layer {
  name: "scale3b1_branch2a"
  type: "Scale"
  bottom: "res3b1_branch2a"
  top: "res3b1_branch2a"
  scale_param {
    bias_term: true
  }
}
layer {
  name: "res3b1_branch2a_relu"
  type: "ReLU"
  bottom: "res3b1_branch2a"
  top: "res3b1_branch2a"
}
layer {
  name: "res3b1_branch2b"
  type: "Convolution"
  bottom: "res3b1_branch2a"
  top: "res3b1_branch2b"
  convolution_param {
    num_output: 128
    bias_term: false
    pad: 1
    kernel_size: 3
    stride: 1
    weight_filler {
      type: "msra"
    }
  }
}
layer {
  name: "bn3b1_branch2b"
  type: "BatchNorm"
  bottom: "res3b1_branch2b"
  top: "res3b1_branch2b"
  batch_norm_param {
    use_global_stats: false
  }
}
layer {
  name: "scale3b1_branch2b"
  type: "Scale"
  bottom: "res3b1_branch2b"
  top: "res3b1_branch2b"
  scale_param {
    bias_term: true
  }
}
layer {
  name: "res3b1_branch2b_relu"
  type: "ReLU"
  bottom: "res3b1_branch2b"
  top: "res3b1_branch2b"
}
layer {
  name: "res3b1_branch2c"
  type: "Convolution"
  bottom: "res3b1_branch2b"
  top: "res3b1_branch2c"
  convolution_param {
    num_output: 512
    bias_term: false
    pad: 0
    kernel_size: 1
    stride: 1
    weight_filler {
      type: "msra"
    }
  }
}
layer {
  name: "bn3b1_branch2c"
  type: "BatchNorm"
  bottom: "res3b1_branch2c"
  top: "res3b1_branch2c"
  batch_norm_param {
    use_global_stats: false
  }
}
layer {
  name: "scale3b1_branch2c"
  type: "Scale"
  bottom: "res3b1_branch2c"
  top: "res3b1_branch2c"
  scale_param {
    bias_term: true
  }
}
layer {
  name: "res3b1"
  type: "Eltwise"
  bottom: "res3a"
  bottom: "res3b1_branch2c"
  top: "res3b1"
  eltwise_param {
    operation: SUM
  }
}
layer {
  name: "res3b1_relu"
  type: "ReLU"
  bottom: "res3b1"
  top: "res3b1"
}
layer {
  name: "res3b2_branch2a"
  type: "Convolution"
  bottom: "res3b1"
  top: "res3b2_branch2a"
  convolution_param {
    num_output: 128
    bias_term: false
    pad: 0
    kernel_size: 1
    stride: 1
    weight_filler {
      type: "msra"
    }
  }
}
layer {
  name: "bn3b2_branch2a"
  type: "BatchNorm"
  bottom: "res3b2_branch2a"
  top: "res3b2_branch2a"
  batch_norm_param {
    use_global_stats: false
  }
}
layer {
  name: "scale3b2_branch2a"
  type: "Scale"
  bottom: "res3b2_branch2a"
  top: "res3b2_branch2a"
  scale_param {
    bias_term: true
  }
}
layer {
  name: "res3b2_branch2a_relu"
  type: "ReLU"
  bottom: "res3b2_branch2a"
  top: "res3b2_branch2a"
}
layer {
  name: "res3b2_branch2b"
  type: "Convolution"
  bottom: "res3b2_branch2a"
  top: "res3b2_branch2b"
  convolution_param {
    num_output: 128
    bias_term: false
    pad: 1
    kernel_size: 3
    stride: 1
    weight_filler {
      type: "msra"
    }
  }
}
layer {
  name: "bn3b2_branch2b"
  type: "BatchNorm"
  bottom: "res3b2_branch2b"
  top: "res3b2_branch2b"
  batch_norm_param {
    use_global_stats: false
  }
}
layer {
  name: "scale3b2_branch2b"
  type: "Scale"
  bottom: "res3b2_branch2b"
  top: "res3b2_branch2b"
  scale_param {
    bias_term: true
  }
}
layer {
  name: "res3b2_branch2b_relu"
  type: "ReLU"
  bottom: "res3b2_branch2b"
  top: "res3b2_branch2b"
}
layer {
  name: "res3b2_branch2c"
  type: "Convolution"
  bottom: "res3b2_branch2b"
  top: "res3b2_branch2c"
  convolution_param {
    num_output: 512
    bias_term: false
    pad: 0
    kernel_size: 1
    stride: 1
    weight_filler {
      type: "msra"
    }
  }
}
layer {
  name: "bn3b2_branch2c"
  type: "BatchNorm"
  bottom: "res3b2_branch2c"
  top: "res3b2_branch2c"
  batch_norm_param {
    use_global_stats: false
  }
}
layer {
  name: "scale3b2_branch2c"
  type: "Scale"
  bottom: "res3b2_branch2c"
  top: "res3b2_branch2c"
  scale_param {
    bias_term: true
  }
}
layer {
  name: "res3b2"
  type: "Eltwise"
  bottom: "res3b1"
  bottom: "res3b2_branch2c"
  top: "res3b2"
  eltwise_param {
    operation: SUM
  }
}
layer {
  name: "res3b2_relu"
  type: "ReLU"
  bottom: "res3b2"
  top: "res3b2"
}
layer {
  name: "res3b3_branch2a"
  type: "Convolution"
  bottom: "res3b2"
  top: "res3b3_branch2a"
  convolution_param {
    num_output: 128
    bias_term: false
    pad: 0
    kernel_size: 1
    stride: 1
    weight_filler {
      type: "msra"
    }
  }
}
layer {
  name: "bn3b3_branch2a"
  type: "BatchNorm"
  bottom: "res3b3_branch2a"
  top: "res3b3_branch2a"
  batch_norm_param {
    use_global_stats: false
  }
}
layer {
  name: "scale3b3_branch2a"
  type: "Scale"
  bottom: "res3b3_branch2a"
  top: "res3b3_branch2a"
  scale_param {
    bias_term: true
  }
}
layer {
  name: "res3b3_branch2a_relu"
  type: "ReLU"
  bottom: "res3b3_branch2a"
  top: "res3b3_branch2a"
}
layer {
  name: "res3b3_branch2b"
  type: "Convolution"
  bottom: "res3b3_branch2a"
  top: "res3b3_branch2b"
  convolution_param {
    num_output: 128
    bias_term: false
    pad: 1
    kernel_size: 3
    stride: 1
    weight_filler {
      type: "msra"
    }
  }
}
layer {
  name: "bn3b3_branch2b"
  type: "BatchNorm"
  bottom: "res3b3_branch2b"
  top: "res3b3_branch2b"
  batch_norm_param {
    use_global_stats: false
  }
}
layer {
  name: "scale3b3_branch2b"
  type: "Scale"
  bottom: "res3b3_branch2b"
  top: "res3b3_branch2b"
  scale_param {
    bias_term: true
  }
}
layer {
  name: "res3b3_branch2b_relu"
  type: "ReLU"
  bottom: "res3b3_branch2b"
  top: "res3b3_branch2b"
}
layer {
  name: "res3b3_branch2c"
  type: "Convolution"
  bottom: "res3b3_branch2b"
  top: "res3b3_branch2c"
  convolution_param {
    num_output: 512
    bias_term: false
    pad: 0
    kernel_size: 1
    stride: 1
    weight_filler {
      type: "msra"
    }
  }
}
layer {
  name: "bn3b3_branch2c"
  type: "BatchNorm"
  bottom: "res3b3_branch2c"
  top: "res3b3_branch2c"
  batch_norm_param {
    use_global_stats: false
  }
}
layer {
  name: "scale3b3_branch2c"
  type: "Scale"
  bottom: "res3b3_branch2c"
  top: "res3b3_branch2c"
  scale_param {
    bias_term: true
  }
}
layer {
  name: "res3b3"
  type: "Eltwise"
  bottom: "res3b2"
  bottom: "res3b3_branch2c"
  top: "res3b3"
  eltwise_param {
    operation: SUM
  }
}
layer {
  name: "res3b3_relu"
  type: "ReLU"
  bottom: "res3b3"
  top: "res3b3"
}
layer {
  name: "res3b4_branch2a"
  type: "Convolution"
  bottom: "res3b3"
  top: "res3b4_branch2a"
  convolution_param {
    num_output: 128
    bias_term: false
    pad: 0
    kernel_size: 1
    stride: 1
    weight_filler {
      type: "msra"
    }
  }
}
layer {
  name: "bn3b4_branch2a"
  type: "BatchNorm"
  bottom: "res3b4_branch2a"
  top: "res3b4_branch2a"
  batch_norm_param {
    use_global_stats: false
  }
}
layer {
  name: "scale3b4_branch2a"
  type: "Scale"
  bottom: "res3b4_branch2a"
  top: "res3b4_branch2a"
  scale_param {
    bias_term: true
  }
}
layer {
  name: "res3b4_branch2a_relu"
  type: "ReLU"
  bottom: "res3b4_branch2a"
  top: "res3b4_branch2a"
}
layer {
  name: "res3b4_branch2b"
  type: "Convolution"
  bottom: "res3b4_branch2a"
  top: "res3b4_branch2b"
  convolution_param {
    num_output: 128
    bias_term: false
    pad: 1
    kernel_size: 3
    stride: 1
    weight_filler {
      type: "msra"
    }
  }
}
layer {
  name: "bn3b4_branch2b"
  type: "BatchNorm"
  bottom: "res3b4_branch2b"
  top: "res3b4_branch2b"
  batch_norm_param {
    use_global_stats: false
  }
}
layer {
  name: "scale3b4_branch2b"
  type: "Scale"
  bottom: "res3b4_branch2b"
  top: "res3b4_branch2b"
  scale_param {
    bias_term: true
  }
}
layer {
  name: "res3b4_branch2b_relu"
  type: "ReLU"
  bottom: "res3b4_branch2b"
  top: "res3b4_branch2b"
}
layer {
  name: "res3b4_branch2c"
  type: "Convolution"
  bottom: "res3b4_branch2b"
  top: "res3b4_branch2c"
  convolution_param {
    num_output: 512
    bias_term: false
    pad: 0
    kernel_size: 1
    stride: 1
    weight_filler {
      type: "msra"
    }
  }
}
layer {
  name: "bn3b4_branch2c"
  type: "BatchNorm"
  bottom: "res3b4_branch2c"
  top: "res3b4_branch2c"
  batch_norm_param {
    use_global_stats: false
  }
}
layer {
  name: "scale3b4_branch2c"
  type: "Scale"
  bottom: "res3b4_branch2c"
  top: "res3b4_branch2c"
  scale_param {
    bias_term: true
  }
}
layer {
  name: "res3b4"
  type: "Eltwise"
  bottom: "res3b3"
  bottom: "res3b4_branch2c"
  top: "res3b4"
  eltwise_param {
    operation: SUM
  }
}
layer {
  name: "res3b4_relu"
  type: "ReLU"
  bottom: "res3b4"
  top: "res3b4"
}
layer {
  name: "res3b5_branch2a"
  type: "Convolution"
  bottom: "res3b4"
  top: "res3b5_branch2a"
  convolution_param {
    num_output: 128
    bias_term: false
    pad: 0
    kernel_size: 1
    stride: 1
    weight_filler {
      type: "msra"
    }
  }
}
layer {
  name: "bn3b5_branch2a"
  type: "BatchNorm"
  bottom: "res3b5_branch2a"
  top: "res3b5_branch2a"
  batch_norm_param {
    use_global_stats: false
  }
}
layer {
  name: "scale3b5_branch2a"
  type: "Scale"
  bottom: "res3b5_branch2a"
  top: "res3b5_branch2a"
  scale_param {
    bias_term: true
  }
}
layer {
  name: "res3b5_branch2a_relu"
  type: "ReLU"
  bottom: "res3b5_branch2a"
  top: "res3b5_branch2a"
}
layer {
  name: "res3b5_branch2b"
  type: "Convolution"
  bottom: "res3b5_branch2a"
  top: "res3b5_branch2b"
  convolution_param {
    num_output: 128
    bias_term: false
    pad: 1
    kernel_size: 3
    stride: 1
    weight_filler {
      type: "msra"
    }
  }
}
layer {
  name: "bn3b5_branch2b"
  type: "BatchNorm"
  bottom: "res3b5_branch2b"
  top: "res3b5_branch2b"
  batch_norm_param {
    use_global_stats: false
  }
}
layer {
  name: "scale3b5_branch2b"
  type: "Scale"
  bottom: "res3b5_branch2b"
  top: "res3b5_branch2b"
  scale_param {
    bias_term: true
  }
}
layer {
  name: "res3b5_branch2b_relu"
  type: "ReLU"
  bottom: "res3b5_branch2b"
  top: "res3b5_branch2b"
}
layer {
  name: "res3b5_branch2c"
  type: "Convolution"
  bottom: "res3b5_branch2b"
  top: "res3b5_branch2c"
  convolution_param {
    num_output: 512
    bias_term: false
    pad: 0
    kernel_size: 1
    stride: 1
    weight_filler {
      type: "msra"
    }
  }
}
layer {
  name: "bn3b5_branch2c"
  type: "BatchNorm"
  bottom: "res3b5_branch2c"
  top: "res3b5_branch2c"
  batch_norm_param {
    use_global_stats: false
  }
}
layer {
  name: "scale3b5_branch2c"
  type: "Scale"
  bottom: "res3b5_branch2c"
  top: "res3b5_branch2c"
  scale_param {
    bias_term: true
  }
}
layer {
  name: "res3b5"
  type: "Eltwise"
  bottom: "res3b4"
  bottom: "res3b5_branch2c"
  top: "res3b5"
  eltwise_param {
    operation: SUM
  }
}
layer {
  name: "res3b5_relu"
  type: "ReLU"
  bottom: "res3b5"
  top: "res3b5"
}
layer {
  name: "res3b6_branch2a"
  type: "Convolution"
  bottom: "res3b5"
  top: "res3b6_branch2a"
  convolution_param {
    num_output: 128
    bias_term: false
    pad: 0
    kernel_size: 1
    stride: 1
    weight_filler {
      type: "msra"
    }
  }
}
layer {
  name: "bn3b6_branch2a"
  type: "BatchNorm"
  bottom: "res3b6_branch2a"
  top: "res3b6_branch2a"
  batch_norm_param {
    use_global_stats: false
  }
}
layer {
  name: "scale3b6_branch2a"
  type: "Scale"
  bottom: "res3b6_branch2a"
  top: "res3b6_branch2a"
  scale_param {
    bias_term: true
  }
}
layer {
  name: "res3b6_branch2a_relu"
  type: "ReLU"
  bottom: "res3b6_branch2a"
  top: "res3b6_branch2a"
}
layer {
  name: "res3b6_branch2b"
  type: "Convolution"
  bottom: "res3b6_branch2a"
  top: "res3b6_branch2b"
  convolution_param {
    num_output: 128
    bias_term: false
    pad: 1
    kernel_size: 3
    stride: 1
    weight_filler {
      type: "msra"
    }
  }
}
layer {
  name: "bn3b6_branch2b"
  type: "BatchNorm"
  bottom: "res3b6_branch2b"
  top: "res3b6_branch2b"
  batch_norm_param {
    use_global_stats: false
  }
}
layer {
  name: "scale3b6_branch2b"
  type: "Scale"
  bottom: "res3b6_branch2b"
  top: "res3b6_branch2b"
  scale_param {
    bias_term: true
  }
}
layer {
  name: "res3b6_branch2b_relu"
  type: "ReLU"
  bottom: "res3b6_branch2b"
  top: "res3b6_branch2b"
}
layer {
  name: "res3b6_branch2c"
  type: "Convolution"
  bottom: "res3b6_branch2b"
  top: "res3b6_branch2c"
  convolution_param {
    num_output: 512
    bias_term: false
    pad: 0
    kernel_size: 1
    stride: 1
    weight_filler {
      type: "msra"
    }
  }
}
layer {
  name: "bn3b6_branch2c"
  type: "BatchNorm"
  bottom: "res3b6_branch2c"
  top: "res3b6_branch2c"
  batch_norm_param {
    use_global_stats: false
  }
}
layer {
  name: "scale3b6_branch2c"
  type: "Scale"
  bottom: "res3b6_branch2c"
  top: "res3b6_branch2c"
  scale_param {
    bias_term: true
  }
}
layer {
  name: "res3b6"
  type: "Eltwise"
  bottom: "res3b5"
  bottom: "res3b6_branch2c"
  top: "res3b6"
  eltwise_param {
    operation: SUM
  }
}
layer {
  name: "res3b6_relu"
  type: "ReLU"
  bottom: "res3b6"
  top: "res3b6"
}
layer {
  name: "res3b7_branch2a"
  type: "Convolution"
  bottom: "res3b6"
  top: "res3b7_branch2a"
  convolution_param {
    num_output: 128
    bias_term: false
    pad: 0
    kernel_size: 1
    stride: 1
    weight_filler {
      type: "msra"
    }
  }
}
layer {
  name: "bn3b7_branch2a"
  type: "BatchNorm"
  bottom: "res3b7_branch2a"
  top: "res3b7_branch2a"
  batch_norm_param {
    use_global_stats: false
  }
}
layer {
  name: "scale3b7_branch2a"
  type: "Scale"
  bottom: "res3b7_branch2a"
  top: "res3b7_branch2a"
  scale_param {
    bias_term: true
  }
}
layer {
  name: "res3b7_branch2a_relu"
  type: "ReLU"
  bottom: "res3b7_branch2a"
  top: "res3b7_branch2a"
}
layer {
  name: "res3b7_branch2b"
  type: "Convolution"
  bottom: "res3b7_branch2a"
  top: "res3b7_branch2b"
  convolution_param {
    num_output: 128
    bias_term: false
    pad: 1
    kernel_size: 3
    stride: 1
    weight_filler {
      type: "msra"
    }
  }
}
layer {
  name: "bn3b7_branch2b"
  type: "BatchNorm"
  bottom: "res3b7_branch2b"
  top: "res3b7_branch2b"
  batch_norm_param {
    use_global_stats: false
  }
}
layer {
  name: "scale3b7_branch2b"
  type: "Scale"
  bottom: "res3b7_branch2b"
  top: "res3b7_branch2b"
  scale_param {
    bias_term: true
  }
}
layer {
  name: "res3b7_branch2b_relu"
  type: "ReLU"
  bottom: "res3b7_branch2b"
  top: "res3b7_branch2b"
}
layer {
  name: "res3b7_branch2c"
  type: "Convolution"
  bottom: "res3b7_branch2b"
  top: "res3b7_branch2c"
  convolution_param {
    num_output: 512
    bias_term: false
    pad: 0
    kernel_size: 1
    stride: 1
    weight_filler {
      type: "msra"
    }
  }
}
layer {
  name: "bn3b7_branch2c"
  type: "BatchNorm"
  bottom: "res3b7_branch2c"
  top: "res3b7_branch2c"
  batch_norm_param {
    use_global_stats: false
  }
}
layer {
  name: "scale3b7_branch2c"
  type: "Scale"
  bottom: "res3b7_branch2c"
  top: "res3b7_branch2c"
  scale_param {
    bias_term: true
  }
}
layer {
  name: "res3b7"
  type: "Eltwise"
  bottom: "res3b6"
  bottom: "res3b7_branch2c"
  top: "res3b7"
  eltwise_param {
    operation: SUM
  }
}
layer {
  name: "res3b7_relu"
  type: "ReLU"
  bottom: "res3b7"
  top: "res3b7"
}
layer {
  name: "res4a_branch1"
  type: "Convolution"
  bottom: "res3b7"
  top: "res4a_branch1"
  convolution_param {
    num_output: 1024
    bias_term: false
    pad: 0
    kernel_size: 1
    stride: 2
    weight_filler {
      type: "msra"
    }
  }
}
layer {
  name: "bn4a_branch1"
  type: "BatchNorm"
  bottom: "res4a_branch1"
  top: "res4a_branch1"
  batch_norm_param {
    use_global_stats: false
  }
}
layer {
  name: "scale4a_branch1"
  type: "Scale"
  bottom: "res4a_branch1"
  top: "res4a_branch1"
  scale_param {
    bias_term: true
  }
}
layer {
  name: "res4a_branch2a"
  type: "Convolution"
  bottom: "res3b7"
  top: "res4a_branch2a"
  convolution_param {
    num_output: 256
    bias_term: false
    pad: 0
    kernel_size: 1
    stride: 2
    weight_filler {
      type: "msra"
    }
  }
}
layer {
  name: "bn4a_branch2a"
  type: "BatchNorm"
  bottom: "res4a_branch2a"
  top: "res4a_branch2a"
  batch_norm_param {
    use_global_stats: false
  }
}
layer {
  name: "scale4a_branch2a"
  type: "Scale"
  bottom: "res4a_branch2a"
  top: "res4a_branch2a"
  scale_param {
    bias_term: true
  }
}
layer {
  name: "res4a_branch2a_relu"
  type: "ReLU"
  bottom: "res4a_branch2a"
  top: "res4a_branch2a"
}
layer {
  name: "res4a_branch2b"
  type: "Convolution"
  bottom: "res4a_branch2a"
  top: "res4a_branch2b"
  convolution_param {
    num_output: 256
    bias_term: false
    pad: 1
    kernel_size: 3
    stride: 1
    weight_filler {
      type: "msra"
    }
  }
}
layer {
  name: "bn4a_branch2b"
  type: "BatchNorm"
  bottom: "res4a_branch2b"
  top: "res4a_branch2b"
  batch_norm_param {
    use_global_stats: false
  }
}
layer {
  name: "scale4a_branch2b"
  type: "Scale"
  bottom: "res4a_branch2b"
  top: "res4a_branch2b"
  scale_param {
    bias_term: true
  }
}
layer {
  name: "res4a_branch2b_relu"
  type: "ReLU"
  bottom: "res4a_branch2b"
  top: "res4a_branch2b"
}
layer {
  name: "res4a_branch2c"
  type: "Convolution"
  bottom: "res4a_branch2b"
  top: "res4a_branch2c"
  convolution_param {
    num_output: 1024
    bias_term: false
    pad: 0
    kernel_size: 1
    stride: 1
    weight_filler {
      type: "msra"
    }
  }
}
layer {
  name: "bn4a_branch2c"
  type: "BatchNorm"
  bottom: "res4a_branch2c"
  top: "res4a_branch2c"
  batch_norm_param {
    use_global_stats: false
  }
}
layer {
  name: "scale4a_branch2c"
  type: "Scale"
  bottom: "res4a_branch2c"
  top: "res4a_branch2c"
  scale_param {
    bias_term: true
  }
}
layer {
  name: "res4a"
  type: "Eltwise"
  bottom: "res4a_branch1"
  bottom: "res4a_branch2c"
  top: "res4a"
  eltwise_param {
    operation: SUM
  }
}
layer {
  name: "res4a_relu"
  type: "ReLU"
  bottom: "res4a"
  top: "res4a"
}
layer {
  name: "res4b1_branch2a"
  type: "Convolution"
  bottom: "res4a"
  top: "res4b1_branch2a"
  convolution_param {
    num_output: 256
    bias_term: false
    pad: 0
    kernel_size: 1
    stride: 1
    weight_filler {
      type: "msra"
    }
  }
}
layer {
  name: "bn4b1_branch2a"
  type: "BatchNorm"
  bottom: "res4b1_branch2a"
  top: "res4b1_branch2a"
  batch_norm_param {
    use_global_stats: false
  }
}
layer {
  name: "scale4b1_branch2a"
  type: "Scale"
  bottom: "res4b1_branch2a"
  top: "res4b1_branch2a"
  scale_param {
    bias_term: true
  }
}
layer {
  name: "res4b1_branch2a_relu"
  type: "ReLU"
  bottom: "res4b1_branch2a"
  top: "res4b1_branch2a"
}
layer {
  name: "res4b1_branch2b"
  type: "Convolution"
  bottom: "res4b1_branch2a"
  top: "res4b1_branch2b"
  convolution_param {
    num_output: 256
    bias_term: false
    pad: 1
    kernel_size: 3
    stride: 1
    weight_filler {
      type: "msra"
    }
  }
}
layer {
  name: "bn4b1_branch2b"
  type: "BatchNorm"
  bottom: "res4b1_branch2b"
  top: "res4b1_branch2b"
  batch_norm_param {
    use_global_stats: false
  }
}
layer {
  name: "scale4b1_branch2b"
  type: "Scale"
  bottom: "res4b1_branch2b"
  top: "res4b1_branch2b"
  scale_param {
    bias_term: true
  }
}
layer {
  name: "res4b1_branch2b_rel
I0413 09:31:46.950673 27596 layer_factory.hpp:77] Creating layer data
I0413 09:31:46.950736 27596 db_lmdb.cpp:35] Opened lmdb /home/danilo/Documents/FGA/2018-1/TCC1/Datasets/FINALFINAL_Aug_lmdb/train
I0413 09:31:46.966981 27596 net.cpp:84] Creating Layer data
I0413 09:31:46.967022 27596 net.cpp:380] data -> data
I0413 09:31:46.967036 27596 net.cpp:380] data -> label
I0413 09:31:46.967044 27596 data_transformer.cpp:25] Loading mean file from: /home/danilo/Documents/FGA/2018-1/TCC1/Datasets/FINALFINAL_Aug_input/mean.binaryproto
I0413 09:31:46.969491 27596 data_layer.cpp:45] output data size: 5,3,224,224
I0413 09:31:46.973812 27596 net.cpp:122] Setting up data
I0413 09:31:46.973829 27596 net.cpp:129] Top shape: 5 3 224 224 (752640)
I0413 09:31:46.973831 27596 net.cpp:129] Top shape: 5 (5)
I0413 09:31:46.973834 27596 net.cpp:137] Memory required for data: 3010580
I0413 09:31:46.973837 27596 layer_factory.hpp:77] Creating layer conv1
I0413 09:31:46.973846 27596 net.cpp:84] Creating Layer conv1
I0413 09:31:46.973850 27596 net.cpp:406] conv1 <- data
I0413 09:31:46.973862 27596 net.cpp:380] conv1 -> conv1
I0413 09:31:50.944906 27596 net.cpp:122] Setting up conv1
I0413 09:31:50.944921 27596 net.cpp:129] Top shape: 5 64 112 112 (4014080)
I0413 09:31:50.944924 27596 net.cpp:137] Memory required for data: 19066900
I0413 09:31:50.944932 27596 layer_factory.hpp:77] Creating layer bn_conv1
I0413 09:31:50.944941 27596 net.cpp:84] Creating Layer bn_conv1
I0413 09:31:50.944954 27596 net.cpp:406] bn_conv1 <- conv1
I0413 09:31:50.944960 27596 net.cpp:367] bn_conv1 -> conv1 (in-place)
I0413 09:31:50.945116 27596 net.cpp:122] Setting up bn_conv1
I0413 09:31:50.945122 27596 net.cpp:129] Top shape: 5 64 112 112 (4014080)
I0413 09:31:50.945124 27596 net.cpp:137] Memory required for data: 35123220
I0413 09:31:50.945132 27596 layer_factory.hpp:77] Creating layer scale_conv1
I0413 09:31:50.945137 27596 net.cpp:84] Creating Layer scale_conv1
I0413 09:31:50.945140 27596 net.cpp:406] scale_conv1 <- conv1
I0413 09:31:50.945144 27596 net.cpp:367] scale_conv1 -> conv1 (in-place)
I0413 09:31:50.945178 27596 layer_factory.hpp:77] Creating layer scale_conv1
I0413 09:31:50.945257 27596 net.cpp:122] Setting up scale_conv1
I0413 09:31:50.945262 27596 net.cpp:129] Top shape: 5 64 112 112 (4014080)
I0413 09:31:50.945266 27596 net.cpp:137] Memory required for data: 51179540
I0413 09:31:50.945271 27596 layer_factory.hpp:77] Creating layer conv1_relu
I0413 09:31:50.945276 27596 net.cpp:84] Creating Layer conv1_relu
I0413 09:31:50.945278 27596 net.cpp:406] conv1_relu <- conv1
I0413 09:31:50.945282 27596 net.cpp:367] conv1_relu -> conv1 (in-place)
I0413 09:31:50.945629 27596 net.cpp:122] Setting up conv1_relu
I0413 09:31:50.945636 27596 net.cpp:129] Top shape: 5 64 112 112 (4014080)
I0413 09:31:50.945637 27596 net.cpp:137] Memory required for data: 67235860
I0413 09:31:50.945641 27596 layer_factory.hpp:77] Creating layer pool1
I0413 09:31:50.945646 27596 net.cpp:84] Creating Layer pool1
I0413 09:31:50.945649 27596 net.cpp:406] pool1 <- conv1
I0413 09:31:50.945654 27596 net.cpp:380] pool1 -> pool1
I0413 09:31:50.945683 27596 net.cpp:122] Setting up pool1
I0413 09:31:50.945688 27596 net.cpp:129] Top shape: 5 64 56 56 (1003520)
I0413 09:31:50.945690 27596 net.cpp:137] Memory required for data: 71249940
I0413 09:31:50.945693 27596 layer_factory.hpp:77] Creating layer pool1_pool1_0_split
I0413 09:31:50.945696 27596 net.cpp:84] Creating Layer pool1_pool1_0_split
I0413 09:31:50.945700 27596 net.cpp:406] pool1_pool1_0_split <- pool1
I0413 09:31:50.945703 27596 net.cpp:380] pool1_pool1_0_split -> pool1_pool1_0_split_0
I0413 09:31:50.945710 27596 net.cpp:380] pool1_pool1_0_split -> pool1_pool1_0_split_1
I0413 09:31:50.945734 27596 net.cpp:122] Setting up pool1_pool1_0_split
I0413 09:31:50.945739 27596 net.cpp:129] Top shape: 5 64 56 56 (1003520)
I0413 09:31:50.945742 27596 net.cpp:129] Top shape: 5 64 56 56 (1003520)
I0413 09:31:50.945745 27596 net.cpp:137] Memory required for data: 79278100
I0413 09:31:50.945747 27596 layer_factory.hpp:77] Creating layer res2a_branch1
I0413 09:31:50.945755 27596 net.cpp:84] Creating Layer res2a_branch1
I0413 09:31:50.945757 27596 net.cpp:406] res2a_branch1 <- pool1_pool1_0_split_0
I0413 09:31:50.945761 27596 net.cpp:380] res2a_branch1 -> res2a_branch1
I0413 09:31:50.947317 27596 net.cpp:122] Setting up res2a_branch1
I0413 09:31:50.947325 27596 net.cpp:129] Top shape: 5 256 56 56 (4014080)
I0413 09:31:50.947329 27596 net.cpp:137] Memory required for data: 95334420
I0413 09:31:50.947332 27596 layer_factory.hpp:77] Creating layer bn2a_branch1
I0413 09:31:50.947338 27596 net.cpp:84] Creating Layer bn2a_branch1
I0413 09:31:50.947342 27596 net.cpp:406] bn2a_branch1 <- res2a_branch1
I0413 09:31:50.947346 27596 net.cpp:367] bn2a_branch1 -> res2a_branch1 (in-place)
I0413 09:31:50.947990 27596 net.cpp:122] Setting up bn2a_branch1
I0413 09:31:50.947998 27596 net.cpp:129] Top shape: 5 256 56 56 (4014080)
I0413 09:31:50.948000 27596 net.cpp:137] Memory required for data: 111390740
I0413 09:31:50.948007 27596 layer_factory.hpp:77] Creating layer scale2a_branch1
I0413 09:31:50.948014 27596 net.cpp:84] Creating Layer scale2a_branch1
I0413 09:31:50.948016 27596 net.cpp:406] scale2a_branch1 <- res2a_branch1
I0413 09:31:50.948021 27596 net.cpp:367] scale2a_branch1 -> res2a_branch1 (in-place)
I0413 09:31:50.948060 27596 layer_factory.hpp:77] Creating layer scale2a_branch1
I0413 09:31:50.948143 27596 net.cpp:122] Setting up scale2a_branch1
I0413 09:31:50.948148 27596 net.cpp:129] Top shape: 5 256 56 56 (4014080)
I0413 09:31:50.948156 27596 net.cpp:137] Memory required for data: 127447060
I0413 09:31:50.948161 27596 layer_factory.hpp:77] Creating layer res2a_branch2a
I0413 09:31:50.948170 27596 net.cpp:84] Creating Layer res2a_branch2a
I0413 09:31:50.948173 27596 net.cpp:406] res2a_branch2a <- pool1_pool1_0_split_1
I0413 09:31:50.948179 27596 net.cpp:380] res2a_branch2a -> res2a_branch2a
I0413 09:31:50.949676 27596 net.cpp:122] Setting up res2a_branch2a
I0413 09:31:50.949684 27596 net.cpp:129] Top shape: 5 64 56 56 (1003520)
I0413 09:31:50.949687 27596 net.cpp:137] Memory required for data: 131461140
I0413 09:31:50.949692 27596 layer_factory.hpp:77] Creating layer bn2a_branch2a
I0413 09:31:50.949697 27596 net.cpp:84] Creating Layer bn2a_branch2a
I0413 09:31:50.949700 27596 net.cpp:406] bn2a_branch2a <- res2a_branch2a
I0413 09:31:50.949704 27596 net.cpp:367] bn2a_branch2a -> res2a_branch2a (in-place)
I0413 09:31:50.949841 27596 net.cpp:122] Setting up bn2a_branch2a
I0413 09:31:50.949846 27596 net.cpp:129] Top shape: 5 64 56 56 (1003520)
I0413 09:31:50.949848 27596 net.cpp:137] Memory required for data: 135475220
I0413 09:31:50.949853 27596 layer_factory.hpp:77] Creating layer scale2a_branch2a
I0413 09:31:50.949858 27596 net.cpp:84] Creating Layer scale2a_branch2a
I0413 09:31:50.949862 27596 net.cpp:406] scale2a_branch2a <- res2a_branch2a
I0413 09:31:50.949867 27596 net.cpp:367] scale2a_branch2a -> res2a_branch2a (in-place)
I0413 09:31:50.949896 27596 layer_factory.hpp:77] Creating layer scale2a_branch2a
I0413 09:31:50.949980 27596 net.cpp:122] Setting up scale2a_branch2a
I0413 09:31:50.949985 27596 net.cpp:129] Top shape: 5 64 56 56 (1003520)
I0413 09:31:50.949987 27596 net.cpp:137] Memory required for data: 139489300
I0413 09:31:50.949992 27596 layer_factory.hpp:77] Creating layer res2a_branch2a_relu
I0413 09:31:50.949997 27596 net.cpp:84] Creating Layer res2a_branch2a_relu
I0413 09:31:50.950001 27596 net.cpp:406] res2a_branch2a_relu <- res2a_branch2a
I0413 09:31:50.950004 27596 net.cpp:367] res2a_branch2a_relu -> res2a_branch2a (in-place)
I0413 09:31:50.950398 27596 net.cpp:122] Setting up res2a_branch2a_relu
I0413 09:31:50.950405 27596 net.cpp:129] Top shape: 5 64 56 56 (1003520)
I0413 09:31:50.950407 27596 net.cpp:137] Memory required for data: 143503380
I0413 09:31:50.950410 27596 layer_factory.hpp:77] Creating layer res2a_branch2b
I0413 09:31:50.950417 27596 net.cpp:84] Creating Layer res2a_branch2b
I0413 09:31:50.950420 27596 net.cpp:406] res2a_branch2b <- res2a_branch2a
I0413 09:31:50.950426 27596 net.cpp:380] res2a_branch2b -> res2a_branch2b
I0413 09:31:50.959633 27596 net.cpp:122] Setting up res2a_branch2b
I0413 09:31:50.959648 27596 net.cpp:129] Top shape: 5 64 56 56 (1003520)
I0413 09:31:50.959651 27596 net.cpp:137] Memory required for data: 147517460
I0413 09:31:50.959657 27596 layer_factory.hpp:77] Creating layer bn2a_branch2b
I0413 09:31:50.959666 27596 net.cpp:84] Creating Layer bn2a_branch2b
I0413 09:31:50.959669 27596 net.cpp:406] bn2a_branch2b <- res2a_branch2b
I0413 09:31:50.959674 27596 net.cpp:367] bn2a_branch2b -> res2a_branch2b (in-place)
I0413 09:31:50.959833 27596 net.cpp:122] Setting up bn2a_branch2b
I0413 09:31:50.959837 27596 net.cpp:129] Top shape: 5 64 56 56 (1003520)
I0413 09:31:50.959841 27596 net.cpp:137] Memory required for data: 151531540
I0413 09:31:50.959846 27596 layer_factory.hpp:77] Creating layer scale2a_branch2b
I0413 09:31:50.959851 27596 net.cpp:84] Creating Layer scale2a_branch2b
I0413 09:31:50.959856 27596 net.cpp:406] scale2a_branch2b <- res2a_branch2b
I0413 09:31:50.959858 27596 net.cpp:367] scale2a_branch2b -> res2a_branch2b (in-place)
I0413 09:31:50.959892 27596 layer_factory.hpp:77] Creating layer scale2a_branch2b
I0413 09:31:50.959976 27596 net.cpp:122] Setting up scale2a_branch2b
I0413 09:31:50.959980 27596 net.cpp:129] Top shape: 5 64 56 56 (1003520)
I0413 09:31:50.959983 27596 net.cpp:137] Memory required for data: 155545620
I0413 09:31:50.959987 27596 layer_factory.hpp:77] Creating layer res2a_branch2b_relu
I0413 09:31:50.960000 27596 net.cpp:84] Creating Layer res2a_branch2b_relu
I0413 09:31:50.960003 27596 net.cpp:406] res2a_branch2b_relu <- res2a_branch2b
I0413 09:31:50.960006 27596 net.cpp:367] res2a_branch2b_relu -> res2a_branch2b (in-place)
I0413 09:31:50.960439 27596 net.cpp:122] Setting up res2a_branch2b_relu
I0413 09:31:50.960446 27596 net.cpp:129] Top shape: 5 64 56 56 (1003520)
I0413 09:31:50.960449 27596 net.cpp:137] Memory required for data: 159559700
I0413 09:31:50.960453 27596 layer_factory.hpp:77] Creating layer res2a_branch2c
I0413 09:31:50.960459 27596 net.cpp:84] Creating Layer res2a_branch2c
I0413 09:31:50.960464 27596 net.cpp:406] res2a_branch2c <- res2a_branch2b
I0413 09:31:50.960469 27596 net.cpp:380] res2a_branch2c -> res2a_branch2c
I0413 09:31:50.962071 27596 net.cpp:122] Setting up res2a_branch2c
I0413 09:31:50.962080 27596 net.cpp:129] Top shape: 5 256 56 56 (4014080)
I0413 09:31:50.962082 27596 net.cpp:137] Memory required for data: 175616020
I0413 09:31:50.962086 27596 layer_factory.hpp:77] Creating layer bn2a_branch2c
I0413 09:31:50.962090 27596 net.cpp:84] Creating Layer bn2a_branch2c
I0413 09:31:50.962093 27596 net.cpp:406] bn2a_branch2c <- res2a_branch2c
I0413 09:31:50.962101 27596 net.cpp:367] bn2a_branch2c -> res2a_branch2c (in-place)
I0413 09:31:50.962240 27596 net.cpp:122] Setting up bn2a_branch2c
I0413 09:31:50.962244 27596 net.cpp:129] Top shape: 5 256 56 56 (4014080)
I0413 09:31:50.962247 27596 net.cpp:137] Memory required for data: 191672340
I0413 09:31:50.962252 27596 layer_factory.hpp:77] Creating layer scale2a_branch2c
I0413 09:31:50.962257 27596 net.cpp:84] Creating Layer scale2a_branch2c
I0413 09:31:50.962260 27596 net.cpp:406] scale2a_branch2c <- res2a_branch2c
I0413 09:31:50.962265 27596 net.cpp:367] scale2a_branch2c -> res2a_branch2c (in-place)
I0413 09:31:50.962293 27596 layer_factory.hpp:77] Creating layer scale2a_branch2c
I0413 09:31:50.962373 27596 net.cpp:122] Setting up scale2a_branch2c
I0413 09:31:50.962378 27596 net.cpp:129] Top shape: 5 256 56 56 (4014080)
I0413 09:31:50.962380 27596 net.cpp:137] Memory required for data: 207728660
I0413 09:31:50.962384 27596 layer_factory.hpp:77] Creating layer res2a
I0413 09:31:50.962390 27596 net.cpp:84] Creating Layer res2a
I0413 09:31:50.962393 27596 net.cpp:406] res2a <- res2a_branch1
I0413 09:31:50.962397 27596 net.cpp:406] res2a <- res2a_branch2c
I0413 09:31:50.962400 27596 net.cpp:380] res2a -> res2a
I0413 09:31:50.962420 27596 net.cpp:122] Setting up res2a
I0413 09:31:50.962424 27596 net.cpp:129] Top shape: 5 256 56 56 (4014080)
I0413 09:31:50.962426 27596 net.cpp:137] Memory required for data: 223784980
I0413 09:31:50.962430 27596 layer_factory.hpp:77] Creating layer res2a_relu
I0413 09:31:50.962432 27596 net.cpp:84] Creating Layer res2a_relu
I0413 09:31:50.962437 27596 net.cpp:406] res2a_relu <- res2a
I0413 09:31:50.962440 27596 net.cpp:367] res2a_relu -> res2a (in-place)
I0413 09:31:50.962956 27596 net.cpp:122] Setting up res2a_relu
I0413 09:31:50.962963 27596 net.cpp:129] Top shape: 5 256 56 56 (4014080)
I0413 09:31:50.962966 27596 net.cpp:137] Memory required for data: 239841300
I0413 09:31:50.962970 27596 layer_factory.hpp:77] Creating layer res2a_res2a_relu_0_split
I0413 09:31:50.962973 27596 net.cpp:84] Creating Layer res2a_res2a_relu_0_split
I0413 09:31:50.962976 27596 net.cpp:406] res2a_res2a_relu_0_split <- res2a
I0413 09:31:50.962982 27596 net.cpp:380] res2a_res2a_relu_0_split -> res2a_res2a_relu_0_split_0
I0413 09:31:50.962988 27596 net.cpp:380] res2a_res2a_relu_0_split -> res2a_res2a_relu_0_split_1
I0413 09:31:50.963021 27596 net.cpp:122] Setting up res2a_res2a_relu_0_split
I0413 09:31:50.963027 27596 net.cpp:129] Top shape: 5 256 56 56 (4014080)
I0413 09:31:50.963033 27596 net.cpp:129] Top shape: 5 256 56 56 (4014080)
I0413 09:31:50.963037 27596 net.cpp:137] Memory required for data: 271953940
I0413 09:31:50.963038 27596 layer_factory.hpp:77] Creating layer res2b_branch2a
I0413 09:31:50.963045 27596 net.cpp:84] Creating Layer res2b_branch2a
I0413 09:31:50.963049 27596 net.cpp:406] res2b_branch2a <- res2a_res2a_relu_0_split_0
I0413 09:31:50.963059 27596 net.cpp:380] res2b_branch2a -> res2b_branch2a
I0413 09:31:50.964670 27596 net.cpp:122] Setting up res2b_branch2a
I0413 09:31:50.964679 27596 net.cpp:129] Top shape: 5 64 56 56 (1003520)
I0413 09:31:50.964681 27596 net.cpp:137] Memory required for data: 275968020
I0413 09:31:50.964685 27596 layer_factory.hpp:77] Creating layer bn2b_branch2a
I0413 09:31:50.964691 27596 net.cpp:84] Creating Layer bn2b_branch2a
I0413 09:31:50.964696 27596 net.cpp:406] bn2b_branch2a <- res2b_branch2a
I0413 09:31:50.964700 27596 net.cpp:367] bn2b_branch2a -> res2b_branch2a (in-place)
I0413 09:31:50.964844 27596 net.cpp:122] Setting up bn2b_branch2a
I0413 09:31:50.964848 27596 net.cpp:129] Top shape: 5 64 56 56 (1003520)
I0413 09:31:50.964851 27596 net.cpp:137] Memory required for data: 279982100
I0413 09:31:50.964860 27596 layer_factory.hpp:77] Creating layer scale2b_branch2a
I0413 09:31:50.964864 27596 net.cpp:84] Creating Layer scale2b_branch2a
I0413 09:31:50.964867 27596 net.cpp:406] scale2b_branch2a <- res2b_branch2a
I0413 09:31:50.964872 27596 net.cpp:367] scale2b_branch2a -> res2b_branch2a (in-place)
I0413 09:31:50.964903 27596 layer_factory.hpp:77] Creating layer scale2b_branch2a
I0413 09:31:50.964990 27596 net.cpp:122] Setting up scale2b_branch2a
I0413 09:31:50.964995 27596 net.cpp:129] Top shape: 5 64 56 56 (1003520)
I0413 09:31:50.964998 27596 net.cpp:137] Memory required for data: 283996180
I0413 09:31:50.965001 27596 layer_factory.hpp:77] Creating layer res2b_branch2a_relu
I0413 09:31:50.965008 27596 net.cpp:84] Creating Layer res2b_branch2a_relu
I0413 09:31:50.965010 27596 net.cpp:406] res2b_branch2a_relu <- res2b_branch2a
I0413 09:31:50.965014 27596 net.cpp:367] res2b_branch2a_relu -> res2b_branch2a (in-place)
I0413 09:31:50.965529 27596 net.cpp:122] Setting up res2b_branch2a_relu
I0413 09:31:50.965536 27596 net.cpp:129] Top shape: 5 64 56 56 (1003520)
I0413 09:31:50.965539 27596 net.cpp:137] Memory required for data: 288010260
I0413 09:31:50.965543 27596 layer_factory.hpp:77] Creating layer res2b_branch2b
I0413 09:31:50.965549 27596 net.cpp:84] Creating Layer res2b_branch2b
I0413 09:31:50.965553 27596 net.cpp:406] res2b_branch2b <- res2b_branch2a
I0413 09:31:50.965559 27596 net.cpp:380] res2b_branch2b -> res2b_branch2b
I0413 09:31:50.967279 27596 net.cpp:122] Setting up res2b_branch2b
I0413 09:31:50.967288 27596 net.cpp:129] Top shape: 5 64 56 56 (1003520)
I0413 09:31:50.967289 27596 net.cpp:137] Memory required for data: 292024340
I0413 09:31:50.967293 27596 layer_factory.hpp:77] Creating layer bn2b_branch2b
I0413 09:31:50.967298 27596 net.cpp:84] Creating Layer bn2b_branch2b
I0413 09:31:50.967301 27596 net.cpp:406] bn2b_branch2b <- res2b_branch2b
I0413 09:31:50.967306 27596 net.cpp:367] bn2b_branch2b -> res2b_branch2b (in-place)
I0413 09:31:50.967455 27596 net.cpp:122] Setting up bn2b_branch2b
I0413 09:31:50.967460 27596 net.cpp:129] Top shape: 5 64 56 56 (1003520)
I0413 09:31:50.967463 27596 net.cpp:137] Memory required for data: 296038420
I0413 09:31:50.967468 27596 layer_factory.hpp:77] Creating layer scale2b_branch2b
I0413 09:31:50.967473 27596 net.cpp:84] Creating Layer scale2b_branch2b
I0413 09:31:50.967478 27596 net.cpp:406] scale2b_branch2b <- res2b_branch2b
I0413 09:31:50.967481 27596 net.cpp:367] scale2b_branch2b -> res2b_branch2b (in-place)
I0413 09:31:50.967510 27596 layer_factory.hpp:77] Creating layer scale2b_branch2b
I0413 09:31:50.967602 27596 net.cpp:122] Setting up scale2b_branch2b
I0413 09:31:50.967607 27596 net.cpp:129] Top shape: 5 64 56 56 (1003520)
I0413 09:31:50.967608 27596 net.cpp:137] Memory required for data: 300052500
I0413 09:31:50.967613 27596 layer_factory.hpp:77] Creating layer res2b_branch2b_relu
I0413 09:31:50.967618 27596 net.cpp:84] Creating Layer res2b_branch2b_relu
I0413 09:31:50.967622 27596 net.cpp:406] res2b_branch2b_relu <- res2b_branch2b
I0413 09:31:50.967624 27596 net.cpp:367] res2b_branch2b_relu -> res2b_branch2b (in-place)
I0413 09:31:50.968024 27596 net.cpp:122] Setting up res2b_branch2b_relu
I0413 09:31:50.968034 27596 net.cpp:129] Top shape: 5 64 56 56 (1003520)
I0413 09:31:50.968044 27596 net.cpp:137] Memory required for data: 304066580
I0413 09:31:50.968046 27596 layer_factory.hpp:77] Creating layer res2b_branch2c
I0413 09:31:50.968055 27596 net.cpp:84] Creating Layer res2b_branch2c
I0413 09:31:50.968058 27596 net.cpp:406] res2b_branch2c <- res2b_branch2b
I0413 09:31:50.968065 27596 net.cpp:380] res2b_branch2c -> res2b_branch2c
I0413 09:31:50.969782 27596 net.cpp:122] Setting up res2b_branch2c
I0413 09:31:50.969791 27596 net.cpp:129] Top shape: 5 256 56 56 (4014080)
I0413 09:31:50.969794 27596 net.cpp:137] Memory required for data: 320122900
I0413 09:31:50.969797 27596 layer_factory.hpp:77] Creating layer bn2b_branch2c
I0413 09:31:50.969805 27596 net.cpp:84] Creating Layer bn2b_branch2c
I0413 09:31:50.969810 27596 net.cpp:406] bn2b_branch2c <- res2b_branch2c
I0413 09:31:50.969813 27596 net.cpp:367] bn2b_branch2c -> res2b_branch2c (in-place)
I0413 09:31:50.969955 27596 net.cpp:122] Setting up bn2b_branch2c
I0413 09:31:50.969960 27596 net.cpp:129] Top shape: 5 256 56 56 (4014080)
I0413 09:31:50.969962 27596 net.cpp:137] Memory required for data: 336179220
I0413 09:31:50.969967 27596 layer_factory.hpp:77] Creating layer scale2b_branch2c
I0413 09:31:50.969971 27596 net.cpp:84] Creating Layer scale2b_branch2c
I0413 09:31:50.969975 27596 net.cpp:406] scale2b_branch2c <- res2b_branch2c
I0413 09:31:50.969980 27596 net.cpp:367] scale2b_branch2c -> res2b_branch2c (in-place)
I0413 09:31:50.970011 27596 layer_factory.hpp:77] Creating layer scale2b_branch2c
I0413 09:31:50.970103 27596 net.cpp:122] Setting up scale2b_branch2c
I0413 09:31:50.970108 27596 net.cpp:129] Top shape: 5 256 56 56 (4014080)
I0413 09:31:50.970109 27596 net.cpp:137] Memory required for data: 352235540
I0413 09:31:50.970113 27596 layer_factory.hpp:77] Creating layer res2b
I0413 09:31:50.970118 27596 net.cpp:84] Creating Layer res2b
I0413 09:31:50.970121 27596 net.cpp:406] res2b <- res2a_res2a_relu_0_split_1
I0413 09:31:50.970124 27596 net.cpp:406] res2b <- res2b_branch2c
I0413 09:31:50.970129 27596 net.cpp:380] res2b -> res2b
I0413 09:31:50.970149 27596 net.cpp:122] Setting up res2b
I0413 09:31:50.970154 27596 net.cpp:129] Top shape: 5 256 56 56 (4014080)
I0413 09:31:50.970155 27596 net.cpp:137] Memory required for data: 368291860
I0413 09:31:50.970158 27596 layer_factory.hpp:77] Creating layer res2b_relu
I0413 09:31:50.970163 27596 net.cpp:84] Creating Layer res2b_relu
I0413 09:31:50.970166 27596 net.cpp:406] res2b_relu <- res2b
I0413 09:31:50.970170 27596 net.cpp:367] res2b_relu -> res2b (in-place)
I0413 09:31:50.970574 27596 net.cpp:122] Setting up res2b_relu
I0413 09:31:50.970580 27596 net.cpp:129] Top shape: 5 256 56 56 (4014080)
I0413 09:31:50.970583 27596 net.cpp:137] Memory required for data: 384348180
I0413 09:31:50.970587 27596 layer_factory.hpp:77] Creating layer res2b_res2b_relu_0_split
I0413 09:31:50.970592 27596 net.cpp:84] Creating Layer res2b_res2b_relu_0_split
I0413 09:31:50.970594 27596 net.cpp:406] res2b_res2b_relu_0_split <- res2b
I0413 09:31:50.970598 27596 net.cpp:380] res2b_res2b_relu_0_split -> res2b_res2b_relu_0_split_0
I0413 09:31:50.970605 27596 net.cpp:380] res2b_res2b_relu_0_split -> res2b_res2b_relu_0_split_1
I0413 09:31:50.970640 27596 net.cpp:122] Setting up res2b_res2b_relu_0_split
I0413 09:31:50.970644 27596 net.cpp:129] Top shape: 5 256 56 56 (4014080)
I0413 09:31:50.970647 27596 net.cpp:129] Top shape: 5 256 56 56 (4014080)
I0413 09:31:50.970650 27596 net.cpp:137] Memory required for data: 416460820
I0413 09:31:50.970652 27596 layer_factory.hpp:77] Creating layer res2c_branch2a
I0413 09:31:50.970659 27596 net.cpp:84] Creating Layer res2c_branch2a
I0413 09:31:50.970662 27596 net.cpp:406] res2c_branch2a <- res2b_res2b_relu_0_split_0
I0413 09:31:50.970667 27596 net.cpp:380] res2c_branch2a -> res2c_branch2a
I0413 09:31:50.972313 27596 net.cpp:122] Setting up res2c_branch2a
I0413 09:31:50.972323 27596 net.cpp:129] Top shape: 5 64 56 56 (1003520)
I0413 09:31:50.972326 27596 net.cpp:137] Memory required for data: 420474900
I0413 09:31:50.972331 27596 layer_factory.hpp:77] Creating layer bn2c_branch2a
I0413 09:31:50.972342 27596 net.cpp:84] Creating Layer bn2c_branch2a
I0413 09:31:50.972343 27596 net.cpp:406] bn2c_branch2a <- res2c_branch2a
I0413 09:31:50.972347 27596 net.cpp:367] bn2c_branch2a -> res2c_branch2a (in-place)
I0413 09:31:50.972497 27596 net.cpp:122] Setting up bn2c_branch2a
I0413 09:31:50.972501 27596 net.cpp:129] Top shape: 5 64 56 56 (1003520)
I0413 09:31:50.972503 27596 net.cpp:137] Memory required for data: 424488980
I0413 09:31:50.972507 27596 layer_factory.hpp:77] Creating layer scale2c_branch2a
I0413 09:31:50.972510 27596 net.cpp:84] Creating Layer scale2c_branch2a
I0413 09:31:50.972512 27596 net.cpp:406] scale2c_branch2a <- res2c_branch2a
I0413 09:31:50.972514 27596 net.cpp:367] scale2c_branch2a -> res2c_branch2a (in-place)
I0413 09:31:50.972544 27596 layer_factory.hpp:77] Creating layer scale2c_branch2a
I0413 09:31:50.972628 27596 net.cpp:122] Setting up scale2c_branch2a
I0413 09:31:50.972631 27596 net.cpp:129] Top shape: 5 64 56 56 (1003520)
I0413 09:31:50.972633 27596 net.cpp:137] Memory required for data: 428503060
I0413 09:31:50.972636 27596 layer_factory.hpp:77] Creating layer res2c_branch2a_relu
I0413 09:31:50.972640 27596 net.cpp:84] Creating Layer res2c_branch2a_relu
I0413 09:31:50.972641 27596 net.cpp:406] res2c_branch2a_relu <- res2c_branch2a
I0413 09:31:50.972645 27596 net.cpp:367] res2c_branch2a_relu -> res2c_branch2a (in-place)
I0413 09:31:50.973474 27596 net.cpp:122] Setting up res2c_branch2a_relu
I0413 09:31:50.973484 27596 net.cpp:129] Top shape: 5 64 56 56 (1003520)
I0413 09:31:50.973486 27596 net.cpp:137] Memory required for data: 432517140
I0413 09:31:50.973489 27596 layer_factory.hpp:77] Creating layer res2c_branch2b
I0413 09:31:50.973496 27596 net.cpp:84] Creating Layer res2c_branch2b
I0413 09:31:50.973500 27596 net.cpp:406] res2c_branch2b <- res2c_branch2a
I0413 09:31:50.973506 27596 net.cpp:380] res2c_branch2b -> res2c_branch2b
I0413 09:31:50.975558 27596 net.cpp:122] Setting up res2c_branch2b
I0413 09:31:50.975566 27596 net.cpp:129] Top shape: 5 64 56 56 (1003520)
I0413 09:31:50.975569 27596 net.cpp:137] Memory required for data: 436531220
I0413 09:31:50.975572 27596 layer_factory.hpp:77] Creating layer bn2c_branch2b
I0413 09:31:50.975576 27596 net.cpp:84] Creating Layer bn2c_branch2b
I0413 09:31:50.975580 27596 net.cpp:406] bn2c_branch2b <- res2c_branch2b
I0413 09:31:50.975584 27596 net.cpp:367] bn2c_branch2b -> res2c_branch2b (in-place)
I0413 09:31:50.975733 27596 net.cpp:122] Setting up bn2c_branch2b
I0413 09:31:50.975738 27596 net.cpp:129] Top shape: 5 64 56 56 (1003520)
I0413 09:31:50.975739 27596 net.cpp:137] Memory required for data: 440545300
I0413 09:31:50.975742 27596 layer_factory.hpp:77] Creating layer scale2c_branch2b
I0413 09:31:50.975746 27596 net.cpp:84] Creating Layer scale2c_branch2b
I0413 09:31:50.975749 27596 net.cpp:406] scale2c_branch2b <- res2c_branch2b
I0413 09:31:50.975750 27596 net.cpp:367] scale2c_branch2b -> res2c_branch2b (in-place)
I0413 09:31:50.975780 27596 layer_factory.hpp:77] Creating layer scale2c_branch2b
I0413 09:31:50.975865 27596 net.cpp:122] Setting up scale2c_branch2b
I0413 09:31:50.975868 27596 net.cpp:129] Top shape: 5 64 56 56 (1003520)
I0413 09:31:50.975870 27596 net.cpp:137] Memory required for data: 444559380
I0413 09:31:50.975873 27596 layer_factory.hpp:77] Creating layer res2c_branch2b_relu
I0413 09:31:50.975877 27596 net.cpp:84] Creating Layer res2c_branch2b_relu
I0413 09:31:50.975878 27596 net.cpp:406] res2c_branch2b_relu <- res2c_branch2b
I0413 09:31:50.975881 27596 net.cpp:367] res2c_branch2b_relu -> res2c_branch2b (in-place)
I0413 09:31:50.976302 27596 net.cpp:122] Setting up res2c_branch2b_relu
I0413 09:31:50.976308 27596 net.cpp:129] Top shape: 5 64 56 56 (1003520)
I0413 09:31:50.976310 27596 net.cpp:137] Memory required for data: 448573460
I0413 09:31:50.976312 27596 layer_factory.hpp:77] Creating layer res2c_branch2c
I0413 09:31:50.976316 27596 net.cpp:84] Creating Layer res2c_branch2c
I0413 09:31:50.976318 27596 net.cpp:406] res2c_branch2c <- res2c_branch2b
I0413 09:31:50.976321 27596 net.cpp:380] res2c_branch2c -> res2c_branch2c
I0413 09:31:50.978072 27596 net.cpp:122] Setting up res2c_branch2c
I0413 09:31:50.978080 27596 net.cpp:129] Top shape: 5 256 56 56 (4014080)
I0413 09:31:50.978081 27596 net.cpp:137] Memory required for data: 464629780
I0413 09:31:50.978085 27596 layer_factory.hpp:77] Creating layer bn2c_branch2c
I0413 09:31:50.978088 27596 net.cpp:84] Creating Layer bn2c_branch2c
I0413 09:31:50.978091 27596 net.cpp:406] bn2c_branch2c <- res2c_branch2c
I0413 09:31:50.978093 27596 net.cpp:367] bn2c_branch2c -> res2c_branch2c (in-place)
I0413 09:31:50.978236 27596 net.cpp:122] Setting up bn2c_branch2c
I0413 09:31:50.978240 27596 net.cpp:129] Top shape: 5 256 56 56 (4014080)
I0413 09:31:50.978241 27596 net.cpp:137] Memory required for data: 480686100
I0413 09:31:50.978245 27596 layer_factory.hpp:77] Creating layer scale2c_branch2c
I0413 09:31:50.978248 27596 net.cpp:84] Creating Layer scale2c_branch2c
I0413 09:31:50.978250 27596 net.cpp:406] scale2c_branch2c <- res2c_branch2c
I0413 09:31:50.978252 27596 net.cpp:367] scale2c_branch2c -> res2c_branch2c (in-place)
I0413 09:31:50.978279 27596 layer_factory.hpp:77] Creating layer scale2c_branch2c
I0413 09:31:50.978359 27596 net.cpp:122] Setting up scale2c_branch2c
I0413 09:31:50.978363 27596 net.cpp:129] Top shape: 5 256 56 56 (4014080)
I0413 09:31:50.978365 27596 net.cpp:137] Memory required for data: 496742420
I0413 09:31:50.978371 27596 layer_factory.hpp:77] Creating layer res2c
I0413 09:31:50.978375 27596 net.cpp:84] Creating Layer res2c
I0413 09:31:50.978377 27596 net.cpp:406] res2c <- res2b_res2b_relu_0_split_1
I0413 09:31:50.978379 27596 net.cpp:406] res2c <- res2c_branch2c
I0413 09:31:50.978382 27596 net.cpp:380] res2c -> res2c
I0413 09:31:50.978397 27596 net.cpp:122] Setting up res2c
I0413 09:31:50.978401 27596 net.cpp:129] Top shape: 5 256 56 56 (4014080)
I0413 09:31:50.978402 27596 net.cpp:137] Memory required for data: 512798740
I0413 09:31:50.978404 27596 layer_factory.hpp:77] Creating layer res2c_relu
I0413 09:31:50.978408 27596 net.cpp:84] Creating Layer res2c_relu
I0413 09:31:50.978410 27596 net.cpp:406] res2c_relu <- res2c
I0413 09:31:50.978412 27596 net.cpp:367] res2c_relu -> res2c (in-place)
I0413 09:31:50.978816 27596 net.cpp:122] Setting up res2c_relu
I0413 09:31:50.978821 27596 net.cpp:129] Top shape: 5 256 56 56 (4014080)
I0413 09:31:50.978822 27596 net.cpp:137] Memory required for data: 528855060
I0413 09:31:50.978824 27596 layer_factory.hpp:77] Creating layer res2c_res2c_relu_0_split
I0413 09:31:50.978827 27596 net.cpp:84] Creating Layer res2c_res2c_relu_0_split
I0413 09:31:50.978829 27596 net.cpp:406] res2c_res2c_relu_0_split <- res2c
I0413 09:31:50.978833 27596 net.cpp:380] res2c_res2c_relu_0_split -> res2c_res2c_relu_0_split_0
I0413 09:31:50.978837 27596 net.cpp:380] res2c_res2c_relu_0_split -> res2c_res2c_relu_0_split_1
I0413 09:31:50.978866 27596 net.cpp:122] Setting up res2c_res2c_relu_0_split
I0413 09:31:50.978869 27596 net.cpp:129] Top shape: 5 256 56 56 (4014080)
I0413 09:31:50.978871 27596 net.cpp:129] Top shape: 5 256 56 56 (4014080)
I0413 09:31:50.978873 27596 net.cpp:137] Memory required for data: 560967700
I0413 09:31:50.978875 27596 layer_factory.hpp:77] Creating layer res3a_branch1
I0413 09:31:50.978879 27596 net.cpp:84] Creating Layer res3a_branch1
I0413 09:31:50.978881 27596 net.cpp:406] res3a_branch1 <- res2c_res2c_relu_0_split_0
I0413 09:31:50.978884 27596 net.cpp:380] res3a_branch1 -> res3a_branch1
I0413 09:31:50.981221 27596 net.cpp:122] Setting up res3a_branch1
I0413 09:31:50.981228 27596 net.cpp:129] Top shape: 5 512 28 28 (2007040)
I0413 09:31:50.981230 27596 net.cpp:137] Memory required for data: 568995860
I0413 09:31:50.981232 27596 layer_factory.hpp:77] Creating layer bn3a_branch1
I0413 09:31:50.981236 27596 net.cpp:84] Creating Layer bn3a_branch1
I0413 09:31:50.981238 27596 net.cpp:406] bn3a_branch1 <- res3a_branch1
I0413 09:31:50.981241 27596 net.cpp:367] bn3a_branch1 -> res3a_branch1 (in-place)
I0413 09:31:50.981863 27596 net.cpp:122] Setting up bn3a_branch1
I0413 09:31:50.981869 27596 net.cpp:129] Top shape: 5 512 28 28 (2007040)
I0413 09:31:50.981878 27596 net.cpp:137] Memory required for data: 577024020
I0413 09:31:50.981880 27596 layer_factory.hpp:77] Creating layer scale3a_branch1
I0413 09:31:50.981884 27596 net.cpp:84] Creating Layer scale3a_branch1
I0413 09:31:50.981885 27596 net.cpp:406] scale3a_branch1 <- res3a_branch1
I0413 09:31:50.981889 27596 net.cpp:367] scale3a_branch1 -> res3a_branch1 (in-place)
I0413 09:31:50.981915 27596 layer_factory.hpp:77] Creating layer scale3a_branch1
I0413 09:31:50.981987 27596 net.cpp:122] Setting up scale3a_branch1
I0413 09:31:50.981992 27596 net.cpp:129] Top shape: 5 512 28 28 (2007040)
I0413 09:31:50.981993 27596 net.cpp:137] Memory required for data: 585052180
I0413 09:31:50.981995 27596 layer_factory.hpp:77] Creating layer res3a_branch2a
I0413 09:31:50.981999 27596 net.cpp:84] Creating Layer res3a_branch2a
I0413 09:31:50.982002 27596 net.cpp:406] res3a_branch2a <- res2c_res2c_relu_0_split_1
I0413 09:31:50.982004 27596 net.cpp:380] res3a_branch2a -> res3a_branch2a
I0413 09:31:50.983822 27596 net.cpp:122] Setting up res3a_branch2a
I0413 09:31:50.983829 27596 net.cpp:129] Top shape: 5 128 28 28 (501760)
I0413 09:31:50.983831 27596 net.cpp:137] Memory required for data: 587059220
I0413 09:31:50.983834 27596 layer_factory.hpp:77] Creating layer bn3a_branch2a
I0413 09:31:50.983837 27596 net.cpp:84] Creating Layer bn3a_branch2a
I0413 09:31:50.983839 27596 net.cpp:406] bn3a_branch2a <- res3a_branch2a
I0413 09:31:50.983841 27596 net.cpp:367] bn3a_branch2a -> res3a_branch2a (in-place)
I0413 09:31:50.983974 27596 net.cpp:122] Setting up bn3a_branch2a
I0413 09:31:50.983978 27596 net.cpp:129] Top shape: 5 128 28 28 (501760)
I0413 09:31:50.983979 27596 net.cpp:137] Memory required for data: 589066260
I0413 09:31:50.983983 27596 layer_factory.hpp:77] Creating layer scale3a_branch2a
I0413 09:31:50.983985 27596 net.cpp:84] Creating Layer scale3a_branch2a
I0413 09:31:50.983988 27596 net.cpp:406] scale3a_branch2a <- res3a_branch2a
I0413 09:31:50.983989 27596 net.cpp:367] scale3a_branch2a -> res3a_branch2a (in-place)
I0413 09:31:50.984015 27596 layer_factory.hpp:77] Creating layer scale3a_branch2a
I0413 09:31:50.984094 27596 net.cpp:122] Setting up scale3a_branch2a
I0413 09:31:50.984098 27596 net.cpp:129] Top shape: 5 128 28 28 (501760)
I0413 09:31:50.984099 27596 net.cpp:137] Memory required for data: 591073300
I0413 09:31:50.984102 27596 layer_factory.hpp:77] Creating layer res3a_branch2a_relu
I0413 09:31:50.984107 27596 net.cpp:84] Creating Layer res3a_branch2a_relu
I0413 09:31:50.984108 27596 net.cpp:406] res3a_branch2a_relu <- res3a_branch2a
I0413 09:31:50.984110 27596 net.cpp:367] res3a_branch2a_relu -> res3a_branch2a (in-place)
I0413 09:31:50.984486 27596 net.cpp:122] Setting up res3a_branch2a_relu
I0413 09:31:50.984491 27596 net.cpp:129] Top shape: 5 128 28 28 (501760)
I0413 09:31:50.984493 27596 net.cpp:137] Memory required for data: 593080340
I0413 09:31:50.984495 27596 layer_factory.hpp:77] Creating layer res3a_branch2b
I0413 09:31:50.984500 27596 net.cpp:84] Creating Layer res3a_branch2b
I0413 09:31:50.984503 27596 net.cpp:406] res3a_branch2b <- res3a_branch2a
I0413 09:31:50.984504 27596 net.cpp:380] res3a_branch2b -> res3a_branch2b
I0413 09:31:50.986984 27596 net.cpp:122] Setting up res3a_branch2b
I0413 09:31:50.986992 27596 net.cpp:129] Top shape: 5 128 28 28 (501760)
I0413 09:31:50.986994 27596 net.cpp:137] Memory required for data: 595087380
I0413 09:31:50.986996 27596 layer_factory.hpp:77] Creating layer bn3a_branch2b
I0413 09:31:50.987000 27596 net.cpp:84] Creating Layer bn3a_branch2b
I0413 09:31:50.987002 27596 net.cpp:406] bn3a_branch2b <- res3a_branch2b
I0413 09:31:50.987006 27596 net.cpp:367] bn3a_branch2b -> res3a_branch2b (in-place)
I0413 09:31:50.987154 27596 net.cpp:122] Setting up bn3a_branch2b
I0413 09:31:50.987157 27596 net.cpp:129] Top shape: 5 128 28 28 (501760)
I0413 09:31:50.987159 27596 net.cpp:137] Memory required for data: 597094420
I0413 09:31:50.987162 27596 layer_factory.hpp:77] Creating layer scale3a_branch2b
I0413 09:31:50.987165 27596 net.cpp:84] Creating Layer scale3a_branch2b
I0413 09:31:50.987172 27596 net.cpp:406] scale3a_branch2b <- res3a_branch2b
I0413 09:31:50.987175 27596 net.cpp:367] scale3a_branch2b -> res3a_branch2b (in-place)
I0413 09:31:50.987200 27596 layer_factory.hpp:77] Creating layer scale3a_branch2b
I0413 09:31:50.987274 27596 net.cpp:122] Setting up scale3a_branch2b
I0413 09:31:50.987278 27596 net.cpp:129] Top shape: 5 128 28 28 (501760)
I0413 09:31:50.987279 27596 net.cpp:137] Memory required for data: 599101460
I0413 09:31:50.987282 27596 layer_factory.hpp:77] Creating layer res3a_branch2b_relu
I0413 09:31:50.987287 27596 net.cpp:84] Creating Layer res3a_branch2b_relu
I0413 09:31:50.987287 27596 net.cpp:406] res3a_branch2b_relu <- res3a_branch2b
I0413 09:31:50.987289 27596 net.cpp:367] res3a_branch2b_relu -> res3a_branch2b (in-place)
I0413 09:31:50.987771 27596 net.cpp:122] Setting up res3a_branch2b_relu
I0413 09:31:50.987777 27596 net.cpp:129] Top shape: 5 128 28 28 (501760)
I0413 09:31:50.987779 27596 net.cpp:137] Memory required for data: 601108500
I0413 09:31:50.987782 27596 layer_factory.hpp:77] Creating layer res3a_branch2c
I0413 09:31:50.987785 27596 net.cpp:84] Creating Layer res3a_branch2c
I0413 09:31:50.987787 27596 net.cpp:406] res3a_branch2c <- res3a_branch2b
I0413 09:31:50.987790 27596 net.cpp:380] res3a_branch2c -> res3a_branch2c
I0413 09:31:50.989637 27596 net.cpp:122] Setting up res3a_branch2c
I0413 09:31:50.989645 27596 net.cpp:129] Top shape: 5 512 28 28 (2007040)
I0413 09:31:50.989646 27596 net.cpp:137] Memory required for data: 609136660
I0413 09:31:50.989650 27596 layer_factory.hpp:77] Creating layer bn3a_branch2c
I0413 09:31:50.989657 27596 net.cpp:84] Creating Layer bn3a_branch2c
I0413 09:31:50.989660 27596 net.cpp:406] bn3a_branch2c <- res3a_branch2c
I0413 09:31:50.989662 27596 net.cpp:367] bn3a_branch2c -> res3a_branch2c (in-place)
I0413 09:31:50.989806 27596 net.cpp:122] Setting up bn3a_branch2c
I0413 09:31:50.989810 27596 net.cpp:129] Top shape: 5 512 28 28 (2007040)
I0413 09:31:50.989812 27596 net.cpp:137] Memory required for data: 617164820
I0413 09:31:50.989816 27596 layer_factory.hpp:77] Creating layer scale3a_branch2c
I0413 09:31:50.989820 27596 net.cpp:84] Creating Layer scale3a_branch2c
I0413 09:31:50.989821 27596 net.cpp:406] scale3a_branch2c <- res3a_branch2c
I0413 09:31:50.989825 27596 net.cpp:367] scale3a_branch2c -> res3a_branch2c (in-place)
I0413 09:31:50.989850 27596 layer_factory.hpp:77] Creating layer scale3a_branch2c
I0413 09:31:50.989923 27596 net.cpp:122] Setting up scale3a_branch2c
I0413 09:31:50.989926 27596 net.cpp:129] Top shape: 5 512 28 28 (2007040)
I0413 09:31:50.989928 27596 net.cpp:137] Memory required for data: 625192980
I0413 09:31:50.989930 27596 layer_factory.hpp:77] Creating layer res3a
I0413 09:31:50.989933 27596 net.cpp:84] Creating Layer res3a
I0413 09:31:50.989936 27596 net.cpp:406] res3a <- res3a_branch1
I0413 09:31:50.989938 27596 net.cpp:406] res3a <- res3a_branch2c
I0413 09:31:50.989940 27596 net.cpp:380] res3a -> res3a
I0413 09:31:50.989955 27596 net.cpp:122] Setting up res3a
I0413 09:31:50.989959 27596 net.cpp:129] Top shape: 5 512 28 28 (2007040)
I0413 09:31:50.989960 27596 net.cpp:137] Memory required for data: 633221140
I0413 09:31:50.989961 27596 layer_factory.hpp:77] Creating layer res3a_relu
I0413 09:31:50.989964 27596 net.cpp:84] Creating Layer res3a_relu
I0413 09:31:50.989965 27596 net.cpp:406] res3a_relu <- res3a
I0413 09:31:50.989967 27596 net.cpp:367] res3a_relu -> res3a (in-place)
I0413 09:31:50.990355 27596 net.cpp:122] Setting up res3a_relu
I0413 09:31:50.990361 27596 net.cpp:129] Top shape: 5 512 28 28 (2007040)
I0413 09:31:50.990363 27596 net.cpp:137] Memory required for data: 641249300
I0413 09:31:50.990365 27596 layer_factory.hpp:77] Creating layer res3a_res3a_relu_0_split
I0413 09:31:50.990368 27596 net.cpp:84] Creating Layer res3a_res3a_relu_0_split
I0413 09:31:50.990370 27596 net.cpp:406] res3a_res3a_relu_0_split <- res3a
I0413 09:31:50.990372 27596 net.cpp:380] res3a_res3a_relu_0_split -> res3a_res3a_relu_0_split_0
I0413 09:31:50.990377 27596 net.cpp:380] res3a_res3a_relu_0_split -> res3a_res3a_relu_0_split_1
I0413 09:31:50.990411 27596 net.cpp:122] Setting up res3a_res3a_relu_0_split
I0413 09:31:50.990414 27596 net.cpp:129] Top shape: 5 512 28 28 (2007040)
I0413 09:31:50.990417 27596 net.cpp:129] Top shape: 5 512 28 28 (2007040)
I0413 09:31:50.990417 27596 net.cpp:137] Memory required for data: 657305620
I0413 09:31:50.990419 27596 layer_factory.hpp:77] Creating layer res3b1_branch2a
I0413 09:31:50.990423 27596 net.cpp:84] Creating Layer res3b1_branch2a
I0413 09:31:50.990424 27596 net.cpp:406] res3b1_branch2a <- res3a_res3a_relu_0_split_0
I0413 09:31:50.990428 27596 net.cpp:380] res3b1_branch2a -> res3b1_branch2a
I0413 09:31:50.992385 27596 net.cpp:122] Setting up res3b1_branch2a
I0413 09:31:50.992393 27596 net.cpp:129] Top shape: 5 128 28 28 (501760)
I0413 09:31:50.992395 27596 net.cpp:137] Memory required for data: 659312660
I0413 09:31:50.992398 27596 layer_factory.hpp:77] Creating layer bn3b1_branch2a
I0413 09:31:50.992403 27596 net.cpp:84] Creating Layer bn3b1_branch2a
I0413 09:31:50.992404 27596 net.cpp:406] bn3b1_branch2a <- res3b1_branch2a
I0413 09:31:50.992408 27596 net.cpp:367] bn3b1_branch2a -> res3b1_branch2a (in-place)
I0413 09:31:50.992544 27596 net.cpp:122] Setting up bn3b1_branch2a
I0413 09:31:50.992547 27596 net.cpp:129] Top shape: 5 128 28 28 (501760)
I0413 09:31:50.992549 27596 net.cpp:137] Memory required for data: 661319700
I0413 09:31:50.992552 27596 layer_factory.hpp:77] Creating layer scale3b1_branch2a
I0413 09:31:50.992555 27596 net.cpp:84] Creating Layer scale3b1_branch2a
I0413 09:31:50.992558 27596 net.cpp:406] scale3b1_branch2a <- res3b1_branch2a
I0413 09:31:50.992559 27596 net.cpp:367] scale3b1_branch2a -> res3b1_branch2a (in-place)
I0413 09:31:50.992585 27596 layer_factory.hpp:77] Creating layer scale3b1_branch2a
I0413 09:31:50.992660 27596 net.cpp:122] Setting up scale3b1_branch2a
I0413 09:31:50.992663 27596 net.cpp:129] Top shape: 5 128 28 28 (501760)
I0413 09:31:50.992666 27596 net.cpp:137] Memory required for data: 663326740
I0413 09:31:50.992667 27596 layer_factory.hpp:77] Creating layer res3b1_branch2a_relu
I0413 09:31:50.992669 27596 net.cpp:84] Creating Layer res3b1_branch2a_relu
I0413 09:31:50.992671 27596 net.cpp:406] res3b1_branch2a_relu <- res3b1_branch2a
I0413 09:31:50.992673 27596 net.cpp:367] res3b1_branch2a_relu -> res3b1_branch2a (in-place)
I0413 09:31:50.993068 27596 net.cpp:122] Setting up res3b1_branch2a_relu
I0413 09:31:50.993074 27596 net.cpp:129] Top shape: 5 128 28 28 (501760)
I0413 09:31:50.993075 27596 net.cpp:137] Memory required for data: 665333780
I0413 09:31:50.993077 27596 layer_factory.hpp:77] Creating layer res3b1_branch2b
I0413 09:31:50.993083 27596 net.cpp:84] Creating Layer res3b1_branch2b
I0413 09:31:50.993083 27596 net.cpp:406] res3b1_branch2b <- res3b1_branch2a
I0413 09:31:50.993086 27596 net.cpp:380] res3b1_branch2b -> res3b1_branch2b
I0413 09:31:50.995947 27596 net.cpp:122] Setting up res3b1_branch2b
I0413 09:31:50.995954 27596 net.cpp:129] Top shape: 5 128 28 28 (501760)
I0413 09:31:50.995956 27596 net.cpp:137] Memory required for data: 667340820
I0413 09:31:50.995959 27596 layer_factory.hpp:77] Creating layer bn3b1_branch2b
I0413 09:31:50.995963 27596 net.cpp:84] Creating Layer bn3b1_branch2b
I0413 09:31:50.995965 27596 net.cpp:406] bn3b1_branch2b <- res3b1_branch2b
I0413 09:31:50.995968 27596 net.cpp:367] bn3b1_branch2b -> res3b1_branch2b (in-place)
I0413 09:31:50.996111 27596 net.cpp:122] Setting up bn3b1_branch2b
I0413 09:31:50.996114 27596 net.cpp:129] Top shape: 5 128 28 28 (501760)
I0413 09:31:50.996116 27596 net.cpp:137] Memory required for data: 669347860
I0413 09:31:50.996119 27596 layer_factory.hpp:77] Creating layer scale3b1_branch2b
I0413 09:31:50.996124 27596 net.cpp:84] Creating Layer scale3b1_branch2b
I0413 09:31:50.996125 27596 net.cpp:406] scale3b1_branch2b <- res3b1_branch2b
I0413 09:31:50.996127 27596 net.cpp:367] scale3b1_branch2b -> res3b1_branch2b (in-place)
I0413 09:31:50.996152 27596 layer_factory.hpp:77] Creating layer scale3b1_branch2b
I0413 09:31:50.996229 27596 net.cpp:122] Setting up scale3b1_branch2b
I0413 09:31:50.996237 27596 net.cpp:129] Top shape: 5 128 28 28 (501760)
I0413 09:31:50.996239 27596 net.cpp:137] Memory required for data: 671354900
I0413 09:31:50.996243 27596 layer_factory.hpp:77] Creating layer res3b1_branch2b_relu
I0413 09:31:50.996245 27596 net.cpp:84] Creating Layer res3b1_branch2b_relu
I0413 09:31:50.996248 27596 net.cpp:406] res3b1_branch2b_relu <- res3b1_branch2b
I0413 09:31:50.996249 27596 net.cpp:367] res3b1_branch2b_relu -> res3b1_branch2b (in-place)
I0413 09:31:50.996791 27596 net.cpp:122] Setting up res3b1_branch2b_relu
I0413 09:31:50.996798 27596 net.cpp:129] Top shape: 5 128 28 28 (501760)
I0413 09:31:50.996799 27596 net.cpp:137] Memory required for data: 673361940
I0413 09:31:50.996801 27596 layer_factory.hpp:77] Creating layer res3b1_branch2c
I0413 09:31:50.996805 27596 net.cpp:84] Creating Layer res3b1_branch2c
I0413 09:31:50.996807 27596 net.cpp:406] res3b1_branch2c <- res3b1_branch2b
I0413 09:31:50.996810 27596 net.cpp:380] res3b1_branch2c -> res3b1_branch2c
I0413 09:31:50.998620 27596 net.cpp:122] Setting up res3b1_branch2c
I0413 09:31:50.998627 27596 net.cpp:129] Top shape: 5 512 28 28 (2007040)
I0413 09:31:50.998630 27596 net.cpp:137] Memory required for data: 681390100
I0413 09:31:50.998632 27596 layer_factory.hpp:77] Creating layer bn3b1_branch2c
I0413 09:31:50.998636 27596 net.cpp:84] Creating Layer bn3b1_branch2c
I0413 09:31:50.998638 27596 net.cpp:406] bn3b1_branch2c <- res3b1_branch2c
I0413 09:31:50.998641 27596 net.cpp:367] bn3b1_branch2c -> res3b1_branch2c (in-place)
I0413 09:31:50.998777 27596 net.cpp:122] Setting up bn3b1_branch2c
I0413 09:31:50.998780 27596 net.cpp:129] Top shape: 5 512 28 28 (2007040)
I0413 09:31:50.998782 27596 net.cpp:137] Memory required for data: 689418260
I0413 09:31:50.998785 27596 layer_factory.hpp:77] Creating layer scale3b1_branch2c
I0413 09:31:50.998788 27596 net.cpp:84] Creating Layer scale3b1_branch2c
I0413 09:31:50.998790 27596 net.cpp:406] scale3b1_branch2c <- res3b1_branch2c
I0413 09:31:50.998792 27596 net.cpp:367] scale3b1_branch2c -> res3b1_branch2c (in-place)
I0413 09:31:50.998817 27596 layer_factory.hpp:77] Creating layer scale3b1_branch2c
I0413 09:31:50.998891 27596 net.cpp:122] Setting up scale3b1_branch2c
I0413 09:31:50.998894 27596 net.cpp:129] Top shape: 5 512 28 28 (2007040)
I0413 09:31:50.998896 27596 net.cpp:137] Memory required for data: 697446420
I0413 09:31:50.998898 27596 layer_factory.hpp:77] Creating layer res3b1
I0413 09:31:50.998903 27596 net.cpp:84] Creating Layer res3b1
I0413 09:31:50.998904 27596 net.cpp:406] res3b1 <- res3a_res3a_relu_0_split_1
I0413 09:31:50.998906 27596 net.cpp:406] res3b1 <- res3b1_branch2c
I0413 09:31:50.998909 27596 net.cpp:380] res3b1 -> res3b1
I0413 09:31:50.998924 27596 net.cpp:122] Setting up res3b1
I0413 09:31:50.998927 27596 net.cpp:129] Top shape: 5 512 28 28 (2007040)
I0413 09:31:50.998929 27596 net.cpp:137] Memory required for data: 705474580
I0413 09:31:50.998930 27596 layer_factory.hpp:77] Creating layer res3b1_relu
I0413 09:31:50.998932 27596 net.cpp:84] Creating Layer res3b1_relu
I0413 09:31:50.998934 27596 net.cpp:406] res3b1_relu <- res3b1
I0413 09:31:50.998936 27596 net.cpp:367] res3b1_relu -> res3b1 (in-place)
I0413 09:31:50.999433 27596 net.cpp:122] Setting up res3b1_relu
I0413 09:31:50.999439 27596 net.cpp:129] Top shape: 5 512 28 28 (2007040)
I0413 09:31:50.999441 27596 net.cpp:137] Memory required for data: 713502740
I0413 09:31:50.999444 27596 layer_factory.hpp:77] Creating layer res3b1_res3b1_relu_0_split
I0413 09:31:50.999446 27596 net.cpp:84] Creating Layer res3b1_res3b1_relu_0_split
I0413 09:31:50.999449 27596 net.cpp:406] res3b1_res3b1_relu_0_split <- res3b1
I0413 09:31:50.999452 27596 net.cpp:380] res3b1_res3b1_relu_0_split -> res3b1_res3b1_relu_0_split_0
I0413 09:31:50.999455 27596 net.cpp:380] res3b1_res3b1_relu_0_split -> res3b1_res3b1_relu_0_split_1
I0413 09:31:50.999485 27596 net.cpp:122] Setting up res3b1_res3b1_relu_0_split
I0413 09:31:50.999487 27596 net.cpp:129] Top shape: 5 512 28 28 (2007040)
I0413 09:31:50.999490 27596 net.cpp:129] Top shape: 5 512 28 28 (2007040)
I0413 09:31:50.999495 27596 net.cpp:137] Memory required for data: 729559060
I0413 09:31:50.999497 27596 layer_factory.hpp:77] Creating layer res3b2_branch2a
I0413 09:31:50.999502 27596 net.cpp:84] Creating Layer res3b2_branch2a
I0413 09:31:50.999505 27596 net.cpp:406] res3b2_branch2a <- res3b1_res3b1_relu_0_split_0
I0413 09:31:50.999506 27596 net.cpp:380] res3b2_branch2a -> res3b2_branch2a
I0413 09:31:51.001314 27596 net.cpp:122] Setting up res3b2_branch2a
I0413 09:31:51.001322 27596 net.cpp:129] Top shape: 5 128 28 28 (501760)
I0413 09:31:51.001324 27596 net.cpp:137] Memory required for data: 731566100
I0413 09:31:51.001327 27596 layer_factory.hpp:77] Creating layer bn3b2_branch2a
I0413 09:31:51.001332 27596 net.cpp:84] Creating Layer bn3b2_branch2a
I0413 09:31:51.001333 27596 net.cpp:406] bn3b2_branch2a <- res3b2_branch2a
I0413 09:31:51.001335 27596 net.cpp:367] bn3b2_branch2a -> res3b2_branch2a (in-place)
I0413 09:31:51.001473 27596 net.cpp:122] Setting up bn3b2_branch2a
I0413 09:31:51.001477 27596 net.cpp:129] Top shape: 5 128 28 28 (501760)
I0413 09:31:51.001478 27596 net.cpp:137] Memory required for data: 733573140
I0413 09:31:51.001482 27596 layer_factory.hpp:77] Creating layer scale3b2_branch2a
I0413 09:31:51.001484 27596 net.cpp:84] Creating Layer scale3b2_branch2a
I0413 09:31:51.001487 27596 net.cpp:406] scale3b2_branch2a <- res3b2_branch2a
I0413 09:31:51.001489 27596 net.cpp:367] scale3b2_branch2a -> res3b2_branch2a (in-place)
I0413 09:31:51.001515 27596 layer_factory.hpp:77] Creating layer scale3b2_branch2a
I0413 09:31:51.001590 27596 net.cpp:122] Setting up scale3b2_branch2a
I0413 09:31:51.001593 27596 net.cpp:129] Top shape: 5 128 28 28 (501760)
I0413 09:31:51.001595 27596 net.cpp:137] Memory required for data: 735580180
I0413 09:31:51.001597 27596 layer_factory.hpp:77] Creating layer res3b2_branch2a_relu
I0413 09:31:51.001600 27596 net.cpp:84] Creating Layer res3b2_branch2a_relu
I0413 09:31:51.001601 27596 net.cpp:406] res3b2_branch2a_relu <- res3b2_branch2a
I0413 09:31:51.001605 27596 net.cpp:367] res3b2_branch2a_relu -> res3b2_branch2a (in-place)
I0413 09:31:51.001986 27596 net.cpp:122] Setting up res3b2_branch2a_relu
I0413 09:31:51.001991 27596 net.cpp:129] Top shape: 5 128 28 28 (501760)
I0413 09:31:51.001992 27596 net.cpp:137] Memory required for data: 737587220
I0413 09:31:51.001994 27596 layer_factory.hpp:77] Creating layer res3b2_branch2b
I0413 09:31:51.001998 27596 net.cpp:84] Creating Layer res3b2_branch2b
I0413 09:31:51.002002 27596 net.cpp:406] res3b2_branch2b <- res3b2_branch2a
I0413 09:31:51.002004 27596 net.cpp:380] res3b2_branch2b -> res3b2_branch2b
I0413 09:31:51.004920 27596 net.cpp:122] Setting up res3b2_branch2b
I0413 09:31:51.004933 27596 net.cpp:129] Top shape: 5 128 28 28 (501760)
I0413 09:31:51.004935 27596 net.cpp:137] Memory required for data: 739594260
I0413 09:31:51.004940 27596 layer_factory.hpp:77] Creating layer bn3b2_branch2b
I0413 09:31:51.004945 27596 net.cpp:84] Creating Layer bn3b2_branch2b
I0413 09:31:51.004947 27596 net.cpp:406] bn3b2_branch2b <- res3b2_branch2b
I0413 09:31:51.004951 27596 net.cpp:367] bn3b2_branch2b -> res3b2_branch2b (in-place)
I0413 09:31:51.005112 27596 net.cpp:122] Setting up bn3b2_branch2b
I0413 09:31:51.005117 27596 net.cpp:129] Top shape: 5 128 28 28 (501760)
I0413 09:31:51.005120 27596 net.cpp:137] Memory required for data: 741601300
I0413 09:31:51.005122 27596 layer_factory.hpp:77] Creating layer scale3b2_branch2b
I0413 09:31:51.005128 27596 net.cpp:84] Creating Layer scale3b2_branch2b
I0413 09:31:51.005131 27596 net.cpp:406] scale3b2_branch2b <- res3b2_branch2b
I0413 09:31:51.005132 27596 net.cpp:367] scale3b2_branch2b -> res3b2_branch2b (in-place)
I0413 09:31:51.005162 27596 layer_factory.hpp:77] Creating layer scale3b2_branch2b
I0413 09:31:51.005242 27596 net.cpp:122] Setting up scale3b2_branch2b
I0413 09:31:51.005245 27596 net.cpp:129] Top shape: 5 128 28 28 (501760)
I0413 09:31:51.005246 27596 net.cpp:137] Memory required for data: 743608340
I0413 09:31:51.005249 27596 layer_factory.hpp:77] Creating layer res3b2_branch2b_relu
I0413 09:31:51.005259 27596 net.cpp:84] Creating Layer res3b2_branch2b_relu
I0413 09:31:51.005260 27596 net.cpp:406] res3b2_branch2b_relu <- res3b2_branch2b
I0413 09:31:51.005262 27596 net.cpp:367] res3b2_branch2b_relu -> res3b2_branch2b (in-place)
I0413 09:31:51.005654 27596 net.cpp:122] Setting up res3b2_branch2b_relu
I0413 09:31:51.005661 27596 net.cpp:129] Top shape: 5 128 28 28 (501760)
I0413 09:31:51.005662 27596 net.cpp:137] Memory required for data: 745615380
I0413 09:31:51.005663 27596 layer_factory.hpp:77] Creating layer res3b2_branch2c
I0413 09:31:51.005668 27596 net.cpp:84] Creating Layer res3b2_branch2c
I0413 09:31:51.005671 27596 net.cpp:406] res3b2_branch2c <- res3b2_branch2b
I0413 09:31:51.005673 27596 net.cpp:380] res3b2_branch2c -> res3b2_branch2c
I0413 09:31:51.007526 27596 net.cpp:122] Setting up res3b2_branch2c
I0413 09:31:51.007534 27596 net.cpp:129] Top shape: 5 512 28 28 (2007040)
I0413 09:31:51.007535 27596 net.cpp:137] Memory required for data: 753643540
I0413 09:31:51.007539 27596 layer_factory.hpp:77] Creating layer bn3b2_branch2c
I0413 09:31:51.007544 27596 net.cpp:84] Creating Layer bn3b2_branch2c
I0413 09:31:51.007545 27596 net.cpp:406] bn3b2_branch2c <- res3b2_branch2c
I0413 09:31:51.007549 27596 net.cpp:367] bn3b2_branch2c -> res3b2_branch2c (in-place)
I0413 09:31:51.007688 27596 net.cpp:122] Setting up bn3b2_branch2c
I0413 09:31:51.007692 27596 net.cpp:129] Top shape: 5 512 28 28 (2007040)
I0413 09:31:51.007694 27596 net.cpp:137] Memory required for data: 761671700
I0413 09:31:51.007697 27596 layer_factory.hpp:77] Creating layer scale3b2_branch2c
I0413 09:31:51.007699 27596 net.cpp:84] Creating Layer scale3b2_branch2c
I0413 09:31:51.007701 27596 net.cpp:406] scale3b2_branch2c <- res3b2_branch2c
I0413 09:31:51.007704 27596 net.cpp:367] scale3b2_branch2c -> res3b2_branch2c (in-place)
I0413 09:31:51.007730 27596 layer_factory.hpp:77] Creating layer scale3b2_branch2c
I0413 09:31:51.007805 27596 net.cpp:122] Setting up scale3b2_branch2c
I0413 09:31:51.007808 27596 net.cpp:129] Top shape: 5 512 28 28 (2007040)
I0413 09:31:51.007810 27596 net.cpp:137] Memory required for data: 769699860
I0413 09:31:51.007812 27596 layer_factory.hpp:77] Creating layer res3b2
I0413 09:31:51.007815 27596 net.cpp:84] Creating Layer res3b2
I0413 09:31:51.007817 27596 net.cpp:406] res3b2 <- res3b1_res3b1_relu_0_split_1
I0413 09:31:51.007819 27596 net.cpp:406] res3b2 <- res3b2_branch2c
I0413 09:31:51.007822 27596 net.cpp:380] res3b2 -> res3b2
I0413 09:31:51.007838 27596 net.cpp:122] Setting up res3b2
I0413 09:31:51.007841 27596 net.cpp:129] Top shape: 5 512 28 28 (2007040)
I0413 09:31:51.007843 27596 net.cpp:137] Memory required for data: 777728020
I0413 09:31:51.007844 27596 layer_factory.hpp:77] Creating layer res3b2_relu
I0413 09:31:51.007848 27596 net.cpp:84] Creating Layer res3b2_relu
I0413 09:31:51.007851 27596 net.cpp:406] res3b2_relu <- res3b2
I0413 09:31:51.007853 27596 net.cpp:367] res3b2_relu -> res3b2 (in-place)
I0413 09:31:51.008355 27596 net.cpp:122] Setting up res3b2_relu
I0413 09:31:51.008361 27596 net.cpp:129] Top shape: 5 512 28 28 (2007040)
I0413 09:31:51.008363 27596 net.cpp:137] Memory required for data: 785756180
I0413 09:31:51.008365 27596 layer_factory.hpp:77] Creating layer res3b2_res3b2_relu_0_split
I0413 09:31:51.008368 27596 net.cpp:84] Creating Layer res3b2_res3b2_relu_0_split
I0413 09:31:51.008370 27596 net.cpp:406] res3b2_res3b2_relu_0_split <- res3b2
I0413 09:31:51.008373 27596 net.cpp:380] res3b2_res3b2_relu_0_split -> res3b2_res3b2_relu_0_split_0
I0413 09:31:51.008378 27596 net.cpp:380] res3b2_res3b2_relu_0_split -> res3b2_res3b2_relu_0_split_1
I0413 09:31:51.008406 27596 net.cpp:122] Setting up res3b2_res3b2_relu_0_split
I0413 09:31:51.008409 27596 net.cpp:129] Top shape: 5 512 28 28 (2007040)
I0413 09:31:51.008411 27596 net.cpp:129] Top shape: 5 512 28 28 (2007040)
I0413 09:31:51.008414 27596 net.cpp:137] Memory required for data: 801812500
I0413 09:31:51.008415 27596 layer_factory.hpp:77] Creating layer res3b3_branch2a
I0413 09:31:51.008419 27596 net.cpp:84] Creating Layer res3b3_branch2a
I0413 09:31:51.008425 27596 net.cpp:406] res3b3_branch2a <- res3b2_res3b2_relu_0_split_0
I0413 09:31:51.008428 27596 net.cpp:380] res3b3_branch2a -> res3b3_branch2a
I0413 09:31:51.010736 27596 net.cpp:122] Setting up res3b3_branch2a
I0413 09:31:51.010743 27596 net.cpp:129] Top shape: 5 128 28 28 (501760)
I0413 09:31:51.010746 27596 net.cpp:137] Memory required for data: 803819540
I0413 09:31:51.010748 27596 layer_factory.hpp:77] Creating layer bn3b3_branch2a
I0413 09:31:51.010752 27596 net.cpp:84] Creating Layer bn3b3_branch2a
I0413 09:31:51.010754 27596 net.cpp:406] bn3b3_branch2a <- res3b3_branch2a
I0413 09:31:51.010757 27596 net.cpp:367] bn3b3_branch2a -> res3b3_branch2a (in-place)
I0413 09:31:51.010896 27596 net.cpp:122] Setting up bn3b3_branch2a
I0413 09:31:51.010900 27596 net.cpp:129] Top shape: 5 128 28 28 (501760)
I0413 09:31:51.010901 27596 net.cpp:137] Memory required for data: 805826580
I0413 09:31:51.010910 27596 layer_factory.hpp:77] Creating layer scale3b3_branch2a
I0413 09:31:51.010913 27596 net.cpp:84] Creating Layer scale3b3_branch2a
I0413 09:31:51.010915 27596 net.cpp:406] scale3b3_branch2a <- res3b3_branch2a
I0413 09:31:51.010917 27596 net.cpp:367] scale3b3_branch2a -> res3b3_branch2a (in-place)
I0413 09:31:51.010946 27596 layer_factory.hpp:77] Creating layer scale3b3_branch2a
I0413 09:31:51.011023 27596 net.cpp:122] Setting up scale3b3_branch2a
I0413 09:31:51.011025 27596 net.cpp:129] Top shape: 5 128 28 28 (501760)
I0413 09:31:51.011027 27596 net.cpp:137] Memory required for data: 807833620
I0413 09:31:51.011034 27596 layer_factory.hpp:77] Creating layer res3b3_branch2a_relu
I0413 09:31:51.011039 27596 net.cpp:84] Creating Layer res3b3_branch2a_relu
I0413 09:31:51.011040 27596 net.cpp:406] res3b3_branch2a_relu <- res3b3_branch2a
I0413 09:31:51.011042 27596 net.cpp:367] res3b3_branch2a_relu -> res3b3_branch2a (in-place)
I0413 09:31:51.011430 27596 net.cpp:122] Setting up res3b3_branch2a_relu
I0413 09:31:51.011435 27596 net.cpp:129] Top shape: 5 128 28 28 (501760)
I0413 09:31:51.011436 27596 net.cpp:137] Memory required for data: 809840660
I0413 09:31:51.011438 27596 layer_factory.hpp:77] Creating layer res3b3_branch2b
I0413 09:31:51.011443 27596 net.cpp:84] Creating Layer res3b3_branch2b
I0413 09:31:51.011445 27596 net.cpp:406] res3b3_branch2b <- res3b3_branch2a
I0413 09:31:51.011449 27596 net.cpp:380] res3b3_branch2b -> res3b3_branch2b
I0413 09:31:51.013945 27596 net.cpp:122] Setting up res3b3_branch2b
I0413 09:31:51.013952 27596 net.cpp:129] Top shape: 5 128 28 28 (501760)
I0413 09:31:51.013954 27596 net.cpp:137] Memory required for data: 811847700
I0413 09:31:51.013957 27596 layer_factory.hpp:77] Creating layer bn3b3_branch2b
I0413 09:31:51.013962 27596 net.cpp:84] Creating Layer bn3b3_branch2b
I0413 09:31:51.013963 27596 net.cpp:406] bn3b3_branch2b <- res3b3_branch2b
I0413 09:31:51.013967 27596 net.cpp:367] bn3b3_branch2b -> res3b3_branch2b (in-place)
I0413 09:31:51.014120 27596 net.cpp:122] Setting up bn3b3_branch2b
I0413 09:31:51.014125 27596 net.cpp:129] Top shape: 5 128 28 28 (501760)
I0413 09:31:51.014127 27596 net.cpp:137] Memory required for data: 813854740
I0413 09:31:51.014130 27596 layer_factory.hpp:77] Creating layer scale3b3_branch2b
I0413 09:31:51.014132 27596 net.cpp:84] Creating Layer scale3b3_branch2b
I0413 09:31:51.014134 27596 net.cpp:406] scale3b3_branch2b <- res3b3_branch2b
I0413 09:31:51.014137 27596 net.cpp:367] scale3b3_branch2b -> res3b3_branch2b (in-place)
I0413 09:31:51.014163 27596 layer_factory.hpp:77] Creating layer scale3b3_branch2b
I0413 09:31:51.014241 27596 net.cpp:122] Setting up scale3b3_branch2b
I0413 09:31:51.014245 27596 net.cpp:129] Top shape: 5 128 28 28 (501760)
I0413 09:31:51.014246 27596 net.cpp:137] Memory required for data: 815861780
I0413 09:31:51.014250 27596 layer_factory.hpp:77] Creating layer res3b3_branch2b_relu
I0413 09:31:51.014251 27596 net.cpp:84] Creating Layer res3b3_branch2b_relu
I0413 09:31:51.014253 27596 net.cpp:406] res3b3_branch2b_relu <- res3b3_branch2b
I0413 09:31:51.014256 27596 net.cpp:367] res3b3_branch2b_relu -> res3b3_branch2b (in-place)
I0413 09:31:51.014647 27596 net.cpp:122] Setting up res3b3_branch2b_relu
I0413 09:31:51.014652 27596 net.cpp:129] Top shape: 5 128 28 28 (501760)
I0413 09:31:51.014653 27596 net.cpp:137] Memory required for data: 817868820
I0413 09:31:51.014655 27596 layer_factory.hpp:77] Creating layer res3b3_branch2c
I0413 09:31:51.014660 27596 net.cpp:84] Creating Layer res3b3_branch2c
I0413 09:31:51.014662 27596 net.cpp:406] res3b3_branch2c <- res3b3_branch2b
I0413 09:31:51.014667 27596 net.cpp:380] res3b3_branch2c -> res3b3_branch2c
I0413 09:31:51.016497 27596 net.cpp:122] Setting up res3b3_branch2c
I0413 09:31:51.016505 27596 net.cpp:129] Top shape: 5 512 28 28 (2007040)
I0413 09:31:51.016506 27596 net.cpp:137] Memory required for data: 825896980
I0413 09:31:51.016508 27596 layer_factory.hpp:77] Creating layer bn3b3_branch2c
I0413 09:31:51.016512 27596 net.cpp:84] Creating Layer bn3b3_branch2c
I0413 09:31:51.016515 27596 net.cpp:406] bn3b3_branch2c <- res3b3_branch2c
I0413 09:31:51.016517 27596 net.cpp:367] bn3b3_branch2c -> res3b3_branch2c (in-place)
I0413 09:31:51.016659 27596 net.cpp:122] Setting up bn3b3_branch2c
I0413 09:31:51.016661 27596 net.cpp:129] Top shape: 5 512 28 28 (2007040)
I0413 09:31:51.016664 27596 net.cpp:137] Memory required for data: 833925140
I0413 09:31:51.016666 27596 layer_factory.hpp:77] Creating layer scale3b3_branch2c
I0413 09:31:51.016669 27596 net.cpp:84] Creating Layer scale3b3_branch2c
I0413 09:31:51.016670 27596 net.cpp:406] scale3b3_branch2c <- res3b3_branch2c
I0413 09:31:51.016674 27596 net.cpp:367] scale3b3_branch2c -> res3b3_branch2c (in-place)
I0413 09:31:51.016700 27596 layer_factory.hpp:77] Creating layer scale3b3_branch2c
I0413 09:31:51.016775 27596 net.cpp:122] Setting up scale3b3_branch2c
I0413 09:31:51.016778 27596 net.cpp:129] Top shape: 5 512 28 28 (2007040)
I0413 09:31:51.016779 27596 net.cpp:137] Memory required for data: 841953300
I0413 09:31:51.016782 27596 layer_factory.hpp:77] Creating layer res3b3
I0413 09:31:51.016785 27596 net.cpp:84] Creating Layer res3b3
I0413 09:31:51.016788 27596 net.cpp:406] res3b3 <- res3b2_res3b2_relu_0_split_1
I0413 09:31:51.016789 27596 net.cpp:406] res3b3 <- res3b3_branch2c
I0413 09:31:51.016791 27596 net.cpp:380] res3b3 -> res3b3
I0413 09:31:51.016808 27596 net.cpp:122] Setting up res3b3
I0413 09:31:51.016811 27596 net.cpp:129] Top shape: 5 512 28 28 (2007040)
I0413 09:31:51.016813 27596 net.cpp:137] Memory required for data: 849981460
I0413 09:31:51.016814 27596 layer_factory.hpp:77] Creating layer res3b3_relu
I0413 09:31:51.016818 27596 net.cpp:84] Creating Layer res3b3_relu
I0413 09:31:51.016819 27596 net.cpp:406] res3b3_relu <- res3b3
I0413 09:31:51.016821 27596 net.cpp:367] res3b3_relu -> res3b3 (in-place)
I0413 09:31:51.017324 27596 net.cpp:122] Setting up res3b3_relu
I0413 09:31:51.017331 27596 net.cpp:129] Top shape: 5 512 28 28 (2007040)
I0413 09:31:51.017333 27596 net.cpp:137] Memory required for data: 858009620
I0413 09:31:51.017335 27596 layer_factory.hpp:77] Creating layer res3b3_res3b3_relu_0_split
I0413 09:31:51.017339 27596 net.cpp:84] Creating Layer res3b3_res3b3_relu_0_split
I0413 09:31:51.017341 27596 net.cpp:406] res3b3_res3b3_relu_0_split <- res3b3
I0413 09:31:51.017344 27596 net.cpp:380] res3b3_res3b3_relu_0_split -> res3b3_res3b3_relu_0_split_0
I0413 09:31:51.017347 27596 net.cpp:380] res3b3_res3b3_relu_0_split -> res3b3_res3b3_relu_0_split_1
I0413 09:31:51.017377 27596 net.cpp:122] Setting up res3b3_res3b3_relu_0_split
I0413 09:31:51.017380 27596 net.cpp:129] Top shape: 5 512 28 28 (2007040)
I0413 09:31:51.017382 27596 net.cpp:129] Top shape: 5 512 28 28 (2007040)
I0413 09:31:51.017385 27596 net.cpp:137] Memory required for data: 874065940
I0413 09:31:51.017385 27596 layer_factory.hpp:77] Creating layer res3b4_branch2a
I0413 09:31:51.017390 27596 net.cpp:84] Creating Layer res3b4_branch2a
I0413 09:31:51.017392 27596 net.cpp:406] res3b4_branch2a <- res3b3_res3b3_relu_0_split_0
I0413 09:31:51.017395 27596 net.cpp:380] res3b4_branch2a -> res3b4_branch2a
I0413 09:31:51.019222 27596 net.cpp:122] Setting up res3b4_branch2a
I0413 09:31:51.019234 27596 net.cpp:129] Top shape: 5 128 28 28 (501760)
I0413 09:31:51.019237 27596 net.cpp:137] Memory required for data: 876072980
I0413 09:31:51.019239 27596 layer_factory.hpp:77] Creating layer bn3b4_branch2a
I0413 09:31:51.019243 27596 net.cpp:84] Creating Layer bn3b4_branch2a
I0413 09:31:51.019244 27596 net.cpp:406] bn3b4_branch2a <- res3b4_branch2a
I0413 09:31:51.019248 27596 net.cpp:367] bn3b4_branch2a -> res3b4_branch2a (in-place)
I0413 09:31:51.019392 27596 net.cpp:122] Setting up bn3b4_branch2a
I0413 09:31:51.019395 27596 net.cpp:129] Top shape: 5 128 28 28 (501760)
I0413 09:31:51.019397 27596 net.cpp:137] Memory required for data: 878080020
I0413 09:31:51.019400 27596 layer_factory.hpp:77] Creating layer scale3b4_branch2a
I0413 09:31:51.019403 27596 net.cpp:84] Creating Layer scale3b4_branch2a
I0413 09:31:51.019404 27596 net.cpp:406] scale3b4_branch2a <- res3b4_branch2a
I0413 09:31:51.019407 27596 net.cpp:367] scale3b4_branch2a -> res3b4_branch2a (in-place)
I0413 09:31:51.019433 27596 layer_factory.hpp:77] Creating layer scale3b4_branch2a
I0413 09:31:51.019513 27596 net.cpp:122] Setting up scale3b4_branch2a
I0413 09:31:51.019517 27596 net.cpp:129] Top shape: 5 128 28 28 (501760)
I0413 09:31:51.019518 27596 net.cpp:137] Memory required for data: 880087060
I0413 09:31:51.019521 27596 layer_factory.hpp:77] Creating layer res3b4_branch2a_relu
I0413 09:31:51.019524 27596 net.cpp:84] Creating Layer res3b4_branch2a_relu
I0413 09:31:51.019526 27596 net.cpp:406] res3b4_branch2a_relu <- res3b4_branch2a
I0413 09:31:51.019528 27596 net.cpp:367] res3b4_branch2a_relu -> res3b4_branch2a (in-place)
I0413 09:31:51.019917 27596 net.cpp:122] Setting up res3b4_branch2a_relu
I0413 09:31:51.019922 27596 net.cpp:129] Top shape: 5 128 28 28 (501760)
I0413 09:31:51.019922 27596 net.cpp:137] Memory required for data: 882094100
I0413 09:31:51.019924 27596 layer_factory.hpp:77] Creating layer res3b4_branch2b
I0413 09:31:51.019928 27596 net.cpp:84] Creating Layer res3b4_branch2b
I0413 09:31:51.019930 27596 net.cpp:406] res3b4_branch2b <- res3b4_branch2a
I0413 09:31:51.019933 27596 net.cpp:380] res3b4_branch2b -> res3b4_branch2b
I0413 09:31:51.023109 27596 net.cpp:122] Setting up res3b4_branch2b
I0413 09:31:51.023119 27596 net.cpp:129] Top shape: 5 128 28 28 (501760)
I0413 09:31:51.023121 27596 net.cpp:137] Memory required for data: 884101140
I0413 09:31:51.023125 27596 layer_factory.hpp:77] Creating layer bn3b4_branch2b
I0413 09:31:51.023129 27596 net.cpp:84] Creating Layer bn3b4_branch2b
I0413 09:31:51.023133 27596 net.cpp:406] bn3b4_branch2b <- res3b4_branch2b
I0413 09:31:51.023136 27596 net.cpp:367] bn3b4_branch2b -> res3b4_branch2b (in-place)
I0413 09:31:51.023290 27596 net.cpp:122] Setting up bn3b4_branch2b
I0413 09:31:51.023294 27596 net.cpp:129] Top shape: 5 128 28 28 (501760)
I0413 09:31:51.023295 27596 net.cpp:137] Memory required for data: 886108180
I0413 09:31:51.023299 27596 layer_factory.hpp:77] Creating layer scale3b4_branch2b
I0413 09:31:51.023301 27596 net.cpp:84] Creating Layer scale3b4_branch2b
I0413 09:31:51.023303 27596 net.cpp:406] scale3b4_branch2b <- res3b4_branch2b
I0413 09:31:51.023305 27596 net.cpp:367] scale3b4_branch2b -> res3b4_branch2b (in-place)
I0413 09:31:51.023334 27596 layer_factory.hpp:77] Creating layer scale3b4_branch2b
I0413 09:31:51.023416 27596 net.cpp:122] Setting up scale3b4_branch2b
I0413 09:31:51.023418 27596 net.cpp:129] Top shape: 5 128 28 28 (501760)
I0413 09:31:51.023421 27596 net.cpp:137] Memory required for data: 888115220
I0413 09:31:51.023422 27596 layer_factory.hpp:77] Creating layer res3b4_branch2b_relu
I0413 09:31:51.023427 27596 net.cpp:84] Creating Layer res3b4_branch2b_relu
I0413 09:31:51.023428 27596 net.cpp:406] res3b4_branch2b_relu <- res3b4_branch2b
I0413 09:31:51.023430 27596 net.cpp:367] res3b4_branch2b_relu -> res3b4_branch2b (in-place)
I0413 09:31:51.023831 27596 net.cpp:122] Setting up res3b4_branch2b_relu
I0413 09:31:51.023838 27596 net.cpp:129] Top shape: 5 128 28 28 (501760)
I0413 09:31:51.023839 27596 net.cpp:137] Memory required for data: 890122260
I0413 09:31:51.023846 27596 layer_factory.hpp:77] Creating layer res3b4_branch2c
I0413 09:31:51.023851 27596 net.cpp:84] Creating Layer res3b4_branch2c
I0413 09:31:51.023854 27596 net.cpp:406] res3b4_branch2c <- res3b4_branch2b
I0413 09:31:51.023856 27596 net.cpp:380] res3b4_branch2c -> res3b4_branch2c
I0413 09:31:51.025697 27596 net.cpp:122] Setting up res3b4_branch2c
I0413 09:31:51.025704 27596 net.cpp:129] Top shape: 5 512 28 28 (2007040)
I0413 09:31:51.025707 27596 net.cpp:137] Memory required for data: 898150420
I0413 09:31:51.025709 27596 layer_factory.hpp:77] Creating layer bn3b4_branch2c
I0413 09:31:51.025713 27596 net.cpp:84] Creating Layer bn3b4_branch2c
I0413 09:31:51.025715 27596 net.cpp:406] bn3b4_branch2c <- res3b4_branch2c
I0413 09:31:51.025718 27596 net.cpp:367] bn3b4_branch2c -> res3b4_branch2c (in-place)
I0413 09:31:51.025866 27596 net.cpp:122] Setting up bn3b4_branch2c
I0413 09:31:51.025869 27596 net.cpp:129] Top shape: 5 512 28 28 (2007040)
I0413 09:31:51.025871 27596 net.cpp:137] Memory required for data: 906178580
I0413 09:31:51.025873 27596 layer_factory.hpp:77] Creating layer scale3b4_branch2c
I0413 09:31:51.025876 27596 net.cpp:84] Creating Layer scale3b4_branch2c
I0413 09:31:51.025878 27596 net.cpp:406] scale3b4_branch2c <- res3b4_branch2c
I0413 09:31:51.025880 27596 net.cpp:367] scale3b4_branch2c -> res3b4_branch2c (in-place)
I0413 09:31:51.025908 27596 layer_factory.hpp:77] Creating layer scale3b4_branch2c
I0413 09:31:51.025985 27596 net.cpp:122] Setting up scale3b4_branch2c
I0413 09:31:51.025988 27596 net.cpp:129] Top shape: 5 512 28 28 (2007040)
I0413 09:31:51.025990 27596 net.cpp:137] Memory required for data: 914206740
I0413 09:31:51.025992 27596 layer_factory.hpp:77] Creating layer res3b4
I0413 09:31:51.025996 27596 net.cpp:84] Creating Layer res3b4
I0413 09:31:51.025998 27596 net.cpp:406] res3b4 <- res3b3_res3b3_relu_0_split_1
I0413 09:31:51.026000 27596 net.cpp:406] res3b4 <- res3b4_branch2c
I0413 09:31:51.026002 27596 net.cpp:380] res3b4 -> res3b4
I0413 09:31:51.026020 27596 net.cpp:122] Setting up res3b4
I0413 09:31:51.026022 27596 net.cpp:129] Top shape: 5 512 28 28 (2007040)
I0413 09:31:51.026023 27596 net.cpp:137] Memory required for data: 922234900
I0413 09:31:51.026026 27596 layer_factory.hpp:77] Creating layer res3b4_relu
I0413 09:31:51.026031 27596 net.cpp:84] Creating Layer res3b4_relu
I0413 09:31:51.026034 27596 net.cpp:406] res3b4_relu <- res3b4
I0413 09:31:51.026041 27596 net.cpp:367] res3b4_relu -> res3b4 (in-place)
I0413 09:31:51.026541 27596 net.cpp:122] Setting up res3b4_relu
I0413 09:31:51.026548 27596 net.cpp:129] Top shape: 5 512 28 28 (2007040)
I0413 09:31:51.026549 27596 net.cpp:137] Memory required for data: 930263060
I0413 09:31:51.026551 27596 layer_factory.hpp:77] Creating layer res3b4_res3b4_relu_0_split
I0413 09:31:51.026554 27596 net.cpp:84] Creating Layer res3b4_res3b4_relu_0_split
I0413 09:31:51.026556 27596 net.cpp:406] res3b4_res3b4_relu_0_split <- res3b4
I0413 09:31:51.026559 27596 net.cpp:380] res3b4_res3b4_relu_0_split -> res3b4_res3b4_relu_0_split_0
I0413 09:31:51.026564 27596 net.cpp:380] res3b4_res3b4_relu_0_split -> res3b4_res3b4_relu_0_split_1
I0413 09:31:51.026595 27596 net.cpp:122] Setting up res3b4_res3b4_relu_0_split
I0413 09:31:51.026599 27596 net.cpp:129] Top shape: 5 512 28 28 (2007040)
I0413 09:31:51.026602 27596 net.cpp:129] Top shape: 5 512 28 28 (2007040)
I0413 09:31:51.026602 27596 net.cpp:137] Memory required for data: 946319380
I0413 09:31:51.026604 27596 layer_factory.hpp:77] Creating layer res3b5_branch2a
I0413 09:31:51.026608 27596 net.cpp:84] Creating Layer res3b5_branch2a
I0413 09:31:51.026610 27596 net.cpp:406] res3b5_branch2a <- res3b4_res3b4_relu_0_split_0
I0413 09:31:51.026613 27596 net.cpp:380] res3b5_branch2a -> res3b5_branch2a
I0413 09:31:51.028550 27596 net.cpp:122] Setting up res3b5_branch2a
I0413 09:31:51.028558 27596 net.cpp:129] Top shape: 5 128 28 28 (501760)
I0413 09:31:51.028559 27596 net.cpp:137] Memory required for data: 948326420
I0413 09:31:51.028563 27596 layer_factory.hpp:77] Creating layer bn3b5_branch2a
I0413 09:31:51.028570 27596 net.cpp:84] Creating Layer bn3b5_branch2a
I0413 09:31:51.028573 27596 net.cpp:406] bn3b5_branch2a <- res3b5_branch2a
I0413 09:31:51.028575 27596 net.cpp:367] bn3b5_branch2a -> res3b5_branch2a (in-place)
I0413 09:31:51.028723 27596 net.cpp:122] Setting up bn3b5_branch2a
I0413 09:31:51.028728 27596 net.cpp:129] Top shape: 5 128 28 28 (501760)
I0413 09:31:51.028728 27596 net.cpp:137] Memory required for data: 950333460
I0413 09:31:51.028731 27596 layer_factory.hpp:77] Creating layer scale3b5_branch2a
I0413 09:31:51.028735 27596 net.cpp:84] Creating Layer scale3b5_branch2a
I0413 09:31:51.028738 27596 net.cpp:406] scale3b5_branch2a <- res3b5_branch2a
I0413 09:31:51.028739 27596 net.cpp:367] scale3b5_branch2a -> res3b5_branch2a (in-place)
I0413 09:31:51.028766 27596 layer_factory.hpp:77] Creating layer scale3b5_branch2a
I0413 09:31:51.028847 27596 net.cpp:122] Setting up scale3b5_branch2a
I0413 09:31:51.028851 27596 net.cpp:129] Top shape: 5 128 28 28 (501760)
I0413 09:31:51.028852 27596 net.cpp:137] Memory required for data: 952340500
I0413 09:31:51.028854 27596 layer_factory.hpp:77] Creating layer res3b5_branch2a_relu
I0413 09:31:51.028861 27596 net.cpp:84] Creating Layer res3b5_branch2a_relu
I0413 09:31:51.028862 27596 net.cpp:406] res3b5_branch2a_relu <- res3b5_branch2a
I0413 09:31:51.028864 27596 net.cpp:367] res3b5_branch2a_relu -> res3b5_branch2a (in-place)
I0413 09:31:51.029366 27596 net.cpp:122] Setting up res3b5_branch2a_relu
I0413 09:31:51.029371 27596 net.cpp:129] Top shape: 5 128 28 28 (501760)
I0413 09:31:51.029373 27596 net.cpp:137] Memory required for data: 954347540
I0413 09:31:51.029376 27596 layer_factory.hpp:77] Creating layer res3b5_branch2b
I0413 09:31:51.029379 27596 net.cpp:84] Creating Layer res3b5_branch2b
I0413 09:31:51.029381 27596 net.cpp:406] res3b5_branch2b <- res3b5_branch2a
I0413 09:31:51.029384 27596 net.cpp:380] res3b5_branch2b -> res3b5_branch2b
I0413 09:31:51.031814 27596 net.cpp:122] Setting up res3b5_branch2b
I0413 09:31:51.031821 27596 net.cpp:129] Top shape: 5 128 28 28 (501760)
I0413 09:31:51.031823 27596 net.cpp:137] Memory required for data: 956354580
I0413 09:31:51.031826 27596 layer_factory.hpp:77] Creating layer bn3b5_branch2b
I0413 09:31:51.031831 27596 net.cpp:84] Creating Layer bn3b5_branch2b
I0413 09:31:51.031832 27596 net.cpp:406] bn3b5_branch2b <- res3b5_branch2b
I0413 09:31:51.031836 27596 net.cpp:367] bn3b5_branch2b -> res3b5_branch2b (in-place)
I0413 09:31:51.031986 27596 net.cpp:122] Setting up bn3b5_branch2b
I0413 09:31:51.031991 27596 net.cpp:129] Top shape: 5 128 28 28 (501760)
I0413 09:31:51.031991 27596 net.cpp:137] Memory required for data: 958361620
I0413 09:31:51.031994 27596 layer_factory.hpp:77] Creating layer scale3b5_branch2b
I0413 09:31:51.031997 27596 net.cpp:84] Creating Layer scale3b5_branch2b
I0413 09:31:51.031999 27596 net.cpp:406] scale3b5_branch2b <- res3b5_branch2b
I0413 09:31:51.032001 27596 net.cpp:367] scale3b5_branch2b -> res3b5_branch2b (in-place)
I0413 09:31:51.032032 27596 layer_factory.hpp:77] Creating layer scale3b5_branch2b
I0413 09:31:51.032116 27596 net.cpp:122] Setting up scale3b5_branch2b
I0413 09:31:51.032119 27596 net.cpp:129] Top shape: 5 128 28 28 (501760)
I0413 09:31:51.032121 27596 net.cpp:137] Memory required for data: 960368660
I0413 09:31:51.032124 27596 layer_factory.hpp:77] Creating layer res3b5_branch2b_relu
I0413 09:31:51.032127 27596 net.cpp:84] Creating Layer res3b5_branch2b_relu
I0413 09:31:51.032130 27596 net.cpp:406] res3b5_branch2b_relu <- res3b5_branch2b
I0413 09:31:51.032131 27596 net.cpp:367] res3b5_branch2b_relu -> res3b5_branch2b (in-place)
I0413 09:31:51.032522 27596 net.cpp:122] Setting up res3b5_branch2b_relu
I0413 09:31:51.032526 27596 net.cpp:129] Top shape: 5 128 28 28 (501760)
I0413 09:31:51.032528 27596 net.cpp:137] Memory required for data: 962375700
I0413 09:31:51.032531 27596 layer_factory.hpp:77] Creating layer res3b5_branch2c
I0413 09:31:51.032534 27596 net.cpp:84] Creating Layer res3b5_branch2c
I0413 09:31:51.032536 27596 net.cpp:406] res3b5_branch2c <- res3b5_branch2b
I0413 09:31:51.032543 27596 net.cpp:380] res3b5_branch2c -> res3b5_branch2c
I0413 09:31:51.034508 27596 net.cpp:122] Setting up res3b5_branch2c
I0413 09:31:51.034517 27596 net.cpp:129] Top shape: 5 512 28 28 (2007040)
I0413 09:31:51.034518 27596 net.cpp:137] Memory required for data: 970403860
I0413 09:31:51.034520 27596 layer_factory.hpp:77] Creating layer bn3b5_branch2c
I0413 09:31:51.034524 27596 net.cpp:84] Creating Layer bn3b5_branch2c
I0413 09:31:51.034526 27596 net.cpp:406] bn3b5_branch2c <- res3b5_branch2c
I0413 09:31:51.034529 27596 net.cpp:367] bn3b5_branch2c -> res3b5_branch2c (in-place)
I0413 09:31:51.034679 27596 net.cpp:122] Setting up bn3b5_branch2c
I0413 09:31:51.034683 27596 net.cpp:129] Top shape: 5 512 28 28 (2007040)
I0413 09:31:51.034685 27596 net.cpp:137] Memory required for data: 978432020
I0413 09:31:51.034688 27596 layer_factory.hpp:77] Creating layer scale3b5_branch2c
I0413 09:31:51.034690 27596 net.cpp:84] Creating Layer scale3b5_branch2c
I0413 09:31:51.034693 27596 net.cpp:406] scale3b5_branch2c <- res3b5_branch2c
I0413 09:31:51.034695 27596 net.cpp:367] scale3b5_branch2c -> res3b5_branch2c (in-place)
I0413 09:31:51.034724 27596 layer_factory.hpp:77] Creating layer scale3b5_branch2c
I0413 09:31:51.034804 27596 net.cpp:122] Setting up scale3b5_branch2c
I0413 09:31:51.034808 27596 net.cpp:129] Top shape: 5 512 28 28 (2007040)
I0413 09:31:51.034809 27596 net.cpp:137] Memory required for data: 986460180
I0413 09:31:51.034812 27596 layer_factory.hpp:77] Creating layer res3b5
I0413 09:31:51.034816 27596 net.cpp:84] Creating Layer res3b5
I0413 09:31:51.034817 27596 net.cpp:406] res3b5 <- res3b4_res3b4_relu_0_split_1
I0413 09:31:51.034819 27596 net.cpp:406] res3b5 <- res3b5_branch2c
I0413 09:31:51.034821 27596 net.cpp:380] res3b5 -> res3b5
I0413 09:31:51.034839 27596 net.cpp:122] Setting up res3b5
I0413 09:31:51.034842 27596 net.cpp:129] Top shape: 5 512 28 28 (2007040)
I0413 09:31:51.034844 27596 net.cpp:137] Memory required for data: 994488340
I0413 09:31:51.034847 27596 layer_factory.hpp:77] Creating layer res3b5_relu
I0413 09:31:51.034848 27596 net.cpp:84] Creating Layer res3b5_relu
I0413 09:31:51.034850 27596 net.cpp:406] res3b5_relu <- res3b5
I0413 09:31:51.034852 27596 net.cpp:367] res3b5_relu -> res3b5 (in-place)
I0413 09:31:51.035244 27596 net.cpp:122] Setting up res3b5_relu
I0413 09:31:51.035249 27596 net.cpp:129] Top shape: 5 512 28 28 (2007040)
I0413 09:31:51.035251 27596 net.cpp:137] Memory required for data: 1002516500
I0413 09:31:51.035254 27596 layer_factory.hpp:77] Creating layer res3b5_res3b5_relu_0_split
I0413 09:31:51.035256 27596 net.cpp:84] Creating Layer res3b5_res3b5_relu_0_split
I0413 09:31:51.035259 27596 net.cpp:406] res3b5_res3b5_relu_0_split <- res3b5
I0413 09:31:51.035261 27596 net.cpp:380] res3b5_res3b5_relu_0_split -> res3b5_res3b5_relu_0_split_0
I0413 09:31:51.035264 27596 net.cpp:380] res3b5_res3b5_relu_0_split -> res3b5_res3b5_relu_0_split_1
I0413 09:31:51.035298 27596 net.cpp:122] Setting up res3b5_res3b5_relu_0_split
I0413 09:31:51.035301 27596 net.cpp:129] Top shape: 5 512 28 28 (2007040)
I0413 09:31:51.035303 27596 net.cpp:129] Top shape: 5 512 28 28 (2007040)
I0413 09:31:51.035305 27596 net.cpp:137] Memory required for data: 1018572820
I0413 09:31:51.035306 27596 layer_factory.hpp:77] Creating layer res3b6_branch2a
I0413 09:31:51.035311 27596 net.cpp:84] Creating Layer res3b6_branch2a
I0413 09:31:51.035312 27596 net.cpp:406] res3b6_branch2a <- res3b5_res3b5_relu_0_split_0
I0413 09:31:51.035316 27596 net.cpp:380] res3b6_branch2a -> res3b6_branch2a
I0413 09:31:51.037637 27596 net.cpp:122] Setting up res3b6_branch2a
I0413 09:31:51.037647 27596 net.cpp:129] Top shape: 5 128 28 28 (501760)
I0413 09:31:51.037649 27596 net.cpp:137] Memory required for data: 1020579860
I0413 09:31:51.037652 27596 layer_factory.hpp:77] Creating layer bn3b6_branch2a
I0413 09:31:51.037657 27596 net.cpp:84] Creating Layer bn3b6_branch2a
I0413 09:31:51.037658 27596 net.cpp:406] bn3b6_branch2a <- res3b6_branch2a
I0413 09:31:51.037662 27596 net.cpp:367] bn3b6_branch2a -> res3b6_branch2a (in-place)
I0413 09:31:51.037825 27596 net.cpp:122] Setting up bn3b6_branch2a
I0413 09:31:51.037828 27596 net.cpp:129] Top shape: 5 128 28 28 (501760)
I0413 09:31:51.037830 27596 net.cpp:137] Memory required for data: 1022586900
I0413 09:31:51.037833 27596 layer_factory.hpp:77] Creating layer scale3b6_branch2a
I0413 09:31:51.037837 27596 net.cpp:84] Creating Layer scale3b6_branch2a
I0413 09:31:51.037839 27596 net.cpp:406] scale3b6_branch2a <- res3b6_branch2a
I0413 09:31:51.037842 27596 net.cpp:367] scale3b6_branch2a -> res3b6_branch2a (in-place)
I0413 09:31:51.037871 27596 layer_factory.hpp:77] Creating layer scale3b6_branch2a
I0413 09:31:51.037953 27596 net.cpp:122] Setting up scale3b6_branch2a
I0413 09:31:51.037957 27596 net.cpp:129] Top shape: 5 128 28 28 (501760)
I0413 09:31:51.037958 27596 net.cpp:137] Memory required for data: 1024593940
I0413 09:31:51.037961 27596 layer_factory.hpp:77] Creating layer res3b6_branch2a_relu
I0413 09:31:51.037966 27596 net.cpp:84] Creating Layer res3b6_branch2a_relu
I0413 09:31:51.037966 27596 net.cpp:406] res3b6_branch2a_relu <- res3b6_branch2a
I0413 09:31:51.037969 27596 net.cpp:367] res3b6_branch2a_relu -> res3b6_branch2a (in-place)
I0413 09:31:51.038491 27596 net.cpp:122] Setting up res3b6_branch2a_relu
I0413 09:31:51.038498 27596 net.cpp:129] Top shape: 5 128 28 28 (501760)
I0413 09:31:51.038501 27596 net.cpp:137] Memory required for data: 1026600980
I0413 09:31:51.038502 27596 layer_factory.hpp:77] Creating layer res3b6_branch2b
I0413 09:31:51.038507 27596 net.cpp:84] Creating Layer res3b6_branch2b
I0413 09:31:51.038509 27596 net.cpp:406] res3b6_branch2b <- res3b6_branch2a
I0413 09:31:51.038513 27596 net.cpp:380] res3b6_branch2b -> res3b6_branch2b
I0413 09:31:51.041039 27596 net.cpp:122] Setting up res3b6_branch2b
I0413 09:31:51.041049 27596 net.cpp:129] Top shape: 5 128 28 28 (501760)
I0413 09:31:51.041051 27596 net.cpp:137] Memory required for data: 1028608020
I0413 09:31:51.041054 27596 layer_factory.hpp:77] Creating layer bn3b6_branch2b
I0413 09:31:51.041059 27596 net.cpp:84] Creating Layer bn3b6_branch2b
I0413 09:31:51.041061 27596 net.cpp:406] bn3b6_branch2b <- res3b6_branch2b
I0413 09:31:51.041064 27596 net.cpp:367] bn3b6_branch2b -> res3b6_branch2b (in-place)
I0413 09:31:51.041229 27596 net.cpp:122] Setting up bn3b6_branch2b
I0413 09:31:51.041234 27596 net.cpp:129] Top shape: 5 128 28 28 (501760)
I0413 09:31:51.041235 27596 net.cpp:137] Memory required for data: 1030615060
I0413 09:31:51.041239 27596 layer_factory.hpp:77] Creating layer scale3b6_branch2b
I0413 09:31:51.041242 27596 net.cpp:84] Creating Layer scale3b6_branch2b
I0413 09:31:51.041244 27596 net.cpp:406] scale3b6_branch2b <- res3b6_branch2b
I0413 09:31:51.041246 27596 net.cpp:367] scale3b6_branch2b -> res3b6_branch2b (in-place)
I0413 09:31:51.041276 27596 layer_factory.hpp:77] Creating layer scale3b6_branch2b
I0413 09:31:51.041360 27596 net.cpp:122] Setting up scale3b6_branch2b
I0413 09:31:51.041363 27596 net.cpp:129] Top shape: 5 128 28 28 (501760)
I0413 09:31:51.041365 27596 net.cpp:137] Memory required for data: 1032622100
I0413 09:31:51.041368 27596 layer_factory.hpp:77] Creating layer res3b6_branch2b_relu
I0413 09:31:51.041371 27596 net.cpp:84] Creating Layer res3b6_branch2b_relu
I0413 09:31:51.041373 27596 net.cpp:406] res3b6_branch2b_relu <- res3b6_branch2b
I0413 09:31:51.041375 27596 net.cpp:367] res3b6_branch2b_relu -> res3b6_branch2b (in-place)
I0413 09:31:51.041760 27596 net.cpp:122] Setting up res3b6_branch2b_relu
I0413 09:31:51.041765 27596 net.cpp:129] Top shape: 5 128 28 28 (501760)
I0413 09:31:51.041767 27596 net.cpp:137] Memory required for data: 1034629140
I0413 09:31:51.041769 27596 layer_factory.hpp:77] Creating layer res3b6_branch2c
I0413 09:31:51.041774 27596 net.cpp:84] Creating Layer res3b6_branch2c
I0413 09:31:51.041776 27596 net.cpp:406] res3b6_branch2c <- res3b6_branch2b
I0413 09:31:51.041779 27596 net.cpp:380] res3b6_branch2c -> res3b6_branch2c
I0413 09:31:51.043750 27596 net.cpp:122] Setting up res3b6_branch2c
I0413 09:31:51.043756 27596 net.cpp:129] Top shape: 5 512 28 28 (2007040)
I0413 09:31:51.043764 27596 net.cpp:137] Memory required for data: 1042657300
I0413 09:31:51.043767 27596 layer_factory.hpp:77] Creating layer bn3b6_branch2c
I0413 09:31:51.043771 27596 net.cpp:84] Creating Layer bn3b6_branch2c
I0413 09:31:51.043773 27596 net.cpp:406] bn3b6_branch2c <- res3b6_branch2c
I0413 09:31:51.043776 27596 net.cpp:367] bn3b6_branch2c -> res3b6_branch2c (in-place)
I0413 09:31:51.043927 27596 net.cpp:122] Setting up bn3b6_branch2c
I0413 09:31:51.043931 27596 net.cpp:129] Top shape: 5 512 28 28 (2007040)
I0413 09:31:51.043932 27596 net.cpp:137] Memory required for data: 1050685460
I0413 09:31:51.043936 27596 layer_factory.hpp:77] Creating layer scale3b6_branch2c
I0413 09:31:51.043938 27596 net.cpp:84] Creating Layer scale3b6_branch2c
I0413 09:31:51.043941 27596 net.cpp:406] scale3b6_branch2c <- res3b6_branch2c
I0413 09:31:51.043942 27596 net.cpp:367] scale3b6_branch2c -> res3b6_branch2c (in-place)
I0413 09:31:51.043970 27596 layer_factory.hpp:77] Creating layer scale3b6_branch2c
I0413 09:31:51.044059 27596 net.cpp:122] Setting up scale3b6_branch2c
I0413 09:31:51.044062 27596 net.cpp:129] Top shape: 5 512 28 28 (2007040)
I0413 09:31:51.044064 27596 net.cpp:137] Memory required for data: 1058713620
I0413 09:31:51.044066 27596 layer_factory.hpp:77] Creating layer res3b6
I0413 09:31:51.044070 27596 net.cpp:84] Creating Layer res3b6
I0413 09:31:51.044071 27596 net.cpp:406] res3b6 <- res3b5_res3b5_relu_0_split_1
I0413 09:31:51.044073 27596 net.cpp:406] res3b6 <- res3b6_branch2c
I0413 09:31:51.044076 27596 net.cpp:380] res3b6 -> res3b6
I0413 09:31:51.044093 27596 net.cpp:122] Setting up res3b6
I0413 09:31:51.044096 27596 net.cpp:129] Top shape: 5 512 28 28 (2007040)
I0413 09:31:51.044098 27596 net.cpp:137] Memory required for data: 1066741780
I0413 09:31:51.044100 27596 layer_factory.hpp:77] Creating layer res3b6_relu
I0413 09:31:51.044102 27596 net.cpp:84] Creating Layer res3b6_relu
I0413 09:31:51.044104 27596 net.cpp:406] res3b6_relu <- res3b6
I0413 09:31:51.044106 27596 net.cpp:367] res3b6_relu -> res3b6 (in-place)
I0413 09:31:51.044510 27596 net.cpp:122] Setting up res3b6_relu
I0413 09:31:51.044517 27596 net.cpp:129] Top shape: 5 512 28 28 (2007040)
I0413 09:31:51.044518 27596 net.cpp:137] Memory required for data: 1074769940
I0413 09:31:51.044520 27596 layer_factory.hpp:77] Creating layer res3b6_res3b6_relu_0_split
I0413 09:31:51.044524 27596 net.cpp:84] Creating Layer res3b6_res3b6_relu_0_split
I0413 09:31:51.044526 27596 net.cpp:406] res3b6_res3b6_relu_0_split <- res3b6
I0413 09:31:51.044528 27596 net.cpp:380] res3b6_res3b6_relu_0_split -> res3b6_res3b6_relu_0_split_0
I0413 09:31:51.044533 27596 net.cpp:380] res3b6_res3b6_relu_0_split -> res3b6_res3b6_relu_0_split_1
I0413 09:31:51.044564 27596 net.cpp:122] Setting up res3b6_res3b6_relu_0_split
I0413 09:31:51.044567 27596 net.cpp:129] Top shape: 5 512 28 28 (2007040)
I0413 09:31:51.044569 27596 net.cpp:129] Top shape: 5 512 28 28 (2007040)
I0413 09:31:51.044570 27596 net.cpp:137] Memory required for data: 1090826260
I0413 09:31:51.044572 27596 layer_factory.hpp:77] Creating layer res3b7_branch2a
I0413 09:31:51.044576 27596 net.cpp:84] Creating Layer res3b7_branch2a
I0413 09:31:51.044579 27596 net.cpp:406] res3b7_branch2a <- res3b6_res3b6_relu_0_split_0
I0413 09:31:51.044581 27596 net.cpp:380] res3b7_branch2a -> res3b7_branch2a
I0413 09:31:51.046942 27596 net.cpp:122] Setting up res3b7_branch2a
I0413 09:31:51.046950 27596 net.cpp:129] Top shape: 5 128 28 28 (501760)
I0413 09:31:51.046952 27596 net.cpp:137] Memory required for data: 1092833300
I0413 09:31:51.046955 27596 layer_factory.hpp:77] Creating layer bn3b7_branch2a
I0413 09:31:51.046959 27596 net.cpp:84] Creating Layer bn3b7_branch2a
I0413 09:31:51.046962 27596 net.cpp:406] bn3b7_branch2a <- res3b7_branch2a
I0413 09:31:51.046964 27596 net.cpp:367] bn3b7_branch2a -> res3b7_branch2a (in-place)
I0413 09:31:51.047127 27596 net.cpp:122] Setting up bn3b7_branch2a
I0413 09:31:51.047132 27596 net.cpp:129] Top shape: 5 128 28 28 (501760)
I0413 09:31:51.047133 27596 net.cpp:137] Memory required for data: 1094840340
I0413 09:31:51.047143 27596 layer_factory.hpp:77] Creating layer scale3b7_branch2a
I0413 09:31:51.047145 27596 net.cpp:84] Creating Layer scale3b7_branch2a
I0413 09:31:51.047147 27596 net.cpp:406] scale3b7_branch2a <- res3b7_branch2a
I0413 09:31:51.047150 27596 net.cpp:367] scale3b7_branch2a -> res3b7_branch2a (in-place)
I0413 09:31:51.047180 27596 layer_factory.hpp:77] Creating layer scale3b7_branch2a
I0413 09:31:51.047266 27596 net.cpp:122] Setting up scale3b7_branch2a
I0413 09:31:51.047268 27596 net.cpp:129] Top shape: 5 128 28 28 (501760)
I0413 09:31:51.047271 27596 net.cpp:137] Memory required for data: 1096847380
I0413 09:31:51.047273 27596 layer_factory.hpp:77] Creating layer res3b7_branch2a_relu
I0413 09:31:51.047276 27596 net.cpp:84] Creating Layer res3b7_branch2a_relu
I0413 09:31:51.047277 27596 net.cpp:406] res3b7_branch2a_relu <- res3b7_branch2a
I0413 09:31:51.047279 27596 net.cpp:367] res3b7_branch2a_relu -> res3b7_branch2a (in-place)
I0413 09:31:51.047782 27596 net.cpp:122] Setting up res3b7_branch2a_relu
I0413 09:31:51.047788 27596 net.cpp:129] Top shape: 5 128 28 28 (501760)
I0413 09:31:51.047791 27596 net.cpp:137] Memory required for data: 1098854420
I0413 09:31:51.047792 27596 layer_factory.hpp:77] Creating layer res3b7_branch2b
I0413 09:31:51.047796 27596 net.cpp:84] Creating Layer res3b7_branch2b
I0413 09:31:51.047798 27596 net.cpp:406] res3b7_branch2b <- res3b7_branch2a
I0413 09:31:51.047801 27596 net.cpp:380] res3b7_branch2b -> res3b7_branch2b
I0413 09:31:51.050722 27596 net.cpp:122] Setting up res3b7_branch2b
I0413 09:31:51.050730 27596 net.cpp:129] Top shape: 5 128 28 28 (501760)
I0413 09:31:51.050732 27596 net.cpp:137] Memory required for data: 1100861460
I0413 09:31:51.050735 27596 layer_factory.hpp:77] Creating layer bn3b7_branch2b
I0413 09:31:51.050740 27596 net.cpp:84] Creating Layer bn3b7_branch2b
I0413 09:31:51.050741 27596 net.cpp:406] bn3b7_branch2b <- res3b7_branch2b
I0413 09:31:51.050743 27596 net.cpp:367] bn3b7_branch2b -> res3b7_branch2b (in-place)
I0413 09:31:51.050904 27596 net.cpp:122] Setting up bn3b7_branch2b
I0413 09:31:51.050907 27596 net.cpp:129] Top shape: 5 128 28 28 (501760)
I0413 09:31:51.050909 27596 net.cpp:137] Memory required for data: 1102868500
I0413 09:31:51.050912 27596 layer_factory.hpp:77] Creating layer scale3b7_branch2b
I0413 09:31:51.050915 27596 net.cpp:84] Creating Layer scale3b7_branch2b
I0413 09:31:51.050917 27596 net.cpp:406] scale3b7_branch2b <- res3b7_branch2b
I0413 09:31:51.050920 27596 net.cpp:367] scale3b7_branch2b -> res3b7_branch2b (in-place)
I0413 09:31:51.050948 27596 layer_factory.hpp:77] Creating layer scale3b7_branch2b
I0413 09:31:51.051040 27596 net.cpp:122] Setting up scale3b7_branch2b
I0413 09:31:51.051044 27596 net.cpp:129] Top shape: 5 128 28 28 (501760)
I0413 09:31:51.051045 27596 net.cpp:137] Memory required for data: 1104875540
I0413 09:31:51.051048 27596 layer_factory.hpp:77] Creating layer res3b7_branch2b_relu
I0413 09:31:51.051051 27596 net.cpp:84] Creating Layer res3b7_branch2b_relu
I0413 09:31:51.051054 27596 net.cpp:406] res3b7_branch2b_relu <- res3b7_branch2b
I0413 09:31:51.051055 27596 net.cpp:367] res3b7_branch2b_relu -> res3b7_branch2b (in-place)
I0413 09:31:51.051446 27596 net.cpp:122] Setting up res3b7_branch2b_relu
I0413 09:31:51.051450 27596 net.cpp:129] Top shape: 5 128 28 28 (501760)
I0413 09:31:51.051452 27596 net.cpp:137] Memory required for data: 1106882580
I0413 09:31:51.051455 27596 layer_factory.hpp:77] Creating layer res3b7_branch2c
I0413 09:31:51.051458 27596 net.cpp:84] Creating Layer res3b7_branch2c
I0413 09:31:51.051460 27596 net.cpp:406] res3b7_branch2c <- res3b7_branch2b
I0413 09:31:51.051463 27596 net.cpp:380] res3b7_branch2c -> res3b7_branch2c
I0413 09:31:51.053491 27596 net.cpp:122] Setting up res3b7_branch2c
I0413 09:31:51.053499 27596 net.cpp:129] Top shape: 5 512 28 28 (2007040)
I0413 09:31:51.053501 27596 net.cpp:137] Memory required for data: 1114910740
I0413 09:31:51.053504 27596 layer_factory.hpp:77] Creating layer bn3b7_branch2c
I0413 09:31:51.053514 27596 net.cpp:84] Creating Layer bn3b7_branch2c
I0413 09:31:51.053515 27596 net.cpp:406] bn3b7_branch2c <- res3b7_branch2c
I0413 09:31:51.053519 27596 net.cpp:367] bn3b7_branch2c -> res3b7_branch2c (in-place)
I0413 09:31:51.053678 27596 net.cpp:122] Setting up bn3b7_branch2c
I0413 09:31:51.053683 27596 net.cpp:129] Top shape: 5 512 28 28 (2007040)
I0413 09:31:51.053684 27596 net.cpp:137] Memory required for data: 1122938900
I0413 09:31:51.053688 27596 layer_factory.hpp:77] Creating layer scale3b7_branch2c
I0413 09:31:51.053689 27596 net.cpp:84] Creating Layer scale3b7_branch2c
I0413 09:31:51.053691 27596 net.cpp:406] scale3b7_branch2c <- res3b7_branch2c
I0413 09:31:51.053694 27596 net.cpp:367] scale3b7_branch2c -> res3b7_branch2c (in-place)
I0413 09:31:51.053722 27596 layer_factory.hpp:77] Creating layer scale3b7_branch2c
I0413 09:31:51.053805 27596 net.cpp:122] Setting up scale3b7_branch2c
I0413 09:31:51.053808 27596 net.cpp:129] Top shape: 5 512 28 28 (2007040)
I0413 09:31:51.053810 27596 net.cpp:137] Memory required for data: 1130967060
I0413 09:31:51.053812 27596 layer_factory.hpp:77] Creating layer res3b7
I0413 09:31:51.053817 27596 net.cpp:84] Creating Layer res3b7
I0413 09:31:51.053818 27596 net.cpp:406] res3b7 <- res3b6_res3b6_relu_0_split_1
I0413 09:31:51.053820 27596 net.cpp:406] res3b7 <- res3b7_branch2c
I0413 09:31:51.053823 27596 net.cpp:380] res3b7 -> res3b7
I0413 09:31:51.053840 27596 net.cpp:122] Setting up res3b7
I0413 09:31:51.053843 27596 net.cpp:129] Top shape: 5 512 28 28 (2007040)
I0413 09:31:51.053844 27596 net.cpp:137] Memory required for data: 1138995220
I0413 09:31:51.053846 27596 layer_factory.hpp:77] Creating layer res3b7_relu
I0413 09:31:51.053848 27596 net.cpp:84] Creating Layer res3b7_relu
I0413 09:31:51.053850 27596 net.cpp:406] res3b7_relu <- res3b7
I0413 09:31:51.053853 27596 net.cpp:367] res3b7_relu -> res3b7 (in-place)
I0413 09:31:51.054270 27596 net.cpp:122] Setting up res3b7_relu
I0413 09:31:51.054275 27596 net.cpp:129] Top shape: 5 512 28 28 (2007040)
I0413 09:31:51.054277 27596 net.cpp:137] Memory required for data: 1147023380
I0413 09:31:51.054280 27596 layer_factory.hpp:77] Creating layer res3b7_res3b7_relu_0_split
I0413 09:31:51.054282 27596 net.cpp:84] Creating Layer res3b7_res3b7_relu_0_split
I0413 09:31:51.054285 27596 net.cpp:406] res3b7_res3b7_relu_0_split <- res3b7
I0413 09:31:51.054287 27596 net.cpp:380] res3b7_res3b7_relu_0_split -> res3b7_res3b7_relu_0_split_0
I0413 09:31:51.054291 27596 net.cpp:380] res3b7_res3b7_relu_0_split -> res3b7_res3b7_relu_0_split_1
I0413 09:31:51.054323 27596 net.cpp:122] Setting up res3b7_res3b7_relu_0_split
I0413 09:31:51.054327 27596 net.cpp:129] Top shape: 5 512 28 28 (2007040)
I0413 09:31:51.054328 27596 net.cpp:129] Top shape: 5 512 28 28 (2007040)
I0413 09:31:51.054330 27596 net.cpp:137] Memory required for data: 1163079700
I0413 09:31:51.054332 27596 layer_factory.hpp:77] Creating layer res4a_branch1
I0413 09:31:51.054337 27596 net.cpp:84] Creating Layer res4a_branch1
I0413 09:31:51.054338 27596 net.cpp:406] res4a_branch1 <- res3b7_res3b7_relu_0_split_0
I0413 09:31:51.054342 27596 net.cpp:380] res4a_branch1 -> res4a_branch1
I0413 09:31:51.059406 27596 net.cpp:122] Setting up res4a_branch1
I0413 09:31:51.059417 27596 net.cpp:129] Top shape: 5 1024 14 14 (1003520)
I0413 09:31:51.059418 27596 net.cpp:137] Memory required for data: 1167093780
I0413 09:31:51.059422 27596 layer_factory.hpp:77] Creating layer bn4a_branch1
I0413 09:31:51.059428 27596 net.cpp:84] Creating Layer bn4a_branch1
I0413 09:31:51.059430 27596 net.cpp:406] bn4a_branch1 <- res4a_branch1
I0413 09:31:51.059433 27596 net.cpp:367] bn4a_branch1 -> res4a_branch1 (in-place)
I0413 09:31:51.059602 27596 net.cpp:122] Setting up bn4a_branch1
I0413 09:31:51.059605 27596 net.cpp:129] Top shape: 5 1024 14 14 (1003520)
I0413 09:31:51.059607 27596 net.cpp:137] Memory required for data: 1171107860
I0413 09:31:51.059610 27596 layer_factory.hpp:77] Creating layer scale4a_branch1
I0413 09:31:51.059612 27596 net.cpp:84] Creating Layer scale4a_branch1
I0413 09:31:51.059614 27596 net.cpp:406] scale4a_branch1 <- res4a_branch1
I0413 09:31:51.059623 27596 net.cpp:367] scale4a_branch1 -> res4a_branch1 (in-place)
I0413 09:31:51.059653 27596 layer_factory.hpp:77] Creating layer scale4a_branch1
I0413 09:31:51.059741 27596 net.cpp:122] Setting up scale4a_branch1
I0413 09:31:51.059744 27596 net.cpp:129] Top shape: 5 1024 14 14 (1003520)
I0413 09:31:51.059746 27596 net.cpp:137] Memory required for data: 1175121940
I0413 09:31:51.059748 27596 layer_factory.hpp:77] Creating layer res4a_branch2a
I0413 09:31:51.059753 27596 net.cpp:84] Creating Layer res4a_branch2a
I0413 09:31:51.059756 27596 net.cpp:406] res4a_branch2a <- res3b7_res3b7_relu_0_split_1
I0413 09:31:51.059757 27596 net.cpp:380] res4a_branch2a -> res4a_branch2a
I0413 09:31:51.062191 27596 net.cpp:122] Setting up res4a_branch2a
I0413 09:31:51.062199 27596 net.cpp:129] Top shape: 5 256 14 14 (250880)
I0413 09:31:51.062201 27596 net.cpp:137] Memory required for data: 1176125460
I0413 09:31:51.062204 27596 layer_factory.hpp:77] Creating layer bn4a_branch2a
I0413 09:31:51.062208 27596 net.cpp:84] Creating Layer bn4a_branch2a
I0413 09:31:51.062211 27596 net.cpp:406] bn4a_branch2a <- res4a_branch2a
I0413 09:31:51.062213 27596 net.cpp:367] bn4a_branch2a -> res4a_branch2a (in-place)
I0413 09:31:51.062371 27596 net.cpp:122] Setting up bn4a_branch2a
I0413 09:31:51.062374 27596 net.cpp:129] Top shape: 5 256 14 14 (250880)
I0413 09:31:51.062376 27596 net.cpp:137] Memory required for data: 1177128980
I0413 09:31:51.062378 27596 layer_factory.hpp:77] Creating layer scale4a_branch2a
I0413 09:31:51.062382 27596 net.cpp:84] Creating Layer scale4a_branch2a
I0413 09:31:51.062384 27596 net.cpp:406] scale4a_branch2a <- res4a_branch2a
I0413 09:31:51.062386 27596 net.cpp:367] scale4a_branch2a -> res4a_branch2a (in-place)
I0413 09:31:51.062415 27596 layer_factory.hpp:77] Creating layer scale4a_branch2a
I0413 09:31:51.062501 27596 net.cpp:122] Setting up scale4a_branch2a
I0413 09:31:51.062505 27596 net.cpp:129] Top shape: 5 256 14 14 (250880)
I0413 09:31:51.062506 27596 net.cpp:137] Memory required for data: 1178132500
I0413 09:31:51.062510 27596 layer_factory.hpp:77] Creating layer res4a_branch2a_relu
I0413 09:31:51.062512 27596 net.cpp:84] Creating Layer res4a_branch2a_relu
I0413 09:31:51.062515 27596 net.cpp:406] res4a_branch2a_relu <- res4a_branch2a
I0413 09:31:51.062516 27596 net.cpp:367] res4a_branch2a_relu -> res4a_branch2a (in-place)
I0413 09:31:51.063060 27596 net.cpp:122] Setting up res4a_branch2a_relu
I0413 09:31:51.063066 27596 net.cpp:129] Top shape: 5 256 14 14 (250880)
I0413 09:31:51.063067 27596 net.cpp:137] Memory required for data: 1179136020
I0413 09:31:51.063069 27596 layer_factory.hpp:77] Creating layer res4a_branch2b
I0413 09:31:51.063073 27596 net.cpp:84] Creating Layer res4a_branch2b
I0413 09:31:51.063076 27596 net.cpp:406] res4a_branch2b <- res4a_branch2a
I0413 09:31:51.063078 27596 net.cpp:380] res4a_branch2b -> res4a_branch2b
I0413 09:31:51.068984 27596 net.cpp:122] Setting up res4a_branch2b
I0413 09:31:51.068998 27596 net.cpp:129] Top shape: 5 256 14 14 (250880)
I0413 09:31:51.069001 27596 net.cpp:137] Memory required for data: 1180139540
I0413 09:31:51.069007 27596 layer_factory.hpp:77] Creating layer bn4a_branch2b
I0413 09:31:51.069015 27596 net.cpp:84] Creating Layer bn4a_branch2b
I0413 09:31:51.069018 27596 net.cpp:406] bn4a_branch2b <- res4a_branch2b
I0413 09:31:51.069023 27596 net.cpp:367] bn4a_branch2b -> res4a_branch2b (in-place)
I0413 09:31:51.069277 27596 net.cpp:122] Setting up bn4a_branch2b
I0413 09:31:51.069283 27596 net.cpp:129] Top shape: 5 256 14 14 (250880)
I0413 09:31:51.069284 27596 net.cpp:137] Memory required for data: 1181143060
I0413 09:31:51.069288 27596 layer_factory.hpp:77] Creating layer scale4a_branch2b
I0413 09:31:51.069291 27596 net.cpp:84] Creating Layer scale4a_branch2b
I0413 09:31:51.069293 27596 net.cpp:406] scale4a_branch2b <- res4a_branch2b
I0413 09:31:51.069296 27596 net.cpp:367] scale4a_branch2b -> res4a_branch2b (in-place)
I0413 09:31:51.069331 27596 layer_factory.hpp:77] Creating layer scale4a_branch2b
I0413 09:31:51.069432 27596 net.cpp:122] Setting up scale4a_branch2b
I0413 09:31:51.069437 27596 net.cpp:129] Top shape: 5 256 14 14 (250880)
I0413 09:31:51.069438 27596 net.cpp:137] Memory required for data: 1182146580
I0413 09:31:51.069442 27596 layer_factory.hpp:77] Creating layer res4a_branch2b_relu
I0413 09:31:51.069445 27596 net.cpp:84] Creating Layer res4a_branch2b_relu
I0413 09:31:51.069447 27596 net.cpp:406] res4a_branch2b_relu <- res4a_branch2b
I0413 09:31:51.069449 27596 net.cpp:367] res4a_branch2b_relu -> res4a_branch2b (in-place)
I0413 09:31:51.069973 27596 net.cpp:122] Setting up res4a_branch2b_relu
I0413 09:31:51.069980 27596 net.cpp:129] Top shape: 5 256 14 14 (250880)
I0413 09:31:51.069983 27596 net.cpp:137] Memory required for data: 1183150100
I0413 09:31:51.069983 27596 layer_factory.hpp:77] Creating layer res4a_branch2c
I0413 09:31:51.069989 27596 net.cpp:84] Creating Layer res4a_branch2c
I0413 09:31:51.069991 27596 net.cpp:406] res4a_branch2c <- res4a_branch2b
I0413 09:31:51.069994 27596 net.cpp:380] res4a_branch2c -> res4a_branch2c
I0413 09:31:51.073817 27596 net.cpp:122] Setting up res4a_branch2c
I0413 09:31:51.073828 27596 net.cpp:129] Top shape: 5 1024 14 14 (1003520)
I0413 09:31:51.073830 27596 net.cpp:137] Memory required for data: 1187164180
I0413 09:31:51.073834 27596 layer_factory.hpp:77] Creating layer bn4a_branch2c
I0413 09:31:51.073838 27596 net.cpp:84] Creating Layer bn4a_branch2c
I0413 09:31:51.073842 27596 net.cpp:406] bn4a_branch2c <- res4a_branch2c
I0413 09:31:51.073845 27596 net.cpp:367] bn4a_branch2c -> res4a_branch2c (in-place)
I0413 09:31:51.074017 27596 net.cpp:122] Setting up bn4a_branch2c
I0413 09:31:51.074021 27596 net.cpp:129] Top shape: 5 1024 14 14 (1003520)
I0413 09:31:51.074023 27596 net.cpp:137] Memory required for data: 1191178260
I0413 09:31:51.074026 27596 layer_factory.hpp:77] Creating layer scale4a_branch2c
I0413 09:31:51.074033 27596 net.cpp:84] Creating Layer scale4a_branch2c
I0413 09:31:51.074035 27596 net.cpp:406] scale4a_branch2c <- res4a_branch2c
I0413 09:31:51.074038 27596 net.cpp:367] scale4a_branch2c -> res4a_branch2c (in-place)
I0413 09:31:51.074074 27596 layer_factory.hpp:77] Creating layer scale4a_branch2c
I0413 09:31:51.074172 27596 net.cpp:122] Setting up scale4a_branch2c
I0413 09:31:51.074177 27596 net.cpp:129] Top shape: 5 1024 14 14 (1003520)
I0413 09:31:51.074178 27596 net.cpp:137] Memory required for data: 1195192340
I0413 09:31:51.074182 27596 layer_factory.hpp:77] Creating layer res4a
I0413 09:31:51.074185 27596 net.cpp:84] Creating Layer res4a
I0413 09:31:51.074187 27596 net.cpp:406] res4a <- res4a_branch1
I0413 09:31:51.074189 27596 net.cpp:406] res4a <- res4a_branch2c
I0413 09:31:51.074193 27596 net.cpp:380] res4a -> res4a
I0413 09:31:51.074209 27596 net.cpp:122] Setting up res4a
I0413 09:31:51.074211 27596 net.cpp:129] Top shape: 5 1024 14 14 (1003520)
I0413 09:31:51.074213 27596 net.cpp:137] Memory required for data: 1199206420
I0413 09:31:51.074214 27596 layer_factory.hpp:77] Creating layer res4a_relu
I0413 09:31:51.074218 27596 net.cpp:84] Creating Layer res4a_relu
I0413 09:31:51.074220 27596 net.cpp:406] res4a_relu <- res4a
I0413 09:31:51.074223 27596 net.cpp:367] res4a_relu -> res4a (in-place)
I0413 09:31:51.074745 27596 net.cpp:122] Setting up res4a_relu
I0413 09:31:51.074751 27596 net.cpp:129] Top shape: 5 1024 14 14 (1003520)
I0413 09:31:51.074753 27596 net.cpp:137] Memory required for data: 1203220500
I0413 09:31:51.074755 27596 layer_factory.hpp:77] Creating layer res4a_res4a_relu_0_split
I0413 09:31:51.074759 27596 net.cpp:84] Creating Layer res4a_res4a_relu_0_split
I0413 09:31:51.074760 27596 net.cpp:406] res4a_res4a_relu_0_split <- res4a
I0413 09:31:51.074764 27596 net.cpp:380] res4a_res4a_relu_0_split -> res4a_res4a_relu_0_split_0
I0413 09:31:51.074769 27596 net.cpp:380] res4a_res4a_relu_0_split -> res4a_res4a_relu_0_split_1
I0413 09:31:51.074801 27596 net.cpp:122] Setting up res4a_res4a_relu_0_split
I0413 09:31:51.074805 27596 net.cpp:129] Top shape: 5 1024 14 14 (1003520)
I0413 09:31:51.074806 27596 net.cpp:129] Top shape: 5 1024 14 14 (1003520)
I0413 09:31:51.074813 27596 net.cpp:137] Memory required for data: 1211248660
I0413 09:31:51.074815 27596 layer_factory.hpp:77] Creating layer res4b1_branch2a
I0413 09:31:51.074820 27596 net.cpp:84] Creating Layer res4b1_branch2a
I0413 09:31:51.074822 27596 net.cpp:406] res4b1_branch2a <- res4a_res4a_relu_0_split_0
I0413 09:31:51.074826 27596 net.cpp:380] res4b1_branch2a -> res4b1_branch2a
I0413 09:31:51.077931 27596 net.cpp:122] Setting up res4b1_branch2a
I0413 09:31:51.077939 27596 net.cpp:129] Top shape: 5 256 14 14 (250880)
I0413 09:31:51.077940 27596 net.cpp:137] Memory required for data: 1212252180
I0413 09:31:51.077944 27596 layer_factory.hpp:77] Creating layer bn4b1_branch2a
I0413 09:31:51.077947 27596 net.cpp:84] Creating Layer bn4b1_branch2a
I0413 09:31:51.077950 27596 net.cpp:406] bn4b1_branch2a <- res4b1_branch2a
I0413 09:31:51.077952 27596 net.cpp:367] bn4b1_branch2a -> res4b1_branch2a (in-place)
I0413 09:31:51.078126 27596 net.cpp:122] Setting up bn4b1_branch2a
I0413 09:31:51.078130 27596 net.cpp:129] Top shape: 5 256 14 14 (250880)
I0413 09:31:51.078132 27596 net.cpp:137] Memory required for data: 1213255700
I0413 09:31:51.078135 27596 layer_factory.hpp:77] Creating layer scale4b1_branch2a
I0413 09:31:51.078138 27596 net.cpp:84] Creating Layer scale4b1_branch2a
I0413 09:31:51.078140 27596 net.cpp:406] scale4b1_branch2a <- res4b1_branch2a
I0413 09:31:51.078142 27596 net.cpp:367] scale4b1_branch2a -> res4b1_branch2a (in-place)
I0413 09:31:51.078173 27596 layer_factory.hpp:77] Creating layer scale4b1_branch2a
I0413 09:31:51.078266 27596 net.cpp:122] Setting up scale4b1_branch2a
I0413 09:31:51.078270 27596 net.cpp:129] Top shape: 5 256 14 14 (250880)
I0413 09:31:51.078272 27596 net.cpp:137] Memory required for data: 1214259220
I0413 09:31:51.078275 27596 layer_factory.hpp:77] Creating layer res4b1_branch2a_relu
I0413 09:31:51.078279 27596 net.cpp:84] Creating Layer res4b1_branch2a_relu
I0413 09:31:51.078281 27596 net.cpp:406] res4b1_branch2a_relu <- res4b1_branch2a
I0413 09:31:51.078284 27596 net.cpp:367] res4b1_branch2a_relu -> res4b1_branch2a (in-place)
I0413 09:31:51.078681 27596 net.cpp:122] Setting up res4b1_branch2a_relu
I0413 09:31:51.078686 27596 net.cpp:129] Top shape: 5 256 14 14 (250880)
I0413 09:31:51.078688 27596 net.cpp:137] Memory required for data: 1215262740
I0413 09:31:51.078689 27596 layer_factory.hpp:77] Creating layer res4b1_branch2b
I0413 09:31:51.078693 27596 net.cpp:84] Creating Layer res4b1_branch2b
I0413 09:31:51.078696 27596 net.cpp:406] res4b1_branch2b <- res4b1_branch2a
I0413 09:31:51.078699 27596 net.cpp:380] res4b1_branch2b -> res4b1_branch2b
I0413 09:31:51.084431 27596 net.cpp:122] Setting up res4b1_branch2b
I0413 09:31:51.084440 27596 net.cpp:129] Top shape: 5 256 14 14 (250880)
I0413 09:31:51.084442 27596 net.cpp:137] Memory required for data: 1216266260
I0413 09:31:51.084446 27596 layer_factory.hpp:77] Creating layer bn4b1_branch2b
I0413 09:31:51.084452 27596 net.cpp:84] Creating Layer bn4b1_branch2b
I0413 09:31:51.084455 27596 net.cpp:406] bn4b1_branch2b <- res4b1_branch2b
I0413 09:31:51.084457 27596 net.cpp:367] bn4b1_branch2b -> res4b1_branch2b (in-place)
I0413 09:31:51.084623 27596 net.cpp:122] Setting up bn4b1_branch2b
I0413 09:31:51.084627 27596 net.cpp:129] Top shape: 5 256 14 14 (250880)
I0413 09:31:51.084628 27596 net.cpp:137] Memory required for data: 1217269780
I0413 09:31:51.084631 27596 layer_factory.hpp:77] Creating layer scale4b1_branch2b
I0413 09:31:51.084635 27596 net.cpp:84] Creating Layer scale4b1_branch2b
I0413 09:31:51.084636 27596 net.cpp:406] scale4b1_branch2b <- res4b1_branch2b
I0413 09:31:51.084638 27596 net.cpp:367] scale4b1_branch2b -> res4b1_branch2b (in-place)
I0413 09:31:51.084671 27596 layer_factory.hpp:77] Creating layer scale4b1_branch2b
I0413 09:31:51.084756 27596 net.cpp:122] Setting up scale4b1_branch2b
I0413 09:31:51.084760 27596 net.cpp:129] Top shape: 5 256 14 14 (250880)
I0413 09:31:51.084761 27596 net.cpp:137] Memory required for data: 1218273300
I0413 09:31:51.084764 27596 layer_factory.hpp:77] Creating layer res4b1_branch2b_relu
I0413 09:31:51.084774 27596 net.cpp:84] Creating Layer res4b1_branch2b_relu
I0413 09:31:51.084775 27596 net.cpp:406] res4b1_branch2b_relu <- res4b1_branch2b
I0413 09:31:51.084777 27596 net.cpp:367] res4b1_branch2b_relu -> res4b1_branch2b (in-place)
I0413 09:31:51.085188 27596 net.cpp:122] Setting up res4b1_branch2b_relu
I0413 09:31:51.085193 27596 net.cpp:129] Top shape: 5 256 14 14 (250880)
I0413 09:31:51.085196 27596 net.cpp:137] Memory required for data: 1219276820
I0413 09:31:51.085197 27596 layer_factory.hpp:77] Creating layer res4b1_branch2c
I0413 09:31:51.085201 27596 net.cpp:84] Creating Layer res4b1_branch2c
I0413 09:31:51.085203 27596 net.cpp:406] res4b1_branch2c <- res4b1_branch2b
I0413 09:31:51.085206 27596 net.cpp:380] res4b1_branch2c -> res4b1_branch2c
I0413 09:31:51.088927 27596 net.cpp:122] Setting up res4b1_branch2c
I0413 09:31:51.088937 27596 net.cpp:129] Top shape: 5 1024 14 14 (1003520)
I0413 09:31:51.088938 27596 net.cpp:137] Memory required for data: 1223290900
I0413 09:31:51.088943 27596 layer_factory.hpp:77] Creating layer bn4b1_branch2c
I0413 09:31:51.088948 27596 net.cpp:84] Creating Layer bn4b1_branch2c
I0413 09:31:51.088950 27596 net.cpp:406] bn4b1_branch2c <- res4b1_branch2c
I0413 09:31:51.088953 27596 net.cpp:367] bn4b1_branch2c -> res4b1_branch2c (in-place)
I0413 09:31:51.089134 27596 net.cpp:122] Setting up bn4b1_branch2c
I0413 09:31:51.089140 27596 net.cpp:129] Top shape: 5 1024 14 14 (1003520)
I0413 09:31:51.089141 27596 net.cpp:137] Memory required for data: 1227304980
I0413 09:31:51.089145 27596 layer_factory.hpp:77] Creating layer scale4b1_branch2c
I0413 09:31:51.089148 27596 net.cpp:84] Creating Layer scale4b1_branch2c
I0413 09:31:51.089150 27596 net.cpp:406] scale4b1_branch2c <- res4b1_branch2c
I0413 09:31:51.089154 27596 net.cpp:367] scale4b1_branch2c -> res4b1_branch2c (in-place)
I0413 09:31:51.089184 27596 layer_factory.hpp:77] Creating layer scale4b1_branch2c
I0413 09:31:51.089277 27596 net.cpp:122] Setting up scale4b1_branch2c
I0413 09:31:51.089280 27596 net.cpp:129] Top shape: 5 1024 14 14 (1003520)
I0413 09:31:51.089282 27596 net.cpp:137] Memory required for data: 1231319060
I0413 09:31:51.089293 27596 layer_factory.hpp:77] Creating layer res4b1
I0413 09:31:51.089296 27596 net.cpp:84] Creating Layer res4b1
I0413 09:31:51.089298 27596 net.cpp:406] res4b1 <- res4a_res4a_relu_0_split_1
I0413 09:31:51.089300 27596 net.cpp:406] res4b1 <- res4b1_branch2c
I0413 09:31:51.089304 27596 net.cpp:380] res4b1 -> res4b1
I0413 09:31:51.089321 27596 net.cpp:122] Setting up res4b1
I0413 09:31:51.089324 27596 net.cpp:129] Top shape: 5 1024 14 14 (1003520)
I0413 09:31:51.089326 27596 net.cpp:137] Memory required for data: 1235333140
I0413 09:31:51.089329 27596 layer_factory.hpp:77] Creating layer res4b1_relu
I0413 09:31:51.089330 27596 net.cpp:84] Creating Layer res4b1_relu
I0413 09:31:51.089332 27596 net.cpp:406] res4b1_relu <- res4b1
I0413 09:31:51.089334 27596 net.cpp:367] res4b1_relu -> res4b1 (in-place)
I0413 09:31:51.089855 27596 net.cpp:122] Setting up res4b1_relu
I0413 09:31:51.089862 27596 net.cpp:129] Top shape: 5 1024 14 14 (1003520)
I0413 09:31:51.089864 27596 net.cpp:137] Memory required for data: 1239347220
I0413 09:31:51.089865 27596 layer_factory.hpp:77] Creating layer res4b1_res4b1_relu_0_split
I0413 09:31:51.089869 27596 net.cpp:84] Creating Layer res4b1_res4b1_relu_0_split
I0413 09:31:51.089871 27596 net.cpp:406] res4b1_res4b1_relu_0_split <- res4b1
I0413 09:31:51.089874 27596 net.cpp:380] res4b1_res4b1_relu_0_split -> res4b1_res4b1_relu_0_split_0
I0413 09:31:51.089879 27596 net.cpp:380] res4b1_res4b1_relu_0_split -> res4b1_res4b1_relu_0_split_1
I0413 09:31:51.089911 27596 net.cpp:122] Setting up res4b1_res4b1_relu_0_split
I0413 09:31:51.089915 27596 net.cpp:129] Top shape: 5 1024 14 14 (1003520)
I0413 09:31:51.089917 27596 net.cpp:129] Top shape: 5 1024 14 14 (1003520)
I0413 09:31:51.089918 27596 net.cpp:137] Memory required for data: 1247375380
I0413 09:31:51.089920 27596 layer_factory.hpp:77] Creating layer res4b2_branch2a
I0413 09:31:51.089924 27596 net.cpp:84] Creating Layer res4b2_branch2a
I0413 09:31:51.089932 27596 net.cpp:406] res4b2_branch2a <- res4b1_res4b1_relu_0_split_0
I0413 09:31:51.089936 27596 net.cpp:380] res4b2_branch2a -> res4b2_branch2a
I0413 09:31:51.093104 27596 net.cpp:122] Setting up res4b2_branch2a
I0413 09:31:51.093111 27596 net.cpp:129] Top shape: 5 256 14 14 (250880)
I0413 09:31:51.093113 27596 net.cpp:137] Memory required for data: 1248378900
I0413 09:31:51.093116 27596 layer_factory.hpp:77] Creating layer bn4b2_branch2a
I0413 09:31:51.093120 27596 net.cpp:84] Creating Layer bn4b2_branch2a
I0413 09:31:51.093122 27596 net.cpp:406] bn4b2_branch2a <- res4b2_branch2a
I0413 09:31:51.093127 27596 net.cpp:367] bn4b2_branch2a -> res4b2_branch2a (in-place)
I0413 09:31:51.093289 27596 net.cpp:122] Setting up bn4b2_branch2a
I0413 09:31:51.093293 27596 net.cpp:129] Top shape: 5 256 14 14 (250880)
I0413 09:31:51.093295 27596 net.cpp:137] Memory required for data: 1249382420
I0413 09:31:51.093298 27596 layer_factory.hpp:77] Creating layer scale4b2_branch2a
I0413 09:31:51.093302 27596 net.cpp:84] Creating Layer scale4b2_branch2a
I0413 09:31:51.093303 27596 net.cpp:406] scale4b2_branch2a <- res4b2_branch2a
I0413 09:31:51.093305 27596 net.cpp:367] scale4b2_branch2a -> res4b2_branch2a (in-place)
I0413 09:31:51.093338 27596 layer_factory.hpp:77] Creating layer scale4b2_branch2a
I0413 09:31:51.093426 27596 net.cpp:122] Setting up scale4b2_branch2a
I0413 09:31:51.093430 27596 net.cpp:129] Top shape: 5 256 14 14 (250880)
I0413 09:31:51.093431 27596 net.cpp:137] Memory required for data: 1250385940
I0413 09:31:51.093435 27596 layer_factory.hpp:77] Creating layer res4b2_branch2a_relu
I0413 09:31:51.093437 27596 net.cpp:84] Creating Layer res4b2_branch2a_relu
I0413 09:31:51.093439 27596 net.cpp:406] res4b2_branch2a_relu <- res4b2_branch2a
I0413 09:31:51.093441 27596 net.cpp:367] res4b2_branch2a_relu -> res4b2_branch2a (in-place)
I0413 09:31:51.093823 27596 net.cpp:122] Setting up res4b2_branch2a_relu
I0413 09:31:51.093828 27596 net.cpp:129] Top shape: 5 256 14 14 (250880)
I0413 09:31:51.093830 27596 net.cpp:137] Memory required for data: 1251389460
I0413 09:31:51.093832 27596 layer_factory.hpp:77] Creating layer res4b2_branch2b
I0413 09:31:51.093837 27596 net.cpp:84] Creating Layer res4b2_branch2b
I0413 09:31:51.093838 27596 net.cpp:406] res4b2_branch2b <- res4b2_branch2a
I0413 09:31:51.093840 27596 net.cpp:380] res4b2_branch2b -> res4b2_branch2b
I0413 09:31:51.099561 27596 net.cpp:122] Setting up res4b2_branch2b
I0413 09:31:51.099573 27596 net.cpp:129] Top shape: 5 256 14 14 (250880)
I0413 09:31:51.099575 27596 net.cpp:137] Memory required for data: 1252392980
I0413 09:31:51.099580 27596 layer_factory.hpp:77] Creating layer bn4b2_branch2b
I0413 09:31:51.099586 27596 net.cpp:84] Creating Layer bn4b2_branch2b
I0413 09:31:51.099587 27596 net.cpp:406] bn4b2_branch2b <- res4b2_branch2b
I0413 09:31:51.099591 27596 net.cpp:367] bn4b2_branch2b -> res4b2_branch2b (in-place)
I0413 09:31:51.099834 27596 net.cpp:122] Setting up bn4b2_branch2b
I0413 09:31:51.099841 27596 net.cpp:129] Top shape: 5 256 14 14 (250880)
I0413 09:31:51.099844 27596 net.cpp:137] Memory required for data: 1253396500
I0413 09:31:51.099849 27596 layer_factory.hpp:77] Creating layer scale4b2_branch2b
I0413 09:31:51.099853 27596 net.cpp:84] Creating Layer scale4b2_branch2b
I0413 09:31:51.099856 27596 net.cpp:406] scale4b2_branch2b <- res4b2_branch2b
I0413 09:31:51.099859 27596 net.cpp:367] scale4b2_branch2b -> res4b2_branch2b (in-place)
I0413 09:31:51.099910 27596 layer_factory.hpp:77] Creating layer scale4b2_branch2b
I0413 09:31:51.100047 27596 net.cpp:122] Setting up scale4b2_branch2b
I0413 09:31:51.100054 27596 net.cpp:129] Top shape: 5 256 14 14 (250880)
I0413 09:31:51.100055 27596 net.cpp:137] Memory required for data: 1254400020
I0413 09:31:51.100059 27596 layer_factory.hpp:77] Creating layer res4b2_branch2b_relu
I0413 09:31:51.100064 27596 net.cpp:84] Creating Layer res4b2_branch2b_relu
I0413 09:31:51.100067 27596 net.cpp:406] res4b2_branch2b_relu <- res4b2_branch2b
I0413 09:31:51.100070 27596 net.cpp:367] res4b2_branch2b_relu -> res4b2_branch2b (in-place)
I0413 09:31:51.100651 27596 net.cpp:122] Setting up res4b2_branch2b_relu
I0413 09:31:51.100657 27596 net.cpp:129] Top shape: 5 256 14 14 (250880)
I0413 09:31:51.100661 27596 net.cpp:137] Memory required for data: 1255403540
I0413 09:31:51.100663 27596 layer_factory.hpp:77] Creating layer res4b2_branch2c
I0413 09:31:51.100670 27596 net.cpp:84] Creating Layer res4b2_branch2c
I0413 09:31:51.100673 27596 net.cpp:406] res4b2_branch2c <- res4b2_branch2b
I0413 09:31:51.100678 27596 net.cpp:380] res4b2_branch2c -> res4b2_branch2c
I0413 09:31:51.104399 27596 net.cpp:122] Setting up res4b2_branch2c
I0413 09:31:51.104411 27596 net.cpp:129] Top shape: 5 1024 14 14 (1003520)
I0413 09:31:51.104413 27596 net.cpp:137] Memory required for data: 1259417620
I0413 09:31:51.104416 27596 layer_factory.hpp:77] Creating layer bn4b2_branch2c
I0413 09:31:51.104421 27596 net.cpp:84] Creating Layer bn4b2_branch2c
I0413 09:31:51.104424 27596 net.cpp:406] bn4b2_branch2c <- res4b2_branch2c
I0413 09:31:51.104427 27596 net.cpp:367] bn4b2_branch2c -> res4b2_branch2c (in-place)
I0413 09:31:51.104602 27596 net.cpp:122] Setting up bn4b2_branch2c
I0413 09:31:51.104606 27596 net.cpp:129] Top shape: 5 1024 14 14 (1003520)
I0413 09:31:51.104607 27596 net.cpp:137] Memory required for data: 1263431700
I0413 09:31:51.104611 27596 layer_factory.hpp:77] Creating layer scale4b2_branch2c
I0413 09:31:51.104614 27596 net.cpp:84] Creating Layer scale4b2_branch2c
I0413 09:31:51.104616 27596 net.cpp:406] scale4b2_branch2c <- res4b2_branch2c
I0413 09:31:51.104619 27596 net.cpp:367] scale4b2_branch2c -> res4b2_branch2c (in-place)
I0413 09:31:51.104650 27596 layer_factory.hpp:77] Creating layer scale4b2_branch2c
I0413 09:31:51.104745 27596 net.cpp:122] Setting up scale4b2_branch2c
I0413 09:31:51.104749 27596 net.cpp:129] Top shape: 5 1024 14 14 (1003520)
I0413 09:31:51.104750 27596 net.cpp:137] Memory required for data: 1267445780
I0413 09:31:51.104753 27596 layer_factory.hpp:77] Creating layer res4b2
I0413 09:31:51.104758 27596 net.cpp:84] Creating Layer res4b2
I0413 09:31:51.104759 27596 net.cpp:406] res4b2 <- res4b1_res4b1_relu_0_split_1
I0413 09:31:51.104761 27596 net.cpp:406] res4b2 <- res4b2_branch2c
I0413 09:31:51.104763 27596 net.cpp:380] res4b2 -> res4b2
I0413 09:31:51.104782 27596 net.cpp:122] Setting up res4b2
I0413 09:31:51.104785 27596 net.cpp:129] Top shape: 5 1024 14 14 (1003520)
I0413 09:31:51.104786 27596 net.cpp:137] Memory required for data: 1271459860
I0413 09:31:51.104789 27596 layer_factory.hpp:77] Creating layer res4b2_relu
I0413 09:31:51.104791 27596 net.cpp:84] Creating Layer res4b2_relu
I0413 09:31:51.104794 27596 net.cpp:406] res4b2_relu <- res4b2
I0413 09:31:51.104796 27596 net.cpp:367] res4b2_relu -> res4b2 (in-place)
I0413 09:31:51.105331 27596 net.cpp:122] Setting up res4b2_relu
I0413 09:31:51.105337 27596 net.cpp:129] Top shape: 5 1024 14 14 (1003520)
I0413 09:31:51.105340 27596 net.cpp:137] Memory required for data: 1275473940
I0413 09:31:51.105341 27596 layer_factory.hpp:77] Creating layer res4b2_res4b2_relu_0_split
I0413 09:31:51.105345 27596 net.cpp:84] Creating Layer res4b2_res4b2_relu_0_split
I0413 09:31:51.105346 27596 net.cpp:406] res4b2_res4b2_relu_0_split <- res4b2
I0413 09:31:51.105350 27596 net.cpp:380] res4b2_res4b2_relu_0_split -> res4b2_res4b2_relu_0_split_0
I0413 09:31:51.105355 27596 net.cpp:380] res4b2_res4b2_relu_0_split -> res4b2_res4b2_relu_0_split_1
I0413 09:31:51.105393 27596 net.cpp:122] Setting up res4b2_res4b2_relu_0_split
I0413 09:31:51.105398 27596 net.cpp:129] Top shape: 5 1024 14 14 (1003520)
I0413 09:31:51.105401 27596 net.cpp:129] Top shape: 5 1024 14 14 (1003520)
…
I0413 09:31:54.209319 27596 net.cpp:406] bn4b33_branch2a <- res4b33_branch2a
I0413 09:31:54.209322 27596 net.cpp:367] bn4b33_branch2a -> res4b33_branch2a (in-place)
I0413 09:31:54.209493 27596 net.cpp:122] Setting up bn4b33_branch2a
I0413 09:31:54.209498 27596 net.cpp:129] Top shape: 1 256 14 14 (50176)
I0413 09:31:54.209501 27596 net.cpp:137] Memory required for data: 473862160
I0413 09:31:54.209503 27596 layer_factory.hpp:77] Creating layer scale4b33_branch2a
I0413 09:31:54.209507 27596 net.cpp:84] Creating Layer scale4b33_branch2a
I0413 09:31:54.209509 27596 net.cpp:406] scale4b33_branch2a <- res4b33_branch2a
I0413 09:31:54.209511 27596 net.cpp:367] scale4b33_branch2a -> res4b33_branch2a (in-place)
I0413 09:31:54.209540 27596 layer_factory.hpp:77] Creating layer scale4b33_branch2a
I0413 09:31:54.209635 27596 net.cpp:122] Setting up scale4b33_branch2a
I0413 09:31:54.209640 27596 net.cpp:129] Top shape: 1 256 14 14 (50176)
I0413 09:31:54.209641 27596 net.cpp:137] Memory required for data: 474062864
I0413 09:31:54.209643 27596 layer_factory.hpp:77] Creating layer res4b33_branch2a_relu
I0413 09:31:54.209647 27596 net.cpp:84] Creating Layer res4b33_branch2a_relu
I0413 09:31:54.209650 27596 net.cpp:406] res4b33_branch2a_relu <- res4b33_branch2a
I0413 09:31:54.209651 27596 net.cpp:367] res4b33_branch2a_relu -> res4b33_branch2a (in-place)
I0413 09:31:54.210135 27596 net.cpp:122] Setting up res4b33_branch2a_relu
I0413 09:31:54.210141 27596 net.cpp:129] Top shape: 1 256 14 14 (50176)
I0413 09:31:54.210144 27596 net.cpp:137] Memory required for data: 474263568
I0413 09:31:54.210145 27596 layer_factory.hpp:77] Creating layer res4b33_branch2b
I0413 09:31:54.210150 27596 net.cpp:84] Creating Layer res4b33_branch2b
I0413 09:31:54.210152 27596 net.cpp:406] res4b33_branch2b <- res4b33_branch2a
I0413 09:31:54.210156 27596 net.cpp:380] res4b33_branch2b -> res4b33_branch2b
I0413 09:31:54.216228 27596 net.cpp:122] Setting up res4b33_branch2b
I0413 09:31:54.216238 27596 net.cpp:129] Top shape: 1 256 14 14 (50176)
I0413 09:31:54.216245 27596 net.cpp:137] Memory required for data: 474464272
I0413 09:31:54.216249 27596 layer_factory.hpp:77] Creating layer bn4b33_branch2b
I0413 09:31:54.216254 27596 net.cpp:84] Creating Layer bn4b33_branch2b
I0413 09:31:54.216258 27596 net.cpp:406] bn4b33_branch2b <- res4b33_branch2b
I0413 09:31:54.216259 27596 net.cpp:367] bn4b33_branch2b -> res4b33_branch2b (in-place)
I0413 09:31:54.216430 27596 net.cpp:122] Setting up bn4b33_branch2b
I0413 09:31:54.216435 27596 net.cpp:129] Top shape: 1 256 14 14 (50176)
I0413 09:31:54.216436 27596 net.cpp:137] Memory required for data: 474664976
I0413 09:31:54.216440 27596 layer_factory.hpp:77] Creating layer scale4b33_branch2b
I0413 09:31:54.216444 27596 net.cpp:84] Creating Layer scale4b33_branch2b
I0413 09:31:54.216445 27596 net.cpp:406] scale4b33_branch2b <- res4b33_branch2b
I0413 09:31:54.216449 27596 net.cpp:367] scale4b33_branch2b -> res4b33_branch2b (in-place)
I0413 09:31:54.216476 27596 layer_factory.hpp:77] Creating layer scale4b33_branch2b
I0413 09:31:54.216575 27596 net.cpp:122] Setting up scale4b33_branch2b
I0413 09:31:54.216579 27596 net.cpp:129] Top shape: 1 256 14 14 (50176)
I0413 09:31:54.216581 27596 net.cpp:137] Memory required for data: 474865680
I0413 09:31:54.216584 27596 layer_factory.hpp:77] Creating layer res4b33_branch2b_relu
I0413 09:31:54.216588 27596 net.cpp:84] Creating Layer res4b33_branch2b_relu
I0413 09:31:54.216589 27596 net.cpp:406] res4b33_branch2b_relu <- res4b33_branch2b
I0413 09:31:54.216591 27596 net.cpp:367] res4b33_branch2b_relu -> res4b33_branch2b (in-place)
I0413 09:31:54.217254 27596 net.cpp:122] Setting up res4b33_branch2b_relu
I0413 09:31:54.217260 27596 net.cpp:129] Top shape: 1 256 14 14 (50176)
I0413 09:31:54.217262 27596 net.cpp:137] Memory required for data: 475066384
I0413 09:31:54.217264 27596 layer_factory.hpp:77] Creating layer res4b33_branch2c
I0413 09:31:54.217270 27596 net.cpp:84] Creating Layer res4b33_branch2c
I0413 09:31:54.217272 27596 net.cpp:406] res4b33_branch2c <- res4b33_branch2b
I0413 09:31:54.217277 27596 net.cpp:380] res4b33_branch2c -> res4b33_branch2c
I0413 09:31:54.220679 27596 net.cpp:122] Setting up res4b33_branch2c
I0413 09:31:54.220687 27596 net.cpp:129] Top shape: 1 1024 14 14 (200704)
I0413 09:31:54.220690 27596 net.cpp:137] Memory required for data: 475869200
I0413 09:31:54.220692 27596 layer_factory.hpp:77] Creating layer bn4b33_branch2c
I0413 09:31:54.220697 27596 net.cpp:84] Creating Layer bn4b33_branch2c
I0413 09:31:54.220700 27596 net.cpp:406] bn4b33_branch2c <- res4b33_branch2c
I0413 09:31:54.220702 27596 net.cpp:367] bn4b33_branch2c -> res4b33_branch2c (in-place)
I0413 09:31:54.220926 27596 net.cpp:122] Setting up bn4b33_branch2c
I0413 09:31:54.220929 27596 net.cpp:129] Top shape: 1 1024 14 14 (200704)
I0413 09:31:54.220932 27596 net.cpp:137] Memory required for data: 476672016
I0413 09:31:54.220934 27596 layer_factory.hpp:77] Creating layer scale4b33_branch2c
I0413 09:31:54.220938 27596 net.cpp:84] Creating Layer scale4b33_branch2c
I0413 09:31:54.220940 27596 net.cpp:406] scale4b33_branch2c <- res4b33_branch2c
I0413 09:31:54.220943 27596 net.cpp:367] scale4b33_branch2c -> res4b33_branch2c (in-place)
I0413 09:31:54.220996 27596 layer_factory.hpp:77] Creating layer scale4b33_branch2c
I0413 09:31:54.221130 27596 net.cpp:122] Setting up scale4b33_branch2c
I0413 09:31:54.221135 27596 net.cpp:129] Top shape: 1 1024 14 14 (200704)
I0413 09:31:54.221137 27596 net.cpp:137] Memory required for data: 477474832
I0413 09:31:54.221139 27596 layer_factory.hpp:77] Creating layer res4b33
I0413 09:31:54.221143 27596 net.cpp:84] Creating Layer res4b33
I0413 09:31:54.221146 27596 net.cpp:406] res4b33 <- res4b32_res4b32_relu_0_split_1
I0413 09:31:54.221148 27596 net.cpp:406] res4b33 <- res4b33_branch2c
I0413 09:31:54.221150 27596 net.cpp:380] res4b33 -> res4b33
I0413 09:31:54.221168 27596 net.cpp:122] Setting up res4b33
I0413 09:31:54.221170 27596 net.cpp:129] Top shape: 1 1024 14 14 (200704)
I0413 09:31:54.221173 27596 net.cpp:137] Memory required for data: 478277648
I0413 09:31:54.221181 27596 layer_factory.hpp:77] Creating layer res4b33_relu
I0413 09:31:54.221185 27596 net.cpp:84] Creating Layer res4b33_relu
I0413 09:31:54.221189 27596 net.cpp:406] res4b33_relu <- res4b33
I0413 09:31:54.221190 27596 net.cpp:367] res4b33_relu -> res4b33 (in-place)
I0413 09:31:54.221832 27596 net.cpp:122] Setting up res4b33_relu
I0413 09:31:54.221838 27596 net.cpp:129] Top shape: 1 1024 14 14 (200704)
I0413 09:31:54.221840 27596 net.cpp:137] Memory required for data: 479080464
I0413 09:31:54.221843 27596 layer_factory.hpp:77] Creating layer res4b33_res4b33_relu_0_split
I0413 09:31:54.221846 27596 net.cpp:84] Creating Layer res4b33_res4b33_relu_0_split
I0413 09:31:54.221848 27596 net.cpp:406] res4b33_res4b33_relu_0_split <- res4b33
I0413 09:31:54.221851 27596 net.cpp:380] res4b33_res4b33_relu_0_split -> res4b33_res4b33_relu_0_split_0
I0413 09:31:54.221855 27596 net.cpp:380] res4b33_res4b33_relu_0_split -> res4b33_res4b33_relu_0_split_1
I0413 09:31:54.221889 27596 net.cpp:122] Setting up res4b33_res4b33_relu_0_split
I0413 09:31:54.221892 27596 net.cpp:129] Top shape: 1 1024 14 14 (200704)
I0413 09:31:54.221894 27596 net.cpp:129] Top shape: 1 1024 14 14 (200704)
I0413 09:31:54.221896 27596 net.cpp:137] Memory required for data: 480686096
I0413 09:31:54.221899 27596 layer_factory.hpp:77] Creating layer res4b34_branch2a
I0413 09:31:54.221905 27596 net.cpp:84] Creating Layer res4b34_branch2a
I0413 09:31:54.221907 27596 net.cpp:406] res4b34_branch2a <- res4b33_res4b33_relu_0_split_0
I0413 09:31:54.221912 27596 net.cpp:380] res4b34_branch2a -> res4b34_branch2a
I0413 09:31:54.226050 27596 net.cpp:122] Setting up res4b34_branch2a
I0413 09:31:54.226065 27596 net.cpp:129] Top shape: 1 256 14 14 (50176)
I0413 09:31:54.226068 27596 net.cpp:137] Memory required for data: 480886800
I0413 09:31:54.226071 27596 layer_factory.hpp:77] Creating layer bn4b34_branch2a
I0413 09:31:54.226078 27596 net.cpp:84] Creating Layer bn4b34_branch2a
I0413 09:31:54.226081 27596 net.cpp:406] bn4b34_branch2a <- res4b34_branch2a
I0413 09:31:54.226084 27596 net.cpp:367] bn4b34_branch2a -> res4b34_branch2a (in-place)
I0413 09:31:54.226263 27596 net.cpp:122] Setting up bn4b34_branch2a
I0413 09:31:54.226267 27596 net.cpp:129] Top shape: 1 256 14 14 (50176)
I0413 09:31:54.226269 27596 net.cpp:137] Memory required for data: 481087504
I0413 09:31:54.226272 27596 layer_factory.hpp:77] Creating layer scale4b34_branch2a
I0413 09:31:54.226276 27596 net.cpp:84] Creating Layer scale4b34_branch2a
I0413 09:31:54.226279 27596 net.cpp:406] scale4b34_branch2a <- res4b34_branch2a
I0413 09:31:54.226281 27596 net.cpp:367] scale4b34_branch2a -> res4b34_branch2a (in-place)
I0413 09:31:54.226310 27596 layer_factory.hpp:77] Creating layer scale4b34_branch2a
I0413 09:31:54.226405 27596 net.cpp:122] Setting up scale4b34_branch2a
I0413 09:31:54.226409 27596 net.cpp:129] Top shape: 1 256 14 14 (50176)
I0413 09:31:54.226411 27596 net.cpp:137] Memory required for data: 481288208
I0413 09:31:54.226414 27596 layer_factory.hpp:77] Creating layer res4b34_branch2a_relu
I0413 09:31:54.226416 27596 net.cpp:84] Creating Layer res4b34_branch2a_relu
I0413 09:31:54.226418 27596 net.cpp:406] res4b34_branch2a_relu <- res4b34_branch2a
I0413 09:31:54.226421 27596 net.cpp:367] res4b34_branch2a_relu -> res4b34_branch2a (in-place)
I0413 09:31:54.226904 27596 net.cpp:122] Setting up res4b34_branch2a_relu
I0413 09:31:54.226910 27596 net.cpp:129] Top shape: 1 256 14 14 (50176)
I0413 09:31:54.226912 27596 net.cpp:137] Memory required for data: 481488912
I0413 09:31:54.226914 27596 layer_factory.hpp:77] Creating layer res4b34_branch2b
I0413 09:31:54.226918 27596 net.cpp:84] Creating Layer res4b34_branch2b
I0413 09:31:54.226922 27596 net.cpp:406] res4b34_branch2b <- res4b34_branch2a
I0413 09:31:54.226925 27596 net.cpp:380] res4b34_branch2b -> res4b34_branch2b
I0413 09:31:54.233108 27596 net.cpp:122] Setting up res4b34_branch2b
I0413 09:31:54.233119 27596 net.cpp:129] Top shape: 1 256 14 14 (50176)
I0413 09:31:54.233120 27596 net.cpp:137] Memory required for data: 481689616
I0413 09:31:54.233129 27596 layer_factory.hpp:77] Creating layer bn4b34_branch2b
I0413 09:31:54.233135 27596 net.cpp:84] Creating Layer bn4b34_branch2b
I0413 09:31:54.233139 27596 net.cpp:406] bn4b34_branch2b <- res4b34_branch2b
I0413 09:31:54.233140 27596 net.cpp:367] bn4b34_branch2b -> res4b34_branch2b (in-place)
I0413 09:31:54.233315 27596 net.cpp:122] Setting up bn4b34_branch2b
I0413 09:31:54.233319 27596 net.cpp:129] Top shape: 1 256 14 14 (50176)
I0413 09:31:54.233321 27596 net.cpp:137] Memory required for data: 481890320
I0413 09:31:54.233325 27596 layer_factory.hpp:77] Creating layer scale4b34_branch2b
I0413 09:31:54.233327 27596 net.cpp:84] Creating Layer scale4b34_branch2b
I0413 09:31:54.233330 27596 net.cpp:406] scale4b34_branch2b <- res4b34_branch2b
I0413 09:31:54.233332 27596 net.cpp:367] scale4b34_branch2b -> res4b34_branch2b (in-place)
I0413 09:31:54.233361 27596 layer_factory.hpp:77] Creating layer scale4b34_branch2b
I0413 09:31:54.233459 27596 net.cpp:122] Setting up scale4b34_branch2b
I0413 09:31:54.233464 27596 net.cpp:129] Top shape: 1 256 14 14 (50176)
I0413 09:31:54.233465 27596 net.cpp:137] Memory required for data: 482091024
I0413 09:31:54.233469 27596 layer_factory.hpp:77] Creating layer res4b34_branch2b_relu
I0413 09:31:54.233470 27596 net.cpp:84] Creating Layer res4b34_branch2b_relu
I0413 09:31:54.233472 27596 net.cpp:406] res4b34_branch2b_relu <- res4b34_branch2b
I0413 09:31:54.233476 27596 net.cpp:367] res4b34_branch2b_relu -> res4b34_branch2b (in-place)
I0413 09:31:54.233958 27596 net.cpp:122] Setting up res4b34_branch2b_relu
I0413 09:31:54.233963 27596 net.cpp:129] Top shape: 1 256 14 14 (50176)
I0413 09:31:54.233964 27596 net.cpp:137] Memory required for data: 482291728
I0413 09:31:54.233966 27596 layer_factory.hpp:77] Creating layer res4b34_branch2c
I0413 09:31:54.233971 27596 net.cpp:84] Creating Layer res4b34_branch2c
I0413 09:31:54.233974 27596 net.cpp:406] res4b34_branch2c <- res4b34_branch2b
I0413 09:31:54.233978 27596 net.cpp:380] res4b34_branch2c -> res4b34_branch2c
I0413 09:31:54.238688 27596 net.cpp:122] Setting up res4b34_branch2c
I0413 09:31:54.238700 27596 net.cpp:129] Top shape: 1 1024 14 14 (200704)
I0413 09:31:54.238703 27596 net.cpp:137] Memory required for data: 483094544
I0413 09:31:54.238706 27596 layer_factory.hpp:77] Creating layer bn4b34_branch2c
I0413 09:31:54.238711 27596 net.cpp:84] Creating Layer bn4b34_branch2c
I0413 09:31:54.238714 27596 net.cpp:406] bn4b34_branch2c <- res4b34_branch2c
I0413 09:31:54.238718 27596 net.cpp:367] bn4b34_branch2c -> res4b34_branch2c (in-place)
I0413 09:31:54.238955 27596 net.cpp:122] Setting up bn4b34_branch2c
I0413 09:31:54.238960 27596 net.cpp:129] Top shape: 1 1024 14 14 (200704)
I0413 09:31:54.238961 27596 net.cpp:137] Memory required for data: 483897360
I0413 09:31:54.238965 27596 layer_factory.hpp:77] Creating layer scale4b34_branch2c
I0413 09:31:54.238968 27596 net.cpp:84] Creating Layer scale4b34_branch2c
I0413 09:31:54.238970 27596 net.cpp:406] scale4b34_branch2c <- res4b34_branch2c
I0413 09:31:54.238972 27596 net.cpp:367] scale4b34_branch2c -> res4b34_branch2c (in-place)
I0413 09:31:54.239032 27596 layer_factory.hpp:77] Creating layer scale4b34_branch2c
I0413 09:31:54.239164 27596 net.cpp:122] Setting up scale4b34_branch2c
I0413 09:31:54.239169 27596 net.cpp:129] Top shape: 1 1024 14 14 (200704)
I0413 09:31:54.239171 27596 net.cpp:137] Memory required for data: 484700176
I0413 09:31:54.239174 27596 layer_factory.hpp:77] Creating layer res4b34
I0413 09:31:54.239177 27596 net.cpp:84] Creating Layer res4b34
I0413 09:31:54.239179 27596 net.cpp:406] res4b34 <- res4b33_res4b33_relu_0_split_1
I0413 09:31:54.239183 27596 net.cpp:406] res4b34 <- res4b34_branch2c
I0413 09:31:54.239186 27596 net.cpp:380] res4b34 -> res4b34
I0413 09:31:54.239203 27596 net.cpp:122] Setting up res4b34
I0413 09:31:54.239207 27596 net.cpp:129] Top shape: 1 1024 14 14 (200704)
I0413 09:31:54.239208 27596 net.cpp:137] Memory required for data: 485502992
I0413 09:31:54.239209 27596 layer_factory.hpp:77] Creating layer res4b34_relu
I0413 09:31:54.239212 27596 net.cpp:84] Creating Layer res4b34_relu
I0413 09:31:54.239220 27596 net.cpp:406] res4b34_relu <- res4b34
I0413 09:31:54.239223 27596 net.cpp:367] res4b34_relu -> res4b34 (in-place)
I0413 09:31:54.239922 27596 net.cpp:122] Setting up res4b34_relu
I0413 09:31:54.239928 27596 net.cpp:129] Top shape: 1 1024 14 14 (200704)
I0413 09:31:54.239929 27596 net.cpp:137] Memory required for data: 486305808
I0413 09:31:54.239931 27596 layer_factory.hpp:77] Creating layer res4b34_res4b34_relu_0_split
I0413 09:31:54.239935 27596 net.cpp:84] Creating Layer res4b34_res4b34_relu_0_split
I0413 09:31:54.239938 27596 net.cpp:406] res4b34_res4b34_relu_0_split <- res4b34
I0413 09:31:54.239941 27596 net.cpp:380] res4b34_res4b34_relu_0_split -> res4b34_res4b34_relu_0_split_0
I0413 09:31:54.239945 27596 net.cpp:380] res4b34_res4b34_relu_0_split -> res4b34_res4b34_relu_0_split_1
I0413 09:31:54.239987 27596 net.cpp:122] Setting up res4b34_res4b34_relu_0_split
I0413 09:31:54.239991 27596 net.cpp:129] Top shape: 1 1024 14 14 (200704)
I0413 09:31:54.239994 27596 net.cpp:129] Top shape: 1 1024 14 14 (200704)
I0413 09:31:54.239995 27596 net.cpp:137] Memory required for data: 487911440
I0413 09:31:54.239996 27596 layer_factory.hpp:77] Creating layer res4b35_branch2a
I0413 09:31:54.240002 27596 net.cpp:84] Creating Layer res4b35_branch2a
I0413 09:31:54.240005 27596 net.cpp:406] res4b35_branch2a <- res4b34_res4b34_relu_0_split_0
I0413 09:31:54.240010 27596 net.cpp:380] res4b35_branch2a -> res4b35_branch2a
I0413 09:31:54.244014 27596 net.cpp:122] Setting up res4b35_branch2a
I0413 09:31:54.244024 27596 net.cpp:129] Top shape: 1 256 14 14 (50176)
I0413 09:31:54.244025 27596 net.cpp:137] Memory required for data: 488112144
I0413 09:31:54.244033 27596 layer_factory.hpp:77] Creating layer bn4b35_branch2a
I0413 09:31:54.244041 27596 net.cpp:84] Creating Layer bn4b35_branch2a
I0413 09:31:54.244045 27596 net.cpp:406] bn4b35_branch2a <- res4b35_branch2a
I0413 09:31:54.244048 27596 net.cpp:367] bn4b35_branch2a -> res4b35_branch2a (in-place)
I0413 09:31:54.244222 27596 net.cpp:122] Setting up bn4b35_branch2a
I0413 09:31:54.244227 27596 net.cpp:129] Top shape: 1 256 14 14 (50176)
I0413 09:31:54.244230 27596 net.cpp:137] Memory required for data: 488312848
I0413 09:31:54.244232 27596 layer_factory.hpp:77] Creating layer scale4b35_branch2a
I0413 09:31:54.244236 27596 net.cpp:84] Creating Layer scale4b35_branch2a
I0413 09:31:54.244238 27596 net.cpp:406] scale4b35_branch2a <- res4b35_branch2a
I0413 09:31:54.244241 27596 net.cpp:367] scale4b35_branch2a -> res4b35_branch2a (in-place)
I0413 09:31:54.244269 27596 layer_factory.hpp:77] Creating layer scale4b35_branch2a
I0413 09:31:54.244369 27596 net.cpp:122] Setting up scale4b35_branch2a
I0413 09:31:54.244372 27596 net.cpp:129] Top shape: 1 256 14 14 (50176)
I0413 09:31:54.244374 27596 net.cpp:137] Memory required for data: 488513552
I0413 09:31:54.244376 27596 layer_factory.hpp:77] Creating layer res4b35_branch2a_relu
I0413 09:31:54.244379 27596 net.cpp:84] Creating Layer res4b35_branch2a_relu
I0413 09:31:54.244381 27596 net.cpp:406] res4b35_branch2a_relu <- res4b35_branch2a
I0413 09:31:54.244385 27596 net.cpp:367] res4b35_branch2a_relu -> res4b35_branch2a (in-place)
I0413 09:31:54.244864 27596 net.cpp:122] Setting up res4b35_branch2a_relu
I0413 09:31:54.244870 27596 net.cpp:129] Top shape: 1 256 14 14 (50176)
I0413 09:31:54.244873 27596 net.cpp:137] Memory required for data: 488714256
I0413 09:31:54.244874 27596 layer_factory.hpp:77] Creating layer res4b35_branch2b
I0413 09:31:54.244879 27596 net.cpp:84] Creating Layer res4b35_branch2b
I0413 09:31:54.244881 27596 net.cpp:406] res4b35_branch2b <- res4b35_branch2a
I0413 09:31:54.244884 27596 net.cpp:380] res4b35_branch2b -> res4b35_branch2b
I0413 09:31:54.251036 27596 net.cpp:122] Setting up res4b35_branch2b
I0413 09:31:54.251045 27596 net.cpp:129] Top shape: 1 256 14 14 (50176)
I0413 09:31:54.251047 27596 net.cpp:137] Memory required for data: 488914960
I0413 09:31:54.251051 27596 layer_factory.hpp:77] Creating layer bn4b35_branch2b
I0413 09:31:54.251056 27596 net.cpp:84] Creating Layer bn4b35_branch2b
I0413 09:31:54.251065 27596 net.cpp:406] bn4b35_branch2b <- res4b35_branch2b
I0413 09:31:54.251068 27596 net.cpp:367] bn4b35_branch2b -> res4b35_branch2b (in-place)
I0413 09:31:54.251245 27596 net.cpp:122] Setting up bn4b35_branch2b
I0413 09:31:54.251250 27596 net.cpp:129] Top shape: 1 256 14 14 (50176)
I0413 09:31:54.251251 27596 net.cpp:137] Memory required for data: 489115664
I0413 09:31:54.251255 27596 layer_factory.hpp:77] Creating layer scale4b35_branch2b
I0413 09:31:54.251258 27596 net.cpp:84] Creating Layer scale4b35_branch2b
I0413 09:31:54.251260 27596 net.cpp:406] scale4b35_branch2b <- res4b35_branch2b
I0413 09:31:54.251262 27596 net.cpp:367] scale4b35_branch2b -> res4b35_branch2b (in-place)
I0413 09:31:54.251292 27596 layer_factory.hpp:77] Creating layer scale4b35_branch2b
I0413 09:31:54.251389 27596 net.cpp:122] Setting up scale4b35_branch2b
I0413 09:31:54.251394 27596 net.cpp:129] Top shape: 1 256 14 14 (50176)
I0413 09:31:54.251395 27596 net.cpp:137] Memory required for data: 489316368
I0413 09:31:54.251399 27596 layer_factory.hpp:77] Creating layer res4b35_branch2b_relu
I0413 09:31:54.251402 27596 net.cpp:84] Creating Layer res4b35_branch2b_relu
I0413 09:31:54.251405 27596 net.cpp:406] res4b35_branch2b_relu <- res4b35_branch2b
I0413 09:31:54.251406 27596 net.cpp:367] res4b35_branch2b_relu -> res4b35_branch2b (in-place)
I0413 09:31:54.251885 27596 net.cpp:122] Setting up res4b35_branch2b_relu
I0413 09:31:54.251890 27596 net.cpp:129] Top shape: 1 256 14 14 (50176)
I0413 09:31:54.251893 27596 net.cpp:137] Memory required for data: 489517072
I0413 09:31:54.251894 27596 layer_factory.hpp:77] Creating layer res4b35_branch2c
I0413 09:31:54.251899 27596 net.cpp:84] Creating Layer res4b35_branch2c
I0413 09:31:54.251901 27596 net.cpp:406] res4b35_branch2c <- res4b35_branch2b
I0413 09:31:54.251904 27596 net.cpp:380] res4b35_branch2c -> res4b35_branch2c
I0413 09:31:54.255479 27596 net.cpp:122] Setting up res4b35_branch2c
I0413 09:31:54.255487 27596 net.cpp:129] Top shape: 1 1024 14 14 (200704)
I0413 09:31:54.255489 27596 net.cpp:137] Memory required for data: 490319888
I0413 09:31:54.255492 27596 layer_factory.hpp:77] Creating layer bn4b35_branch2c
I0413 09:31:54.255497 27596 net.cpp:84] Creating Layer bn4b35_branch2c
I0413 09:31:54.255501 27596 net.cpp:406] bn4b35_branch2c <- res4b35_branch2c
I0413 09:31:54.255503 27596 net.cpp:367] bn4b35_branch2c -> res4b35_branch2c (in-place)
I0413 09:31:54.255736 27596 net.cpp:122] Setting up bn4b35_branch2c
I0413 09:31:54.255741 27596 net.cpp:129] Top shape: 1 1024 14 14 (200704)
I0413 09:31:54.255743 27596 net.cpp:137] Memory required for data: 491122704
I0413 09:31:54.255746 27596 layer_factory.hpp:77] Creating layer scale4b35_branch2c
I0413 09:31:54.255750 27596 net.cpp:84] Creating Layer scale4b35_branch2c
I0413 09:31:54.255753 27596 net.cpp:406] scale4b35_branch2c <- res4b35_branch2c
I0413 09:31:54.255754 27596 net.cpp:367] scale4b35_branch2c -> res4b35_branch2c (in-place)
I0413 09:31:54.255807 27596 layer_factory.hpp:77] Creating layer scale4b35_branch2c
I0413 09:31:54.255944 27596 net.cpp:122] Setting up scale4b35_branch2c
I0413 09:31:54.255949 27596 net.cpp:129] Top shape: 1 1024 14 14 (200704)
I0413 09:31:54.255949 27596 net.cpp:137] Memory required for data: 491925520
I0413 09:31:54.255952 27596 layer_factory.hpp:77] Creating layer res4b35
I0413 09:31:54.255956 27596 net.cpp:84] Creating Layer res4b35
I0413 09:31:54.255959 27596 net.cpp:406] res4b35 <- res4b34_res4b34_relu_0_split_1
I0413 09:31:54.255961 27596 net.cpp:406] res4b35 <- res4b35_branch2c
I0413 09:31:54.255964 27596 net.cpp:380] res4b35 -> res4b35
I0413 09:31:54.255982 27596 net.cpp:122] Setting up res4b35
I0413 09:31:54.255986 27596 net.cpp:129] Top shape: 1 1024 14 14 (200704)
I0413 09:31:54.255988 27596 net.cpp:137] Memory required for data: 492728336
I0413 09:31:54.255990 27596 layer_factory.hpp:77] Creating layer res4b35_relu
I0413 09:31:54.255992 27596 net.cpp:84] Creating Layer res4b35_relu
I0413 09:31:54.255995 27596 net.cpp:406] res4b35_relu <- res4b35
I0413 09:31:54.255997 27596 net.cpp:367] res4b35_relu -> res4b35 (in-place)
I0413 09:31:54.256664 27596 net.cpp:122] Setting up res4b35_relu
I0413 09:31:54.256670 27596 net.cpp:129] Top shape: 1 1024 14 14 (200704)
I0413 09:31:54.256672 27596 net.cpp:137] Memory required for data: 493531152
I0413 09:31:54.256675 27596 layer_factory.hpp:77] Creating layer res4b35_res4b35_relu_0_split
I0413 09:31:54.256678 27596 net.cpp:84] Creating Layer res4b35_res4b35_relu_0_split
I0413 09:31:54.256680 27596 net.cpp:406] res4b35_res4b35_relu_0_split <- res4b35
I0413 09:31:54.256683 27596 net.cpp:380] res4b35_res4b35_relu_0_split -> res4b35_res4b35_relu_0_split_0
I0413 09:31:54.256688 27596 net.cpp:380] res4b35_res4b35_relu_0_split -> res4b35_res4b35_relu_0_split_1
I0413 09:31:54.256722 27596 net.cpp:122] Setting up res4b35_res4b35_relu_0_split
I0413 09:31:54.256726 27596 net.cpp:129] Top shape: 1 1024 14 14 (200704)
I0413 09:31:54.256728 27596 net.cpp:129] Top shape: 1 1024 14 14 (200704)
I0413 09:31:54.256729 27596 net.cpp:137] Memory required for data: 495136784
I0413 09:31:54.256732 27596 layer_factory.hpp:77] Creating layer res5a_branch1
I0413 09:31:54.256738 27596 net.cpp:84] Creating Layer res5a_branch1
I0413 09:31:54.256742 27596 net.cpp:406] res5a_branch1 <- res4b35_res4b35_relu_0_split_0
I0413 09:31:54.256747 27596 net.cpp:380] res5a_branch1 -> res5a_branch1
I0413 09:31:54.273977 27596 net.cpp:122] Setting up res5a_branch1
I0413 09:31:54.273990 27596 net.cpp:129] Top shape: 1 2048 7 7 (100352)
I0413 09:31:54.273993 27596 net.cpp:137] Memory required for data: 495538192
I0413 09:31:54.273998 27596 layer_factory.hpp:77] Creating layer bn5a_branch1
I0413 09:31:54.274003 27596 net.cpp:84] Creating Layer bn5a_branch1
I0413 09:31:54.274008 27596 net.cpp:406] bn5a_branch1 <- res5a_branch1
I0413 09:31:54.274010 27596 net.cpp:367] bn5a_branch1 -> res5a_branch1 (in-place)
I0413 09:31:54.274272 27596 net.cpp:122] Setting up bn5a_branch1
I0413 09:31:54.274278 27596 net.cpp:129] Top shape: 1 2048 7 7 (100352)
I0413 09:31:54.274281 27596 net.cpp:137] Memory required for data: 495939600
I0413 09:31:54.274283 27596 layer_factory.hpp:77] Creating layer scale5a_branch1
I0413 09:31:54.274287 27596 net.cpp:84] Creating Layer scale5a_branch1
I0413 09:31:54.274289 27596 net.cpp:406] scale5a_branch1 <- res5a_branch1
I0413 09:31:54.274292 27596 net.cpp:367] scale5a_branch1 -> res5a_branch1 (in-place)
I0413 09:31:54.274348 27596 layer_factory.hpp:77] Creating layer scale5a_branch1
I0413 09:31:54.274483 27596 net.cpp:122] Setting up scale5a_branch1
I0413 09:31:54.274488 27596 net.cpp:129] Top shape: 1 2048 7 7 (100352)
I0413 09:31:54.274489 27596 net.cpp:137] Memory required for data: 496341008
I0413 09:31:54.274492 27596 layer_factory.hpp:77] Creating layer res5a_branch2a
I0413 09:31:54.274497 27596 net.cpp:84] Creating Layer res5a_branch2a
I0413 09:31:54.274500 27596 net.cpp:406] res5a_branch2a <- res4b35_res4b35_relu_0_split_1
I0413 09:31:54.274503 27596 net.cpp:380] res5a_branch2a -> res5a_branch2a
I0413 09:31:54.279959 27596 net.cpp:122] Setting up res5a_branch2a
I0413 09:31:54.279968 27596 net.cpp:129] Top shape: 1 512 7 7 (25088)
I0413 09:31:54.279970 27596 net.cpp:137] Memory required for data: 496441360
I0413 09:31:54.279973 27596 layer_factory.hpp:77] Creating layer bn5a_branch2a
I0413 09:31:54.279978 27596 net.cpp:84] Creating Layer bn5a_branch2a
I0413 09:31:54.279981 27596 net.cpp:406] bn5a_branch2a <- res5a_branch2a
I0413 09:31:54.279983 27596 net.cpp:367] bn5a_branch2a -> res5a_branch2a (in-place)
I0413 09:31:54.280227 27596 net.cpp:122] Setting up bn5a_branch2a
I0413 09:31:54.280232 27596 net.cpp:129] Top shape: 1 512 7 7 (25088)
I0413 09:31:54.280234 27596 net.cpp:137] Memory required for data: 496541712
I0413 09:31:54.280238 27596 layer_factory.hpp:77] Creating layer scale5a_branch2a
I0413 09:31:54.280242 27596 net.cpp:84] Creating Layer scale5a_branch2a
I0413 09:31:54.280244 27596 net.cpp:406] scale5a_branch2a <- res5a_branch2a
I0413 09:31:54.280246 27596 net.cpp:367] scale5a_branch2a -> res5a_branch2a (in-place)
I0413 09:31:54.280298 27596 layer_factory.hpp:77] Creating layer scale5a_branch2a
I0413 09:31:54.280441 27596 net.cpp:122] Setting up scale5a_branch2a
I0413 09:31:54.280445 27596 net.cpp:129] Top shape: 1 512 7 7 (25088)
I0413 09:31:54.280447 27596 net.cpp:137] Memory required for data: 496642064
I0413 09:31:54.280449 27596 layer_factory.hpp:77] Creating layer res5a_branch2a_relu
I0413 09:31:54.280453 27596 net.cpp:84] Creating Layer res5a_branch2a_relu
I0413 09:31:54.280455 27596 net.cpp:406] res5a_branch2a_relu <- res5a_branch2a
I0413 09:31:54.280458 27596 net.cpp:367] res5a_branch2a_relu -> res5a_branch2a (in-place)
I0413 09:31:54.281136 27596 net.cpp:122] Setting up res5a_branch2a_relu
I0413 09:31:54.281143 27596 net.cpp:129] Top shape: 1 512 7 7 (25088)
I0413 09:31:54.281146 27596 net.cpp:137] Memory required for data: 496742416
I0413 09:31:54.281147 27596 layer_factory.hpp:77] Creating layer res5a_branch2b
I0413 09:31:54.281152 27596 net.cpp:84] Creating Layer res5a_branch2b
I0413 09:31:54.281154 27596 net.cpp:406] res5a_branch2b <- res5a_branch2a
I0413 09:31:54.281157 27596 net.cpp:380] res5a_branch2b -> res5a_branch2b
I0413 09:31:54.299597 27596 net.cpp:122] Setting up res5a_branch2b
I0413 09:31:54.299614 27596 net.cpp:129] Top shape: 1 512 7 7 (25088)
I0413 09:31:54.299618 27596 net.cpp:137] Memory required for data: 496842768
I0413 09:31:54.299623 27596 layer_factory.hpp:77] Creating layer bn5a_branch2b
I0413 09:31:54.299631 27596 net.cpp:84] Creating Layer bn5a_branch2b
I0413 09:31:54.299635 27596 net.cpp:406] bn5a_branch2b <- res5a_branch2b
I0413 09:31:54.299640 27596 net.cpp:367] bn5a_branch2b -> res5a_branch2b (in-place)
I0413 09:31:54.299978 27596 net.cpp:122] Setting up bn5a_branch2b
I0413 09:31:54.299984 27596 net.cpp:129] Top shape: 1 512 7 7 (25088)
I0413 09:31:54.299986 27596 net.cpp:137] Memory required for data: 496943120
I0413 09:31:54.299990 27596 layer_factory.hpp:77] Creating layer scale5a_branch2b
I0413 09:31:54.299994 27596 net.cpp:84] Creating Layer scale5a_branch2b
I0413 09:31:54.299996 27596 net.cpp:406] scale5a_branch2b <- res5a_branch2b
I0413 09:31:54.299999 27596 net.cpp:367] scale5a_branch2b -> res5a_branch2b (in-place)
I0413 09:31:54.300065 27596 layer_factory.hpp:77] Creating layer scale5a_branch2b
I0413 09:31:54.300201 27596 net.cpp:122] Setting up scale5a_branch2b
I0413 09:31:54.300206 27596 net.cpp:129] Top shape: 1 512 7 7 (25088)
I0413 09:31:54.300209 27596 net.cpp:137] Memory required for data: 497043472
I0413 09:31:54.300211 27596 layer_factory.hpp:77] Creating layer res5a_branch2b_relu
I0413 09:31:54.300215 27596 net.cpp:84] Creating Layer res5a_branch2b_relu
I0413 09:31:54.300217 27596 net.cpp:406] res5a_branch2b_relu <- res5a_branch2b
I0413 09:31:54.300220 27596 net.cpp:367] res5a_branch2b_relu -> res5a_branch2b (in-place)
I0413 09:31:54.300706 27596 net.cpp:122] Setting up res5a_branch2b_relu
I0413 09:31:54.300711 27596 net.cpp:129] Top shape: 1 512 7 7 (25088)
I0413 09:31:54.300714 27596 net.cpp:137] Memory required for data: 497143824
I0413 09:31:54.300715 27596 layer_factory.hpp:77] Creating layer res5a_branch2c
I0413 09:31:54.300720 27596 net.cpp:84] Creating Layer res5a_branch2c
I0413 09:31:54.300722 27596 net.cpp:406] res5a_branch2c <- res5a_branch2b
I0413 09:31:54.300725 27596 net.cpp:380] res5a_branch2c -> res5a_branch2c
I0413 09:31:54.310094 27596 net.cpp:122] Setting up res5a_branch2c
I0413 09:31:54.310109 27596 net.cpp:129] Top shape: 1 2048 7 7 (100352)
I0413 09:31:54.310111 27596 net.cpp:137] Memory required for data: 497545232
I0413 09:31:54.310115 27596 layer_factory.hpp:77] Creating layer bn5a_branch2c
I0413 09:31:54.310122 27596 net.cpp:84] Creating Layer bn5a_branch2c
I0413 09:31:54.310124 27596 net.cpp:406] bn5a_branch2c <- res5a_branch2c
I0413 09:31:54.310128 27596 net.cpp:367] bn5a_branch2c -> res5a_branch2c (in-place)
I0413 09:31:54.310376 27596 net.cpp:122] Setting up bn5a_branch2c
I0413 09:31:54.310381 27596 net.cpp:129] Top shape: 1 2048 7 7 (100352)
I0413 09:31:54.310384 27596 net.cpp:137] Memory required for data: 497946640
I0413 09:31:54.310386 27596 layer_factory.hpp:77] Creating layer scale5a_branch2c
I0413 09:31:54.310396 27596 net.cpp:84] Creating Layer scale5a_branch2c
I0413 09:31:54.310400 27596 net.cpp:406] scale5a_branch2c <- res5a_branch2c
I0413 09:31:54.310401 27596 net.cpp:367] scale5a_branch2c -> res5a_branch2c (in-place)
I0413 09:31:54.310462 27596 layer_factory.hpp:77] Creating layer scale5a_branch2c
I0413 09:31:54.310598 27596 net.cpp:122] Setting up scale5a_branch2c
I0413 09:31:54.310602 27596 net.cpp:129] Top shape: 1 2048 7 7 (100352)
I0413 09:31:54.310605 27596 net.cpp:137] Memory required for data: 498348048
I0413 09:31:54.310607 27596 layer_factory.hpp:77] Creating layer res5a
I0413 09:31:54.310611 27596 net.cpp:84] Creating Layer res5a
I0413 09:31:54.310613 27596 net.cpp:406] res5a <- res5a_branch1
I0413 09:31:54.310616 27596 net.cpp:406] res5a <- res5a_branch2c
I0413 09:31:54.310618 27596 net.cpp:380] res5a -> res5a
I0413 09:31:54.310636 27596 net.cpp:122] Setting up res5a
I0413 09:31:54.310638 27596 net.cpp:129] Top shape: 1 2048 7 7 (100352)
I0413 09:31:54.310639 27596 net.cpp:137] Memory required for data: 498749456
I0413 09:31:54.310642 27596 layer_factory.hpp:77] Creating layer res5a_relu
I0413 09:31:54.310645 27596 net.cpp:84] Creating Layer res5a_relu
I0413 09:31:54.310647 27596 net.cpp:406] res5a_relu <- res5a
I0413 09:31:54.310650 27596 net.cpp:367] res5a_relu -> res5a (in-place)
I0413 09:31:54.311131 27596 net.cpp:122] Setting up res5a_relu
I0413 09:31:54.311137 27596 net.cpp:129] Top shape: 1 2048 7 7 (100352)
I0413 09:31:54.311138 27596 net.cpp:137] Memory required for data: 499150864
I0413 09:31:54.311141 27596 layer_factory.hpp:77] Creating layer res5a_res5a_relu_0_split
I0413 09:31:54.311144 27596 net.cpp:84] Creating Layer res5a_res5a_relu_0_split
I0413 09:31:54.311146 27596 net.cpp:406] res5a_res5a_relu_0_split <- res5a
I0413 09:31:54.311149 27596 net.cpp:380] res5a_res5a_relu_0_split -> res5a_res5a_relu_0_split_0
I0413 09:31:54.311152 27596 net.cpp:380] res5a_res5a_relu_0_split -> res5a_res5a_relu_0_split_1
I0413 09:31:54.311188 27596 net.cpp:122] Setting up res5a_res5a_relu_0_split
I0413 09:31:54.311192 27596 net.cpp:129] Top shape: 1 2048 7 7 (100352)
I0413 09:31:54.311193 27596 net.cpp:129] Top shape: 1 2048 7 7 (100352)
I0413 09:31:54.311195 27596 net.cpp:137] Memory required for data: 499953680
I0413 09:31:54.311197 27596 layer_factory.hpp:77] Creating layer res5b_branch2a
I0413 09:31:54.311203 27596 net.cpp:84] Creating Layer res5b_branch2a
I0413 09:31:54.311205 27596 net.cpp:406] res5b_branch2a <- res5a_res5a_relu_0_split_0
I0413 09:31:54.311210 27596 net.cpp:380] res5b_branch2a -> res5b_branch2a
I0413 09:31:54.320156 27596 net.cpp:122] Setting up res5b_branch2a
I0413 09:31:54.320170 27596 net.cpp:129] Top shape: 1 512 7 7 (25088)
I0413 09:31:54.320173 27596 net.cpp:137] Memory required for data: 500054032
I0413 09:31:54.320178 27596 layer_factory.hpp:77] Creating layer bn5b_branch2a
I0413 09:31:54.320183 27596 net.cpp:84] Creating Layer bn5b_branch2a
I0413 09:31:54.320185 27596 net.cpp:406] bn5b_branch2a <- res5b_branch2a
I0413 09:31:54.320189 27596 net.cpp:367] bn5b_branch2a -> res5b_branch2a (in-place)
I0413 09:31:54.320442 27596 net.cpp:122] Setting up bn5b_branch2a
I0413 09:31:54.320447 27596 net.cpp:129] Top shape: 1 512 7 7 (25088)
I0413 09:31:54.320449 27596 net.cpp:137] Memory required for data: 500154384
I0413 09:31:54.320452 27596 layer_factory.hpp:77] Creating layer scale5b_branch2a
I0413 09:31:54.320456 27596 net.cpp:84] Creating Layer scale5b_branch2a
I0413 09:31:54.320457 27596 net.cpp:406] scale5b_branch2a <- res5b_branch2a
I0413 09:31:54.320461 27596 net.cpp:367] scale5b_branch2a -> res5b_branch2a (in-place)
I0413 09:31:54.320514 27596 layer_factory.hpp:77] Creating layer scale5b_branch2a
I0413 09:31:54.320654 27596 net.cpp:122] Setting up scale5b_branch2a
I0413 09:31:54.320659 27596 net.cpp:129] Top shape: 1 512 7 7 (25088)
I0413 09:31:54.320660 27596 net.cpp:137] Memory required for data: 500254736
I0413 09:31:54.320663 27596 layer_factory.hpp:77] Creating layer res5b_branch2a_relu
I0413 09:31:54.320667 27596 net.cpp:84] Creating Layer res5b_branch2a_relu
I0413 09:31:54.320675 27596 net.cpp:406] res5b_branch2a_relu <- res5b_branch2a
I0413 09:31:54.320678 27596 net.cpp:367] res5b_branch2a_relu -> res5b_branch2a (in-place)
I0413 09:31:54.321362 27596 net.cpp:122] Setting up res5b_branch2a_relu
I0413 09:31:54.321369 27596 net.cpp:129] Top shape: 1 512 7 7 (25088)
I0413 09:31:54.321372 27596 net.cpp:137] Memory required for data: 500355088
I0413 09:31:54.321373 27596 layer_factory.hpp:77] Creating layer res5b_branch2b
I0413 09:31:54.321378 27596 net.cpp:84] Creating Layer res5b_branch2b
I0413 09:31:54.321380 27596 net.cpp:406] res5b_branch2b <- res5b_branch2a
I0413 09:31:54.321384 27596 net.cpp:380] res5b_branch2b -> res5b_branch2b
I0413 09:31:54.340453 27596 net.cpp:122] Setting up res5b_branch2b
I0413 09:31:54.340467 27596 net.cpp:129] Top shape: 1 512 7 7 (25088)
I0413 09:31:54.340469 27596 net.cpp:137] Memory required for data: 500455440
I0413 09:31:54.340474 27596 layer_factory.hpp:77] Creating layer bn5b_branch2b
I0413 09:31:54.340481 27596 net.cpp:84] Creating Layer bn5b_branch2b
I0413 09:31:54.340486 27596 net.cpp:406] bn5b_branch2b <- res5b_branch2b
I0413 09:31:54.340488 27596 net.cpp:367] bn5b_branch2b -> res5b_branch2b (in-place)
I0413 09:31:54.340749 27596 net.cpp:122] Setting up bn5b_branch2b
I0413 09:31:54.340754 27596 net.cpp:129] Top shape: 1 512 7 7 (25088)
I0413 09:31:54.340755 27596 net.cpp:137] Memory required for data: 500555792
I0413 09:31:54.340759 27596 layer_factory.hpp:77] Creating layer scale5b_branch2b
I0413 09:31:54.340762 27596 net.cpp:84] Creating Layer scale5b_branch2b
I0413 09:31:54.340765 27596 net.cpp:406] scale5b_branch2b <- res5b_branch2b
I0413 09:31:54.340768 27596 net.cpp:367] scale5b_branch2b -> res5b_branch2b (in-place)
I0413 09:31:54.340827 27596 layer_factory.hpp:77] Creating layer scale5b_branch2b
I0413 09:31:54.340961 27596 net.cpp:122] Setting up scale5b_branch2b
I0413 09:31:54.340966 27596 net.cpp:129] Top shape: 1 512 7 7 (25088)
I0413 09:31:54.340967 27596 net.cpp:137] Memory required for data: 500656144
I0413 09:31:54.340970 27596 layer_factory.hpp:77] Creating layer res5b_branch2b_relu
I0413 09:31:54.340973 27596 net.cpp:84] Creating Layer res5b_branch2b_relu
I0413 09:31:54.340976 27596 net.cpp:406] res5b_branch2b_relu <- res5b_branch2b
I0413 09:31:54.340978 27596 net.cpp:367] res5b_branch2b_relu -> res5b_branch2b (in-place)
I0413 09:31:54.341657 27596 net.cpp:122] Setting up res5b_branch2b_relu
I0413 09:31:54.341665 27596 net.cpp:129] Top shape: 1 512 7 7 (25088)
I0413 09:31:54.341666 27596 net.cpp:137] Memory required for data: 500756496
I0413 09:31:54.341668 27596 layer_factory.hpp:77] Creating layer res5b_branch2c
I0413 09:31:54.341675 27596 net.cpp:84] Creating Layer res5b_branch2c
I0413 09:31:54.341678 27596 net.cpp:406] res5b_branch2c <- res5b_branch2b
I0413 09:31:54.341681 27596 net.cpp:380] res5b_branch2c -> res5b_branch2c
I0413 09:31:54.350641 27596 net.cpp:122] Setting up res5b_branch2c
I0413 09:31:54.350656 27596 net.cpp:129] Top shape: 1 2048 7 7 (100352)
I0413 09:31:54.350657 27596 net.cpp:137] Memory required for data: 501157904
I0413 09:31:54.350662 27596 layer_factory.hpp:77] Creating layer bn5b_branch2c
I0413 09:31:54.350668 27596 net.cpp:84] Creating Layer bn5b_branch2c
I0413 09:31:54.350672 27596 net.cpp:406] bn5b_branch2c <- res5b_branch2c
I0413 09:31:54.350675 27596 net.cpp:367] bn5b_branch2c -> res5b_branch2c (in-place)
I0413 09:31:54.350930 27596 net.cpp:122] Setting up bn5b_branch2c
I0413 09:31:54.350935 27596 net.cpp:129] Top shape: 1 2048 7 7 (100352)
I0413 09:31:54.350937 27596 net.cpp:137] Memory required for data: 501559312
I0413 09:31:54.350941 27596 layer_factory.hpp:77] Creating layer scale5b_branch2c
I0413 09:31:54.350944 27596 net.cpp:84] Creating Layer scale5b_branch2c
I0413 09:31:54.350947 27596 net.cpp:406] scale5b_branch2c <- res5b_branch2c
I0413 09:31:54.350951 27596 net.cpp:367] scale5b_branch2c -> res5b_branch2c (in-place)
I0413 09:31:54.351011 27596 layer_factory.hpp:77] Creating layer scale5b_branch2c
I0413 09:31:54.351158 27596 net.cpp:122] Setting up scale5b_branch2c
I0413 09:31:54.351171 27596 net.cpp:129] Top shape: 1 2048 7 7 (100352)
I0413 09:31:54.351172 27596 net.cpp:137] Memory required for data: 501960720
I0413 09:31:54.351174 27596 layer_factory.hpp:77] Creating layer res5b
I0413 09:31:54.351178 27596 net.cpp:84] Creating Layer res5b
I0413 09:31:54.351181 27596 net.cpp:406] res5b <- res5a_res5a_relu_0_split_1
I0413 09:31:54.351184 27596 net.cpp:406] res5b <- res5b_branch2c
I0413 09:31:54.351187 27596 net.cpp:380] res5b -> res5b
I0413 09:31:54.351208 27596 net.cpp:122] Setting up res5b
I0413 09:31:54.351213 27596 net.cpp:129] Top shape: 1 2048 7 7 (100352)
I0413 09:31:54.351218 27596 net.cpp:137] Memory required for data: 502362128
I0413 09:31:54.351220 27596 layer_factory.hpp:77] Creating layer res5b_relu
I0413 09:31:54.351223 27596 net.cpp:84] Creating Layer res5b_relu
I0413 09:31:54.351227 27596 net.cpp:406] res5b_relu <- res5b
I0413 09:31:54.351228 27596 net.cpp:367] res5b_relu -> res5b (in-place)
I0413 09:31:54.351709 27596 net.cpp:122] Setting up res5b_relu
I0413 09:31:54.351716 27596 net.cpp:129] Top shape: 1 2048 7 7 (100352)
I0413 09:31:54.351717 27596 net.cpp:137] Memory required for data: 502763536
I0413 09:31:54.351719 27596 layer_factory.hpp:77] Creating layer res5b_res5b_relu_0_split
I0413 09:31:54.351723 27596 net.cpp:84] Creating Layer res5b_res5b_relu_0_split
I0413 09:31:54.351725 27596 net.cpp:406] res5b_res5b_relu_0_split <- res5b
I0413 09:31:54.351728 27596 net.cpp:380] res5b_res5b_relu_0_split -> res5b_res5b_relu_0_split_0
I0413 09:31:54.351732 27596 net.cpp:380] res5b_res5b_relu_0_split -> res5b_res5b_relu_0_split_1
I0413 09:31:54.351774 27596 net.cpp:122] Setting up res5b_res5b_relu_0_split
I0413 09:31:54.351778 27596 net.cpp:129] Top shape: 1 2048 7 7 (100352)
I0413 09:31:54.351780 27596 net.cpp:129] Top shape: 1 2048 7 7 (100352)
I0413 09:31:54.351783 27596 net.cpp:137] Memory required for data: 503566352
I0413 09:31:54.351784 27596 layer_factory.hpp:77] Creating layer res5c_branch2a
I0413 09:31:54.351789 27596 net.cpp:84] Creating Layer res5c_branch2a
I0413 09:31:54.351791 27596 net.cpp:406] res5c_branch2a <- res5b_res5b_relu_0_split_0
I0413 09:31:54.351794 27596 net.cpp:380] res5c_branch2a -> res5c_branch2a
I0413 09:31:54.361596 27596 net.cpp:122] Setting up res5c_branch2a
I0413 09:31:54.361613 27596 net.cpp:129] Top shape: 1 512 7 7 (25088)
I0413 09:31:54.361616 27596 net.cpp:137] Memory required for data: 503666704
I0413 09:31:54.361621 27596 layer_factory.hpp:77] Creating layer bn5c_branch2a
I0413 09:31:54.361629 27596 net.cpp:84] Creating Layer bn5c_branch2a
I0413 09:31:54.361634 27596 net.cpp:406] bn5c_branch2a <- res5c_branch2a
I0413 09:31:54.361640 27596 net.cpp:367] bn5c_branch2a -> res5c_branch2a (in-place)
I0413 09:31:54.361981 27596 net.cpp:122] Setting up bn5c_branch2a
I0413 09:31:54.361990 27596 net.cpp:129] Top shape: 1 512 7 7 (25088)
I0413 09:31:54.361992 27596 net.cpp:137] Memory required for data: 503767056
I0413 09:31:54.361999 27596 layer_factory.hpp:77] Creating layer scale5c_branch2a
I0413 09:31:54.362005 27596 net.cpp:84] Creating Layer scale5c_branch2a
I0413 09:31:54.362009 27596 net.cpp:406] scale5c_branch2a <- res5c_branch2a
I0413 09:31:54.362012 27596 net.cpp:367] scale5c_branch2a -> res5c_branch2a (in-place)
I0413 09:31:54.362093 27596 layer_factory.hpp:77] Creating layer scale5c_branch2a
I0413 09:31:54.362288 27596 net.cpp:122] Setting up scale5c_branch2a
I0413 09:31:54.362295 27596 net.cpp:129] Top shape: 1 512 7 7 (25088)
I0413 09:31:54.362298 27596 net.cpp:137] Memory required for data: 503867408
I0413 09:31:54.362303 27596 layer_factory.hpp:77] Creating layer res5c_branch2a_relu
I0413 09:31:54.362309 27596 net.cpp:84] Creating Layer res5c_branch2a_relu
I0413 09:31:54.362313 27596 net.cpp:406] res5c_branch2a_relu <- res5c_branch2a
I0413 09:31:54.362316 27596 net.cpp:367] res5c_branch2a_relu -> res5c_branch2a (in-place)
I0413 09:31:54.362989 27596 net.cpp:122] Setting up res5c_branch2a_relu
I0413 09:31:54.362998 27596 net.cpp:129] Top shape: 1 512 7 7 (25088)
I0413 09:31:54.363001 27596 net.cpp:137] Memory required for data: 503967760
I0413 09:31:54.363013 27596 layer_factory.hpp:77] Creating layer res5c_branch2b
I0413 09:31:54.363021 27596 net.cpp:84] Creating Layer res5c_branch2b
I0413 09:31:54.363025 27596 net.cpp:406] res5c_branch2b <- res5c_branch2a
I0413 09:31:54.363039 27596 net.cpp:380] res5c_branch2b -> res5c_branch2b
I0413 09:31:54.380986 27596 net.cpp:122] Setting up res5c_branch2b
I0413 09:31:54.381001 27596 net.cpp:129] Top shape: 1 512 7 7 (25088)
I0413 09:31:54.381003 27596 net.cpp:137] Memory required for data: 504068112
I0413 09:31:54.381008 27596 layer_factory.hpp:77] Creating layer bn5c_branch2b
I0413 09:31:54.381013 27596 net.cpp:84] Creating Layer bn5c_branch2b
I0413 09:31:54.381016 27596 net.cpp:406] bn5c_branch2b <- res5c_branch2b
I0413 09:31:54.381021 27596 net.cpp:367] bn5c_branch2b -> res5c_branch2b (in-place)
I0413 09:31:54.381289 27596 net.cpp:122] Setting up bn5c_branch2b
I0413 09:31:54.381294 27596 net.cpp:129] Top shape: 1 512 7 7 (25088)
I0413 09:31:54.381295 27596 net.cpp:137] Memory required for data: 504168464
I0413 09:31:54.381299 27596 layer_factory.hpp:77] Creating layer scale5c_branch2b
I0413 09:31:54.381304 27596 net.cpp:84] Creating Layer scale5c_branch2b
I0413 09:31:54.381306 27596 net.cpp:406] scale5c_branch2b <- res5c_branch2b
I0413 09:31:54.381309 27596 net.cpp:367] scale5c_branch2b -> res5c_branch2b (in-place)
I0413 09:31:54.381364 27596 layer_factory.hpp:77] Creating layer scale5c_branch2b
I0413 09:31:54.381507 27596 net.cpp:122] Setting up scale5c_branch2b
I0413 09:31:54.381512 27596 net.cpp:129] Top shape: 1 512 7 7 (25088)
I0413 09:31:54.381515 27596 net.cpp:137] Memory required for data: 504268816
I0413 09:31:54.381516 27596 layer_factory.hpp:77] Creating layer res5c_branch2b_relu
I0413 09:31:54.381520 27596 net.cpp:84] Creating Layer res5c_branch2b_relu
I0413 09:31:54.381523 27596 net.cpp:406] res5c_branch2b_relu <- res5c_branch2b
I0413 09:31:54.381525 27596 net.cpp:367] res5c_branch2b_relu -> res5c_branch2b (in-place)
I0413 09:31:54.382194 27596 net.cpp:122] Setting up res5c_branch2b_relu
I0413 09:31:54.382200 27596 net.cpp:129] Top shape: 1 512 7 7 (25088)
I0413 09:31:54.382202 27596 net.cpp:137] Memory required for data: 504369168
I0413 09:31:54.382205 27596 layer_factory.hpp:77] Creating layer res5c_branch2c
I0413 09:31:54.382210 27596 net.cpp:84] Creating Layer res5c_branch2c
I0413 09:31:54.382211 27596 net.cpp:406] res5c_branch2c <- res5c_branch2b
I0413 09:31:54.382215 27596 net.cpp:380] res5c_branch2c -> res5c_branch2c
I0413 09:31:54.391208 27596 net.cpp:122] Setting up res5c_branch2c
I0413 09:31:54.391222 27596 net.cpp:129] Top shape: 1 2048 7 7 (100352)
I0413 09:31:54.391224 27596 net.cpp:137] Memory required for data: 504770576
I0413 09:31:54.391228 27596 layer_factory.hpp:77] Creating layer bn5c_branch2c
I0413 09:31:54.391233 27596 net.cpp:84] Creating Layer bn5c_branch2c
I0413 09:31:54.391237 27596 net.cpp:406] bn5c_branch2c <- res5c_branch2c
I0413 09:31:54.391242 27596 net.cpp:367] bn5c_branch2c -> res5c_branch2c (in-place)
I0413 09:31:54.391500 27596 net.cpp:122] Setting up bn5c_branch2c
I0413 09:31:54.391505 27596 net.cpp:129] Top shape: 1 2048 7 7 (100352)
I0413 09:31:54.391507 27596 net.cpp:137] Memory required for data: 505171984
I0413 09:31:54.391510 27596 layer_factory.hpp:77] Creating layer scale5c_branch2c
I0413 09:31:54.391515 27596 net.cpp:84] Creating Layer scale5c_branch2c
I0413 09:31:54.391517 27596 net.cpp:406] scale5c_branch2c <- res5c_branch2c
I0413 09:31:54.391520 27596 net.cpp:367] scale5c_branch2c -> res5c_branch2c (in-place)
I0413 09:31:54.391578 27596 layer_factory.hpp:77] Creating layer scale5c_branch2c
I0413 09:31:54.391754 27596 net.cpp:122] Setting up scale5c_branch2c
I0413 09:31:54.391759 27596 net.cpp:129] Top shape: 1 2048 7 7 (100352)
I0413 09:31:54.391762 27596 net.cpp:137] Memory required for data: 505573392
I0413 09:31:54.391765 27596 layer_factory.hpp:77] Creating layer res5c
I0413 09:31:54.391770 27596 net.cpp:84] Creating Layer res5c
I0413 09:31:54.391774 27596 net.cpp:406] res5c <- res5b_res5b_relu_0_split_1
I0413 09:31:54.391777 27596 net.cpp:406] res5c <- res5c_branch2c
I0413 09:31:54.391789 27596 net.cpp:380] res5c -> res5c
I0413 09:31:54.391815 27596 net.cpp:122] Setting up res5c
I0413 09:31:54.391820 27596 net.cpp:129] Top shape: 1 2048 7 7 (100352)
I0413 09:31:54.391822 27596 net.cpp:137] Memory required for data: 505974800
I0413 09:31:54.391825 27596 layer_factory.hpp:77] Creating layer res5c_relu
I0413 09:31:54.391829 27596 net.cpp:84] Creating Layer res5c_relu
I0413 09:31:54.391832 27596 net.cpp:406] res5c_relu <- res5c
I0413 09:31:54.391836 27596 net.cpp:367] res5c_relu -> res5c (in-place)
I0413 09:31:54.392462 27596 net.cpp:122] Setting up res5c_relu
I0413 09:31:54.392470 27596 net.cpp:129] Top shape: 1 2048 7 7 (100352)
I0413 09:31:54.392473 27596 net.cpp:137] Memory required for data: 506376208
I0413 09:31:54.392475 27596 layer_factory.hpp:77] Creating layer pool5
I0413 09:31:54.392482 27596 net.cpp:84] Creating Layer pool5
I0413 09:31:54.392484 27596 net.cpp:406] pool5 <- res5c
I0413 09:31:54.392488 27596 net.cpp:380] pool5 -> pool5
I0413 09:31:54.393436 27596 net.cpp:122] Setting up pool5
I0413 09:31:54.393446 27596 net.cpp:129] Top shape: 1 2048 1 1 (2048)
I0413 09:31:54.393450 27596 net.cpp:137] Memory required for data: 506384400
I0413 09:31:54.393452 27596 layer_factory.hpp:77] Creating layer fc1000-skin
I0413 09:31:54.393457 27596 net.cpp:84] Creating Layer fc1000-skin
I0413 09:31:54.393462 27596 net.cpp:406] fc1000-skin <- pool5
I0413 09:31:54.393468 27596 net.cpp:380] fc1000-skin -> fc1000-skin
I0413 09:31:54.393790 27596 net.cpp:122] Setting up fc1000-skin
I0413 09:31:54.393796 27596 net.cpp:129] Top shape: 1 12 (12)
I0413 09:31:54.393800 27596 net.cpp:137] Memory required for data: 506384448
I0413 09:31:54.393803 27596 layer_factory.hpp:77] Creating layer fc1000-skin_fc1000-skin_0_split
I0413 09:31:54.393810 27596 net.cpp:84] Creating Layer fc1000-skin_fc1000-skin_0_split
I0413 09:31:54.393813 27596 net.cpp:406] fc1000-skin_fc1000-skin_0_split <- fc1000-skin
I0413 09:31:54.393820 27596 net.cpp:380] fc1000-skin_fc1000-skin_0_split -> fc1000-skin_fc1000-skin_0_split_0
I0413 09:31:54.393826 27596 net.cpp:380] fc1000-skin_fc1000-skin_0_split -> fc1000-skin_fc1000-skin_0_split_1
I0413 09:31:54.393829 27596 net.cpp:380] fc1000-skin_fc1000-skin_0_split -> fc1000-skin_fc1000-skin_0_split_2
I0413 09:31:54.393898 27596 net.cpp:122] Setting up fc1000-skin_fc1000-skin_0_split
I0413 09:31:54.393903 27596 net.cpp:129] Top shape: 1 12 (12)
I0413 09:31:54.393906 27596 net.cpp:129] Top shape: 1 12 (12)
I0413 09:31:54.393909 27596 net.cpp:129] Top shape: 1 12 (12)
I0413 09:31:54.393911 27596 net.cpp:137] Memory required for data: 506384592
I0413 09:31:54.393914 27596 layer_factory.hpp:77] Creating layer loss
I0413 09:31:54.393918 27596 net.cpp:84] Creating Layer loss
I0413 09:31:54.393921 27596 net.cpp:406] loss <- fc1000-skin_fc1000-skin_0_split_0
I0413 09:31:54.393924 27596 net.cpp:406] loss <- label_data_1_split_0
I0413 09:31:54.393930 27596 net.cpp:380] loss -> loss
…
