…
I0417 03:39:27.264739  3757 net.cpp:294] The NetState phase (0) differed from the phase (1) specified by a rule in layer acc/top-5
I0417 03:39:27.265570  3757 net.cpp:51] Initializing net from parameters: 
name: "ResNet-152"
state {
  phase: TRAIN
  level: 0
  stage: ""
}
layer {
  name: "data"
  type: "Data"
  top: "data"
  top: "label"
  include {
    phase: TRAIN
  }
  transform_param {
    mirror: true
    crop_size: 224
    mean_file: "/home/danilo/Documents/FGA/2018-1/TCC1/Datasets/Atlas_5k_lmdb/input/mean.binaryproto"
  }
  data_param {
    source: "/home/danilo/Documents/FGA/2018-1/TCC1/Datasets/Atlas_5k_lmdb/train"
    batch_size: 5
    backend: LMDB
  }
}
layer {
  name: "conv1"
  type: "Convolution"
  bottom: "data"
  top: "conv1"
  convolution_param {
    num_output: 64
    bias_term: false
    pad: 3
    kernel_size: 7
    stride: 2
    weight_filler {
      type: "msra"
    }
  }
}
layer {
  name: "bn_conv1"
  type: "BatchNorm"
  bottom: "conv1"
  top: "conv1"
  batch_norm_param {
    use_global_stats: false
  }
}
layer {
  name: "scale_conv1"
  type: "Scale"
  bottom: "conv1"
  top: "conv1"
  scale_param {
    bias_term: true
  }
}
layer {
  name: "conv1_relu"
  type: "ReLU"
  bottom: "conv1"
  top: "conv1"
}
layer {
  name: "pool1"
  type: "Pooling"
  bottom: "conv1"
  top: "pool1"
  pooling_param {
    pool: MAX
    kernel_size: 3
    stride: 2
  }
}
layer {
  name: "res2a_branch1"
  type: "Convolution"
  bottom: "pool1"
  top: "res2a_branch1"
  convolution_param {
    num_output: 256
    bias_term: false
    pad: 0
    kernel_size: 1
    stride: 1
    weight_filler {
      type: "msra"
    }
  }
}
layer {
  name: "bn2a_branch1"
  type: "BatchNorm"
  bottom: "res2a_branch1"
  top: "res2a_branch1"
  batch_norm_param {
    use_global_stats: false
  }
}
layer {
  name: "scale2a_branch1"
  type: "Scale"
  bottom: "res2a_branch1"
  top: "res2a_branch1"
  scale_param {
    bias_term: true
  }
}
layer {
  name: "res2a_branch2a"
  type: "Convolution"
  bottom: "pool1"
  top: "res2a_branch2a"
  convolution_param {
    num_output: 64
    bias_term: false
    pad: 0
    kernel_size: 1
    stride: 1
    weight_filler {
      type: "msra"
    }
  }
}
layer {
  name: "bn2a_branch2a"
  type: "BatchNorm"
  bottom: "res2a_branch2a"
  top: "res2a_branch2a"
  batch_norm_param {
    use_global_stats: false
  }
}
layer {
  name: "scale2a_branch2a"
  type: "Scale"
  bottom: "res2a_branch2a"
  top: "res2a_branch2a"
  scale_param {
    bias_term: true
  }
}
layer {
  name: "res2a_branch2a_relu"
  type: "ReLU"
  bottom: "res2a_branch2a"
  top: "res2a_branch2a"
}
layer {
  name: "res2a_branch2b"
  type: "Convolution"
  bottom: "res2a_branch2a"
  top: "res2a_branch2b"
  convolution_param {
    num_output: 64
    bias_term: false
    pad: 1
    kernel_size: 3
    stride: 1
    weight_filler {
      type: "msra"
    }
  }
}
layer {
  name: "bn2a_branch2b"
  type: "BatchNorm"
  bottom: "res2a_branch2b"
  top: "res2a_branch2b"
  batch_norm_param {
    use_global_stats: false
  }
}
layer {
  name: "scale2a_branch2b"
  type: "Scale"
  bottom: "res2a_branch2b"
  top: "res2a_branch2b"
  scale_param {
    bias_term: true
  }
}
layer {
  name: "res2a_branch2b_relu"
  type: "ReLU"
  bottom: "res2a_branch2b"
  top: "res2a_branch2b"
}
layer {
  name: "res2a_branch2c"
  type: "Convolution"
  bottom: "res2a_branch2b"
  top: "res2a_branch2c"
  convolution_param {
    num_output: 256
    bias_term: false
    pad: 0
    kernel_size: 1
    stride: 1
    weight_filler {
      type: "msra"
    }
  }
}
layer {
  name: "bn2a_branch2c"
  type: "BatchNorm"
  bottom: "res2a_branch2c"
  top: "res2a_branch2c"
  batch_norm_param {
    use_global_stats: false
  }
}
layer {
  name: "scale2a_branch2c"
  type: "Scale"
  bottom: "res2a_branch2c"
  top: "res2a_branch2c"
  scale_param {
    bias_term: true
  }
}
layer {
  name: "res2a"
  type: "Eltwise"
  bottom: "res2a_branch1"
  bottom: "res2a_branch2c"
  top: "res2a"
  eltwise_param {
    operation: SUM
  }
}
layer {
  name: "res2a_relu"
  type: "ReLU"
  bottom: "res2a"
  top: "res2a"
}
layer {
  name: "res2b_branch2a"
  type: "Convolution"
  bottom: "res2a"
  top: "res2b_branch2a"
  convolution_param {
    num_output: 64
    bias_term: false
    pad: 0
    kernel_size: 1
    stride: 1
    weight_filler {
      type: "msra"
    }
  }
}
layer {
  name: "bn2b_branch2a"
  type: "BatchNorm"
  bottom: "res2b_branch2a"
  top: "res2b_branch2a"
  batch_norm_param {
    use_global_stats: false
  }
}
layer {
  name: "scale2b_branch2a"
  type: "Scale"
  bottom: "res2b_branch2a"
  top: "res2b_branch2a"
  scale_param {
    bias_term: true
  }
}
layer {
  name: "res2b_branch2a_relu"
  type: "ReLU"
  bottom: "res2b_branch2a"
  top: "res2b_branch2a"
}
layer {
  name: "res2b_branch2b"
  type: "Convolution"
  bottom: "res2b_branch2a"
  top: "res2b_branch2b"
  convolution_param {
    num_output: 64
    bias_term: false
    pad: 1
    kernel_size: 3
    stride: 1
    weight_filler {
      type: "msra"
    }
  }
}
layer {
  name: "bn2b_branch2b"
  type: "BatchNorm"
  bottom: "res2b_branch2b"
  top: "res2b_branch2b"
  batch_norm_param {
    use_global_stats: false
  }
}
layer {
  name: "scale2b_branch2b"
  type: "Scale"
  bottom: "res2b_branch2b"
  top: "res2b_branch2b"
  scale_param {
    bias_term: true
  }
}
layer {
  name: "res2b_branch2b_relu"
  type: "ReLU"
  bottom: "res2b_branch2b"
  top: "res2b_branch2b"
}
layer {
  name: "res2b_branch2c"
  type: "Convolution"
  bottom: "res2b_branch2b"
  top: "res2b_branch2c"
  convolution_param {
    num_output: 256
    bias_term: false
    pad: 0
    kernel_size: 1
    stride: 1
    weight_filler {
      type: "msra"
    }
  }
}
layer {
  name: "bn2b_branch2c"
  type: "BatchNorm"
  bottom: "res2b_branch2c"
  top: "res2b_branch2c"
  batch_norm_param {
    use_global_stats: false
  }
}
layer {
  name: "scale2b_branch2c"
  type: "Scale"
  bottom: "res2b_branch2c"
  top: "res2b_branch2c"
  scale_param {
    bias_term: true
  }
}
layer {
  name: "res2b"
  type: "Eltwise"
  bottom: "res2a"
  bottom: "res2b_branch2c"
  top: "res2b"
  eltwise_param {
    operation: SUM
  }
}
layer {
  name: "res2b_relu"
  type: "ReLU"
  bottom: "res2b"
  top: "res2b"
}
layer {
  name: "res2c_branch2a"
  type: "Convolution"
  bottom: "res2b"
  top: "res2c_branch2a"
  convolution_param {
    num_output: 64
    bias_term: false
    pad: 0
    kernel_size: 1
    stride: 1
    weight_filler {
      type: "msra"
    }
  }
}
layer {
  name: "bn2c_branch2a"
  type: "BatchNorm"
  bottom: "res2c_branch2a"
  top: "res2c_branch2a"
  batch_norm_param {
    use_global_stats: false
  }
}
layer {
  name: "scale2c_branch2a"
  type: "Scale"
  bottom: "res2c_branch2a"
  top: "res2c_branch2a"
  scale_param {
    bias_term: true
  }
}
layer {
  name: "res2c_branch2a_relu"
  type: "ReLU"
  bottom: "res2c_branch2a"
  top: "res2c_branch2a"
}
layer {
  name: "res2c_branch2b"
  type: "Convolution"
  bottom: "res2c_branch2a"
  top: "res2c_branch2b"
  convolution_param {
    num_output: 64
    bias_term: false
    pad: 1
    kernel_size: 3
    stride: 1
    weight_filler {
      type: "msra"
    }
  }
}
layer {
  name: "bn2c_branch2b"
  type: "BatchNorm"
  bottom: "res2c_branch2b"
  top: "res2c_branch2b"
  batch_norm_param {
    use_global_stats: false
  }
}
layer {
  name: "scale2c_branch2b"
  type: "Scale"
  bottom: "res2c_branch2b"
  top: "res2c_branch2b"
  scale_param {
    bias_term: true
  }
}
layer {
  name: "res2c_branch2b_relu"
  type: "ReLU"
  bottom: "res2c_branch2b"
  top: "res2c_branch2b"
}
layer {
  name: "res2c_branch2c"
  type: "Convolution"
  bottom: "res2c_branch2b"
  top: "res2c_branch2c"
  convolution_param {
    num_output: 256
    bias_term: false
    pad: 0
    kernel_size: 1
    stride: 1
    weight_filler {
      type: "msra"
    }
  }
}
layer {
  name: "bn2c_branch2c"
  type: "BatchNorm"
  bottom: "res2c_branch2c"
  top: "res2c_branch2c"
  batch_norm_param {
    use_global_stats: false
  }
}
layer {
  name: "scale2c_branch2c"
  type: "Scale"
  bottom: "res2c_branch2c"
  top: "res2c_branch2c"
  scale_param {
    bias_term: true
  }
}
layer {
  name: "res2c"
  type: "Eltwise"
  bottom: "res2b"
  bottom: "res2c_branch2c"
  top: "res2c"
  eltwise_param {
    operation: SUM
  }
}
layer {
  name: "res2c_relu"
  type: "ReLU"
  bottom: "res2c"
  top: "res2c"
}
layer {
  name: "res3a_branch1"
  type: "Convolution"
  bottom: "res2c"
  top: "res3a_branch1"
  convolution_param {
    num_output: 512
    bias_term: false
    pad: 0
    kernel_size: 1
    stride: 2
    weight_filler {
      type: "msra"
    }
  }
}
layer {
  name: "bn3a_branch1"
  type: "BatchNorm"
  bottom: "res3a_branch1"
  top: "res3a_branch1"
  batch_norm_param {
    use_global_stats: false
  }
}
layer {
  name: "scale3a_branch1"
  type: "Scale"
  bottom: "res3a_branch1"
  top: "res3a_branch1"
  scale_param {
    bias_term: true
  }
}
layer {
  name: "res3a_branch2a"
  type: "Convolution"
  bottom: "res2c"
  top: "res3a_branch2a"
  convolution_param {
    num_output: 128
    bias_term: false
    pad: 0
    kernel_size: 1
    stride: 2
    weight_filler {
      type: "msra"
    }
  }
}
layer {
  name: "bn3a_branch2a"
  type: "BatchNorm"
  bottom: "res3a_branch2a"
  top: "res3a_branch2a"
  batch_norm_param {
    use_global_stats: false
  }
}
layer {
  name: "scale3a_branch2a"
  type: "Scale"
  bottom: "res3a_branch2a"
  top: "res3a_branch2a"
  scale_param {
    bias_term: true
  }
}
layer {
  name: "res3a_branch2a_relu"
  type: "ReLU"
  bottom: "res3a_branch2a"
  top: "res3a_branch2a"
}
layer {
  name: "res3a_branch2b"
  type: "Convolution"
  bottom: "res3a_branch2a"
  top: "res3a_branch2b"
  convolution_param {
    num_output: 128
    bias_term: false
    pad: 1
    kernel_size: 3
    stride: 1
    weight_filler {
      type: "msra"
    }
  }
}
layer {
  name: "bn3a_branch2b"
  type: "BatchNorm"
  bottom: "res3a_branch2b"
  top: "res3a_branch2b"
  batch_norm_param {
    use_global_stats: false
  }
}
layer {
  name: "scale3a_branch2b"
  type: "Scale"
  bottom: "res3a_branch2b"
  top: "res3a_branch2b"
  scale_param {
    bias_term: true
  }
}
layer {
  name: "res3a_branch2b_relu"
  type: "ReLU"
  bottom: "res3a_branch2b"
  top: "res3a_branch2b"
}
layer {
  name: "res3a_branch2c"
  type: "Convolution"
  bottom: "res3a_branch2b"
  top: "res3a_branch2c"
  convolution_param {
    num_output: 512
    bias_term: false
    pad: 0
    kernel_size: 1
    stride: 1
    weight_filler {
      type: "msra"
    }
  }
}
layer {
  name: "bn3a_branch2c"
  type: "BatchNorm"
  bottom: "res3a_branch2c"
  top: "res3a_branch2c"
  batch_norm_param {
    use_global_stats: false
  }
}
layer {
  name: "scale3a_branch2c"
  type: "Scale"
  bottom: "res3a_branch2c"
  top: "res3a_branch2c"
  scale_param {
    bias_term: true
  }
}
layer {
  name: "res3a"
  type: "Eltwise"
  bottom: "res3a_branch1"
  bottom: "res3a_branch2c"
  top: "res3a"
  eltwise_param {
    operation: SUM
  }
}
layer {
  name: "res3a_relu"
  type: "ReLU"
  bottom: "res3a"
  top: "res3a"
}
layer {
  name: "res3b1_branch2a"
  type: "Convolution"
  bottom: "res3a"
  top: "res3b1_branch2a"
  convolution_param {
    num_output: 128
    bias_term: false
    pad: 0
    kernel_size: 1
    stride: 1
    weight_filler {
      type: "msra"
    }
  }
}
layer {
  name: "bn3b1_branch2a"
  type: "BatchNorm"
  bottom: "res3b1_branch2a"
  top: "res3b1_branch2a"
  batch_norm_param {
    use_global_stats: false
  }
}
layer {
  name: "scale3b1_branch2a"
  type: "Scale"
  bottom: "res3b1_branch2a"
  top: "res3b1_branch2a"
  scale_param {
    bias_term: true
  }
}
layer {
  name: "res3b1_branch2a_relu"
  type: "ReLU"
  bottom: "res3b1_branch2a"
  top: "res3b1_branch2a"
}
layer {
  name: "res3b1_branch2b"
  type: "Convolution"
  bottom: "res3b1_branch2a"
  top: "res3b1_branch2b"
  convolution_param {
    num_output: 128
    bias_term: false
    pad: 1
    kernel_size: 3
    stride: 1
    weight_filler {
      type: "msra"
    }
  }
}
layer {
  name: "bn3b1_branch2b"
  type: "BatchNorm"
  bottom: "res3b1_branch2b"
  top: "res3b1_branch2b"
  batch_norm_param {
    use_global_stats: false
  }
}
layer {
  name: "scale3b1_branch2b"
  type: "Scale"
  bottom: "res3b1_branch2b"
  top: "res3b1_branch2b"
  scale_param {
    bias_term: true
  }
}
layer {
  name: "res3b1_branch2b_relu"
  type: "ReLU"
  bottom: "res3b1_branch2b"
  top: "res3b1_branch2b"
}
layer {
  name: "res3b1_branch2c"
  type: "Convolution"
  bottom: "res3b1_branch2b"
  top: "res3b1_branch2c"
  convolution_param {
    num_output: 512
    bias_term: false
    pad: 0
    kernel_size: 1
    stride: 1
    weight_filler {
      type: "msra"
    }
  }
}
layer {
  name: "bn3b1_branch2c"
  type: "BatchNorm"
  bottom: "res3b1_branch2c"
  top: "res3b1_branch2c"
  batch_norm_param {
    use_global_stats: false
  }
}
layer {
  name: "scale3b1_branch2c"
  type: "Scale"
  bottom: "res3b1_branch2c"
  top: "res3b1_branch2c"
  scale_param {
    bias_term: true
  }
}
layer {
  name: "res3b1"
  type: "Eltwise"
  bottom: "res3a"
  bottom: "res3b1_branch2c"
  top: "res3b1"
  eltwise_param {
    operation: SUM
  }
}
layer {
  name: "res3b1_relu"
  type: "ReLU"
  bottom: "res3b1"
  top: "res3b1"
}
layer {
  name: "res3b2_branch2a"
  type: "Convolution"
  bottom: "res3b1"
  top: "res3b2_branch2a"
  convolution_param {
    num_output: 128
    bias_term: false
    pad: 0
    kernel_size: 1
    stride: 1
    weight_filler {
      type: "msra"
    }
  }
}
layer {
  name: "bn3b2_branch2a"
  type: "BatchNorm"
  bottom: "res3b2_branch2a"
  top: "res3b2_branch2a"
  batch_norm_param {
    use_global_stats: false
  }
}
layer {
  name: "scale3b2_branch2a"
  type: "Scale"
  bottom: "res3b2_branch2a"
  top: "res3b2_branch2a"
  scale_param {
    bias_term: true
  }
}
layer {
  name: "res3b2_branch2a_relu"
  type: "ReLU"
  bottom: "res3b2_branch2a"
  top: "res3b2_branch2a"
}
layer {
  name: "res3b2_branch2b"
  type: "Convolution"
  bottom: "res3b2_branch2a"
  top: "res3b2_branch2b"
  convolution_param {
    num_output: 128
    bias_term: false
    pad: 1
    kernel_size: 3
    stride: 1
    weight_filler {
      type: "msra"
    }
  }
}
layer {
  name: "bn3b2_branch2b"
  type: "BatchNorm"
  bottom: "res3b2_branch2b"
  top: "res3b2_branch2b"
  batch_norm_param {
    use_global_stats: false
  }
}
layer {
  name: "scale3b2_branch2b"
  type: "Scale"
  bottom: "res3b2_branch2b"
  top: "res3b2_branch2b"
  scale_param {
    bias_term: true
  }
}
layer {
  name: "res3b2_branch2b_relu"
  type: "ReLU"
  bottom: "res3b2_branch2b"
  top: "res3b2_branch2b"
}
layer {
  name: "res3b2_branch2c"
  type: "Convolution"
  bottom: "res3b2_branch2b"
  top: "res3b2_branch2c"
  convolution_param {
    num_output: 512
    bias_term: false
    pad: 0
    kernel_size: 1
    stride: 1
    weight_filler {
      type: "msra"
    }
  }
}
layer {
  name: "bn3b2_branch2c"
  type: "BatchNorm"
  bottom: "res3b2_branch2c"
  top: "res3b2_branch2c"
  batch_norm_param {
    use_global_stats: false
  }
}
layer {
  name: "scale3b2_branch2c"
  type: "Scale"
  bottom: "res3b2_branch2c"
  top: "res3b2_branch2c"
  scale_param {
    bias_term: true
  }
}
layer {
  name: "res3b2"
  type: "Eltwise"
  bottom: "res3b1"
  bottom: "res3b2_branch2c"
  top: "res3b2"
  eltwise_param {
    operation: SUM
  }
}
layer {
  name: "res3b2_relu"
  type: "ReLU"
  bottom: "res3b2"
  top: "res3b2"
}
layer {
  name: "res3b3_branch2a"
  type: "Convolution"
  bottom: "res3b2"
  top: "res3b3_branch2a"
  convolution_param {
    num_output: 128
    bias_term: false
    pad: 0
    kernel_size: 1
    stride: 1
    weight_filler {
      type: "msra"
    }
  }
}
layer {
  name: "bn3b3_branch2a"
  type: "BatchNorm"
  bottom: "res3b3_branch2a"
  top: "res3b3_branch2a"
  batch_norm_param {
    use_global_stats: false
  }
}
layer {
  name: "scale3b3_branch2a"
  type: "Scale"
  bottom: "res3b3_branch2a"
  top: "res3b3_branch2a"
  scale_param {
    bias_term: true
  }
}
layer {
  name: "res3b3_branch2a_relu"
  type: "ReLU"
  bottom: "res3b3_branch2a"
  top: "res3b3_branch2a"
}
layer {
  name: "res3b3_branch2b"
  type: "Convolution"
  bottom: "res3b3_branch2a"
  top: "res3b3_branch2b"
  convolution_param {
    num_output: 128
    bias_term: false
    pad: 1
    kernel_size: 3
    stride: 1
    weight_filler {
      type: "msra"
    }
  }
}
layer {
  name: "bn3b3_branch2b"
  type: "BatchNorm"
  bottom: "res3b3_branch2b"
  top: "res3b3_branch2b"
  batch_norm_param {
    use_global_stats: false
  }
}
layer {
  name: "scale3b3_branch2b"
  type: "Scale"
  bottom: "res3b3_branch2b"
  top: "res3b3_branch2b"
  scale_param {
    bias_term: true
  }
}
layer {
  name: "res3b3_branch2b_relu"
  type: "ReLU"
  bottom: "res3b3_branch2b"
  top: "res3b3_branch2b"
}
layer {
  name: "res3b3_branch2c"
  type: "Convolution"
  bottom: "res3b3_branch2b"
  top: "res3b3_branch2c"
  convolution_param {
    num_output: 512
    bias_term: false
    pad: 0
    kernel_size: 1
    stride: 1
    weight_filler {
      type: "msra"
    }
  }
}
layer {
  name: "bn3b3_branch2c"
  type: "BatchNorm"
  bottom: "res3b3_branch2c"
  top: "res3b3_branch2c"
  batch_norm_param {
    use_global_stats: false
  }
}
layer {
  name: "scale3b3_branch2c"
  type: "Scale"
  bottom: "res3b3_branch2c"
  top: "res3b3_branch2c"
  scale_param {
    bias_term: true
  }
}
layer {
  name: "res3b3"
  type: "Eltwise"
  bottom: "res3b2"
  bottom: "res3b3_branch2c"
  top: "res3b3"
  eltwise_param {
    operation: SUM
  }
}
layer {
  name: "res3b3_relu"
  type: "ReLU"
  bottom: "res3b3"
  top: "res3b3"
}
layer {
  name: "res3b4_branch2a"
  type: "Convolution"
  bottom: "res3b3"
  top: "res3b4_branch2a"
  convolution_param {
    num_output: 128
    bias_term: false
    pad: 0
    kernel_size: 1
    stride: 1
    weight_filler {
      type: "msra"
    }
  }
}
layer {
  name: "bn3b4_branch2a"
  type: "BatchNorm"
  bottom: "res3b4_branch2a"
  top: "res3b4_branch2a"
  batch_norm_param {
    use_global_stats: false
  }
}
layer {
  name: "scale3b4_branch2a"
  type: "Scale"
  bottom: "res3b4_branch2a"
  top: "res3b4_branch2a"
  scale_param {
    bias_term: true
  }
}
layer {
  name: "res3b4_branch2a_relu"
  type: "ReLU"
  bottom: "res3b4_branch2a"
  top: "res3b4_branch2a"
}
layer {
  name: "res3b4_branch2b"
  type: "Convolution"
  bottom: "res3b4_branch2a"
  top: "res3b4_branch2b"
  convolution_param {
    num_output: 128
    bias_term: false
    pad: 1
    kernel_size: 3
    stride: 1
    weight_filler {
      type: "msra"
    }
  }
}
layer {
  name: "bn3b4_branch2b"
  type: "BatchNorm"
  bottom: "res3b4_branch2b"
  top: "res3b4_branch2b"
  batch_norm_param {
    use_global_stats: false
  }
}
layer {
  name: "scale3b4_branch2b"
  type: "Scale"
  bottom: "res3b4_branch2b"
  top: "res3b4_branch2b"
  scale_param {
    bias_term: true
  }
}
layer {
  name: "res3b4_branch2b_relu"
  type: "ReLU"
  bottom: "res3b4_branch2b"
  top: "res3b4_branch2b"
}
layer {
  name: "res3b4_branch2c"
  type: "Convolution"
  bottom: "res3b4_branch2b"
  top: "res3b4_branch2c"
  convolution_param {
    num_output: 512
    bias_term: false
    pad: 0
    kernel_size: 1
    stride: 1
    weight_filler {
      type: "msra"
    }
  }
}
layer {
  name: "bn3b4_branch2c"
  type: "BatchNorm"
  bottom: "res3b4_branch2c"
  top: "res3b4_branch2c"
  batch_norm_param {
    use_global_stats: false
  }
}
layer {
  name: "scale3b4_branch2c"
  type: "Scale"
  bottom: "res3b4_branch2c"
  top: "res3b4_branch2c"
  scale_param {
    bias_term: true
  }
}
layer {
  name: "res3b4"
  type: "Eltwise"
  bottom: "res3b3"
  bottom: "res3b4_branch2c"
  top: "res3b4"
  eltwise_param {
    operation: SUM
  }
}
layer {
  name: "res3b4_relu"
  type: "ReLU"
  bottom: "res3b4"
  top: "res3b4"
}
layer {
  name: "res3b5_branch2a"
  type: "Convolution"
  bottom: "res3b4"
  top: "res3b5_branch2a"
  convolution_param {
    num_output: 128
    bias_term: false
    pad: 0
    kernel_size: 1
    stride: 1
    weight_filler {
      type: "msra"
    }
  }
}
layer {
  name: "bn3b5_branch2a"
  type: "BatchNorm"
  bottom: "res3b5_branch2a"
  top: "res3b5_branch2a"
  batch_norm_param {
    use_global_stats: false
  }
}
layer {
  name: "scale3b5_branch2a"
  type: "Scale"
  bottom: "res3b5_branch2a"
  top: "res3b5_branch2a"
  scale_param {
    bias_term: true
  }
}
layer {
  name: "res3b5_branch2a_relu"
  type: "ReLU"
  bottom: "res3b5_branch2a"
  top: "res3b5_branch2a"
}
layer {
  name: "res3b5_branch2b"
  type: "Convolution"
  bottom: "res3b5_branch2a"
  top: "res3b5_branch2b"
  convolution_param {
    num_output: 128
    bias_term: false
    pad: 1
    kernel_size: 3
    stride: 1
    weight_filler {
      type: "msra"
    }
  }
}
layer {
  name: "bn3b5_branch2b"
  type: "BatchNorm"
  bottom: "res3b5_branch2b"
  top: "res3b5_branch2b"
  batch_norm_param {
    use_global_stats: false
  }
}
layer {
  name: "scale3b5_branch2b"
  type: "Scale"
  bottom: "res3b5_branch2b"
  top: "res3b5_branch2b"
  scale_param {
    bias_term: true
  }
}
layer {
  name: "res3b5_branch2b_relu"
  type: "ReLU"
  bottom: "res3b5_branch2b"
  top: "res3b5_branch2b"
}
layer {
  name: "res3b5_branch2c"
  type: "Convolution"
  bottom: "res3b5_branch2b"
  top: "res3b5_branch2c"
  convolution_param {
    num_output: 512
    bias_term: false
    pad: 0
    kernel_size: 1
    stride: 1
    weight_filler {
      type: "msra"
    }
  }
}
layer {
  name: "bn3b5_branch2c"
  type: "BatchNorm"
  bottom: "res3b5_branch2c"
  top: "res3b5_branch2c"
  batch_norm_param {
    use_global_stats: false
  }
}
layer {
  name: "scale3b5_branch2c"
  type: "Scale"
  bottom: "res3b5_branch2c"
  top: "res3b5_branch2c"
  scale_param {
    bias_term: true
  }
}
layer {
  name: "res3b5"
  type: "Eltwise"
  bottom: "res3b4"
  bottom: "res3b5_branch2c"
  top: "res3b5"
  eltwise_param {
    operation: SUM
  }
}
layer {
  name: "res3b5_relu"
  type: "ReLU"
  bottom: "res3b5"
  top: "res3b5"
}
layer {
  name: "res3b6_branch2a"
  type: "Convolution"
  bottom: "res3b5"
  top: "res3b6_branch2a"
  convolution_param {
    num_output: 128
    bias_term: false
    pad: 0
    kernel_size: 1
    stride: 1
    weight_filler {
      type: "msra"
    }
  }
}
layer {
  name: "bn3b6_branch2a"
  type: "BatchNorm"
  bottom: "res3b6_branch2a"
  top: "res3b6_branch2a"
  batch_norm_param {
    use_global_stats: false
  }
}
layer {
  name: "scale3b6_branch2a"
  type: "Scale"
  bottom: "res3b6_branch2a"
  top: "res3b6_branch2a"
  scale_param {
    bias_term: true
  }
}
layer {
  name: "res3b6_branch2a_relu"
  type: "ReLU"
  bottom: "res3b6_branch2a"
  top: "res3b6_branch2a"
}
layer {
  name: "res3b6_branch2b"
  type: "Convolution"
  bottom: "res3b6_branch2a"
  top: "res3b6_branch2b"
  convolution_param {
    num_output: 128
    bias_term: false
    pad: 1
    kernel_size: 3
    stride: 1
    weight_filler {
      type: "msra"
    }
  }
}
layer {
  name: "bn3b6_branch2b"
  type: "BatchNorm"
  bottom: "res3b6_branch2b"
  top: "res3b6_branch2b"
  batch_norm_param {
    use_global_stats: false
  }
}
layer {
  name: "scale3b6_branch2b"
  type: "Scale"
  bottom: "res3b6_branch2b"
  top: "res3b6_branch2b"
  scale_param {
    bias_term: true
  }
}
layer {
  name: "res3b6_branch2b_relu"
  type: "ReLU"
  bottom: "res3b6_branch2b"
  top: "res3b6_branch2b"
}
layer {
  name: "res3b6_branch2c"
  type: "Convolution"
  bottom: "res3b6_branch2b"
  top: "res3b6_branch2c"
  convolution_param {
    num_output: 512
    bias_term: false
    pad: 0
    kernel_size: 1
    stride: 1
    weight_filler {
      type: "msra"
    }
  }
}
layer {
  name: "bn3b6_branch2c"
  type: "BatchNorm"
  bottom: "res3b6_branch2c"
  top: "res3b6_branch2c"
  batch_norm_param {
    use_global_stats: false
  }
}
layer {
  name: "scale3b6_branch2c"
  type: "Scale"
  bottom: "res3b6_branch2c"
  top: "res3b6_branch2c"
  scale_param {
    bias_term: true
  }
}
layer {
  name: "res3b6"
  type: "Eltwise"
  bottom: "res3b5"
  bottom: "res3b6_branch2c"
  top: "res3b6"
  eltwise_param {
    operation: SUM
  }
}
layer {
  name: "res3b6_relu"
  type: "ReLU"
  bottom: "res3b6"
  top: "res3b6"
}
layer {
  name: "res3b7_branch2a"
  type: "Convolution"
  bottom: "res3b6"
  top: "res3b7_branch2a"
  convolution_param {
    num_output: 128
    bias_term: false
    pad: 0
    kernel_size: 1
    stride: 1
    weight_filler {
      type: "msra"
    }
  }
}
layer {
  name: "bn3b7_branch2a"
  type: "BatchNorm"
  bottom: "res3b7_branch2a"
  top: "res3b7_branch2a"
  batch_norm_param {
    use_global_stats: false
  }
}
layer {
  name: "scale3b7_branch2a"
  type: "Scale"
  bottom: "res3b7_branch2a"
  top: "res3b7_branch2a"
  scale_param {
    bias_term: true
  }
}
layer {
  name: "res3b7_branch2a_relu"
  type: "ReLU"
  bottom: "res3b7_branch2a"
  top: "res3b7_branch2a"
}
layer {
  name: "res3b7_branch2b"
  type: "Convolution"
  bottom: "res3b7_branch2a"
  top: "res3b7_branch2b"
  convolution_param {
    num_output: 128
    bias_term: false
    pad: 1
    kernel_size: 3
    stride: 1
    weight_filler {
      type: "msra"
    }
  }
}
layer {
  name: "bn3b7_branch2b"
  type: "BatchNorm"
  bottom: "res3b7_branch2b"
  top: "res3b7_branch2b"
  batch_norm_param {
    use_global_stats: false
  }
}
layer {
  name: "scale3b7_branch2b"
  type: "Scale"
  bottom: "res3b7_branch2b"
  top: "res3b7_branch2b"
  scale_param {
    bias_term: true
  }
}
layer {
  name: "res3b7_branch2b_relu"
  type: "ReLU"
  bottom: "res3b7_branch2b"
  top: "res3b7_branch2b"
}
layer {
  name: "res3b7_branch2c"
  type: "Convolution"
  bottom: "res3b7_branch2b"
  top: "res3b7_branch2c"
  convolution_param {
    num_output: 512
    bias_term: false
    pad: 0
    kernel_size: 1
    stride: 1
    weight_filler {
      type: "msra"
    }
  }
}
layer {
  name: "bn3b7_branch2c"
  type: "BatchNorm"
  bottom: "res3b7_branch2c"
  top: "res3b7_branch2c"
  batch_norm_param {
    use_global_stats: false
  }
}
layer {
  name: "scale3b7_branch2c"
  type: "Scale"
  bottom: "res3b7_branch2c"
  top: "res3b7_branch2c"
  scale_param {
    bias_term: true
  }
}
layer {
  name: "res3b7"
  type: "Eltwise"
  bottom: "res3b6"
  bottom: "res3b7_branch2c"
  top: "res3b7"
  eltwise_param {
    operation: SUM
  }
}
layer {
  name: "res3b7_relu"
  type: "ReLU"
  bottom: "res3b7"
  top: "res3b7"
}
layer {
  name: "res4a_branch1"
  type: "Convolution"
  bottom: "res3b7"
  top: "res4a_branch1"
  convolution_param {
    num_output: 1024
    bias_term: false
    pad: 0
    kernel_size: 1
    stride: 2
    weight_filler {
      type: "msra"
    }
  }
}
layer {
  name: "bn4a_branch1"
  type: "BatchNorm"
  bottom: "res4a_branch1"
  top: "res4a_branch1"
  batch_norm_param {
    use_global_stats: false
  }
}
layer {
  name: "scale4a_branch1"
  type: "Scale"
  bottom: "res4a_branch1"
  top: "res4a_branch1"
  scale_param {
    bias_term: true
  }
}
layer {
  name: "res4a_branch2a"
  type: "Convolution"
  bottom: "res3b7"
  top: "res4a_branch2a"
  convolution_param {
    num_output: 256
    bias_term: false
    pad: 0
    kernel_size: 1
    stride: 2
    weight_filler {
      type: "msra"
    }
  }
}
layer {
  name: "bn4a_branch2a"
  type: "BatchNorm"
  bottom: "res4a_branch2a"
  top: "res4a_branch2a"
  batch_norm_param {
    use_global_stats: false
  }
}
layer {
  name: "scale4a_branch2a"
  type: "Scale"
  bottom: "res4a_branch2a"
  top: "res4a_branch2a"
  scale_param {
    bias_term: true
  }
}
layer {
  name: "res4a_branch2a_relu"
  type: "ReLU"
  bottom: "res4a_branch2a"
  top: "res4a_branch2a"
}
layer {
  name: "res4a_branch2b"
  type: "Convolution"
  bottom: "res4a_branch2a"
  top: "res4a_branch2b"
  convolution_param {
    num_output: 256
    bias_term: false
    pad: 1
    kernel_size: 3
    stride: 1
    weight_filler {
      type: "msra"
    }
  }
}
layer {
  name: "bn4a_branch2b"
  type: "BatchNorm"
  bottom: "res4a_branch2b"
  top: "res4a_branch2b"
  batch_norm_param {
    use_global_stats: false
  }
}
layer {
  name: "scale4a_branch2b"
  type: "Scale"
  bottom: "res4a_branch2b"
  top: "res4a_branch2b"
  scale_param {
    bias_term: true
  }
}
layer {
  name: "res4a_branch2b_relu"
  type: "ReLU"
  bottom: "res4a_branch2b"
  top: "res4a_branch2b"
}
layer {
  name: "res4a_branch2c"
  type: "Convolution"
  bottom: "res4a_branch2b"
  top: "res4a_branch2c"
  convolution_param {
    num_output: 1024
    bias_term: false
    pad: 0
    kernel_size: 1
    stride: 1
    weight_filler {
      type: "msra"
    }
  }
}
layer {
  name: "bn4a_branch2c"
  type: "BatchNorm"
  bottom: "res4a_branch2c"
  top: "res4a_branch2c"
  batch_norm_param {
    use_global_stats: false
  }
}
layer {
  name: "scale4a_branch2c"
  type: "Scale"
  bottom: "res4a_branch2c"
  top: "res4a_branch2c"
  scale_param {
    bias_term: true
  }
}
layer {
  name: "res4a"
  type: "Eltwise"
  bottom: "res4a_branch1"
  bottom: "res4a_branch2c"
  top: "res4a"
  eltwise_param {
    operation: SUM
  }
}
layer {
  name: "res4a_relu"
  type: "ReLU"
  bottom: "res4a"
  top: "res4a"
}
layer {
  name: "res4b1_branch2a"
  type: "Convolution"
  bottom: "res4a"
  top: "res4b1_branch2a"
  convolution_param {
    num_output: 256
    bias_term: false
    pad: 0
    kernel_size: 1
    stride: 1
    weight_filler {
      type: "msra"
    }
  }
}
layer {
  name: "bn4b1_branch2a"
  type: "BatchNorm"
  bottom: "res4b1_branch2a"
  top: "res4b1_branch2a"
  batch_norm_param {
    use_global_stats: false
  }
}
layer {
  name: "scale4b1_branch2a"
  type: "Scale"
  bottom: "res4b1_branch2a"
  top: "res4b1_branch2a"
  scale_param {
    bias_term: true
  }
}
layer {
  name: "res4b1_branch2a_relu"
  type: "ReLU"
  bottom: "res4b1_branch2a"
  top: "res4b1_branch2a"
}
layer {
  name: "res4b1_branch2b"
  type: "Convolution"
  bottom: "res4b1_branch2a"
  top: "res4b1_branch2b"
  convolution_param {
    num_output: 256
    bias_term: false
    pad: 1
    kernel_size: 3
    stride: 1
    weight_filler {
      type: "msra"
    }
  }
}
layer {
  name: "bn4b1_branch2b"
  type: "BatchNorm"
  bottom: "res4b1_branch2b"
  top: "res4b1_branch2b"
  batch_norm_param {
    use_global_stats: false
  }
}
layer {
  name: "scale4b1_branch2b"
  type: "Scale"
  bottom: "res4b1_branch2b"
  top: "res4b1_branch2b"
  scale_param {
    bias_term: true
  }
}
layer {
  name: "res4b1_branch2b_relu"
  ty
I0417 03:39:27.266965  3757 layer_factory.hpp:77] Creating layer data
I0417 03:39:27.329574  3757 db_lmdb.cpp:35] Opened lmdb /home/danilo/Documents/FGA/2018-1/TCC1/Datasets/Atlas_5k_lmdb/train
I0417 03:39:27.338950  3757 net.cpp:84] Creating Layer data
I0417 03:39:27.339005  3757 net.cpp:380] data -> data
I0417 03:39:27.339048  3757 net.cpp:380] data -> label
I0417 03:39:27.339083  3757 data_transformer.cpp:25] Loading mean file from: /home/danilo/Documents/FGA/2018-1/TCC1/Datasets/Atlas_5k_lmdb/input/mean.binaryproto
I0417 03:39:27.389647  3757 data_layer.cpp:45] output data size: 5,3,224,224
I0417 03:39:27.407081  3757 net.cpp:122] Setting up data
I0417 03:39:27.407133  3757 net.cpp:129] Top shape: 5 3 224 224 (752640)
I0417 03:39:27.407151  3757 net.cpp:129] Top shape: 5 (5)
I0417 03:39:27.407164  3757 net.cpp:137] Memory required for data: 3010580
I0417 03:39:27.407181  3757 layer_factory.hpp:77] Creating layer conv1
I0417 03:39:27.407217  3757 net.cpp:84] Creating Layer conv1
I0417 03:39:27.407232  3757 net.cpp:406] conv1 <- data
I0417 03:39:27.407258  3757 net.cpp:380] conv1 -> conv1
I0417 03:39:31.278133  3757 net.cpp:122] Setting up conv1
I0417 03:39:31.278172  3757 net.cpp:129] Top shape: 5 64 112 112 (4014080)
I0417 03:39:31.278182  3757 net.cpp:137] Memory required for data: 19066900
I0417 03:39:31.278209  3757 layer_factory.hpp:77] Creating layer bn_conv1
I0417 03:39:31.278234  3757 net.cpp:84] Creating Layer bn_conv1
I0417 03:39:31.278271  3757 net.cpp:406] bn_conv1 <- conv1
I0417 03:39:31.278288  3757 net.cpp:367] bn_conv1 -> conv1 (in-place)
I0417 03:39:31.278786  3757 net.cpp:122] Setting up bn_conv1
I0417 03:39:31.278805  3757 net.cpp:129] Top shape: 5 64 112 112 (4014080)
I0417 03:39:31.278812  3757 net.cpp:137] Memory required for data: 35123220
I0417 03:39:31.278834  3757 layer_factory.hpp:77] Creating layer scale_conv1
I0417 03:39:31.278851  3757 net.cpp:84] Creating Layer scale_conv1
I0417 03:39:31.278861  3757 net.cpp:406] scale_conv1 <- conv1
I0417 03:39:31.278887  3757 net.cpp:367] scale_conv1 -> conv1 (in-place)
I0417 03:39:31.279004  3757 layer_factory.hpp:77] Creating layer scale_conv1
I0417 03:39:31.279306  3757 net.cpp:122] Setting up scale_conv1
I0417 03:39:31.279322  3757 net.cpp:129] Top shape: 5 64 112 112 (4014080)
I0417 03:39:31.279331  3757 net.cpp:137] Memory required for data: 51179540
I0417 03:39:31.279348  3757 layer_factory.hpp:77] Creating layer conv1_relu
I0417 03:39:31.279366  3757 net.cpp:84] Creating Layer conv1_relu
I0417 03:39:31.279382  3757 net.cpp:406] conv1_relu <- conv1
I0417 03:39:31.279395  3757 net.cpp:367] conv1_relu -> conv1 (in-place)
I0417 03:39:31.280746  3757 net.cpp:122] Setting up conv1_relu
I0417 03:39:31.280769  3757 net.cpp:129] Top shape: 5 64 112 112 (4014080)
I0417 03:39:31.280778  3757 net.cpp:137] Memory required for data: 67235860
I0417 03:39:31.280787  3757 layer_factory.hpp:77] Creating layer pool1
I0417 03:39:31.280802  3757 net.cpp:84] Creating Layer pool1
I0417 03:39:31.280823  3757 net.cpp:406] pool1 <- conv1
I0417 03:39:31.280838  3757 net.cpp:380] pool1 -> pool1
I0417 03:39:31.280956  3757 net.cpp:122] Setting up pool1
I0417 03:39:31.280973  3757 net.cpp:129] Top shape: 5 64 56 56 (1003520)
I0417 03:39:31.280982  3757 net.cpp:137] Memory required for data: 71249940
I0417 03:39:31.280990  3757 layer_factory.hpp:77] Creating layer pool1_pool1_0_split
I0417 03:39:31.281013  3757 net.cpp:84] Creating Layer pool1_pool1_0_split
I0417 03:39:31.281024  3757 net.cpp:406] pool1_pool1_0_split <- pool1
I0417 03:39:31.281038  3757 net.cpp:380] pool1_pool1_0_split -> pool1_pool1_0_split_0
I0417 03:39:31.281057  3757 net.cpp:380] pool1_pool1_0_split -> pool1_pool1_0_split_1
I0417 03:39:31.281153  3757 net.cpp:122] Setting up pool1_pool1_0_split
I0417 03:39:31.281169  3757 net.cpp:129] Top shape: 5 64 56 56 (1003520)
I0417 03:39:31.281180  3757 net.cpp:129] Top shape: 5 64 56 56 (1003520)
I0417 03:39:31.281188  3757 net.cpp:137] Memory required for data: 79278100
I0417 03:39:31.281196  3757 layer_factory.hpp:77] Creating layer res2a_branch1
I0417 03:39:31.281219  3757 net.cpp:84] Creating Layer res2a_branch1
I0417 03:39:31.281231  3757 net.cpp:406] res2a_branch1 <- pool1_pool1_0_split_0
I0417 03:39:31.281245  3757 net.cpp:380] res2a_branch1 -> res2a_branch1
I0417 03:39:31.286764  3757 net.cpp:122] Setting up res2a_branch1
I0417 03:39:31.286792  3757 net.cpp:129] Top shape: 5 256 56 56 (4014080)
I0417 03:39:31.286801  3757 net.cpp:137] Memory required for data: 95334420
I0417 03:39:31.286816  3757 layer_factory.hpp:77] Creating layer bn2a_branch1
I0417 03:39:31.286839  3757 net.cpp:84] Creating Layer bn2a_branch1
I0417 03:39:31.286855  3757 net.cpp:406] bn2a_branch1 <- res2a_branch1
I0417 03:39:31.286881  3757 net.cpp:367] bn2a_branch1 -> res2a_branch1 (in-place)
I0417 03:39:31.288959  3757 net.cpp:122] Setting up bn2a_branch1
I0417 03:39:31.288985  3757 net.cpp:129] Top shape: 5 256 56 56 (4014080)
I0417 03:39:31.288995  3757 net.cpp:137] Memory required for data: 111390740
I0417 03:39:31.289017  3757 layer_factory.hpp:77] Creating layer scale2a_branch1
I0417 03:39:31.289032  3757 net.cpp:84] Creating Layer scale2a_branch1
I0417 03:39:31.289047  3757 net.cpp:406] scale2a_branch1 <- res2a_branch1
I0417 03:39:31.289062  3757 net.cpp:367] scale2a_branch1 -> res2a_branch1 (in-place)
I0417 03:39:31.289170  3757 layer_factory.hpp:77] Creating layer scale2a_branch1
I0417 03:39:31.289451  3757 net.cpp:122] Setting up scale2a_branch1
I0417 03:39:31.289469  3757 net.cpp:129] Top shape: 5 256 56 56 (4014080)
I0417 03:39:31.289497  3757 net.cpp:137] Memory required for data: 127447060
I0417 03:39:31.289513  3757 layer_factory.hpp:77] Creating layer res2a_branch2a
I0417 03:39:31.289535  3757 net.cpp:84] Creating Layer res2a_branch2a
I0417 03:39:31.289548  3757 net.cpp:406] res2a_branch2a <- pool1_pool1_0_split_1
I0417 03:39:31.289567  3757 net.cpp:380] res2a_branch2a -> res2a_branch2a
I0417 03:39:31.294647  3757 net.cpp:122] Setting up res2a_branch2a
I0417 03:39:31.294677  3757 net.cpp:129] Top shape: 5 64 56 56 (1003520)
I0417 03:39:31.294685  3757 net.cpp:137] Memory required for data: 131461140
I0417 03:39:31.294700  3757 layer_factory.hpp:77] Creating layer bn2a_branch2a
I0417 03:39:31.294720  3757 net.cpp:84] Creating Layer bn2a_branch2a
I0417 03:39:31.294734  3757 net.cpp:406] bn2a_branch2a <- res2a_branch2a
I0417 03:39:31.294749  3757 net.cpp:367] bn2a_branch2a -> res2a_branch2a (in-place)
I0417 03:39:31.295236  3757 net.cpp:122] Setting up bn2a_branch2a
I0417 03:39:31.295255  3757 net.cpp:129] Top shape: 5 64 56 56 (1003520)
I0417 03:39:31.295264  3757 net.cpp:137] Memory required for data: 135475220
I0417 03:39:31.295281  3757 layer_factory.hpp:77] Creating layer scale2a_branch2a
I0417 03:39:31.295305  3757 net.cpp:84] Creating Layer scale2a_branch2a
I0417 03:39:31.295317  3757 net.cpp:406] scale2a_branch2a <- res2a_branch2a
I0417 03:39:31.295331  3757 net.cpp:367] scale2a_branch2a -> res2a_branch2a (in-place)
I0417 03:39:31.295437  3757 layer_factory.hpp:77] Creating layer scale2a_branch2a
I0417 03:39:31.295735  3757 net.cpp:122] Setting up scale2a_branch2a
I0417 03:39:31.295753  3757 net.cpp:129] Top shape: 5 64 56 56 (1003520)
I0417 03:39:31.295760  3757 net.cpp:137] Memory required for data: 139489300
I0417 03:39:31.295780  3757 layer_factory.hpp:77] Creating layer res2a_branch2a_relu
I0417 03:39:31.295795  3757 net.cpp:84] Creating Layer res2a_branch2a_relu
I0417 03:39:31.295805  3757 net.cpp:406] res2a_branch2a_relu <- res2a_branch2a
I0417 03:39:31.295817  3757 net.cpp:367] res2a_branch2a_relu -> res2a_branch2a (in-place)
I0417 03:39:31.297181  3757 net.cpp:122] Setting up res2a_branch2a_relu
I0417 03:39:31.297204  3757 net.cpp:129] Top shape: 5 64 56 56 (1003520)
I0417 03:39:31.297212  3757 net.cpp:137] Memory required for data: 143503380
I0417 03:39:31.297222  3757 layer_factory.hpp:77] Creating layer res2a_branch2b
I0417 03:39:31.297245  3757 net.cpp:84] Creating Layer res2a_branch2b
I0417 03:39:31.297264  3757 net.cpp:406] res2a_branch2b <- res2a_branch2a
I0417 03:39:31.297279  3757 net.cpp:380] res2a_branch2b -> res2a_branch2b
I0417 03:39:31.309316  3757 net.cpp:122] Setting up res2a_branch2b
I0417 03:39:31.309337  3757 net.cpp:129] Top shape: 5 64 56 56 (1003520)
I0417 03:39:31.309345  3757 net.cpp:137] Memory required for data: 147517460
I0417 03:39:31.309355  3757 layer_factory.hpp:77] Creating layer bn2a_branch2b
I0417 03:39:31.309365  3757 net.cpp:84] Creating Layer bn2a_branch2b
I0417 03:39:31.309371  3757 net.cpp:406] bn2a_branch2b <- res2a_branch2b
I0417 03:39:31.309384  3757 net.cpp:367] bn2a_branch2b -> res2a_branch2b (in-place)
I0417 03:39:31.309705  3757 net.cpp:122] Setting up bn2a_branch2b
I0417 03:39:31.309715  3757 net.cpp:129] Top shape: 5 64 56 56 (1003520)
I0417 03:39:31.309720  3757 net.cpp:137] Memory required for data: 151531540
I0417 03:39:31.309729  3757 layer_factory.hpp:77] Creating layer scale2a_branch2b
I0417 03:39:31.309746  3757 net.cpp:84] Creating Layer scale2a_branch2b
I0417 03:39:31.309753  3757 net.cpp:406] scale2a_branch2b <- res2a_branch2b
I0417 03:39:31.309762  3757 net.cpp:367] scale2a_branch2b -> res2a_branch2b (in-place)
I0417 03:39:31.309826  3757 layer_factory.hpp:77] Creating layer scale2a_branch2b
I0417 03:39:31.310014  3757 net.cpp:122] Setting up scale2a_branch2b
I0417 03:39:31.310025  3757 net.cpp:129] Top shape: 5 64 56 56 (1003520)
I0417 03:39:31.310030  3757 net.cpp:137] Memory required for data: 155545620
I0417 03:39:31.310039  3757 layer_factory.hpp:77] Creating layer res2a_branch2b_relu
I0417 03:39:31.310050  3757 net.cpp:84] Creating Layer res2a_branch2b_relu
I0417 03:39:31.310070  3757 net.cpp:406] res2a_branch2b_relu <- res2a_branch2b
I0417 03:39:31.310078  3757 net.cpp:367] res2a_branch2b_relu -> res2a_branch2b (in-place)
I0417 03:39:31.310914  3757 net.cpp:122] Setting up res2a_branch2b_relu
I0417 03:39:31.310928  3757 net.cpp:129] Top shape: 5 64 56 56 (1003520)
I0417 03:39:31.310933  3757 net.cpp:137] Memory required for data: 159559700
I0417 03:39:31.310938  3757 layer_factory.hpp:77] Creating layer res2a_branch2c
I0417 03:39:31.310953  3757 net.cpp:84] Creating Layer res2a_branch2c
I0417 03:39:31.310961  3757 net.cpp:406] res2a_branch2c <- res2a_branch2b
I0417 03:39:31.310969  3757 net.cpp:380] res2a_branch2c -> res2a_branch2c
I0417 03:39:31.314489  3757 net.cpp:122] Setting up res2a_branch2c
I0417 03:39:31.314507  3757 net.cpp:129] Top shape: 5 256 56 56 (4014080)
I0417 03:39:31.314513  3757 net.cpp:137] Memory required for data: 175616020
I0417 03:39:31.314522  3757 layer_factory.hpp:77] Creating layer bn2a_branch2c
I0417 03:39:31.314535  3757 net.cpp:84] Creating Layer bn2a_branch2c
I0417 03:39:31.314545  3757 net.cpp:406] bn2a_branch2c <- res2a_branch2c
I0417 03:39:31.314554  3757 net.cpp:367] bn2a_branch2c -> res2a_branch2c (in-place)
I0417 03:39:31.314848  3757 net.cpp:122] Setting up bn2a_branch2c
I0417 03:39:31.314858  3757 net.cpp:129] Top shape: 5 256 56 56 (4014080)
I0417 03:39:31.314863  3757 net.cpp:137] Memory required for data: 191672340
I0417 03:39:31.314880  3757 layer_factory.hpp:77] Creating layer scale2a_branch2c
I0417 03:39:31.314893  3757 net.cpp:84] Creating Layer scale2a_branch2c
I0417 03:39:31.314899  3757 net.cpp:406] scale2a_branch2c <- res2a_branch2c
I0417 03:39:31.314908  3757 net.cpp:367] scale2a_branch2c -> res2a_branch2c (in-place)
I0417 03:39:31.314970  3757 layer_factory.hpp:77] Creating layer scale2a_branch2c
I0417 03:39:31.315138  3757 net.cpp:122] Setting up scale2a_branch2c
I0417 03:39:31.315148  3757 net.cpp:129] Top shape: 5 256 56 56 (4014080)
I0417 03:39:31.315153  3757 net.cpp:137] Memory required for data: 207728660
I0417 03:39:31.315161  3757 layer_factory.hpp:77] Creating layer res2a
I0417 03:39:31.315170  3757 net.cpp:84] Creating Layer res2a
I0417 03:39:31.315176  3757 net.cpp:406] res2a <- res2a_branch1
I0417 03:39:31.315183  3757 net.cpp:406] res2a <- res2a_branch2c
I0417 03:39:31.315191  3757 net.cpp:380] res2a -> res2a
I0417 03:39:31.315230  3757 net.cpp:122] Setting up res2a
I0417 03:39:31.315239  3757 net.cpp:129] Top shape: 5 256 56 56 (4014080)
I0417 03:39:31.315244  3757 net.cpp:137] Memory required for data: 223784980
I0417 03:39:31.315249  3757 layer_factory.hpp:77] Creating layer res2a_relu
I0417 03:39:31.315259  3757 net.cpp:84] Creating Layer res2a_relu
I0417 03:39:31.315266  3757 net.cpp:406] res2a_relu <- res2a
I0417 03:39:31.315274  3757 net.cpp:367] res2a_relu -> res2a (in-place)
I0417 03:39:31.316241  3757 net.cpp:122] Setting up res2a_relu
I0417 03:39:31.316253  3757 net.cpp:129] Top shape: 5 256 56 56 (4014080)
I0417 03:39:31.316258  3757 net.cpp:137] Memory required for data: 239841300
I0417 03:39:31.316263  3757 layer_factory.hpp:77] Creating layer res2a_res2a_relu_0_split
I0417 03:39:31.316273  3757 net.cpp:84] Creating Layer res2a_res2a_relu_0_split
I0417 03:39:31.316279  3757 net.cpp:406] res2a_res2a_relu_0_split <- res2a
I0417 03:39:31.316287  3757 net.cpp:380] res2a_res2a_relu_0_split -> res2a_res2a_relu_0_split_0
I0417 03:39:31.316298  3757 net.cpp:380] res2a_res2a_relu_0_split -> res2a_res2a_relu_0_split_1
I0417 03:39:31.316354  3757 net.cpp:122] Setting up res2a_res2a_relu_0_split
I0417 03:39:31.316362  3757 net.cpp:129] Top shape: 5 256 56 56 (4014080)
I0417 03:39:31.316368  3757 net.cpp:129] Top shape: 5 256 56 56 (4014080)
I0417 03:39:31.316372  3757 net.cpp:137] Memory required for data: 271953940
I0417 03:39:31.316376  3757 layer_factory.hpp:77] Creating layer res2b_branch2a
I0417 03:39:31.316388  3757 net.cpp:84] Creating Layer res2b_branch2a
I0417 03:39:31.316395  3757 net.cpp:406] res2b_branch2a <- res2a_res2a_relu_0_split_0
I0417 03:39:31.316412  3757 net.cpp:380] res2b_branch2a -> res2b_branch2a
I0417 03:39:31.319109  3757 net.cpp:122] Setting up res2b_branch2a
I0417 03:39:31.319123  3757 net.cpp:129] Top shape: 5 64 56 56 (1003520)
I0417 03:39:31.319126  3757 net.cpp:137] Memory required for data: 275968020
I0417 03:39:31.319134  3757 layer_factory.hpp:77] Creating layer bn2b_branch2a
I0417 03:39:31.319141  3757 net.cpp:84] Creating Layer bn2b_branch2a
I0417 03:39:31.319146  3757 net.cpp:406] bn2b_branch2a <- res2b_branch2a
I0417 03:39:31.319156  3757 net.cpp:367] bn2b_branch2a -> res2b_branch2a (in-place)
I0417 03:39:31.319406  3757 net.cpp:122] Setting up bn2b_branch2a
I0417 03:39:31.319414  3757 net.cpp:129] Top shape: 5 64 56 56 (1003520)
I0417 03:39:31.319418  3757 net.cpp:137] Memory required for data: 279982100
I0417 03:39:31.319430  3757 layer_factory.hpp:77] Creating layer scale2b_branch2a
I0417 03:39:31.319442  3757 net.cpp:84] Creating Layer scale2b_branch2a
I0417 03:39:31.319448  3757 net.cpp:406] scale2b_branch2a <- res2b_branch2a
I0417 03:39:31.319455  3757 net.cpp:367] scale2b_branch2a -> res2b_branch2a (in-place)
I0417 03:39:31.319509  3757 layer_factory.hpp:77] Creating layer scale2b_branch2a
I0417 03:39:31.319658  3757 net.cpp:122] Setting up scale2b_branch2a
I0417 03:39:31.319667  3757 net.cpp:129] Top shape: 5 64 56 56 (1003520)
I0417 03:39:31.319671  3757 net.cpp:137] Memory required for data: 283996180
I0417 03:39:31.319679  3757 layer_factory.hpp:77] Creating layer res2b_branch2a_relu
I0417 03:39:31.319687  3757 net.cpp:84] Creating Layer res2b_branch2a_relu
I0417 03:39:31.319692  3757 net.cpp:406] res2b_branch2a_relu <- res2b_branch2a
I0417 03:39:31.319700  3757 net.cpp:367] res2b_branch2a_relu -> res2b_branch2a (in-place)
I0417 03:39:31.320536  3757 net.cpp:122] Setting up res2b_branch2a_relu
I0417 03:39:31.320549  3757 net.cpp:129] Top shape: 5 64 56 56 (1003520)
I0417 03:39:31.320554  3757 net.cpp:137] Memory required for data: 288010260
I0417 03:39:31.320559  3757 layer_factory.hpp:77] Creating layer res2b_branch2b
I0417 03:39:31.320569  3757 net.cpp:84] Creating Layer res2b_branch2b
I0417 03:39:31.320575  3757 net.cpp:406] res2b_branch2b <- res2b_branch2a
I0417 03:39:31.320585  3757 net.cpp:380] res2b_branch2b -> res2b_branch2b
I0417 03:39:31.323127  3757 net.cpp:122] Setting up res2b_branch2b
I0417 03:39:31.323138  3757 net.cpp:129] Top shape: 5 64 56 56 (1003520)
I0417 03:39:31.323143  3757 net.cpp:137] Memory required for data: 292024340
I0417 03:39:31.323148  3757 layer_factory.hpp:77] Creating layer bn2b_branch2b
I0417 03:39:31.323156  3757 net.cpp:84] Creating Layer bn2b_branch2b
I0417 03:39:31.323163  3757 net.cpp:406] bn2b_branch2b <- res2b_branch2b
I0417 03:39:31.323168  3757 net.cpp:367] bn2b_branch2b -> res2b_branch2b (in-place)
I0417 03:39:31.323393  3757 net.cpp:122] Setting up bn2b_branch2b
I0417 03:39:31.323400  3757 net.cpp:129] Top shape: 5 64 56 56 (1003520)
I0417 03:39:31.323403  3757 net.cpp:137] Memory required for data: 296038420
I0417 03:39:31.323411  3757 layer_factory.hpp:77] Creating layer scale2b_branch2b
I0417 03:39:31.323421  3757 net.cpp:84] Creating Layer scale2b_branch2b
I0417 03:39:31.323426  3757 net.cpp:406] scale2b_branch2b <- res2b_branch2b
I0417 03:39:31.323431  3757 net.cpp:367] scale2b_branch2b -> res2b_branch2b (in-place)
I0417 03:39:31.323477  3757 layer_factory.hpp:77] Creating layer scale2b_branch2b
I0417 03:39:31.323612  3757 net.cpp:122] Setting up scale2b_branch2b
I0417 03:39:31.323619  3757 net.cpp:129] Top shape: 5 64 56 56 (1003520)
I0417 03:39:31.323622  3757 net.cpp:137] Memory required for data: 300052500
I0417 03:39:31.323628  3757 layer_factory.hpp:77] Creating layer res2b_branch2b_relu
I0417 03:39:31.323637  3757 net.cpp:84] Creating Layer res2b_branch2b_relu
I0417 03:39:31.323643  3757 net.cpp:406] res2b_branch2b_relu <- res2b_branch2b
I0417 03:39:31.323648  3757 net.cpp:367] res2b_branch2b_relu -> res2b_branch2b (in-place)
I0417 03:39:31.324237  3757 net.cpp:122] Setting up res2b_branch2b_relu
I0417 03:39:31.324247  3757 net.cpp:129] Top shape: 5 64 56 56 (1003520)
I0417 03:39:31.324259  3757 net.cpp:137] Memory required for data: 304066580
I0417 03:39:31.324262  3757 layer_factory.hpp:77] Creating layer res2b_branch2c
I0417 03:39:31.324275  3757 net.cpp:84] Creating Layer res2b_branch2c
I0417 03:39:31.324281  3757 net.cpp:406] res2b_branch2c <- res2b_branch2b
I0417 03:39:31.324288  3757 net.cpp:380] res2b_branch2c -> res2b_branch2c
I0417 03:39:31.326668  3757 net.cpp:122] Setting up res2b_branch2c
I0417 03:39:31.326678  3757 net.cpp:129] Top shape: 5 256 56 56 (4014080)
I0417 03:39:31.326683  3757 net.cpp:137] Memory required for data: 320122900
I0417 03:39:31.326687  3757 layer_factory.hpp:77] Creating layer bn2b_branch2c
I0417 03:39:31.326694  3757 net.cpp:84] Creating Layer bn2b_branch2c
I0417 03:39:31.326700  3757 net.cpp:406] bn2b_branch2c <- res2b_branch2c
I0417 03:39:31.326705  3757 net.cpp:367] bn2b_branch2c -> res2b_branch2c (in-place)
I0417 03:39:31.326901  3757 net.cpp:122] Setting up bn2b_branch2c
I0417 03:39:31.326908  3757 net.cpp:129] Top shape: 5 256 56 56 (4014080)
I0417 03:39:31.326911  3757 net.cpp:137] Memory required for data: 336179220
I0417 03:39:31.326918  3757 layer_factory.hpp:77] Creating layer scale2b_branch2c
I0417 03:39:31.326927  3757 net.cpp:84] Creating Layer scale2b_branch2c
I0417 03:39:31.326931  3757 net.cpp:406] scale2b_branch2c <- res2b_branch2c
I0417 03:39:31.326936  3757 net.cpp:367] scale2b_branch2c -> res2b_branch2c (in-place)
I0417 03:39:31.326977  3757 layer_factory.hpp:77] Creating layer scale2b_branch2c
I0417 03:39:31.327088  3757 net.cpp:122] Setting up scale2b_branch2c
I0417 03:39:31.327095  3757 net.cpp:129] Top shape: 5 256 56 56 (4014080)
I0417 03:39:31.327097  3757 net.cpp:137] Memory required for data: 352235540
I0417 03:39:31.327102  3757 layer_factory.hpp:77] Creating layer res2b
I0417 03:39:31.327108  3757 net.cpp:84] Creating Layer res2b
I0417 03:39:31.327112  3757 net.cpp:406] res2b <- res2a_res2a_relu_0_split_1
I0417 03:39:31.327116  3757 net.cpp:406] res2b <- res2b_branch2c
I0417 03:39:31.327123  3757 net.cpp:380] res2b -> res2b
I0417 03:39:31.327150  3757 net.cpp:122] Setting up res2b
I0417 03:39:31.327157  3757 net.cpp:129] Top shape: 5 256 56 56 (4014080)
I0417 03:39:31.327159  3757 net.cpp:137] Memory required for data: 368291860
I0417 03:39:31.327162  3757 layer_factory.hpp:77] Creating layer res2b_relu
I0417 03:39:31.327169  3757 net.cpp:84] Creating Layer res2b_relu
I0417 03:39:31.327173  3757 net.cpp:406] res2b_relu <- res2b
I0417 03:39:31.327178  3757 net.cpp:367] res2b_relu -> res2b (in-place)
I0417 03:39:31.327690  3757 net.cpp:122] Setting up res2b_relu
I0417 03:39:31.327698  3757 net.cpp:129] Top shape: 5 256 56 56 (4014080)
I0417 03:39:31.327702  3757 net.cpp:137] Memory required for data: 384348180
I0417 03:39:31.327704  3757 layer_factory.hpp:77] Creating layer res2b_res2b_relu_0_split
I0417 03:39:31.327710  3757 net.cpp:84] Creating Layer res2b_res2b_relu_0_split
I0417 03:39:31.327714  3757 net.cpp:406] res2b_res2b_relu_0_split <- res2b
I0417 03:39:31.327723  3757 net.cpp:380] res2b_res2b_relu_0_split -> res2b_res2b_relu_0_split_0
I0417 03:39:31.327731  3757 net.cpp:380] res2b_res2b_relu_0_split -> res2b_res2b_relu_0_split_1
I0417 03:39:31.327776  3757 net.cpp:122] Setting up res2b_res2b_relu_0_split
I0417 03:39:31.327782  3757 net.cpp:129] Top shape: 5 256 56 56 (4014080)
I0417 03:39:31.327786  3757 net.cpp:129] Top shape: 5 256 56 56 (4014080)
I0417 03:39:31.327790  3757 net.cpp:137] Memory required for data: 416460820
I0417 03:39:31.327793  3757 layer_factory.hpp:77] Creating layer res2c_branch2a
I0417 03:39:31.327801  3757 net.cpp:84] Creating Layer res2c_branch2a
I0417 03:39:31.327806  3757 net.cpp:406] res2c_branch2a <- res2b_res2b_relu_0_split_0
I0417 03:39:31.327811  3757 net.cpp:380] res2c_branch2a -> res2c_branch2a
I0417 03:39:31.329830  3757 net.cpp:122] Setting up res2c_branch2a
I0417 03:39:31.329840  3757 net.cpp:129] Top shape: 5 64 56 56 (1003520)
I0417 03:39:31.329844  3757 net.cpp:137] Memory required for data: 420474900
I0417 03:39:31.329849  3757 layer_factory.hpp:77] Creating layer bn2c_branch2a
I0417 03:39:31.329864  3757 net.cpp:84] Creating Layer bn2c_branch2a
I0417 03:39:31.329874  3757 net.cpp:406] bn2c_branch2a <- res2c_branch2a
I0417 03:39:31.329880  3757 net.cpp:367] bn2c_branch2a -> res2c_branch2a (in-place)
I0417 03:39:31.330080  3757 net.cpp:122] Setting up bn2c_branch2a
I0417 03:39:31.330085  3757 net.cpp:129] Top shape: 5 64 56 56 (1003520)
I0417 03:39:31.330090  3757 net.cpp:137] Memory required for data: 424488980
I0417 03:39:31.330096  3757 layer_factory.hpp:77] Creating layer scale2c_branch2a
I0417 03:39:31.330103  3757 net.cpp:84] Creating Layer scale2c_branch2a
I0417 03:39:31.330107  3757 net.cpp:406] scale2c_branch2a <- res2c_branch2a
I0417 03:39:31.330112  3757 net.cpp:367] scale2c_branch2a -> res2c_branch2a (in-place)
I0417 03:39:31.330152  3757 layer_factory.hpp:77] Creating layer scale2c_branch2a
I0417 03:39:31.330271  3757 net.cpp:122] Setting up scale2c_branch2a
I0417 03:39:31.330277  3757 net.cpp:129] Top shape: 5 64 56 56 (1003520)
I0417 03:39:31.330281  3757 net.cpp:137] Memory required for data: 428503060
I0417 03:39:31.330286  3757 layer_factory.hpp:77] Creating layer res2c_branch2a_relu
I0417 03:39:31.330292  3757 net.cpp:84] Creating Layer res2c_branch2a_relu
I0417 03:39:31.330296  3757 net.cpp:406] res2c_branch2a_relu <- res2c_branch2a
I0417 03:39:31.330302  3757 net.cpp:367] res2c_branch2a_relu -> res2c_branch2a (in-place)
I0417 03:39:31.330951  3757 net.cpp:122] Setting up res2c_branch2a_relu
I0417 03:39:31.330960  3757 net.cpp:129] Top shape: 5 64 56 56 (1003520)
I0417 03:39:31.330963  3757 net.cpp:137] Memory required for data: 432517140
I0417 03:39:31.330966  3757 layer_factory.hpp:77] Creating layer res2c_branch2b
I0417 03:39:31.330973  3757 net.cpp:84] Creating Layer res2c_branch2b
I0417 03:39:31.330978  3757 net.cpp:406] res2c_branch2b <- res2c_branch2a
I0417 03:39:31.330983  3757 net.cpp:380] res2c_branch2b -> res2c_branch2b
I0417 03:39:31.332938  3757 net.cpp:122] Setting up res2c_branch2b
I0417 03:39:31.332947  3757 net.cpp:129] Top shape: 5 64 56 56 (1003520)
I0417 03:39:31.332949  3757 net.cpp:137] Memory required for data: 436531220
I0417 03:39:31.332954  3757 layer_factory.hpp:77] Creating layer bn2c_branch2b
I0417 03:39:31.332962  3757 net.cpp:84] Creating Layer bn2c_branch2b
I0417 03:39:31.332967  3757 net.cpp:406] bn2c_branch2b <- res2c_branch2b
I0417 03:39:31.332970  3757 net.cpp:367] bn2c_branch2b -> res2c_branch2b (in-place)
I0417 03:39:31.333148  3757 net.cpp:122] Setting up bn2c_branch2b
I0417 03:39:31.333153  3757 net.cpp:129] Top shape: 5 64 56 56 (1003520)
I0417 03:39:31.333155  3757 net.cpp:137] Memory required for data: 440545300
I0417 03:39:31.333163  3757 layer_factory.hpp:77] Creating layer scale2c_branch2b
I0417 03:39:31.333168  3757 net.cpp:84] Creating Layer scale2c_branch2b
I0417 03:39:31.333171  3757 net.cpp:406] scale2c_branch2b <- res2c_branch2b
I0417 03:39:31.333176  3757 net.cpp:367] scale2c_branch2b -> res2c_branch2b (in-place)
I0417 03:39:31.333214  3757 layer_factory.hpp:77] Creating layer scale2c_branch2b
I0417 03:39:31.333317  3757 net.cpp:122] Setting up scale2c_branch2b
I0417 03:39:31.333323  3757 net.cpp:129] Top shape: 5 64 56 56 (1003520)
I0417 03:39:31.333325  3757 net.cpp:137] Memory required for data: 444559380
I0417 03:39:31.333329  3757 layer_factory.hpp:77] Creating layer res2c_branch2b_relu
I0417 03:39:31.333338  3757 net.cpp:84] Creating Layer res2c_branch2b_relu
I0417 03:39:31.333341  3757 net.cpp:406] res2c_branch2b_relu <- res2c_branch2b
I0417 03:39:31.333345  3757 net.cpp:367] res2c_branch2b_relu -> res2c_branch2b (in-place)
I0417 03:39:31.333803  3757 net.cpp:122] Setting up res2c_branch2b_relu
I0417 03:39:31.333809  3757 net.cpp:129] Top shape: 5 64 56 56 (1003520)
I0417 03:39:31.333812  3757 net.cpp:137] Memory required for data: 448573460
I0417 03:39:31.333815  3757 layer_factory.hpp:77] Creating layer res2c_branch2c
I0417 03:39:31.333823  3757 net.cpp:84] Creating Layer res2c_branch2c
I0417 03:39:31.333827  3757 net.cpp:406] res2c_branch2c <- res2c_branch2b
I0417 03:39:31.333832  3757 net.cpp:380] res2c_branch2c -> res2c_branch2c
I0417 03:39:31.335796  3757 net.cpp:122] Setting up res2c_branch2c
I0417 03:39:31.335816  3757 net.cpp:129] Top shape: 5 256 56 56 (4014080)
I0417 03:39:31.335819  3757 net.cpp:137] Memory required for data: 464629780
I0417 03:39:31.335824  3757 layer_factory.hpp:77] Creating layer bn2c_branch2c
I0417 03:39:31.335830  3757 net.cpp:84] Creating Layer bn2c_branch2c
I0417 03:39:31.335834  3757 net.cpp:406] bn2c_branch2c <- res2c_branch2c
I0417 03:39:31.335839  3757 net.cpp:367] bn2c_branch2c -> res2c_branch2c (in-place)
I0417 03:39:31.335999  3757 net.cpp:122] Setting up bn2c_branch2c
I0417 03:39:31.336004  3757 net.cpp:129] Top shape: 5 256 56 56 (4014080)
I0417 03:39:31.336006  3757 net.cpp:137] Memory required for data: 480686100
I0417 03:39:31.336011  3757 layer_factory.hpp:77] Creating layer scale2c_branch2c
I0417 03:39:31.336017  3757 net.cpp:84] Creating Layer scale2c_branch2c
I0417 03:39:31.336021  3757 net.cpp:406] scale2c_branch2c <- res2c_branch2c
I0417 03:39:31.336025  3757 net.cpp:367] scale2c_branch2c -> res2c_branch2c (in-place)
I0417 03:39:31.336057  3757 layer_factory.hpp:77] Creating layer scale2c_branch2c
I0417 03:39:31.336146  3757 net.cpp:122] Setting up scale2c_branch2c
I0417 03:39:31.336151  3757 net.cpp:129] Top shape: 5 256 56 56 (4014080)
I0417 03:39:31.336154  3757 net.cpp:137] Memory required for data: 496742420
I0417 03:39:31.336164  3757 layer_factory.hpp:77] Creating layer res2c
I0417 03:39:31.336170  3757 net.cpp:84] Creating Layer res2c
I0417 03:39:31.336174  3757 net.cpp:406] res2c <- res2b_res2b_relu_0_split_1
I0417 03:39:31.336176  3757 net.cpp:406] res2c <- res2c_branch2c
I0417 03:39:31.336180  3757 net.cpp:380] res2c -> res2c
I0417 03:39:31.336200  3757 net.cpp:122] Setting up res2c
I0417 03:39:31.336205  3757 net.cpp:129] Top shape: 5 256 56 56 (4014080)
I0417 03:39:31.336207  3757 net.cpp:137] Memory required for data: 512798740
I0417 03:39:31.336210  3757 layer_factory.hpp:77] Creating layer res2c_relu
I0417 03:39:31.336213  3757 net.cpp:84] Creating Layer res2c_relu
I0417 03:39:31.336216  3757 net.cpp:406] res2c_relu <- res2c
I0417 03:39:31.336220  3757 net.cpp:367] res2c_relu -> res2c (in-place)
I0417 03:39:31.336637  3757 net.cpp:122] Setting up res2c_relu
I0417 03:39:31.336642  3757 net.cpp:129] Top shape: 5 256 56 56 (4014080)
I0417 03:39:31.336645  3757 net.cpp:137] Memory required for data: 528855060
I0417 03:39:31.336648  3757 layer_factory.hpp:77] Creating layer res2c_res2c_relu_0_split
I0417 03:39:31.336654  3757 net.cpp:84] Creating Layer res2c_res2c_relu_0_split
I0417 03:39:31.336658  3757 net.cpp:406] res2c_res2c_relu_0_split <- res2c
I0417 03:39:31.336663  3757 net.cpp:380] res2c_res2c_relu_0_split -> res2c_res2c_relu_0_split_0
I0417 03:39:31.336668  3757 net.cpp:380] res2c_res2c_relu_0_split -> res2c_res2c_relu_0_split_1
I0417 03:39:31.336704  3757 net.cpp:122] Setting up res2c_res2c_relu_0_split
I0417 03:39:31.336709  3757 net.cpp:129] Top shape: 5 256 56 56 (4014080)
I0417 03:39:31.336711  3757 net.cpp:129] Top shape: 5 256 56 56 (4014080)
I0417 03:39:31.336714  3757 net.cpp:137] Memory required for data: 560967700
I0417 03:39:31.336716  3757 layer_factory.hpp:77] Creating layer res3a_branch1
I0417 03:39:31.336724  3757 net.cpp:84] Creating Layer res3a_branch1
I0417 03:39:31.336727  3757 net.cpp:406] res3a_branch1 <- res2c_res2c_relu_0_split_0
I0417 03:39:31.336732  3757 net.cpp:380] res3a_branch1 -> res3a_branch1
I0417 03:39:31.339623  3757 net.cpp:122] Setting up res3a_branch1
I0417 03:39:31.339633  3757 net.cpp:129] Top shape: 5 512 28 28 (2007040)
I0417 03:39:31.339637  3757 net.cpp:137] Memory required for data: 568995860
I0417 03:39:31.339642  3757 layer_factory.hpp:77] Creating layer bn3a_branch1
I0417 03:39:31.339648  3757 net.cpp:84] Creating Layer bn3a_branch1
I0417 03:39:31.339654  3757 net.cpp:406] bn3a_branch1 <- res3a_branch1
I0417 03:39:31.339659  3757 net.cpp:367] bn3a_branch1 -> res3a_branch1 (in-place)
I0417 03:39:31.340350  3757 net.cpp:122] Setting up bn3a_branch1
I0417 03:39:31.340358  3757 net.cpp:129] Top shape: 5 512 28 28 (2007040)
I0417 03:39:31.340368  3757 net.cpp:137] Memory required for data: 577024020
I0417 03:39:31.340374  3757 layer_factory.hpp:77] Creating layer scale3a_branch1
I0417 03:39:31.340382  3757 net.cpp:84] Creating Layer scale3a_branch1
I0417 03:39:31.340386  3757 net.cpp:406] scale3a_branch1 <- res3a_branch1
I0417 03:39:31.340390  3757 net.cpp:367] scale3a_branch1 -> res3a_branch1 (in-place)
I0417 03:39:31.340426  3757 layer_factory.hpp:77] Creating layer scale3a_branch1
I0417 03:39:31.340514  3757 net.cpp:122] Setting up scale3a_branch1
I0417 03:39:31.340519  3757 net.cpp:129] Top shape: 5 512 28 28 (2007040)
I0417 03:39:31.340521  3757 net.cpp:137] Memory required for data: 585052180
I0417 03:39:31.340525  3757 layer_factory.hpp:77] Creating layer res3a_branch2a
I0417 03:39:31.340534  3757 net.cpp:84] Creating Layer res3a_branch2a
I0417 03:39:31.340538  3757 net.cpp:406] res3a_branch2a <- res2c_res2c_relu_0_split_1
I0417 03:39:31.340543  3757 net.cpp:380] res3a_branch2a -> res3a_branch2a
I0417 03:39:31.342391  3757 net.cpp:122] Setting up res3a_branch2a
I0417 03:39:31.342397  3757 net.cpp:129] Top shape: 5 128 28 28 (501760)
I0417 03:39:31.342401  3757 net.cpp:137] Memory required for data: 587059220
I0417 03:39:31.342404  3757 layer_factory.hpp:77] Creating layer bn3a_branch2a
I0417 03:39:31.342409  3757 net.cpp:84] Creating Layer bn3a_branch2a
I0417 03:39:31.342414  3757 net.cpp:406] bn3a_branch2a <- res3a_branch2a
I0417 03:39:31.342418  3757 net.cpp:367] bn3a_branch2a -> res3a_branch2a (in-place)
I0417 03:39:31.342562  3757 net.cpp:122] Setting up bn3a_branch2a
I0417 03:39:31.342567  3757 net.cpp:129] Top shape: 5 128 28 28 (501760)
I0417 03:39:31.342569  3757 net.cpp:137] Memory required for data: 589066260
I0417 03:39:31.342574  3757 layer_factory.hpp:77] Creating layer scale3a_branch2a
I0417 03:39:31.342579  3757 net.cpp:84] Creating Layer scale3a_branch2a
I0417 03:39:31.342582  3757 net.cpp:406] scale3a_branch2a <- res3a_branch2a
I0417 03:39:31.342586  3757 net.cpp:367] scale3a_branch2a -> res3a_branch2a (in-place)
I0417 03:39:31.342617  3757 layer_factory.hpp:77] Creating layer scale3a_branch2a
I0417 03:39:31.342700  3757 net.cpp:122] Setting up scale3a_branch2a
I0417 03:39:31.342703  3757 net.cpp:129] Top shape: 5 128 28 28 (501760)
I0417 03:39:31.342706  3757 net.cpp:137] Memory required for data: 591073300
I0417 03:39:31.342710  3757 layer_factory.hpp:77] Creating layer res3a_branch2a_relu
I0417 03:39:31.342715  3757 net.cpp:84] Creating Layer res3a_branch2a_relu
I0417 03:39:31.342716  3757 net.cpp:406] res3a_branch2a_relu <- res3a_branch2a
I0417 03:39:31.342720  3757 net.cpp:367] res3a_branch2a_relu -> res3a_branch2a (in-place)
I0417 03:39:31.343101  3757 net.cpp:122] Setting up res3a_branch2a_relu
I0417 03:39:31.343107  3757 net.cpp:129] Top shape: 5 128 28 28 (501760)
I0417 03:39:31.343111  3757 net.cpp:137] Memory required for data: 593080340
I0417 03:39:31.343112  3757 layer_factory.hpp:77] Creating layer res3a_branch2b
I0417 03:39:31.343119  3757 net.cpp:84] Creating Layer res3a_branch2b
I0417 03:39:31.343123  3757 net.cpp:406] res3a_branch2b <- res3a_branch2a
I0417 03:39:31.343127  3757 net.cpp:380] res3a_branch2b -> res3a_branch2b
I0417 03:39:31.345517  3757 net.cpp:122] Setting up res3a_branch2b
I0417 03:39:31.345525  3757 net.cpp:129] Top shape: 5 128 28 28 (501760)
I0417 03:39:31.345528  3757 net.cpp:137] Memory required for data: 595087380
I0417 03:39:31.345532  3757 layer_factory.hpp:77] Creating layer bn3a_branch2b
I0417 03:39:31.345537  3757 net.cpp:84] Creating Layer bn3a_branch2b
I0417 03:39:31.345541  3757 net.cpp:406] bn3a_branch2b <- res3a_branch2b
I0417 03:39:31.345546  3757 net.cpp:367] bn3a_branch2b -> res3a_branch2b (in-place)
I0417 03:39:31.345691  3757 net.cpp:122] Setting up bn3a_branch2b
I0417 03:39:31.345696  3757 net.cpp:129] Top shape: 5 128 28 28 (501760)
I0417 03:39:31.345698  3757 net.cpp:137] Memory required for data: 597094420
I0417 03:39:31.345703  3757 layer_factory.hpp:77] Creating layer scale3a_branch2b
I0417 03:39:31.345707  3757 net.cpp:84] Creating Layer scale3a_branch2b
I0417 03:39:31.345716  3757 net.cpp:406] scale3a_branch2b <- res3a_branch2b
I0417 03:39:31.345722  3757 net.cpp:367] scale3a_branch2b -> res3a_branch2b (in-place)
I0417 03:39:31.345752  3757 layer_factory.hpp:77] Creating layer scale3a_branch2b
I0417 03:39:31.345834  3757 net.cpp:122] Setting up scale3a_branch2b
I0417 03:39:31.345839  3757 net.cpp:129] Top shape: 5 128 28 28 (501760)
I0417 03:39:31.345840  3757 net.cpp:137] Memory required for data: 599101460
I0417 03:39:31.345844  3757 layer_factory.hpp:77] Creating layer res3a_branch2b_relu
I0417 03:39:31.345847  3757 net.cpp:84] Creating Layer res3a_branch2b_relu
I0417 03:39:31.345850  3757 net.cpp:406] res3a_branch2b_relu <- res3a_branch2b
I0417 03:39:31.345854  3757 net.cpp:367] res3a_branch2b_relu -> res3a_branch2b (in-place)
I0417 03:39:31.346355  3757 net.cpp:122] Setting up res3a_branch2b_relu
I0417 03:39:31.346362  3757 net.cpp:129] Top shape: 5 128 28 28 (501760)
I0417 03:39:31.346365  3757 net.cpp:137] Memory required for data: 601108500
I0417 03:39:31.346367  3757 layer_factory.hpp:77] Creating layer res3a_branch2c
I0417 03:39:31.346374  3757 net.cpp:84] Creating Layer res3a_branch2c
I0417 03:39:31.346377  3757 net.cpp:406] res3a_branch2c <- res3a_branch2b
I0417 03:39:31.346384  3757 net.cpp:380] res3a_branch2c -> res3a_branch2c
I0417 03:39:31.348218  3757 net.cpp:122] Setting up res3a_branch2c
I0417 03:39:31.348227  3757 net.cpp:129] Top shape: 5 512 28 28 (2007040)
I0417 03:39:31.348229  3757 net.cpp:137] Memory required for data: 609136660
I0417 03:39:31.348233  3757 layer_factory.hpp:77] Creating layer bn3a_branch2c
I0417 03:39:31.348242  3757 net.cpp:84] Creating Layer bn3a_branch2c
I0417 03:39:31.348245  3757 net.cpp:406] bn3a_branch2c <- res3a_branch2c
I0417 03:39:31.348249  3757 net.cpp:367] bn3a_branch2c -> res3a_branch2c (in-place)
I0417 03:39:31.348392  3757 net.cpp:122] Setting up bn3a_branch2c
I0417 03:39:31.348397  3757 net.cpp:129] Top shape: 5 512 28 28 (2007040)
I0417 03:39:31.348399  3757 net.cpp:137] Memory required for data: 617164820
I0417 03:39:31.348404  3757 layer_factory.hpp:77] Creating layer scale3a_branch2c
I0417 03:39:31.348409  3757 net.cpp:84] Creating Layer scale3a_branch2c
I0417 03:39:31.348412  3757 net.cpp:406] scale3a_branch2c <- res3a_branch2c
I0417 03:39:31.348417  3757 net.cpp:367] scale3a_branch2c -> res3a_branch2c (in-place)
I0417 03:39:31.348448  3757 layer_factory.hpp:77] Creating layer scale3a_branch2c
I0417 03:39:31.348527  3757 net.cpp:122] Setting up scale3a_branch2c
I0417 03:39:31.348532  3757 net.cpp:129] Top shape: 5 512 28 28 (2007040)
I0417 03:39:31.348534  3757 net.cpp:137] Memory required for data: 625192980
I0417 03:39:31.348538  3757 layer_factory.hpp:77] Creating layer res3a
I0417 03:39:31.348543  3757 net.cpp:84] Creating Layer res3a
I0417 03:39:31.348546  3757 net.cpp:406] res3a <- res3a_branch1
I0417 03:39:31.348549  3757 net.cpp:406] res3a <- res3a_branch2c
I0417 03:39:31.348553  3757 net.cpp:380] res3a -> res3a
I0417 03:39:31.348573  3757 net.cpp:122] Setting up res3a
I0417 03:39:31.348577  3757 net.cpp:129] Top shape: 5 512 28 28 (2007040)
I0417 03:39:31.348580  3757 net.cpp:137] Memory required for data: 633221140
I0417 03:39:31.348582  3757 layer_factory.hpp:77] Creating layer res3a_relu
I0417 03:39:31.348587  3757 net.cpp:84] Creating Layer res3a_relu
I0417 03:39:31.348588  3757 net.cpp:406] res3a_relu <- res3a
I0417 03:39:31.348593  3757 net.cpp:367] res3a_relu -> res3a (in-place)
I0417 03:39:31.348983  3757 net.cpp:122] Setting up res3a_relu
I0417 03:39:31.348989  3757 net.cpp:129] Top shape: 5 512 28 28 (2007040)
I0417 03:39:31.348990  3757 net.cpp:137] Memory required for data: 641249300
I0417 03:39:31.348994  3757 layer_factory.hpp:77] Creating layer res3a_res3a_relu_0_split
I0417 03:39:31.348997  3757 net.cpp:84] Creating Layer res3a_res3a_relu_0_split
I0417 03:39:31.349000  3757 net.cpp:406] res3a_res3a_relu_0_split <- res3a
I0417 03:39:31.349005  3757 net.cpp:380] res3a_res3a_relu_0_split -> res3a_res3a_relu_0_split_0
I0417 03:39:31.349010  3757 net.cpp:380] res3a_res3a_relu_0_split -> res3a_res3a_relu_0_split_1
I0417 03:39:31.349050  3757 net.cpp:122] Setting up res3a_res3a_relu_0_split
I0417 03:39:31.349054  3757 net.cpp:129] Top shape: 5 512 28 28 (2007040)
I0417 03:39:31.349058  3757 net.cpp:129] Top shape: 5 512 28 28 (2007040)
I0417 03:39:31.349061  3757 net.cpp:137] Memory required for data: 657305620
I0417 03:39:31.349062  3757 layer_factory.hpp:77] Creating layer res3b1_branch2a
I0417 03:39:31.349069  3757 net.cpp:84] Creating Layer res3b1_branch2a
I0417 03:39:31.349072  3757 net.cpp:406] res3b1_branch2a <- res3a_res3a_relu_0_split_0
I0417 03:39:31.349076  3757 net.cpp:380] res3b1_branch2a -> res3b1_branch2a
I0417 03:39:31.351027  3757 net.cpp:122] Setting up res3b1_branch2a
I0417 03:39:31.351035  3757 net.cpp:129] Top shape: 5 128 28 28 (501760)
I0417 03:39:31.351037  3757 net.cpp:137] Memory required for data: 659312660
I0417 03:39:31.351042  3757 layer_factory.hpp:77] Creating layer bn3b1_branch2a
I0417 03:39:31.351047  3757 net.cpp:84] Creating Layer bn3b1_branch2a
I0417 03:39:31.351050  3757 net.cpp:406] bn3b1_branch2a <- res3b1_branch2a
I0417 03:39:31.351056  3757 net.cpp:367] bn3b1_branch2a -> res3b1_branch2a (in-place)
I0417 03:39:31.351202  3757 net.cpp:122] Setting up bn3b1_branch2a
I0417 03:39:31.351205  3757 net.cpp:129] Top shape: 5 128 28 28 (501760)
I0417 03:39:31.351208  3757 net.cpp:137] Memory required for data: 661319700
I0417 03:39:31.351212  3757 layer_factory.hpp:77] Creating layer scale3b1_branch2a
I0417 03:39:31.351217  3757 net.cpp:84] Creating Layer scale3b1_branch2a
I0417 03:39:31.351219  3757 net.cpp:406] scale3b1_branch2a <- res3b1_branch2a
I0417 03:39:31.351224  3757 net.cpp:367] scale3b1_branch2a -> res3b1_branch2a (in-place)
I0417 03:39:31.351255  3757 layer_factory.hpp:77] Creating layer scale3b1_branch2a
I0417 03:39:31.351336  3757 net.cpp:122] Setting up scale3b1_branch2a
I0417 03:39:31.351341  3757 net.cpp:129] Top shape: 5 128 28 28 (501760)
I0417 03:39:31.351342  3757 net.cpp:137] Memory required for data: 663326740
I0417 03:39:31.351346  3757 layer_factory.hpp:77] Creating layer res3b1_branch2a_relu
I0417 03:39:31.351351  3757 net.cpp:84] Creating Layer res3b1_branch2a_relu
I0417 03:39:31.351354  3757 net.cpp:406] res3b1_branch2a_relu <- res3b1_branch2a
I0417 03:39:31.351358  3757 net.cpp:367] res3b1_branch2a_relu -> res3b1_branch2a (in-place)
I0417 03:39:31.351752  3757 net.cpp:122] Setting up res3b1_branch2a_relu
I0417 03:39:31.351758  3757 net.cpp:129] Top shape: 5 128 28 28 (501760)
I0417 03:39:31.351759  3757 net.cpp:137] Memory required for data: 665333780
I0417 03:39:31.351763  3757 layer_factory.hpp:77] Creating layer res3b1_branch2b
I0417 03:39:31.351768  3757 net.cpp:84] Creating Layer res3b1_branch2b
I0417 03:39:31.351773  3757 net.cpp:406] res3b1_branch2b <- res3b1_branch2a
I0417 03:39:31.351778  3757 net.cpp:380] res3b1_branch2b -> res3b1_branch2b
I0417 03:39:31.354665  3757 net.cpp:122] Setting up res3b1_branch2b
I0417 03:39:31.354674  3757 net.cpp:129] Top shape: 5 128 28 28 (501760)
I0417 03:39:31.354676  3757 net.cpp:137] Memory required for data: 667340820
I0417 03:39:31.354681  3757 layer_factory.hpp:77] Creating layer bn3b1_branch2b
I0417 03:39:31.354686  3757 net.cpp:84] Creating Layer bn3b1_branch2b
I0417 03:39:31.354691  3757 net.cpp:406] bn3b1_branch2b <- res3b1_branch2b
I0417 03:39:31.354694  3757 net.cpp:367] bn3b1_branch2b -> res3b1_branch2b (in-place)
I0417 03:39:31.354842  3757 net.cpp:122] Setting up bn3b1_branch2b
I0417 03:39:31.354846  3757 net.cpp:129] Top shape: 5 128 28 28 (501760)
I0417 03:39:31.354849  3757 net.cpp:137] Memory required for data: 669347860
I0417 03:39:31.354854  3757 layer_factory.hpp:77] Creating layer scale3b1_branch2b
I0417 03:39:31.354858  3757 net.cpp:84] Creating Layer scale3b1_branch2b
I0417 03:39:31.354862  3757 net.cpp:406] scale3b1_branch2b <- res3b1_branch2b
I0417 03:39:31.354871  3757 net.cpp:367] scale3b1_branch2b -> res3b1_branch2b (in-place)
I0417 03:39:31.354903  3757 layer_factory.hpp:77] Creating layer scale3b1_branch2b
I0417 03:39:31.354988  3757 net.cpp:122] Setting up scale3b1_branch2b
I0417 03:39:31.354998  3757 net.cpp:129] Top shape: 5 128 28 28 (501760)
I0417 03:39:31.355000  3757 net.cpp:137] Memory required for data: 671354900
I0417 03:39:31.355005  3757 layer_factory.hpp:77] Creating layer res3b1_branch2b_relu
I0417 03:39:31.355010  3757 net.cpp:84] Creating Layer res3b1_branch2b_relu
I0417 03:39:31.355013  3757 net.cpp:406] res3b1_branch2b_relu <- res3b1_branch2b
I0417 03:39:31.355016  3757 net.cpp:367] res3b1_branch2b_relu -> res3b1_branch2b (in-place)
I0417 03:39:31.355561  3757 net.cpp:122] Setting up res3b1_branch2b_relu
I0417 03:39:31.355566  3757 net.cpp:129] Top shape: 5 128 28 28 (501760)
I0417 03:39:31.355569  3757 net.cpp:137] Memory required for data: 673361940
I0417 03:39:31.355572  3757 layer_factory.hpp:77] Creating layer res3b1_branch2c
I0417 03:39:31.355578  3757 net.cpp:84] Creating Layer res3b1_branch2c
I0417 03:39:31.355582  3757 net.cpp:406] res3b1_branch2c <- res3b1_branch2b
I0417 03:39:31.355587  3757 net.cpp:380] res3b1_branch2c -> res3b1_branch2c
I0417 03:39:31.357409  3757 net.cpp:122] Setting up res3b1_branch2c
I0417 03:39:31.357415  3757 net.cpp:129] Top shape: 5 512 28 28 (2007040)
I0417 03:39:31.357419  3757 net.cpp:137] Memory required for data: 681390100
I0417 03:39:31.357422  3757 layer_factory.hpp:77] Creating layer bn3b1_branch2c
I0417 03:39:31.357429  3757 net.cpp:84] Creating Layer bn3b1_branch2c
I0417 03:39:31.357432  3757 net.cpp:406] bn3b1_branch2c <- res3b1_branch2c
I0417 03:39:31.357435  3757 net.cpp:367] bn3b1_branch2c -> res3b1_branch2c (in-place)
I0417 03:39:31.357579  3757 net.cpp:122] Setting up bn3b1_branch2c
I0417 03:39:31.357584  3757 net.cpp:129] Top shape: 5 512 28 28 (2007040)
I0417 03:39:31.357586  3757 net.cpp:137] Memory required for data: 689418260
I0417 03:39:31.357591  3757 layer_factory.hpp:77] Creating layer scale3b1_branch2c
I0417 03:39:31.357595  3757 net.cpp:84] Creating Layer scale3b1_branch2c
I0417 03:39:31.357599  3757 net.cpp:406] scale3b1_branch2c <- res3b1_branch2c
I0417 03:39:31.357604  3757 net.cpp:367] scale3b1_branch2c -> res3b1_branch2c (in-place)
I0417 03:39:31.357633  3757 layer_factory.hpp:77] Creating layer scale3b1_branch2c
I0417 03:39:31.357712  3757 net.cpp:122] Setting up scale3b1_branch2c
I0417 03:39:31.357717  3757 net.cpp:129] Top shape: 5 512 28 28 (2007040)
I0417 03:39:31.357719  3757 net.cpp:137] Memory required for data: 697446420
I0417 03:39:31.357723  3757 layer_factory.hpp:77] Creating layer res3b1
I0417 03:39:31.357728  3757 net.cpp:84] Creating Layer res3b1
I0417 03:39:31.357731  3757 net.cpp:406] res3b1 <- res3a_res3a_relu_0_split_1
I0417 03:39:31.357734  3757 net.cpp:406] res3b1 <- res3b1_branch2c
I0417 03:39:31.357738  3757 net.cpp:380] res3b1 -> res3b1
I0417 03:39:31.357759  3757 net.cpp:122] Setting up res3b1
I0417 03:39:31.357764  3757 net.cpp:129] Top shape: 5 512 28 28 (2007040)
I0417 03:39:31.357765  3757 net.cpp:137] Memory required for data: 705474580
I0417 03:39:31.357767  3757 layer_factory.hpp:77] Creating layer res3b1_relu
I0417 03:39:31.357772  3757 net.cpp:84] Creating Layer res3b1_relu
I0417 03:39:31.357775  3757 net.cpp:406] res3b1_relu <- res3b1
I0417 03:39:31.357779  3757 net.cpp:367] res3b1_relu -> res3b1 (in-place)
I0417 03:39:31.358278  3757 net.cpp:122] Setting up res3b1_relu
I0417 03:39:31.358284  3757 net.cpp:129] Top shape: 5 512 28 28 (2007040)
I0417 03:39:31.358288  3757 net.cpp:137] Memory required for data: 713502740
I0417 03:39:31.358289  3757 layer_factory.hpp:77] Creating layer res3b1_res3b1_relu_0_split
I0417 03:39:31.358295  3757 net.cpp:84] Creating Layer res3b1_res3b1_relu_0_split
I0417 03:39:31.358299  3757 net.cpp:406] res3b1_res3b1_relu_0_split <- res3b1
I0417 03:39:31.358304  3757 net.cpp:380] res3b1_res3b1_relu_0_split -> res3b1_res3b1_relu_0_split_0
I0417 03:39:31.358309  3757 net.cpp:380] res3b1_res3b1_relu_0_split -> res3b1_res3b1_relu_0_split_1
I0417 03:39:31.358342  3757 net.cpp:122] Setting up res3b1_res3b1_relu_0_split
I0417 03:39:31.358346  3757 net.cpp:129] Top shape: 5 512 28 28 (2007040)
I0417 03:39:31.358350  3757 net.cpp:129] Top shape: 5 512 28 28 (2007040)
I0417 03:39:31.358357  3757 net.cpp:137] Memory required for data: 729559060
I0417 03:39:31.358361  3757 layer_factory.hpp:77] Creating layer res3b2_branch2a
I0417 03:39:31.358366  3757 net.cpp:84] Creating Layer res3b2_branch2a
I0417 03:39:31.358371  3757 net.cpp:406] res3b2_branch2a <- res3b1_res3b1_relu_0_split_0
I0417 03:39:31.358374  3757 net.cpp:380] res3b2_branch2a -> res3b2_branch2a
I0417 03:39:31.360291  3757 net.cpp:122] Setting up res3b2_branch2a
I0417 03:39:31.360301  3757 net.cpp:129] Top shape: 5 128 28 28 (501760)
I0417 03:39:31.360303  3757 net.cpp:137] Memory required for data: 731566100
I0417 03:39:31.360307  3757 layer_factory.hpp:77] Creating layer bn3b2_branch2a
I0417 03:39:31.360311  3757 net.cpp:84] Creating Layer bn3b2_branch2a
I0417 03:39:31.360316  3757 net.cpp:406] bn3b2_branch2a <- res3b2_branch2a
I0417 03:39:31.360321  3757 net.cpp:367] bn3b2_branch2a -> res3b2_branch2a (in-place)
I0417 03:39:31.360466  3757 net.cpp:122] Setting up bn3b2_branch2a
I0417 03:39:31.360471  3757 net.cpp:129] Top shape: 5 128 28 28 (501760)
I0417 03:39:31.360473  3757 net.cpp:137] Memory required for data: 733573140
I0417 03:39:31.360478  3757 layer_factory.hpp:77] Creating layer scale3b2_branch2a
I0417 03:39:31.360482  3757 net.cpp:84] Creating Layer scale3b2_branch2a
I0417 03:39:31.360486  3757 net.cpp:406] scale3b2_branch2a <- res3b2_branch2a
I0417 03:39:31.360489  3757 net.cpp:367] scale3b2_branch2a -> res3b2_branch2a (in-place)
I0417 03:39:31.360522  3757 layer_factory.hpp:77] Creating layer scale3b2_branch2a
I0417 03:39:31.360605  3757 net.cpp:122] Setting up scale3b2_branch2a
I0417 03:39:31.360610  3757 net.cpp:129] Top shape: 5 128 28 28 (501760)
I0417 03:39:31.360611  3757 net.cpp:137] Memory required for data: 735580180
I0417 03:39:31.360615  3757 layer_factory.hpp:77] Creating layer res3b2_branch2a_relu
I0417 03:39:31.360620  3757 net.cpp:84] Creating Layer res3b2_branch2a_relu
I0417 03:39:31.360623  3757 net.cpp:406] res3b2_branch2a_relu <- res3b2_branch2a
I0417 03:39:31.360627  3757 net.cpp:367] res3b2_branch2a_relu -> res3b2_branch2a (in-place)
I0417 03:39:31.361016  3757 net.cpp:122] Setting up res3b2_branch2a_relu
I0417 03:39:31.361022  3757 net.cpp:129] Top shape: 5 128 28 28 (501760)
I0417 03:39:31.361026  3757 net.cpp:137] Memory required for data: 737587220
I0417 03:39:31.361028  3757 layer_factory.hpp:77] Creating layer res3b2_branch2b
I0417 03:39:31.361034  3757 net.cpp:84] Creating Layer res3b2_branch2b
I0417 03:39:31.361037  3757 net.cpp:406] res3b2_branch2b <- res3b2_branch2a
I0417 03:39:31.361042  3757 net.cpp:380] res3b2_branch2b -> res3b2_branch2b
I0417 03:39:31.363535  3757 net.cpp:122] Setting up res3b2_branch2b
I0417 03:39:31.363543  3757 net.cpp:129] Top shape: 5 128 28 28 (501760)
I0417 03:39:31.363546  3757 net.cpp:137] Memory required for data: 739594260
I0417 03:39:31.363550  3757 layer_factory.hpp:77] Creating layer bn3b2_branch2b
I0417 03:39:31.363554  3757 net.cpp:84] Creating Layer bn3b2_branch2b
I0417 03:39:31.363559  3757 net.cpp:406] bn3b2_branch2b <- res3b2_branch2b
I0417 03:39:31.363564  3757 net.cpp:367] bn3b2_branch2b -> res3b2_branch2b (in-place)
I0417 03:39:31.363713  3757 net.cpp:122] Setting up bn3b2_branch2b
I0417 03:39:31.363718  3757 net.cpp:129] Top shape: 5 128 28 28 (501760)
I0417 03:39:31.363720  3757 net.cpp:137] Memory required for data: 741601300
I0417 03:39:31.363724  3757 layer_factory.hpp:77] Creating layer scale3b2_branch2b
I0417 03:39:31.363729  3757 net.cpp:84] Creating Layer scale3b2_branch2b
I0417 03:39:31.363732  3757 net.cpp:406] scale3b2_branch2b <- res3b2_branch2b
I0417 03:39:31.363736  3757 net.cpp:367] scale3b2_branch2b -> res3b2_branch2b (in-place)
I0417 03:39:31.363768  3757 layer_factory.hpp:77] Creating layer scale3b2_branch2b
I0417 03:39:31.363852  3757 net.cpp:122] Setting up scale3b2_branch2b
I0417 03:39:31.363857  3757 net.cpp:129] Top shape: 5 128 28 28 (501760)
I0417 03:39:31.363858  3757 net.cpp:137] Memory required for data: 743608340
I0417 03:39:31.363862  3757 layer_factory.hpp:77] Creating layer res3b2_branch2b_relu
I0417 03:39:31.363876  3757 net.cpp:84] Creating Layer res3b2_branch2b_relu
I0417 03:39:31.363880  3757 net.cpp:406] res3b2_branch2b_relu <- res3b2_branch2b
I0417 03:39:31.363884  3757 net.cpp:367] res3b2_branch2b_relu -> res3b2_branch2b (in-place)
I0417 03:39:31.364276  3757 net.cpp:122] Setting up res3b2_branch2b_relu
I0417 03:39:31.364282  3757 net.cpp:129] Top shape: 5 128 28 28 (501760)
I0417 03:39:31.364285  3757 net.cpp:137] Memory required for data: 745615380
I0417 03:39:31.364287  3757 layer_factory.hpp:77] Creating layer res3b2_branch2c
I0417 03:39:31.364295  3757 net.cpp:84] Creating Layer res3b2_branch2c
I0417 03:39:31.364298  3757 net.cpp:406] res3b2_branch2c <- res3b2_branch2b
I0417 03:39:31.364302  3757 net.cpp:380] res3b2_branch2c -> res3b2_branch2c
I0417 03:39:31.366152  3757 net.cpp:122] Setting up res3b2_branch2c
I0417 03:39:31.366158  3757 net.cpp:129] Top shape: 5 512 28 28 (2007040)
I0417 03:39:31.366160  3757 net.cpp:137] Memory required for data: 753643540
I0417 03:39:31.366164  3757 layer_factory.hpp:77] Creating layer bn3b2_branch2c
I0417 03:39:31.366171  3757 net.cpp:84] Creating Layer bn3b2_branch2c
I0417 03:39:31.366175  3757 net.cpp:406] bn3b2_branch2c <- res3b2_branch2c
I0417 03:39:31.366179  3757 net.cpp:367] bn3b2_branch2c -> res3b2_branch2c (in-place)
I0417 03:39:31.366328  3757 net.cpp:122] Setting up bn3b2_branch2c
I0417 03:39:31.366331  3757 net.cpp:129] Top shape: 5 512 28 28 (2007040)
I0417 03:39:31.366334  3757 net.cpp:137] Memory required for data: 761671700
I0417 03:39:31.366338  3757 layer_factory.hpp:77] Creating layer scale3b2_branch2c
I0417 03:39:31.366343  3757 net.cpp:84] Creating Layer scale3b2_branch2c
I0417 03:39:31.366346  3757 net.cpp:406] scale3b2_branch2c <- res3b2_branch2c
I0417 03:39:31.366350  3757 net.cpp:367] scale3b2_branch2c -> res3b2_branch2c (in-place)
I0417 03:39:31.366382  3757 layer_factory.hpp:77] Creating layer scale3b2_branch2c
I0417 03:39:31.366464  3757 net.cpp:122] Setting up scale3b2_branch2c
I0417 03:39:31.366469  3757 net.cpp:129] Top shape: 5 512 28 28 (2007040)
I0417 03:39:31.366472  3757 net.cpp:137] Memory required for data: 769699860
I0417 03:39:31.366475  3757 layer_factory.hpp:77] Creating layer res3b2
I0417 03:39:31.366482  3757 net.cpp:84] Creating Layer res3b2
I0417 03:39:31.366484  3757 net.cpp:406] res3b2 <- res3b1_res3b1_relu_0_split_1
I0417 03:39:31.366488  3757 net.cpp:406] res3b2 <- res3b2_branch2c
I0417 03:39:31.366492  3757 net.cpp:380] res3b2 -> res3b2
I0417 03:39:31.366511  3757 net.cpp:122] Setting up res3b2
I0417 03:39:31.366515  3757 net.cpp:129] Top shape: 5 512 28 28 (2007040)
I0417 03:39:31.366518  3757 net.cpp:137] Memory required for data: 777728020
I0417 03:39:31.366520  3757 layer_factory.hpp:77] Creating layer res3b2_relu
I0417 03:39:31.366523  3757 net.cpp:84] Creating Layer res3b2_relu
I0417 03:39:31.366526  3757 net.cpp:406] res3b2_relu <- res3b2
I0417 03:39:31.366531  3757 net.cpp:367] res3b2_relu -> res3b2 (in-place)
I0417 03:39:31.367029  3757 net.cpp:122] Setting up res3b2_relu
I0417 03:39:31.367036  3757 net.cpp:129] Top shape: 5 512 28 28 (2007040)
I0417 03:39:31.367038  3757 net.cpp:137] Memory required for data: 785756180
I0417 03:39:31.367041  3757 layer_factory.hpp:77] Creating layer res3b2_res3b2_relu_0_split
I0417 03:39:31.367045  3757 net.cpp:84] Creating Layer res3b2_res3b2_relu_0_split
I0417 03:39:31.367050  3757 net.cpp:406] res3b2_res3b2_relu_0_split <- res3b2
I0417 03:39:31.367054  3757 net.cpp:380] res3b2_res3b2_relu_0_split -> res3b2_res3b2_relu_0_split_0
I0417 03:39:31.367063  3757 net.cpp:380] res3b2_res3b2_relu_0_split -> res3b2_res3b2_relu_0_split_1
I0417 03:39:31.367099  3757 net.cpp:122] Setting up res3b2_res3b2_relu_0_split
I0417 03:39:31.367102  3757 net.cpp:129] Top shape: 5 512 28 28 (2007040)
I0417 03:39:31.367105  3757 net.cpp:129] Top shape: 5 512 28 28 (2007040)
I0417 03:39:31.367107  3757 net.cpp:137] Memory required for data: 801812500
I0417 03:39:31.367110  3757 layer_factory.hpp:77] Creating layer res3b3_branch2a
I0417 03:39:31.367116  3757 net.cpp:84] Creating Layer res3b3_branch2a
I0417 03:39:31.367125  3757 net.cpp:406] res3b3_branch2a <- res3b2_res3b2_relu_0_split_0
I0417 03:39:31.367130  3757 net.cpp:380] res3b3_branch2a -> res3b3_branch2a
I0417 03:39:31.369473  3757 net.cpp:122] Setting up res3b3_branch2a
I0417 03:39:31.369483  3757 net.cpp:129] Top shape: 5 128 28 28 (501760)
I0417 03:39:31.369485  3757 net.cpp:137] Memory required for data: 803819540
I0417 03:39:31.369490  3757 layer_factory.hpp:77] Creating layer bn3b3_branch2a
I0417 03:39:31.369495  3757 net.cpp:84] Creating Layer bn3b3_branch2a
I0417 03:39:31.369499  3757 net.cpp:406] bn3b3_branch2a <- res3b3_branch2a
I0417 03:39:31.369503  3757 net.cpp:367] bn3b3_branch2a -> res3b3_branch2a (in-place)
I0417 03:39:31.369662  3757 net.cpp:122] Setting up bn3b3_branch2a
I0417 03:39:31.369666  3757 net.cpp:129] Top shape: 5 128 28 28 (501760)
I0417 03:39:31.369668  3757 net.cpp:137] Memory required for data: 805826580
I0417 03:39:31.369680  3757 layer_factory.hpp:77] Creating layer scale3b3_branch2a
I0417 03:39:31.369685  3757 net.cpp:84] Creating Layer scale3b3_branch2a
I0417 03:39:31.369688  3757 net.cpp:406] scale3b3_branch2a <- res3b3_branch2a
I0417 03:39:31.369691  3757 net.cpp:367] scale3b3_branch2a -> res3b3_branch2a (in-place)
I0417 03:39:31.369727  3757 layer_factory.hpp:77] Creating layer scale3b3_branch2a
I0417 03:39:31.369812  3757 net.cpp:122] Setting up scale3b3_branch2a
I0417 03:39:31.369817  3757 net.cpp:129] Top shape: 5 128 28 28 (501760)
I0417 03:39:31.369818  3757 net.cpp:137] Memory required for data: 807833620
I0417 03:39:31.369822  3757 layer_factory.hpp:77] Creating layer res3b3_branch2a_relu
I0417 03:39:31.369827  3757 net.cpp:84] Creating Layer res3b3_branch2a_relu
I0417 03:39:31.369830  3757 net.cpp:406] res3b3_branch2a_relu <- res3b3_branch2a
I0417 03:39:31.369837  3757 net.cpp:367] res3b3_branch2a_relu -> res3b3_branch2a (in-place)
I0417 03:39:31.370235  3757 net.cpp:122] Setting up res3b3_branch2a_relu
I0417 03:39:31.370241  3757 net.cpp:129] Top shape: 5 128 28 28 (501760)
I0417 03:39:31.370244  3757 net.cpp:137] Memory required for data: 809840660
I0417 03:39:31.370246  3757 layer_factory.hpp:77] Creating layer res3b3_branch2b
I0417 03:39:31.370252  3757 net.cpp:84] Creating Layer res3b3_branch2b
I0417 03:39:31.370257  3757 net.cpp:406] res3b3_branch2b <- res3b3_branch2a
I0417 03:39:31.370261  3757 net.cpp:380] res3b3_branch2b -> res3b3_branch2b
I0417 03:39:31.372800  3757 net.cpp:122] Setting up res3b3_branch2b
I0417 03:39:31.372808  3757 net.cpp:129] Top shape: 5 128 28 28 (501760)
I0417 03:39:31.372810  3757 net.cpp:137] Memory required for data: 811847700
I0417 03:39:31.372814  3757 layer_factory.hpp:77] Creating layer bn3b3_branch2b
I0417 03:39:31.372820  3757 net.cpp:84] Creating Layer bn3b3_branch2b
I0417 03:39:31.372823  3757 net.cpp:406] bn3b3_branch2b <- res3b3_branch2b
I0417 03:39:31.372828  3757 net.cpp:367] bn3b3_branch2b -> res3b3_branch2b (in-place)
I0417 03:39:31.372994  3757 net.cpp:122] Setting up bn3b3_branch2b
I0417 03:39:31.373000  3757 net.cpp:129] Top shape: 5 128 28 28 (501760)
I0417 03:39:31.373003  3757 net.cpp:137] Memory required for data: 813854740
I0417 03:39:31.373008  3757 layer_factory.hpp:77] Creating layer scale3b3_branch2b
I0417 03:39:31.373011  3757 net.cpp:84] Creating Layer scale3b3_branch2b
I0417 03:39:31.373014  3757 net.cpp:406] scale3b3_branch2b <- res3b3_branch2b
I0417 03:39:31.373018  3757 net.cpp:367] scale3b3_branch2b -> res3b3_branch2b (in-place)
I0417 03:39:31.373051  3757 layer_factory.hpp:77] Creating layer scale3b3_branch2b
I0417 03:39:31.373137  3757 net.cpp:122] Setting up scale3b3_branch2b
I0417 03:39:31.373142  3757 net.cpp:129] Top shape: 5 128 28 28 (501760)
I0417 03:39:31.373143  3757 net.cpp:137] Memory required for data: 815861780
I0417 03:39:31.373147  3757 layer_factory.hpp:77] Creating layer res3b3_branch2b_relu
I0417 03:39:31.373152  3757 net.cpp:84] Creating Layer res3b3_branch2b_relu
I0417 03:39:31.373157  3757 net.cpp:406] res3b3_branch2b_relu <- res3b3_branch2b
I0417 03:39:31.373159  3757 net.cpp:367] res3b3_branch2b_relu -> res3b3_branch2b (in-place)
I0417 03:39:31.373558  3757 net.cpp:122] Setting up res3b3_branch2b_relu
I0417 03:39:31.373564  3757 net.cpp:129] Top shape: 5 128 28 28 (501760)
I0417 03:39:31.373566  3757 net.cpp:137] Memory required for data: 817868820
I0417 03:39:31.373569  3757 layer_factory.hpp:77] Creating layer res3b3_branch2c
I0417 03:39:31.373575  3757 net.cpp:84] Creating Layer res3b3_branch2c
I0417 03:39:31.373579  3757 net.cpp:406] res3b3_branch2c <- res3b3_branch2b
I0417 03:39:31.373584  3757 net.cpp:380] res3b3_branch2c -> res3b3_branch2c
I0417 03:39:31.375417  3757 net.cpp:122] Setting up res3b3_branch2c
I0417 03:39:31.375424  3757 net.cpp:129] Top shape: 5 512 28 28 (2007040)
I0417 03:39:31.375427  3757 net.cpp:137] Memory required for data: 825896980
I0417 03:39:31.375434  3757 layer_factory.hpp:77] Creating layer bn3b3_branch2c
I0417 03:39:31.375438  3757 net.cpp:84] Creating Layer bn3b3_branch2c
I0417 03:39:31.375442  3757 net.cpp:406] bn3b3_branch2c <- res3b3_branch2c
I0417 03:39:31.375445  3757 net.cpp:367] bn3b3_branch2c -> res3b3_branch2c (in-place)
I0417 03:39:31.375597  3757 net.cpp:122] Setting up bn3b3_branch2c
I0417 03:39:31.375602  3757 net.cpp:129] Top shape: 5 512 28 28 (2007040)
I0417 03:39:31.375604  3757 net.cpp:137] Memory required for data: 833925140
I0417 03:39:31.375608  3757 layer_factory.hpp:77] Creating layer scale3b3_branch2c
I0417 03:39:31.375613  3757 net.cpp:84] Creating Layer scale3b3_branch2c
I0417 03:39:31.375617  3757 net.cpp:406] scale3b3_branch2c <- res3b3_branch2c
I0417 03:39:31.375622  3757 net.cpp:367] scale3b3_branch2c -> res3b3_branch2c (in-place)
I0417 03:39:31.375653  3757 layer_factory.hpp:77] Creating layer scale3b3_branch2c
I0417 03:39:31.375737  3757 net.cpp:122] Setting up scale3b3_branch2c
I0417 03:39:31.375741  3757 net.cpp:129] Top shape: 5 512 28 28 (2007040)
I0417 03:39:31.375743  3757 net.cpp:137] Memory required for data: 841953300
I0417 03:39:31.375747  3757 layer_factory.hpp:77] Creating layer res3b3
I0417 03:39:31.375753  3757 net.cpp:84] Creating Layer res3b3
I0417 03:39:31.375756  3757 net.cpp:406] res3b3 <- res3b2_res3b2_relu_0_split_1
I0417 03:39:31.375759  3757 net.cpp:406] res3b3 <- res3b3_branch2c
I0417 03:39:31.375763  3757 net.cpp:380] res3b3 -> res3b3
I0417 03:39:31.375784  3757 net.cpp:122] Setting up res3b3
I0417 03:39:31.375788  3757 net.cpp:129] Top shape: 5 512 28 28 (2007040)
I0417 03:39:31.375790  3757 net.cpp:137] Memory required for data: 849981460
I0417 03:39:31.375793  3757 layer_factory.hpp:77] Creating layer res3b3_relu
I0417 03:39:31.375797  3757 net.cpp:84] Creating Layer res3b3_relu
I0417 03:39:31.375799  3757 net.cpp:406] res3b3_relu <- res3b3
I0417 03:39:31.375804  3757 net.cpp:367] res3b3_relu -> res3b3 (in-place)
I0417 03:39:31.376308  3757 net.cpp:122] Setting up res3b3_relu
I0417 03:39:31.376315  3757 net.cpp:129] Top shape: 5 512 28 28 (2007040)
I0417 03:39:31.376317  3757 net.cpp:137] Memory required for data: 858009620
I0417 03:39:31.376320  3757 layer_factory.hpp:77] Creating layer res3b3_res3b3_relu_0_split
I0417 03:39:31.376325  3757 net.cpp:84] Creating Layer res3b3_res3b3_relu_0_split
I0417 03:39:31.376327  3757 net.cpp:406] res3b3_res3b3_relu_0_split <- res3b3
I0417 03:39:31.376333  3757 net.cpp:380] res3b3_res3b3_relu_0_split -> res3b3_res3b3_relu_0_split_0
I0417 03:39:31.376340  3757 net.cpp:380] res3b3_res3b3_relu_0_split -> res3b3_res3b3_relu_0_split_1
I0417 03:39:31.376376  3757 net.cpp:122] Setting up res3b3_res3b3_relu_0_split
I0417 03:39:31.376380  3757 net.cpp:129] Top shape: 5 512 28 28 (2007040)
I0417 03:39:31.376384  3757 net.cpp:129] Top shape: 5 512 28 28 (2007040)
I0417 03:39:31.376385  3757 net.cpp:137] Memory required for data: 874065940
I0417 03:39:31.376389  3757 layer_factory.hpp:77] Creating layer res3b4_branch2a
I0417 03:39:31.376394  3757 net.cpp:84] Creating Layer res3b4_branch2a
I0417 03:39:31.376399  3757 net.cpp:406] res3b4_branch2a <- res3b3_res3b3_relu_0_split_0
I0417 03:39:31.376402  3757 net.cpp:380] res3b4_branch2a -> res3b4_branch2a
I0417 03:39:31.378235  3757 net.cpp:122] Setting up res3b4_branch2a
I0417 03:39:31.378247  3757 net.cpp:129] Top shape: 5 128 28 28 (501760)
I0417 03:39:31.378250  3757 net.cpp:137] Memory required for data: 876072980
I0417 03:39:31.378254  3757 layer_factory.hpp:77] Creating layer bn3b4_branch2a
I0417 03:39:31.378260  3757 net.cpp:84] Creating Layer bn3b4_branch2a
I0417 03:39:31.378263  3757 net.cpp:406] bn3b4_branch2a <- res3b4_branch2a
I0417 03:39:31.378268  3757 net.cpp:367] bn3b4_branch2a -> res3b4_branch2a (in-place)
I0417 03:39:31.378422  3757 net.cpp:122] Setting up bn3b4_branch2a
I0417 03:39:31.378425  3757 net.cpp:129] Top shape: 5 128 28 28 (501760)
I0417 03:39:31.378427  3757 net.cpp:137] Memory required for data: 878080020
I0417 03:39:31.378432  3757 layer_factory.hpp:77] Creating layer scale3b4_branch2a
I0417 03:39:31.378437  3757 net.cpp:84] Creating Layer scale3b4_branch2a
I0417 03:39:31.378440  3757 net.cpp:406] scale3b4_branch2a <- res3b4_branch2a
I0417 03:39:31.378444  3757 net.cpp:367] scale3b4_branch2a -> res3b4_branch2a (in-place)
I0417 03:39:31.378476  3757 layer_factory.hpp:77] Creating layer scale3b4_branch2a
I0417 03:39:31.378564  3757 net.cpp:122] Setting up scale3b4_branch2a
I0417 03:39:31.378568  3757 net.cpp:129] Top shape: 5 128 28 28 (501760)
I0417 03:39:31.378571  3757 net.cpp:137] Memory required for data: 880087060
I0417 03:39:31.378574  3757 layer_factory.hpp:77] Creating layer res3b4_branch2a_relu
I0417 03:39:31.378578  3757 net.cpp:84] Creating Layer res3b4_branch2a_relu
I0417 03:39:31.378582  3757 net.cpp:406] res3b4_branch2a_relu <- res3b4_branch2a
I0417 03:39:31.378584  3757 net.cpp:367] res3b4_branch2a_relu -> res3b4_branch2a (in-place)
I0417 03:39:31.378978  3757 net.cpp:122] Setting up res3b4_branch2a_relu
I0417 03:39:31.378985  3757 net.cpp:129] Top shape: 5 128 28 28 (501760)
I0417 03:39:31.378988  3757 net.cpp:137] Memory required for data: 882094100
I0417 03:39:31.378990  3757 layer_factory.hpp:77] Creating layer res3b4_branch2b
I0417 03:39:31.378998  3757 net.cpp:84] Creating Layer res3b4_branch2b
I0417 03:39:31.379001  3757 net.cpp:406] res3b4_branch2b <- res3b4_branch2a
I0417 03:39:31.379005  3757 net.cpp:380] res3b4_branch2b -> res3b4_branch2b
I0417 03:39:31.382159  3757 net.cpp:122] Setting up res3b4_branch2b
I0417 03:39:31.382170  3757 net.cpp:129] Top shape: 5 128 28 28 (501760)
I0417 03:39:31.382174  3757 net.cpp:137] Memory required for data: 884101140
I0417 03:39:31.382179  3757 layer_factory.hpp:77] Creating layer bn3b4_branch2b
I0417 03:39:31.382184  3757 net.cpp:84] Creating Layer bn3b4_branch2b
I0417 03:39:31.382189  3757 net.cpp:406] bn3b4_branch2b <- res3b4_branch2b
I0417 03:39:31.382194  3757 net.cpp:367] bn3b4_branch2b -> res3b4_branch2b (in-place)
I0417 03:39:31.382359  3757 net.cpp:122] Setting up bn3b4_branch2b
I0417 03:39:31.382364  3757 net.cpp:129] Top shape: 5 128 28 28 (501760)
I0417 03:39:31.382366  3757 net.cpp:137] Memory required for data: 886108180
I0417 03:39:31.382370  3757 layer_factory.hpp:77] Creating layer scale3b4_branch2b
I0417 03:39:31.382375  3757 net.cpp:84] Creating Layer scale3b4_branch2b
I0417 03:39:31.382380  3757 net.cpp:406] scale3b4_branch2b <- res3b4_branch2b
I0417 03:39:31.382383  3757 net.cpp:367] scale3b4_branch2b -> res3b4_branch2b (in-place)
I0417 03:39:31.382419  3757 layer_factory.hpp:77] Creating layer scale3b4_branch2b
I0417 03:39:31.382509  3757 net.cpp:122] Setting up scale3b4_branch2b
I0417 03:39:31.382514  3757 net.cpp:129] Top shape: 5 128 28 28 (501760)
I0417 03:39:31.382516  3757 net.cpp:137] Memory required for data: 888115220
I0417 03:39:31.382520  3757 layer_factory.hpp:77] Creating layer res3b4_branch2b_relu
I0417 03:39:31.382524  3757 net.cpp:84] Creating Layer res3b4_branch2b_relu
I0417 03:39:31.382527  3757 net.cpp:406] res3b4_branch2b_relu <- res3b4_branch2b
I0417 03:39:31.382531  3757 net.cpp:367] res3b4_branch2b_relu -> res3b4_branch2b (in-place)
I0417 03:39:31.382925  3757 net.cpp:122] Setting up res3b4_branch2b_relu
I0417 03:39:31.382930  3757 net.cpp:129] Top shape: 5 128 28 28 (501760)
I0417 03:39:31.382932  3757 net.cpp:137] Memory required for data: 890122260
I0417 03:39:31.382943  3757 layer_factory.hpp:77] Creating layer res3b4_branch2c
I0417 03:39:31.382951  3757 net.cpp:84] Creating Layer res3b4_branch2c
I0417 03:39:31.382954  3757 net.cpp:406] res3b4_branch2c <- res3b4_branch2b
I0417 03:39:31.382958  3757 net.cpp:380] res3b4_branch2c -> res3b4_branch2c
I0417 03:39:31.384793  3757 net.cpp:122] Setting up res3b4_branch2c
I0417 03:39:31.384800  3757 net.cpp:129] Top shape: 5 512 28 28 (2007040)
I0417 03:39:31.384804  3757 net.cpp:137] Memory required for data: 898150420
I0417 03:39:31.384807  3757 layer_factory.hpp:77] Creating layer bn3b4_branch2c
I0417 03:39:31.384812  3757 net.cpp:84] Creating Layer bn3b4_branch2c
I0417 03:39:31.384815  3757 net.cpp:406] bn3b4_branch2c <- res3b4_branch2c
I0417 03:39:31.384821  3757 net.cpp:367] bn3b4_branch2c -> res3b4_branch2c (in-place)
I0417 03:39:31.384991  3757 net.cpp:122] Setting up bn3b4_branch2c
I0417 03:39:31.384996  3757 net.cpp:129] Top shape: 5 512 28 28 (2007040)
I0417 03:39:31.384999  3757 net.cpp:137] Memory required for data: 906178580
I0417 03:39:31.385004  3757 layer_factory.hpp:77] Creating layer scale3b4_branch2c
I0417 03:39:31.385008  3757 net.cpp:84] Creating Layer scale3b4_branch2c
I0417 03:39:31.385012  3757 net.cpp:406] scale3b4_branch2c <- res3b4_branch2c
I0417 03:39:31.385015  3757 net.cpp:367] scale3b4_branch2c -> res3b4_branch2c (in-place)
I0417 03:39:31.385048  3757 layer_factory.hpp:77] Creating layer scale3b4_branch2c
I0417 03:39:31.385134  3757 net.cpp:122] Setting up scale3b4_branch2c
I0417 03:39:31.385139  3757 net.cpp:129] Top shape: 5 512 28 28 (2007040)
I0417 03:39:31.385141  3757 net.cpp:137] Memory required for data: 914206740
I0417 03:39:31.385145  3757 layer_factory.hpp:77] Creating layer res3b4
I0417 03:39:31.385152  3757 net.cpp:84] Creating Layer res3b4
I0417 03:39:31.385156  3757 net.cpp:406] res3b4 <- res3b3_res3b3_relu_0_split_1
I0417 03:39:31.385159  3757 net.cpp:406] res3b4 <- res3b4_branch2c
I0417 03:39:31.385162  3757 net.cpp:380] res3b4 -> res3b4
I0417 03:39:31.385185  3757 net.cpp:122] Setting up res3b4
I0417 03:39:31.385188  3757 net.cpp:129] Top shape: 5 512 28 28 (2007040)
I0417 03:39:31.385190  3757 net.cpp:137] Memory required for data: 922234900
I0417 03:39:31.385193  3757 layer_factory.hpp:77] Creating layer res3b4_relu
I0417 03:39:31.385198  3757 net.cpp:84] Creating Layer res3b4_relu
I0417 03:39:31.385201  3757 net.cpp:406] res3b4_relu <- res3b4
I0417 03:39:31.385205  3757 net.cpp:367] res3b4_relu -> res3b4 (in-place)
I0417 03:39:31.385711  3757 net.cpp:122] Setting up res3b4_relu
I0417 03:39:31.385718  3757 net.cpp:129] Top shape: 5 512 28 28 (2007040)
I0417 03:39:31.385721  3757 net.cpp:137] Memory required for data: 930263060
I0417 03:39:31.385723  3757 layer_factory.hpp:77] Creating layer res3b4_res3b4_relu_0_split
I0417 03:39:31.385730  3757 net.cpp:84] Creating Layer res3b4_res3b4_relu_0_split
I0417 03:39:31.385733  3757 net.cpp:406] res3b4_res3b4_relu_0_split <- res3b4
I0417 03:39:31.385737  3757 net.cpp:380] res3b4_res3b4_relu_0_split -> res3b4_res3b4_relu_0_split_0
I0417 03:39:31.385742  3757 net.cpp:380] res3b4_res3b4_relu_0_split -> res3b4_res3b4_relu_0_split_1
I0417 03:39:31.385779  3757 net.cpp:122] Setting up res3b4_res3b4_relu_0_split
I0417 03:39:31.385783  3757 net.cpp:129] Top shape: 5 512 28 28 (2007040)
I0417 03:39:31.385787  3757 net.cpp:129] Top shape: 5 512 28 28 (2007040)
I0417 03:39:31.385789  3757 net.cpp:137] Memory required for data: 946319380
I0417 03:39:31.385792  3757 layer_factory.hpp:77] Creating layer res3b5_branch2a
I0417 03:39:31.385797  3757 net.cpp:84] Creating Layer res3b5_branch2a
I0417 03:39:31.385802  3757 net.cpp:406] res3b5_branch2a <- res3b4_res3b4_relu_0_split_0
I0417 03:39:31.385804  3757 net.cpp:380] res3b5_branch2a -> res3b5_branch2a
I0417 03:39:31.387732  3757 net.cpp:122] Setting up res3b5_branch2a
I0417 03:39:31.387738  3757 net.cpp:129] Top shape: 5 128 28 28 (501760)
I0417 03:39:31.387742  3757 net.cpp:137] Memory required for data: 948326420
I0417 03:39:31.387745  3757 layer_factory.hpp:77] Creating layer bn3b5_branch2a
I0417 03:39:31.387755  3757 net.cpp:84] Creating Layer bn3b5_branch2a
I0417 03:39:31.387760  3757 net.cpp:406] bn3b5_branch2a <- res3b5_branch2a
I0417 03:39:31.387765  3757 net.cpp:367] bn3b5_branch2a -> res3b5_branch2a (in-place)
I0417 03:39:31.387935  3757 net.cpp:122] Setting up bn3b5_branch2a
I0417 03:39:31.387940  3757 net.cpp:129] Top shape: 5 128 28 28 (501760)
I0417 03:39:31.387943  3757 net.cpp:137] Memory required for data: 950333460
I0417 03:39:31.387948  3757 layer_factory.hpp:77] Creating layer scale3b5_branch2a
I0417 03:39:31.387953  3757 net.cpp:84] Creating Layer scale3b5_branch2a
I0417 03:39:31.387956  3757 net.cpp:406] scale3b5_branch2a <- res3b5_branch2a
I0417 03:39:31.387959  3757 net.cpp:367] scale3b5_branch2a -> res3b5_branch2a (in-place)
I0417 03:39:31.387991  3757 layer_factory.hpp:77] Creating layer scale3b5_branch2a
I0417 03:39:31.388082  3757 net.cpp:122] Setting up scale3b5_branch2a
I0417 03:39:31.388087  3757 net.cpp:129] Top shape: 5 128 28 28 (501760)
I0417 03:39:31.388088  3757 net.cpp:137] Memory required for data: 952340500
I0417 03:39:31.388092  3757 layer_factory.hpp:77] Creating layer res3b5_branch2a_relu
I0417 03:39:31.388103  3757 net.cpp:84] Creating Layer res3b5_branch2a_relu
I0417 03:39:31.388105  3757 net.cpp:406] res3b5_branch2a_relu <- res3b5_branch2a
I0417 03:39:31.388109  3757 net.cpp:367] res3b5_branch2a_relu -> res3b5_branch2a (in-place)
I0417 03:39:31.388612  3757 net.cpp:122] Setting up res3b5_branch2a_relu
I0417 03:39:31.388618  3757 net.cpp:129] Top shape: 5 128 28 28 (501760)
I0417 03:39:31.388620  3757 net.cpp:137] Memory required for data: 954347540
I0417 03:39:31.388623  3757 layer_factory.hpp:77] Creating layer res3b5_branch2b
I0417 03:39:31.388629  3757 net.cpp:84] Creating Layer res3b5_branch2b
I0417 03:39:31.388633  3757 net.cpp:406] res3b5_branch2b <- res3b5_branch2a
I0417 03:39:31.388638  3757 net.cpp:380] res3b5_branch2b -> res3b5_branch2b
I0417 03:39:31.391048  3757 net.cpp:122] Setting up res3b5_branch2b
I0417 03:39:31.391055  3757 net.cpp:129] Top shape: 5 128 28 28 (501760)
I0417 03:39:31.391058  3757 net.cpp:137] Memory required for data: 956354580
I0417 03:39:31.391062  3757 layer_factory.hpp:77] Creating layer bn3b5_branch2b
I0417 03:39:31.391068  3757 net.cpp:84] Creating Layer bn3b5_branch2b
I0417 03:39:31.391072  3757 net.cpp:406] bn3b5_branch2b <- res3b5_branch2b
I0417 03:39:31.391075  3757 net.cpp:367] bn3b5_branch2b -> res3b5_branch2b (in-place)
I0417 03:39:31.391234  3757 net.cpp:122] Setting up bn3b5_branch2b
I0417 03:39:31.391239  3757 net.cpp:129] Top shape: 5 128 28 28 (501760)
I0417 03:39:31.391242  3757 net.cpp:137] Memory required for data: 958361620
I0417 03:39:31.391247  3757 layer_factory.hpp:77] Creating layer scale3b5_branch2b
I0417 03:39:31.391252  3757 net.cpp:84] Creating Layer scale3b5_branch2b
I0417 03:39:31.391255  3757 net.cpp:406] scale3b5_branch2b <- res3b5_branch2b
I0417 03:39:31.391259  3757 net.cpp:367] scale3b5_branch2b -> res3b5_branch2b (in-place)
I0417 03:39:31.391293  3757 layer_factory.hpp:77] Creating layer scale3b5_branch2b
I0417 03:39:31.391382  3757 net.cpp:122] Setting up scale3b5_branch2b
I0417 03:39:31.391387  3757 net.cpp:129] Top shape: 5 128 28 28 (501760)
I0417 03:39:31.391389  3757 net.cpp:137] Memory required for data: 960368660
I0417 03:39:31.391393  3757 layer_factory.hpp:77] Creating layer res3b5_branch2b_relu
I0417 03:39:31.391398  3757 net.cpp:84] Creating Layer res3b5_branch2b_relu
I0417 03:39:31.391402  3757 net.cpp:406] res3b5_branch2b_relu <- res3b5_branch2b
I0417 03:39:31.391405  3757 net.cpp:367] res3b5_branch2b_relu -> res3b5_branch2b (in-place)
I0417 03:39:31.391794  3757 net.cpp:122] Setting up res3b5_branch2b_relu
I0417 03:39:31.391800  3757 net.cpp:129] Top shape: 5 128 28 28 (501760)
I0417 03:39:31.391803  3757 net.cpp:137] Memory required for data: 962375700
I0417 03:39:31.391805  3757 layer_factory.hpp:77] Creating layer res3b5_branch2c
I0417 03:39:31.391811  3757 net.cpp:84] Creating Layer res3b5_branch2c
I0417 03:39:31.391815  3757 net.cpp:406] res3b5_branch2c <- res3b5_branch2b
I0417 03:39:31.391826  3757 net.cpp:380] res3b5_branch2c -> res3b5_branch2c
I0417 03:39:31.393786  3757 net.cpp:122] Setting up res3b5_branch2c
I0417 03:39:31.393795  3757 net.cpp:129] Top shape: 5 512 28 28 (2007040)
I0417 03:39:31.393797  3757 net.cpp:137] Memory required for data: 970403860
I0417 03:39:31.393801  3757 layer_factory.hpp:77] Creating layer bn3b5_branch2c
I0417 03:39:31.393805  3757 net.cpp:84] Creating Layer bn3b5_branch2c
I0417 03:39:31.393808  3757 net.cpp:406] bn3b5_branch2c <- res3b5_branch2c
I0417 03:39:31.393813  3757 net.cpp:367] bn3b5_branch2c -> res3b5_branch2c (in-place)
I0417 03:39:31.393978  3757 net.cpp:122] Setting up bn3b5_branch2c
I0417 03:39:31.393983  3757 net.cpp:129] Top shape: 5 512 28 28 (2007040)
I0417 03:39:31.393986  3757 net.cpp:137] Memory required for data: 978432020
I0417 03:39:31.393991  3757 layer_factory.hpp:77] Creating layer scale3b5_branch2c
I0417 03:39:31.393995  3757 net.cpp:84] Creating Layer scale3b5_branch2c
I0417 03:39:31.393998  3757 net.cpp:406] scale3b5_branch2c <- res3b5_branch2c
I0417 03:39:31.394001  3757 net.cpp:367] scale3b5_branch2c -> res3b5_branch2c (in-place)
I0417 03:39:31.394037  3757 layer_factory.hpp:77] Creating layer scale3b5_branch2c
I0417 03:39:31.394124  3757 net.cpp:122] Setting up scale3b5_branch2c
I0417 03:39:31.394129  3757 net.cpp:129] Top shape: 5 512 28 28 (2007040)
I0417 03:39:31.394131  3757 net.cpp:137] Memory required for data: 986460180
I0417 03:39:31.394135  3757 layer_factory.hpp:77] Creating layer res3b5
I0417 03:39:31.394140  3757 net.cpp:84] Creating Layer res3b5
I0417 03:39:31.394145  3757 net.cpp:406] res3b5 <- res3b4_res3b4_relu_0_split_1
I0417 03:39:31.394147  3757 net.cpp:406] res3b5 <- res3b5_branch2c
I0417 03:39:31.394151  3757 net.cpp:380] res3b5 -> res3b5
I0417 03:39:31.394172  3757 net.cpp:122] Setting up res3b5
I0417 03:39:31.394176  3757 net.cpp:129] Top shape: 5 512 28 28 (2007040)
I0417 03:39:31.394179  3757 net.cpp:137] Memory required for data: 994488340
I0417 03:39:31.394181  3757 layer_factory.hpp:77] Creating layer res3b5_relu
I0417 03:39:31.394184  3757 net.cpp:84] Creating Layer res3b5_relu
I0417 03:39:31.394189  3757 net.cpp:406] res3b5_relu <- res3b5
I0417 03:39:31.394193  3757 net.cpp:367] res3b5_relu -> res3b5 (in-place)
I0417 03:39:31.394592  3757 net.cpp:122] Setting up res3b5_relu
I0417 03:39:31.394598  3757 net.cpp:129] Top shape: 5 512 28 28 (2007040)
I0417 03:39:31.394599  3757 net.cpp:137] Memory required for data: 1002516500
I0417 03:39:31.394603  3757 layer_factory.hpp:77] Creating layer res3b5_res3b5_relu_0_split
I0417 03:39:31.394606  3757 net.cpp:84] Creating Layer res3b5_res3b5_relu_0_split
I0417 03:39:31.394610  3757 net.cpp:406] res3b5_res3b5_relu_0_split <- res3b5
I0417 03:39:31.394615  3757 net.cpp:380] res3b5_res3b5_relu_0_split -> res3b5_res3b5_relu_0_split_0
I0417 03:39:31.394621  3757 net.cpp:380] res3b5_res3b5_relu_0_split -> res3b5_res3b5_relu_0_split_1
I0417 03:39:31.394656  3757 net.cpp:122] Setting up res3b5_res3b5_relu_0_split
I0417 03:39:31.394661  3757 net.cpp:129] Top shape: 5 512 28 28 (2007040)
I0417 03:39:31.394665  3757 net.cpp:129] Top shape: 5 512 28 28 (2007040)
I0417 03:39:31.394666  3757 net.cpp:137] Memory required for data: 1018572820
I0417 03:39:31.394670  3757 layer_factory.hpp:77] Creating layer res3b6_branch2a
I0417 03:39:31.394675  3757 net.cpp:84] Creating Layer res3b6_branch2a
I0417 03:39:31.394678  3757 net.cpp:406] res3b6_branch2a <- res3b5_res3b5_relu_0_split_0
I0417 03:39:31.394682  3757 net.cpp:380] res3b6_branch2a -> res3b6_branch2a
I0417 03:39:31.396528  3757 net.cpp:122] Setting up res3b6_branch2a
I0417 03:39:31.396535  3757 net.cpp:129] Top shape: 5 128 28 28 (501760)
I0417 03:39:31.396538  3757 net.cpp:137] Memory required for data: 1020579860
I0417 03:39:31.396541  3757 layer_factory.hpp:77] Creating layer bn3b6_branch2a
I0417 03:39:31.396548  3757 net.cpp:84] Creating Layer bn3b6_branch2a
I0417 03:39:31.396550  3757 net.cpp:406] bn3b6_branch2a <- res3b6_branch2a
I0417 03:39:31.396554  3757 net.cpp:367] bn3b6_branch2a -> res3b6_branch2a (in-place)
I0417 03:39:31.396721  3757 net.cpp:122] Setting up bn3b6_branch2a
I0417 03:39:31.396726  3757 net.cpp:129] Top shape: 5 128 28 28 (501760)
I0417 03:39:31.396728  3757 net.cpp:137] Memory required for data: 1022586900
I0417 03:39:31.396733  3757 layer_factory.hpp:77] Creating layer scale3b6_branch2a
I0417 03:39:31.396737  3757 net.cpp:84] Creating Layer scale3b6_branch2a
I0417 03:39:31.396740  3757 net.cpp:406] scale3b6_branch2a <- res3b6_branch2a
I0417 03:39:31.396745  3757 net.cpp:367] scale3b6_branch2a -> res3b6_branch2a (in-place)
I0417 03:39:31.396780  3757 layer_factory.hpp:77] Creating layer scale3b6_branch2a
I0417 03:39:31.396873  3757 net.cpp:122] Setting up scale3b6_branch2a
I0417 03:39:31.396878  3757 net.cpp:129] Top shape: 5 128 28 28 (501760)
I0417 03:39:31.396880  3757 net.cpp:137] Memory required for data: 1024593940
I0417 03:39:31.396884  3757 layer_factory.hpp:77] Creating layer res3b6_branch2a_relu
I0417 03:39:31.396888  3757 net.cpp:84] Creating Layer res3b6_branch2a_relu
I0417 03:39:31.396891  3757 net.cpp:406] res3b6_branch2a_relu <- res3b6_branch2a
I0417 03:39:31.396895  3757 net.cpp:367] res3b6_branch2a_relu -> res3b6_branch2a (in-place)
I0417 03:39:31.397395  3757 net.cpp:122] Setting up res3b6_branch2a_relu
I0417 03:39:31.397403  3757 net.cpp:129] Top shape: 5 128 28 28 (501760)
I0417 03:39:31.397405  3757 net.cpp:137] Memory required for data: 1026600980
I0417 03:39:31.397408  3757 layer_factory.hpp:77] Creating layer res3b6_branch2b
I0417 03:39:31.397413  3757 net.cpp:84] Creating Layer res3b6_branch2b
I0417 03:39:31.397418  3757 net.cpp:406] res3b6_branch2b <- res3b6_branch2a
I0417 03:39:31.397421  3757 net.cpp:380] res3b6_branch2b -> res3b6_branch2b
I0417 03:39:31.399839  3757 net.cpp:122] Setting up res3b6_branch2b
I0417 03:39:31.399847  3757 net.cpp:129] Top shape: 5 128 28 28 (501760)
I0417 03:39:31.399850  3757 net.cpp:137] Memory required for data: 1028608020
I0417 03:39:31.399854  3757 layer_factory.hpp:77] Creating layer bn3b6_branch2b
I0417 03:39:31.399859  3757 net.cpp:84] Creating Layer bn3b6_branch2b
I0417 03:39:31.399863  3757 net.cpp:406] bn3b6_branch2b <- res3b6_branch2b
I0417 03:39:31.399870  3757 net.cpp:367] bn3b6_branch2b -> res3b6_branch2b (in-place)
I0417 03:39:31.400032  3757 net.cpp:122] Setting up bn3b6_branch2b
I0417 03:39:31.400038  3757 net.cpp:129] Top shape: 5 128 28 28 (501760)
I0417 03:39:31.400039  3757 net.cpp:137] Memory required for data: 1030615060
I0417 03:39:31.400044  3757 layer_factory.hpp:77] Creating layer scale3b6_branch2b
I0417 03:39:31.400050  3757 net.cpp:84] Creating Layer scale3b6_branch2b
I0417 03:39:31.400053  3757 net.cpp:406] scale3b6_branch2b <- res3b6_branch2b
I0417 03:39:31.400058  3757 net.cpp:367] scale3b6_branch2b -> res3b6_branch2b (in-place)
I0417 03:39:31.400090  3757 layer_factory.hpp:77] Creating layer scale3b6_branch2b
I0417 03:39:31.400182  3757 net.cpp:122] Setting up scale3b6_branch2b
I0417 03:39:31.400187  3757 net.cpp:129] Top shape: 5 128 28 28 (501760)
I0417 03:39:31.400188  3757 net.cpp:137] Memory required for data: 1032622100
I0417 03:39:31.400192  3757 layer_factory.hpp:77] Creating layer res3b6_branch2b_relu
I0417 03:39:31.400197  3757 net.cpp:84] Creating Layer res3b6_branch2b_relu
I0417 03:39:31.400199  3757 net.cpp:406] res3b6_branch2b_relu <- res3b6_branch2b
I0417 03:39:31.400203  3757 net.cpp:367] res3b6_branch2b_relu -> res3b6_branch2b (in-place)
I0417 03:39:31.400594  3757 net.cpp:122] Setting up res3b6_branch2b_relu
I0417 03:39:31.400599  3757 net.cpp:129] Top shape: 5 128 28 28 (501760)
I0417 03:39:31.400602  3757 net.cpp:137] Memory required for data: 1034629140
I0417 03:39:31.400604  3757 layer_factory.hpp:77] Creating layer res3b6_branch2c
I0417 03:39:31.400611  3757 net.cpp:84] Creating Layer res3b6_branch2c
I0417 03:39:31.400614  3757 net.cpp:406] res3b6_branch2c <- res3b6_branch2b
I0417 03:39:31.400619  3757 net.cpp:380] res3b6_branch2c -> res3b6_branch2c
I0417 03:39:31.402928  3757 net.cpp:122] Setting up res3b6_branch2c
I0417 03:39:31.402937  3757 net.cpp:129] Top shape: 5 512 28 28 (2007040)
I0417 03:39:31.402947  3757 net.cpp:137] Memory required for data: 1042657300
I0417 03:39:31.402951  3757 layer_factory.hpp:77] Creating layer bn3b6_branch2c
I0417 03:39:31.402957  3757 net.cpp:84] Creating Layer bn3b6_branch2c
I0417 03:39:31.402961  3757 net.cpp:406] bn3b6_branch2c <- res3b6_branch2c
I0417 03:39:31.402966  3757 net.cpp:367] bn3b6_branch2c -> res3b6_branch2c (in-place)
I0417 03:39:31.403129  3757 net.cpp:122] Setting up bn3b6_branch2c
I0417 03:39:31.403134  3757 net.cpp:129] Top shape: 5 512 28 28 (2007040)
I0417 03:39:31.403136  3757 net.cpp:137] Memory required for data: 1050685460
I0417 03:39:31.403141  3757 layer_factory.hpp:77] Creating layer scale3b6_branch2c
I0417 03:39:31.403146  3757 net.cpp:84] Creating Layer scale3b6_branch2c
I0417 03:39:31.403149  3757 net.cpp:406] scale3b6_branch2c <- res3b6_branch2c
I0417 03:39:31.403153  3757 net.cpp:367] scale3b6_branch2c -> res3b6_branch2c (in-place)
I0417 03:39:31.403188  3757 layer_factory.hpp:77] Creating layer scale3b6_branch2c
I0417 03:39:31.403278  3757 net.cpp:122] Setting up scale3b6_branch2c
I0417 03:39:31.403283  3757 net.cpp:129] Top shape: 5 512 28 28 (2007040)
I0417 03:39:31.403285  3757 net.cpp:137] Memory required for data: 1058713620
I0417 03:39:31.403290  3757 layer_factory.hpp:77] Creating layer res3b6
I0417 03:39:31.403295  3757 net.cpp:84] Creating Layer res3b6
I0417 03:39:31.403298  3757 net.cpp:406] res3b6 <- res3b5_res3b5_relu_0_split_1
I0417 03:39:31.403301  3757 net.cpp:406] res3b6 <- res3b6_branch2c
I0417 03:39:31.403306  3757 net.cpp:380] res3b6 -> res3b6
I0417 03:39:31.403326  3757 net.cpp:122] Setting up res3b6
I0417 03:39:31.403329  3757 net.cpp:129] Top shape: 5 512 28 28 (2007040)
I0417 03:39:31.403331  3757 net.cpp:137] Memory required for data: 1066741780
I0417 03:39:31.403334  3757 layer_factory.hpp:77] Creating layer res3b6_relu
I0417 03:39:31.403337  3757 net.cpp:84] Creating Layer res3b6_relu
I0417 03:39:31.403340  3757 net.cpp:406] res3b6_relu <- res3b6
I0417 03:39:31.403345  3757 net.cpp:367] res3b6_relu -> res3b6 (in-place)
I0417 03:39:31.403744  3757 net.cpp:122] Setting up res3b6_relu
I0417 03:39:31.403750  3757 net.cpp:129] Top shape: 5 512 28 28 (2007040)
I0417 03:39:31.403753  3757 net.cpp:137] Memory required for data: 1074769940
I0417 03:39:31.403755  3757 layer_factory.hpp:77] Creating layer res3b6_res3b6_relu_0_split
I0417 03:39:31.403759  3757 net.cpp:84] Creating Layer res3b6_res3b6_relu_0_split
I0417 03:39:31.403764  3757 net.cpp:406] res3b6_res3b6_relu_0_split <- res3b6
I0417 03:39:31.403769  3757 net.cpp:380] res3b6_res3b6_relu_0_split -> res3b6_res3b6_relu_0_split_0
I0417 03:39:31.403775  3757 net.cpp:380] res3b6_res3b6_relu_0_split -> res3b6_res3b6_relu_0_split_1
I0417 03:39:31.403810  3757 net.cpp:122] Setting up res3b6_res3b6_relu_0_split
I0417 03:39:31.403815  3757 net.cpp:129] Top shape: 5 512 28 28 (2007040)
I0417 03:39:31.403818  3757 net.cpp:129] Top shape: 5 512 28 28 (2007040)
I0417 03:39:31.403820  3757 net.cpp:137] Memory required for data: 1090826260
I0417 03:39:31.403823  3757 layer_factory.hpp:77] Creating layer res3b7_branch2a
I0417 03:39:31.403829  3757 net.cpp:84] Creating Layer res3b7_branch2a
I0417 03:39:31.403833  3757 net.cpp:406] res3b7_branch2a <- res3b6_res3b6_relu_0_split_0
I0417 03:39:31.403836  3757 net.cpp:380] res3b7_branch2a -> res3b7_branch2a
I0417 03:39:31.406210  3757 net.cpp:122] Setting up res3b7_branch2a
I0417 03:39:31.406219  3757 net.cpp:129] Top shape: 5 128 28 28 (501760)
I0417 03:39:31.406221  3757 net.cpp:137] Memory required for data: 1092833300
I0417 03:39:31.406225  3757 layer_factory.hpp:77] Creating layer bn3b7_branch2a
I0417 03:39:31.406230  3757 net.cpp:84] Creating Layer bn3b7_branch2a
I0417 03:39:31.406235  3757 net.cpp:406] bn3b7_branch2a <- res3b7_branch2a
I0417 03:39:31.406239  3757 net.cpp:367] bn3b7_branch2a -> res3b7_branch2a (in-place)
I0417 03:39:31.406404  3757 net.cpp:122] Setting up bn3b7_branch2a
I0417 03:39:31.406407  3757 net.cpp:129] Top shape: 5 128 28 28 (501760)
I0417 03:39:31.406410  3757 net.cpp:137] Memory required for data: 1094840340
I0417 03:39:31.406421  3757 layer_factory.hpp:77] Creating layer scale3b7_branch2a
I0417 03:39:31.406427  3757 net.cpp:84] Creating Layer scale3b7_branch2a
I0417 03:39:31.406431  3757 net.cpp:406] scale3b7_branch2a <- res3b7_branch2a
I0417 03:39:31.406435  3757 net.cpp:367] scale3b7_branch2a -> res3b7_branch2a (in-place)
I0417 03:39:31.406471  3757 layer_factory.hpp:77] Creating layer scale3b7_branch2a
I0417 03:39:31.406560  3757 net.cpp:122] Setting up scale3b7_branch2a
I0417 03:39:31.406565  3757 net.cpp:129] Top shape: 5 128 28 28 (501760)
I0417 03:39:31.406569  3757 net.cpp:137] Memory required for data: 1096847380
I0417 03:39:31.406572  3757 layer_factory.hpp:77] Creating layer res3b7_branch2a_relu
I0417 03:39:31.406577  3757 net.cpp:84] Creating Layer res3b7_branch2a_relu
I0417 03:39:31.406580  3757 net.cpp:406] res3b7_branch2a_relu <- res3b7_branch2a
I0417 03:39:31.406584  3757 net.cpp:367] res3b7_branch2a_relu -> res3b7_branch2a (in-place)
I0417 03:39:31.407094  3757 net.cpp:122] Setting up res3b7_branch2a_relu
I0417 03:39:31.407101  3757 net.cpp:129] Top shape: 5 128 28 28 (501760)
I0417 03:39:31.407104  3757 net.cpp:137] Memory required for data: 1098854420
I0417 03:39:31.407107  3757 layer_factory.hpp:77] Creating layer res3b7_branch2b
I0417 03:39:31.407114  3757 net.cpp:84] Creating Layer res3b7_branch2b
I0417 03:39:31.407117  3757 net.cpp:406] res3b7_branch2b <- res3b7_branch2a
I0417 03:39:31.407121  3757 net.cpp:380] res3b7_branch2b -> res3b7_branch2b
I0417 03:39:31.410054  3757 net.cpp:122] Setting up res3b7_branch2b
I0417 03:39:31.410063  3757 net.cpp:129] Top shape: 5 128 28 28 (501760)
I0417 03:39:31.410065  3757 net.cpp:137] Memory required for data: 1100861460
I0417 03:39:31.410069  3757 layer_factory.hpp:77] Creating layer bn3b7_branch2b
I0417 03:39:31.410075  3757 net.cpp:84] Creating Layer bn3b7_branch2b
I0417 03:39:31.410080  3757 net.cpp:406] bn3b7_branch2b <- res3b7_branch2b
I0417 03:39:31.410084  3757 net.cpp:367] bn3b7_branch2b -> res3b7_branch2b (in-place)
I0417 03:39:31.410248  3757 net.cpp:122] Setting up bn3b7_branch2b
I0417 03:39:31.410254  3757 net.cpp:129] Top shape: 5 128 28 28 (501760)
I0417 03:39:31.410256  3757 net.cpp:137] Memory required for data: 1102868500
I0417 03:39:31.410260  3757 layer_factory.hpp:77] Creating layer scale3b7_branch2b
I0417 03:39:31.410265  3757 net.cpp:84] Creating Layer scale3b7_branch2b
I0417 03:39:31.410269  3757 net.cpp:406] scale3b7_branch2b <- res3b7_branch2b
I0417 03:39:31.410274  3757 net.cpp:367] scale3b7_branch2b -> res3b7_branch2b (in-place)
I0417 03:39:31.410310  3757 layer_factory.hpp:77] Creating layer scale3b7_branch2b
I0417 03:39:31.410403  3757 net.cpp:122] Setting up scale3b7_branch2b
I0417 03:39:31.410406  3757 net.cpp:129] Top shape: 5 128 28 28 (501760)
I0417 03:39:31.410408  3757 net.cpp:137] Memory required for data: 1104875540
I0417 03:39:31.410413  3757 layer_factory.hpp:77] Creating layer res3b7_branch2b_relu
I0417 03:39:31.410416  3757 net.cpp:84] Creating Layer res3b7_branch2b_relu
I0417 03:39:31.410419  3757 net.cpp:406] res3b7_branch2b_relu <- res3b7_branch2b
I0417 03:39:31.410423  3757 net.cpp:367] res3b7_branch2b_relu -> res3b7_branch2b (in-place)
I0417 03:39:31.410822  3757 net.cpp:122] Setting up res3b7_branch2b_relu
I0417 03:39:31.410828  3757 net.cpp:129] Top shape: 5 128 28 28 (501760)
I0417 03:39:31.410830  3757 net.cpp:137] Memory required for data: 1106882580
I0417 03:39:31.410833  3757 layer_factory.hpp:77] Creating layer res3b7_branch2c
I0417 03:39:31.410840  3757 net.cpp:84] Creating Layer res3b7_branch2c
I0417 03:39:31.410843  3757 net.cpp:406] res3b7_branch2c <- res3b7_branch2b
I0417 03:39:31.410848  3757 net.cpp:380] res3b7_branch2c -> res3b7_branch2c
I0417 03:39:31.412842  3757 net.cpp:122] Setting up res3b7_branch2c
I0417 03:39:31.412848  3757 net.cpp:129] Top shape: 5 512 28 28 (2007040)
I0417 03:39:31.412852  3757 net.cpp:137] Memory required for data: 1114910740
I0417 03:39:31.412855  3757 layer_factory.hpp:77] Creating layer bn3b7_branch2c
I0417 03:39:31.412861  3757 net.cpp:84] Creating Layer bn3b7_branch2c
I0417 03:39:31.412879  3757 net.cpp:406] bn3b7_branch2c <- res3b7_branch2c
I0417 03:39:31.412883  3757 net.cpp:367] bn3b7_branch2c -> res3b7_branch2c (in-place)
I0417 03:39:31.413050  3757 net.cpp:122] Setting up bn3b7_branch2c
I0417 03:39:31.413055  3757 net.cpp:129] Top shape: 5 512 28 28 (2007040)
I0417 03:39:31.413058  3757 net.cpp:137] Memory required for data: 1122938900
I0417 03:39:31.413063  3757 layer_factory.hpp:77] Creating layer scale3b7_branch2c
I0417 03:39:31.413067  3757 net.cpp:84] Creating Layer scale3b7_branch2c
I0417 03:39:31.413070  3757 net.cpp:406] scale3b7_branch2c <- res3b7_branch2c
I0417 03:39:31.413074  3757 net.cpp:367] scale3b7_branch2c -> res3b7_branch2c (in-place)
I0417 03:39:31.413110  3757 layer_factory.hpp:77] Creating layer scale3b7_branch2c
I0417 03:39:31.413200  3757 net.cpp:122] Setting up scale3b7_branch2c
I0417 03:39:31.413205  3757 net.cpp:129] Top shape: 5 512 28 28 (2007040)
I0417 03:39:31.413208  3757 net.cpp:137] Memory required for data: 1130967060
I0417 03:39:31.413211  3757 layer_factory.hpp:77] Creating layer res3b7
I0417 03:39:31.413215  3757 net.cpp:84] Creating Layer res3b7
I0417 03:39:31.413219  3757 net.cpp:406] res3b7 <- res3b6_res3b6_relu_0_split_1
I0417 03:39:31.413223  3757 net.cpp:406] res3b7 <- res3b7_branch2c
I0417 03:39:31.413228  3757 net.cpp:380] res3b7 -> res3b7
I0417 03:39:31.413249  3757 net.cpp:122] Setting up res3b7
I0417 03:39:31.413254  3757 net.cpp:129] Top shape: 5 512 28 28 (2007040)
I0417 03:39:31.413255  3757 net.cpp:137] Memory required for data: 1138995220
I0417 03:39:31.413259  3757 layer_factory.hpp:77] Creating layer res3b7_relu
I0417 03:39:31.413264  3757 net.cpp:84] Creating Layer res3b7_relu
I0417 03:39:31.413266  3757 net.cpp:406] res3b7_relu <- res3b7
I0417 03:39:31.413270  3757 net.cpp:367] res3b7_relu -> res3b7 (in-place)
I0417 03:39:31.413677  3757 net.cpp:122] Setting up res3b7_relu
I0417 03:39:31.413683  3757 net.cpp:129] Top shape: 5 512 28 28 (2007040)
I0417 03:39:31.413686  3757 net.cpp:137] Memory required for data: 1147023380
I0417 03:39:31.413687  3757 layer_factory.hpp:77] Creating layer res3b7_res3b7_relu_0_split
I0417 03:39:31.413693  3757 net.cpp:84] Creating Layer res3b7_res3b7_relu_0_split
I0417 03:39:31.413697  3757 net.cpp:406] res3b7_res3b7_relu_0_split <- res3b7
I0417 03:39:31.413700  3757 net.cpp:380] res3b7_res3b7_relu_0_split -> res3b7_res3b7_relu_0_split_0
I0417 03:39:31.413707  3757 net.cpp:380] res3b7_res3b7_relu_0_split -> res3b7_res3b7_relu_0_split_1
I0417 03:39:31.413743  3757 net.cpp:122] Setting up res3b7_res3b7_relu_0_split
I0417 03:39:31.413746  3757 net.cpp:129] Top shape: 5 512 28 28 (2007040)
I0417 03:39:31.413749  3757 net.cpp:129] Top shape: 5 512 28 28 (2007040)
I0417 03:39:31.413753  3757 net.cpp:137] Memory required for data: 1163079700
I0417 03:39:31.413754  3757 layer_factory.hpp:77] Creating layer res4a_branch1
I0417 03:39:31.413761  3757 net.cpp:84] Creating Layer res4a_branch1
I0417 03:39:31.413764  3757 net.cpp:406] res4a_branch1 <- res3b7_res3b7_relu_0_split_0
I0417 03:39:31.413769  3757 net.cpp:380] res4a_branch1 -> res4a_branch1
I0417 03:39:31.418838  3757 net.cpp:122] Setting up res4a_branch1
I0417 03:39:31.418848  3757 net.cpp:129] Top shape: 5 1024 14 14 (1003520)
I0417 03:39:31.418849  3757 net.cpp:137] Memory required for data: 1167093780
I0417 03:39:31.418854  3757 layer_factory.hpp:77] Creating layer bn4a_branch1
I0417 03:39:31.418860  3757 net.cpp:84] Creating Layer bn4a_branch1
I0417 03:39:31.418865  3757 net.cpp:406] bn4a_branch1 <- res4a_branch1
I0417 03:39:31.418874  3757 net.cpp:367] bn4a_branch1 -> res4a_branch1 (in-place)
I0417 03:39:31.419047  3757 net.cpp:122] Setting up bn4a_branch1
I0417 03:39:31.419052  3757 net.cpp:129] Top shape: 5 1024 14 14 (1003520)
I0417 03:39:31.419054  3757 net.cpp:137] Memory required for data: 1171107860
I0417 03:39:31.419059  3757 layer_factory.hpp:77] Creating layer scale4a_branch1
I0417 03:39:31.419064  3757 net.cpp:84] Creating Layer scale4a_branch1
I0417 03:39:31.419067  3757 net.cpp:406] scale4a_branch1 <- res4a_branch1
I0417 03:39:31.419077  3757 net.cpp:367] scale4a_branch1 -> res4a_branch1 (in-place)
I0417 03:39:31.419113  3757 layer_factory.hpp:77] Creating layer scale4a_branch1
I0417 03:39:31.419210  3757 net.cpp:122] Setting up scale4a_branch1
I0417 03:39:31.419215  3757 net.cpp:129] Top shape: 5 1024 14 14 (1003520)
I0417 03:39:31.419217  3757 net.cpp:137] Memory required for data: 1175121940
I0417 03:39:31.419221  3757 layer_factory.hpp:77] Creating layer res4a_branch2a
I0417 03:39:31.419227  3757 net.cpp:84] Creating Layer res4a_branch2a
I0417 03:39:31.419231  3757 net.cpp:406] res4a_branch2a <- res3b7_res3b7_relu_0_split_1
I0417 03:39:31.419235  3757 net.cpp:380] res4a_branch2a -> res4a_branch2a
I0417 03:39:31.421619  3757 net.cpp:122] Setting up res4a_branch2a
I0417 03:39:31.421627  3757 net.cpp:129] Top shape: 5 256 14 14 (250880)
I0417 03:39:31.421629  3757 net.cpp:137] Memory required for data: 1176125460
I0417 03:39:31.421633  3757 layer_factory.hpp:77] Creating layer bn4a_branch2a
I0417 03:39:31.421638  3757 net.cpp:84] Creating Layer bn4a_branch2a
I0417 03:39:31.421641  3757 net.cpp:406] bn4a_branch2a <- res4a_branch2a
I0417 03:39:31.421645  3757 net.cpp:367] bn4a_branch2a -> res4a_branch2a (in-place)
I0417 03:39:31.421810  3757 net.cpp:122] Setting up bn4a_branch2a
I0417 03:39:31.421815  3757 net.cpp:129] Top shape: 5 256 14 14 (250880)
I0417 03:39:31.421818  3757 net.cpp:137] Memory required for data: 1177128980
I0417 03:39:31.421823  3757 layer_factory.hpp:77] Creating layer scale4a_branch2a
I0417 03:39:31.421826  3757 net.cpp:84] Creating Layer scale4a_branch2a
I0417 03:39:31.421829  3757 net.cpp:406] scale4a_branch2a <- res4a_branch2a
I0417 03:39:31.421835  3757 net.cpp:367] scale4a_branch2a -> res4a_branch2a (in-place)
I0417 03:39:31.421877  3757 layer_factory.hpp:77] Creating layer scale4a_branch2a
I0417 03:39:31.421972  3757 net.cpp:122] Setting up scale4a_branch2a
I0417 03:39:31.421977  3757 net.cpp:129] Top shape: 5 256 14 14 (250880)
I0417 03:39:31.421978  3757 net.cpp:137] Memory required for data: 1178132500
I0417 03:39:31.421983  3757 layer_factory.hpp:77] Creating layer res4a_branch2a_relu
I0417 03:39:31.421986  3757 net.cpp:84] Creating Layer res4a_branch2a_relu
I0417 03:39:31.421989  3757 net.cpp:406] res4a_branch2a_relu <- res4a_branch2a
I0417 03:39:31.421993  3757 net.cpp:367] res4a_branch2a_relu -> res4a_branch2a (in-place)
I0417 03:39:31.422539  3757 net.cpp:122] Setting up res4a_branch2a_relu
I0417 03:39:31.422545  3757 net.cpp:129] Top shape: 5 256 14 14 (250880)
I0417 03:39:31.422547  3757 net.cpp:137] Memory required for data: 1179136020
I0417 03:39:31.422550  3757 layer_factory.hpp:77] Creating layer res4a_branch2b
I0417 03:39:31.422556  3757 net.cpp:84] Creating Layer res4a_branch2b
I0417 03:39:31.422560  3757 net.cpp:406] res4a_branch2b <- res4a_branch2a
I0417 03:39:31.422565  3757 net.cpp:380] res4a_branch2b -> res4a_branch2b
I0417 03:39:31.428122  3757 net.cpp:122] Setting up res4a_branch2b
I0417 03:39:31.428131  3757 net.cpp:129] Top shape: 5 256 14 14 (250880)
I0417 03:39:31.428134  3757 net.cpp:137] Memory required for data: 1180139540
I0417 03:39:31.428139  3757 layer_factory.hpp:77] Creating layer bn4a_branch2b
I0417 03:39:31.428145  3757 net.cpp:84] Creating Layer bn4a_branch2b
I0417 03:39:31.428149  3757 net.cpp:406] bn4a_branch2b <- res4a_branch2b
I0417 03:39:31.428153  3757 net.cpp:367] bn4a_branch2b -> res4a_branch2b (in-place)
I0417 03:39:31.428319  3757 net.cpp:122] Setting up bn4a_branch2b
I0417 03:39:31.428323  3757 net.cpp:129] Top shape: 5 256 14 14 (250880)
I0417 03:39:31.428325  3757 net.cpp:137] Memory required for data: 1181143060
I0417 03:39:31.428331  3757 layer_factory.hpp:77] Creating layer scale4a_branch2b
I0417 03:39:31.428336  3757 net.cpp:84] Creating Layer scale4a_branch2b
I0417 03:39:31.428339  3757 net.cpp:406] scale4a_branch2b <- res4a_branch2b
I0417 03:39:31.428342  3757 net.cpp:367] scale4a_branch2b -> res4a_branch2b (in-place)
I0417 03:39:31.428380  3757 layer_factory.hpp:77] Creating layer scale4a_branch2b
I0417 03:39:31.428478  3757 net.cpp:122] Setting up scale4a_branch2b
I0417 03:39:31.428488  3757 net.cpp:129] Top shape: 5 256 14 14 (250880)
I0417 03:39:31.428489  3757 net.cpp:137] Memory required for data: 1182146580
I0417 03:39:31.428493  3757 layer_factory.hpp:77] Creating layer res4a_branch2b_relu
I0417 03:39:31.428499  3757 net.cpp:84] Creating Layer res4a_branch2b_relu
I0417 03:39:31.428503  3757 net.cpp:406] res4a_branch2b_relu <- res4a_branch2b
I0417 03:39:31.428505  3757 net.cpp:367] res4a_branch2b_relu -> res4a_branch2b (in-place)
I0417 03:39:31.429021  3757 net.cpp:122] Setting up res4a_branch2b_relu
I0417 03:39:31.429028  3757 net.cpp:129] Top shape: 5 256 14 14 (250880)
I0417 03:39:31.429030  3757 net.cpp:137] Memory required for data: 1183150100
I0417 03:39:31.429033  3757 layer_factory.hpp:77] Creating layer res4a_branch2c
I0417 03:39:31.429040  3757 net.cpp:84] Creating Layer res4a_branch2c
I0417 03:39:31.429044  3757 net.cpp:406] res4a_branch2c <- res4a_branch2b
I0417 03:39:31.429047  3757 net.cpp:380] res4a_branch2c -> res4a_branch2c
I0417 03:39:31.432605  3757 net.cpp:122] Setting up res4a_branch2c
I0417 03:39:31.432613  3757 net.cpp:129] Top shape: 5 1024 14 14 (1003520)
I0417 03:39:31.432616  3757 net.cpp:137] Memory required for data: 1187164180
I0417 03:39:31.432621  3757 layer_factory.hpp:77] Creating layer bn4a_branch2c
I0417 03:39:31.432626  3757 net.cpp:84] Creating Layer bn4a_branch2c
I0417 03:39:31.432631  3757 net.cpp:406] bn4a_branch2c <- res4a_branch2c
I0417 03:39:31.432636  3757 net.cpp:367] bn4a_branch2c -> res4a_branch2c (in-place)
I0417 03:39:31.432808  3757 net.cpp:122] Setting up bn4a_branch2c
I0417 03:39:31.432812  3757 net.cpp:129] Top shape: 5 1024 14 14 (1003520)
I0417 03:39:31.432816  3757 net.cpp:137] Memory required for data: 1191178260
I0417 03:39:31.432819  3757 layer_factory.hpp:77] Creating layer scale4a_branch2c
I0417 03:39:31.432823  3757 net.cpp:84] Creating Layer scale4a_branch2c
I0417 03:39:31.432827  3757 net.cpp:406] scale4a_branch2c <- res4a_branch2c
I0417 03:39:31.432831  3757 net.cpp:367] scale4a_branch2c -> res4a_branch2c (in-place)
I0417 03:39:31.432865  3757 layer_factory.hpp:77] Creating layer scale4a_branch2c
I0417 03:39:31.432978  3757 net.cpp:122] Setting up scale4a_branch2c
I0417 03:39:31.432983  3757 net.cpp:129] Top shape: 5 1024 14 14 (1003520)
I0417 03:39:31.432986  3757 net.cpp:137] Memory required for data: 1195192340
I0417 03:39:31.432989  3757 layer_factory.hpp:77] Creating layer res4a
I0417 03:39:31.432996  3757 net.cpp:84] Creating Layer res4a
I0417 03:39:31.432998  3757 net.cpp:406] res4a <- res4a_branch1
I0417 03:39:31.433001  3757 net.cpp:406] res4a <- res4a_branch2c
I0417 03:39:31.433007  3757 net.cpp:380] res4a -> res4a
I0417 03:39:31.433029  3757 net.cpp:122] Setting up res4a
I0417 03:39:31.433033  3757 net.cpp:129] Top shape: 5 1024 14 14 (1003520)
I0417 03:39:31.433035  3757 net.cpp:137] Memory required for data: 1199206420
I0417 03:39:31.433038  3757 layer_factory.hpp:77] Creating layer res4a_relu
I0417 03:39:31.433043  3757 net.cpp:84] Creating Layer res4a_relu
I0417 03:39:31.433046  3757 net.cpp:406] res4a_relu <- res4a
I0417 03:39:31.433050  3757 net.cpp:367] res4a_relu -> res4a (in-place)
I0417 03:39:31.433573  3757 net.cpp:122] Setting up res4a_relu
I0417 03:39:31.433580  3757 net.cpp:129] Top shape: 5 1024 14 14 (1003520)
I0417 03:39:31.433583  3757 net.cpp:137] Memory required for data: 1203220500
I0417 03:39:31.433585  3757 layer_factory.hpp:77] Creating layer res4a_res4a_relu_0_split
I0417 03:39:31.433591  3757 net.cpp:84] Creating Layer res4a_res4a_relu_0_split
I0417 03:39:31.433594  3757 net.cpp:406] res4a_res4a_relu_0_split <- res4a
I0417 03:39:31.433598  3757 net.cpp:380] res4a_res4a_relu_0_split -> res4a_res4a_relu_0_split_0
I0417 03:39:31.433605  3757 net.cpp:380] res4a_res4a_relu_0_split -> res4a_res4a_relu_0_split_1
I0417 03:39:31.433643  3757 net.cpp:122] Setting up res4a_res4a_relu_0_split
I0417 03:39:31.433648  3757 net.cpp:129] Top shape: 5 1024 14 14 (1003520)
I0417 03:39:31.433651  3757 net.cpp:129] Top shape: 5 1024 14 14 (1003520)
I0417 03:39:31.433661  3757 net.cpp:137] Memory required for data: 1211248660
I0417 03:39:31.433663  3757 layer_factory.hpp:77] Creating layer res4b1_branch2a
I0417 03:39:31.433670  3757 net.cpp:84] Creating Layer res4b1_branch2a
I0417 03:39:31.433673  3757 net.cpp:406] res4b1_branch2a <- res4a_res4a_relu_0_split_0
I0417 03:39:31.433677  3757 net.cpp:380] res4b1_branch2a -> res4b1_branch2a
I0417 03:39:31.436784  3757 net.cpp:122] Setting up res4b1_branch2a
I0417 03:39:31.436794  3757 net.cpp:129] Top shape: 5 256 14 14 (250880)
I0417 03:39:31.436795  3757 net.cpp:137] Memory required for data: 1212252180
I0417 03:39:31.436800  3757 layer_factory.hpp:77] Creating layer bn4b1_branch2a
I0417 03:39:31.436806  3757 net.cpp:84] Creating Layer bn4b1_branch2a
I0417 03:39:31.436811  3757 net.cpp:406] bn4b1_branch2a <- res4b1_branch2a
I0417 03:39:31.436815  3757 net.cpp:367] bn4b1_branch2a -> res4b1_branch2a (in-place)
I0417 03:39:31.436995  3757 net.cpp:122] Setting up bn4b1_branch2a
I0417 03:39:31.437000  3757 net.cpp:129] Top shape: 5 256 14 14 (250880)
I0417 03:39:31.437002  3757 net.cpp:137] Memory required for data: 1213255700
I0417 03:39:31.437007  3757 layer_factory.hpp:77] Creating layer scale4b1_branch2a
I0417 03:39:31.437014  3757 net.cpp:84] Creating Layer scale4b1_branch2a
I0417 03:39:31.437018  3757 net.cpp:406] scale4b1_branch2a <- res4b1_branch2a
I0417 03:39:31.437021  3757 net.cpp:367] scale4b1_branch2a -> res4b1_branch2a (in-place)
I0417 03:39:31.437058  3757 layer_factory.hpp:77] Creating layer scale4b1_branch2a
I0417 03:39:31.437155  3757 net.cpp:122] Setting up scale4b1_branch2a
I0417 03:39:31.437160  3757 net.cpp:129] Top shape: 5 256 14 14 (250880)
I0417 03:39:31.437161  3757 net.cpp:137] Memory required for data: 1214259220
I0417 03:39:31.437165  3757 layer_factory.hpp:77] Creating layer res4b1_branch2a_relu
I0417 03:39:31.437170  3757 net.cpp:84] Creating Layer res4b1_branch2a_relu
I0417 03:39:31.437173  3757 net.cpp:406] res4b1_branch2a_relu <- res4b1_branch2a
I0417 03:39:31.437178  3757 net.cpp:367] res4b1_branch2a_relu -> res4b1_branch2a (in-place)
I0417 03:39:31.437584  3757 net.cpp:122] Setting up res4b1_branch2a_relu
I0417 03:39:31.437590  3757 net.cpp:129] Top shape: 5 256 14 14 (250880)
I0417 03:39:31.437592  3757 net.cpp:137] Memory required for data: 1215262740
I0417 03:39:31.437595  3757 layer_factory.hpp:77] Creating layer res4b1_branch2b
I0417 03:39:31.437602  3757 net.cpp:84] Creating Layer res4b1_branch2b
I0417 03:39:31.437605  3757 net.cpp:406] res4b1_branch2b <- res4b1_branch2a
I0417 03:39:31.437609  3757 net.cpp:380] res4b1_branch2b -> res4b1_branch2b
I0417 03:39:31.443305  3757 net.cpp:122] Setting up res4b1_branch2b
I0417 03:39:31.443312  3757 net.cpp:129] Top shape: 5 256 14 14 (250880)
I0417 03:39:31.443315  3757 net.cpp:137] Memory required for data: 1216266260
I0417 03:39:31.443320  3757 layer_factory.hpp:77] Creating layer bn4b1_branch2b
I0417 03:39:31.443325  3757 net.cpp:84] Creating Layer bn4b1_branch2b
I0417 03:39:31.443330  3757 net.cpp:406] bn4b1_branch2b <- res4b1_branch2b
I0417 03:39:31.443333  3757 net.cpp:367] bn4b1_branch2b -> res4b1_branch2b (in-place)
I0417 03:39:31.443507  3757 net.cpp:122] Setting up bn4b1_branch2b
I0417 03:39:31.443511  3757 net.cpp:129] Top shape: 5 256 14 14 (250880)
I0417 03:39:31.443513  3757 net.cpp:137] Memory required for data: 1217269780
I0417 03:39:31.443518  3757 layer_factory.hpp:77] Creating layer scale4b1_branch2b
I0417 03:39:31.443523  3757 net.cpp:84] Creating Layer scale4b1_branch2b
I0417 03:39:31.443526  3757 net.cpp:406] scale4b1_branch2b <- res4b1_branch2b
I0417 03:39:31.443531  3757 net.cpp:367] scale4b1_branch2b -> res4b1_branch2b (in-place)
I0417 03:39:31.443568  3757 layer_factory.hpp:77] Creating layer scale4b1_branch2b
I0417 03:39:31.443681  3757 net.cpp:122] Setting up scale4b1_branch2b
I0417 03:39:31.443686  3757 net.cpp:129] Top shape: 5 256 14 14 (250880)
I0417 03:39:31.443688  3757 net.cpp:137] Memory required for data: 1218273300
I0417 03:39:31.443692  3757 layer_factory.hpp:77] Creating layer res4b1_branch2b_relu
I0417 03:39:31.443703  3757 net.cpp:84] Creating Layer res4b1_branch2b_relu
I0417 03:39:31.443706  3757 net.cpp:406] res4b1_branch2b_relu <- res4b1_branch2b
I0417 03:39:31.443711  3757 net.cpp:367] res4b1_branch2b_relu -> res4b1_branch2b (in-place)
I0417 03:39:31.444123  3757 net.cpp:122] Setting up res4b1_branch2b_relu
I0417 03:39:31.444129  3757 net.cpp:129] Top shape: 5 256 14 14 (250880)
I0417 03:39:31.444131  3757 net.cpp:137] Memory required for data: 1219276820
I0417 03:39:31.444134  3757 layer_factory.hpp:77] Creating layer res4b1_branch2c
I0417 03:39:31.444141  3757 net.cpp:84] Creating Layer res4b1_branch2c
I0417 03:39:31.444145  3757 net.cpp:406] res4b1_branch2c <- res4b1_branch2b
I0417 03:39:31.444149  3757 net.cpp:380] res4b1_branch2c -> res4b1_branch2c
I0417 03:39:31.448055  3757 net.cpp:122] Setting up res4b1_branch2c
I0417 03:39:31.448066  3757 net.cpp:129] Top shape: 5 1024 14 14 (1003520)
I0417 03:39:31.448068  3757 net.cpp:137] Memory required for data: 1223290900
I0417 03:39:31.448073  3757 layer_factory.hpp:77] Creating layer bn4b1_branch2c
I0417 03:39:31.448078  3757 net.cpp:84] Creating Layer bn4b1_branch2c
I0417 03:39:31.448082  3757 net.cpp:406] bn4b1_branch2c <- res4b1_branch2c
I0417 03:39:31.448087  3757 net.cpp:367] bn4b1_branch2c -> res4b1_branch2c (in-place)
I0417 03:39:31.448263  3757 net.cpp:122] Setting up bn4b1_branch2c
I0417 03:39:31.448268  3757 net.cpp:129] Top shape: 5 1024 14 14 (1003520)
I0417 03:39:31.448271  3757 net.cpp:137] Memory required for data: 1227304980
I0417 03:39:31.448276  3757 layer_factory.hpp:77] Creating layer scale4b1_branch2c
I0417 03:39:31.448281  3757 net.cpp:84] Creating Layer scale4b1_branch2c
I0417 03:39:31.448284  3757 net.cpp:406] scale4b1_branch2c <- res4b1_branch2c
I0417 03:39:31.448288  3757 net.cpp:367] scale4b1_branch2c -> res4b1_branch2c (in-place)
I0417 03:39:31.448323  3757 layer_factory.hpp:77] Creating layer scale4b1_branch2c
I0417 03:39:31.448423  3757 net.cpp:122] Setting up scale4b1_branch2c
I0417 03:39:31.448428  3757 net.cpp:129] Top shape: 5 1024 14 14 (1003520)
I0417 03:39:31.448431  3757 net.cpp:137] Memory required for data: 1231319060
I0417 03:39:31.448443  3757 layer_factory.hpp:77] Creating layer res4b1
I0417 03:39:31.448449  3757 net.cpp:84] Creating Layer res4b1
I0417 03:39:31.448453  3757 net.cpp:406] res4b1 <- res4a_res4a_relu_0_split_1
I0417 03:39:31.448457  3757 net.cpp:406] res4b1 <- res4b1_branch2c
I0417 03:39:31.448462  3757 net.cpp:380] res4b1 -> res4b1
I0417 03:39:31.448483  3757 net.cpp:122] Setting up res4b1
I0417 03:39:31.448487  3757 net.cpp:129] Top shape: 5 1024 14 14 (1003520)
I0417 03:39:31.448489  3757 net.cpp:137] Memory required for data: 1235333140
I0417 03:39:31.448493  3757 layer_factory.hpp:77] Creating layer res4b1_relu
I0417 03:39:31.448496  3757 net.cpp:84] Creating Layer res4b1_relu
I0417 03:39:31.448499  3757 net.cpp:406] res4b1_relu <- res4b1
I0417 03:39:31.448503  3757 net.cpp:367] res4b1_relu -> res4b1 (in-place)
I0417 03:39:31.449033  3757 net.cpp:122] Setting up res4b1_relu
I0417 03:39:31.449039  3757 net.cpp:129] Top shape: 5 1024 14 14 (1003520)
I0417 03:39:31.449041  3757 net.cpp:137] Memory required for data: 1239347220
I0417 03:39:31.449044  3757 layer_factory.hpp:77] Creating layer res4b1_res4b1_relu_0_split
I0417 03:39:31.449048  3757 net.cpp:84] Creating Layer res4b1_res4b1_relu_0_split
I0417 03:39:31.449051  3757 net.cpp:406] res4b1_res4b1_relu_0_split <- res4b1
I0417 03:39:31.449057  3757 net.cpp:380] res4b1_res4b1_relu_0_split -> res4b1_res4b1_relu_0_split_0
I0417 03:39:31.449064  3757 net.cpp:380] res4b1_res4b1_relu_0_split -> res4b1_res4b1_relu_0_split_1
I0417 03:39:31.449103  3757 net.cpp:122] Setting up res4b1_res4b1_relu_0_split
I0417 03:39:31.449107  3757 net.cpp:129] Top shape: 5 1024 14 14 (1003520)
I0417 03:39:31.449110  3757 net.cpp:129] Top shape: 5 1024 14 14 (1003520)
I0417 03:39:31.449113  3757 net.cpp:137] Memory required for data: 1247375380
I0417 03:39:31.449115  3757 layer_factory.hpp:77] Creating layer res4b2_branch2a
I0417 03:39:31.449122  3757 net.cpp:84] Creating Layer res4b2_branch2a
I0417 03:39:31.449132  3757 net.cpp:406] res4b2_branch2a <- res4b1_res4b1_relu_0_split_0
I0417 03:39:31.449136  3757 net.cpp:380] res4b2_branch2a -> res4b2_branch2a
I0417 03:39:31.452288  3757 net.cpp:122] Setting up res4b2_branch2a
I0417 03:39:31.452296  3757 net.cpp:129] Top shape: 5 256 14 14 (250880)
I0417 03:39:31.452299  3757 net.cpp:137] Memory required for data: 1248378900
I0417 03:39:31.452303  3757 layer_factory.hpp:77] Creating layer bn4b2_branch2a
I0417 03:39:31.452308  3757 net.cpp:84] Creating Layer bn4b2_branch2a
I0417 03:39:31.452311  3757 net.cpp:406] bn4b2_branch2a <- res4b2_branch2a
I0417 03:39:31.452316  3757 net.cpp:367] bn4b2_branch2a -> res4b2_branch2a (in-place)
I0417 03:39:31.452491  3757 net.cpp:122] Setting up bn4b2_branch2a
I0417 03:39:31.452497  3757 net.cpp:129] Top shape: 5 256 14 14 (250880)
I0417 03:39:31.452498  3757 net.cpp:137] Memory required for data: 1249382420
I0417 03:39:31.452503  3757 layer_factory.hpp:77] Creating layer scale4b2_branch2a
I0417 03:39:31.452508  3757 net.cpp:84] Creating Layer scale4b2_branch2a
I0417 03:39:31.452510  3757 net.cpp:406] scale4b2_branch2a <- res4b2_branch2a
I0417 03:39:31.452515  3757 net.cpp:367] scale4b2_branch2a -> res4b2_branch2a (in-place)
I0417 03:39:31.452550  3757 layer_factory.hpp:77] Creating layer scale4b2_branch2a
I0417 03:39:31.452647  3757 net.cpp:122] Setting up scale4b2_branch2a
I0417 03:39:31.452651  3757 net.cpp:129] Top shape: 5 256 14 14 (250880)
I0417 03:39:31.452654  3757 net.cpp:137] Memory required for data: 1250385940
I0417 03:39:31.452657  3757 layer_factory.hpp:77] Creating layer res4b2_branch2a_relu
I0417 03:39:31.452661  3757 net.cpp:84] Creating Layer res4b2_branch2a_relu
I0417 03:39:31.452664  3757 net.cpp:406] res4b2_branch2a_relu <- res4b2_branch2a
I0417 03:39:31.452667  3757 net.cpp:367] res4b2_branch2a_relu -> res4b2_branch2a (in-place)
I0417 03:39:31.453065  3757 net.cpp:122] Setting up res4b2_branch2a_relu
I0417 03:39:31.453073  3757 net.cpp:129] Top shape: 5 256 14 14 (250880)
I0417 03:39:31.453074  3757 net.cpp:137] Memory required for data: 1251389460
I0417 03:39:31.453078  3757 layer_factory.hpp:77] Creating layer res4b2_branch2b
I0417 03:39:31.453083  3757 net.cpp:84] Creating Layer res4b2_branch2b
I0417 03:39:31.453088  3757 net.cpp:406] res4b2_branch2b <- res4b2_branch2a
I0417 03:39:31.453092  3757 net.cpp:380] res4b2_branch2b -> res4b2_branch2b
I0417 03:39:31.458745  3757 net.cpp:122] Setting up res4b2_branch2b
I0417 03:39:31.458755  3757 net.cpp:129] Top shape: 5 256 14 14 (250880)
I0417 03:39:31.458757  3757 net.cpp:137] Memory required for data: 1252392980
I0417 03:39:31.458761  3757 layer_factory.hpp:77] Creating layer bn4b2_branch2b
I0417 03:39:31.458767  3757 net.cpp:84] Creating Layer bn4b2_branch2b
I0417 03:39:31.458770  3757 net.cpp:406] bn4b2_branch2b <- res4b2_branch2b
I0417 03:39:31.458775  3757 net.cpp:367] bn4b2_branch2b -> res4b2_branch2b (in-place)
I0417 03:39:31.458963  3757 net.cpp:122] Setting up bn4b2_branch2b
I0417 03:39:31.458969  3757 net.cpp:129] Top shape: 5 256 14 14 (250880)
I0417 03:39:31.458971  3757 net.cpp:137] Memory required for data: 1253396500
I0417 03:39:31.458976  3757 layer_factory.hpp:77] Creating layer scale4b2_branch2b
I0417 03:39:31.458981  3757 net.cpp:84] Creating Layer scale4b2_branch2b
I0417 03:39:31.458987  3757 net.cpp:406] scale4b2_branch2b <- res4b2_branch2b
I0417 03:39:31.458992  3757 net.cpp:367] scale4b2_branch2b -> res4b2_branch2b (in-place)
I0417 03:39:31.459029  3757 layer_factory.hpp:77] Creating layer scale4b2_branch2b
I0417 03:39:31.459128  3757 net.cpp:122] Setting up scale4b2_branch2b
I0417 03:39:31.459132  3757 net.cpp:129] Top shape: 5 256 14 14 (250880)
I0417 03:39:31.459134  3757 net.cpp:137] Memory required for data: 1254400020
I0417 03:39:31.459138  3757 layer_factory.hpp:77] Creating layer res4b2_branch2b_relu
I0417 03:39:31.459143  3757 net.cpp:84] Creating Layer res4b2_branch2b_relu
I0417 03:39:31.459147  3757 net.cpp:406] res4b2_branch2b_relu <- res4b2_branch2b
I0417 03:39:31.459151  3757 net.cpp:367] res4b2_branch2b_relu -> res4b2_branch2b (in-place)
I0417 03:39:31.459554  3757 net.cpp:122] Setting up res4b2_branch2b_relu
I0417 03:39:31.459560  3757 net.cpp:129] Top shape: 5 256 14 14 (250880)
I0417 03:39:31.459563  3757 net.cpp:137] Memory required for data: 1255403540
I0417 03:39:31.459565  3757 layer_factory.hpp:77] Creating layer res4b2_branch2c
I0417 03:39:31.459573  3757 net.cpp:84] Creating Layer res4b2_branch2c
I0417 03:39:31.459576  3757 net.cpp:406] res4b2_branch2c <- res4b2_branch2b
I0417 03:39:31.459581  3757 net.cpp:380] res4b2_branch2c -> res4b2_branch2c
I0417 03:39:31.463122  3757 net.cpp:122] Setting up res4b2_branch2c
I0417 03:39:31.463131  3757 net.cpp:129] Top shape: 5 1024 14 14 (1003520)
I0417 03:39:31.463135  3757 net.cpp:137] Memory required for data: 1259417620
I0417 03:39:31.463138  3757 layer_factory.hpp:77] Creating layer bn4b2_branch2c
I0417 03:39:31.463145  3757 net.cpp:84] Creating Layer bn4b2_branch2c
I0417 03:39:31.463151  3757 net.cpp:406] bn4b2_branch2c <- res4b2_branch2c
I0417 03:39:31.463155  3757 net.cpp:367] bn4b2_branch2c -> res4b2_branch2c (in-place)
I0417 03:39:31.463335  3757 net.cpp:122] Setting up bn4b2_branch2c
I0417 03:39:31.463340  3757 net.cpp:129] Top shape: 5 1024 14 14 (1003520)
I0417 03:39:31.463341  3757 net.cpp:137] Memory required for data: 1263431700
I0417 03:39:31.463346  3757 layer_factory.hpp:77] Creating layer scale4b2_branch2c
I0417 03:39:31.463352  3757 net.cpp:84] Creating Layer scale4b2_branch2c
I0417 03:39:31.463356  3757 net.cpp:406] scale4b2_branch2c <- res4b2_branch2c
I0417 03:39:31.463359  3757 net.cpp:367] scale4b2_branch2c -> res4b2_branch2c (in-place)
I0417 03:39:31.463394  3757 layer_factory.hpp:77] Creating layer scale4b2_branch2c
I0417 03:39:31.463498  3757 net.cpp:122] Setting up scale4b2_branch2c
I0417 03:39:31.463503  3757 net.cpp:129] Top shape: 5 1024 14 14 (1003520)
I0417 03:39:31.463505  3757 net.cpp:137] Memory required for data: 1267445780
I0417 03:39:31.463510  3757 layer_factory.hpp:77] Creating layer res4b2
I0417 03:39:31.463513  3757 net.cpp:84] Creating Layer res4b2
I0417 03:39:31.463517  3757 net.cpp:406] res4b2 <- res4b1_res4b1_relu_0_split_1
I0417 03:39:31.463521  3757 net.cpp:406] res4b2 <- res4b2_branch2c
I0417 03:39:31.463526  3757 net.cpp:380] res4b2 -> res4b2
I0417 03:39:31.463549  3757 net.cpp:122] Setting up res4b2
I0417 03:39:31.463554  3757 net.cpp:129] Top shape: 5 1024 14 14 (1003520)
I0417 03:39:31.463557  3757 net.cpp:137] Memory required for data: 1271459860
I0417 03:39:31.463558  3757 layer_factory.hpp:77] Creating layer res4b2_relu
I0417 03:39:31.463562  3757 net.cpp:84] Creating Layer res4b2_relu
I0417 03:39:31.463565  3757 net.cpp:406] res4b2_relu <- res4b2
I0417 03:39:31.463568  3757 net.cpp:367] res4b2_relu -> res4b2 (in-place)
I0417 03:39:31.464087  3757 net.cpp:122] Setting up res4b2_relu
I0417 03:39:31.464093  3757 net.cpp:129] Top shape: 5 1024 14 14 (1003520)
I0417 03:39:31.464095  3757 net.cpp:137] Memory required for data: 1275473940
I0417 03:39:31.464098  3757 layer_factory.hpp:77] Creating layer res4b2_res4b2_relu_0_split
I0417 03:39:31.464104  3757 net.cpp:84] Creating Layer res4b2_res4b2_relu_0_split
I0417 03:39:31.464107  3757 net.cpp:406] res4b2_res4b2_relu_0_split <- res4b2
I0417 03:39:31.464112  3757 net.cpp:380] res4b2_res4b2_relu_0_split -> res4b2_res4b2_relu_0_split_0
I0417 03:39:31.464118  3757 net.cpp:380] res4b2_res4b2_relu_0_split -> res4b2_res4b2_relu_0_split_1
I0417 03:39:31.464159  3757 net.cpp:122] Setting up res4b2_res4b2_relu_0_split
I0417 03:39:31.464164  3757 net.cpp:129] Top shape: 5 1024 14 14 (1003520)
I0417 03:39:31.464166  3757 net.cpp:129] Top shape: 5 1024 14 14 (1003520)
…
I0417 03:39:34.529454  3757 net.cpp:406] bn4b33_branch2a <- res4b33_branch2a
I0417 03:39:34.529461  3757 net.cpp:367] bn4b33_branch2a -> res4b33_branch2a (in-place)
I0417 03:39:34.529628  3757 net.cpp:122] Setting up bn4b33_branch2a
I0417 03:39:34.529631  3757 net.cpp:129] Top shape: 1 256 14 14 (50176)
I0417 03:39:34.529634  3757 net.cpp:137] Memory required for data: 473862160
I0417 03:39:34.529639  3757 layer_factory.hpp:77] Creating layer scale4b33_branch2a
I0417 03:39:34.529644  3757 net.cpp:84] Creating Layer scale4b33_branch2a
I0417 03:39:34.529647  3757 net.cpp:406] scale4b33_branch2a <- res4b33_branch2a
I0417 03:39:34.529652  3757 net.cpp:367] scale4b33_branch2a -> res4b33_branch2a (in-place)
I0417 03:39:34.529686  3757 layer_factory.hpp:77] Creating layer scale4b33_branch2a
I0417 03:39:34.529774  3757 net.cpp:122] Setting up scale4b33_branch2a
I0417 03:39:34.529778  3757 net.cpp:129] Top shape: 1 256 14 14 (50176)
I0417 03:39:34.529780  3757 net.cpp:137] Memory required for data: 474062864
I0417 03:39:34.529784  3757 layer_factory.hpp:77] Creating layer res4b33_branch2a_relu
I0417 03:39:34.529788  3757 net.cpp:84] Creating Layer res4b33_branch2a_relu
I0417 03:39:34.529793  3757 net.cpp:406] res4b33_branch2a_relu <- res4b33_branch2a
I0417 03:39:34.529795  3757 net.cpp:367] res4b33_branch2a_relu -> res4b33_branch2a (in-place)
I0417 03:39:34.530285  3757 net.cpp:122] Setting up res4b33_branch2a_relu
I0417 03:39:34.530292  3757 net.cpp:129] Top shape: 1 256 14 14 (50176)
I0417 03:39:34.530294  3757 net.cpp:137] Memory required for data: 474263568
I0417 03:39:34.530297  3757 layer_factory.hpp:77] Creating layer res4b33_branch2b
I0417 03:39:34.530304  3757 net.cpp:84] Creating Layer res4b33_branch2b
I0417 03:39:34.530308  3757 net.cpp:406] res4b33_branch2b <- res4b33_branch2a
I0417 03:39:34.530313  3757 net.cpp:380] res4b33_branch2b -> res4b33_branch2b
I0417 03:39:34.536458  3757 net.cpp:122] Setting up res4b33_branch2b
I0417 03:39:34.536469  3757 net.cpp:129] Top shape: 1 256 14 14 (50176)
I0417 03:39:34.536479  3757 net.cpp:137] Memory required for data: 474464272
I0417 03:39:34.536485  3757 layer_factory.hpp:77] Creating layer bn4b33_branch2b
I0417 03:39:34.536491  3757 net.cpp:84] Creating Layer bn4b33_branch2b
I0417 03:39:34.536496  3757 net.cpp:406] bn4b33_branch2b <- res4b33_branch2b
I0417 03:39:34.536501  3757 net.cpp:367] bn4b33_branch2b -> res4b33_branch2b (in-place)
I0417 03:39:34.536669  3757 net.cpp:122] Setting up bn4b33_branch2b
I0417 03:39:34.536674  3757 net.cpp:129] Top shape: 1 256 14 14 (50176)
I0417 03:39:34.536676  3757 net.cpp:137] Memory required for data: 474664976
I0417 03:39:34.536681  3757 layer_factory.hpp:77] Creating layer scale4b33_branch2b
I0417 03:39:34.536685  3757 net.cpp:84] Creating Layer scale4b33_branch2b
I0417 03:39:34.536689  3757 net.cpp:406] scale4b33_branch2b <- res4b33_branch2b
I0417 03:39:34.536692  3757 net.cpp:367] scale4b33_branch2b -> res4b33_branch2b (in-place)
I0417 03:39:34.536727  3757 layer_factory.hpp:77] Creating layer scale4b33_branch2b
I0417 03:39:34.536819  3757 net.cpp:122] Setting up scale4b33_branch2b
I0417 03:39:34.536824  3757 net.cpp:129] Top shape: 1 256 14 14 (50176)
I0417 03:39:34.536826  3757 net.cpp:137] Memory required for data: 474865680
I0417 03:39:34.536830  3757 layer_factory.hpp:77] Creating layer res4b33_branch2b_relu
I0417 03:39:34.536834  3757 net.cpp:84] Creating Layer res4b33_branch2b_relu
I0417 03:39:34.536839  3757 net.cpp:406] res4b33_branch2b_relu <- res4b33_branch2b
I0417 03:39:34.536844  3757 net.cpp:367] res4b33_branch2b_relu -> res4b33_branch2b (in-place)
I0417 03:39:34.537503  3757 net.cpp:122] Setting up res4b33_branch2b_relu
I0417 03:39:34.537510  3757 net.cpp:129] Top shape: 1 256 14 14 (50176)
I0417 03:39:34.537513  3757 net.cpp:137] Memory required for data: 475066384
I0417 03:39:34.537515  3757 layer_factory.hpp:77] Creating layer res4b33_branch2c
I0417 03:39:34.537523  3757 net.cpp:84] Creating Layer res4b33_branch2c
I0417 03:39:34.537526  3757 net.cpp:406] res4b33_branch2c <- res4b33_branch2b
I0417 03:39:34.537533  3757 net.cpp:380] res4b33_branch2c -> res4b33_branch2c
I0417 03:39:34.540969  3757 net.cpp:122] Setting up res4b33_branch2c
I0417 03:39:34.540979  3757 net.cpp:129] Top shape: 1 1024 14 14 (200704)
I0417 03:39:34.540982  3757 net.cpp:137] Memory required for data: 475869200
I0417 03:39:34.540987  3757 layer_factory.hpp:77] Creating layer bn4b33_branch2c
I0417 03:39:34.540993  3757 net.cpp:84] Creating Layer bn4b33_branch2c
I0417 03:39:34.540997  3757 net.cpp:406] bn4b33_branch2c <- res4b33_branch2c
I0417 03:39:34.541003  3757 net.cpp:367] bn4b33_branch2c -> res4b33_branch2c (in-place)
I0417 03:39:34.541234  3757 net.cpp:122] Setting up bn4b33_branch2c
I0417 03:39:34.541239  3757 net.cpp:129] Top shape: 1 1024 14 14 (200704)
I0417 03:39:34.541241  3757 net.cpp:137] Memory required for data: 476672016
I0417 03:39:34.541246  3757 layer_factory.hpp:77] Creating layer scale4b33_branch2c
I0417 03:39:34.541252  3757 net.cpp:84] Creating Layer scale4b33_branch2c
I0417 03:39:34.541256  3757 net.cpp:406] scale4b33_branch2c <- res4b33_branch2c
I0417 03:39:34.541261  3757 net.cpp:367] scale4b33_branch2c -> res4b33_branch2c (in-place)
I0417 03:39:34.541318  3757 layer_factory.hpp:77] Creating layer scale4b33_branch2c
I0417 03:39:34.541445  3757 net.cpp:122] Setting up scale4b33_branch2c
I0417 03:39:34.541450  3757 net.cpp:129] Top shape: 1 1024 14 14 (200704)
I0417 03:39:34.541451  3757 net.cpp:137] Memory required for data: 477474832
I0417 03:39:34.541455  3757 layer_factory.hpp:77] Creating layer res4b33
I0417 03:39:34.541460  3757 net.cpp:84] Creating Layer res4b33
I0417 03:39:34.541463  3757 net.cpp:406] res4b33 <- res4b32_res4b32_relu_0_split_1
I0417 03:39:34.541466  3757 net.cpp:406] res4b33 <- res4b33_branch2c
I0417 03:39:34.541471  3757 net.cpp:380] res4b33 -> res4b33
I0417 03:39:34.541493  3757 net.cpp:122] Setting up res4b33
I0417 03:39:34.541498  3757 net.cpp:129] Top shape: 1 1024 14 14 (200704)
I0417 03:39:34.541501  3757 net.cpp:137] Memory required for data: 478277648
I0417 03:39:34.541512  3757 layer_factory.hpp:77] Creating layer res4b33_relu
I0417 03:39:34.541515  3757 net.cpp:84] Creating Layer res4b33_relu
I0417 03:39:34.541518  3757 net.cpp:406] res4b33_relu <- res4b33
I0417 03:39:34.541522  3757 net.cpp:367] res4b33_relu -> res4b33 (in-place)
I0417 03:39:34.542210  3757 net.cpp:122] Setting up res4b33_relu
I0417 03:39:34.542217  3757 net.cpp:129] Top shape: 1 1024 14 14 (200704)
I0417 03:39:34.542219  3757 net.cpp:137] Memory required for data: 479080464
I0417 03:39:34.542222  3757 layer_factory.hpp:77] Creating layer res4b33_res4b33_relu_0_split
I0417 03:39:34.542228  3757 net.cpp:84] Creating Layer res4b33_res4b33_relu_0_split
I0417 03:39:34.542232  3757 net.cpp:406] res4b33_res4b33_relu_0_split <- res4b33
I0417 03:39:34.542237  3757 net.cpp:380] res4b33_res4b33_relu_0_split -> res4b33_res4b33_relu_0_split_0
I0417 03:39:34.542243  3757 net.cpp:380] res4b33_res4b33_relu_0_split -> res4b33_res4b33_relu_0_split_1
I0417 03:39:34.542280  3757 net.cpp:122] Setting up res4b33_res4b33_relu_0_split
I0417 03:39:34.542285  3757 net.cpp:129] Top shape: 1 1024 14 14 (200704)
I0417 03:39:34.542289  3757 net.cpp:129] Top shape: 1 1024 14 14 (200704)
I0417 03:39:34.542290  3757 net.cpp:137] Memory required for data: 480686096
I0417 03:39:34.542294  3757 layer_factory.hpp:77] Creating layer res4b34_branch2a
I0417 03:39:34.542300  3757 net.cpp:84] Creating Layer res4b34_branch2a
I0417 03:39:34.542304  3757 net.cpp:406] res4b34_branch2a <- res4b33_res4b33_relu_0_split_0
I0417 03:39:34.542307  3757 net.cpp:380] res4b34_branch2a -> res4b34_branch2a
I0417 03:39:34.546300  3757 net.cpp:122] Setting up res4b34_branch2a
I0417 03:39:34.546314  3757 net.cpp:129] Top shape: 1 256 14 14 (50176)
I0417 03:39:34.546315  3757 net.cpp:137] Memory required for data: 480886800
I0417 03:39:34.546321  3757 layer_factory.hpp:77] Creating layer bn4b34_branch2a
I0417 03:39:34.546327  3757 net.cpp:84] Creating Layer bn4b34_branch2a
I0417 03:39:34.546332  3757 net.cpp:406] bn4b34_branch2a <- res4b34_branch2a
I0417 03:39:34.546337  3757 net.cpp:367] bn4b34_branch2a -> res4b34_branch2a (in-place)
I0417 03:39:34.546509  3757 net.cpp:122] Setting up bn4b34_branch2a
I0417 03:39:34.546514  3757 net.cpp:129] Top shape: 1 256 14 14 (50176)
I0417 03:39:34.546517  3757 net.cpp:137] Memory required for data: 481087504
I0417 03:39:34.546521  3757 layer_factory.hpp:77] Creating layer scale4b34_branch2a
I0417 03:39:34.546526  3757 net.cpp:84] Creating Layer scale4b34_branch2a
I0417 03:39:34.546530  3757 net.cpp:406] scale4b34_branch2a <- res4b34_branch2a
I0417 03:39:34.546535  3757 net.cpp:367] scale4b34_branch2a -> res4b34_branch2a (in-place)
I0417 03:39:34.546568  3757 layer_factory.hpp:77] Creating layer scale4b34_branch2a
I0417 03:39:34.546659  3757 net.cpp:122] Setting up scale4b34_branch2a
I0417 03:39:34.546664  3757 net.cpp:129] Top shape: 1 256 14 14 (50176)
I0417 03:39:34.546666  3757 net.cpp:137] Memory required for data: 481288208
I0417 03:39:34.546670  3757 layer_factory.hpp:77] Creating layer res4b34_branch2a_relu
I0417 03:39:34.546674  3757 net.cpp:84] Creating Layer res4b34_branch2a_relu
I0417 03:39:34.546677  3757 net.cpp:406] res4b34_branch2a_relu <- res4b34_branch2a
I0417 03:39:34.546684  3757 net.cpp:367] res4b34_branch2a_relu -> res4b34_branch2a (in-place)
I0417 03:39:34.547195  3757 net.cpp:122] Setting up res4b34_branch2a_relu
I0417 03:39:34.547201  3757 net.cpp:129] Top shape: 1 256 14 14 (50176)
I0417 03:39:34.547204  3757 net.cpp:137] Memory required for data: 481488912
I0417 03:39:34.547207  3757 layer_factory.hpp:77] Creating layer res4b34_branch2b
I0417 03:39:34.547215  3757 net.cpp:84] Creating Layer res4b34_branch2b
I0417 03:39:34.547219  3757 net.cpp:406] res4b34_branch2b <- res4b34_branch2a
I0417 03:39:34.547224  3757 net.cpp:380] res4b34_branch2b -> res4b34_branch2b
I0417 03:39:34.553498  3757 net.cpp:122] Setting up res4b34_branch2b
I0417 03:39:34.553511  3757 net.cpp:129] Top shape: 1 256 14 14 (50176)
I0417 03:39:34.553514  3757 net.cpp:137] Memory required for data: 481689616
I0417 03:39:34.553519  3757 layer_factory.hpp:77] Creating layer bn4b34_branch2b
I0417 03:39:34.553534  3757 net.cpp:84] Creating Layer bn4b34_branch2b
I0417 03:39:34.553537  3757 net.cpp:406] bn4b34_branch2b <- res4b34_branch2b
I0417 03:39:34.553544  3757 net.cpp:367] bn4b34_branch2b -> res4b34_branch2b (in-place)
I0417 03:39:34.553714  3757 net.cpp:122] Setting up bn4b34_branch2b
I0417 03:39:34.553719  3757 net.cpp:129] Top shape: 1 256 14 14 (50176)
I0417 03:39:34.553721  3757 net.cpp:137] Memory required for data: 481890320
I0417 03:39:34.553726  3757 layer_factory.hpp:77] Creating layer scale4b34_branch2b
I0417 03:39:34.553732  3757 net.cpp:84] Creating Layer scale4b34_branch2b
I0417 03:39:34.553736  3757 net.cpp:406] scale4b34_branch2b <- res4b34_branch2b
I0417 03:39:34.553740  3757 net.cpp:367] scale4b34_branch2b -> res4b34_branch2b (in-place)
I0417 03:39:34.553774  3757 layer_factory.hpp:77] Creating layer scale4b34_branch2b
I0417 03:39:34.553864  3757 net.cpp:122] Setting up scale4b34_branch2b
I0417 03:39:34.553874  3757 net.cpp:129] Top shape: 1 256 14 14 (50176)
I0417 03:39:34.553875  3757 net.cpp:137] Memory required for data: 482091024
I0417 03:39:34.553879  3757 layer_factory.hpp:77] Creating layer res4b34_branch2b_relu
I0417 03:39:34.553885  3757 net.cpp:84] Creating Layer res4b34_branch2b_relu
I0417 03:39:34.553889  3757 net.cpp:406] res4b34_branch2b_relu <- res4b34_branch2b
I0417 03:39:34.553894  3757 net.cpp:367] res4b34_branch2b_relu -> res4b34_branch2b (in-place)
I0417 03:39:34.554375  3757 net.cpp:122] Setting up res4b34_branch2b_relu
I0417 03:39:34.554381  3757 net.cpp:129] Top shape: 1 256 14 14 (50176)
I0417 03:39:34.554383  3757 net.cpp:137] Memory required for data: 482291728
I0417 03:39:34.554386  3757 layer_factory.hpp:77] Creating layer res4b34_branch2c
I0417 03:39:34.554392  3757 net.cpp:84] Creating Layer res4b34_branch2c
I0417 03:39:34.554396  3757 net.cpp:406] res4b34_branch2c <- res4b34_branch2b
I0417 03:39:34.554401  3757 net.cpp:380] res4b34_branch2c -> res4b34_branch2c
I0417 03:39:34.557799  3757 net.cpp:122] Setting up res4b34_branch2c
I0417 03:39:34.557807  3757 net.cpp:129] Top shape: 1 1024 14 14 (200704)
I0417 03:39:34.557809  3757 net.cpp:137] Memory required for data: 483094544
I0417 03:39:34.557814  3757 layer_factory.hpp:77] Creating layer bn4b34_branch2c
I0417 03:39:34.557821  3757 net.cpp:84] Creating Layer bn4b34_branch2c
I0417 03:39:34.557824  3757 net.cpp:406] bn4b34_branch2c <- res4b34_branch2c
I0417 03:39:34.557828  3757 net.cpp:367] bn4b34_branch2c -> res4b34_branch2c (in-place)
I0417 03:39:34.558064  3757 net.cpp:122] Setting up bn4b34_branch2c
I0417 03:39:34.558069  3757 net.cpp:129] Top shape: 1 1024 14 14 (200704)
I0417 03:39:34.558071  3757 net.cpp:137] Memory required for data: 483897360
I0417 03:39:34.558077  3757 layer_factory.hpp:77] Creating layer scale4b34_branch2c
I0417 03:39:34.558084  3757 net.cpp:84] Creating Layer scale4b34_branch2c
I0417 03:39:34.558087  3757 net.cpp:406] scale4b34_branch2c <- res4b34_branch2c
I0417 03:39:34.558091  3757 net.cpp:367] scale4b34_branch2c -> res4b34_branch2c (in-place)
I0417 03:39:34.558146  3757 layer_factory.hpp:77] Creating layer scale4b34_branch2c
I0417 03:39:34.558271  3757 net.cpp:122] Setting up scale4b34_branch2c
I0417 03:39:34.558276  3757 net.cpp:129] Top shape: 1 1024 14 14 (200704)
I0417 03:39:34.558279  3757 net.cpp:137] Memory required for data: 484700176
I0417 03:39:34.558282  3757 layer_factory.hpp:77] Creating layer res4b34
I0417 03:39:34.558286  3757 net.cpp:84] Creating Layer res4b34
I0417 03:39:34.558290  3757 net.cpp:406] res4b34 <- res4b33_res4b33_relu_0_split_1
I0417 03:39:34.558293  3757 net.cpp:406] res4b34 <- res4b34_branch2c
I0417 03:39:34.558300  3757 net.cpp:380] res4b34 -> res4b34
I0417 03:39:34.558321  3757 net.cpp:122] Setting up res4b34
I0417 03:39:34.558326  3757 net.cpp:129] Top shape: 1 1024 14 14 (200704)
I0417 03:39:34.558328  3757 net.cpp:137] Memory required for data: 485502992
I0417 03:39:34.558331  3757 layer_factory.hpp:77] Creating layer res4b34_relu
I0417 03:39:34.558336  3757 net.cpp:84] Creating Layer res4b34_relu
I0417 03:39:34.558346  3757 net.cpp:406] res4b34_relu <- res4b34
I0417 03:39:34.558349  3757 net.cpp:367] res4b34_relu -> res4b34 (in-place)
I0417 03:39:34.559018  3757 net.cpp:122] Setting up res4b34_relu
I0417 03:39:34.559026  3757 net.cpp:129] Top shape: 1 1024 14 14 (200704)
I0417 03:39:34.559028  3757 net.cpp:137] Memory required for data: 486305808
I0417 03:39:34.559031  3757 layer_factory.hpp:77] Creating layer res4b34_res4b34_relu_0_split
I0417 03:39:34.559036  3757 net.cpp:84] Creating Layer res4b34_res4b34_relu_0_split
I0417 03:39:34.559041  3757 net.cpp:406] res4b34_res4b34_relu_0_split <- res4b34
I0417 03:39:34.559046  3757 net.cpp:380] res4b34_res4b34_relu_0_split -> res4b34_res4b34_relu_0_split_0
I0417 03:39:34.559051  3757 net.cpp:380] res4b34_res4b34_relu_0_split -> res4b34_res4b34_relu_0_split_1
I0417 03:39:34.559089  3757 net.cpp:122] Setting up res4b34_res4b34_relu_0_split
I0417 03:39:34.559094  3757 net.cpp:129] Top shape: 1 1024 14 14 (200704)
I0417 03:39:34.559098  3757 net.cpp:129] Top shape: 1 1024 14 14 (200704)
I0417 03:39:34.559099  3757 net.cpp:137] Memory required for data: 487911440
I0417 03:39:34.559101  3757 layer_factory.hpp:77] Creating layer res4b35_branch2a
I0417 03:39:34.559108  3757 net.cpp:84] Creating Layer res4b35_branch2a
I0417 03:39:34.559111  3757 net.cpp:406] res4b35_branch2a <- res4b34_res4b34_relu_0_split_0
I0417 03:39:34.559118  3757 net.cpp:380] res4b35_branch2a -> res4b35_branch2a
I0417 03:39:34.563067  3757 net.cpp:122] Setting up res4b35_branch2a
I0417 03:39:34.563076  3757 net.cpp:129] Top shape: 1 256 14 14 (50176)
I0417 03:39:34.563079  3757 net.cpp:137] Memory required for data: 488112144
I0417 03:39:34.563083  3757 layer_factory.hpp:77] Creating layer bn4b35_branch2a
I0417 03:39:34.563091  3757 net.cpp:84] Creating Layer bn4b35_branch2a
I0417 03:39:34.563094  3757 net.cpp:406] bn4b35_branch2a <- res4b35_branch2a
I0417 03:39:34.563099  3757 net.cpp:367] bn4b35_branch2a -> res4b35_branch2a (in-place)
I0417 03:39:34.563267  3757 net.cpp:122] Setting up bn4b35_branch2a
I0417 03:39:34.563271  3757 net.cpp:129] Top shape: 1 256 14 14 (50176)
I0417 03:39:34.563274  3757 net.cpp:137] Memory required for data: 488312848
I0417 03:39:34.563278  3757 layer_factory.hpp:77] Creating layer scale4b35_branch2a
I0417 03:39:34.563284  3757 net.cpp:84] Creating Layer scale4b35_branch2a
I0417 03:39:34.563287  3757 net.cpp:406] scale4b35_branch2a <- res4b35_branch2a
I0417 03:39:34.563292  3757 net.cpp:367] scale4b35_branch2a -> res4b35_branch2a (in-place)
I0417 03:39:34.563328  3757 layer_factory.hpp:77] Creating layer scale4b35_branch2a
I0417 03:39:34.563418  3757 net.cpp:122] Setting up scale4b35_branch2a
I0417 03:39:34.563422  3757 net.cpp:129] Top shape: 1 256 14 14 (50176)
I0417 03:39:34.563424  3757 net.cpp:137] Memory required for data: 488513552
I0417 03:39:34.563428  3757 layer_factory.hpp:77] Creating layer res4b35_branch2a_relu
I0417 03:39:34.563436  3757 net.cpp:84] Creating Layer res4b35_branch2a_relu
I0417 03:39:34.563439  3757 net.cpp:406] res4b35_branch2a_relu <- res4b35_branch2a
I0417 03:39:34.563443  3757 net.cpp:367] res4b35_branch2a_relu -> res4b35_branch2a (in-place)
I0417 03:39:34.563935  3757 net.cpp:122] Setting up res4b35_branch2a_relu
I0417 03:39:34.563941  3757 net.cpp:129] Top shape: 1 256 14 14 (50176)
I0417 03:39:34.563943  3757 net.cpp:137] Memory required for data: 488714256
I0417 03:39:34.563946  3757 layer_factory.hpp:77] Creating layer res4b35_branch2b
I0417 03:39:34.563953  3757 net.cpp:84] Creating Layer res4b35_branch2b
I0417 03:39:34.563957  3757 net.cpp:406] res4b35_branch2b <- res4b35_branch2a
I0417 03:39:34.563961  3757 net.cpp:380] res4b35_branch2b -> res4b35_branch2b
I0417 03:39:34.570186  3757 net.cpp:122] Setting up res4b35_branch2b
I0417 03:39:34.570199  3757 net.cpp:129] Top shape: 1 256 14 14 (50176)
I0417 03:39:34.570201  3757 net.cpp:137] Memory required for data: 488914960
I0417 03:39:34.570206  3757 layer_factory.hpp:77] Creating layer bn4b35_branch2b
I0417 03:39:34.570214  3757 net.cpp:84] Creating Layer bn4b35_branch2b
I0417 03:39:34.570225  3757 net.cpp:406] bn4b35_branch2b <- res4b35_branch2b
I0417 03:39:34.570232  3757 net.cpp:367] bn4b35_branch2b -> res4b35_branch2b (in-place)
I0417 03:39:34.570406  3757 net.cpp:122] Setting up bn4b35_branch2b
I0417 03:39:34.570411  3757 net.cpp:129] Top shape: 1 256 14 14 (50176)
I0417 03:39:34.570413  3757 net.cpp:137] Memory required for data: 489115664
I0417 03:39:34.570418  3757 layer_factory.hpp:77] Creating layer scale4b35_branch2b
I0417 03:39:34.570425  3757 net.cpp:84] Creating Layer scale4b35_branch2b
I0417 03:39:34.570430  3757 net.cpp:406] scale4b35_branch2b <- res4b35_branch2b
I0417 03:39:34.570433  3757 net.cpp:367] scale4b35_branch2b -> res4b35_branch2b (in-place)
I0417 03:39:34.570468  3757 layer_factory.hpp:77] Creating layer scale4b35_branch2b
I0417 03:39:34.570560  3757 net.cpp:122] Setting up scale4b35_branch2b
I0417 03:39:34.570565  3757 net.cpp:129] Top shape: 1 256 14 14 (50176)
I0417 03:39:34.570567  3757 net.cpp:137] Memory required for data: 489316368
I0417 03:39:34.570571  3757 layer_factory.hpp:77] Creating layer res4b35_branch2b_relu
I0417 03:39:34.570576  3757 net.cpp:84] Creating Layer res4b35_branch2b_relu
I0417 03:39:34.570580  3757 net.cpp:406] res4b35_branch2b_relu <- res4b35_branch2b
I0417 03:39:34.570583  3757 net.cpp:367] res4b35_branch2b_relu -> res4b35_branch2b (in-place)
I0417 03:39:34.571071  3757 net.cpp:122] Setting up res4b35_branch2b_relu
I0417 03:39:34.571077  3757 net.cpp:129] Top shape: 1 256 14 14 (50176)
I0417 03:39:34.571080  3757 net.cpp:137] Memory required for data: 489517072
I0417 03:39:34.571082  3757 layer_factory.hpp:77] Creating layer res4b35_branch2c
I0417 03:39:34.571089  3757 net.cpp:84] Creating Layer res4b35_branch2c
I0417 03:39:34.571094  3757 net.cpp:406] res4b35_branch2c <- res4b35_branch2b
I0417 03:39:34.571097  3757 net.cpp:380] res4b35_branch2c -> res4b35_branch2c
I0417 03:39:34.574741  3757 net.cpp:122] Setting up res4b35_branch2c
I0417 03:39:34.574753  3757 net.cpp:129] Top shape: 1 1024 14 14 (200704)
I0417 03:39:34.574755  3757 net.cpp:137] Memory required for data: 490319888
I0417 03:39:34.574760  3757 layer_factory.hpp:77] Creating layer bn4b35_branch2c
I0417 03:39:34.574767  3757 net.cpp:84] Creating Layer bn4b35_branch2c
I0417 03:39:34.574772  3757 net.cpp:406] bn4b35_branch2c <- res4b35_branch2c
I0417 03:39:34.574777  3757 net.cpp:367] bn4b35_branch2c -> res4b35_branch2c (in-place)
I0417 03:39:34.575017  3757 net.cpp:122] Setting up bn4b35_branch2c
I0417 03:39:34.575023  3757 net.cpp:129] Top shape: 1 1024 14 14 (200704)
I0417 03:39:34.575026  3757 net.cpp:137] Memory required for data: 491122704
I0417 03:39:34.575031  3757 layer_factory.hpp:77] Creating layer scale4b35_branch2c
I0417 03:39:34.575034  3757 net.cpp:84] Creating Layer scale4b35_branch2c
I0417 03:39:34.575038  3757 net.cpp:406] scale4b35_branch2c <- res4b35_branch2c
I0417 03:39:34.575042  3757 net.cpp:367] scale4b35_branch2c -> res4b35_branch2c (in-place)
I0417 03:39:34.575101  3757 layer_factory.hpp:77] Creating layer scale4b35_branch2c
I0417 03:39:34.575230  3757 net.cpp:122] Setting up scale4b35_branch2c
I0417 03:39:34.575234  3757 net.cpp:129] Top shape: 1 1024 14 14 (200704)
I0417 03:39:34.575237  3757 net.cpp:137] Memory required for data: 491925520
I0417 03:39:34.575242  3757 layer_factory.hpp:77] Creating layer res4b35
I0417 03:39:34.575247  3757 net.cpp:84] Creating Layer res4b35
I0417 03:39:34.575250  3757 net.cpp:406] res4b35 <- res4b34_res4b34_relu_0_split_1
I0417 03:39:34.575253  3757 net.cpp:406] res4b35 <- res4b35_branch2c
I0417 03:39:34.575258  3757 net.cpp:380] res4b35 -> res4b35
I0417 03:39:34.575280  3757 net.cpp:122] Setting up res4b35
I0417 03:39:34.575284  3757 net.cpp:129] Top shape: 1 1024 14 14 (200704)
I0417 03:39:34.575286  3757 net.cpp:137] Memory required for data: 492728336
I0417 03:39:34.575289  3757 layer_factory.hpp:77] Creating layer res4b35_relu
I0417 03:39:34.575294  3757 net.cpp:84] Creating Layer res4b35_relu
I0417 03:39:34.575297  3757 net.cpp:406] res4b35_relu <- res4b35
I0417 03:39:34.575302  3757 net.cpp:367] res4b35_relu -> res4b35 (in-place)
I0417 03:39:34.575975  3757 net.cpp:122] Setting up res4b35_relu
I0417 03:39:34.575983  3757 net.cpp:129] Top shape: 1 1024 14 14 (200704)
I0417 03:39:34.575986  3757 net.cpp:137] Memory required for data: 493531152
I0417 03:39:34.575989  3757 layer_factory.hpp:77] Creating layer res4b35_res4b35_relu_0_split
I0417 03:39:34.575994  3757 net.cpp:84] Creating Layer res4b35_res4b35_relu_0_split
I0417 03:39:34.575996  3757 net.cpp:406] res4b35_res4b35_relu_0_split <- res4b35
I0417 03:39:34.576002  3757 net.cpp:380] res4b35_res4b35_relu_0_split -> res4b35_res4b35_relu_0_split_0
I0417 03:39:34.576010  3757 net.cpp:380] res4b35_res4b35_relu_0_split -> res4b35_res4b35_relu_0_split_1
I0417 03:39:34.576051  3757 net.cpp:122] Setting up res4b35_res4b35_relu_0_split
I0417 03:39:34.576056  3757 net.cpp:129] Top shape: 1 1024 14 14 (200704)
I0417 03:39:34.576059  3757 net.cpp:129] Top shape: 1 1024 14 14 (200704)
I0417 03:39:34.576061  3757 net.cpp:137] Memory required for data: 495136784
I0417 03:39:34.576063  3757 layer_factory.hpp:77] Creating layer res5a_branch1
I0417 03:39:34.576071  3757 net.cpp:84] Creating Layer res5a_branch1
I0417 03:39:34.576076  3757 net.cpp:406] res5a_branch1 <- res4b35_res4b35_relu_0_split_0
I0417 03:39:34.576079  3757 net.cpp:380] res5a_branch1 -> res5a_branch1
I0417 03:39:34.592030  3757 net.cpp:122] Setting up res5a_branch1
I0417 03:39:34.592046  3757 net.cpp:129] Top shape: 1 2048 7 7 (100352)
I0417 03:39:34.592047  3757 net.cpp:137] Memory required for data: 495538192
I0417 03:39:34.592053  3757 layer_factory.hpp:77] Creating layer bn5a_branch1
I0417 03:39:34.592061  3757 net.cpp:84] Creating Layer bn5a_branch1
I0417 03:39:34.592066  3757 net.cpp:406] bn5a_branch1 <- res5a_branch1
I0417 03:39:34.592069  3757 net.cpp:367] bn5a_branch1 -> res5a_branch1 (in-place)
I0417 03:39:34.592324  3757 net.cpp:122] Setting up bn5a_branch1
I0417 03:39:34.592329  3757 net.cpp:129] Top shape: 1 2048 7 7 (100352)
I0417 03:39:34.592330  3757 net.cpp:137] Memory required for data: 495939600
I0417 03:39:34.592335  3757 layer_factory.hpp:77] Creating layer scale5a_branch1
I0417 03:39:34.592342  3757 net.cpp:84] Creating Layer scale5a_branch1
I0417 03:39:34.592345  3757 net.cpp:406] scale5a_branch1 <- res5a_branch1
I0417 03:39:34.592350  3757 net.cpp:367] scale5a_branch1 -> res5a_branch1 (in-place)
I0417 03:39:34.592408  3757 layer_factory.hpp:77] Creating layer scale5a_branch1
I0417 03:39:34.592538  3757 net.cpp:122] Setting up scale5a_branch1
I0417 03:39:34.592543  3757 net.cpp:129] Top shape: 1 2048 7 7 (100352)
I0417 03:39:34.592545  3757 net.cpp:137] Memory required for data: 496341008
I0417 03:39:34.592550  3757 layer_factory.hpp:77] Creating layer res5a_branch2a
I0417 03:39:34.592556  3757 net.cpp:84] Creating Layer res5a_branch2a
I0417 03:39:34.592561  3757 net.cpp:406] res5a_branch2a <- res4b35_res4b35_relu_0_split_1
I0417 03:39:34.592566  3757 net.cpp:380] res5a_branch2a -> res5a_branch2a
I0417 03:39:34.598060  3757 net.cpp:122] Setting up res5a_branch2a
I0417 03:39:34.598073  3757 net.cpp:129] Top shape: 1 512 7 7 (25088)
I0417 03:39:34.598074  3757 net.cpp:137] Memory required for data: 496441360
I0417 03:39:34.598079  3757 layer_factory.hpp:77] Creating layer bn5a_branch2a
I0417 03:39:34.598085  3757 net.cpp:84] Creating Layer bn5a_branch2a
I0417 03:39:34.598089  3757 net.cpp:406] bn5a_branch2a <- res5a_branch2a
I0417 03:39:34.598093  3757 net.cpp:367] bn5a_branch2a -> res5a_branch2a (in-place)
I0417 03:39:34.598330  3757 net.cpp:122] Setting up bn5a_branch2a
I0417 03:39:34.598335  3757 net.cpp:129] Top shape: 1 512 7 7 (25088)
I0417 03:39:34.598338  3757 net.cpp:137] Memory required for data: 496541712
I0417 03:39:34.598343  3757 layer_factory.hpp:77] Creating layer scale5a_branch2a
I0417 03:39:34.598347  3757 net.cpp:84] Creating Layer scale5a_branch2a
I0417 03:39:34.598351  3757 net.cpp:406] scale5a_branch2a <- res5a_branch2a
I0417 03:39:34.598356  3757 net.cpp:367] scale5a_branch2a -> res5a_branch2a (in-place)
I0417 03:39:34.598417  3757 layer_factory.hpp:77] Creating layer scale5a_branch2a
I0417 03:39:34.598556  3757 net.cpp:122] Setting up scale5a_branch2a
I0417 03:39:34.598561  3757 net.cpp:129] Top shape: 1 512 7 7 (25088)
I0417 03:39:34.598562  3757 net.cpp:137] Memory required for data: 496642064
I0417 03:39:34.598567  3757 layer_factory.hpp:77] Creating layer res5a_branch2a_relu
I0417 03:39:34.598572  3757 net.cpp:84] Creating Layer res5a_branch2a_relu
I0417 03:39:34.598575  3757 net.cpp:406] res5a_branch2a_relu <- res5a_branch2a
I0417 03:39:34.598578  3757 net.cpp:367] res5a_branch2a_relu -> res5a_branch2a (in-place)
I0417 03:39:34.599262  3757 net.cpp:122] Setting up res5a_branch2a_relu
I0417 03:39:34.599269  3757 net.cpp:129] Top shape: 1 512 7 7 (25088)
I0417 03:39:34.599272  3757 net.cpp:137] Memory required for data: 496742416
I0417 03:39:34.599274  3757 layer_factory.hpp:77] Creating layer res5a_branch2b
I0417 03:39:34.599282  3757 net.cpp:84] Creating Layer res5a_branch2b
I0417 03:39:34.599285  3757 net.cpp:406] res5a_branch2b <- res5a_branch2a
I0417 03:39:34.599289  3757 net.cpp:380] res5a_branch2b -> res5a_branch2b
I0417 03:39:34.617120  3757 net.cpp:122] Setting up res5a_branch2b
I0417 03:39:34.617135  3757 net.cpp:129] Top shape: 1 512 7 7 (25088)
I0417 03:39:34.617136  3757 net.cpp:137] Memory required for data: 496842768
I0417 03:39:34.617142  3757 layer_factory.hpp:77] Creating layer bn5a_branch2b
I0417 03:39:34.617149  3757 net.cpp:84] Creating Layer bn5a_branch2b
I0417 03:39:34.617154  3757 net.cpp:406] bn5a_branch2b <- res5a_branch2b
I0417 03:39:34.617161  3757 net.cpp:367] bn5a_branch2b -> res5a_branch2b (in-place)
I0417 03:39:34.617413  3757 net.cpp:122] Setting up bn5a_branch2b
I0417 03:39:34.617417  3757 net.cpp:129] Top shape: 1 512 7 7 (25088)
I0417 03:39:34.617419  3757 net.cpp:137] Memory required for data: 496943120
I0417 03:39:34.617424  3757 layer_factory.hpp:77] Creating layer scale5a_branch2b
I0417 03:39:34.617431  3757 net.cpp:84] Creating Layer scale5a_branch2b
I0417 03:39:34.617435  3757 net.cpp:406] scale5a_branch2b <- res5a_branch2b
I0417 03:39:34.617439  3757 net.cpp:367] scale5a_branch2b -> res5a_branch2b (in-place)
I0417 03:39:34.617498  3757 layer_factory.hpp:77] Creating layer scale5a_branch2b
I0417 03:39:34.617630  3757 net.cpp:122] Setting up scale5a_branch2b
I0417 03:39:34.617635  3757 net.cpp:129] Top shape: 1 512 7 7 (25088)
I0417 03:39:34.617637  3757 net.cpp:137] Memory required for data: 497043472
I0417 03:39:34.617641  3757 layer_factory.hpp:77] Creating layer res5a_branch2b_relu
I0417 03:39:34.617648  3757 net.cpp:84] Creating Layer res5a_branch2b_relu
I0417 03:39:34.617652  3757 net.cpp:406] res5a_branch2b_relu <- res5a_branch2b
I0417 03:39:34.617655  3757 net.cpp:367] res5a_branch2b_relu -> res5a_branch2b (in-place)
I0417 03:39:34.618129  3757 net.cpp:122] Setting up res5a_branch2b_relu
I0417 03:39:34.618135  3757 net.cpp:129] Top shape: 1 512 7 7 (25088)
I0417 03:39:34.618137  3757 net.cpp:137] Memory required for data: 497143824
I0417 03:39:34.618140  3757 layer_factory.hpp:77] Creating layer res5a_branch2c
I0417 03:39:34.618147  3757 net.cpp:84] Creating Layer res5a_branch2c
I0417 03:39:34.618151  3757 net.cpp:406] res5a_branch2c <- res5a_branch2b
I0417 03:39:34.618155  3757 net.cpp:380] res5a_branch2c -> res5a_branch2c
I0417 03:39:34.627341  3757 net.cpp:122] Setting up res5a_branch2c
I0417 03:39:34.627354  3757 net.cpp:129] Top shape: 1 2048 7 7 (100352)
I0417 03:39:34.627357  3757 net.cpp:137] Memory required for data: 497545232
I0417 03:39:34.627362  3757 layer_factory.hpp:77] Creating layer bn5a_branch2c
I0417 03:39:34.627369  3757 net.cpp:84] Creating Layer bn5a_branch2c
I0417 03:39:34.627373  3757 net.cpp:406] bn5a_branch2c <- res5a_branch2c
I0417 03:39:34.627383  3757 net.cpp:367] bn5a_branch2c -> res5a_branch2c (in-place)
I0417 03:39:34.627632  3757 net.cpp:122] Setting up bn5a_branch2c
I0417 03:39:34.627637  3757 net.cpp:129] Top shape: 1 2048 7 7 (100352)
I0417 03:39:34.627640  3757 net.cpp:137] Memory required for data: 497946640
I0417 03:39:34.627645  3757 layer_factory.hpp:77] Creating layer scale5a_branch2c
I0417 03:39:34.627658  3757 net.cpp:84] Creating Layer scale5a_branch2c
I0417 03:39:34.627662  3757 net.cpp:406] scale5a_branch2c <- res5a_branch2c
I0417 03:39:34.627665  3757 net.cpp:367] scale5a_branch2c -> res5a_branch2c (in-place)
I0417 03:39:34.627727  3757 layer_factory.hpp:77] Creating layer scale5a_branch2c
I0417 03:39:34.627861  3757 net.cpp:122] Setting up scale5a_branch2c
I0417 03:39:34.627866  3757 net.cpp:129] Top shape: 1 2048 7 7 (100352)
I0417 03:39:34.627876  3757 net.cpp:137] Memory required for data: 498348048
I0417 03:39:34.627882  3757 layer_factory.hpp:77] Creating layer res5a
I0417 03:39:34.627887  3757 net.cpp:84] Creating Layer res5a
I0417 03:39:34.627892  3757 net.cpp:406] res5a <- res5a_branch1
I0417 03:39:34.627894  3757 net.cpp:406] res5a <- res5a_branch2c
I0417 03:39:34.627897  3757 net.cpp:380] res5a -> res5a
I0417 03:39:34.627921  3757 net.cpp:122] Setting up res5a
I0417 03:39:34.627925  3757 net.cpp:129] Top shape: 1 2048 7 7 (100352)
I0417 03:39:34.627928  3757 net.cpp:137] Memory required for data: 498749456
I0417 03:39:34.627930  3757 layer_factory.hpp:77] Creating layer res5a_relu
I0417 03:39:34.627934  3757 net.cpp:84] Creating Layer res5a_relu
I0417 03:39:34.627938  3757 net.cpp:406] res5a_relu <- res5a
I0417 03:39:34.627941  3757 net.cpp:367] res5a_relu -> res5a (in-place)
I0417 03:39:34.628422  3757 net.cpp:122] Setting up res5a_relu
I0417 03:39:34.628427  3757 net.cpp:129] Top shape: 1 2048 7 7 (100352)
I0417 03:39:34.628429  3757 net.cpp:137] Memory required for data: 499150864
I0417 03:39:34.628432  3757 layer_factory.hpp:77] Creating layer res5a_res5a_relu_0_split
I0417 03:39:34.628438  3757 net.cpp:84] Creating Layer res5a_res5a_relu_0_split
I0417 03:39:34.628442  3757 net.cpp:406] res5a_res5a_relu_0_split <- res5a
I0417 03:39:34.628446  3757 net.cpp:380] res5a_res5a_relu_0_split -> res5a_res5a_relu_0_split_0
I0417 03:39:34.628451  3757 net.cpp:380] res5a_res5a_relu_0_split -> res5a_res5a_relu_0_split_1
I0417 03:39:34.628492  3757 net.cpp:122] Setting up res5a_res5a_relu_0_split
I0417 03:39:34.628496  3757 net.cpp:129] Top shape: 1 2048 7 7 (100352)
I0417 03:39:34.628499  3757 net.cpp:129] Top shape: 1 2048 7 7 (100352)
I0417 03:39:34.628502  3757 net.cpp:137] Memory required for data: 499953680
I0417 03:39:34.628504  3757 layer_factory.hpp:77] Creating layer res5b_branch2a
I0417 03:39:34.628511  3757 net.cpp:84] Creating Layer res5b_branch2a
I0417 03:39:34.628515  3757 net.cpp:406] res5b_branch2a <- res5a_res5a_relu_0_split_0
I0417 03:39:34.628520  3757 net.cpp:380] res5b_branch2a -> res5b_branch2a
I0417 03:39:34.637663  3757 net.cpp:122] Setting up res5b_branch2a
I0417 03:39:34.637677  3757 net.cpp:129] Top shape: 1 512 7 7 (25088)
I0417 03:39:34.637679  3757 net.cpp:137] Memory required for data: 500054032
I0417 03:39:34.637684  3757 layer_factory.hpp:77] Creating layer bn5b_branch2a
I0417 03:39:34.637692  3757 net.cpp:84] Creating Layer bn5b_branch2a
I0417 03:39:34.637696  3757 net.cpp:406] bn5b_branch2a <- res5b_branch2a
I0417 03:39:34.637701  3757 net.cpp:367] bn5b_branch2a -> res5b_branch2a (in-place)
I0417 03:39:34.637956  3757 net.cpp:122] Setting up bn5b_branch2a
I0417 03:39:34.637962  3757 net.cpp:129] Top shape: 1 512 7 7 (25088)
I0417 03:39:34.637964  3757 net.cpp:137] Memory required for data: 500154384
I0417 03:39:34.637969  3757 layer_factory.hpp:77] Creating layer scale5b_branch2a
I0417 03:39:34.637974  3757 net.cpp:84] Creating Layer scale5b_branch2a
I0417 03:39:34.637977  3757 net.cpp:406] scale5b_branch2a <- res5b_branch2a
I0417 03:39:34.637982  3757 net.cpp:367] scale5b_branch2a -> res5b_branch2a (in-place)
I0417 03:39:34.638042  3757 layer_factory.hpp:77] Creating layer scale5b_branch2a
I0417 03:39:34.638175  3757 net.cpp:122] Setting up scale5b_branch2a
I0417 03:39:34.638180  3757 net.cpp:129] Top shape: 1 512 7 7 (25088)
I0417 03:39:34.638182  3757 net.cpp:137] Memory required for data: 500254736
I0417 03:39:34.638186  3757 layer_factory.hpp:77] Creating layer res5b_branch2a_relu
I0417 03:39:34.638190  3757 net.cpp:84] Creating Layer res5b_branch2a_relu
I0417 03:39:34.638201  3757 net.cpp:406] res5b_branch2a_relu <- res5b_branch2a
I0417 03:39:34.638204  3757 net.cpp:367] res5b_branch2a_relu -> res5b_branch2a (in-place)
I0417 03:39:34.638887  3757 net.cpp:122] Setting up res5b_branch2a_relu
I0417 03:39:34.638895  3757 net.cpp:129] Top shape: 1 512 7 7 (25088)
I0417 03:39:34.638897  3757 net.cpp:137] Memory required for data: 500355088
I0417 03:39:34.638900  3757 layer_factory.hpp:77] Creating layer res5b_branch2b
I0417 03:39:34.638906  3757 net.cpp:84] Creating Layer res5b_branch2b
I0417 03:39:34.638911  3757 net.cpp:406] res5b_branch2b <- res5b_branch2a
I0417 03:39:34.638916  3757 net.cpp:380] res5b_branch2b -> res5b_branch2b
I0417 03:39:34.656744  3757 net.cpp:122] Setting up res5b_branch2b
I0417 03:39:34.656760  3757 net.cpp:129] Top shape: 1 512 7 7 (25088)
I0417 03:39:34.656764  3757 net.cpp:137] Memory required for data: 500455440
I0417 03:39:34.656769  3757 layer_factory.hpp:77] Creating layer bn5b_branch2b
I0417 03:39:34.656775  3757 net.cpp:84] Creating Layer bn5b_branch2b
I0417 03:39:34.656780  3757 net.cpp:406] bn5b_branch2b <- res5b_branch2b
I0417 03:39:34.656790  3757 net.cpp:367] bn5b_branch2b -> res5b_branch2b (in-place)
I0417 03:39:34.657054  3757 net.cpp:122] Setting up bn5b_branch2b
I0417 03:39:34.657059  3757 net.cpp:129] Top shape: 1 512 7 7 (25088)
I0417 03:39:34.657063  3757 net.cpp:137] Memory required for data: 500555792
I0417 03:39:34.657068  3757 layer_factory.hpp:77] Creating layer scale5b_branch2b
I0417 03:39:34.657073  3757 net.cpp:84] Creating Layer scale5b_branch2b
I0417 03:39:34.657076  3757 net.cpp:406] scale5b_branch2b <- res5b_branch2b
I0417 03:39:34.657080  3757 net.cpp:367] scale5b_branch2b -> res5b_branch2b (in-place)
I0417 03:39:34.657140  3757 layer_factory.hpp:77] Creating layer scale5b_branch2b
I0417 03:39:34.657274  3757 net.cpp:122] Setting up scale5b_branch2b
I0417 03:39:34.657279  3757 net.cpp:129] Top shape: 1 512 7 7 (25088)
I0417 03:39:34.657281  3757 net.cpp:137] Memory required for data: 500656144
I0417 03:39:34.657285  3757 layer_factory.hpp:77] Creating layer res5b_branch2b_relu
I0417 03:39:34.657290  3757 net.cpp:84] Creating Layer res5b_branch2b_relu
I0417 03:39:34.657294  3757 net.cpp:406] res5b_branch2b_relu <- res5b_branch2b
I0417 03:39:34.657299  3757 net.cpp:367] res5b_branch2b_relu -> res5b_branch2b (in-place)
I0417 03:39:34.657960  3757 net.cpp:122] Setting up res5b_branch2b_relu
I0417 03:39:34.657968  3757 net.cpp:129] Top shape: 1 512 7 7 (25088)
I0417 03:39:34.657971  3757 net.cpp:137] Memory required for data: 500756496
I0417 03:39:34.657974  3757 layer_factory.hpp:77] Creating layer res5b_branch2c
I0417 03:39:34.657981  3757 net.cpp:84] Creating Layer res5b_branch2c
I0417 03:39:34.657985  3757 net.cpp:406] res5b_branch2c <- res5b_branch2b
I0417 03:39:34.657989  3757 net.cpp:380] res5b_branch2c -> res5b_branch2c
I0417 03:39:34.667127  3757 net.cpp:122] Setting up res5b_branch2c
I0417 03:39:34.667141  3757 net.cpp:129] Top shape: 1 2048 7 7 (100352)
I0417 03:39:34.667143  3757 net.cpp:137] Memory required for data: 501157904
I0417 03:39:34.667148  3757 layer_factory.hpp:77] Creating layer bn5b_branch2c
I0417 03:39:34.667155  3757 net.cpp:84] Creating Layer bn5b_branch2c
I0417 03:39:34.667160  3757 net.cpp:406] bn5b_branch2c <- res5b_branch2c
I0417 03:39:34.667165  3757 net.cpp:367] bn5b_branch2c -> res5b_branch2c (in-place)
I0417 03:39:34.667420  3757 net.cpp:122] Setting up bn5b_branch2c
I0417 03:39:34.667425  3757 net.cpp:129] Top shape: 1 2048 7 7 (100352)
I0417 03:39:34.667428  3757 net.cpp:137] Memory required for data: 501559312
I0417 03:39:34.667433  3757 layer_factory.hpp:77] Creating layer scale5b_branch2c
I0417 03:39:34.667438  3757 net.cpp:84] Creating Layer scale5b_branch2c
I0417 03:39:34.667443  3757 net.cpp:406] scale5b_branch2c <- res5b_branch2c
I0417 03:39:34.667446  3757 net.cpp:367] scale5b_branch2c -> res5b_branch2c (in-place)
I0417 03:39:34.667506  3757 layer_factory.hpp:77] Creating layer scale5b_branch2c
I0417 03:39:34.667641  3757 net.cpp:122] Setting up scale5b_branch2c
I0417 03:39:34.667646  3757 net.cpp:129] Top shape: 1 2048 7 7 (100352)
I0417 03:39:34.667657  3757 net.cpp:137] Memory required for data: 501960720
I0417 03:39:34.667661  3757 layer_factory.hpp:77] Creating layer res5b
I0417 03:39:34.667667  3757 net.cpp:84] Creating Layer res5b
I0417 03:39:34.667671  3757 net.cpp:406] res5b <- res5a_res5a_relu_0_split_1
I0417 03:39:34.667675  3757 net.cpp:406] res5b <- res5b_branch2c
I0417 03:39:34.667680  3757 net.cpp:380] res5b -> res5b
I0417 03:39:34.667702  3757 net.cpp:122] Setting up res5b
I0417 03:39:34.667707  3757 net.cpp:129] Top shape: 1 2048 7 7 (100352)
I0417 03:39:34.667709  3757 net.cpp:137] Memory required for data: 502362128
I0417 03:39:34.667711  3757 layer_factory.hpp:77] Creating layer res5b_relu
I0417 03:39:34.667717  3757 net.cpp:84] Creating Layer res5b_relu
I0417 03:39:34.667721  3757 net.cpp:406] res5b_relu <- res5b
I0417 03:39:34.667724  3757 net.cpp:367] res5b_relu -> res5b (in-place)
I0417 03:39:34.668210  3757 net.cpp:122] Setting up res5b_relu
I0417 03:39:34.668216  3757 net.cpp:129] Top shape: 1 2048 7 7 (100352)
I0417 03:39:34.668218  3757 net.cpp:137] Memory required for data: 502763536
I0417 03:39:34.668221  3757 layer_factory.hpp:77] Creating layer res5b_res5b_relu_0_split
I0417 03:39:34.668227  3757 net.cpp:84] Creating Layer res5b_res5b_relu_0_split
I0417 03:39:34.668231  3757 net.cpp:406] res5b_res5b_relu_0_split <- res5b
I0417 03:39:34.668236  3757 net.cpp:380] res5b_res5b_relu_0_split -> res5b_res5b_relu_0_split_0
I0417 03:39:34.668241  3757 net.cpp:380] res5b_res5b_relu_0_split -> res5b_res5b_relu_0_split_1
I0417 03:39:34.668282  3757 net.cpp:122] Setting up res5b_res5b_relu_0_split
I0417 03:39:34.668285  3757 net.cpp:129] Top shape: 1 2048 7 7 (100352)
I0417 03:39:34.668288  3757 net.cpp:129] Top shape: 1 2048 7 7 (100352)
I0417 03:39:34.668292  3757 net.cpp:137] Memory required for data: 503566352
I0417 03:39:34.668293  3757 layer_factory.hpp:77] Creating layer res5c_branch2a
I0417 03:39:34.668300  3757 net.cpp:84] Creating Layer res5c_branch2a
I0417 03:39:34.668304  3757 net.cpp:406] res5c_branch2a <- res5b_res5b_relu_0_split_0
I0417 03:39:34.668308  3757 net.cpp:380] res5c_branch2a -> res5c_branch2a
I0417 03:39:34.677523  3757 net.cpp:122] Setting up res5c_branch2a
I0417 03:39:34.677537  3757 net.cpp:129] Top shape: 1 512 7 7 (25088)
I0417 03:39:34.677541  3757 net.cpp:137] Memory required for data: 503666704
I0417 03:39:34.677546  3757 layer_factory.hpp:77] Creating layer bn5c_branch2a
I0417 03:39:34.677551  3757 net.cpp:84] Creating Layer bn5c_branch2a
I0417 03:39:34.677554  3757 net.cpp:406] bn5c_branch2a <- res5c_branch2a
I0417 03:39:34.677561  3757 net.cpp:367] bn5c_branch2a -> res5c_branch2a (in-place)
I0417 03:39:34.677814  3757 net.cpp:122] Setting up bn5c_branch2a
I0417 03:39:34.677819  3757 net.cpp:129] Top shape: 1 512 7 7 (25088)
I0417 03:39:34.677821  3757 net.cpp:137] Memory required for data: 503767056
I0417 03:39:34.677826  3757 layer_factory.hpp:77] Creating layer scale5c_branch2a
I0417 03:39:34.677831  3757 net.cpp:84] Creating Layer scale5c_branch2a
I0417 03:39:34.677835  3757 net.cpp:406] scale5c_branch2a <- res5c_branch2a
I0417 03:39:34.677839  3757 net.cpp:367] scale5c_branch2a -> res5c_branch2a (in-place)
I0417 03:39:34.677902  3757 layer_factory.hpp:77] Creating layer scale5c_branch2a
I0417 03:39:34.678036  3757 net.cpp:122] Setting up scale5c_branch2a
I0417 03:39:34.678041  3757 net.cpp:129] Top shape: 1 512 7 7 (25088)
I0417 03:39:34.678043  3757 net.cpp:137] Memory required for data: 503867408
I0417 03:39:34.678047  3757 layer_factory.hpp:77] Creating layer res5c_branch2a_relu
I0417 03:39:34.678055  3757 net.cpp:84] Creating Layer res5c_branch2a_relu
I0417 03:39:34.678058  3757 net.cpp:406] res5c_branch2a_relu <- res5c_branch2a
I0417 03:39:34.678062  3757 net.cpp:367] res5c_branch2a_relu -> res5c_branch2a (in-place)
I0417 03:39:34.678539  3757 net.cpp:122] Setting up res5c_branch2a_relu
I0417 03:39:34.678545  3757 net.cpp:129] Top shape: 1 512 7 7 (25088)
I0417 03:39:34.678547  3757 net.cpp:137] Memory required for data: 503967760
I0417 03:39:34.678560  3757 layer_factory.hpp:77] Creating layer res5c_branch2b
I0417 03:39:34.678567  3757 net.cpp:84] Creating Layer res5c_branch2b
I0417 03:39:34.678570  3757 net.cpp:406] res5c_branch2b <- res5c_branch2a
I0417 03:39:34.678575  3757 net.cpp:380] res5c_branch2b -> res5c_branch2b
I0417 03:39:34.696662  3757 net.cpp:122] Setting up res5c_branch2b
I0417 03:39:34.696678  3757 net.cpp:129] Top shape: 1 512 7 7 (25088)
I0417 03:39:34.696681  3757 net.cpp:137] Memory required for data: 504068112
I0417 03:39:34.696687  3757 layer_factory.hpp:77] Creating layer bn5c_branch2b
I0417 03:39:34.696694  3757 net.cpp:84] Creating Layer bn5c_branch2b
I0417 03:39:34.696698  3757 net.cpp:406] bn5c_branch2b <- res5c_branch2b
I0417 03:39:34.696704  3757 net.cpp:367] bn5c_branch2b -> res5c_branch2b (in-place)
I0417 03:39:34.696974  3757 net.cpp:122] Setting up bn5c_branch2b
I0417 03:39:34.696979  3757 net.cpp:129] Top shape: 1 512 7 7 (25088)
I0417 03:39:34.696981  3757 net.cpp:137] Memory required for data: 504168464
I0417 03:39:34.696987  3757 layer_factory.hpp:77] Creating layer scale5c_branch2b
I0417 03:39:34.696995  3757 net.cpp:84] Creating Layer scale5c_branch2b
I0417 03:39:34.696998  3757 net.cpp:406] scale5c_branch2b <- res5c_branch2b
I0417 03:39:34.697002  3757 net.cpp:367] scale5c_branch2b -> res5c_branch2b (in-place)
I0417 03:39:34.697063  3757 layer_factory.hpp:77] Creating layer scale5c_branch2b
I0417 03:39:34.697201  3757 net.cpp:122] Setting up scale5c_branch2b
I0417 03:39:34.697206  3757 net.cpp:129] Top shape: 1 512 7 7 (25088)
I0417 03:39:34.697208  3757 net.cpp:137] Memory required for data: 504268816
I0417 03:39:34.697212  3757 layer_factory.hpp:77] Creating layer res5c_branch2b_relu
I0417 03:39:34.697217  3757 net.cpp:84] Creating Layer res5c_branch2b_relu
I0417 03:39:34.697221  3757 net.cpp:406] res5c_branch2b_relu <- res5c_branch2b
I0417 03:39:34.697226  3757 net.cpp:367] res5c_branch2b_relu -> res5c_branch2b (in-place)
I0417 03:39:34.697899  3757 net.cpp:122] Setting up res5c_branch2b_relu
I0417 03:39:34.697906  3757 net.cpp:129] Top shape: 1 512 7 7 (25088)
I0417 03:39:34.697909  3757 net.cpp:137] Memory required for data: 504369168
I0417 03:39:34.697911  3757 layer_factory.hpp:77] Creating layer res5c_branch2c
I0417 03:39:34.697918  3757 net.cpp:84] Creating Layer res5c_branch2c
I0417 03:39:34.697922  3757 net.cpp:406] res5c_branch2c <- res5c_branch2b
I0417 03:39:34.697927  3757 net.cpp:380] res5c_branch2c -> res5c_branch2c
I0417 03:39:34.706992  3757 net.cpp:122] Setting up res5c_branch2c
I0417 03:39:34.707006  3757 net.cpp:129] Top shape: 1 2048 7 7 (100352)
I0417 03:39:34.707008  3757 net.cpp:137] Memory required for data: 504770576
I0417 03:39:34.707013  3757 layer_factory.hpp:77] Creating layer bn5c_branch2c
I0417 03:39:34.707021  3757 net.cpp:84] Creating Layer bn5c_branch2c
I0417 03:39:34.707026  3757 net.cpp:406] bn5c_branch2c <- res5c_branch2c
I0417 03:39:34.707031  3757 net.cpp:367] bn5c_branch2c -> res5c_branch2c (in-place)
I0417 03:39:34.707293  3757 net.cpp:122] Setting up bn5c_branch2c
I0417 03:39:34.707298  3757 net.cpp:129] Top shape: 1 2048 7 7 (100352)
I0417 03:39:34.707299  3757 net.cpp:137] Memory required for data: 505171984
I0417 03:39:34.707304  3757 layer_factory.hpp:77] Creating layer scale5c_branch2c
I0417 03:39:34.707311  3757 net.cpp:84] Creating Layer scale5c_branch2c
I0417 03:39:34.707315  3757 net.cpp:406] scale5c_branch2c <- res5c_branch2c
I0417 03:39:34.707319  3757 net.cpp:367] scale5c_branch2c -> res5c_branch2c (in-place)
I0417 03:39:34.707381  3757 layer_factory.hpp:77] Creating layer scale5c_branch2c
I0417 03:39:34.707520  3757 net.cpp:122] Setting up scale5c_branch2c
I0417 03:39:34.707525  3757 net.cpp:129] Top shape: 1 2048 7 7 (100352)
I0417 03:39:34.707527  3757 net.cpp:137] Memory required for data: 505573392
I0417 03:39:34.707531  3757 layer_factory.hpp:77] Creating layer res5c
I0417 03:39:34.707540  3757 net.cpp:84] Creating Layer res5c
I0417 03:39:34.707543  3757 net.cpp:406] res5c <- res5b_res5b_relu_0_split_1
I0417 03:39:34.707546  3757 net.cpp:406] res5c <- res5c_branch2c
I0417 03:39:34.707561  3757 net.cpp:380] res5c -> res5c
I0417 03:39:34.707584  3757 net.cpp:122] Setting up res5c
I0417 03:39:34.707588  3757 net.cpp:129] Top shape: 1 2048 7 7 (100352)
I0417 03:39:34.707590  3757 net.cpp:137] Memory required for data: 505974800
I0417 03:39:34.707593  3757 layer_factory.hpp:77] Creating layer res5c_relu
I0417 03:39:34.707597  3757 net.cpp:84] Creating Layer res5c_relu
I0417 03:39:34.707600  3757 net.cpp:406] res5c_relu <- res5c
I0417 03:39:34.707605  3757 net.cpp:367] res5c_relu -> res5c (in-place)
I0417 03:39:34.708088  3757 net.cpp:122] Setting up res5c_relu
I0417 03:39:34.708096  3757 net.cpp:129] Top shape: 1 2048 7 7 (100352)
I0417 03:39:34.708097  3757 net.cpp:137] Memory required for data: 506376208
I0417 03:39:34.708099  3757 layer_factory.hpp:77] Creating layer pool5
I0417 03:39:34.708104  3757 net.cpp:84] Creating Layer pool5
I0417 03:39:34.708108  3757 net.cpp:406] pool5 <- res5c
I0417 03:39:34.708113  3757 net.cpp:380] pool5 -> pool5
I0417 03:39:34.708814  3757 net.cpp:122] Setting up pool5
I0417 03:39:34.708822  3757 net.cpp:129] Top shape: 1 2048 1 1 (2048)
I0417 03:39:34.708824  3757 net.cpp:137] Memory required for data: 506384400
I0417 03:39:34.708827  3757 layer_factory.hpp:77] Creating layer fc1000-skin
I0417 03:39:34.708832  3757 net.cpp:84] Creating Layer fc1000-skin
I0417 03:39:34.708838  3757 net.cpp:406] fc1000-skin <- pool5
I0417 03:39:34.708843  3757 net.cpp:380] fc1000-skin -> fc1000-skin
I0417 03:39:34.709033  3757 net.cpp:122] Setting up fc1000-skin
I0417 03:39:34.709038  3757 net.cpp:129] Top shape: 1 6 (6)
I0417 03:39:34.709040  3757 net.cpp:137] Memory required for data: 506384424
I0417 03:39:34.709044  3757 layer_factory.hpp:77] Creating layer fc1000-skin_fc1000-skin_0_split
I0417 03:39:34.709048  3757 net.cpp:84] Creating Layer fc1000-skin_fc1000-skin_0_split
I0417 03:39:34.709053  3757 net.cpp:406] fc1000-skin_fc1000-skin_0_split <- fc1000-skin
I0417 03:39:34.709059  3757 net.cpp:380] fc1000-skin_fc1000-skin_0_split -> fc1000-skin_fc1000-skin_0_split_0
I0417 03:39:34.709065  3757 net.cpp:380] fc1000-skin_fc1000-skin_0_split -> fc1000-skin_fc1000-skin_0_split_1
I0417 03:39:34.709070  3757 net.cpp:380] fc1000-skin_fc1000-skin_0_split -> fc1000-skin_fc1000-skin_0_split_2
I0417 03:39:34.709118  3757 net.cpp:122] Setting up fc1000-skin_fc1000-skin_0_split
I0417 03:39:34.709122  3757 net.cpp:129] Top shape: 1 6 (6)
I0417 03:39:34.709125  3757 net.cpp:129] Top shape: 1 6 (6)
I0417 03:39:34.709128  3757 net.cpp:129] Top shape: 1 6 (6)
I0417 03:39:34.709131  3757 net.cpp:137] Memory required for data: 506384496
I0417 03:39:34.709132  3757 layer_factory.hpp:77] Creating layer loss
I0417 03:39:34.709136  3757 net.cpp:84] Creating Layer loss
I0417 03:39:34.709139  3757 net.cpp:406] loss <- fc1000-skin_fc1000-skin_0_split_0
I0417 03:39:34.709143  3757 net.cpp:406] loss <- label_data_1_split_0
I0417 03:39:34.709148  3757 net.cpp:380] loss -> loss
…
