…
I0413 22:35:23.911752 29631 net.cpp:294] The NetState phase (0) differed from the phase (1) specified by a rule in layer acc/top-5
I0413 22:35:23.916582 29631 net.cpp:51] Initializing net from parameters: 
name: "ResNet-152"
state {
  phase: TRAIN
  level: 0
  stage: ""
}
layer {
  name: "data"
  type: "Data"
  top: "data"
  top: "label"
  include {
    phase: TRAIN
  }
  transform_param {
    mirror: true
    crop_size: 224
    mean_file: "/home/danilo/Documents/FGA/2018-1/TCC1/Datasets/Atlas_5k_lmdb/input/mean.binaryproto"
  }
  data_param {
    source: "/home/danilo/Documents/FGA/2018-1/TCC1/Datasets/Atlas_5k_lmdb/train"
    batch_size: 5
    backend: LMDB
  }
}
layer {
  name: "conv1"
  type: "Convolution"
  bottom: "data"
  top: "conv1"
  convolution_param {
    num_output: 64
    bias_term: false
    pad: 3
    kernel_size: 7
    stride: 2
    weight_filler {
      type: "msra"
    }
  }
}
layer {
  name: "bn_conv1"
  type: "BatchNorm"
  bottom: "conv1"
  top: "conv1"
  batch_norm_param {
    use_global_stats: false
  }
}
layer {
  name: "scale_conv1"
  type: "Scale"
  bottom: "conv1"
  top: "conv1"
  scale_param {
    bias_term: true
  }
}
layer {
  name: "conv1_relu"
  type: "ReLU"
  bottom: "conv1"
  top: "conv1"
}
layer {
  name: "pool1"
  type: "Pooling"
  bottom: "conv1"
  top: "pool1"
  pooling_param {
    pool: MAX
    kernel_size: 3
    stride: 2
  }
}
layer {
  name: "res2a_branch1"
  type: "Convolution"
  bottom: "pool1"
  top: "res2a_branch1"
  convolution_param {
    num_output: 256
    bias_term: false
    pad: 0
    kernel_size: 1
    stride: 1
    weight_filler {
      type: "msra"
    }
  }
}
layer {
  name: "bn2a_branch1"
  type: "BatchNorm"
  bottom: "res2a_branch1"
  top: "res2a_branch1"
  batch_norm_param {
    use_global_stats: false
  }
}
layer {
  name: "scale2a_branch1"
  type: "Scale"
  bottom: "res2a_branch1"
  top: "res2a_branch1"
  scale_param {
    bias_term: true
  }
}
layer {
  name: "res2a_branch2a"
  type: "Convolution"
  bottom: "pool1"
  top: "res2a_branch2a"
  convolution_param {
    num_output: 64
    bias_term: false
    pad: 0
    kernel_size: 1
    stride: 1
    weight_filler {
      type: "msra"
    }
  }
}
layer {
  name: "bn2a_branch2a"
  type: "BatchNorm"
  bottom: "res2a_branch2a"
  top: "res2a_branch2a"
  batch_norm_param {
    use_global_stats: false
  }
}
layer {
  name: "scale2a_branch2a"
  type: "Scale"
  bottom: "res2a_branch2a"
  top: "res2a_branch2a"
  scale_param {
    bias_term: true
  }
}
layer {
  name: "res2a_branch2a_relu"
  type: "ReLU"
  bottom: "res2a_branch2a"
  top: "res2a_branch2a"
}
layer {
  name: "res2a_branch2b"
  type: "Convolution"
  bottom: "res2a_branch2a"
  top: "res2a_branch2b"
  convolution_param {
    num_output: 64
    bias_term: false
    pad: 1
    kernel_size: 3
    stride: 1
    weight_filler {
      type: "msra"
    }
  }
}
layer {
  name: "bn2a_branch2b"
  type: "BatchNorm"
  bottom: "res2a_branch2b"
  top: "res2a_branch2b"
  batch_norm_param {
    use_global_stats: false
  }
}
layer {
  name: "scale2a_branch2b"
  type: "Scale"
  bottom: "res2a_branch2b"
  top: "res2a_branch2b"
  scale_param {
    bias_term: true
  }
}
layer {
  name: "res2a_branch2b_relu"
  type: "ReLU"
  bottom: "res2a_branch2b"
  top: "res2a_branch2b"
}
layer {
  name: "res2a_branch2c"
  type: "Convolution"
  bottom: "res2a_branch2b"
  top: "res2a_branch2c"
  convolution_param {
    num_output: 256
    bias_term: false
    pad: 0
    kernel_size: 1
    stride: 1
    weight_filler {
      type: "msra"
    }
  }
}
layer {
  name: "bn2a_branch2c"
  type: "BatchNorm"
  bottom: "res2a_branch2c"
  top: "res2a_branch2c"
  batch_norm_param {
    use_global_stats: false
  }
}
layer {
  name: "scale2a_branch2c"
  type: "Scale"
  bottom: "res2a_branch2c"
  top: "res2a_branch2c"
  scale_param {
    bias_term: true
  }
}
layer {
  name: "res2a"
  type: "Eltwise"
  bottom: "res2a_branch1"
  bottom: "res2a_branch2c"
  top: "res2a"
  eltwise_param {
    operation: SUM
  }
}
layer {
  name: "res2a_relu"
  type: "ReLU"
  bottom: "res2a"
  top: "res2a"
}
layer {
  name: "res2b_branch2a"
  type: "Convolution"
  bottom: "res2a"
  top: "res2b_branch2a"
  convolution_param {
    num_output: 64
    bias_term: false
    pad: 0
    kernel_size: 1
    stride: 1
    weight_filler {
      type: "msra"
    }
  }
}
layer {
  name: "bn2b_branch2a"
  type: "BatchNorm"
  bottom: "res2b_branch2a"
  top: "res2b_branch2a"
  batch_norm_param {
    use_global_stats: false
  }
}
layer {
  name: "scale2b_branch2a"
  type: "Scale"
  bottom: "res2b_branch2a"
  top: "res2b_branch2a"
  scale_param {
    bias_term: true
  }
}
layer {
  name: "res2b_branch2a_relu"
  type: "ReLU"
  bottom: "res2b_branch2a"
  top: "res2b_branch2a"
}
layer {
  name: "res2b_branch2b"
  type: "Convolution"
  bottom: "res2b_branch2a"
  top: "res2b_branch2b"
  convolution_param {
    num_output: 64
    bias_term: false
    pad: 1
    kernel_size: 3
    stride: 1
    weight_filler {
      type: "msra"
    }
  }
}
layer {
  name: "bn2b_branch2b"
  type: "BatchNorm"
  bottom: "res2b_branch2b"
  top: "res2b_branch2b"
  batch_norm_param {
    use_global_stats: false
  }
}
layer {
  name: "scale2b_branch2b"
  type: "Scale"
  bottom: "res2b_branch2b"
  top: "res2b_branch2b"
  scale_param {
    bias_term: true
  }
}
layer {
  name: "res2b_branch2b_relu"
  type: "ReLU"
  bottom: "res2b_branch2b"
  top: "res2b_branch2b"
}
layer {
  name: "res2b_branch2c"
  type: "Convolution"
  bottom: "res2b_branch2b"
  top: "res2b_branch2c"
  convolution_param {
    num_output: 256
    bias_term: false
    pad: 0
    kernel_size: 1
    stride: 1
    weight_filler {
      type: "msra"
    }
  }
}
layer {
  name: "bn2b_branch2c"
  type: "BatchNorm"
  bottom: "res2b_branch2c"
  top: "res2b_branch2c"
  batch_norm_param {
    use_global_stats: false
  }
}
layer {
  name: "scale2b_branch2c"
  type: "Scale"
  bottom: "res2b_branch2c"
  top: "res2b_branch2c"
  scale_param {
    bias_term: true
  }
}
layer {
  name: "res2b"
  type: "Eltwise"
  bottom: "res2a"
  bottom: "res2b_branch2c"
  top: "res2b"
  eltwise_param {
    operation: SUM
  }
}
layer {
  name: "res2b_relu"
  type: "ReLU"
  bottom: "res2b"
  top: "res2b"
}
layer {
  name: "res2c_branch2a"
  type: "Convolution"
  bottom: "res2b"
  top: "res2c_branch2a"
  convolution_param {
    num_output: 64
    bias_term: false
    pad: 0
    kernel_size: 1
    stride: 1
    weight_filler {
      type: "msra"
    }
  }
}
layer {
  name: "bn2c_branch2a"
  type: "BatchNorm"
  bottom: "res2c_branch2a"
  top: "res2c_branch2a"
  batch_norm_param {
    use_global_stats: false
  }
}
layer {
  name: "scale2c_branch2a"
  type: "Scale"
  bottom: "res2c_branch2a"
  top: "res2c_branch2a"
  scale_param {
    bias_term: true
  }
}
layer {
  name: "res2c_branch2a_relu"
  type: "ReLU"
  bottom: "res2c_branch2a"
  top: "res2c_branch2a"
}
layer {
  name: "res2c_branch2b"
  type: "Convolution"
  bottom: "res2c_branch2a"
  top: "res2c_branch2b"
  convolution_param {
    num_output: 64
    bias_term: false
    pad: 1
    kernel_size: 3
    stride: 1
    weight_filler {
      type: "msra"
    }
  }
}
layer {
  name: "bn2c_branch2b"
  type: "BatchNorm"
  bottom: "res2c_branch2b"
  top: "res2c_branch2b"
  batch_norm_param {
    use_global_stats: false
  }
}
layer {
  name: "scale2c_branch2b"
  type: "Scale"
  bottom: "res2c_branch2b"
  top: "res2c_branch2b"
  scale_param {
    bias_term: true
  }
}
layer {
  name: "res2c_branch2b_relu"
  type: "ReLU"
  bottom: "res2c_branch2b"
  top: "res2c_branch2b"
}
layer {
  name: "res2c_branch2c"
  type: "Convolution"
  bottom: "res2c_branch2b"
  top: "res2c_branch2c"
  convolution_param {
    num_output: 256
    bias_term: false
    pad: 0
    kernel_size: 1
    stride: 1
    weight_filler {
      type: "msra"
    }
  }
}
layer {
  name: "bn2c_branch2c"
  type: "BatchNorm"
  bottom: "res2c_branch2c"
  top: "res2c_branch2c"
  batch_norm_param {
    use_global_stats: false
  }
}
layer {
  name: "scale2c_branch2c"
  type: "Scale"
  bottom: "res2c_branch2c"
  top: "res2c_branch2c"
  scale_param {
    bias_term: true
  }
}
layer {
  name: "res2c"
  type: "Eltwise"
  bottom: "res2b"
  bottom: "res2c_branch2c"
  top: "res2c"
  eltwise_param {
    operation: SUM
  }
}
layer {
  name: "res2c_relu"
  type: "ReLU"
  bottom: "res2c"
  top: "res2c"
}
layer {
  name: "res3a_branch1"
  type: "Convolution"
  bottom: "res2c"
  top: "res3a_branch1"
  convolution_param {
    num_output: 512
    bias_term: false
    pad: 0
    kernel_size: 1
    stride: 2
    weight_filler {
      type: "msra"
    }
  }
}
layer {
  name: "bn3a_branch1"
  type: "BatchNorm"
  bottom: "res3a_branch1"
  top: "res3a_branch1"
  batch_norm_param {
    use_global_stats: false
  }
}
layer {
  name: "scale3a_branch1"
  type: "Scale"
  bottom: "res3a_branch1"
  top: "res3a_branch1"
  scale_param {
    bias_term: true
  }
}
layer {
  name: "res3a_branch2a"
  type: "Convolution"
  bottom: "res2c"
  top: "res3a_branch2a"
  convolution_param {
    num_output: 128
    bias_term: false
    pad: 0
    kernel_size: 1
    stride: 2
    weight_filler {
      type: "msra"
    }
  }
}
layer {
  name: "bn3a_branch2a"
  type: "BatchNorm"
  bottom: "res3a_branch2a"
  top: "res3a_branch2a"
  batch_norm_param {
    use_global_stats: false
  }
}
layer {
  name: "scale3a_branch2a"
  type: "Scale"
  bottom: "res3a_branch2a"
  top: "res3a_branch2a"
  scale_param {
    bias_term: true
  }
}
layer {
  name: "res3a_branch2a_relu"
  type: "ReLU"
  bottom: "res3a_branch2a"
  top: "res3a_branch2a"
}
layer {
  name: "res3a_branch2b"
  type: "Convolution"
  bottom: "res3a_branch2a"
  top: "res3a_branch2b"
  convolution_param {
    num_output: 128
    bias_term: false
    pad: 1
    kernel_size: 3
    stride: 1
    weight_filler {
      type: "msra"
    }
  }
}
layer {
  name: "bn3a_branch2b"
  type: "BatchNorm"
  bottom: "res3a_branch2b"
  top: "res3a_branch2b"
  batch_norm_param {
    use_global_stats: false
  }
}
layer {
  name: "scale3a_branch2b"
  type: "Scale"
  bottom: "res3a_branch2b"
  top: "res3a_branch2b"
  scale_param {
    bias_term: true
  }
}
layer {
  name: "res3a_branch2b_relu"
  type: "ReLU"
  bottom: "res3a_branch2b"
  top: "res3a_branch2b"
}
layer {
  name: "res3a_branch2c"
  type: "Convolution"
  bottom: "res3a_branch2b"
  top: "res3a_branch2c"
  convolution_param {
    num_output: 512
    bias_term: false
    pad: 0
    kernel_size: 1
    stride: 1
    weight_filler {
      type: "msra"
    }
  }
}
layer {
  name: "bn3a_branch2c"
  type: "BatchNorm"
  bottom: "res3a_branch2c"
  top: "res3a_branch2c"
  batch_norm_param {
    use_global_stats: false
  }
}
layer {
  name: "scale3a_branch2c"
  type: "Scale"
  bottom: "res3a_branch2c"
  top: "res3a_branch2c"
  scale_param {
    bias_term: true
  }
}
layer {
  name: "res3a"
  type: "Eltwise"
  bottom: "res3a_branch1"
  bottom: "res3a_branch2c"
  top: "res3a"
  eltwise_param {
    operation: SUM
  }
}
layer {
  name: "res3a_relu"
  type: "ReLU"
  bottom: "res3a"
  top: "res3a"
}
layer {
  name: "res3b1_branch2a"
  type: "Convolution"
  bottom: "res3a"
  top: "res3b1_branch2a"
  convolution_param {
    num_output: 128
    bias_term: false
    pad: 0
    kernel_size: 1
    stride: 1
    weight_filler {
      type: "msra"
    }
  }
}
layer {
  name: "bn3b1_branch2a"
  type: "BatchNorm"
  bottom: "res3b1_branch2a"
  top: "res3b1_branch2a"
  batch_norm_param {
    use_global_stats: false
  }
}
layer {
  name: "scale3b1_branch2a"
  type: "Scale"
  bottom: "res3b1_branch2a"
  top: "res3b1_branch2a"
  scale_param {
    bias_term: true
  }
}
layer {
  name: "res3b1_branch2a_relu"
  type: "ReLU"
  bottom: "res3b1_branch2a"
  top: "res3b1_branch2a"
}
layer {
  name: "res3b1_branch2b"
  type: "Convolution"
  bottom: "res3b1_branch2a"
  top: "res3b1_branch2b"
  convolution_param {
    num_output: 128
    bias_term: false
    pad: 1
    kernel_size: 3
    stride: 1
    weight_filler {
      type: "msra"
    }
  }
}
layer {
  name: "bn3b1_branch2b"
  type: "BatchNorm"
  bottom: "res3b1_branch2b"
  top: "res3b1_branch2b"
  batch_norm_param {
    use_global_stats: false
  }
}
layer {
  name: "scale3b1_branch2b"
  type: "Scale"
  bottom: "res3b1_branch2b"
  top: "res3b1_branch2b"
  scale_param {
    bias_term: true
  }
}
layer {
  name: "res3b1_branch2b_relu"
  type: "ReLU"
  bottom: "res3b1_branch2b"
  top: "res3b1_branch2b"
}
layer {
  name: "res3b1_branch2c"
  type: "Convolution"
  bottom: "res3b1_branch2b"
  top: "res3b1_branch2c"
  convolution_param {
    num_output: 512
    bias_term: false
    pad: 0
    kernel_size: 1
    stride: 1
    weight_filler {
      type: "msra"
    }
  }
}
layer {
  name: "bn3b1_branch2c"
  type: "BatchNorm"
  bottom: "res3b1_branch2c"
  top: "res3b1_branch2c"
  batch_norm_param {
    use_global_stats: false
  }
}
layer {
  name: "scale3b1_branch2c"
  type: "Scale"
  bottom: "res3b1_branch2c"
  top: "res3b1_branch2c"
  scale_param {
    bias_term: true
  }
}
layer {
  name: "res3b1"
  type: "Eltwise"
  bottom: "res3a"
  bottom: "res3b1_branch2c"
  top: "res3b1"
  eltwise_param {
    operation: SUM
  }
}
layer {
  name: "res3b1_relu"
  type: "ReLU"
  bottom: "res3b1"
  top: "res3b1"
}
layer {
  name: "res3b2_branch2a"
  type: "Convolution"
  bottom: "res3b1"
  top: "res3b2_branch2a"
  convolution_param {
    num_output: 128
    bias_term: false
    pad: 0
    kernel_size: 1
    stride: 1
    weight_filler {
      type: "msra"
    }
  }
}
layer {
  name: "bn3b2_branch2a"
  type: "BatchNorm"
  bottom: "res3b2_branch2a"
  top: "res3b2_branch2a"
  batch_norm_param {
    use_global_stats: false
  }
}
layer {
  name: "scale3b2_branch2a"
  type: "Scale"
  bottom: "res3b2_branch2a"
  top: "res3b2_branch2a"
  scale_param {
    bias_term: true
  }
}
layer {
  name: "res3b2_branch2a_relu"
  type: "ReLU"
  bottom: "res3b2_branch2a"
  top: "res3b2_branch2a"
}
layer {
  name: "res3b2_branch2b"
  type: "Convolution"
  bottom: "res3b2_branch2a"
  top: "res3b2_branch2b"
  convolution_param {
    num_output: 128
    bias_term: false
    pad: 1
    kernel_size: 3
    stride: 1
    weight_filler {
      type: "msra"
    }
  }
}
layer {
  name: "bn3b2_branch2b"
  type: "BatchNorm"
  bottom: "res3b2_branch2b"
  top: "res3b2_branch2b"
  batch_norm_param {
    use_global_stats: false
  }
}
layer {
  name: "scale3b2_branch2b"
  type: "Scale"
  bottom: "res3b2_branch2b"
  top: "res3b2_branch2b"
  scale_param {
    bias_term: true
  }
}
layer {
  name: "res3b2_branch2b_relu"
  type: "ReLU"
  bottom: "res3b2_branch2b"
  top: "res3b2_branch2b"
}
layer {
  name: "res3b2_branch2c"
  type: "Convolution"
  bottom: "res3b2_branch2b"
  top: "res3b2_branch2c"
  convolution_param {
    num_output: 512
    bias_term: false
    pad: 0
    kernel_size: 1
    stride: 1
    weight_filler {
      type: "msra"
    }
  }
}
layer {
  name: "bn3b2_branch2c"
  type: "BatchNorm"
  bottom: "res3b2_branch2c"
  top: "res3b2_branch2c"
  batch_norm_param {
    use_global_stats: false
  }
}
layer {
  name: "scale3b2_branch2c"
  type: "Scale"
  bottom: "res3b2_branch2c"
  top: "res3b2_branch2c"
  scale_param {
    bias_term: true
  }
}
layer {
  name: "res3b2"
  type: "Eltwise"
  bottom: "res3b1"
  bottom: "res3b2_branch2c"
  top: "res3b2"
  eltwise_param {
    operation: SUM
  }
}
layer {
  name: "res3b2_relu"
  type: "ReLU"
  bottom: "res3b2"
  top: "res3b2"
}
layer {
  name: "res3b3_branch2a"
  type: "Convolution"
  bottom: "res3b2"
  top: "res3b3_branch2a"
  convolution_param {
    num_output: 128
    bias_term: false
    pad: 0
    kernel_size: 1
    stride: 1
    weight_filler {
      type: "msra"
    }
  }
}
layer {
  name: "bn3b3_branch2a"
  type: "BatchNorm"
  bottom: "res3b3_branch2a"
  top: "res3b3_branch2a"
  batch_norm_param {
    use_global_stats: false
  }
}
layer {
  name: "scale3b3_branch2a"
  type: "Scale"
  bottom: "res3b3_branch2a"
  top: "res3b3_branch2a"
  scale_param {
    bias_term: true
  }
}
layer {
  name: "res3b3_branch2a_relu"
  type: "ReLU"
  bottom: "res3b3_branch2a"
  top: "res3b3_branch2a"
}
layer {
  name: "res3b3_branch2b"
  type: "Convolution"
  bottom: "res3b3_branch2a"
  top: "res3b3_branch2b"
  convolution_param {
    num_output: 128
    bias_term: false
    pad: 1
    kernel_size: 3
    stride: 1
    weight_filler {
      type: "msra"
    }
  }
}
layer {
  name: "bn3b3_branch2b"
  type: "BatchNorm"
  bottom: "res3b3_branch2b"
  top: "res3b3_branch2b"
  batch_norm_param {
    use_global_stats: false
  }
}
layer {
  name: "scale3b3_branch2b"
  type: "Scale"
  bottom: "res3b3_branch2b"
  top: "res3b3_branch2b"
  scale_param {
    bias_term: true
  }
}
layer {
  name: "res3b3_branch2b_relu"
  type: "ReLU"
  bottom: "res3b3_branch2b"
  top: "res3b3_branch2b"
}
layer {
  name: "res3b3_branch2c"
  type: "Convolution"
  bottom: "res3b3_branch2b"
  top: "res3b3_branch2c"
  convolution_param {
    num_output: 512
    bias_term: false
    pad: 0
    kernel_size: 1
    stride: 1
    weight_filler {
      type: "msra"
    }
  }
}
layer {
  name: "bn3b3_branch2c"
  type: "BatchNorm"
  bottom: "res3b3_branch2c"
  top: "res3b3_branch2c"
  batch_norm_param {
    use_global_stats: false
  }
}
layer {
  name: "scale3b3_branch2c"
  type: "Scale"
  bottom: "res3b3_branch2c"
  top: "res3b3_branch2c"
  scale_param {
    bias_term: true
  }
}
layer {
  name: "res3b3"
  type: "Eltwise"
  bottom: "res3b2"
  bottom: "res3b3_branch2c"
  top: "res3b3"
  eltwise_param {
    operation: SUM
  }
}
layer {
  name: "res3b3_relu"
  type: "ReLU"
  bottom: "res3b3"
  top: "res3b3"
}
layer {
  name: "res3b4_branch2a"
  type: "Convolution"
  bottom: "res3b3"
  top: "res3b4_branch2a"
  convolution_param {
    num_output: 128
    bias_term: false
    pad: 0
    kernel_size: 1
    stride: 1
    weight_filler {
      type: "msra"
    }
  }
}
layer {
  name: "bn3b4_branch2a"
  type: "BatchNorm"
  bottom: "res3b4_branch2a"
  top: "res3b4_branch2a"
  batch_norm_param {
    use_global_stats: false
  }
}
layer {
  name: "scale3b4_branch2a"
  type: "Scale"
  bottom: "res3b4_branch2a"
  top: "res3b4_branch2a"
  scale_param {
    bias_term: true
  }
}
layer {
  name: "res3b4_branch2a_relu"
  type: "ReLU"
  bottom: "res3b4_branch2a"
  top: "res3b4_branch2a"
}
layer {
  name: "res3b4_branch2b"
  type: "Convolution"
  bottom: "res3b4_branch2a"
  top: "res3b4_branch2b"
  convolution_param {
    num_output: 128
    bias_term: false
    pad: 1
    kernel_size: 3
    stride: 1
    weight_filler {
      type: "msra"
    }
  }
}
layer {
  name: "bn3b4_branch2b"
  type: "BatchNorm"
  bottom: "res3b4_branch2b"
  top: "res3b4_branch2b"
  batch_norm_param {
    use_global_stats: false
  }
}
layer {
  name: "scale3b4_branch2b"
  type: "Scale"
  bottom: "res3b4_branch2b"
  top: "res3b4_branch2b"
  scale_param {
    bias_term: true
  }
}
layer {
  name: "res3b4_branch2b_relu"
  type: "ReLU"
  bottom: "res3b4_branch2b"
  top: "res3b4_branch2b"
}
layer {
  name: "res3b4_branch2c"
  type: "Convolution"
  bottom: "res3b4_branch2b"
  top: "res3b4_branch2c"
  convolution_param {
    num_output: 512
    bias_term: false
    pad: 0
    kernel_size: 1
    stride: 1
    weight_filler {
      type: "msra"
    }
  }
}
layer {
  name: "bn3b4_branch2c"
  type: "BatchNorm"
  bottom: "res3b4_branch2c"
  top: "res3b4_branch2c"
  batch_norm_param {
    use_global_stats: false
  }
}
layer {
  name: "scale3b4_branch2c"
  type: "Scale"
  bottom: "res3b4_branch2c"
  top: "res3b4_branch2c"
  scale_param {
    bias_term: true
  }
}
layer {
  name: "res3b4"
  type: "Eltwise"
  bottom: "res3b3"
  bottom: "res3b4_branch2c"
  top: "res3b4"
  eltwise_param {
    operation: SUM
  }
}
layer {
  name: "res3b4_relu"
  type: "ReLU"
  bottom: "res3b4"
  top: "res3b4"
}
layer {
  name: "res3b5_branch2a"
  type: "Convolution"
  bottom: "res3b4"
  top: "res3b5_branch2a"
  convolution_param {
    num_output: 128
    bias_term: false
    pad: 0
    kernel_size: 1
    stride: 1
    weight_filler {
      type: "msra"
    }
  }
}
layer {
  name: "bn3b5_branch2a"
  type: "BatchNorm"
  bottom: "res3b5_branch2a"
  top: "res3b5_branch2a"
  batch_norm_param {
    use_global_stats: false
  }
}
layer {
  name: "scale3b5_branch2a"
  type: "Scale"
  bottom: "res3b5_branch2a"
  top: "res3b5_branch2a"
  scale_param {
    bias_term: true
  }
}
layer {
  name: "res3b5_branch2a_relu"
  type: "ReLU"
  bottom: "res3b5_branch2a"
  top: "res3b5_branch2a"
}
layer {
  name: "res3b5_branch2b"
  type: "Convolution"
  bottom: "res3b5_branch2a"
  top: "res3b5_branch2b"
  convolution_param {
    num_output: 128
    bias_term: false
    pad: 1
    kernel_size: 3
    stride: 1
    weight_filler {
      type: "msra"
    }
  }
}
layer {
  name: "bn3b5_branch2b"
  type: "BatchNorm"
  bottom: "res3b5_branch2b"
  top: "res3b5_branch2b"
  batch_norm_param {
    use_global_stats: false
  }
}
layer {
  name: "scale3b5_branch2b"
  type: "Scale"
  bottom: "res3b5_branch2b"
  top: "res3b5_branch2b"
  scale_param {
    bias_term: true
  }
}
layer {
  name: "res3b5_branch2b_relu"
  type: "ReLU"
  bottom: "res3b5_branch2b"
  top: "res3b5_branch2b"
}
layer {
  name: "res3b5_branch2c"
  type: "Convolution"
  bottom: "res3b5_branch2b"
  top: "res3b5_branch2c"
  convolution_param {
    num_output: 512
    bias_term: false
    pad: 0
    kernel_size: 1
    stride: 1
    weight_filler {
      type: "msra"
    }
  }
}
layer {
  name: "bn3b5_branch2c"
  type: "BatchNorm"
  bottom: "res3b5_branch2c"
  top: "res3b5_branch2c"
  batch_norm_param {
    use_global_stats: false
  }
}
layer {
  name: "scale3b5_branch2c"
  type: "Scale"
  bottom: "res3b5_branch2c"
  top: "res3b5_branch2c"
  scale_param {
    bias_term: true
  }
}
layer {
  name: "res3b5"
  type: "Eltwise"
  bottom: "res3b4"
  bottom: "res3b5_branch2c"
  top: "res3b5"
  eltwise_param {
    operation: SUM
  }
}
layer {
  name: "res3b5_relu"
  type: "ReLU"
  bottom: "res3b5"
  top: "res3b5"
}
layer {
  name: "res3b6_branch2a"
  type: "Convolution"
  bottom: "res3b5"
  top: "res3b6_branch2a"
  convolution_param {
    num_output: 128
    bias_term: false
    pad: 0
    kernel_size: 1
    stride: 1
    weight_filler {
      type: "msra"
    }
  }
}
layer {
  name: "bn3b6_branch2a"
  type: "BatchNorm"
  bottom: "res3b6_branch2a"
  top: "res3b6_branch2a"
  batch_norm_param {
    use_global_stats: false
  }
}
layer {
  name: "scale3b6_branch2a"
  type: "Scale"
  bottom: "res3b6_branch2a"
  top: "res3b6_branch2a"
  scale_param {
    bias_term: true
  }
}
layer {
  name: "res3b6_branch2a_relu"
  type: "ReLU"
  bottom: "res3b6_branch2a"
  top: "res3b6_branch2a"
}
layer {
  name: "res3b6_branch2b"
  type: "Convolution"
  bottom: "res3b6_branch2a"
  top: "res3b6_branch2b"
  convolution_param {
    num_output: 128
    bias_term: false
    pad: 1
    kernel_size: 3
    stride: 1
    weight_filler {
      type: "msra"
    }
  }
}
layer {
  name: "bn3b6_branch2b"
  type: "BatchNorm"
  bottom: "res3b6_branch2b"
  top: "res3b6_branch2b"
  batch_norm_param {
    use_global_stats: false
  }
}
layer {
  name: "scale3b6_branch2b"
  type: "Scale"
  bottom: "res3b6_branch2b"
  top: "res3b6_branch2b"
  scale_param {
    bias_term: true
  }
}
layer {
  name: "res3b6_branch2b_relu"
  type: "ReLU"
  bottom: "res3b6_branch2b"
  top: "res3b6_branch2b"
}
layer {
  name: "res3b6_branch2c"
  type: "Convolution"
  bottom: "res3b6_branch2b"
  top: "res3b6_branch2c"
  convolution_param {
    num_output: 512
    bias_term: false
    pad: 0
    kernel_size: 1
    stride: 1
    weight_filler {
      type: "msra"
    }
  }
}
layer {
  name: "bn3b6_branch2c"
  type: "BatchNorm"
  bottom: "res3b6_branch2c"
  top: "res3b6_branch2c"
  batch_norm_param {
    use_global_stats: false
  }
}
layer {
  name: "scale3b6_branch2c"
  type: "Scale"
  bottom: "res3b6_branch2c"
  top: "res3b6_branch2c"
  scale_param {
    bias_term: true
  }
}
layer {
  name: "res3b6"
  type: "Eltwise"
  bottom: "res3b5"
  bottom: "res3b6_branch2c"
  top: "res3b6"
  eltwise_param {
    operation: SUM
  }
}
layer {
  name: "res3b6_relu"
  type: "ReLU"
  bottom: "res3b6"
  top: "res3b6"
}
layer {
  name: "res3b7_branch2a"
  type: "Convolution"
  bottom: "res3b6"
  top: "res3b7_branch2a"
  convolution_param {
    num_output: 128
    bias_term: false
    pad: 0
    kernel_size: 1
    stride: 1
    weight_filler {
      type: "msra"
    }
  }
}
layer {
  name: "bn3b7_branch2a"
  type: "BatchNorm"
  bottom: "res3b7_branch2a"
  top: "res3b7_branch2a"
  batch_norm_param {
    use_global_stats: false
  }
}
layer {
  name: "scale3b7_branch2a"
  type: "Scale"
  bottom: "res3b7_branch2a"
  top: "res3b7_branch2a"
  scale_param {
    bias_term: true
  }
}
layer {
  name: "res3b7_branch2a_relu"
  type: "ReLU"
  bottom: "res3b7_branch2a"
  top: "res3b7_branch2a"
}
layer {
  name: "res3b7_branch2b"
  type: "Convolution"
  bottom: "res3b7_branch2a"
  top: "res3b7_branch2b"
  convolution_param {
    num_output: 128
    bias_term: false
    pad: 1
    kernel_size: 3
    stride: 1
    weight_filler {
      type: "msra"
    }
  }
}
layer {
  name: "bn3b7_branch2b"
  type: "BatchNorm"
  bottom: "res3b7_branch2b"
  top: "res3b7_branch2b"
  batch_norm_param {
    use_global_stats: false
  }
}
layer {
  name: "scale3b7_branch2b"
  type: "Scale"
  bottom: "res3b7_branch2b"
  top: "res3b7_branch2b"
  scale_param {
    bias_term: true
  }
}
layer {
  name: "res3b7_branch2b_relu"
  type: "ReLU"
  bottom: "res3b7_branch2b"
  top: "res3b7_branch2b"
}
layer {
  name: "res3b7_branch2c"
  type: "Convolution"
  bottom: "res3b7_branch2b"
  top: "res3b7_branch2c"
  convolution_param {
    num_output: 512
    bias_term: false
    pad: 0
    kernel_size: 1
    stride: 1
    weight_filler {
      type: "msra"
    }
  }
}
layer {
  name: "bn3b7_branch2c"
  type: "BatchNorm"
  bottom: "res3b7_branch2c"
  top: "res3b7_branch2c"
  batch_norm_param {
    use_global_stats: false
  }
}
layer {
  name: "scale3b7_branch2c"
  type: "Scale"
  bottom: "res3b7_branch2c"
  top: "res3b7_branch2c"
  scale_param {
    bias_term: true
  }
}
layer {
  name: "res3b7"
  type: "Eltwise"
  bottom: "res3b6"
  bottom: "res3b7_branch2c"
  top: "res3b7"
  eltwise_param {
    operation: SUM
  }
}
layer {
  name: "res3b7_relu"
  type: "ReLU"
  bottom: "res3b7"
  top: "res3b7"
}
layer {
  name: "res4a_branch1"
  type: "Convolution"
  bottom: "res3b7"
  top: "res4a_branch1"
  convolution_param {
    num_output: 1024
    bias_term: false
    pad: 0
    kernel_size: 1
    stride: 2
    weight_filler {
      type: "msra"
    }
  }
}
layer {
  name: "bn4a_branch1"
  type: "BatchNorm"
  bottom: "res4a_branch1"
  top: "res4a_branch1"
  batch_norm_param {
    use_global_stats: false
  }
}
layer {
  name: "scale4a_branch1"
  type: "Scale"
  bottom: "res4a_branch1"
  top: "res4a_branch1"
  scale_param {
    bias_term: true
  }
}
layer {
  name: "res4a_branch2a"
  type: "Convolution"
  bottom: "res3b7"
  top: "res4a_branch2a"
  convolution_param {
    num_output: 256
    bias_term: false
    pad: 0
    kernel_size: 1
    stride: 2
    weight_filler {
      type: "msra"
    }
  }
}
layer {
  name: "bn4a_branch2a"
  type: "BatchNorm"
  bottom: "res4a_branch2a"
  top: "res4a_branch2a"
  batch_norm_param {
    use_global_stats: false
  }
}
layer {
  name: "scale4a_branch2a"
  type: "Scale"
  bottom: "res4a_branch2a"
  top: "res4a_branch2a"
  scale_param {
    bias_term: true
  }
}
layer {
  name: "res4a_branch2a_relu"
  type: "ReLU"
  bottom: "res4a_branch2a"
  top: "res4a_branch2a"
}
layer {
  name: "res4a_branch2b"
  type: "Convolution"
  bottom: "res4a_branch2a"
  top: "res4a_branch2b"
  convolution_param {
    num_output: 256
    bias_term: false
    pad: 1
    kernel_size: 3
    stride: 1
    weight_filler {
      type: "msra"
    }
  }
}
layer {
  name: "bn4a_branch2b"
  type: "BatchNorm"
  bottom: "res4a_branch2b"
  top: "res4a_branch2b"
  batch_norm_param {
    use_global_stats: false
  }
}
layer {
  name: "scale4a_branch2b"
  type: "Scale"
  bottom: "res4a_branch2b"
  top: "res4a_branch2b"
  scale_param {
    bias_term: true
  }
}
layer {
  name: "res4a_branch2b_relu"
  type: "ReLU"
  bottom: "res4a_branch2b"
  top: "res4a_branch2b"
}
layer {
  name: "res4a_branch2c"
  type: "Convolution"
  bottom: "res4a_branch2b"
  top: "res4a_branch2c"
  convolution_param {
    num_output: 1024
    bias_term: false
    pad: 0
    kernel_size: 1
    stride: 1
    weight_filler {
      type: "msra"
    }
  }
}
layer {
  name: "bn4a_branch2c"
  type: "BatchNorm"
  bottom: "res4a_branch2c"
  top: "res4a_branch2c"
  batch_norm_param {
    use_global_stats: false
  }
}
layer {
  name: "scale4a_branch2c"
  type: "Scale"
  bottom: "res4a_branch2c"
  top: "res4a_branch2c"
  scale_param {
    bias_term: true
  }
}
layer {
  name: "res4a"
  type: "Eltwise"
  bottom: "res4a_branch1"
  bottom: "res4a_branch2c"
  top: "res4a"
  eltwise_param {
    operation: SUM
  }
}
layer {
  name: "res4a_relu"
  type: "ReLU"
  bottom: "res4a"
  top: "res4a"
}
layer {
  name: "res4b1_branch2a"
  type: "Convolution"
  bottom: "res4a"
  top: "res4b1_branch2a"
  convolution_param {
    num_output: 256
    bias_term: false
    pad: 0
    kernel_size: 1
    stride: 1
    weight_filler {
      type: "msra"
    }
  }
}
layer {
  name: "bn4b1_branch2a"
  type: "BatchNorm"
  bottom: "res4b1_branch2a"
  top: "res4b1_branch2a"
  batch_norm_param {
    use_global_stats: false
  }
}
layer {
  name: "scale4b1_branch2a"
  type: "Scale"
  bottom: "res4b1_branch2a"
  top: "res4b1_branch2a"
  scale_param {
    bias_term: true
  }
}
layer {
  name: "res4b1_branch2a_relu"
  type: "ReLU"
  bottom: "res4b1_branch2a"
  top: "res4b1_branch2a"
}
layer {
  name: "res4b1_branch2b"
  type: "Convolution"
  bottom: "res4b1_branch2a"
  top: "res4b1_branch2b"
  convolution_param {
    num_output: 256
    bias_term: false
    pad: 1
    kernel_size: 3
    stride: 1
    weight_filler {
      type: "msra"
    }
  }
}
layer {
  name: "bn4b1_branch2b"
  type: "BatchNorm"
  bottom: "res4b1_branch2b"
  top: "res4b1_branch2b"
  batch_norm_param {
    use_global_stats: false
  }
}
layer {
  name: "scale4b1_branch2b"
  type: "Scale"
  bottom: "res4b1_branch2b"
  top: "res4b1_branch2b"
  scale_param {
    bias_term: true
  }
}
layer {
  name: "res4b1_branch2b_relu"
  ty
I0413 22:35:23.921288 29631 layer_factory.hpp:77] Creating layer data
I0413 22:35:23.921392 29631 db_lmdb.cpp:35] Opened lmdb /home/danilo/Documents/FGA/2018-1/TCC1/Datasets/Atlas_5k_lmdb/train
I0413 22:35:23.921414 29631 net.cpp:84] Creating Layer data
I0413 22:35:23.921425 29631 net.cpp:380] data -> data
I0413 22:35:23.921439 29631 net.cpp:380] data -> label
I0413 22:35:23.921453 29631 data_transformer.cpp:25] Loading mean file from: /home/danilo/Documents/FGA/2018-1/TCC1/Datasets/Atlas_5k_lmdb/input/mean.binaryproto
I0413 22:35:23.926236 29631 data_layer.cpp:45] output data size: 5,3,224,224
I0413 22:35:23.933746 29631 net.cpp:122] Setting up data
I0413 22:35:23.933765 29631 net.cpp:129] Top shape: 5 3 224 224 (752640)
I0413 22:35:23.933770 29631 net.cpp:129] Top shape: 5 (5)
I0413 22:35:23.933773 29631 net.cpp:137] Memory required for data: 3010580
I0413 22:35:23.933778 29631 layer_factory.hpp:77] Creating layer conv1
I0413 22:35:23.933789 29631 net.cpp:84] Creating Layer conv1
I0413 22:35:23.933792 29631 net.cpp:406] conv1 <- data
I0413 22:35:23.933799 29631 net.cpp:380] conv1 -> conv1
I0413 22:35:27.140388 29631 net.cpp:122] Setting up conv1
I0413 22:35:27.140409 29631 net.cpp:129] Top shape: 5 64 112 112 (4014080)
I0413 22:35:27.140413 29631 net.cpp:137] Memory required for data: 19066900
I0413 22:35:27.140422 29631 layer_factory.hpp:77] Creating layer bn_conv1
I0413 22:35:27.140430 29631 net.cpp:84] Creating Layer bn_conv1
I0413 22:35:27.140449 29631 net.cpp:406] bn_conv1 <- conv1
I0413 22:35:27.140455 29631 net.cpp:367] bn_conv1 -> conv1 (in-place)
I0413 22:35:27.140800 29631 net.cpp:122] Setting up bn_conv1
I0413 22:35:27.140817 29631 net.cpp:129] Top shape: 5 64 112 112 (4014080)
I0413 22:35:27.140823 29631 net.cpp:137] Memory required for data: 35123220
I0413 22:35:27.140836 29631 layer_factory.hpp:77] Creating layer scale_conv1
I0413 22:35:27.140844 29631 net.cpp:84] Creating Layer scale_conv1
I0413 22:35:27.140851 29631 net.cpp:406] scale_conv1 <- conv1
I0413 22:35:27.140857 29631 net.cpp:367] scale_conv1 -> conv1 (in-place)
I0413 22:35:27.140931 29631 layer_factory.hpp:77] Creating layer scale_conv1
I0413 22:35:27.141157 29631 net.cpp:122] Setting up scale_conv1
I0413 22:35:27.141167 29631 net.cpp:129] Top shape: 5 64 112 112 (4014080)
I0413 22:35:27.141171 29631 net.cpp:137] Memory required for data: 51179540
I0413 22:35:27.141180 29631 layer_factory.hpp:77] Creating layer conv1_relu
I0413 22:35:27.141188 29631 net.cpp:84] Creating Layer conv1_relu
I0413 22:35:27.141193 29631 net.cpp:406] conv1_relu <- conv1
I0413 22:35:27.141201 29631 net.cpp:367] conv1_relu -> conv1 (in-place)
I0413 22:35:27.141903 29631 net.cpp:122] Setting up conv1_relu
I0413 22:35:27.141916 29631 net.cpp:129] Top shape: 5 64 112 112 (4014080)
I0413 22:35:27.141919 29631 net.cpp:137] Memory required for data: 67235860
I0413 22:35:27.141922 29631 layer_factory.hpp:77] Creating layer pool1
I0413 22:35:27.141928 29631 net.cpp:84] Creating Layer pool1
I0413 22:35:27.141932 29631 net.cpp:406] pool1 <- conv1
I0413 22:35:27.141937 29631 net.cpp:380] pool1 -> pool1
I0413 22:35:27.142002 29631 net.cpp:122] Setting up pool1
I0413 22:35:27.142014 29631 net.cpp:129] Top shape: 5 64 56 56 (1003520)
I0413 22:35:27.142019 29631 net.cpp:137] Memory required for data: 71249940
I0413 22:35:27.142024 29631 layer_factory.hpp:77] Creating layer pool1_pool1_0_split
I0413 22:35:27.142038 29631 net.cpp:84] Creating Layer pool1_pool1_0_split
I0413 22:35:27.142043 29631 net.cpp:406] pool1_pool1_0_split <- pool1
I0413 22:35:27.142051 29631 net.cpp:380] pool1_pool1_0_split -> pool1_pool1_0_split_0
I0413 22:35:27.142061 29631 net.cpp:380] pool1_pool1_0_split -> pool1_pool1_0_split_1
I0413 22:35:27.142120 29631 net.cpp:122] Setting up pool1_pool1_0_split
I0413 22:35:27.142130 29631 net.cpp:129] Top shape: 5 64 56 56 (1003520)
I0413 22:35:27.142138 29631 net.cpp:129] Top shape: 5 64 56 56 (1003520)
I0413 22:35:27.142141 29631 net.cpp:137] Memory required for data: 79278100
I0413 22:35:27.142146 29631 layer_factory.hpp:77] Creating layer res2a_branch1
I0413 22:35:27.142158 29631 net.cpp:84] Creating Layer res2a_branch1
I0413 22:35:27.142163 29631 net.cpp:406] res2a_branch1 <- pool1_pool1_0_split_0
I0413 22:35:27.142169 29631 net.cpp:380] res2a_branch1 -> res2a_branch1
I0413 22:35:27.144881 29631 net.cpp:122] Setting up res2a_branch1
I0413 22:35:27.144893 29631 net.cpp:129] Top shape: 5 256 56 56 (4014080)
I0413 22:35:27.144897 29631 net.cpp:137] Memory required for data: 95334420
I0413 22:35:27.144902 29631 layer_factory.hpp:77] Creating layer bn2a_branch1
I0413 22:35:27.144909 29631 net.cpp:84] Creating Layer bn2a_branch1
I0413 22:35:27.144912 29631 net.cpp:406] bn2a_branch1 <- res2a_branch1
I0413 22:35:27.144917 29631 net.cpp:367] bn2a_branch1 -> res2a_branch1 (in-place)
I0413 22:35:27.146301 29631 net.cpp:122] Setting up bn2a_branch1
I0413 22:35:27.146317 29631 net.cpp:129] Top shape: 5 256 56 56 (4014080)
I0413 22:35:27.146322 29631 net.cpp:137] Memory required for data: 111390740
I0413 22:35:27.146333 29631 layer_factory.hpp:77] Creating layer scale2a_branch1
I0413 22:35:27.146342 29631 net.cpp:84] Creating Layer scale2a_branch1
I0413 22:35:27.146347 29631 net.cpp:406] scale2a_branch1 <- res2a_branch1
I0413 22:35:27.146354 29631 net.cpp:367] scale2a_branch1 -> res2a_branch1 (in-place)
I0413 22:35:27.146422 29631 layer_factory.hpp:77] Creating layer scale2a_branch1
I0413 22:35:27.146622 29631 net.cpp:122] Setting up scale2a_branch1
I0413 22:35:27.146632 29631 net.cpp:129] Top shape: 5 256 56 56 (4014080)
I0413 22:35:27.146647 29631 net.cpp:137] Memory required for data: 127447060
I0413 22:35:27.146653 29631 layer_factory.hpp:77] Creating layer res2a_branch2a
I0413 22:35:27.146661 29631 net.cpp:84] Creating Layer res2a_branch2a
I0413 22:35:27.146664 29631 net.cpp:406] res2a_branch2a <- pool1_pool1_0_split_1
I0413 22:35:27.146669 29631 net.cpp:380] res2a_branch2a -> res2a_branch2a
I0413 22:35:27.149597 29631 net.cpp:122] Setting up res2a_branch2a
I0413 22:35:27.149610 29631 net.cpp:129] Top shape: 5 64 56 56 (1003520)
I0413 22:35:27.149613 29631 net.cpp:137] Memory required for data: 131461140
I0413 22:35:27.149618 29631 layer_factory.hpp:77] Creating layer bn2a_branch2a
I0413 22:35:27.149626 29631 net.cpp:84] Creating Layer bn2a_branch2a
I0413 22:35:27.149629 29631 net.cpp:406] bn2a_branch2a <- res2a_branch2a
I0413 22:35:27.149634 29631 net.cpp:367] bn2a_branch2a -> res2a_branch2a (in-place)
I0413 22:35:27.149978 29631 net.cpp:122] Setting up bn2a_branch2a
I0413 22:35:27.149992 29631 net.cpp:129] Top shape: 5 64 56 56 (1003520)
I0413 22:35:27.149997 29631 net.cpp:137] Memory required for data: 135475220
I0413 22:35:27.150007 29631 layer_factory.hpp:77] Creating layer scale2a_branch2a
I0413 22:35:27.150017 29631 net.cpp:84] Creating Layer scale2a_branch2a
I0413 22:35:27.150020 29631 net.cpp:406] scale2a_branch2a <- res2a_branch2a
I0413 22:35:27.150025 29631 net.cpp:367] scale2a_branch2a -> res2a_branch2a (in-place)
I0413 22:35:27.150099 29631 layer_factory.hpp:77] Creating layer scale2a_branch2a
I0413 22:35:27.150318 29631 net.cpp:122] Setting up scale2a_branch2a
I0413 22:35:27.150329 29631 net.cpp:129] Top shape: 5 64 56 56 (1003520)
I0413 22:35:27.150334 29631 net.cpp:137] Memory required for data: 139489300
I0413 22:35:27.150344 29631 layer_factory.hpp:77] Creating layer res2a_branch2a_relu
I0413 22:35:27.150354 29631 net.cpp:84] Creating Layer res2a_branch2a_relu
I0413 22:35:27.150360 29631 net.cpp:406] res2a_branch2a_relu <- res2a_branch2a
I0413 22:35:27.150367 29631 net.cpp:367] res2a_branch2a_relu -> res2a_branch2a (in-place)
I0413 22:35:27.151232 29631 net.cpp:122] Setting up res2a_branch2a_relu
I0413 22:35:27.151244 29631 net.cpp:129] Top shape: 5 64 56 56 (1003520)
I0413 22:35:27.151248 29631 net.cpp:137] Memory required for data: 143503380
I0413 22:35:27.151253 29631 layer_factory.hpp:77] Creating layer res2a_branch2b
I0413 22:35:27.151265 29631 net.cpp:84] Creating Layer res2a_branch2b
I0413 22:35:27.151271 29631 net.cpp:406] res2a_branch2b <- res2a_branch2a
I0413 22:35:27.151279 29631 net.cpp:380] res2a_branch2b -> res2a_branch2b
I0413 22:35:27.163456 29631 net.cpp:122] Setting up res2a_branch2b
I0413 22:35:27.163475 29631 net.cpp:129] Top shape: 5 64 56 56 (1003520)
I0413 22:35:27.163478 29631 net.cpp:137] Memory required for data: 147517460
I0413 22:35:27.163486 29631 layer_factory.hpp:77] Creating layer bn2a_branch2b
I0413 22:35:27.163494 29631 net.cpp:84] Creating Layer bn2a_branch2b
I0413 22:35:27.163498 29631 net.cpp:406] bn2a_branch2b <- res2a_branch2b
I0413 22:35:27.163503 29631 net.cpp:367] bn2a_branch2b -> res2a_branch2b (in-place)
I0413 22:35:27.163883 29631 net.cpp:122] Setting up bn2a_branch2b
I0413 22:35:27.163898 29631 net.cpp:129] Top shape: 5 64 56 56 (1003520)
I0413 22:35:27.163903 29631 net.cpp:137] Memory required for data: 151531540
I0413 22:35:27.163913 29631 layer_factory.hpp:77] Creating layer scale2a_branch2b
I0413 22:35:27.163923 29631 net.cpp:84] Creating Layer scale2a_branch2b
I0413 22:35:27.163928 29631 net.cpp:406] scale2a_branch2b <- res2a_branch2b
I0413 22:35:27.163935 29631 net.cpp:367] scale2a_branch2b -> res2a_branch2b (in-place)
I0413 22:35:27.164008 29631 layer_factory.hpp:77] Creating layer scale2a_branch2b
I0413 22:35:27.164237 29631 net.cpp:122] Setting up scale2a_branch2b
I0413 22:35:27.164249 29631 net.cpp:129] Top shape: 5 64 56 56 (1003520)
I0413 22:35:27.164254 29631 net.cpp:137] Memory required for data: 155545620
I0413 22:35:27.164260 29631 layer_factory.hpp:77] Creating layer res2a_branch2b_relu
I0413 22:35:27.164266 29631 net.cpp:84] Creating Layer res2a_branch2b_relu
I0413 22:35:27.164279 29631 net.cpp:406] res2a_branch2b_relu <- res2a_branch2b
I0413 22:35:27.164288 29631 net.cpp:367] res2a_branch2b_relu -> res2a_branch2b (in-place)
I0413 22:35:27.165176 29631 net.cpp:122] Setting up res2a_branch2b_relu
I0413 22:35:27.165192 29631 net.cpp:129] Top shape: 5 64 56 56 (1003520)
I0413 22:35:27.165197 29631 net.cpp:137] Memory required for data: 159559700
I0413 22:35:27.165202 29631 layer_factory.hpp:77] Creating layer res2a_branch2c
I0413 22:35:27.165213 29631 net.cpp:84] Creating Layer res2a_branch2c
I0413 22:35:27.165216 29631 net.cpp:406] res2a_branch2c <- res2a_branch2b
I0413 22:35:27.165222 29631 net.cpp:380] res2a_branch2c -> res2a_branch2c
I0413 22:35:27.168752 29631 net.cpp:122] Setting up res2a_branch2c
I0413 22:35:27.168771 29631 net.cpp:129] Top shape: 5 256 56 56 (4014080)
I0413 22:35:27.168774 29631 net.cpp:137] Memory required for data: 175616020
I0413 22:35:27.168781 29631 layer_factory.hpp:77] Creating layer bn2a_branch2c
I0413 22:35:27.168789 29631 net.cpp:84] Creating Layer bn2a_branch2c
I0413 22:35:27.168793 29631 net.cpp:406] bn2a_branch2c <- res2a_branch2c
I0413 22:35:27.168799 29631 net.cpp:367] bn2a_branch2c -> res2a_branch2c (in-place)
I0413 22:35:27.169178 29631 net.cpp:122] Setting up bn2a_branch2c
I0413 22:35:27.169193 29631 net.cpp:129] Top shape: 5 256 56 56 (4014080)
I0413 22:35:27.169198 29631 net.cpp:137] Memory required for data: 191672340
I0413 22:35:27.169209 29631 layer_factory.hpp:77] Creating layer scale2a_branch2c
I0413 22:35:27.169217 29631 net.cpp:84] Creating Layer scale2a_branch2c
I0413 22:35:27.169222 29631 net.cpp:406] scale2a_branch2c <- res2a_branch2c
I0413 22:35:27.169232 29631 net.cpp:367] scale2a_branch2c -> res2a_branch2c (in-place)
I0413 22:35:27.169301 29631 layer_factory.hpp:77] Creating layer scale2a_branch2c
I0413 22:35:27.169514 29631 net.cpp:122] Setting up scale2a_branch2c
I0413 22:35:27.169526 29631 net.cpp:129] Top shape: 5 256 56 56 (4014080)
I0413 22:35:27.169531 29631 net.cpp:137] Memory required for data: 207728660
I0413 22:35:27.169540 29631 layer_factory.hpp:77] Creating layer res2a
I0413 22:35:27.169548 29631 net.cpp:84] Creating Layer res2a
I0413 22:35:27.169555 29631 net.cpp:406] res2a <- res2a_branch1
I0413 22:35:27.169561 29631 net.cpp:406] res2a <- res2a_branch2c
I0413 22:35:27.169569 29631 net.cpp:380] res2a -> res2a
I0413 22:35:27.169611 29631 net.cpp:122] Setting up res2a
I0413 22:35:27.169623 29631 net.cpp:129] Top shape: 5 256 56 56 (4014080)
I0413 22:35:27.169628 29631 net.cpp:137] Memory required for data: 223784980
I0413 22:35:27.169632 29631 layer_factory.hpp:77] Creating layer res2a_relu
I0413 22:35:27.169639 29631 net.cpp:84] Creating Layer res2a_relu
I0413 22:35:27.169644 29631 net.cpp:406] res2a_relu <- res2a
I0413 22:35:27.169651 29631 net.cpp:367] res2a_relu -> res2a (in-place)
I0413 22:35:27.170863 29631 net.cpp:122] Setting up res2a_relu
I0413 22:35:27.170881 29631 net.cpp:129] Top shape: 5 256 56 56 (4014080)
I0413 22:35:27.170884 29631 net.cpp:137] Memory required for data: 239841300
I0413 22:35:27.170887 29631 layer_factory.hpp:77] Creating layer res2a_res2a_relu_0_split
I0413 22:35:27.170895 29631 net.cpp:84] Creating Layer res2a_res2a_relu_0_split
I0413 22:35:27.170899 29631 net.cpp:406] res2a_res2a_relu_0_split <- res2a
I0413 22:35:27.170907 29631 net.cpp:380] res2a_res2a_relu_0_split -> res2a_res2a_relu_0_split_0
I0413 22:35:27.170915 29631 net.cpp:380] res2a_res2a_relu_0_split -> res2a_res2a_relu_0_split_1
I0413 22:35:27.170995 29631 net.cpp:122] Setting up res2a_res2a_relu_0_split
I0413 22:35:27.171006 29631 net.cpp:129] Top shape: 5 256 56 56 (4014080)
I0413 22:35:27.171012 29631 net.cpp:129] Top shape: 5 256 56 56 (4014080)
I0413 22:35:27.171017 29631 net.cpp:137] Memory required for data: 271953940
I0413 22:35:27.171021 29631 layer_factory.hpp:77] Creating layer res2b_branch2a
I0413 22:35:27.171041 29631 net.cpp:84] Creating Layer res2b_branch2a
I0413 22:35:27.171048 29631 net.cpp:406] res2b_branch2a <- res2a_res2a_relu_0_split_0
I0413 22:35:27.171056 29631 net.cpp:380] res2b_branch2a -> res2b_branch2a
I0413 22:35:27.174083 29631 net.cpp:122] Setting up res2b_branch2a
I0413 22:35:27.174096 29631 net.cpp:129] Top shape: 5 64 56 56 (1003520)
I0413 22:35:27.174100 29631 net.cpp:137] Memory required for data: 275968020
I0413 22:35:27.174105 29631 layer_factory.hpp:77] Creating layer bn2b_branch2a
I0413 22:35:27.174113 29631 net.cpp:84] Creating Layer bn2b_branch2a
I0413 22:35:27.174118 29631 net.cpp:406] bn2b_branch2a <- res2b_branch2a
I0413 22:35:27.174125 29631 net.cpp:367] bn2b_branch2a -> res2b_branch2a (in-place)
I0413 22:35:27.174504 29631 net.cpp:122] Setting up bn2b_branch2a
I0413 22:35:27.174517 29631 net.cpp:129] Top shape: 5 64 56 56 (1003520)
I0413 22:35:27.174522 29631 net.cpp:137] Memory required for data: 279982100
I0413 22:35:27.174535 29631 layer_factory.hpp:77] Creating layer scale2b_branch2a
I0413 22:35:27.174546 29631 net.cpp:84] Creating Layer scale2b_branch2a
I0413 22:35:27.174552 29631 net.cpp:406] scale2b_branch2a <- res2b_branch2a
I0413 22:35:27.174559 29631 net.cpp:367] scale2b_branch2a -> res2b_branch2a (in-place)
I0413 22:35:27.174638 29631 layer_factory.hpp:77] Creating layer scale2b_branch2a
I0413 22:35:27.174854 29631 net.cpp:122] Setting up scale2b_branch2a
I0413 22:35:27.174867 29631 net.cpp:129] Top shape: 5 64 56 56 (1003520)
I0413 22:35:27.174872 29631 net.cpp:137] Memory required for data: 283996180
I0413 22:35:27.174880 29631 layer_factory.hpp:77] Creating layer res2b_branch2a_relu
I0413 22:35:27.174887 29631 net.cpp:84] Creating Layer res2b_branch2a_relu
I0413 22:35:27.174892 29631 net.cpp:406] res2b_branch2a_relu <- res2b_branch2a
I0413 22:35:27.174897 29631 net.cpp:367] res2b_branch2a_relu -> res2b_branch2a (in-place)
I0413 22:35:27.175912 29631 net.cpp:122] Setting up res2b_branch2a_relu
I0413 22:35:27.175925 29631 net.cpp:129] Top shape: 5 64 56 56 (1003520)
I0413 22:35:27.175927 29631 net.cpp:137] Memory required for data: 288010260
I0413 22:35:27.175930 29631 layer_factory.hpp:77] Creating layer res2b_branch2b
I0413 22:35:27.175938 29631 net.cpp:84] Creating Layer res2b_branch2b
I0413 22:35:27.175941 29631 net.cpp:406] res2b_branch2b <- res2b_branch2a
I0413 22:35:27.175945 29631 net.cpp:380] res2b_branch2b -> res2b_branch2b
I0413 22:35:27.178613 29631 net.cpp:122] Setting up res2b_branch2b
I0413 22:35:27.178624 29631 net.cpp:129] Top shape: 5 64 56 56 (1003520)
I0413 22:35:27.178627 29631 net.cpp:137] Memory required for data: 292024340
I0413 22:35:27.178632 29631 layer_factory.hpp:77] Creating layer bn2b_branch2b
I0413 22:35:27.178638 29631 net.cpp:84] Creating Layer bn2b_branch2b
I0413 22:35:27.178642 29631 net.cpp:406] bn2b_branch2b <- res2b_branch2b
I0413 22:35:27.178645 29631 net.cpp:367] bn2b_branch2b -> res2b_branch2b (in-place)
I0413 22:35:27.178966 29631 net.cpp:122] Setting up bn2b_branch2b
I0413 22:35:27.178977 29631 net.cpp:129] Top shape: 5 64 56 56 (1003520)
I0413 22:35:27.178980 29631 net.cpp:137] Memory required for data: 296038420
I0413 22:35:27.178988 29631 layer_factory.hpp:77] Creating layer scale2b_branch2b
I0413 22:35:27.178998 29631 net.cpp:84] Creating Layer scale2b_branch2b
I0413 22:35:27.179004 29631 net.cpp:406] scale2b_branch2b <- res2b_branch2b
I0413 22:35:27.179011 29631 net.cpp:367] scale2b_branch2b -> res2b_branch2b (in-place)
I0413 22:35:27.179080 29631 layer_factory.hpp:77] Creating layer scale2b_branch2b
I0413 22:35:27.179278 29631 net.cpp:122] Setting up scale2b_branch2b
I0413 22:35:27.179287 29631 net.cpp:129] Top shape: 5 64 56 56 (1003520)
I0413 22:35:27.179291 29631 net.cpp:137] Memory required for data: 300052500
I0413 22:35:27.179296 29631 layer_factory.hpp:77] Creating layer res2b_branch2b_relu
I0413 22:35:27.179301 29631 net.cpp:84] Creating Layer res2b_branch2b_relu
I0413 22:35:27.179306 29631 net.cpp:406] res2b_branch2b_relu <- res2b_branch2b
I0413 22:35:27.179316 29631 net.cpp:367] res2b_branch2b_relu -> res2b_branch2b (in-place)
I0413 22:35:27.180096 29631 net.cpp:122] Setting up res2b_branch2b_relu
I0413 22:35:27.180109 29631 net.cpp:129] Top shape: 5 64 56 56 (1003520)
I0413 22:35:27.180124 29631 net.cpp:137] Memory required for data: 304066580
I0413 22:35:27.180130 29631 layer_factory.hpp:77] Creating layer res2b_branch2c
I0413 22:35:27.180143 29631 net.cpp:84] Creating Layer res2b_branch2c
I0413 22:35:27.180150 29631 net.cpp:406] res2b_branch2c <- res2b_branch2b
I0413 22:35:27.180158 29631 net.cpp:380] res2b_branch2c -> res2b_branch2c
I0413 22:35:27.182651 29631 net.cpp:122] Setting up res2b_branch2c
I0413 22:35:27.182662 29631 net.cpp:129] Top shape: 5 256 56 56 (4014080)
I0413 22:35:27.182665 29631 net.cpp:137] Memory required for data: 320122900
I0413 22:35:27.182669 29631 layer_factory.hpp:77] Creating layer bn2b_branch2c
I0413 22:35:27.182675 29631 net.cpp:84] Creating Layer bn2b_branch2c
I0413 22:35:27.182679 29631 net.cpp:406] bn2b_branch2c <- res2b_branch2c
I0413 22:35:27.182684 29631 net.cpp:367] bn2b_branch2c -> res2b_branch2c (in-place)
I0413 22:35:27.182942 29631 net.cpp:122] Setting up bn2b_branch2c
I0413 22:35:27.182952 29631 net.cpp:129] Top shape: 5 256 56 56 (4014080)
I0413 22:35:27.182956 29631 net.cpp:137] Memory required for data: 336179220
I0413 22:35:27.182965 29631 layer_factory.hpp:77] Creating layer scale2b_branch2c
I0413 22:35:27.182972 29631 net.cpp:84] Creating Layer scale2b_branch2c
I0413 22:35:27.182977 29631 net.cpp:406] scale2b_branch2c <- res2b_branch2c
I0413 22:35:27.182982 29631 net.cpp:367] scale2b_branch2c -> res2b_branch2c (in-place)
I0413 22:35:27.183037 29631 layer_factory.hpp:77] Creating layer scale2b_branch2c
I0413 22:35:27.183163 29631 net.cpp:122] Setting up scale2b_branch2c
I0413 22:35:27.183172 29631 net.cpp:129] Top shape: 5 256 56 56 (4014080)
I0413 22:35:27.183176 29631 net.cpp:137] Memory required for data: 352235540
I0413 22:35:27.183182 29631 layer_factory.hpp:77] Creating layer res2b
I0413 22:35:27.183189 29631 net.cpp:84] Creating Layer res2b
I0413 22:35:27.183195 29631 net.cpp:406] res2b <- res2a_res2a_relu_0_split_1
I0413 22:35:27.183200 29631 net.cpp:406] res2b <- res2b_branch2c
I0413 22:35:27.183207 29631 net.cpp:380] res2b -> res2b
I0413 22:35:27.183235 29631 net.cpp:122] Setting up res2b
I0413 22:35:27.183241 29631 net.cpp:129] Top shape: 5 256 56 56 (4014080)
I0413 22:35:27.183245 29631 net.cpp:137] Memory required for data: 368291860
I0413 22:35:27.183248 29631 layer_factory.hpp:77] Creating layer res2b_relu
I0413 22:35:27.183254 29631 net.cpp:84] Creating Layer res2b_relu
I0413 22:35:27.183259 29631 net.cpp:406] res2b_relu <- res2b
I0413 22:35:27.183264 29631 net.cpp:367] res2b_relu -> res2b (in-place)
I0413 22:35:27.184005 29631 net.cpp:122] Setting up res2b_relu
I0413 22:35:27.184015 29631 net.cpp:129] Top shape: 5 256 56 56 (4014080)
I0413 22:35:27.184016 29631 net.cpp:137] Memory required for data: 384348180
I0413 22:35:27.184020 29631 layer_factory.hpp:77] Creating layer res2b_res2b_relu_0_split
I0413 22:35:27.184032 29631 net.cpp:84] Creating Layer res2b_res2b_relu_0_split
I0413 22:35:27.184038 29631 net.cpp:406] res2b_res2b_relu_0_split <- res2b
I0413 22:35:27.184044 29631 net.cpp:380] res2b_res2b_relu_0_split -> res2b_res2b_relu_0_split_0
I0413 22:35:27.184052 29631 net.cpp:380] res2b_res2b_relu_0_split -> res2b_res2b_relu_0_split_1
I0413 22:35:27.184113 29631 net.cpp:122] Setting up res2b_res2b_relu_0_split
I0413 22:35:27.184121 29631 net.cpp:129] Top shape: 5 256 56 56 (4014080)
I0413 22:35:27.184126 29631 net.cpp:129] Top shape: 5 256 56 56 (4014080)
I0413 22:35:27.184129 29631 net.cpp:137] Memory required for data: 416460820
I0413 22:35:27.184134 29631 layer_factory.hpp:77] Creating layer res2c_branch2a
I0413 22:35:27.184144 29631 net.cpp:84] Creating Layer res2c_branch2a
I0413 22:35:27.184149 29631 net.cpp:406] res2c_branch2a <- res2b_res2b_relu_0_split_0
I0413 22:35:27.184155 29631 net.cpp:380] res2c_branch2a -> res2c_branch2a
I0413 22:35:27.186476 29631 net.cpp:122] Setting up res2c_branch2a
I0413 22:35:27.186484 29631 net.cpp:129] Top shape: 5 64 56 56 (1003520)
I0413 22:35:27.186487 29631 net.cpp:137] Memory required for data: 420474900
I0413 22:35:27.186491 29631 layer_factory.hpp:77] Creating layer bn2c_branch2a
I0413 22:35:27.186504 29631 net.cpp:84] Creating Layer bn2c_branch2a
I0413 22:35:27.186508 29631 net.cpp:406] bn2c_branch2a <- res2c_branch2a
I0413 22:35:27.186512 29631 net.cpp:367] bn2c_branch2a -> res2c_branch2a (in-place)
I0413 22:35:27.186784 29631 net.cpp:122] Setting up bn2c_branch2a
I0413 22:35:27.186794 29631 net.cpp:129] Top shape: 5 64 56 56 (1003520)
I0413 22:35:27.186795 29631 net.cpp:137] Memory required for data: 424488980
I0413 22:35:27.186801 29631 layer_factory.hpp:77] Creating layer scale2c_branch2a
I0413 22:35:27.186807 29631 net.cpp:84] Creating Layer scale2c_branch2a
I0413 22:35:27.186810 29631 net.cpp:406] scale2c_branch2a <- res2c_branch2a
I0413 22:35:27.186815 29631 net.cpp:367] scale2c_branch2a -> res2c_branch2a (in-place)
I0413 22:35:27.186868 29631 layer_factory.hpp:77] Creating layer scale2c_branch2a
I0413 22:35:27.187021 29631 net.cpp:122] Setting up scale2c_branch2a
I0413 22:35:27.187032 29631 net.cpp:129] Top shape: 5 64 56 56 (1003520)
I0413 22:35:27.187036 29631 net.cpp:137] Memory required for data: 428503060
I0413 22:35:27.187041 29631 layer_factory.hpp:77] Creating layer res2c_branch2a_relu
I0413 22:35:27.187044 29631 net.cpp:84] Creating Layer res2c_branch2a_relu
I0413 22:35:27.187049 29631 net.cpp:406] res2c_branch2a_relu <- res2c_branch2a
I0413 22:35:27.187053 29631 net.cpp:367] res2c_branch2a_relu -> res2c_branch2a (in-place)
I0413 22:35:27.187784 29631 net.cpp:122] Setting up res2c_branch2a_relu
I0413 22:35:27.187794 29631 net.cpp:129] Top shape: 5 64 56 56 (1003520)
I0413 22:35:27.187798 29631 net.cpp:137] Memory required for data: 432517140
I0413 22:35:27.187801 29631 layer_factory.hpp:77] Creating layer res2c_branch2b
I0413 22:35:27.187810 29631 net.cpp:84] Creating Layer res2c_branch2b
I0413 22:35:27.187815 29631 net.cpp:406] res2c_branch2b <- res2c_branch2a
I0413 22:35:27.187821 29631 net.cpp:380] res2c_branch2b -> res2c_branch2b
I0413 22:35:27.190109 29631 net.cpp:122] Setting up res2c_branch2b
I0413 22:35:27.190119 29631 net.cpp:129] Top shape: 5 64 56 56 (1003520)
I0413 22:35:27.190121 29631 net.cpp:137] Memory required for data: 436531220
I0413 22:35:27.190124 29631 layer_factory.hpp:77] Creating layer bn2c_branch2b
I0413 22:35:27.190131 29631 net.cpp:84] Creating Layer bn2c_branch2b
I0413 22:35:27.190136 29631 net.cpp:406] bn2c_branch2b <- res2c_branch2b
I0413 22:35:27.190140 29631 net.cpp:367] bn2c_branch2b -> res2c_branch2b (in-place)
I0413 22:35:27.190407 29631 net.cpp:122] Setting up bn2c_branch2b
I0413 22:35:27.190415 29631 net.cpp:129] Top shape: 5 64 56 56 (1003520)
I0413 22:35:27.190419 29631 net.cpp:137] Memory required for data: 440545300
I0413 22:35:27.190426 29631 layer_factory.hpp:77] Creating layer scale2c_branch2b
I0413 22:35:27.190433 29631 net.cpp:84] Creating Layer scale2c_branch2b
I0413 22:35:27.190435 29631 net.cpp:406] scale2c_branch2b <- res2c_branch2b
I0413 22:35:27.190440 29631 net.cpp:367] scale2c_branch2b -> res2c_branch2b (in-place)
I0413 22:35:27.190495 29631 layer_factory.hpp:77] Creating layer scale2c_branch2b
I0413 22:35:27.190657 29631 net.cpp:122] Setting up scale2c_branch2b
I0413 22:35:27.190665 29631 net.cpp:129] Top shape: 5 64 56 56 (1003520)
I0413 22:35:27.190667 29631 net.cpp:137] Memory required for data: 444559380
I0413 22:35:27.190672 29631 layer_factory.hpp:77] Creating layer res2c_branch2b_relu
I0413 22:35:27.190677 29631 net.cpp:84] Creating Layer res2c_branch2b_relu
I0413 22:35:27.190681 29631 net.cpp:406] res2c_branch2b_relu <- res2c_branch2b
I0413 22:35:27.190686 29631 net.cpp:367] res2c_branch2b_relu -> res2c_branch2b (in-place)
I0413 22:35:27.191228 29631 net.cpp:122] Setting up res2c_branch2b_relu
I0413 22:35:27.191237 29631 net.cpp:129] Top shape: 5 64 56 56 (1003520)
I0413 22:35:27.191241 29631 net.cpp:137] Memory required for data: 448573460
I0413 22:35:27.191243 29631 layer_factory.hpp:77] Creating layer res2c_branch2c
I0413 22:35:27.191251 29631 net.cpp:84] Creating Layer res2c_branch2c
I0413 22:35:27.191254 29631 net.cpp:406] res2c_branch2c <- res2c_branch2b
I0413 22:35:27.191260 29631 net.cpp:380] res2c_branch2c -> res2c_branch2c
I0413 22:35:27.193449 29631 net.cpp:122] Setting up res2c_branch2c
I0413 22:35:27.193459 29631 net.cpp:129] Top shape: 5 256 56 56 (4014080)
I0413 22:35:27.193460 29631 net.cpp:137] Memory required for data: 464629780
I0413 22:35:27.193464 29631 layer_factory.hpp:77] Creating layer bn2c_branch2c
I0413 22:35:27.193470 29631 net.cpp:84] Creating Layer bn2c_branch2c
I0413 22:35:27.193473 29631 net.cpp:406] bn2c_branch2c <- res2c_branch2c
I0413 22:35:27.193478 29631 net.cpp:367] bn2c_branch2c -> res2c_branch2c (in-place)
I0413 22:35:27.193724 29631 net.cpp:122] Setting up bn2c_branch2c
I0413 22:35:27.193733 29631 net.cpp:129] Top shape: 5 256 56 56 (4014080)
I0413 22:35:27.193737 29631 net.cpp:137] Memory required for data: 480686100
I0413 22:35:27.193743 29631 layer_factory.hpp:77] Creating layer scale2c_branch2c
I0413 22:35:27.193749 29631 net.cpp:84] Creating Layer scale2c_branch2c
I0413 22:35:27.193753 29631 net.cpp:406] scale2c_branch2c <- res2c_branch2c
I0413 22:35:27.193758 29631 net.cpp:367] scale2c_branch2c -> res2c_branch2c (in-place)
I0413 22:35:27.193806 29631 layer_factory.hpp:77] Creating layer scale2c_branch2c
I0413 22:35:27.193938 29631 net.cpp:122] Setting up scale2c_branch2c
I0413 22:35:27.193945 29631 net.cpp:129] Top shape: 5 256 56 56 (4014080)
I0413 22:35:27.193948 29631 net.cpp:137] Memory required for data: 496742420
I0413 22:35:27.193959 29631 layer_factory.hpp:77] Creating layer res2c
I0413 22:35:27.193965 29631 net.cpp:84] Creating Layer res2c
I0413 22:35:27.193969 29631 net.cpp:406] res2c <- res2b_res2b_relu_0_split_1
I0413 22:35:27.193974 29631 net.cpp:406] res2c <- res2c_branch2c
I0413 22:35:27.193979 29631 net.cpp:380] res2c -> res2c
I0413 22:35:27.194006 29631 net.cpp:122] Setting up res2c
I0413 22:35:27.194013 29631 net.cpp:129] Top shape: 5 256 56 56 (4014080)
I0413 22:35:27.194016 29631 net.cpp:137] Memory required for data: 512798740
I0413 22:35:27.194018 29631 layer_factory.hpp:77] Creating layer res2c_relu
I0413 22:35:27.194025 29631 net.cpp:84] Creating Layer res2c_relu
I0413 22:35:27.194031 29631 net.cpp:406] res2c_relu <- res2c
I0413 22:35:27.194046 29631 net.cpp:367] res2c_relu -> res2c (in-place)
I0413 22:35:27.194650 29631 net.cpp:122] Setting up res2c_relu
I0413 22:35:27.194660 29631 net.cpp:129] Top shape: 5 256 56 56 (4014080)
I0413 22:35:27.194664 29631 net.cpp:137] Memory required for data: 528855060
I0413 22:35:27.194666 29631 layer_factory.hpp:77] Creating layer res2c_res2c_relu_0_split
I0413 22:35:27.194671 29631 net.cpp:84] Creating Layer res2c_res2c_relu_0_split
I0413 22:35:27.194676 29631 net.cpp:406] res2c_res2c_relu_0_split <- res2c
I0413 22:35:27.194682 29631 net.cpp:380] res2c_res2c_relu_0_split -> res2c_res2c_relu_0_split_0
I0413 22:35:27.194689 29631 net.cpp:380] res2c_res2c_relu_0_split -> res2c_res2c_relu_0_split_1
I0413 22:35:27.194741 29631 net.cpp:122] Setting up res2c_res2c_relu_0_split
I0413 22:35:27.194747 29631 net.cpp:129] Top shape: 5 256 56 56 (4014080)
I0413 22:35:27.194751 29631 net.cpp:129] Top shape: 5 256 56 56 (4014080)
I0413 22:35:27.194753 29631 net.cpp:137] Memory required for data: 560967700
I0413 22:35:27.194756 29631 layer_factory.hpp:77] Creating layer res3a_branch1
I0413 22:35:27.194764 29631 net.cpp:84] Creating Layer res3a_branch1
I0413 22:35:27.194768 29631 net.cpp:406] res3a_branch1 <- res2c_res2c_relu_0_split_0
I0413 22:35:27.194773 29631 net.cpp:380] res3a_branch1 -> res3a_branch1
I0413 22:35:27.197489 29631 net.cpp:122] Setting up res3a_branch1
I0413 22:35:27.197497 29631 net.cpp:129] Top shape: 5 512 28 28 (2007040)
I0413 22:35:27.197499 29631 net.cpp:137] Memory required for data: 568995860
I0413 22:35:27.197502 29631 layer_factory.hpp:77] Creating layer bn3a_branch1
I0413 22:35:27.197508 29631 net.cpp:84] Creating Layer bn3a_branch1
I0413 22:35:27.197512 29631 net.cpp:406] bn3a_branch1 <- res3a_branch1
I0413 22:35:27.197517 29631 net.cpp:367] bn3a_branch1 -> res3a_branch1 (in-place)
I0413 22:35:27.198367 29631 net.cpp:122] Setting up bn3a_branch1
I0413 22:35:27.198374 29631 net.cpp:129] Top shape: 5 512 28 28 (2007040)
I0413 22:35:27.198384 29631 net.cpp:137] Memory required for data: 577024020
I0413 22:35:27.198388 29631 layer_factory.hpp:77] Creating layer scale3a_branch1
I0413 22:35:27.198392 29631 net.cpp:84] Creating Layer scale3a_branch1
I0413 22:35:27.198396 29631 net.cpp:406] scale3a_branch1 <- res3a_branch1
I0413 22:35:27.198400 29631 net.cpp:367] scale3a_branch1 -> res3a_branch1 (in-place)
I0413 22:35:27.198444 29631 layer_factory.hpp:77] Creating layer scale3a_branch1
I0413 22:35:27.198566 29631 net.cpp:122] Setting up scale3a_branch1
I0413 22:35:27.198573 29631 net.cpp:129] Top shape: 5 512 28 28 (2007040)
I0413 22:35:27.198576 29631 net.cpp:137] Memory required for data: 585052180
I0413 22:35:27.198581 29631 layer_factory.hpp:77] Creating layer res3a_branch2a
I0413 22:35:27.198590 29631 net.cpp:84] Creating Layer res3a_branch2a
I0413 22:35:27.198593 29631 net.cpp:406] res3a_branch2a <- res2c_res2c_relu_0_split_1
I0413 22:35:27.198597 29631 net.cpp:380] res3a_branch2a -> res3a_branch2a
I0413 22:35:27.200763 29631 net.cpp:122] Setting up res3a_branch2a
I0413 22:35:27.200773 29631 net.cpp:129] Top shape: 5 128 28 28 (501760)
I0413 22:35:27.200774 29631 net.cpp:137] Memory required for data: 587059220
I0413 22:35:27.200778 29631 layer_factory.hpp:77] Creating layer bn3a_branch2a
I0413 22:35:27.200781 29631 net.cpp:84] Creating Layer bn3a_branch2a
I0413 22:35:27.200784 29631 net.cpp:406] bn3a_branch2a <- res3a_branch2a
I0413 22:35:27.200789 29631 net.cpp:367] bn3a_branch2a -> res3a_branch2a (in-place)
I0413 22:35:27.201009 29631 net.cpp:122] Setting up bn3a_branch2a
I0413 22:35:27.201017 29631 net.cpp:129] Top shape: 5 128 28 28 (501760)
I0413 22:35:27.201020 29631 net.cpp:137] Memory required for data: 589066260
I0413 22:35:27.201026 29631 layer_factory.hpp:77] Creating layer scale3a_branch2a
I0413 22:35:27.201035 29631 net.cpp:84] Creating Layer scale3a_branch2a
I0413 22:35:27.201040 29631 net.cpp:406] scale3a_branch2a <- res3a_branch2a
I0413 22:35:27.201045 29631 net.cpp:367] scale3a_branch2a -> res3a_branch2a (in-place)
I0413 22:35:27.201088 29631 layer_factory.hpp:77] Creating layer scale3a_branch2a
I0413 22:35:27.201208 29631 net.cpp:122] Setting up scale3a_branch2a
I0413 22:35:27.201215 29631 net.cpp:129] Top shape: 5 128 28 28 (501760)
I0413 22:35:27.201218 29631 net.cpp:137] Memory required for data: 591073300
I0413 22:35:27.201222 29631 layer_factory.hpp:77] Creating layer res3a_branch2a_relu
I0413 22:35:27.201230 29631 net.cpp:84] Creating Layer res3a_branch2a_relu
I0413 22:35:27.201232 29631 net.cpp:406] res3a_branch2a_relu <- res3a_branch2a
I0413 22:35:27.201236 29631 net.cpp:367] res3a_branch2a_relu -> res3a_branch2a (in-place)
I0413 22:35:27.201758 29631 net.cpp:122] Setting up res3a_branch2a_relu
I0413 22:35:27.201766 29631 net.cpp:129] Top shape: 5 128 28 28 (501760)
I0413 22:35:27.201768 29631 net.cpp:137] Memory required for data: 593080340
I0413 22:35:27.201771 29631 layer_factory.hpp:77] Creating layer res3a_branch2b
I0413 22:35:27.201779 29631 net.cpp:84] Creating Layer res3a_branch2b
I0413 22:35:27.201783 29631 net.cpp:406] res3a_branch2b <- res3a_branch2a
I0413 22:35:27.201787 29631 net.cpp:380] res3a_branch2b -> res3a_branch2b
I0413 22:35:27.204313 29631 net.cpp:122] Setting up res3a_branch2b
I0413 22:35:27.204320 29631 net.cpp:129] Top shape: 5 128 28 28 (501760)
I0413 22:35:27.204322 29631 net.cpp:137] Memory required for data: 595087380
I0413 22:35:27.204325 29631 layer_factory.hpp:77] Creating layer bn3a_branch2b
I0413 22:35:27.204331 29631 net.cpp:84] Creating Layer bn3a_branch2b
I0413 22:35:27.204334 29631 net.cpp:406] bn3a_branch2b <- res3a_branch2b
I0413 22:35:27.204339 29631 net.cpp:367] bn3a_branch2b -> res3a_branch2b (in-place)
I0413 22:35:27.204562 29631 net.cpp:122] Setting up bn3a_branch2b
I0413 22:35:27.204571 29631 net.cpp:129] Top shape: 5 128 28 28 (501760)
I0413 22:35:27.204573 29631 net.cpp:137] Memory required for data: 597094420
I0413 22:35:27.204578 29631 layer_factory.hpp:77] Creating layer scale3a_branch2b
I0413 22:35:27.204586 29631 net.cpp:84] Creating Layer scale3a_branch2b
I0413 22:35:27.204597 29631 net.cpp:406] scale3a_branch2b <- res3a_branch2b
I0413 22:35:27.204602 29631 net.cpp:367] scale3a_branch2b -> res3a_branch2b (in-place)
I0413 22:35:27.204644 29631 layer_factory.hpp:77] Creating layer scale3a_branch2b
I0413 22:35:27.204766 29631 net.cpp:122] Setting up scale3a_branch2b
I0413 22:35:27.204771 29631 net.cpp:129] Top shape: 5 128 28 28 (501760)
I0413 22:35:27.204772 29631 net.cpp:137] Memory required for data: 599101460
I0413 22:35:27.204777 29631 layer_factory.hpp:77] Creating layer res3a_branch2b_relu
I0413 22:35:27.204782 29631 net.cpp:84] Creating Layer res3a_branch2b_relu
I0413 22:35:27.204785 29631 net.cpp:406] res3a_branch2b_relu <- res3a_branch2b
I0413 22:35:27.204789 29631 net.cpp:367] res3a_branch2b_relu -> res3a_branch2b (in-place)
I0413 22:35:27.205425 29631 net.cpp:122] Setting up res3a_branch2b_relu
I0413 22:35:27.205433 29631 net.cpp:129] Top shape: 5 128 28 28 (501760)
I0413 22:35:27.205436 29631 net.cpp:137] Memory required for data: 601108500
I0413 22:35:27.205440 29631 layer_factory.hpp:77] Creating layer res3a_branch2c
I0413 22:35:27.205446 29631 net.cpp:84] Creating Layer res3a_branch2c
I0413 22:35:27.205449 29631 net.cpp:406] res3a_branch2c <- res3a_branch2b
I0413 22:35:27.205454 29631 net.cpp:380] res3a_branch2c -> res3a_branch2c
I0413 22:35:27.207377 29631 net.cpp:122] Setting up res3a_branch2c
I0413 22:35:27.207384 29631 net.cpp:129] Top shape: 5 512 28 28 (2007040)
I0413 22:35:27.207386 29631 net.cpp:137] Memory required for data: 609136660
I0413 22:35:27.207388 29631 layer_factory.hpp:77] Creating layer bn3a_branch2c
I0413 22:35:27.207397 29631 net.cpp:84] Creating Layer bn3a_branch2c
I0413 22:35:27.207401 29631 net.cpp:406] bn3a_branch2c <- res3a_branch2c
I0413 22:35:27.207406 29631 net.cpp:367] bn3a_branch2c -> res3a_branch2c (in-place)
I0413 22:35:27.207628 29631 net.cpp:122] Setting up bn3a_branch2c
I0413 22:35:27.207634 29631 net.cpp:129] Top shape: 5 512 28 28 (2007040)
I0413 22:35:27.207636 29631 net.cpp:137] Memory required for data: 617164820
I0413 22:35:27.207640 29631 layer_factory.hpp:77] Creating layer scale3a_branch2c
I0413 22:35:27.207648 29631 net.cpp:84] Creating Layer scale3a_branch2c
I0413 22:35:27.207651 29631 net.cpp:406] scale3a_branch2c <- res3a_branch2c
I0413 22:35:27.207655 29631 net.cpp:367] scale3a_branch2c -> res3a_branch2c (in-place)
I0413 22:35:27.207695 29631 layer_factory.hpp:77] Creating layer scale3a_branch2c
I0413 22:35:27.207810 29631 net.cpp:122] Setting up scale3a_branch2c
I0413 22:35:27.207815 29631 net.cpp:129] Top shape: 5 512 28 28 (2007040)
I0413 22:35:27.207818 29631 net.cpp:137] Memory required for data: 625192980
I0413 22:35:27.207821 29631 layer_factory.hpp:77] Creating layer res3a
I0413 22:35:27.207828 29631 net.cpp:84] Creating Layer res3a
I0413 22:35:27.207831 29631 net.cpp:406] res3a <- res3a_branch1
I0413 22:35:27.207835 29631 net.cpp:406] res3a <- res3a_branch2c
I0413 22:35:27.207839 29631 net.cpp:380] res3a -> res3a
I0413 22:35:27.207864 29631 net.cpp:122] Setting up res3a
I0413 22:35:27.207870 29631 net.cpp:129] Top shape: 5 512 28 28 (2007040)
I0413 22:35:27.207872 29631 net.cpp:137] Memory required for data: 633221140
I0413 22:35:27.207875 29631 layer_factory.hpp:77] Creating layer res3a_relu
I0413 22:35:27.207878 29631 net.cpp:84] Creating Layer res3a_relu
I0413 22:35:27.207881 29631 net.cpp:406] res3a_relu <- res3a
I0413 22:35:27.207885 29631 net.cpp:367] res3a_relu -> res3a (in-place)
I0413 22:35:27.208389 29631 net.cpp:122] Setting up res3a_relu
I0413 22:35:27.208396 29631 net.cpp:129] Top shape: 5 512 28 28 (2007040)
I0413 22:35:27.208400 29631 net.cpp:137] Memory required for data: 641249300
I0413 22:35:27.208401 29631 layer_factory.hpp:77] Creating layer res3a_res3a_relu_0_split
I0413 22:35:27.208407 29631 net.cpp:84] Creating Layer res3a_res3a_relu_0_split
I0413 22:35:27.208410 29631 net.cpp:406] res3a_res3a_relu_0_split <- res3a
I0413 22:35:27.208416 29631 net.cpp:380] res3a_res3a_relu_0_split -> res3a_res3a_relu_0_split_0
I0413 22:35:27.208421 29631 net.cpp:380] res3a_res3a_relu_0_split -> res3a_res3a_relu_0_split_1
I0413 22:35:27.208472 29631 net.cpp:122] Setting up res3a_res3a_relu_0_split
I0413 22:35:27.208477 29631 net.cpp:129] Top shape: 5 512 28 28 (2007040)
I0413 22:35:27.208479 29631 net.cpp:129] Top shape: 5 512 28 28 (2007040)
I0413 22:35:27.208482 29631 net.cpp:137] Memory required for data: 657305620
I0413 22:35:27.208483 29631 layer_factory.hpp:77] Creating layer res3b1_branch2a
I0413 22:35:27.208488 29631 net.cpp:84] Creating Layer res3b1_branch2a
I0413 22:35:27.208492 29631 net.cpp:406] res3b1_branch2a <- res3a_res3a_relu_0_split_0
I0413 22:35:27.208494 29631 net.cpp:380] res3b1_branch2a -> res3b1_branch2a
I0413 22:35:27.210696 29631 net.cpp:122] Setting up res3b1_branch2a
I0413 22:35:27.210705 29631 net.cpp:129] Top shape: 5 128 28 28 (501760)
I0413 22:35:27.210706 29631 net.cpp:137] Memory required for data: 659312660
I0413 22:35:27.210710 29631 layer_factory.hpp:77] Creating layer bn3b1_branch2a
I0413 22:35:27.210716 29631 net.cpp:84] Creating Layer bn3b1_branch2a
I0413 22:35:27.210719 29631 net.cpp:406] bn3b1_branch2a <- res3b1_branch2a
I0413 22:35:27.210723 29631 net.cpp:367] bn3b1_branch2a -> res3b1_branch2a (in-place)
I0413 22:35:27.210947 29631 net.cpp:122] Setting up bn3b1_branch2a
I0413 22:35:27.210955 29631 net.cpp:129] Top shape: 5 128 28 28 (501760)
I0413 22:35:27.210958 29631 net.cpp:137] Memory required for data: 661319700
I0413 22:35:27.210963 29631 layer_factory.hpp:77] Creating layer scale3b1_branch2a
I0413 22:35:27.210970 29631 net.cpp:84] Creating Layer scale3b1_branch2a
I0413 22:35:27.210974 29631 net.cpp:406] scale3b1_branch2a <- res3b1_branch2a
I0413 22:35:27.210978 29631 net.cpp:367] scale3b1_branch2a -> res3b1_branch2a (in-place)
I0413 22:35:27.211021 29631 layer_factory.hpp:77] Creating layer scale3b1_branch2a
I0413 22:35:27.211148 29631 net.cpp:122] Setting up scale3b1_branch2a
I0413 22:35:27.211154 29631 net.cpp:129] Top shape: 5 128 28 28 (501760)
I0413 22:35:27.211156 29631 net.cpp:137] Memory required for data: 663326740
I0413 22:35:27.211161 29631 layer_factory.hpp:77] Creating layer res3b1_branch2a_relu
I0413 22:35:27.211167 29631 net.cpp:84] Creating Layer res3b1_branch2a_relu
I0413 22:35:27.211169 29631 net.cpp:406] res3b1_branch2a_relu <- res3b1_branch2a
I0413 22:35:27.211175 29631 net.cpp:367] res3b1_branch2a_relu -> res3b1_branch2a (in-place)
I0413 22:35:27.211706 29631 net.cpp:122] Setting up res3b1_branch2a_relu
I0413 22:35:27.211714 29631 net.cpp:129] Top shape: 5 128 28 28 (501760)
I0413 22:35:27.211717 29631 net.cpp:137] Memory required for data: 665333780
I0413 22:35:27.211720 29631 layer_factory.hpp:77] Creating layer res3b1_branch2b
I0413 22:35:27.211726 29631 net.cpp:84] Creating Layer res3b1_branch2b
I0413 22:35:27.211730 29631 net.cpp:406] res3b1_branch2b <- res3b1_branch2a
I0413 22:35:27.211735 29631 net.cpp:380] res3b1_branch2b -> res3b1_branch2b
I0413 22:35:27.214756 29631 net.cpp:122] Setting up res3b1_branch2b
I0413 22:35:27.214767 29631 net.cpp:129] Top shape: 5 128 28 28 (501760)
I0413 22:35:27.214769 29631 net.cpp:137] Memory required for data: 667340820
I0413 22:35:27.214773 29631 layer_factory.hpp:77] Creating layer bn3b1_branch2b
I0413 22:35:27.214778 29631 net.cpp:84] Creating Layer bn3b1_branch2b
I0413 22:35:27.214781 29631 net.cpp:406] bn3b1_branch2b <- res3b1_branch2b
I0413 22:35:27.214784 29631 net.cpp:367] bn3b1_branch2b -> res3b1_branch2b (in-place)
I0413 22:35:27.214989 29631 net.cpp:122] Setting up bn3b1_branch2b
I0413 22:35:27.214998 29631 net.cpp:129] Top shape: 5 128 28 28 (501760)
I0413 22:35:27.215000 29631 net.cpp:137] Memory required for data: 669347860
I0413 22:35:27.215005 29631 layer_factory.hpp:77] Creating layer scale3b1_branch2b
I0413 22:35:27.215011 29631 net.cpp:84] Creating Layer scale3b1_branch2b
I0413 22:35:27.215014 29631 net.cpp:406] scale3b1_branch2b <- res3b1_branch2b
I0413 22:35:27.215018 29631 net.cpp:367] scale3b1_branch2b -> res3b1_branch2b (in-place)
I0413 22:35:27.215065 29631 layer_factory.hpp:77] Creating layer scale3b1_branch2b
I0413 22:35:27.215190 29631 net.cpp:122] Setting up scale3b1_branch2b
I0413 22:35:27.215204 29631 net.cpp:129] Top shape: 5 128 28 28 (501760)
I0413 22:35:27.215207 29631 net.cpp:137] Memory required for data: 671354900
I0413 22:35:27.215211 29631 layer_factory.hpp:77] Creating layer res3b1_branch2b_relu
I0413 22:35:27.215217 29631 net.cpp:84] Creating Layer res3b1_branch2b_relu
I0413 22:35:27.215221 29631 net.cpp:406] res3b1_branch2b_relu <- res3b1_branch2b
I0413 22:35:27.215224 29631 net.cpp:367] res3b1_branch2b_relu -> res3b1_branch2b (in-place)
I0413 22:35:27.216053 29631 net.cpp:122] Setting up res3b1_branch2b_relu
I0413 22:35:27.216059 29631 net.cpp:129] Top shape: 5 128 28 28 (501760)
I0413 22:35:27.216061 29631 net.cpp:137] Memory required for data: 673361940
I0413 22:35:27.216063 29631 layer_factory.hpp:77] Creating layer res3b1_branch2c
I0413 22:35:27.216068 29631 net.cpp:84] Creating Layer res3b1_branch2c
I0413 22:35:27.216070 29631 net.cpp:406] res3b1_branch2c <- res3b1_branch2b
I0413 22:35:27.216074 29631 net.cpp:380] res3b1_branch2c -> res3b1_branch2c
I0413 22:35:27.218154 29631 net.cpp:122] Setting up res3b1_branch2c
I0413 22:35:27.218161 29631 net.cpp:129] Top shape: 5 512 28 28 (2007040)
I0413 22:35:27.218163 29631 net.cpp:137] Memory required for data: 681390100
I0413 22:35:27.218166 29631 layer_factory.hpp:77] Creating layer bn3b1_branch2c
I0413 22:35:27.218170 29631 net.cpp:84] Creating Layer bn3b1_branch2c
I0413 22:35:27.218173 29631 net.cpp:406] bn3b1_branch2c <- res3b1_branch2c
I0413 22:35:27.218175 29631 net.cpp:367] bn3b1_branch2c -> res3b1_branch2c (in-place)
I0413 22:35:27.218394 29631 net.cpp:122] Setting up bn3b1_branch2c
I0413 22:35:27.218402 29631 net.cpp:129] Top shape: 5 512 28 28 (2007040)
I0413 22:35:27.218405 29631 net.cpp:137] Memory required for data: 689418260
I0413 22:35:27.218410 29631 layer_factory.hpp:77] Creating layer scale3b1_branch2c
I0413 22:35:27.218416 29631 net.cpp:84] Creating Layer scale3b1_branch2c
I0413 22:35:27.218420 29631 net.cpp:406] scale3b1_branch2c <- res3b1_branch2c
I0413 22:35:27.218423 29631 net.cpp:367] scale3b1_branch2c -> res3b1_branch2c (in-place)
I0413 22:35:27.218466 29631 layer_factory.hpp:77] Creating layer scale3b1_branch2c
I0413 22:35:27.218591 29631 net.cpp:122] Setting up scale3b1_branch2c
I0413 22:35:27.218598 29631 net.cpp:129] Top shape: 5 512 28 28 (2007040)
I0413 22:35:27.218601 29631 net.cpp:137] Memory required for data: 697446420
I0413 22:35:27.218605 29631 layer_factory.hpp:77] Creating layer res3b1
I0413 22:35:27.218611 29631 net.cpp:84] Creating Layer res3b1
I0413 22:35:27.218616 29631 net.cpp:406] res3b1 <- res3a_res3a_relu_0_split_1
I0413 22:35:27.218618 29631 net.cpp:406] res3b1 <- res3b1_branch2c
I0413 22:35:27.218622 29631 net.cpp:380] res3b1 -> res3b1
I0413 22:35:27.218648 29631 net.cpp:122] Setting up res3b1
I0413 22:35:27.218654 29631 net.cpp:129] Top shape: 5 512 28 28 (2007040)
I0413 22:35:27.218657 29631 net.cpp:137] Memory required for data: 705474580
I0413 22:35:27.218659 29631 layer_factory.hpp:77] Creating layer res3b1_relu
I0413 22:35:27.218663 29631 net.cpp:84] Creating Layer res3b1_relu
I0413 22:35:27.218667 29631 net.cpp:406] res3b1_relu <- res3b1
I0413 22:35:27.218670 29631 net.cpp:367] res3b1_relu -> res3b1 (in-place)
I0413 22:35:27.219269 29631 net.cpp:122] Setting up res3b1_relu
I0413 22:35:27.219276 29631 net.cpp:129] Top shape: 5 512 28 28 (2007040)
I0413 22:35:27.219278 29631 net.cpp:137] Memory required for data: 713502740
I0413 22:35:27.219280 29631 layer_factory.hpp:77] Creating layer res3b1_res3b1_relu_0_split
I0413 22:35:27.219282 29631 net.cpp:84] Creating Layer res3b1_res3b1_relu_0_split
I0413 22:35:27.219285 29631 net.cpp:406] res3b1_res3b1_relu_0_split <- res3b1
I0413 22:35:27.219288 29631 net.cpp:380] res3b1_res3b1_relu_0_split -> res3b1_res3b1_relu_0_split_0
I0413 22:35:27.219292 29631 net.cpp:380] res3b1_res3b1_relu_0_split -> res3b1_res3b1_relu_0_split_1
I0413 22:35:27.219326 29631 net.cpp:122] Setting up res3b1_res3b1_relu_0_split
I0413 22:35:27.219331 29631 net.cpp:129] Top shape: 5 512 28 28 (2007040)
I0413 22:35:27.219336 29631 net.cpp:129] Top shape: 5 512 28 28 (2007040)
I0413 22:35:27.219344 29631 net.cpp:137] Memory required for data: 729559060
I0413 22:35:27.219347 29631 layer_factory.hpp:77] Creating layer res3b2_branch2a
I0413 22:35:27.219354 29631 net.cpp:84] Creating Layer res3b2_branch2a
I0413 22:35:27.219357 29631 net.cpp:406] res3b2_branch2a <- res3b1_res3b1_relu_0_split_0
I0413 22:35:27.219362 29631 net.cpp:380] res3b2_branch2a -> res3b2_branch2a
I0413 22:35:27.221501 29631 net.cpp:122] Setting up res3b2_branch2a
I0413 22:35:27.221508 29631 net.cpp:129] Top shape: 5 128 28 28 (501760)
I0413 22:35:27.221510 29631 net.cpp:137] Memory required for data: 731566100
I0413 22:35:27.221513 29631 layer_factory.hpp:77] Creating layer bn3b2_branch2a
I0413 22:35:27.221518 29631 net.cpp:84] Creating Layer bn3b2_branch2a
I0413 22:35:27.221520 29631 net.cpp:406] bn3b2_branch2a <- res3b2_branch2a
I0413 22:35:27.221524 29631 net.cpp:367] bn3b2_branch2a -> res3b2_branch2a (in-place)
I0413 22:35:27.221740 29631 net.cpp:122] Setting up bn3b2_branch2a
I0413 22:35:27.221748 29631 net.cpp:129] Top shape: 5 128 28 28 (501760)
I0413 22:35:27.221751 29631 net.cpp:137] Memory required for data: 733573140
I0413 22:35:27.221757 29631 layer_factory.hpp:77] Creating layer scale3b2_branch2a
I0413 22:35:27.221763 29631 net.cpp:84] Creating Layer scale3b2_branch2a
I0413 22:35:27.221766 29631 net.cpp:406] scale3b2_branch2a <- res3b2_branch2a
I0413 22:35:27.221771 29631 net.cpp:367] scale3b2_branch2a -> res3b2_branch2a (in-place)
I0413 22:35:27.221813 29631 layer_factory.hpp:77] Creating layer scale3b2_branch2a
I0413 22:35:27.221942 29631 net.cpp:122] Setting up scale3b2_branch2a
I0413 22:35:27.221949 29631 net.cpp:129] Top shape: 5 128 28 28 (501760)
I0413 22:35:27.221951 29631 net.cpp:137] Memory required for data: 735580180
I0413 22:35:27.221956 29631 layer_factory.hpp:77] Creating layer res3b2_branch2a_relu
I0413 22:35:27.221961 29631 net.cpp:84] Creating Layer res3b2_branch2a_relu
I0413 22:35:27.221962 29631 net.cpp:406] res3b2_branch2a_relu <- res3b2_branch2a
I0413 22:35:27.221966 29631 net.cpp:367] res3b2_branch2a_relu -> res3b2_branch2a (in-place)
I0413 22:35:27.222466 29631 net.cpp:122] Setting up res3b2_branch2a_relu
I0413 22:35:27.222472 29631 net.cpp:129] Top shape: 5 128 28 28 (501760)
I0413 22:35:27.222474 29631 net.cpp:137] Memory required for data: 737587220
I0413 22:35:27.222476 29631 layer_factory.hpp:77] Creating layer res3b2_branch2b
I0413 22:35:27.222481 29631 net.cpp:84] Creating Layer res3b2_branch2b
I0413 22:35:27.222483 29631 net.cpp:406] res3b2_branch2b <- res3b2_branch2a
I0413 22:35:27.222486 29631 net.cpp:380] res3b2_branch2b -> res3b2_branch2b
I0413 22:35:27.225220 29631 net.cpp:122] Setting up res3b2_branch2b
I0413 22:35:27.225229 29631 net.cpp:129] Top shape: 5 128 28 28 (501760)
I0413 22:35:27.225230 29631 net.cpp:137] Memory required for data: 739594260
I0413 22:35:27.225234 29631 layer_factory.hpp:77] Creating layer bn3b2_branch2b
I0413 22:35:27.225237 29631 net.cpp:84] Creating Layer bn3b2_branch2b
I0413 22:35:27.225239 29631 net.cpp:406] bn3b2_branch2b <- res3b2_branch2b
I0413 22:35:27.225241 29631 net.cpp:367] bn3b2_branch2b -> res3b2_branch2b (in-place)
I0413 22:35:27.225466 29631 net.cpp:122] Setting up bn3b2_branch2b
I0413 22:35:27.225473 29631 net.cpp:129] Top shape: 5 128 28 28 (501760)
I0413 22:35:27.225476 29631 net.cpp:137] Memory required for data: 741601300
I0413 22:35:27.225482 29631 layer_factory.hpp:77] Creating layer scale3b2_branch2b
I0413 22:35:27.225488 29631 net.cpp:84] Creating Layer scale3b2_branch2b
I0413 22:35:27.225492 29631 net.cpp:406] scale3b2_branch2b <- res3b2_branch2b
I0413 22:35:27.225495 29631 net.cpp:367] scale3b2_branch2b -> res3b2_branch2b (in-place)
I0413 22:35:27.225539 29631 layer_factory.hpp:77] Creating layer scale3b2_branch2b
I0413 22:35:27.225669 29631 net.cpp:122] Setting up scale3b2_branch2b
I0413 22:35:27.225677 29631 net.cpp:129] Top shape: 5 128 28 28 (501760)
I0413 22:35:27.225679 29631 net.cpp:137] Memory required for data: 743608340
I0413 22:35:27.225684 29631 layer_factory.hpp:77] Creating layer res3b2_branch2b_relu
I0413 22:35:27.225695 29631 net.cpp:84] Creating Layer res3b2_branch2b_relu
I0413 22:35:27.225698 29631 net.cpp:406] res3b2_branch2b_relu <- res3b2_branch2b
I0413 22:35:27.225704 29631 net.cpp:367] res3b2_branch2b_relu -> res3b2_branch2b (in-place)
I0413 22:35:27.226188 29631 net.cpp:122] Setting up res3b2_branch2b_relu
I0413 22:35:27.226194 29631 net.cpp:129] Top shape: 5 128 28 28 (501760)
I0413 22:35:27.226197 29631 net.cpp:137] Memory required for data: 745615380
I0413 22:35:27.226198 29631 layer_factory.hpp:77] Creating layer res3b2_branch2c
I0413 22:35:27.226203 29631 net.cpp:84] Creating Layer res3b2_branch2c
I0413 22:35:27.226205 29631 net.cpp:406] res3b2_branch2c <- res3b2_branch2b
I0413 22:35:27.226208 29631 net.cpp:380] res3b2_branch2c -> res3b2_branch2c
I0413 22:35:27.228389 29631 net.cpp:122] Setting up res3b2_branch2c
I0413 22:35:27.228396 29631 net.cpp:129] Top shape: 5 512 28 28 (2007040)
I0413 22:35:27.228399 29631 net.cpp:137] Memory required for data: 753643540
I0413 22:35:27.228401 29631 layer_factory.hpp:77] Creating layer bn3b2_branch2c
I0413 22:35:27.228406 29631 net.cpp:84] Creating Layer bn3b2_branch2c
I0413 22:35:27.228408 29631 net.cpp:406] bn3b2_branch2c <- res3b2_branch2c
I0413 22:35:27.228411 29631 net.cpp:367] bn3b2_branch2c -> res3b2_branch2c (in-place)
I0413 22:35:27.228616 29631 net.cpp:122] Setting up bn3b2_branch2c
I0413 22:35:27.228624 29631 net.cpp:129] Top shape: 5 512 28 28 (2007040)
I0413 22:35:27.228627 29631 net.cpp:137] Memory required for data: 761671700
I0413 22:35:27.228632 29631 layer_factory.hpp:77] Creating layer scale3b2_branch2c
I0413 22:35:27.228636 29631 net.cpp:84] Creating Layer scale3b2_branch2c
I0413 22:35:27.228639 29631 net.cpp:406] scale3b2_branch2c <- res3b2_branch2c
I0413 22:35:27.228644 29631 net.cpp:367] scale3b2_branch2c -> res3b2_branch2c (in-place)
I0413 22:35:27.228685 29631 layer_factory.hpp:77] Creating layer scale3b2_branch2c
I0413 22:35:27.228809 29631 net.cpp:122] Setting up scale3b2_branch2c
I0413 22:35:27.228816 29631 net.cpp:129] Top shape: 5 512 28 28 (2007040)
I0413 22:35:27.228819 29631 net.cpp:137] Memory required for data: 769699860
I0413 22:35:27.228823 29631 layer_factory.hpp:77] Creating layer res3b2
I0413 22:35:27.228828 29631 net.cpp:84] Creating Layer res3b2
I0413 22:35:27.228832 29631 net.cpp:406] res3b2 <- res3b1_res3b1_relu_0_split_1
I0413 22:35:27.228834 29631 net.cpp:406] res3b2 <- res3b2_branch2c
I0413 22:35:27.228838 29631 net.cpp:380] res3b2 -> res3b2
I0413 22:35:27.228864 29631 net.cpp:122] Setting up res3b2
I0413 22:35:27.228870 29631 net.cpp:129] Top shape: 5 512 28 28 (2007040)
I0413 22:35:27.228873 29631 net.cpp:137] Memory required for data: 777728020
I0413 22:35:27.228876 29631 layer_factory.hpp:77] Creating layer res3b2_relu
I0413 22:35:27.228879 29631 net.cpp:84] Creating Layer res3b2_relu
I0413 22:35:27.228883 29631 net.cpp:406] res3b2_relu <- res3b2
I0413 22:35:27.228886 29631 net.cpp:367] res3b2_relu -> res3b2 (in-place)
I0413 22:35:27.229611 29631 net.cpp:122] Setting up res3b2_relu
I0413 22:35:27.229620 29631 net.cpp:129] Top shape: 5 512 28 28 (2007040)
I0413 22:35:27.229624 29631 net.cpp:137] Memory required for data: 785756180
I0413 22:35:27.229626 29631 layer_factory.hpp:77] Creating layer res3b2_res3b2_relu_0_split
I0413 22:35:27.229631 29631 net.cpp:84] Creating Layer res3b2_res3b2_relu_0_split
I0413 22:35:27.229635 29631 net.cpp:406] res3b2_res3b2_relu_0_split <- res3b2
I0413 22:35:27.229640 29631 net.cpp:380] res3b2_res3b2_relu_0_split -> res3b2_res3b2_relu_0_split_0
I0413 22:35:27.229645 29631 net.cpp:380] res3b2_res3b2_relu_0_split -> res3b2_res3b2_relu_0_split_1
I0413 22:35:27.229694 29631 net.cpp:122] Setting up res3b2_res3b2_relu_0_split
I0413 22:35:27.229701 29631 net.cpp:129] Top shape: 5 512 28 28 (2007040)
I0413 22:35:27.229706 29631 net.cpp:129] Top shape: 5 512 28 28 (2007040)
I0413 22:35:27.229707 29631 net.cpp:137] Memory required for data: 801812500
I0413 22:35:27.229710 29631 layer_factory.hpp:77] Creating layer res3b3_branch2a
I0413 22:35:27.229717 29631 net.cpp:84] Creating Layer res3b3_branch2a
I0413 22:35:27.229727 29631 net.cpp:406] res3b3_branch2a <- res3b2_res3b2_relu_0_split_0
I0413 22:35:27.229732 29631 net.cpp:380] res3b3_branch2a -> res3b3_branch2a
I0413 22:35:27.233418 29631 net.cpp:122] Setting up res3b3_branch2a
I0413 22:35:27.233433 29631 net.cpp:129] Top shape: 5 128 28 28 (501760)
I0413 22:35:27.233434 29631 net.cpp:137] Memory required for data: 803819540
I0413 22:35:27.233439 29631 layer_factory.hpp:77] Creating layer bn3b3_branch2a
I0413 22:35:27.233444 29631 net.cpp:84] Creating Layer bn3b3_branch2a
I0413 22:35:27.233448 29631 net.cpp:406] bn3b3_branch2a <- res3b3_branch2a
I0413 22:35:27.233451 29631 net.cpp:367] bn3b3_branch2a -> res3b3_branch2a (in-place)
I0413 22:35:27.233685 29631 net.cpp:122] Setting up bn3b3_branch2a
I0413 22:35:27.233692 29631 net.cpp:129] Top shape: 5 128 28 28 (501760)
I0413 22:35:27.233695 29631 net.cpp:137] Memory required for data: 805826580
I0413 22:35:27.233711 29631 layer_factory.hpp:77] Creating layer scale3b3_branch2a
I0413 22:35:27.233717 29631 net.cpp:84] Creating Layer scale3b3_branch2a
I0413 22:35:27.233721 29631 net.cpp:406] scale3b3_branch2a <- res3b3_branch2a
I0413 22:35:27.233726 29631 net.cpp:367] scale3b3_branch2a -> res3b3_branch2a (in-place)
I0413 22:35:27.233773 29631 layer_factory.hpp:77] Creating layer scale3b3_branch2a
I0413 22:35:27.233894 29631 net.cpp:122] Setting up scale3b3_branch2a
I0413 22:35:27.233901 29631 net.cpp:129] Top shape: 5 128 28 28 (501760)
I0413 22:35:27.233902 29631 net.cpp:137] Memory required for data: 807833620
I0413 22:35:27.233906 29631 layer_factory.hpp:77] Creating layer res3b3_branch2a_relu
I0413 22:35:27.233909 29631 net.cpp:84] Creating Layer res3b3_branch2a_relu
I0413 22:35:27.233911 29631 net.cpp:406] res3b3_branch2a_relu <- res3b3_branch2a
I0413 22:35:27.233913 29631 net.cpp:367] res3b3_branch2a_relu -> res3b3_branch2a (in-place)
I0413 22:35:27.234407 29631 net.cpp:122] Setting up res3b3_branch2a_relu
I0413 22:35:27.234413 29631 net.cpp:129] Top shape: 5 128 28 28 (501760)
I0413 22:35:27.234416 29631 net.cpp:137] Memory required for data: 809840660
I0413 22:35:27.234417 29631 layer_factory.hpp:77] Creating layer res3b3_branch2b
I0413 22:35:27.234422 29631 net.cpp:84] Creating Layer res3b3_branch2b
I0413 22:35:27.234424 29631 net.cpp:406] res3b3_branch2b <- res3b3_branch2a
I0413 22:35:27.234428 29631 net.cpp:380] res3b3_branch2b -> res3b3_branch2b
I0413 22:35:27.237140 29631 net.cpp:122] Setting up res3b3_branch2b
I0413 22:35:27.237148 29631 net.cpp:129] Top shape: 5 128 28 28 (501760)
I0413 22:35:27.237149 29631 net.cpp:137] Memory required for data: 811847700
I0413 22:35:27.237152 29631 layer_factory.hpp:77] Creating layer bn3b3_branch2b
I0413 22:35:27.237156 29631 net.cpp:84] Creating Layer bn3b3_branch2b
I0413 22:35:27.237159 29631 net.cpp:406] bn3b3_branch2b <- res3b3_branch2b
I0413 22:35:27.237161 29631 net.cpp:367] bn3b3_branch2b -> res3b3_branch2b (in-place)
I0413 22:35:27.237365 29631 net.cpp:122] Setting up bn3b3_branch2b
I0413 22:35:27.237371 29631 net.cpp:129] Top shape: 5 128 28 28 (501760)
I0413 22:35:27.237373 29631 net.cpp:137] Memory required for data: 813854740
I0413 22:35:27.237378 29631 layer_factory.hpp:77] Creating layer scale3b3_branch2b
I0413 22:35:27.237382 29631 net.cpp:84] Creating Layer scale3b3_branch2b
I0413 22:35:27.237385 29631 net.cpp:406] scale3b3_branch2b <- res3b3_branch2b
I0413 22:35:27.237390 29631 net.cpp:367] scale3b3_branch2b -> res3b3_branch2b (in-place)
I0413 22:35:27.237429 29631 layer_factory.hpp:77] Creating layer scale3b3_branch2b
I0413 22:35:27.237532 29631 net.cpp:122] Setting up scale3b3_branch2b
I0413 22:35:27.237538 29631 net.cpp:129] Top shape: 5 128 28 28 (501760)
I0413 22:35:27.237540 29631 net.cpp:137] Memory required for data: 815861780
I0413 22:35:27.237545 29631 layer_factory.hpp:77] Creating layer res3b3_branch2b_relu
I0413 22:35:27.237547 29631 net.cpp:84] Creating Layer res3b3_branch2b_relu
I0413 22:35:27.237550 29631 net.cpp:406] res3b3_branch2b_relu <- res3b3_branch2b
I0413 22:35:27.237551 29631 net.cpp:367] res3b3_branch2b_relu -> res3b3_branch2b (in-place)
I0413 22:35:27.238052 29631 net.cpp:122] Setting up res3b3_branch2b_relu
I0413 22:35:27.238059 29631 net.cpp:129] Top shape: 5 128 28 28 (501760)
I0413 22:35:27.238061 29631 net.cpp:137] Memory required for data: 817868820
I0413 22:35:27.238062 29631 layer_factory.hpp:77] Creating layer res3b3_branch2c
I0413 22:35:27.238067 29631 net.cpp:84] Creating Layer res3b3_branch2c
I0413 22:35:27.238070 29631 net.cpp:406] res3b3_branch2c <- res3b3_branch2b
I0413 22:35:27.238073 29631 net.cpp:380] res3b3_branch2c -> res3b3_branch2c
I0413 22:35:27.240134 29631 net.cpp:122] Setting up res3b3_branch2c
I0413 22:35:27.240140 29631 net.cpp:129] Top shape: 5 512 28 28 (2007040)
I0413 22:35:27.240142 29631 net.cpp:137] Memory required for data: 825896980
I0413 22:35:27.240145 29631 layer_factory.hpp:77] Creating layer bn3b3_branch2c
I0413 22:35:27.240149 29631 net.cpp:84] Creating Layer bn3b3_branch2c
I0413 22:35:27.240151 29631 net.cpp:406] bn3b3_branch2c <- res3b3_branch2c
I0413 22:35:27.240154 29631 net.cpp:367] bn3b3_branch2c -> res3b3_branch2c (in-place)
I0413 22:35:27.240370 29631 net.cpp:122] Setting up bn3b3_branch2c
I0413 22:35:27.240376 29631 net.cpp:129] Top shape: 5 512 28 28 (2007040)
I0413 22:35:27.240378 29631 net.cpp:137] Memory required for data: 833925140
I0413 22:35:27.240381 29631 layer_factory.hpp:77] Creating layer scale3b3_branch2c
I0413 22:35:27.240386 29631 net.cpp:84] Creating Layer scale3b3_branch2c
I0413 22:35:27.240387 29631 net.cpp:406] scale3b3_branch2c <- res3b3_branch2c
I0413 22:35:27.240391 29631 net.cpp:367] scale3b3_branch2c -> res3b3_branch2c (in-place)
I0413 22:35:27.240432 29631 layer_factory.hpp:77] Creating layer scale3b3_branch2c
I0413 22:35:27.240566 29631 net.cpp:122] Setting up scale3b3_branch2c
I0413 22:35:27.240571 29631 net.cpp:129] Top shape: 5 512 28 28 (2007040)
I0413 22:35:27.240574 29631 net.cpp:137] Memory required for data: 841953300
I0413 22:35:27.240578 29631 layer_factory.hpp:77] Creating layer res3b3
I0413 22:35:27.240583 29631 net.cpp:84] Creating Layer res3b3
I0413 22:35:27.240586 29631 net.cpp:406] res3b3 <- res3b2_res3b2_relu_0_split_1
I0413 22:35:27.240591 29631 net.cpp:406] res3b3 <- res3b3_branch2c
I0413 22:35:27.240595 29631 net.cpp:380] res3b3 -> res3b3
I0413 22:35:27.240622 29631 net.cpp:122] Setting up res3b3
I0413 22:35:27.240628 29631 net.cpp:129] Top shape: 5 512 28 28 (2007040)
I0413 22:35:27.240631 29631 net.cpp:137] Memory required for data: 849981460
I0413 22:35:27.240633 29631 layer_factory.hpp:77] Creating layer res3b3_relu
I0413 22:35:27.240638 29631 net.cpp:84] Creating Layer res3b3_relu
I0413 22:35:27.240640 29631 net.cpp:406] res3b3_relu <- res3b3
I0413 22:35:27.240643 29631 net.cpp:367] res3b3_relu -> res3b3 (in-place)
I0413 22:35:27.241261 29631 net.cpp:122] Setting up res3b3_relu
I0413 22:35:27.241267 29631 net.cpp:129] Top shape: 5 512 28 28 (2007040)
I0413 22:35:27.241269 29631 net.cpp:137] Memory required for data: 858009620
I0413 22:35:27.241271 29631 layer_factory.hpp:77] Creating layer res3b3_res3b3_relu_0_split
I0413 22:35:27.241276 29631 net.cpp:84] Creating Layer res3b3_res3b3_relu_0_split
I0413 22:35:27.241278 29631 net.cpp:406] res3b3_res3b3_relu_0_split <- res3b3
I0413 22:35:27.241282 29631 net.cpp:380] res3b3_res3b3_relu_0_split -> res3b3_res3b3_relu_0_split_0
I0413 22:35:27.241291 29631 net.cpp:380] res3b3_res3b3_relu_0_split -> res3b3_res3b3_relu_0_split_1
I0413 22:35:27.241338 29631 net.cpp:122] Setting up res3b3_res3b3_relu_0_split
I0413 22:35:27.241343 29631 net.cpp:129] Top shape: 5 512 28 28 (2007040)
I0413 22:35:27.241348 29631 net.cpp:129] Top shape: 5 512 28 28 (2007040)
I0413 22:35:27.241349 29631 net.cpp:137] Memory required for data: 874065940
I0413 22:35:27.241353 29631 layer_factory.hpp:77] Creating layer res3b4_branch2a
I0413 22:35:27.241360 29631 net.cpp:84] Creating Layer res3b4_branch2a
I0413 22:35:27.241364 29631 net.cpp:406] res3b4_branch2a <- res3b3_res3b3_relu_0_split_0
I0413 22:35:27.241370 29631 net.cpp:380] res3b4_branch2a -> res3b4_branch2a
I0413 22:35:27.243592 29631 net.cpp:122] Setting up res3b4_branch2a
I0413 22:35:27.243613 29631 net.cpp:129] Top shape: 5 128 28 28 (501760)
I0413 22:35:27.243615 29631 net.cpp:137] Memory required for data: 876072980
I0413 22:35:27.243620 29631 layer_factory.hpp:77] Creating layer bn3b4_branch2a
I0413 22:35:27.243624 29631 net.cpp:84] Creating Layer bn3b4_branch2a
I0413 22:35:27.243628 29631 net.cpp:406] bn3b4_branch2a <- res3b4_branch2a
I0413 22:35:27.243633 29631 net.cpp:367] bn3b4_branch2a -> res3b4_branch2a (in-place)
I0413 22:35:27.243793 29631 net.cpp:122] Setting up bn3b4_branch2a
I0413 22:35:27.243798 29631 net.cpp:129] Top shape: 5 128 28 28 (501760)
I0413 22:35:27.243800 29631 net.cpp:137] Memory required for data: 878080020
I0413 22:35:27.243805 29631 layer_factory.hpp:77] Creating layer scale3b4_branch2a
I0413 22:35:27.243809 29631 net.cpp:84] Creating Layer scale3b4_branch2a
I0413 22:35:27.243813 29631 net.cpp:406] scale3b4_branch2a <- res3b4_branch2a
I0413 22:35:27.243816 29631 net.cpp:367] scale3b4_branch2a -> res3b4_branch2a (in-place)
I0413 22:35:27.243851 29631 layer_factory.hpp:77] Creating layer scale3b4_branch2a
I0413 22:35:27.243940 29631 net.cpp:122] Setting up scale3b4_branch2a
I0413 22:35:27.243944 29631 net.cpp:129] Top shape: 5 128 28 28 (501760)
I0413 22:35:27.243947 29631 net.cpp:137] Memory required for data: 880087060
I0413 22:35:27.243952 29631 layer_factory.hpp:77] Creating layer res3b4_branch2a_relu
I0413 22:35:27.243957 29631 net.cpp:84] Creating Layer res3b4_branch2a_relu
I0413 22:35:27.243959 29631 net.cpp:406] res3b4_branch2a_relu <- res3b4_branch2a
I0413 22:35:27.243963 29631 net.cpp:367] res3b4_branch2a_relu -> res3b4_branch2a (in-place)
I0413 22:35:27.244385 29631 net.cpp:122] Setting up res3b4_branch2a_relu
I0413 22:35:27.244392 29631 net.cpp:129] Top shape: 5 128 28 28 (501760)
I0413 22:35:27.244395 29631 net.cpp:137] Memory required for data: 882094100
I0413 22:35:27.244397 29631 layer_factory.hpp:77] Creating layer res3b4_branch2b
I0413 22:35:27.244405 29631 net.cpp:84] Creating Layer res3b4_branch2b
I0413 22:35:27.244408 29631 net.cpp:406] res3b4_branch2b <- res3b4_branch2a
I0413 22:35:27.244413 29631 net.cpp:380] res3b4_branch2b -> res3b4_branch2b
I0413 22:35:27.247644 29631 net.cpp:122] Setting up res3b4_branch2b
I0413 22:35:27.247656 29631 net.cpp:129] Top shape: 5 128 28 28 (501760)
I0413 22:35:27.247659 29631 net.cpp:137] Memory required for data: 884101140
I0413 22:35:27.247664 29631 layer_factory.hpp:77] Creating layer bn3b4_branch2b
I0413 22:35:27.247670 29631 net.cpp:84] Creating Layer bn3b4_branch2b
I0413 22:35:27.247673 29631 net.cpp:406] bn3b4_branch2b <- res3b4_branch2b
I0413 22:35:27.247679 29631 net.cpp:367] bn3b4_branch2b -> res3b4_branch2b (in-place)
I0413 22:35:27.247845 29631 net.cpp:122] Setting up bn3b4_branch2b
I0413 22:35:27.247850 29631 net.cpp:129] Top shape: 5 128 28 28 (501760)
I0413 22:35:27.247853 29631 net.cpp:137] Memory required for data: 886108180
I0413 22:35:27.247859 29631 layer_factory.hpp:77] Creating layer scale3b4_branch2b
I0413 22:35:27.247862 29631 net.cpp:84] Creating Layer scale3b4_branch2b
I0413 22:35:27.247865 29631 net.cpp:406] scale3b4_branch2b <- res3b4_branch2b
I0413 22:35:27.247869 29631 net.cpp:367] scale3b4_branch2b -> res3b4_branch2b (in-place)
I0413 22:35:27.247906 29631 layer_factory.hpp:77] Creating layer scale3b4_branch2b
I0413 22:35:27.247997 29631 net.cpp:122] Setting up scale3b4_branch2b
I0413 22:35:27.248003 29631 net.cpp:129] Top shape: 5 128 28 28 (501760)
I0413 22:35:27.248004 29631 net.cpp:137] Memory required for data: 888115220
I0413 22:35:27.248008 29631 layer_factory.hpp:77] Creating layer res3b4_branch2b_relu
I0413 22:35:27.248013 29631 net.cpp:84] Creating Layer res3b4_branch2b_relu
I0413 22:35:27.248016 29631 net.cpp:406] res3b4_branch2b_relu <- res3b4_branch2b
I0413 22:35:27.248020 29631 net.cpp:367] res3b4_branch2b_relu -> res3b4_branch2b (in-place)
I0413 22:35:27.248427 29631 net.cpp:122] Setting up res3b4_branch2b_relu
I0413 22:35:27.248435 29631 net.cpp:129] Top shape: 5 128 28 28 (501760)
I0413 22:35:27.248436 29631 net.cpp:137] Memory required for data: 890122260
I0413 22:35:27.248446 29631 layer_factory.hpp:77] Creating layer res3b4_branch2c
I0413 22:35:27.248455 29631 net.cpp:84] Creating Layer res3b4_branch2c
I0413 22:35:27.248457 29631 net.cpp:406] res3b4_branch2c <- res3b4_branch2b
I0413 22:35:27.248461 29631 net.cpp:380] res3b4_branch2c -> res3b4_branch2c
I0413 22:35:27.250378 29631 net.cpp:122] Setting up res3b4_branch2c
I0413 22:35:27.250386 29631 net.cpp:129] Top shape: 5 512 28 28 (2007040)
I0413 22:35:27.250389 29631 net.cpp:137] Memory required for data: 898150420
I0413 22:35:27.250393 29631 layer_factory.hpp:77] Creating layer bn3b4_branch2c
I0413 22:35:27.250398 29631 net.cpp:84] Creating Layer bn3b4_branch2c
I0413 22:35:27.250401 29631 net.cpp:406] bn3b4_branch2c <- res3b4_branch2c
I0413 22:35:27.250406 29631 net.cpp:367] bn3b4_branch2c -> res3b4_branch2c (in-place)
I0413 22:35:27.250564 29631 net.cpp:122] Setting up bn3b4_branch2c
I0413 22:35:27.250568 29631 net.cpp:129] Top shape: 5 512 28 28 (2007040)
I0413 22:35:27.250571 29631 net.cpp:137] Memory required for data: 906178580
I0413 22:35:27.250576 29631 layer_factory.hpp:77] Creating layer scale3b4_branch2c
I0413 22:35:27.250581 29631 net.cpp:84] Creating Layer scale3b4_branch2c
I0413 22:35:27.250583 29631 net.cpp:406] scale3b4_branch2c <- res3b4_branch2c
I0413 22:35:27.250586 29631 net.cpp:367] scale3b4_branch2c -> res3b4_branch2c (in-place)
I0413 22:35:27.250622 29631 layer_factory.hpp:77] Creating layer scale3b4_branch2c
I0413 22:35:27.250708 29631 net.cpp:122] Setting up scale3b4_branch2c
I0413 22:35:27.250713 29631 net.cpp:129] Top shape: 5 512 28 28 (2007040)
I0413 22:35:27.250715 29631 net.cpp:137] Memory required for data: 914206740
I0413 22:35:27.250720 29631 layer_factory.hpp:77] Creating layer res3b4
I0413 22:35:27.250725 29631 net.cpp:84] Creating Layer res3b4
I0413 22:35:27.250728 29631 net.cpp:406] res3b4 <- res3b3_res3b3_relu_0_split_1
I0413 22:35:27.250732 29631 net.cpp:406] res3b4 <- res3b4_branch2c
I0413 22:35:27.250735 29631 net.cpp:380] res3b4 -> res3b4
I0413 22:35:27.250756 29631 net.cpp:122] Setting up res3b4
I0413 22:35:27.250761 29631 net.cpp:129] Top shape: 5 512 28 28 (2007040)
I0413 22:35:27.250763 29631 net.cpp:137] Memory required for data: 922234900
I0413 22:35:27.250766 29631 layer_factory.hpp:77] Creating layer res3b4_relu
I0413 22:35:27.250769 29631 net.cpp:84] Creating Layer res3b4_relu
I0413 22:35:27.250772 29631 net.cpp:406] res3b4_relu <- res3b4
I0413 22:35:27.250777 29631 net.cpp:367] res3b4_relu -> res3b4 (in-place)
I0413 22:35:27.251307 29631 net.cpp:122] Setting up res3b4_relu
I0413 22:35:27.251313 29631 net.cpp:129] Top shape: 5 512 28 28 (2007040)
I0413 22:35:27.251315 29631 net.cpp:137] Memory required for data: 930263060
I0413 22:35:27.251318 29631 layer_factory.hpp:77] Creating layer res3b4_res3b4_relu_0_split
I0413 22:35:27.251322 29631 net.cpp:84] Creating Layer res3b4_res3b4_relu_0_split
I0413 22:35:27.251325 29631 net.cpp:406] res3b4_res3b4_relu_0_split <- res3b4
I0413 22:35:27.251332 29631 net.cpp:380] res3b4_res3b4_relu_0_split -> res3b4_res3b4_relu_0_split_0
I0413 22:35:27.251336 29631 net.cpp:380] res3b4_res3b4_relu_0_split -> res3b4_res3b4_relu_0_split_1
I0413 22:35:27.251376 29631 net.cpp:122] Setting up res3b4_res3b4_relu_0_split
I0413 22:35:27.251380 29631 net.cpp:129] Top shape: 5 512 28 28 (2007040)
I0413 22:35:27.251384 29631 net.cpp:129] Top shape: 5 512 28 28 (2007040)
I0413 22:35:27.251386 29631 net.cpp:137] Memory required for data: 946319380
I0413 22:35:27.251389 29631 layer_factory.hpp:77] Creating layer res3b5_branch2a
I0413 22:35:27.251395 29631 net.cpp:84] Creating Layer res3b5_branch2a
I0413 22:35:27.251399 29631 net.cpp:406] res3b5_branch2a <- res3b4_res3b4_relu_0_split_0
I0413 22:35:27.251402 29631 net.cpp:380] res3b5_branch2a -> res3b5_branch2a
I0413 22:35:27.253376 29631 net.cpp:122] Setting up res3b5_branch2a
I0413 22:35:27.253382 29631 net.cpp:129] Top shape: 5 128 28 28 (501760)
I0413 22:35:27.253386 29631 net.cpp:137] Memory required for data: 948326420
I0413 22:35:27.253389 29631 layer_factory.hpp:77] Creating layer bn3b5_branch2a
I0413 22:35:27.253402 29631 net.cpp:84] Creating Layer bn3b5_branch2a
I0413 22:35:27.253406 29631 net.cpp:406] bn3b5_branch2a <- res3b5_branch2a
I0413 22:35:27.253409 29631 net.cpp:367] bn3b5_branch2a -> res3b5_branch2a (in-place)
I0413 22:35:27.253569 29631 net.cpp:122] Setting up bn3b5_branch2a
I0413 22:35:27.253574 29631 net.cpp:129] Top shape: 5 128 28 28 (501760)
I0413 22:35:27.253576 29631 net.cpp:137] Memory required for data: 950333460
I0413 22:35:27.253582 29631 layer_factory.hpp:77] Creating layer scale3b5_branch2a
I0413 22:35:27.253587 29631 net.cpp:84] Creating Layer scale3b5_branch2a
I0413 22:35:27.253589 29631 net.cpp:406] scale3b5_branch2a <- res3b5_branch2a
I0413 22:35:27.253592 29631 net.cpp:367] scale3b5_branch2a -> res3b5_branch2a (in-place)
I0413 22:35:27.253626 29631 layer_factory.hpp:77] Creating layer scale3b5_branch2a
I0413 22:35:27.253716 29631 net.cpp:122] Setting up scale3b5_branch2a
I0413 22:35:27.253721 29631 net.cpp:129] Top shape: 5 128 28 28 (501760)
I0413 22:35:27.253723 29631 net.cpp:137] Memory required for data: 952340500
I0413 22:35:27.253727 29631 layer_factory.hpp:77] Creating layer res3b5_branch2a_relu
I0413 22:35:27.253736 29631 net.cpp:84] Creating Layer res3b5_branch2a_relu
I0413 22:35:27.253741 29631 net.cpp:406] res3b5_branch2a_relu <- res3b5_branch2a
I0413 22:35:27.253743 29631 net.cpp:367] res3b5_branch2a_relu -> res3b5_branch2a (in-place)
I0413 22:35:27.254261 29631 net.cpp:122] Setting up res3b5_branch2a_relu
I0413 22:35:27.254268 29631 net.cpp:129] Top shape: 5 128 28 28 (501760)
I0413 22:35:27.254271 29631 net.cpp:137] Memory required for data: 954347540
I0413 22:35:27.254273 29631 layer_factory.hpp:77] Creating layer res3b5_branch2b
I0413 22:35:27.254281 29631 net.cpp:84] Creating Layer res3b5_branch2b
I0413 22:35:27.254285 29631 net.cpp:406] res3b5_branch2b <- res3b5_branch2a
I0413 22:35:27.254289 29631 net.cpp:380] res3b5_branch2b -> res3b5_branch2b
I0413 22:35:27.256745 29631 net.cpp:122] Setting up res3b5_branch2b
I0413 22:35:27.256753 29631 net.cpp:129] Top shape: 5 128 28 28 (501760)
I0413 22:35:27.256755 29631 net.cpp:137] Memory required for data: 956354580
I0413 22:35:27.256759 29631 layer_factory.hpp:77] Creating layer bn3b5_branch2b
I0413 22:35:27.256765 29631 net.cpp:84] Creating Layer bn3b5_branch2b
I0413 22:35:27.256769 29631 net.cpp:406] bn3b5_branch2b <- res3b5_branch2b
I0413 22:35:27.256773 29631 net.cpp:367] bn3b5_branch2b -> res3b5_branch2b (in-place)
I0413 22:35:27.256937 29631 net.cpp:122] Setting up bn3b5_branch2b
I0413 22:35:27.256942 29631 net.cpp:129] Top shape: 5 128 28 28 (501760)
I0413 22:35:27.256944 29631 net.cpp:137] Memory required for data: 958361620
I0413 22:35:27.256949 29631 layer_factory.hpp:77] Creating layer scale3b5_branch2b
I0413 22:35:27.256953 29631 net.cpp:84] Creating Layer scale3b5_branch2b
I0413 22:35:27.256956 29631 net.cpp:406] scale3b5_branch2b <- res3b5_branch2b
I0413 22:35:27.256960 29631 net.cpp:367] scale3b5_branch2b -> res3b5_branch2b (in-place)
I0413 22:35:27.256996 29631 layer_factory.hpp:77] Creating layer scale3b5_branch2b
I0413 22:35:27.257097 29631 net.cpp:122] Setting up scale3b5_branch2b
I0413 22:35:27.257102 29631 net.cpp:129] Top shape: 5 128 28 28 (501760)
I0413 22:35:27.257103 29631 net.cpp:137] Memory required for data: 960368660
I0413 22:35:27.257107 29631 layer_factory.hpp:77] Creating layer res3b5_branch2b_relu
I0413 22:35:27.257113 29631 net.cpp:84] Creating Layer res3b5_branch2b_relu
I0413 22:35:27.257117 29631 net.cpp:406] res3b5_branch2b_relu <- res3b5_branch2b
I0413 22:35:27.257119 29631 net.cpp:367] res3b5_branch2b_relu -> res3b5_branch2b (in-place)
I0413 22:35:27.257519 29631 net.cpp:122] Setting up res3b5_branch2b_relu
I0413 22:35:27.257524 29631 net.cpp:129] Top shape: 5 128 28 28 (501760)
I0413 22:35:27.257526 29631 net.cpp:137] Memory required for data: 962375700
I0413 22:35:27.257529 29631 layer_factory.hpp:77] Creating layer res3b5_branch2c
I0413 22:35:27.257535 29631 net.cpp:84] Creating Layer res3b5_branch2c
I0413 22:35:27.257539 29631 net.cpp:406] res3b5_branch2c <- res3b5_branch2b
I0413 22:35:27.257550 29631 net.cpp:380] res3b5_branch2c -> res3b5_branch2c
I0413 22:35:27.259582 29631 net.cpp:122] Setting up res3b5_branch2c
I0413 22:35:27.259590 29631 net.cpp:129] Top shape: 5 512 28 28 (2007040)
I0413 22:35:27.259593 29631 net.cpp:137] Memory required for data: 970403860
I0413 22:35:27.259598 29631 layer_factory.hpp:77] Creating layer bn3b5_branch2c
I0413 22:35:27.259603 29631 net.cpp:84] Creating Layer bn3b5_branch2c
I0413 22:35:27.259606 29631 net.cpp:406] bn3b5_branch2c <- res3b5_branch2c
I0413 22:35:27.259610 29631 net.cpp:367] bn3b5_branch2c -> res3b5_branch2c (in-place)
I0413 22:35:27.259773 29631 net.cpp:122] Setting up bn3b5_branch2c
I0413 22:35:27.259776 29631 net.cpp:129] Top shape: 5 512 28 28 (2007040)
I0413 22:35:27.259779 29631 net.cpp:137] Memory required for data: 978432020
I0413 22:35:27.259784 29631 layer_factory.hpp:77] Creating layer scale3b5_branch2c
I0413 22:35:27.259789 29631 net.cpp:84] Creating Layer scale3b5_branch2c
I0413 22:35:27.259793 29631 net.cpp:406] scale3b5_branch2c <- res3b5_branch2c
I0413 22:35:27.259795 29631 net.cpp:367] scale3b5_branch2c -> res3b5_branch2c (in-place)
I0413 22:35:27.259831 29631 layer_factory.hpp:77] Creating layer scale3b5_branch2c
I0413 22:35:27.259922 29631 net.cpp:122] Setting up scale3b5_branch2c
I0413 22:35:27.259925 29631 net.cpp:129] Top shape: 5 512 28 28 (2007040)
I0413 22:35:27.259928 29631 net.cpp:137] Memory required for data: 986460180
I0413 22:35:27.259932 29631 layer_factory.hpp:77] Creating layer res3b5
I0413 22:35:27.259937 29631 net.cpp:84] Creating Layer res3b5
I0413 22:35:27.259939 29631 net.cpp:406] res3b5 <- res3b4_res3b4_relu_0_split_1
I0413 22:35:27.259943 29631 net.cpp:406] res3b5 <- res3b5_branch2c
I0413 22:35:27.259948 29631 net.cpp:380] res3b5 -> res3b5
I0413 22:35:27.259969 29631 net.cpp:122] Setting up res3b5
I0413 22:35:27.259974 29631 net.cpp:129] Top shape: 5 512 28 28 (2007040)
I0413 22:35:27.259975 29631 net.cpp:137] Memory required for data: 994488340
I0413 22:35:27.259979 29631 layer_factory.hpp:77] Creating layer res3b5_relu
I0413 22:35:27.259981 29631 net.cpp:84] Creating Layer res3b5_relu
I0413 22:35:27.259984 29631 net.cpp:406] res3b5_relu <- res3b5
I0413 22:35:27.259989 29631 net.cpp:367] res3b5_relu -> res3b5 (in-place)
I0413 22:35:27.260392 29631 net.cpp:122] Setting up res3b5_relu
I0413 22:35:27.260398 29631 net.cpp:129] Top shape: 5 512 28 28 (2007040)
I0413 22:35:27.260401 29631 net.cpp:137] Memory required for data: 1002516500
I0413 22:35:27.260404 29631 layer_factory.hpp:77] Creating layer res3b5_res3b5_relu_0_split
I0413 22:35:27.260409 29631 net.cpp:84] Creating Layer res3b5_res3b5_relu_0_split
I0413 22:35:27.260412 29631 net.cpp:406] res3b5_res3b5_relu_0_split <- res3b5
I0413 22:35:27.260416 29631 net.cpp:380] res3b5_res3b5_relu_0_split -> res3b5_res3b5_relu_0_split_0
I0413 22:35:27.260421 29631 net.cpp:380] res3b5_res3b5_relu_0_split -> res3b5_res3b5_relu_0_split_1
I0413 22:35:27.260458 29631 net.cpp:122] Setting up res3b5_res3b5_relu_0_split
I0413 22:35:27.260463 29631 net.cpp:129] Top shape: 5 512 28 28 (2007040)
I0413 22:35:27.260466 29631 net.cpp:129] Top shape: 5 512 28 28 (2007040)
I0413 22:35:27.260468 29631 net.cpp:137] Memory required for data: 1018572820
I0413 22:35:27.260471 29631 layer_factory.hpp:77] Creating layer res3b6_branch2a
I0413 22:35:27.260479 29631 net.cpp:84] Creating Layer res3b6_branch2a
I0413 22:35:27.260483 29631 net.cpp:406] res3b6_branch2a <- res3b5_res3b5_relu_0_split_0
I0413 22:35:27.260486 29631 net.cpp:380] res3b6_branch2a -> res3b6_branch2a
I0413 22:35:27.262392 29631 net.cpp:122] Setting up res3b6_branch2a
I0413 22:35:27.262400 29631 net.cpp:129] Top shape: 5 128 28 28 (501760)
I0413 22:35:27.262403 29631 net.cpp:137] Memory required for data: 1020579860
I0413 22:35:27.262408 29631 layer_factory.hpp:77] Creating layer bn3b6_branch2a
I0413 22:35:27.262413 29631 net.cpp:84] Creating Layer bn3b6_branch2a
I0413 22:35:27.262416 29631 net.cpp:406] bn3b6_branch2a <- res3b6_branch2a
I0413 22:35:27.262420 29631 net.cpp:367] bn3b6_branch2a -> res3b6_branch2a (in-place)
I0413 22:35:27.262589 29631 net.cpp:122] Setting up bn3b6_branch2a
I0413 22:35:27.262594 29631 net.cpp:129] Top shape: 5 128 28 28 (501760)
I0413 22:35:27.262598 29631 net.cpp:137] Memory required for data: 1022586900
I0413 22:35:27.262603 29631 layer_factory.hpp:77] Creating layer scale3b6_branch2a
I0413 22:35:27.262607 29631 net.cpp:84] Creating Layer scale3b6_branch2a
I0413 22:35:27.262610 29631 net.cpp:406] scale3b6_branch2a <- res3b6_branch2a
I0413 22:35:27.262614 29631 net.cpp:367] scale3b6_branch2a -> res3b6_branch2a (in-place)
I0413 22:35:27.262650 29631 layer_factory.hpp:77] Creating layer scale3b6_branch2a
I0413 22:35:27.262740 29631 net.cpp:122] Setting up scale3b6_branch2a
I0413 22:35:27.262744 29631 net.cpp:129] Top shape: 5 128 28 28 (501760)
I0413 22:35:27.262748 29631 net.cpp:137] Memory required for data: 1024593940
I0413 22:35:27.262751 29631 layer_factory.hpp:77] Creating layer res3b6_branch2a_relu
I0413 22:35:27.262756 29631 net.cpp:84] Creating Layer res3b6_branch2a_relu
I0413 22:35:27.262758 29631 net.cpp:406] res3b6_branch2a_relu <- res3b6_branch2a
I0413 22:35:27.262763 29631 net.cpp:367] res3b6_branch2a_relu -> res3b6_branch2a (in-place)
I0413 22:35:27.263304 29631 net.cpp:122] Setting up res3b6_branch2a_relu
I0413 22:35:27.263312 29631 net.cpp:129] Top shape: 5 128 28 28 (501760)
I0413 22:35:27.263314 29631 net.cpp:137] Memory required for data: 1026600980
I0413 22:35:27.263317 29631 layer_factory.hpp:77] Creating layer res3b6_branch2b
I0413 22:35:27.263324 29631 net.cpp:84] Creating Layer res3b6_branch2b
I0413 22:35:27.263329 29631 net.cpp:406] res3b6_branch2b <- res3b6_branch2a
I0413 22:35:27.263334 29631 net.cpp:380] res3b6_branch2b -> res3b6_branch2b
I0413 22:35:27.265854 29631 net.cpp:122] Setting up res3b6_branch2b
I0413 22:35:27.265864 29631 net.cpp:129] Top shape: 5 128 28 28 (501760)
I0413 22:35:27.265867 29631 net.cpp:137] Memory required for data: 1028608020
I0413 22:35:27.265872 29631 layer_factory.hpp:77] Creating layer bn3b6_branch2b
I0413 22:35:27.265878 29631 net.cpp:84] Creating Layer bn3b6_branch2b
I0413 22:35:27.265882 29631 net.cpp:406] bn3b6_branch2b <- res3b6_branch2b
I0413 22:35:27.265885 29631 net.cpp:367] bn3b6_branch2b -> res3b6_branch2b (in-place)
I0413 22:35:27.266065 29631 net.cpp:122] Setting up bn3b6_branch2b
I0413 22:35:27.266070 29631 net.cpp:129] Top shape: 5 128 28 28 (501760)
I0413 22:35:27.266072 29631 net.cpp:137] Memory required for data: 1030615060
I0413 22:35:27.266077 29631 layer_factory.hpp:77] Creating layer scale3b6_branch2b
I0413 22:35:27.266082 29631 net.cpp:84] Creating Layer scale3b6_branch2b
I0413 22:35:27.266084 29631 net.cpp:406] scale3b6_branch2b <- res3b6_branch2b
I0413 22:35:27.266088 29631 net.cpp:367] scale3b6_branch2b -> res3b6_branch2b (in-place)
I0413 22:35:27.266126 29631 layer_factory.hpp:77] Creating layer scale3b6_branch2b
I0413 22:35:27.266219 29631 net.cpp:122] Setting up scale3b6_branch2b
I0413 22:35:27.266223 29631 net.cpp:129] Top shape: 5 128 28 28 (501760)
I0413 22:35:27.266227 29631 net.cpp:137] Memory required for data: 1032622100
I0413 22:35:27.266230 29631 layer_factory.hpp:77] Creating layer res3b6_branch2b_relu
I0413 22:35:27.266235 29631 net.cpp:84] Creating Layer res3b6_branch2b_relu
I0413 22:35:27.266239 29631 net.cpp:406] res3b6_branch2b_relu <- res3b6_branch2b
I0413 22:35:27.266242 29631 net.cpp:367] res3b6_branch2b_relu -> res3b6_branch2b (in-place)
I0413 22:35:27.266639 29631 net.cpp:122] Setting up res3b6_branch2b_relu
I0413 22:35:27.266645 29631 net.cpp:129] Top shape: 5 128 28 28 (501760)
I0413 22:35:27.266647 29631 net.cpp:137] Memory required for data: 1034629140
I0413 22:35:27.266650 29631 layer_factory.hpp:77] Creating layer res3b6_branch2c
I0413 22:35:27.266656 29631 net.cpp:84] Creating Layer res3b6_branch2c
I0413 22:35:27.266661 29631 net.cpp:406] res3b6_branch2c <- res3b6_branch2b
I0413 22:35:27.266665 29631 net.cpp:380] res3b6_branch2c -> res3b6_branch2c
I0413 22:35:27.268676 29631 net.cpp:122] Setting up res3b6_branch2c
I0413 22:35:27.268685 29631 net.cpp:129] Top shape: 5 512 28 28 (2007040)
I0413 22:35:27.268695 29631 net.cpp:137] Memory required for data: 1042657300
I0413 22:35:27.268699 29631 layer_factory.hpp:77] Creating layer bn3b6_branch2c
I0413 22:35:27.268703 29631 net.cpp:84] Creating Layer bn3b6_branch2c
I0413 22:35:27.268707 29631 net.cpp:406] bn3b6_branch2c <- res3b6_branch2c
I0413 22:35:27.268710 29631 net.cpp:367] bn3b6_branch2c -> res3b6_branch2c (in-place)
I0413 22:35:27.268874 29631 net.cpp:122] Setting up bn3b6_branch2c
I0413 22:35:27.268879 29631 net.cpp:129] Top shape: 5 512 28 28 (2007040)
I0413 22:35:27.268882 29631 net.cpp:137] Memory required for data: 1050685460
I0413 22:35:27.268887 29631 layer_factory.hpp:77] Creating layer scale3b6_branch2c
I0413 22:35:27.268890 29631 net.cpp:84] Creating Layer scale3b6_branch2c
I0413 22:35:27.268893 29631 net.cpp:406] scale3b6_branch2c <- res3b6_branch2c
I0413 22:35:27.268896 29631 net.cpp:367] scale3b6_branch2c -> res3b6_branch2c (in-place)
I0413 22:35:27.268932 29631 layer_factory.hpp:77] Creating layer scale3b6_branch2c
I0413 22:35:27.269021 29631 net.cpp:122] Setting up scale3b6_branch2c
I0413 22:35:27.269024 29631 net.cpp:129] Top shape: 5 512 28 28 (2007040)
I0413 22:35:27.269032 29631 net.cpp:137] Memory required for data: 1058713620
I0413 22:35:27.269035 29631 layer_factory.hpp:77] Creating layer res3b6
I0413 22:35:27.269042 29631 net.cpp:84] Creating Layer res3b6
I0413 22:35:27.269044 29631 net.cpp:406] res3b6 <- res3b5_res3b5_relu_0_split_1
I0413 22:35:27.269047 29631 net.cpp:406] res3b6 <- res3b6_branch2c
I0413 22:35:27.269052 29631 net.cpp:380] res3b6 -> res3b6
I0413 22:35:27.269073 29631 net.cpp:122] Setting up res3b6
I0413 22:35:27.269078 29631 net.cpp:129] Top shape: 5 512 28 28 (2007040)
I0413 22:35:27.269080 29631 net.cpp:137] Memory required for data: 1066741780
I0413 22:35:27.269083 29631 layer_factory.hpp:77] Creating layer res3b6_relu
I0413 22:35:27.269086 29631 net.cpp:84] Creating Layer res3b6_relu
I0413 22:35:27.269089 29631 net.cpp:406] res3b6_relu <- res3b6
I0413 22:35:27.269093 29631 net.cpp:367] res3b6_relu -> res3b6 (in-place)
I0413 22:35:27.269500 29631 net.cpp:122] Setting up res3b6_relu
I0413 22:35:27.269505 29631 net.cpp:129] Top shape: 5 512 28 28 (2007040)
I0413 22:35:27.269507 29631 net.cpp:137] Memory required for data: 1074769940
I0413 22:35:27.269510 29631 layer_factory.hpp:77] Creating layer res3b6_res3b6_relu_0_split
I0413 22:35:27.269516 29631 net.cpp:84] Creating Layer res3b6_res3b6_relu_0_split
I0413 22:35:27.269520 29631 net.cpp:406] res3b6_res3b6_relu_0_split <- res3b6
I0413 22:35:27.269523 29631 net.cpp:380] res3b6_res3b6_relu_0_split -> res3b6_res3b6_relu_0_split_0
I0413 22:35:27.269531 29631 net.cpp:380] res3b6_res3b6_relu_0_split -> res3b6_res3b6_relu_0_split_1
I0413 22:35:27.269567 29631 net.cpp:122] Setting up res3b6_res3b6_relu_0_split
I0413 22:35:27.269572 29631 net.cpp:129] Top shape: 5 512 28 28 (2007040)
I0413 22:35:27.269574 29631 net.cpp:129] Top shape: 5 512 28 28 (2007040)
I0413 22:35:27.269577 29631 net.cpp:137] Memory required for data: 1090826260
I0413 22:35:27.269579 29631 layer_factory.hpp:77] Creating layer res3b7_branch2a
I0413 22:35:27.269587 29631 net.cpp:84] Creating Layer res3b7_branch2a
I0413 22:35:27.269589 29631 net.cpp:406] res3b7_branch2a <- res3b6_res3b6_relu_0_split_0
I0413 22:35:27.269593 29631 net.cpp:380] res3b7_branch2a -> res3b7_branch2a
I0413 22:35:27.272016 29631 net.cpp:122] Setting up res3b7_branch2a
I0413 22:35:27.272023 29631 net.cpp:129] Top shape: 5 128 28 28 (501760)
I0413 22:35:27.272027 29631 net.cpp:137] Memory required for data: 1092833300
I0413 22:35:27.272035 29631 layer_factory.hpp:77] Creating layer bn3b7_branch2a
I0413 22:35:27.272042 29631 net.cpp:84] Creating Layer bn3b7_branch2a
I0413 22:35:27.272045 29631 net.cpp:406] bn3b7_branch2a <- res3b7_branch2a
I0413 22:35:27.272049 29631 net.cpp:367] bn3b7_branch2a -> res3b7_branch2a (in-place)
I0413 22:35:27.272217 29631 net.cpp:122] Setting up bn3b7_branch2a
I0413 22:35:27.272222 29631 net.cpp:129] Top shape: 5 128 28 28 (501760)
I0413 22:35:27.272223 29631 net.cpp:137] Memory required for data: 1094840340
I0413 22:35:27.272234 29631 layer_factory.hpp:77] Creating layer scale3b7_branch2a
I0413 22:35:27.272238 29631 net.cpp:84] Creating Layer scale3b7_branch2a
I0413 22:35:27.272241 29631 net.cpp:406] scale3b7_branch2a <- res3b7_branch2a
I0413 22:35:27.272245 29631 net.cpp:367] scale3b7_branch2a -> res3b7_branch2a (in-place)
I0413 22:35:27.272282 29631 layer_factory.hpp:77] Creating layer scale3b7_branch2a
I0413 22:35:27.272374 29631 net.cpp:122] Setting up scale3b7_branch2a
I0413 22:35:27.272378 29631 net.cpp:129] Top shape: 5 128 28 28 (501760)
I0413 22:35:27.272380 29631 net.cpp:137] Memory required for data: 1096847380
I0413 22:35:27.272384 29631 layer_factory.hpp:77] Creating layer res3b7_branch2a_relu
I0413 22:35:27.272388 29631 net.cpp:84] Creating Layer res3b7_branch2a_relu
I0413 22:35:27.272392 29631 net.cpp:406] res3b7_branch2a_relu <- res3b7_branch2a
I0413 22:35:27.272397 29631 net.cpp:367] res3b7_branch2a_relu -> res3b7_branch2a (in-place)
I0413 22:35:27.272927 29631 net.cpp:122] Setting up res3b7_branch2a_relu
I0413 22:35:27.272933 29631 net.cpp:129] Top shape: 5 128 28 28 (501760)
I0413 22:35:27.272935 29631 net.cpp:137] Memory required for data: 1098854420
I0413 22:35:27.272938 29631 layer_factory.hpp:77] Creating layer res3b7_branch2b
I0413 22:35:27.272944 29631 net.cpp:84] Creating Layer res3b7_branch2b
I0413 22:35:27.272948 29631 net.cpp:406] res3b7_branch2b <- res3b7_branch2a
I0413 22:35:27.272953 29631 net.cpp:380] res3b7_branch2b -> res3b7_branch2b
I0413 22:35:27.275939 29631 net.cpp:122] Setting up res3b7_branch2b
I0413 22:35:27.275949 29631 net.cpp:129] Top shape: 5 128 28 28 (501760)
I0413 22:35:27.275951 29631 net.cpp:137] Memory required for data: 1100861460
I0413 22:35:27.275955 29631 layer_factory.hpp:77] Creating layer bn3b7_branch2b
I0413 22:35:27.275961 29631 net.cpp:84] Creating Layer bn3b7_branch2b
I0413 22:35:27.275965 29631 net.cpp:406] bn3b7_branch2b <- res3b7_branch2b
I0413 22:35:27.275970 29631 net.cpp:367] bn3b7_branch2b -> res3b7_branch2b (in-place)
I0413 22:35:27.276145 29631 net.cpp:122] Setting up bn3b7_branch2b
I0413 22:35:27.276150 29631 net.cpp:129] Top shape: 5 128 28 28 (501760)
I0413 22:35:27.276152 29631 net.cpp:137] Memory required for data: 1102868500
I0413 22:35:27.276157 29631 layer_factory.hpp:77] Creating layer scale3b7_branch2b
I0413 22:35:27.276163 29631 net.cpp:84] Creating Layer scale3b7_branch2b
I0413 22:35:27.276165 29631 net.cpp:406] scale3b7_branch2b <- res3b7_branch2b
I0413 22:35:27.276170 29631 net.cpp:367] scale3b7_branch2b -> res3b7_branch2b (in-place)
I0413 22:35:27.276206 29631 layer_factory.hpp:77] Creating layer scale3b7_branch2b
I0413 22:35:27.276299 29631 net.cpp:122] Setting up scale3b7_branch2b
I0413 22:35:27.276304 29631 net.cpp:129] Top shape: 5 128 28 28 (501760)
I0413 22:35:27.276306 29631 net.cpp:137] Memory required for data: 1104875540
I0413 22:35:27.276310 29631 layer_factory.hpp:77] Creating layer res3b7_branch2b_relu
I0413 22:35:27.276315 29631 net.cpp:84] Creating Layer res3b7_branch2b_relu
I0413 22:35:27.276319 29631 net.cpp:406] res3b7_branch2b_relu <- res3b7_branch2b
I0413 22:35:27.276322 29631 net.cpp:367] res3b7_branch2b_relu -> res3b7_branch2b (in-place)
I0413 22:35:27.276729 29631 net.cpp:122] Setting up res3b7_branch2b_relu
I0413 22:35:27.276734 29631 net.cpp:129] Top shape: 5 128 28 28 (501760)
I0413 22:35:27.276737 29631 net.cpp:137] Memory required for data: 1106882580
I0413 22:35:27.276739 29631 layer_factory.hpp:77] Creating layer res3b7_branch2c
I0413 22:35:27.276746 29631 net.cpp:84] Creating Layer res3b7_branch2c
I0413 22:35:27.276751 29631 net.cpp:406] res3b7_branch2c <- res3b7_branch2b
I0413 22:35:27.276754 29631 net.cpp:380] res3b7_branch2c -> res3b7_branch2c
I0413 22:35:27.278801 29631 net.cpp:122] Setting up res3b7_branch2c
I0413 22:35:27.278810 29631 net.cpp:129] Top shape: 5 512 28 28 (2007040)
I0413 22:35:27.278811 29631 net.cpp:137] Memory required for data: 1114910740
I0413 22:35:27.278815 29631 layer_factory.hpp:77] Creating layer bn3b7_branch2c
I0413 22:35:27.278820 29631 net.cpp:84] Creating Layer bn3b7_branch2c
I0413 22:35:27.278829 29631 net.cpp:406] bn3b7_branch2c <- res3b7_branch2c
I0413 22:35:27.278834 29631 net.cpp:367] bn3b7_branch2c -> res3b7_branch2c (in-place)
I0413 22:35:27.279004 29631 net.cpp:122] Setting up bn3b7_branch2c
I0413 22:35:27.279008 29631 net.cpp:129] Top shape: 5 512 28 28 (2007040)
I0413 22:35:27.279011 29631 net.cpp:137] Memory required for data: 1122938900
I0413 22:35:27.279016 29631 layer_factory.hpp:77] Creating layer scale3b7_branch2c
I0413 22:35:27.279021 29631 net.cpp:84] Creating Layer scale3b7_branch2c
I0413 22:35:27.279023 29631 net.cpp:406] scale3b7_branch2c <- res3b7_branch2c
I0413 22:35:27.279026 29631 net.cpp:367] scale3b7_branch2c -> res3b7_branch2c (in-place)
I0413 22:35:27.279067 29631 layer_factory.hpp:77] Creating layer scale3b7_branch2c
I0413 22:35:27.279158 29631 net.cpp:122] Setting up scale3b7_branch2c
I0413 22:35:27.279162 29631 net.cpp:129] Top shape: 5 512 28 28 (2007040)
I0413 22:35:27.279165 29631 net.cpp:137] Memory required for data: 1130967060
I0413 22:35:27.279168 29631 layer_factory.hpp:77] Creating layer res3b7
I0413 22:35:27.279175 29631 net.cpp:84] Creating Layer res3b7
I0413 22:35:27.279177 29631 net.cpp:406] res3b7 <- res3b6_res3b6_relu_0_split_1
I0413 22:35:27.279181 29631 net.cpp:406] res3b7 <- res3b7_branch2c
I0413 22:35:27.279184 29631 net.cpp:380] res3b7 -> res3b7
I0413 22:35:27.279206 29631 net.cpp:122] Setting up res3b7
I0413 22:35:27.279211 29631 net.cpp:129] Top shape: 5 512 28 28 (2007040)
I0413 22:35:27.279213 29631 net.cpp:137] Memory required for data: 1138995220
I0413 22:35:27.279215 29631 layer_factory.hpp:77] Creating layer res3b7_relu
I0413 22:35:27.279220 29631 net.cpp:84] Creating Layer res3b7_relu
I0413 22:35:27.279223 29631 net.cpp:406] res3b7_relu <- res3b7
I0413 22:35:27.279227 29631 net.cpp:367] res3b7_relu -> res3b7 (in-place)
I0413 22:35:27.279633 29631 net.cpp:122] Setting up res3b7_relu
I0413 22:35:27.279639 29631 net.cpp:129] Top shape: 5 512 28 28 (2007040)
I0413 22:35:27.279640 29631 net.cpp:137] Memory required for data: 1147023380
I0413 22:35:27.279644 29631 layer_factory.hpp:77] Creating layer res3b7_res3b7_relu_0_split
I0413 22:35:27.279649 29631 net.cpp:84] Creating Layer res3b7_res3b7_relu_0_split
I0413 22:35:27.279654 29631 net.cpp:406] res3b7_res3b7_relu_0_split <- res3b7
I0413 22:35:27.279657 29631 net.cpp:380] res3b7_res3b7_relu_0_split -> res3b7_res3b7_relu_0_split_0
I0413 22:35:27.279662 29631 net.cpp:380] res3b7_res3b7_relu_0_split -> res3b7_res3b7_relu_0_split_1
I0413 22:35:27.279700 29631 net.cpp:122] Setting up res3b7_res3b7_relu_0_split
I0413 22:35:27.279703 29631 net.cpp:129] Top shape: 5 512 28 28 (2007040)
I0413 22:35:27.279706 29631 net.cpp:129] Top shape: 5 512 28 28 (2007040)
I0413 22:35:27.279708 29631 net.cpp:137] Memory required for data: 1163079700
I0413 22:35:27.279711 29631 layer_factory.hpp:77] Creating layer res4a_branch1
I0413 22:35:27.279717 29631 net.cpp:84] Creating Layer res4a_branch1
I0413 22:35:27.279721 29631 net.cpp:406] res4a_branch1 <- res3b7_res3b7_relu_0_split_0
I0413 22:35:27.279726 29631 net.cpp:380] res4a_branch1 -> res4a_branch1
I0413 22:35:27.284873 29631 net.cpp:122] Setting up res4a_branch1
I0413 22:35:27.284885 29631 net.cpp:129] Top shape: 5 1024 14 14 (1003520)
I0413 22:35:27.284888 29631 net.cpp:137] Memory required for data: 1167093780
I0413 22:35:27.284893 29631 layer_factory.hpp:77] Creating layer bn4a_branch1
I0413 22:35:27.284898 29631 net.cpp:84] Creating Layer bn4a_branch1
I0413 22:35:27.284903 29631 net.cpp:406] bn4a_branch1 <- res4a_branch1
I0413 22:35:27.284906 29631 net.cpp:367] bn4a_branch1 -> res4a_branch1 (in-place)
I0413 22:35:27.285092 29631 net.cpp:122] Setting up bn4a_branch1
I0413 22:35:27.285099 29631 net.cpp:129] Top shape: 5 1024 14 14 (1003520)
I0413 22:35:27.285101 29631 net.cpp:137] Memory required for data: 1171107860
I0413 22:35:27.285106 29631 layer_factory.hpp:77] Creating layer scale4a_branch1
I0413 22:35:27.285111 29631 net.cpp:84] Creating Layer scale4a_branch1
I0413 22:35:27.285115 29631 net.cpp:406] scale4a_branch1 <- res4a_branch1
I0413 22:35:27.285125 29631 net.cpp:367] scale4a_branch1 -> res4a_branch1 (in-place)
I0413 22:35:27.285164 29631 layer_factory.hpp:77] Creating layer scale4a_branch1
I0413 22:35:27.285262 29631 net.cpp:122] Setting up scale4a_branch1
I0413 22:35:27.285266 29631 net.cpp:129] Top shape: 5 1024 14 14 (1003520)
I0413 22:35:27.285269 29631 net.cpp:137] Memory required for data: 1175121940
I0413 22:35:27.285274 29631 layer_factory.hpp:77] Creating layer res4a_branch2a
I0413 22:35:27.285279 29631 net.cpp:84] Creating Layer res4a_branch2a
I0413 22:35:27.285284 29631 net.cpp:406] res4a_branch2a <- res3b7_res3b7_relu_0_split_1
I0413 22:35:27.285289 29631 net.cpp:380] res4a_branch2a -> res4a_branch2a
I0413 22:35:27.287730 29631 net.cpp:122] Setting up res4a_branch2a
I0413 22:35:27.287739 29631 net.cpp:129] Top shape: 5 256 14 14 (250880)
I0413 22:35:27.287741 29631 net.cpp:137] Memory required for data: 1176125460
I0413 22:35:27.287746 29631 layer_factory.hpp:77] Creating layer bn4a_branch2a
I0413 22:35:27.287752 29631 net.cpp:84] Creating Layer bn4a_branch2a
I0413 22:35:27.287755 29631 net.cpp:406] bn4a_branch2a <- res4a_branch2a
I0413 22:35:27.287760 29631 net.cpp:367] bn4a_branch2a -> res4a_branch2a (in-place)
I0413 22:35:27.287925 29631 net.cpp:122] Setting up bn4a_branch2a
I0413 22:35:27.287930 29631 net.cpp:129] Top shape: 5 256 14 14 (250880)
I0413 22:35:27.287931 29631 net.cpp:137] Memory required for data: 1177128980
I0413 22:35:27.287936 29631 layer_factory.hpp:77] Creating layer scale4a_branch2a
I0413 22:35:27.287942 29631 net.cpp:84] Creating Layer scale4a_branch2a
I0413 22:35:27.287945 29631 net.cpp:406] scale4a_branch2a <- res4a_branch2a
I0413 22:35:27.287948 29631 net.cpp:367] scale4a_branch2a -> res4a_branch2a (in-place)
I0413 22:35:27.287986 29631 layer_factory.hpp:77] Creating layer scale4a_branch2a
I0413 22:35:27.288084 29631 net.cpp:122] Setting up scale4a_branch2a
I0413 22:35:27.288089 29631 net.cpp:129] Top shape: 5 256 14 14 (250880)
I0413 22:35:27.288090 29631 net.cpp:137] Memory required for data: 1178132500
I0413 22:35:27.288094 29631 layer_factory.hpp:77] Creating layer res4a_branch2a_relu
I0413 22:35:27.288101 29631 net.cpp:84] Creating Layer res4a_branch2a_relu
I0413 22:35:27.288105 29631 net.cpp:406] res4a_branch2a_relu <- res4a_branch2a
I0413 22:35:27.288108 29631 net.cpp:367] res4a_branch2a_relu -> res4a_branch2a (in-place)
I0413 22:35:27.288657 29631 net.cpp:122] Setting up res4a_branch2a_relu
I0413 22:35:27.288663 29631 net.cpp:129] Top shape: 5 256 14 14 (250880)
I0413 22:35:27.288666 29631 net.cpp:137] Memory required for data: 1179136020
I0413 22:35:27.288668 29631 layer_factory.hpp:77] Creating layer res4a_branch2b
I0413 22:35:27.288674 29631 net.cpp:84] Creating Layer res4a_branch2b
I0413 22:35:27.288678 29631 net.cpp:406] res4a_branch2b <- res4a_branch2a
I0413 22:35:27.288682 29631 net.cpp:380] res4a_branch2b -> res4a_branch2b
I0413 22:35:27.294342 29631 net.cpp:122] Setting up res4a_branch2b
I0413 22:35:27.294354 29631 net.cpp:129] Top shape: 5 256 14 14 (250880)
I0413 22:35:27.294356 29631 net.cpp:137] Memory required for data: 1180139540
I0413 22:35:27.294363 29631 layer_factory.hpp:77] Creating layer bn4a_branch2b
I0413 22:35:27.294368 29631 net.cpp:84] Creating Layer bn4a_branch2b
I0413 22:35:27.294373 29631 net.cpp:406] bn4a_branch2b <- res4a_branch2b
I0413 22:35:27.294376 29631 net.cpp:367] bn4a_branch2b -> res4a_branch2b (in-place)
I0413 22:35:27.294554 29631 net.cpp:122] Setting up bn4a_branch2b
I0413 22:35:27.294560 29631 net.cpp:129] Top shape: 5 256 14 14 (250880)
I0413 22:35:27.294562 29631 net.cpp:137] Memory required for data: 1181143060
I0413 22:35:27.294569 29631 layer_factory.hpp:77] Creating layer scale4a_branch2b
I0413 22:35:27.294572 29631 net.cpp:84] Creating Layer scale4a_branch2b
I0413 22:35:27.294575 29631 net.cpp:406] scale4a_branch2b <- res4a_branch2b
I0413 22:35:27.294579 29631 net.cpp:367] scale4a_branch2b -> res4a_branch2b (in-place)
I0413 22:35:27.294620 29631 layer_factory.hpp:77] Creating layer scale4a_branch2b
I0413 22:35:27.294716 29631 net.cpp:122] Setting up scale4a_branch2b
I0413 22:35:27.294728 29631 net.cpp:129] Top shape: 5 256 14 14 (250880)
I0413 22:35:27.294730 29631 net.cpp:137] Memory required for data: 1182146580
I0413 22:35:27.294734 29631 layer_factory.hpp:77] Creating layer res4a_branch2b_relu
I0413 22:35:27.294740 29631 net.cpp:84] Creating Layer res4a_branch2b_relu
I0413 22:35:27.294744 29631 net.cpp:406] res4a_branch2b_relu <- res4a_branch2b
I0413 22:35:27.294746 29631 net.cpp:367] res4a_branch2b_relu -> res4a_branch2b (in-place)
I0413 22:35:27.295308 29631 net.cpp:122] Setting up res4a_branch2b_relu
I0413 22:35:27.295315 29631 net.cpp:129] Top shape: 5 256 14 14 (250880)
I0413 22:35:27.295318 29631 net.cpp:137] Memory required for data: 1183150100
I0413 22:35:27.295321 29631 layer_factory.hpp:77] Creating layer res4a_branch2c
I0413 22:35:27.295328 29631 net.cpp:84] Creating Layer res4a_branch2c
I0413 22:35:27.295334 29631 net.cpp:406] res4a_branch2c <- res4a_branch2b
I0413 22:35:27.295338 29631 net.cpp:380] res4a_branch2c -> res4a_branch2c
I0413 22:35:27.299088 29631 net.cpp:122] Setting up res4a_branch2c
I0413 22:35:27.299103 29631 net.cpp:129] Top shape: 5 1024 14 14 (1003520)
I0413 22:35:27.299105 29631 net.cpp:137] Memory required for data: 1187164180
I0413 22:35:27.299110 29631 layer_factory.hpp:77] Creating layer bn4a_branch2c
I0413 22:35:27.299116 29631 net.cpp:84] Creating Layer bn4a_branch2c
I0413 22:35:27.299120 29631 net.cpp:406] bn4a_branch2c <- res4a_branch2c
I0413 22:35:27.299127 29631 net.cpp:367] bn4a_branch2c -> res4a_branch2c (in-place)
I0413 22:35:27.299304 29631 net.cpp:122] Setting up bn4a_branch2c
I0413 22:35:27.299310 29631 net.cpp:129] Top shape: 5 1024 14 14 (1003520)
I0413 22:35:27.299312 29631 net.cpp:137] Memory required for data: 1191178260
I0413 22:35:27.299319 29631 layer_factory.hpp:77] Creating layer scale4a_branch2c
I0413 22:35:27.299322 29631 net.cpp:84] Creating Layer scale4a_branch2c
I0413 22:35:27.299327 29631 net.cpp:406] scale4a_branch2c <- res4a_branch2c
I0413 22:35:27.299331 29631 net.cpp:367] scale4a_branch2c -> res4a_branch2c (in-place)
I0413 22:35:27.299368 29631 layer_factory.hpp:77] Creating layer scale4a_branch2c
I0413 22:35:27.299468 29631 net.cpp:122] Setting up scale4a_branch2c
I0413 22:35:27.299473 29631 net.cpp:129] Top shape: 5 1024 14 14 (1003520)
I0413 22:35:27.299475 29631 net.cpp:137] Memory required for data: 1195192340
I0413 22:35:27.299479 29631 layer_factory.hpp:77] Creating layer res4a
I0413 22:35:27.299484 29631 net.cpp:84] Creating Layer res4a
I0413 22:35:27.299487 29631 net.cpp:406] res4a <- res4a_branch1
I0413 22:35:27.299490 29631 net.cpp:406] res4a <- res4a_branch2c
I0413 22:35:27.299494 29631 net.cpp:380] res4a -> res4a
I0413 22:35:27.299516 29631 net.cpp:122] Setting up res4a
I0413 22:35:27.299520 29631 net.cpp:129] Top shape: 5 1024 14 14 (1003520)
I0413 22:35:27.299523 29631 net.cpp:137] Memory required for data: 1199206420
I0413 22:35:27.299525 29631 layer_factory.hpp:77] Creating layer res4a_relu
I0413 22:35:27.299530 29631 net.cpp:84] Creating Layer res4a_relu
I0413 22:35:27.299533 29631 net.cpp:406] res4a_relu <- res4a
I0413 22:35:27.299537 29631 net.cpp:367] res4a_relu -> res4a (in-place)
I0413 22:35:27.300120 29631 net.cpp:122] Setting up res4a_relu
I0413 22:35:27.300127 29631 net.cpp:129] Top shape: 5 1024 14 14 (1003520)
I0413 22:35:27.300130 29631 net.cpp:137] Memory required for data: 1203220500
I0413 22:35:27.300133 29631 layer_factory.hpp:77] Creating layer res4a_res4a_relu_0_split
I0413 22:35:27.300137 29631 net.cpp:84] Creating Layer res4a_res4a_relu_0_split
I0413 22:35:27.300140 29631 net.cpp:406] res4a_res4a_relu_0_split <- res4a
I0413 22:35:27.300146 29631 net.cpp:380] res4a_res4a_relu_0_split -> res4a_res4a_relu_0_split_0
I0413 22:35:27.300151 29631 net.cpp:380] res4a_res4a_relu_0_split -> res4a_res4a_relu_0_split_1
I0413 22:35:27.300191 29631 net.cpp:122] Setting up res4a_res4a_relu_0_split
I0413 22:35:27.300196 29631 net.cpp:129] Top shape: 5 1024 14 14 (1003520)
I0413 22:35:27.300199 29631 net.cpp:129] Top shape: 5 1024 14 14 (1003520)
I0413 22:35:27.300209 29631 net.cpp:137] Memory required for data: 1211248660
I0413 22:35:27.300211 29631 layer_factory.hpp:77] Creating layer res4b1_branch2a
I0413 22:35:27.300218 29631 net.cpp:84] Creating Layer res4b1_branch2a
I0413 22:35:27.300221 29631 net.cpp:406] res4b1_branch2a <- res4a_res4a_relu_0_split_0
I0413 22:35:27.300225 29631 net.cpp:380] res4b1_branch2a -> res4b1_branch2a
I0413 22:35:27.303344 29631 net.cpp:122] Setting up res4b1_branch2a
I0413 22:35:27.303352 29631 net.cpp:129] Top shape: 5 256 14 14 (250880)
I0413 22:35:27.303354 29631 net.cpp:137] Memory required for data: 1212252180
I0413 22:35:27.303359 29631 layer_factory.hpp:77] Creating layer bn4b1_branch2a
I0413 22:35:27.303365 29631 net.cpp:84] Creating Layer bn4b1_branch2a
I0413 22:35:27.303369 29631 net.cpp:406] bn4b1_branch2a <- res4b1_branch2a
I0413 22:35:27.303372 29631 net.cpp:367] bn4b1_branch2a -> res4b1_branch2a (in-place)
I0413 22:35:27.303547 29631 net.cpp:122] Setting up bn4b1_branch2a
I0413 22:35:27.303552 29631 net.cpp:129] Top shape: 5 256 14 14 (250880)
I0413 22:35:27.303555 29631 net.cpp:137] Memory required for data: 1213255700
I0413 22:35:27.303560 29631 layer_factory.hpp:77] Creating layer scale4b1_branch2a
I0413 22:35:27.303563 29631 net.cpp:84] Creating Layer scale4b1_branch2a
I0413 22:35:27.303566 29631 net.cpp:406] scale4b1_branch2a <- res4b1_branch2a
I0413 22:35:27.303570 29631 net.cpp:367] scale4b1_branch2a -> res4b1_branch2a (in-place)
I0413 22:35:27.303609 29631 layer_factory.hpp:77] Creating layer scale4b1_branch2a
I0413 22:35:27.303706 29631 net.cpp:122] Setting up scale4b1_branch2a
I0413 22:35:27.303710 29631 net.cpp:129] Top shape: 5 256 14 14 (250880)
I0413 22:35:27.303712 29631 net.cpp:137] Memory required for data: 1214259220
I0413 22:35:27.303717 29631 layer_factory.hpp:77] Creating layer res4b1_branch2a_relu
I0413 22:35:27.303720 29631 net.cpp:84] Creating Layer res4b1_branch2a_relu
I0413 22:35:27.303723 29631 net.cpp:406] res4b1_branch2a_relu <- res4b1_branch2a
I0413 22:35:27.303727 29631 net.cpp:367] res4b1_branch2a_relu -> res4b1_branch2a (in-place)
I0413 22:35:27.304136 29631 net.cpp:122] Setting up res4b1_branch2a_relu
I0413 22:35:27.304142 29631 net.cpp:129] Top shape: 5 256 14 14 (250880)
I0413 22:35:27.304145 29631 net.cpp:137] Memory required for data: 1215262740
I0413 22:35:27.304147 29631 layer_factory.hpp:77] Creating layer res4b1_branch2b
I0413 22:35:27.304155 29631 net.cpp:84] Creating Layer res4b1_branch2b
I0413 22:35:27.304159 29631 net.cpp:406] res4b1_branch2b <- res4b1_branch2a
I0413 22:35:27.304163 29631 net.cpp:380] res4b1_branch2b -> res4b1_branch2b
I0413 22:35:27.309942 29631 net.cpp:122] Setting up res4b1_branch2b
I0413 22:35:27.309952 29631 net.cpp:129] Top shape: 5 256 14 14 (250880)
I0413 22:35:27.309954 29631 net.cpp:137] Memory required for data: 1216266260
I0413 22:35:27.309959 29631 layer_factory.hpp:77] Creating layer bn4b1_branch2b
I0413 22:35:27.309968 29631 net.cpp:84] Creating Layer bn4b1_branch2b
I0413 22:35:27.309973 29631 net.cpp:406] bn4b1_branch2b <- res4b1_branch2b
I0413 22:35:27.309978 29631 net.cpp:367] bn4b1_branch2b -> res4b1_branch2b (in-place)
I0413 22:35:27.310159 29631 net.cpp:122] Setting up bn4b1_branch2b
I0413 22:35:27.310164 29631 net.cpp:129] Top shape: 5 256 14 14 (250880)
I0413 22:35:27.310166 29631 net.cpp:137] Memory required for data: 1217269780
I0413 22:35:27.310171 29631 layer_factory.hpp:77] Creating layer scale4b1_branch2b
I0413 22:35:27.310176 29631 net.cpp:84] Creating Layer scale4b1_branch2b
I0413 22:35:27.310179 29631 net.cpp:406] scale4b1_branch2b <- res4b1_branch2b
I0413 22:35:27.310184 29631 net.cpp:367] scale4b1_branch2b -> res4b1_branch2b (in-place)
I0413 22:35:27.310221 29631 layer_factory.hpp:77] Creating layer scale4b1_branch2b
I0413 22:35:27.310319 29631 net.cpp:122] Setting up scale4b1_branch2b
I0413 22:35:27.310324 29631 net.cpp:129] Top shape: 5 256 14 14 (250880)
I0413 22:35:27.310326 29631 net.cpp:137] Memory required for data: 1218273300
I0413 22:35:27.310330 29631 layer_factory.hpp:77] Creating layer res4b1_branch2b_relu
I0413 22:35:27.310341 29631 net.cpp:84] Creating Layer res4b1_branch2b_relu
I0413 22:35:27.310344 29631 net.cpp:406] res4b1_branch2b_relu <- res4b1_branch2b
I0413 22:35:27.310348 29631 net.cpp:367] res4b1_branch2b_relu -> res4b1_branch2b (in-place)
I0413 22:35:27.310757 29631 net.cpp:122] Setting up res4b1_branch2b_relu
I0413 22:35:27.310763 29631 net.cpp:129] Top shape: 5 256 14 14 (250880)
I0413 22:35:27.310765 29631 net.cpp:137] Memory required for data: 1219276820
I0413 22:35:27.310768 29631 layer_factory.hpp:77] Creating layer res4b1_branch2c
I0413 22:35:27.310775 29631 net.cpp:84] Creating Layer res4b1_branch2c
I0413 22:35:27.310778 29631 net.cpp:406] res4b1_branch2c <- res4b1_branch2b
I0413 22:35:27.310783 29631 net.cpp:380] res4b1_branch2c -> res4b1_branch2c
I0413 22:35:27.314535 29631 net.cpp:122] Setting up res4b1_branch2c
I0413 22:35:27.314545 29631 net.cpp:129] Top shape: 5 1024 14 14 (1003520)
I0413 22:35:27.314548 29631 net.cpp:137] Memory required for data: 1223290900
I0413 22:35:27.314553 29631 layer_factory.hpp:77] Creating layer bn4b1_branch2c
I0413 22:35:27.314559 29631 net.cpp:84] Creating Layer bn4b1_branch2c
I0413 22:35:27.314563 29631 net.cpp:406] bn4b1_branch2c <- res4b1_branch2c
I0413 22:35:27.314568 29631 net.cpp:367] bn4b1_branch2c -> res4b1_branch2c (in-place)
I0413 22:35:27.314745 29631 net.cpp:122] Setting up bn4b1_branch2c
I0413 22:35:27.314750 29631 net.cpp:129] Top shape: 5 1024 14 14 (1003520)
I0413 22:35:27.314754 29631 net.cpp:137] Memory required for data: 1227304980
I0413 22:35:27.314759 29631 layer_factory.hpp:77] Creating layer scale4b1_branch2c
I0413 22:35:27.314764 29631 net.cpp:84] Creating Layer scale4b1_branch2c
I0413 22:35:27.314767 29631 net.cpp:406] scale4b1_branch2c <- res4b1_branch2c
I0413 22:35:27.314771 29631 net.cpp:367] scale4b1_branch2c -> res4b1_branch2c (in-place)
I0413 22:35:27.314808 29631 layer_factory.hpp:77] Creating layer scale4b1_branch2c
I0413 22:35:27.314909 29631 net.cpp:122] Setting up scale4b1_branch2c
I0413 22:35:27.314914 29631 net.cpp:129] Top shape: 5 1024 14 14 (1003520)
I0413 22:35:27.314916 29631 net.cpp:137] Memory required for data: 1231319060
I0413 22:35:27.314930 29631 layer_factory.hpp:77] Creating layer res4b1
I0413 22:35:27.314935 29631 net.cpp:84] Creating Layer res4b1
I0413 22:35:27.314939 29631 net.cpp:406] res4b1 <- res4a_res4a_relu_0_split_1
I0413 22:35:27.314941 29631 net.cpp:406] res4b1 <- res4b1_branch2c
I0413 22:35:27.314946 29631 net.cpp:380] res4b1 -> res4b1
I0413 22:35:27.314970 29631 net.cpp:122] Setting up res4b1
I0413 22:35:27.314975 29631 net.cpp:129] Top shape: 5 1024 14 14 (1003520)
I0413 22:35:27.314976 29631 net.cpp:137] Memory required for data: 1235333140
I0413 22:35:27.314978 29631 layer_factory.hpp:77] Creating layer res4b1_relu
I0413 22:35:27.314983 29631 net.cpp:84] Creating Layer res4b1_relu
I0413 22:35:27.314985 29631 net.cpp:406] res4b1_relu <- res4b1
I0413 22:35:27.314990 29631 net.cpp:367] res4b1_relu -> res4b1 (in-place)
I0413 22:35:27.315522 29631 net.cpp:122] Setting up res4b1_relu
I0413 22:35:27.315529 29631 net.cpp:129] Top shape: 5 1024 14 14 (1003520)
I0413 22:35:27.315532 29631 net.cpp:137] Memory required for data: 1239347220
I0413 22:35:27.315536 29631 layer_factory.hpp:77] Creating layer res4b1_res4b1_relu_0_split
I0413 22:35:27.315541 29631 net.cpp:84] Creating Layer res4b1_res4b1_relu_0_split
I0413 22:35:27.315544 29631 net.cpp:406] res4b1_res4b1_relu_0_split <- res4b1
I0413 22:35:27.315548 29631 net.cpp:380] res4b1_res4b1_relu_0_split -> res4b1_res4b1_relu_0_split_0
I0413 22:35:27.315556 29631 net.cpp:380] res4b1_res4b1_relu_0_split -> res4b1_res4b1_relu_0_split_1
I0413 22:35:27.315594 29631 net.cpp:122] Setting up res4b1_res4b1_relu_0_split
I0413 22:35:27.315599 29631 net.cpp:129] Top shape: 5 1024 14 14 (1003520)
I0413 22:35:27.315603 29631 net.cpp:129] Top shape: 5 1024 14 14 (1003520)
I0413 22:35:27.315604 29631 net.cpp:137] Memory required for data: 1247375380
I0413 22:35:27.315608 29631 layer_factory.hpp:77] Creating layer res4b2_branch2a
I0413 22:35:27.315614 29631 net.cpp:84] Creating Layer res4b2_branch2a
I0413 22:35:27.315625 29631 net.cpp:406] res4b2_branch2a <- res4b1_res4b1_relu_0_split_0
I0413 22:35:27.315631 29631 net.cpp:380] res4b2_branch2a -> res4b2_branch2a
I0413 22:35:27.318814 29631 net.cpp:122] Setting up res4b2_branch2a
I0413 22:35:27.318821 29631 net.cpp:129] Top shape: 5 256 14 14 (250880)
I0413 22:35:27.318825 29631 net.cpp:137] Memory required for data: 1248378900
I0413 22:35:27.318828 29631 layer_factory.hpp:77] Creating layer bn4b2_branch2a
I0413 22:35:27.318833 29631 net.cpp:84] Creating Layer bn4b2_branch2a
I0413 22:35:27.318838 29631 net.cpp:406] bn4b2_branch2a <- res4b2_branch2a
I0413 22:35:27.318842 29631 net.cpp:367] bn4b2_branch2a -> res4b2_branch2a (in-place)
I0413 22:35:27.319018 29631 net.cpp:122] Setting up bn4b2_branch2a
I0413 22:35:27.319023 29631 net.cpp:129] Top shape: 5 256 14 14 (250880)
I0413 22:35:27.319026 29631 net.cpp:137] Memory required for data: 1249382420
I0413 22:35:27.319036 29631 layer_factory.hpp:77] Creating layer scale4b2_branch2a
I0413 22:35:27.319041 29631 net.cpp:84] Creating Layer scale4b2_branch2a
I0413 22:35:27.319047 29631 net.cpp:406] scale4b2_branch2a <- res4b2_branch2a
I0413 22:35:27.319051 29631 net.cpp:367] scale4b2_branch2a -> res4b2_branch2a (in-place)
I0413 22:35:27.319088 29631 layer_factory.hpp:77] Creating layer scale4b2_branch2a
I0413 22:35:27.319187 29631 net.cpp:122] Setting up scale4b2_branch2a
I0413 22:35:27.319191 29631 net.cpp:129] Top shape: 5 256 14 14 (250880)
I0413 22:35:27.319193 29631 net.cpp:137] Memory required for data: 1250385940
I0413 22:35:27.319197 29631 layer_factory.hpp:77] Creating layer res4b2_branch2a_relu
I0413 22:35:27.319202 29631 net.cpp:84] Creating Layer res4b2_branch2a_relu
I0413 22:35:27.319206 29631 net.cpp:406] res4b2_branch2a_relu <- res4b2_branch2a
I0413 22:35:27.319209 29631 net.cpp:367] res4b2_branch2a_relu -> res4b2_branch2a (in-place)
I0413 22:35:27.319598 29631 net.cpp:122] Setting up res4b2_branch2a_relu
I0413 22:35:27.319604 29631 net.cpp:129] Top shape: 5 256 14 14 (250880)
I0413 22:35:27.319607 29631 net.cpp:137] Memory required for data: 1251389460
I0413 22:35:27.319609 29631 layer_factory.hpp:77] Creating layer res4b2_branch2b
I0413 22:35:27.319615 29631 net.cpp:84] Creating Layer res4b2_branch2b
I0413 22:35:27.319619 29631 net.cpp:406] res4b2_branch2b <- res4b2_branch2a
I0413 22:35:27.319624 29631 net.cpp:380] res4b2_branch2b -> res4b2_branch2b
I0413 22:35:27.325325 29631 net.cpp:122] Setting up res4b2_branch2b
I0413 22:35:27.325335 29631 net.cpp:129] Top shape: 5 256 14 14 (250880)
I0413 22:35:27.325338 29631 net.cpp:137] Memory required for data: 1252392980
I0413 22:35:27.325342 29631 layer_factory.hpp:77] Creating layer bn4b2_branch2b
I0413 22:35:27.325348 29631 net.cpp:84] Creating Layer bn4b2_branch2b
I0413 22:35:27.325352 29631 net.cpp:406] bn4b2_branch2b <- res4b2_branch2b
I0413 22:35:27.325357 29631 net.cpp:367] bn4b2_branch2b -> res4b2_branch2b (in-place)
I0413 22:35:27.325538 29631 net.cpp:122] Setting up bn4b2_branch2b
I0413 22:35:27.325543 29631 net.cpp:129] Top shape: 5 256 14 14 (250880)
I0413 22:35:27.325546 29631 net.cpp:137] Memory required for data: 1253396500
I0413 22:35:27.325551 29631 layer_factory.hpp:77] Creating layer scale4b2_branch2b
I0413 22:35:27.325556 29631 net.cpp:84] Creating Layer scale4b2_branch2b
I0413 22:35:27.325558 29631 net.cpp:406] scale4b2_branch2b <- res4b2_branch2b
I0413 22:35:27.325562 29631 net.cpp:367] scale4b2_branch2b -> res4b2_branch2b (in-place)
I0413 22:35:27.325603 29631 layer_factory.hpp:77] Creating layer scale4b2_branch2b
I0413 22:35:27.325702 29631 net.cpp:122] Setting up scale4b2_branch2b
I0413 22:35:27.325706 29631 net.cpp:129] Top shape: 5 256 14 14 (250880)
I0413 22:35:27.325709 29631 net.cpp:137] Memory required for data: 1254400020
I0413 22:35:27.325713 29631 layer_factory.hpp:77] Creating layer res4b2_branch2b_relu
I0413 22:35:27.325718 29631 net.cpp:84] Creating Layer res4b2_branch2b_relu
I0413 22:35:27.325721 29631 net.cpp:406] res4b2_branch2b_relu <- res4b2_branch2b
I0413 22:35:27.325726 29631 net.cpp:367] res4b2_branch2b_relu -> res4b2_branch2b (in-place)
I0413 22:35:27.326144 29631 net.cpp:122] Setting up res4b2_branch2b_relu
I0413 22:35:27.326150 29631 net.cpp:129] Top shape: 5 256 14 14 (250880)
I0413 22:35:27.326153 29631 net.cpp:137] Memory required for data: 1255403540
I0413 22:35:27.326155 29631 layer_factory.hpp:77] Creating layer res4b2_branch2c
I0413 22:35:27.326162 29631 net.cpp:84] Creating Layer res4b2_branch2c
I0413 22:35:27.326166 29631 net.cpp:406] res4b2_branch2c <- res4b2_branch2b
I0413 22:35:27.326170 29631 net.cpp:380] res4b2_branch2c -> res4b2_branch2c
I0413 22:35:27.329836 29631 net.cpp:122] Setting up res4b2_branch2c
I0413 22:35:27.329850 29631 net.cpp:129] Top shape: 5 1024 14 14 (1003520)
I0413 22:35:27.329852 29631 net.cpp:137] Memory required for data: 1259417620
I0413 22:35:27.329859 29631 layer_factory.hpp:77] Creating layer bn4b2_branch2c
I0413 22:35:27.329865 29631 net.cpp:84] Creating Layer bn4b2_branch2c
I0413 22:35:27.329869 29631 net.cpp:406] bn4b2_branch2c <- res4b2_branch2c
I0413 22:35:27.329874 29631 net.cpp:367] bn4b2_branch2c -> res4b2_branch2c (in-place)
I0413 22:35:27.330066 29631 net.cpp:122] Setting up bn4b2_branch2c
I0413 22:35:27.330071 29631 net.cpp:129] Top shape: 5 1024 14 14 (1003520)
I0413 22:35:27.330075 29631 net.cpp:137] Memory required for data: 1263431700
I0413 22:35:27.330080 29631 layer_factory.hpp:77] Creating layer scale4b2_branch2c
I0413 22:35:27.330085 29631 net.cpp:84] Creating Layer scale4b2_branch2c
I0413 22:35:27.330090 29631 net.cpp:406] scale4b2_branch2c <- res4b2_branch2c
I0413 22:35:27.330093 29631 net.cpp:367] scale4b2_branch2c -> res4b2_branch2c (in-place)
I0413 22:35:27.330132 29631 layer_factory.hpp:77] Creating layer scale4b2_branch2c
I0413 22:35:27.330236 29631 net.cpp:122] Setting up scale4b2_branch2c
I0413 22:35:27.330241 29631 net.cpp:129] Top shape: 5 1024 14 14 (1003520)
I0413 22:35:27.330243 29631 net.cpp:137] Memory required for data: 1267445780
I0413 22:35:27.330247 29631 layer_factory.hpp:77] Creating layer res4b2
I0413 22:35:27.330252 29631 net.cpp:84] Creating Layer res4b2
I0413 22:35:27.330256 29631 net.cpp:406] res4b2 <- res4b1_res4b1_relu_0_split_1
I0413 22:35:27.330260 29631 net.cpp:406] res4b2 <- res4b2_branch2c
I0413 22:35:27.330263 29631 net.cpp:380] res4b2 -> res4b2
I0413 22:35:27.330288 29631 net.cpp:122] Setting up res4b2
I0413 22:35:27.330293 29631 net.cpp:129] Top shape: 5 1024 14 14 (1003520)
I0413 22:35:27.330296 29631 net.cpp:137] Memory required for data: 1271459860
I0413 22:35:27.330298 29631 layer_factory.hpp:77] Creating layer res4b2_relu
I0413 22:35:27.330303 29631 net.cpp:84] Creating Layer res4b2_relu
I0413 22:35:27.330307 29631 net.cpp:406] res4b2_relu <- res4b2
I0413 22:35:27.330309 29631 net.cpp:367] res4b2_relu -> res4b2 (in-place)
I0413 22:35:27.330858 29631 net.cpp:122] Setting up res4b2_relu
I0413 22:35:27.330865 29631 net.cpp:129] Top shape: 5 1024 14 14 (1003520)
I0413 22:35:27.330868 29631 net.cpp:137] Memory required for data: 1275473940
I0413 22:35:27.330870 29631 layer_factory.hpp:77] Creating layer res4b2_res4b2_relu_0_split
I0413 22:35:27.330875 29631 net.cpp:84] Creating Layer res4b2_res4b2_relu_0_split
I0413 22:35:27.330878 29631 net.cpp:406] res4b2_res4b2_relu_0_split <- res4b2
I0413 22:35:27.330883 29631 net.cpp:380] res4b2_res4b2_relu_0_split -> res4b2_res4b2_relu_0_split_0
I0413 22:35:27.330889 29631 net.cpp:380] res4b2_res4b2_relu_0_split -> res4b2_res4b2_relu_0_split_1
I0413 22:35:27.330948 29631 net.cpp:122] Setting up res4b2_res4b2_relu_0_split
I0413 22:35:27.330953 29631 net.cpp:129] Top shape: 5 1024 14 14 (1003520)
I0413 22:35:27.330956 29631 net.cpp:129] Top shape: 5 1024 14 14 (1003520)
…
I0413 22:35:30.384202 29631 net.cpp:406] bn4b33_branch2a <- res4b33_branch2a
I0413 22:35:30.384205 29631 net.cpp:367] bn4b33_branch2a -> res4b33_branch2a (in-place)
I0413 22:35:30.384367 29631 net.cpp:122] Setting up bn4b33_branch2a
I0413 22:35:30.384371 29631 net.cpp:129] Top shape: 1 256 14 14 (50176)
I0413 22:35:30.384373 29631 net.cpp:137] Memory required for data: 473862160
I0413 22:35:30.384377 29631 layer_factory.hpp:77] Creating layer scale4b33_branch2a
I0413 22:35:30.384380 29631 net.cpp:84] Creating Layer scale4b33_branch2a
I0413 22:35:30.384382 29631 net.cpp:406] scale4b33_branch2a <- res4b33_branch2a
I0413 22:35:30.384385 29631 net.cpp:367] scale4b33_branch2a -> res4b33_branch2a (in-place)
I0413 22:35:30.384415 29631 layer_factory.hpp:77] Creating layer scale4b33_branch2a
I0413 22:35:30.384496 29631 net.cpp:122] Setting up scale4b33_branch2a
I0413 22:35:30.384500 29631 net.cpp:129] Top shape: 1 256 14 14 (50176)
I0413 22:35:30.384501 29631 net.cpp:137] Memory required for data: 474062864
I0413 22:35:30.384505 29631 layer_factory.hpp:77] Creating layer res4b33_branch2a_relu
I0413 22:35:30.384507 29631 net.cpp:84] Creating Layer res4b33_branch2a_relu
I0413 22:35:30.384510 29631 net.cpp:406] res4b33_branch2a_relu <- res4b33_branch2a
I0413 22:35:30.384511 29631 net.cpp:367] res4b33_branch2a_relu -> res4b33_branch2a (in-place)
I0413 22:35:30.384991 29631 net.cpp:122] Setting up res4b33_branch2a_relu
I0413 22:35:30.384996 29631 net.cpp:129] Top shape: 1 256 14 14 (50176)
I0413 22:35:30.384999 29631 net.cpp:137] Memory required for data: 474263568
I0413 22:35:30.384999 29631 layer_factory.hpp:77] Creating layer res4b33_branch2b
I0413 22:35:30.385005 29631 net.cpp:84] Creating Layer res4b33_branch2b
I0413 22:35:30.385007 29631 net.cpp:406] res4b33_branch2b <- res4b33_branch2a
I0413 22:35:30.385010 29631 net.cpp:380] res4b33_branch2b -> res4b33_branch2b
I0413 22:35:30.391307 29631 net.cpp:122] Setting up res4b33_branch2b
I0413 22:35:30.391319 29631 net.cpp:129] Top shape: 1 256 14 14 (50176)
I0413 22:35:30.391329 29631 net.cpp:137] Memory required for data: 474464272
I0413 22:35:30.391332 29631 layer_factory.hpp:77] Creating layer bn4b33_branch2b
I0413 22:35:30.391338 29631 net.cpp:84] Creating Layer bn4b33_branch2b
I0413 22:35:30.391341 29631 net.cpp:406] bn4b33_branch2b <- res4b33_branch2b
I0413 22:35:30.391345 29631 net.cpp:367] bn4b33_branch2b -> res4b33_branch2b (in-place)
I0413 22:35:30.391510 29631 net.cpp:122] Setting up bn4b33_branch2b
I0413 22:35:30.391515 29631 net.cpp:129] Top shape: 1 256 14 14 (50176)
I0413 22:35:30.391516 29631 net.cpp:137] Memory required for data: 474664976
I0413 22:35:30.391520 29631 layer_factory.hpp:77] Creating layer scale4b33_branch2b
I0413 22:35:30.391523 29631 net.cpp:84] Creating Layer scale4b33_branch2b
I0413 22:35:30.391525 29631 net.cpp:406] scale4b33_branch2b <- res4b33_branch2b
I0413 22:35:30.391527 29631 net.cpp:367] scale4b33_branch2b -> res4b33_branch2b (in-place)
I0413 22:35:30.391557 29631 layer_factory.hpp:77] Creating layer scale4b33_branch2b
I0413 22:35:30.391641 29631 net.cpp:122] Setting up scale4b33_branch2b
I0413 22:35:30.391644 29631 net.cpp:129] Top shape: 1 256 14 14 (50176)
I0413 22:35:30.391646 29631 net.cpp:137] Memory required for data: 474865680
I0413 22:35:30.391649 29631 layer_factory.hpp:77] Creating layer res4b33_branch2b_relu
I0413 22:35:30.391652 29631 net.cpp:84] Creating Layer res4b33_branch2b_relu
I0413 22:35:30.391654 29631 net.cpp:406] res4b33_branch2b_relu <- res4b33_branch2b
I0413 22:35:30.391657 29631 net.cpp:367] res4b33_branch2b_relu -> res4b33_branch2b (in-place)
I0413 22:35:30.392333 29631 net.cpp:122] Setting up res4b33_branch2b_relu
I0413 22:35:30.392338 29631 net.cpp:129] Top shape: 1 256 14 14 (50176)
I0413 22:35:30.392340 29631 net.cpp:137] Memory required for data: 475066384
I0413 22:35:30.392343 29631 layer_factory.hpp:77] Creating layer res4b33_branch2c
I0413 22:35:30.392347 29631 net.cpp:84] Creating Layer res4b33_branch2c
I0413 22:35:30.392349 29631 net.cpp:406] res4b33_branch2c <- res4b33_branch2b
I0413 22:35:30.392352 29631 net.cpp:380] res4b33_branch2c -> res4b33_branch2c
I0413 22:35:30.395774 29631 net.cpp:122] Setting up res4b33_branch2c
I0413 22:35:30.395783 29631 net.cpp:129] Top shape: 1 1024 14 14 (200704)
I0413 22:35:30.395784 29631 net.cpp:137] Memory required for data: 475869200
I0413 22:35:30.395788 29631 layer_factory.hpp:77] Creating layer bn4b33_branch2c
I0413 22:35:30.395792 29631 net.cpp:84] Creating Layer bn4b33_branch2c
I0413 22:35:30.395794 29631 net.cpp:406] bn4b33_branch2c <- res4b33_branch2c
I0413 22:35:30.395797 29631 net.cpp:367] bn4b33_branch2c -> res4b33_branch2c (in-place)
I0413 22:35:30.396023 29631 net.cpp:122] Setting up bn4b33_branch2c
I0413 22:35:30.396036 29631 net.cpp:129] Top shape: 1 1024 14 14 (200704)
I0413 22:35:30.396039 29631 net.cpp:137] Memory required for data: 476672016
I0413 22:35:30.396044 29631 layer_factory.hpp:77] Creating layer scale4b33_branch2c
I0413 22:35:30.396046 29631 net.cpp:84] Creating Layer scale4b33_branch2c
I0413 22:35:30.396049 29631 net.cpp:406] scale4b33_branch2c <- res4b33_branch2c
I0413 22:35:30.396052 29631 net.cpp:367] scale4b33_branch2c -> res4b33_branch2c (in-place)
I0413 22:35:30.396103 29631 layer_factory.hpp:77] Creating layer scale4b33_branch2c
I0413 22:35:30.396224 29631 net.cpp:122] Setting up scale4b33_branch2c
I0413 22:35:30.396227 29631 net.cpp:129] Top shape: 1 1024 14 14 (200704)
I0413 22:35:30.396229 29631 net.cpp:137] Memory required for data: 477474832
I0413 22:35:30.396231 29631 layer_factory.hpp:77] Creating layer res4b33
I0413 22:35:30.396234 29631 net.cpp:84] Creating Layer res4b33
I0413 22:35:30.396236 29631 net.cpp:406] res4b33 <- res4b32_res4b32_relu_0_split_1
I0413 22:35:30.396239 29631 net.cpp:406] res4b33 <- res4b33_branch2c
I0413 22:35:30.396242 29631 net.cpp:380] res4b33 -> res4b33
I0413 22:35:30.396260 29631 net.cpp:122] Setting up res4b33
I0413 22:35:30.396263 29631 net.cpp:129] Top shape: 1 1024 14 14 (200704)
I0413 22:35:30.396265 29631 net.cpp:137] Memory required for data: 478277648
I0413 22:35:30.396275 29631 layer_factory.hpp:77] Creating layer res4b33_relu
I0413 22:35:30.396277 29631 net.cpp:84] Creating Layer res4b33_relu
I0413 22:35:30.396279 29631 net.cpp:406] res4b33_relu <- res4b33
I0413 22:35:30.396282 29631 net.cpp:367] res4b33_relu -> res4b33 (in-place)
I0413 22:35:30.396952 29631 net.cpp:122] Setting up res4b33_relu
I0413 22:35:30.396958 29631 net.cpp:129] Top shape: 1 1024 14 14 (200704)
I0413 22:35:30.396960 29631 net.cpp:137] Memory required for data: 479080464
I0413 22:35:30.396962 29631 layer_factory.hpp:77] Creating layer res4b33_res4b33_relu_0_split
I0413 22:35:30.396966 29631 net.cpp:84] Creating Layer res4b33_res4b33_relu_0_split
I0413 22:35:30.396968 29631 net.cpp:406] res4b33_res4b33_relu_0_split <- res4b33
I0413 22:35:30.396971 29631 net.cpp:380] res4b33_res4b33_relu_0_split -> res4b33_res4b33_relu_0_split_0
I0413 22:35:30.396975 29631 net.cpp:380] res4b33_res4b33_relu_0_split -> res4b33_res4b33_relu_0_split_1
I0413 22:35:30.397011 29631 net.cpp:122] Setting up res4b33_res4b33_relu_0_split
I0413 22:35:30.397014 29631 net.cpp:129] Top shape: 1 1024 14 14 (200704)
I0413 22:35:30.397017 29631 net.cpp:129] Top shape: 1 1024 14 14 (200704)
I0413 22:35:30.397018 29631 net.cpp:137] Memory required for data: 480686096
I0413 22:35:30.397019 29631 layer_factory.hpp:77] Creating layer res4b34_branch2a
I0413 22:35:30.397025 29631 net.cpp:84] Creating Layer res4b34_branch2a
I0413 22:35:30.397033 29631 net.cpp:406] res4b34_branch2a <- res4b33_res4b33_relu_0_split_0
I0413 22:35:30.397038 29631 net.cpp:380] res4b34_branch2a -> res4b34_branch2a
I0413 22:35:30.401181 29631 net.cpp:122] Setting up res4b34_branch2a
I0413 22:35:30.401192 29631 net.cpp:129] Top shape: 1 256 14 14 (50176)
I0413 22:35:30.401195 29631 net.cpp:137] Memory required for data: 480886800
I0413 22:35:30.401198 29631 layer_factory.hpp:77] Creating layer bn4b34_branch2a
I0413 22:35:30.401203 29631 net.cpp:84] Creating Layer bn4b34_branch2a
I0413 22:35:30.401206 29631 net.cpp:406] bn4b34_branch2a <- res4b34_branch2a
I0413 22:35:30.401211 29631 net.cpp:367] bn4b34_branch2a -> res4b34_branch2a (in-place)
I0413 22:35:30.401384 29631 net.cpp:122] Setting up bn4b34_branch2a
I0413 22:35:30.401391 29631 net.cpp:129] Top shape: 1 256 14 14 (50176)
I0413 22:35:30.401391 29631 net.cpp:137] Memory required for data: 481087504
I0413 22:35:30.401396 29631 layer_factory.hpp:77] Creating layer scale4b34_branch2a
I0413 22:35:30.401401 29631 net.cpp:84] Creating Layer scale4b34_branch2a
I0413 22:35:30.401404 29631 net.cpp:406] scale4b34_branch2a <- res4b34_branch2a
I0413 22:35:30.401410 29631 net.cpp:367] scale4b34_branch2a -> res4b34_branch2a (in-place)
I0413 22:35:30.401448 29631 layer_factory.hpp:77] Creating layer scale4b34_branch2a
I0413 22:35:30.401538 29631 net.cpp:122] Setting up scale4b34_branch2a
I0413 22:35:30.401542 29631 net.cpp:129] Top shape: 1 256 14 14 (50176)
I0413 22:35:30.401545 29631 net.cpp:137] Memory required for data: 481288208
I0413 22:35:30.401547 29631 layer_factory.hpp:77] Creating layer res4b34_branch2a_relu
I0413 22:35:30.401551 29631 net.cpp:84] Creating Layer res4b34_branch2a_relu
I0413 22:35:30.401556 29631 net.cpp:406] res4b34_branch2a_relu <- res4b34_branch2a
I0413 22:35:30.401561 29631 net.cpp:367] res4b34_branch2a_relu -> res4b34_branch2a (in-place)
I0413 22:35:30.402053 29631 net.cpp:122] Setting up res4b34_branch2a_relu
I0413 22:35:30.402058 29631 net.cpp:129] Top shape: 1 256 14 14 (50176)
I0413 22:35:30.402060 29631 net.cpp:137] Memory required for data: 481488912
I0413 22:35:30.402062 29631 layer_factory.hpp:77] Creating layer res4b34_branch2b
I0413 22:35:30.402070 29631 net.cpp:84] Creating Layer res4b34_branch2b
I0413 22:35:30.402073 29631 net.cpp:406] res4b34_branch2b <- res4b34_branch2a
I0413 22:35:30.402078 29631 net.cpp:380] res4b34_branch2b -> res4b34_branch2b
I0413 22:35:30.409584 29631 net.cpp:122] Setting up res4b34_branch2b
I0413 22:35:30.409598 29631 net.cpp:129] Top shape: 1 256 14 14 (50176)
I0413 22:35:30.409600 29631 net.cpp:137] Memory required for data: 481689616
I0413 22:35:30.409605 29631 layer_factory.hpp:77] Creating layer bn4b34_branch2b
I0413 22:35:30.409617 29631 net.cpp:84] Creating Layer bn4b34_branch2b
I0413 22:35:30.409621 29631 net.cpp:406] bn4b34_branch2b <- res4b34_branch2b
I0413 22:35:30.409626 29631 net.cpp:367] bn4b34_branch2b -> res4b34_branch2b (in-place)
I0413 22:35:30.409804 29631 net.cpp:122] Setting up bn4b34_branch2b
I0413 22:35:30.409809 29631 net.cpp:129] Top shape: 1 256 14 14 (50176)
I0413 22:35:30.409811 29631 net.cpp:137] Memory required for data: 481890320
I0413 22:35:30.409814 29631 layer_factory.hpp:77] Creating layer scale4b34_branch2b
I0413 22:35:30.409819 29631 net.cpp:84] Creating Layer scale4b34_branch2b
I0413 22:35:30.409822 29631 net.cpp:406] scale4b34_branch2b <- res4b34_branch2b
I0413 22:35:30.409826 29631 net.cpp:367] scale4b34_branch2b -> res4b34_branch2b (in-place)
I0413 22:35:30.409863 29631 layer_factory.hpp:77] Creating layer scale4b34_branch2b
I0413 22:35:30.409958 29631 net.cpp:122] Setting up scale4b34_branch2b
I0413 22:35:30.409963 29631 net.cpp:129] Top shape: 1 256 14 14 (50176)
I0413 22:35:30.409965 29631 net.cpp:137] Memory required for data: 482091024
I0413 22:35:30.409968 29631 layer_factory.hpp:77] Creating layer res4b34_branch2b_relu
I0413 22:35:30.409973 29631 net.cpp:84] Creating Layer res4b34_branch2b_relu
I0413 22:35:30.409976 29631 net.cpp:406] res4b34_branch2b_relu <- res4b34_branch2b
I0413 22:35:30.409979 29631 net.cpp:367] res4b34_branch2b_relu -> res4b34_branch2b (in-place)
I0413 22:35:30.410483 29631 net.cpp:122] Setting up res4b34_branch2b_relu
I0413 22:35:30.410490 29631 net.cpp:129] Top shape: 1 256 14 14 (50176)
I0413 22:35:30.410491 29631 net.cpp:137] Memory required for data: 482291728
I0413 22:35:30.410493 29631 layer_factory.hpp:77] Creating layer res4b34_branch2c
I0413 22:35:30.410500 29631 net.cpp:84] Creating Layer res4b34_branch2c
I0413 22:35:30.410504 29631 net.cpp:406] res4b34_branch2c <- res4b34_branch2b
I0413 22:35:30.410508 29631 net.cpp:380] res4b34_branch2c -> res4b34_branch2c
I0413 22:35:30.413980 29631 net.cpp:122] Setting up res4b34_branch2c
I0413 22:35:30.413990 29631 net.cpp:129] Top shape: 1 1024 14 14 (200704)
I0413 22:35:30.413992 29631 net.cpp:137] Memory required for data: 483094544
I0413 22:35:30.413995 29631 layer_factory.hpp:77] Creating layer bn4b34_branch2c
I0413 22:35:30.414000 29631 net.cpp:84] Creating Layer bn4b34_branch2c
I0413 22:35:30.414003 29631 net.cpp:406] bn4b34_branch2c <- res4b34_branch2c
I0413 22:35:30.414006 29631 net.cpp:367] bn4b34_branch2c -> res4b34_branch2c (in-place)
I0413 22:35:30.414257 29631 net.cpp:122] Setting up bn4b34_branch2c
I0413 22:35:30.414261 29631 net.cpp:129] Top shape: 1 1024 14 14 (200704)
I0413 22:35:30.414263 29631 net.cpp:137] Memory required for data: 483897360
I0413 22:35:30.414268 29631 layer_factory.hpp:77] Creating layer scale4b34_branch2c
I0413 22:35:30.414271 29631 net.cpp:84] Creating Layer scale4b34_branch2c
I0413 22:35:30.414274 29631 net.cpp:406] scale4b34_branch2c <- res4b34_branch2c
I0413 22:35:30.414276 29631 net.cpp:367] scale4b34_branch2c -> res4b34_branch2c (in-place)
I0413 22:35:30.414338 29631 layer_factory.hpp:77] Creating layer scale4b34_branch2c
I0413 22:35:30.414471 29631 net.cpp:122] Setting up scale4b34_branch2c
I0413 22:35:30.414475 29631 net.cpp:129] Top shape: 1 1024 14 14 (200704)
I0413 22:35:30.414477 29631 net.cpp:137] Memory required for data: 484700176
I0413 22:35:30.414480 29631 layer_factory.hpp:77] Creating layer res4b34
I0413 22:35:30.414485 29631 net.cpp:84] Creating Layer res4b34
I0413 22:35:30.414489 29631 net.cpp:406] res4b34 <- res4b33_res4b33_relu_0_split_1
I0413 22:35:30.414491 29631 net.cpp:406] res4b34 <- res4b34_branch2c
I0413 22:35:30.414495 29631 net.cpp:380] res4b34 -> res4b34
I0413 22:35:30.414520 29631 net.cpp:122] Setting up res4b34
I0413 22:35:30.414525 29631 net.cpp:129] Top shape: 1 1024 14 14 (200704)
I0413 22:35:30.414525 29631 net.cpp:137] Memory required for data: 485502992
I0413 22:35:30.414527 29631 layer_factory.hpp:77] Creating layer res4b34_relu
I0413 22:35:30.414531 29631 net.cpp:84] Creating Layer res4b34_relu
I0413 22:35:30.414542 29631 net.cpp:406] res4b34_relu <- res4b34
I0413 22:35:30.414546 29631 net.cpp:367] res4b34_relu -> res4b34 (in-place)
I0413 22:35:30.415293 29631 net.cpp:122] Setting up res4b34_relu
I0413 22:35:30.415300 29631 net.cpp:129] Top shape: 1 1024 14 14 (200704)
I0413 22:35:30.415302 29631 net.cpp:137] Memory required for data: 486305808
I0413 22:35:30.415304 29631 layer_factory.hpp:77] Creating layer res4b34_res4b34_relu_0_split
I0413 22:35:30.415308 29631 net.cpp:84] Creating Layer res4b34_res4b34_relu_0_split
I0413 22:35:30.415313 29631 net.cpp:406] res4b34_res4b34_relu_0_split <- res4b34
I0413 22:35:30.415316 29631 net.cpp:380] res4b34_res4b34_relu_0_split -> res4b34_res4b34_relu_0_split_0
I0413 22:35:30.415324 29631 net.cpp:380] res4b34_res4b34_relu_0_split -> res4b34_res4b34_relu_0_split_1
I0413 22:35:30.415369 29631 net.cpp:122] Setting up res4b34_res4b34_relu_0_split
I0413 22:35:30.415374 29631 net.cpp:129] Top shape: 1 1024 14 14 (200704)
I0413 22:35:30.415375 29631 net.cpp:129] Top shape: 1 1024 14 14 (200704)
I0413 22:35:30.415377 29631 net.cpp:137] Memory required for data: 487911440
I0413 22:35:30.415380 29631 layer_factory.hpp:77] Creating layer res4b35_branch2a
I0413 22:35:30.415385 29631 net.cpp:84] Creating Layer res4b35_branch2a
I0413 22:35:30.415390 29631 net.cpp:406] res4b35_branch2a <- res4b34_res4b34_relu_0_split_0
I0413 22:35:30.415395 29631 net.cpp:380] res4b35_branch2a -> res4b35_branch2a
I0413 22:35:30.419423 29631 net.cpp:122] Setting up res4b35_branch2a
I0413 22:35:30.419432 29631 net.cpp:129] Top shape: 1 256 14 14 (50176)
I0413 22:35:30.419435 29631 net.cpp:137] Memory required for data: 488112144
I0413 22:35:30.419438 29631 layer_factory.hpp:77] Creating layer bn4b35_branch2a
I0413 22:35:30.419445 29631 net.cpp:84] Creating Layer bn4b35_branch2a
I0413 22:35:30.419450 29631 net.cpp:406] bn4b35_branch2a <- res4b35_branch2a
I0413 22:35:30.419453 29631 net.cpp:367] bn4b35_branch2a -> res4b35_branch2a (in-place)
I0413 22:35:30.419626 29631 net.cpp:122] Setting up bn4b35_branch2a
I0413 22:35:30.419631 29631 net.cpp:129] Top shape: 1 256 14 14 (50176)
I0413 22:35:30.419633 29631 net.cpp:137] Memory required for data: 488312848
I0413 22:35:30.419637 29631 layer_factory.hpp:77] Creating layer scale4b35_branch2a
I0413 22:35:30.419641 29631 net.cpp:84] Creating Layer scale4b35_branch2a
I0413 22:35:30.419646 29631 net.cpp:406] scale4b35_branch2a <- res4b35_branch2a
I0413 22:35:30.419649 29631 net.cpp:367] scale4b35_branch2a -> res4b35_branch2a (in-place)
I0413 22:35:30.419687 29631 layer_factory.hpp:77] Creating layer scale4b35_branch2a
I0413 22:35:30.419778 29631 net.cpp:122] Setting up scale4b35_branch2a
I0413 22:35:30.419782 29631 net.cpp:129] Top shape: 1 256 14 14 (50176)
I0413 22:35:30.419783 29631 net.cpp:137] Memory required for data: 488513552
I0413 22:35:30.419786 29631 layer_factory.hpp:77] Creating layer res4b35_branch2a_relu
I0413 22:35:30.419792 29631 net.cpp:84] Creating Layer res4b35_branch2a_relu
I0413 22:35:30.419795 29631 net.cpp:406] res4b35_branch2a_relu <- res4b35_branch2a
I0413 22:35:30.419798 29631 net.cpp:367] res4b35_branch2a_relu -> res4b35_branch2a (in-place)
I0413 22:35:30.420294 29631 net.cpp:122] Setting up res4b35_branch2a_relu
I0413 22:35:30.420300 29631 net.cpp:129] Top shape: 1 256 14 14 (50176)
I0413 22:35:30.420301 29631 net.cpp:137] Memory required for data: 488714256
I0413 22:35:30.420303 29631 layer_factory.hpp:77] Creating layer res4b35_branch2b
I0413 22:35:30.420310 29631 net.cpp:84] Creating Layer res4b35_branch2b
I0413 22:35:30.420313 29631 net.cpp:406] res4b35_branch2b <- res4b35_branch2a
I0413 22:35:30.420318 29631 net.cpp:380] res4b35_branch2b -> res4b35_branch2b
I0413 22:35:30.426517 29631 net.cpp:122] Setting up res4b35_branch2b
I0413 22:35:30.426527 29631 net.cpp:129] Top shape: 1 256 14 14 (50176)
I0413 22:35:30.426529 29631 net.cpp:137] Memory required for data: 488914960
I0413 22:35:30.426532 29631 layer_factory.hpp:77] Creating layer bn4b35_branch2b
I0413 22:35:30.426538 29631 net.cpp:84] Creating Layer bn4b35_branch2b
I0413 22:35:30.426550 29631 net.cpp:406] bn4b35_branch2b <- res4b35_branch2b
I0413 22:35:30.426555 29631 net.cpp:367] bn4b35_branch2b -> res4b35_branch2b (in-place)
I0413 22:35:30.426730 29631 net.cpp:122] Setting up bn4b35_branch2b
I0413 22:35:30.426734 29631 net.cpp:129] Top shape: 1 256 14 14 (50176)
I0413 22:35:30.426736 29631 net.cpp:137] Memory required for data: 489115664
I0413 22:35:30.426740 29631 layer_factory.hpp:77] Creating layer scale4b35_branch2b
I0413 22:35:30.426745 29631 net.cpp:84] Creating Layer scale4b35_branch2b
I0413 22:35:30.426749 29631 net.cpp:406] scale4b35_branch2b <- res4b35_branch2b
I0413 22:35:30.426753 29631 net.cpp:367] scale4b35_branch2b -> res4b35_branch2b (in-place)
I0413 22:35:30.426795 29631 layer_factory.hpp:77] Creating layer scale4b35_branch2b
I0413 22:35:30.426887 29631 net.cpp:122] Setting up scale4b35_branch2b
I0413 22:35:30.426892 29631 net.cpp:129] Top shape: 1 256 14 14 (50176)
I0413 22:35:30.426893 29631 net.cpp:137] Memory required for data: 489316368
I0413 22:35:30.426897 29631 layer_factory.hpp:77] Creating layer res4b35_branch2b_relu
I0413 22:35:30.426903 29631 net.cpp:84] Creating Layer res4b35_branch2b_relu
I0413 22:35:30.426906 29631 net.cpp:406] res4b35_branch2b_relu <- res4b35_branch2b
I0413 22:35:30.426910 29631 net.cpp:367] res4b35_branch2b_relu -> res4b35_branch2b (in-place)
I0413 22:35:30.427405 29631 net.cpp:122] Setting up res4b35_branch2b_relu
I0413 22:35:30.427412 29631 net.cpp:129] Top shape: 1 256 14 14 (50176)
I0413 22:35:30.427413 29631 net.cpp:137] Memory required for data: 489517072
I0413 22:35:30.427415 29631 layer_factory.hpp:77] Creating layer res4b35_branch2c
I0413 22:35:30.427423 29631 net.cpp:84] Creating Layer res4b35_branch2c
I0413 22:35:30.427426 29631 net.cpp:406] res4b35_branch2c <- res4b35_branch2b
I0413 22:35:30.427433 29631 net.cpp:380] res4b35_branch2c -> res4b35_branch2c
I0413 22:35:30.431061 29631 net.cpp:122] Setting up res4b35_branch2c
I0413 22:35:30.431071 29631 net.cpp:129] Top shape: 1 1024 14 14 (200704)
I0413 22:35:30.431072 29631 net.cpp:137] Memory required for data: 490319888
I0413 22:35:30.431076 29631 layer_factory.hpp:77] Creating layer bn4b35_branch2c
I0413 22:35:30.431080 29631 net.cpp:84] Creating Layer bn4b35_branch2c
I0413 22:35:30.431083 29631 net.cpp:406] bn4b35_branch2c <- res4b35_branch2c
I0413 22:35:30.431088 29631 net.cpp:367] bn4b35_branch2c -> res4b35_branch2c (in-place)
I0413 22:35:30.431326 29631 net.cpp:122] Setting up bn4b35_branch2c
I0413 22:35:30.431332 29631 net.cpp:129] Top shape: 1 1024 14 14 (200704)
I0413 22:35:30.431334 29631 net.cpp:137] Memory required for data: 491122704
I0413 22:35:30.431337 29631 layer_factory.hpp:77] Creating layer scale4b35_branch2c
I0413 22:35:30.431341 29631 net.cpp:84] Creating Layer scale4b35_branch2c
I0413 22:35:30.431346 29631 net.cpp:406] scale4b35_branch2c <- res4b35_branch2c
I0413 22:35:30.431350 29631 net.cpp:367] scale4b35_branch2c -> res4b35_branch2c (in-place)
I0413 22:35:30.431412 29631 layer_factory.hpp:77] Creating layer scale4b35_branch2c
I0413 22:35:30.431545 29631 net.cpp:122] Setting up scale4b35_branch2c
I0413 22:35:30.431550 29631 net.cpp:129] Top shape: 1 1024 14 14 (200704)
I0413 22:35:30.431550 29631 net.cpp:137] Memory required for data: 491925520
I0413 22:35:30.431553 29631 layer_factory.hpp:77] Creating layer res4b35
I0413 22:35:30.431558 29631 net.cpp:84] Creating Layer res4b35
I0413 22:35:30.431562 29631 net.cpp:406] res4b35 <- res4b34_res4b34_relu_0_split_1
I0413 22:35:30.431566 29631 net.cpp:406] res4b35 <- res4b35_branch2c
I0413 22:35:30.431571 29631 net.cpp:380] res4b35 -> res4b35
I0413 22:35:30.431596 29631 net.cpp:122] Setting up res4b35
I0413 22:35:30.431599 29631 net.cpp:129] Top shape: 1 1024 14 14 (200704)
I0413 22:35:30.431602 29631 net.cpp:137] Memory required for data: 492728336
I0413 22:35:30.431602 29631 layer_factory.hpp:77] Creating layer res4b35_relu
I0413 22:35:30.431607 29631 net.cpp:84] Creating Layer res4b35_relu
I0413 22:35:30.431612 29631 net.cpp:406] res4b35_relu <- res4b35
I0413 22:35:30.431614 29631 net.cpp:367] res4b35_relu -> res4b35 (in-place)
I0413 22:35:30.432296 29631 net.cpp:122] Setting up res4b35_relu
I0413 22:35:30.432303 29631 net.cpp:129] Top shape: 1 1024 14 14 (200704)
I0413 22:35:30.432305 29631 net.cpp:137] Memory required for data: 493531152
I0413 22:35:30.432307 29631 layer_factory.hpp:77] Creating layer res4b35_res4b35_relu_0_split
I0413 22:35:30.432310 29631 net.cpp:84] Creating Layer res4b35_res4b35_relu_0_split
I0413 22:35:30.432314 29631 net.cpp:406] res4b35_res4b35_relu_0_split <- res4b35
I0413 22:35:30.432319 29631 net.cpp:380] res4b35_res4b35_relu_0_split -> res4b35_res4b35_relu_0_split_0
I0413 22:35:30.432327 29631 net.cpp:380] res4b35_res4b35_relu_0_split -> res4b35_res4b35_relu_0_split_1
I0413 22:35:30.432370 29631 net.cpp:122] Setting up res4b35_res4b35_relu_0_split
I0413 22:35:30.432375 29631 net.cpp:129] Top shape: 1 1024 14 14 (200704)
I0413 22:35:30.432377 29631 net.cpp:129] Top shape: 1 1024 14 14 (200704)
I0413 22:35:30.432379 29631 net.cpp:137] Memory required for data: 495136784
I0413 22:35:30.432382 29631 layer_factory.hpp:77] Creating layer res5a_branch1
I0413 22:35:30.432389 29631 net.cpp:84] Creating Layer res5a_branch1
I0413 22:35:30.432391 29631 net.cpp:406] res5a_branch1 <- res4b35_res4b35_relu_0_split_0
I0413 22:35:30.432394 29631 net.cpp:380] res5a_branch1 -> res5a_branch1
I0413 22:35:30.448415 29631 net.cpp:122] Setting up res5a_branch1
I0413 22:35:30.448427 29631 net.cpp:129] Top shape: 1 2048 7 7 (100352)
I0413 22:35:30.448429 29631 net.cpp:137] Memory required for data: 495538192
I0413 22:35:30.448434 29631 layer_factory.hpp:77] Creating layer bn5a_branch1
I0413 22:35:30.448441 29631 net.cpp:84] Creating Layer bn5a_branch1
I0413 22:35:30.448443 29631 net.cpp:406] bn5a_branch1 <- res5a_branch1
I0413 22:35:30.448446 29631 net.cpp:367] bn5a_branch1 -> res5a_branch1 (in-place)
I0413 22:35:30.448704 29631 net.cpp:122] Setting up bn5a_branch1
I0413 22:35:30.448707 29631 net.cpp:129] Top shape: 1 2048 7 7 (100352)
I0413 22:35:30.448709 29631 net.cpp:137] Memory required for data: 495939600
I0413 22:35:30.448714 29631 layer_factory.hpp:77] Creating layer scale5a_branch1
I0413 22:35:30.448717 29631 net.cpp:84] Creating Layer scale5a_branch1
I0413 22:35:30.448720 29631 net.cpp:406] scale5a_branch1 <- res5a_branch1
I0413 22:35:30.448722 29631 net.cpp:367] scale5a_branch1 -> res5a_branch1 (in-place)
I0413 22:35:30.448777 29631 layer_factory.hpp:77] Creating layer scale5a_branch1
I0413 22:35:30.448902 29631 net.cpp:122] Setting up scale5a_branch1
I0413 22:35:30.448906 29631 net.cpp:129] Top shape: 1 2048 7 7 (100352)
I0413 22:35:30.448909 29631 net.cpp:137] Memory required for data: 496341008
I0413 22:35:30.448910 29631 layer_factory.hpp:77] Creating layer res5a_branch2a
I0413 22:35:30.448915 29631 net.cpp:84] Creating Layer res5a_branch2a
I0413 22:35:30.448918 29631 net.cpp:406] res5a_branch2a <- res4b35_res4b35_relu_0_split_1
I0413 22:35:30.448921 29631 net.cpp:380] res5a_branch2a -> res5a_branch2a
I0413 22:35:30.454411 29631 net.cpp:122] Setting up res5a_branch2a
I0413 22:35:30.454422 29631 net.cpp:129] Top shape: 1 512 7 7 (25088)
I0413 22:35:30.454426 29631 net.cpp:137] Memory required for data: 496441360
I0413 22:35:30.454428 29631 layer_factory.hpp:77] Creating layer bn5a_branch2a
I0413 22:35:30.454432 29631 net.cpp:84] Creating Layer bn5a_branch2a
I0413 22:35:30.454435 29631 net.cpp:406] bn5a_branch2a <- res5a_branch2a
I0413 22:35:30.454438 29631 net.cpp:367] bn5a_branch2a -> res5a_branch2a (in-place)
I0413 22:35:30.454674 29631 net.cpp:122] Setting up bn5a_branch2a
I0413 22:35:30.454679 29631 net.cpp:129] Top shape: 1 512 7 7 (25088)
I0413 22:35:30.454680 29631 net.cpp:137] Memory required for data: 496541712
I0413 22:35:30.454684 29631 layer_factory.hpp:77] Creating layer scale5a_branch2a
I0413 22:35:30.454687 29631 net.cpp:84] Creating Layer scale5a_branch2a
I0413 22:35:30.454689 29631 net.cpp:406] scale5a_branch2a <- res5a_branch2a
I0413 22:35:30.454691 29631 net.cpp:367] scale5a_branch2a -> res5a_branch2a (in-place)
I0413 22:35:30.454744 29631 layer_factory.hpp:77] Creating layer scale5a_branch2a
I0413 22:35:30.454874 29631 net.cpp:122] Setting up scale5a_branch2a
I0413 22:35:30.454879 29631 net.cpp:129] Top shape: 1 512 7 7 (25088)
I0413 22:35:30.454879 29631 net.cpp:137] Memory required for data: 496642064
I0413 22:35:30.454882 29631 layer_factory.hpp:77] Creating layer res5a_branch2a_relu
I0413 22:35:30.454886 29631 net.cpp:84] Creating Layer res5a_branch2a_relu
I0413 22:35:30.454888 29631 net.cpp:406] res5a_branch2a_relu <- res5a_branch2a
I0413 22:35:30.454890 29631 net.cpp:367] res5a_branch2a_relu -> res5a_branch2a (in-place)
I0413 22:35:30.455581 29631 net.cpp:122] Setting up res5a_branch2a_relu
I0413 22:35:30.455588 29631 net.cpp:129] Top shape: 1 512 7 7 (25088)
I0413 22:35:30.455590 29631 net.cpp:137] Memory required for data: 496742416
I0413 22:35:30.455593 29631 layer_factory.hpp:77] Creating layer res5a_branch2b
I0413 22:35:30.455600 29631 net.cpp:84] Creating Layer res5a_branch2b
I0413 22:35:30.455603 29631 net.cpp:406] res5a_branch2b <- res5a_branch2a
I0413 22:35:30.455608 29631 net.cpp:380] res5a_branch2b -> res5a_branch2b
I0413 22:35:30.473368 29631 net.cpp:122] Setting up res5a_branch2b
I0413 22:35:30.473382 29631 net.cpp:129] Top shape: 1 512 7 7 (25088)
I0413 22:35:30.473384 29631 net.cpp:137] Memory required for data: 496842768
I0413 22:35:30.473389 29631 layer_factory.hpp:77] Creating layer bn5a_branch2b
I0413 22:35:30.473394 29631 net.cpp:84] Creating Layer bn5a_branch2b
I0413 22:35:30.473397 29631 net.cpp:406] bn5a_branch2b <- res5a_branch2b
I0413 22:35:30.473402 29631 net.cpp:367] bn5a_branch2b -> res5a_branch2b (in-place)
I0413 22:35:30.473654 29631 net.cpp:122] Setting up bn5a_branch2b
I0413 22:35:30.473659 29631 net.cpp:129] Top shape: 1 512 7 7 (25088)
I0413 22:35:30.473660 29631 net.cpp:137] Memory required for data: 496943120
I0413 22:35:30.473664 29631 layer_factory.hpp:77] Creating layer scale5a_branch2b
I0413 22:35:30.473668 29631 net.cpp:84] Creating Layer scale5a_branch2b
I0413 22:35:30.473670 29631 net.cpp:406] scale5a_branch2b <- res5a_branch2b
I0413 22:35:30.473672 29631 net.cpp:367] scale5a_branch2b -> res5a_branch2b (in-place)
I0413 22:35:30.473726 29631 layer_factory.hpp:77] Creating layer scale5a_branch2b
I0413 22:35:30.473853 29631 net.cpp:122] Setting up scale5a_branch2b
I0413 22:35:30.473857 29631 net.cpp:129] Top shape: 1 512 7 7 (25088)
I0413 22:35:30.473860 29631 net.cpp:137] Memory required for data: 497043472
I0413 22:35:30.473861 29631 layer_factory.hpp:77] Creating layer res5a_branch2b_relu
I0413 22:35:30.473865 29631 net.cpp:84] Creating Layer res5a_branch2b_relu
I0413 22:35:30.473867 29631 net.cpp:406] res5a_branch2b_relu <- res5a_branch2b
I0413 22:35:30.473870 29631 net.cpp:367] res5a_branch2b_relu -> res5a_branch2b (in-place)
I0413 22:35:30.474350 29631 net.cpp:122] Setting up res5a_branch2b_relu
I0413 22:35:30.474356 29631 net.cpp:129] Top shape: 1 512 7 7 (25088)
I0413 22:35:30.474357 29631 net.cpp:137] Memory required for data: 497143824
I0413 22:35:30.474360 29631 layer_factory.hpp:77] Creating layer res5a_branch2c
I0413 22:35:30.474367 29631 net.cpp:84] Creating Layer res5a_branch2c
I0413 22:35:30.474370 29631 net.cpp:406] res5a_branch2c <- res5a_branch2b
I0413 22:35:30.474375 29631 net.cpp:380] res5a_branch2c -> res5a_branch2c
I0413 22:35:30.483672 29631 net.cpp:122] Setting up res5a_branch2c
I0413 22:35:30.483686 29631 net.cpp:129] Top shape: 1 2048 7 7 (100352)
I0413 22:35:30.483688 29631 net.cpp:137] Memory required for data: 497545232
I0413 22:35:30.483693 29631 layer_factory.hpp:77] Creating layer bn5a_branch2c
I0413 22:35:30.483698 29631 net.cpp:84] Creating Layer bn5a_branch2c
I0413 22:35:30.483702 29631 net.cpp:406] bn5a_branch2c <- res5a_branch2c
I0413 22:35:30.483706 29631 net.cpp:367] bn5a_branch2c -> res5a_branch2c (in-place)
I0413 22:35:30.483960 29631 net.cpp:122] Setting up bn5a_branch2c
I0413 22:35:30.483966 29631 net.cpp:129] Top shape: 1 2048 7 7 (100352)
I0413 22:35:30.483968 29631 net.cpp:137] Memory required for data: 497946640
I0413 22:35:30.483971 29631 layer_factory.hpp:77] Creating layer scale5a_branch2c
I0413 22:35:30.483983 29631 net.cpp:84] Creating Layer scale5a_branch2c
I0413 22:35:30.483985 29631 net.cpp:406] scale5a_branch2c <- res5a_branch2c
I0413 22:35:30.483989 29631 net.cpp:367] scale5a_branch2c -> res5a_branch2c (in-place)
I0413 22:35:30.484052 29631 layer_factory.hpp:77] Creating layer scale5a_branch2c
I0413 22:35:30.484185 29631 net.cpp:122] Setting up scale5a_branch2c
I0413 22:35:30.484190 29631 net.cpp:129] Top shape: 1 2048 7 7 (100352)
I0413 22:35:30.484191 29631 net.cpp:137] Memory required for data: 498348048
I0413 22:35:30.484194 29631 layer_factory.hpp:77] Creating layer res5a
I0413 22:35:30.484199 29631 net.cpp:84] Creating Layer res5a
I0413 22:35:30.484201 29631 net.cpp:406] res5a <- res5a_branch1
I0413 22:35:30.484203 29631 net.cpp:406] res5a <- res5a_branch2c
I0413 22:35:30.484206 29631 net.cpp:380] res5a -> res5a
I0413 22:35:30.484225 29631 net.cpp:122] Setting up res5a
I0413 22:35:30.484228 29631 net.cpp:129] Top shape: 1 2048 7 7 (100352)
I0413 22:35:30.484230 29631 net.cpp:137] Memory required for data: 498749456
I0413 22:35:30.484233 29631 layer_factory.hpp:77] Creating layer res5a_relu
I0413 22:35:30.484237 29631 net.cpp:84] Creating Layer res5a_relu
I0413 22:35:30.484241 29631 net.cpp:406] res5a_relu <- res5a
I0413 22:35:30.484246 29631 net.cpp:367] res5a_relu -> res5a (in-place)
I0413 22:35:30.484724 29631 net.cpp:122] Setting up res5a_relu
I0413 22:35:30.484730 29631 net.cpp:129] Top shape: 1 2048 7 7 (100352)
I0413 22:35:30.484731 29631 net.cpp:137] Memory required for data: 499150864
I0413 22:35:30.484735 29631 layer_factory.hpp:77] Creating layer res5a_res5a_relu_0_split
I0413 22:35:30.484738 29631 net.cpp:84] Creating Layer res5a_res5a_relu_0_split
I0413 22:35:30.484741 29631 net.cpp:406] res5a_res5a_relu_0_split <- res5a
I0413 22:35:30.484745 29631 net.cpp:380] res5a_res5a_relu_0_split -> res5a_res5a_relu_0_split_0
I0413 22:35:30.484752 29631 net.cpp:380] res5a_res5a_relu_0_split -> res5a_res5a_relu_0_split_1
I0413 22:35:30.484791 29631 net.cpp:122] Setting up res5a_res5a_relu_0_split
I0413 22:35:30.484796 29631 net.cpp:129] Top shape: 1 2048 7 7 (100352)
I0413 22:35:30.484797 29631 net.cpp:129] Top shape: 1 2048 7 7 (100352)
I0413 22:35:30.484799 29631 net.cpp:137] Memory required for data: 499953680
I0413 22:35:30.484800 29631 layer_factory.hpp:77] Creating layer res5b_branch2a
I0413 22:35:30.484807 29631 net.cpp:84] Creating Layer res5b_branch2a
I0413 22:35:30.484808 29631 net.cpp:406] res5b_branch2a <- res5a_res5a_relu_0_split_0
I0413 22:35:30.484812 29631 net.cpp:380] res5b_branch2a -> res5b_branch2a
I0413 22:35:30.493765 29631 net.cpp:122] Setting up res5b_branch2a
I0413 22:35:30.493778 29631 net.cpp:129] Top shape: 1 512 7 7 (25088)
I0413 22:35:30.493780 29631 net.cpp:137] Memory required for data: 500054032
I0413 22:35:30.493784 29631 layer_factory.hpp:77] Creating layer bn5b_branch2a
I0413 22:35:30.493789 29631 net.cpp:84] Creating Layer bn5b_branch2a
I0413 22:35:30.493793 29631 net.cpp:406] bn5b_branch2a <- res5b_branch2a
I0413 22:35:30.493795 29631 net.cpp:367] bn5b_branch2a -> res5b_branch2a (in-place)
I0413 22:35:30.494053 29631 net.cpp:122] Setting up bn5b_branch2a
I0413 22:35:30.494058 29631 net.cpp:129] Top shape: 1 512 7 7 (25088)
I0413 22:35:30.494060 29631 net.cpp:137] Memory required for data: 500154384
I0413 22:35:30.494065 29631 layer_factory.hpp:77] Creating layer scale5b_branch2a
I0413 22:35:30.494068 29631 net.cpp:84] Creating Layer scale5b_branch2a
I0413 22:35:30.494071 29631 net.cpp:406] scale5b_branch2a <- res5b_branch2a
I0413 22:35:30.494073 29631 net.cpp:367] scale5b_branch2a -> res5b_branch2a (in-place)
I0413 22:35:30.494127 29631 layer_factory.hpp:77] Creating layer scale5b_branch2a
I0413 22:35:30.494267 29631 net.cpp:122] Setting up scale5b_branch2a
I0413 22:35:30.494272 29631 net.cpp:129] Top shape: 1 512 7 7 (25088)
I0413 22:35:30.494274 29631 net.cpp:137] Memory required for data: 500254736
I0413 22:35:30.494277 29631 layer_factory.hpp:77] Creating layer res5b_branch2a_relu
I0413 22:35:30.494280 29631 net.cpp:84] Creating Layer res5b_branch2a_relu
I0413 22:35:30.494292 29631 net.cpp:406] res5b_branch2a_relu <- res5b_branch2a
I0413 22:35:30.494297 29631 net.cpp:367] res5b_branch2a_relu -> res5b_branch2a (in-place)
I0413 22:35:30.495075 29631 net.cpp:122] Setting up res5b_branch2a_relu
I0413 22:35:30.495081 29631 net.cpp:129] Top shape: 1 512 7 7 (25088)
I0413 22:35:30.495084 29631 net.cpp:137] Memory required for data: 500355088
I0413 22:35:30.495085 29631 layer_factory.hpp:77] Creating layer res5b_branch2b
I0413 22:35:30.495092 29631 net.cpp:84] Creating Layer res5b_branch2b
I0413 22:35:30.495095 29631 net.cpp:406] res5b_branch2b <- res5b_branch2a
I0413 22:35:30.495097 29631 net.cpp:380] res5b_branch2b -> res5b_branch2b
I0413 22:35:30.513007 29631 net.cpp:122] Setting up res5b_branch2b
I0413 22:35:30.513020 29631 net.cpp:129] Top shape: 1 512 7 7 (25088)
I0413 22:35:30.513022 29631 net.cpp:137] Memory required for data: 500455440
I0413 22:35:30.513027 29631 layer_factory.hpp:77] Creating layer bn5b_branch2b
I0413 22:35:30.513037 29631 net.cpp:84] Creating Layer bn5b_branch2b
I0413 22:35:30.513041 29631 net.cpp:406] bn5b_branch2b <- res5b_branch2b
I0413 22:35:30.513043 29631 net.cpp:367] bn5b_branch2b -> res5b_branch2b (in-place)
I0413 22:35:30.513303 29631 net.cpp:122] Setting up bn5b_branch2b
I0413 22:35:30.513309 29631 net.cpp:129] Top shape: 1 512 7 7 (25088)
I0413 22:35:30.513309 29631 net.cpp:137] Memory required for data: 500555792
I0413 22:35:30.513314 29631 layer_factory.hpp:77] Creating layer scale5b_branch2b
I0413 22:35:30.513316 29631 net.cpp:84] Creating Layer scale5b_branch2b
I0413 22:35:30.513319 29631 net.cpp:406] scale5b_branch2b <- res5b_branch2b
I0413 22:35:30.513320 29631 net.cpp:367] scale5b_branch2b -> res5b_branch2b (in-place)
I0413 22:35:30.513375 29631 layer_factory.hpp:77] Creating layer scale5b_branch2b
I0413 22:35:30.513502 29631 net.cpp:122] Setting up scale5b_branch2b
I0413 22:35:30.513506 29631 net.cpp:129] Top shape: 1 512 7 7 (25088)
I0413 22:35:30.513509 29631 net.cpp:137] Memory required for data: 500656144
I0413 22:35:30.513510 29631 layer_factory.hpp:77] Creating layer res5b_branch2b_relu
I0413 22:35:30.513514 29631 net.cpp:84] Creating Layer res5b_branch2b_relu
I0413 22:35:30.513516 29631 net.cpp:406] res5b_branch2b_relu <- res5b_branch2b
I0413 22:35:30.513519 29631 net.cpp:367] res5b_branch2b_relu -> res5b_branch2b (in-place)
I0413 22:35:30.514214 29631 net.cpp:122] Setting up res5b_branch2b_relu
I0413 22:35:30.514219 29631 net.cpp:129] Top shape: 1 512 7 7 (25088)
I0413 22:35:30.514221 29631 net.cpp:137] Memory required for data: 500756496
I0413 22:35:30.514223 29631 layer_factory.hpp:77] Creating layer res5b_branch2c
I0413 22:35:30.514230 29631 net.cpp:84] Creating Layer res5b_branch2c
I0413 22:35:30.514231 29631 net.cpp:406] res5b_branch2c <- res5b_branch2b
I0413 22:35:30.514235 29631 net.cpp:380] res5b_branch2c -> res5b_branch2c
I0413 22:35:30.523839 29631 net.cpp:122] Setting up res5b_branch2c
I0413 22:35:30.523854 29631 net.cpp:129] Top shape: 1 2048 7 7 (100352)
I0413 22:35:30.523856 29631 net.cpp:137] Memory required for data: 501157904
I0413 22:35:30.523860 29631 layer_factory.hpp:77] Creating layer bn5b_branch2c
I0413 22:35:30.523867 29631 net.cpp:84] Creating Layer bn5b_branch2c
I0413 22:35:30.523870 29631 net.cpp:406] bn5b_branch2c <- res5b_branch2c
I0413 22:35:30.523874 29631 net.cpp:367] bn5b_branch2c -> res5b_branch2c (in-place)
I0413 22:35:30.524140 29631 net.cpp:122] Setting up bn5b_branch2c
I0413 22:35:30.524145 29631 net.cpp:129] Top shape: 1 2048 7 7 (100352)
I0413 22:35:30.524147 29631 net.cpp:137] Memory required for data: 501559312
I0413 22:35:30.524152 29631 layer_factory.hpp:77] Creating layer scale5b_branch2c
I0413 22:35:30.524155 29631 net.cpp:84] Creating Layer scale5b_branch2c
I0413 22:35:30.524158 29631 net.cpp:406] scale5b_branch2c <- res5b_branch2c
I0413 22:35:30.524160 29631 net.cpp:367] scale5b_branch2c -> res5b_branch2c (in-place)
I0413 22:35:30.524219 29631 layer_factory.hpp:77] Creating layer scale5b_branch2c
I0413 22:35:30.524353 29631 net.cpp:122] Setting up scale5b_branch2c
I0413 22:35:30.524358 29631 net.cpp:129] Top shape: 1 2048 7 7 (100352)
I0413 22:35:30.524368 29631 net.cpp:137] Memory required for data: 501960720
I0413 22:35:30.524370 29631 layer_factory.hpp:77] Creating layer res5b
I0413 22:35:30.524374 29631 net.cpp:84] Creating Layer res5b
I0413 22:35:30.524376 29631 net.cpp:406] res5b <- res5a_res5a_relu_0_split_1
I0413 22:35:30.524379 29631 net.cpp:406] res5b <- res5b_branch2c
I0413 22:35:30.524381 29631 net.cpp:380] res5b -> res5b
I0413 22:35:30.524401 29631 net.cpp:122] Setting up res5b
I0413 22:35:30.524405 29631 net.cpp:129] Top shape: 1 2048 7 7 (100352)
I0413 22:35:30.524408 29631 net.cpp:137] Memory required for data: 502362128
I0413 22:35:30.524410 29631 layer_factory.hpp:77] Creating layer res5b_relu
I0413 22:35:30.524413 29631 net.cpp:84] Creating Layer res5b_relu
I0413 22:35:30.524415 29631 net.cpp:406] res5b_relu <- res5b
I0413 22:35:30.524418 29631 net.cpp:367] res5b_relu -> res5b (in-place)
I0413 22:35:30.524899 29631 net.cpp:122] Setting up res5b_relu
I0413 22:35:30.524904 29631 net.cpp:129] Top shape: 1 2048 7 7 (100352)
I0413 22:35:30.524906 29631 net.cpp:137] Memory required for data: 502763536
I0413 22:35:30.524909 29631 layer_factory.hpp:77] Creating layer res5b_res5b_relu_0_split
I0413 22:35:30.524914 29631 net.cpp:84] Creating Layer res5b_res5b_relu_0_split
I0413 22:35:30.524916 29631 net.cpp:406] res5b_res5b_relu_0_split <- res5b
I0413 22:35:30.524921 29631 net.cpp:380] res5b_res5b_relu_0_split -> res5b_res5b_relu_0_split_0
I0413 22:35:30.524926 29631 net.cpp:380] res5b_res5b_relu_0_split -> res5b_res5b_relu_0_split_1
I0413 22:35:30.524967 29631 net.cpp:122] Setting up res5b_res5b_relu_0_split
I0413 22:35:30.524971 29631 net.cpp:129] Top shape: 1 2048 7 7 (100352)
I0413 22:35:30.524973 29631 net.cpp:129] Top shape: 1 2048 7 7 (100352)
I0413 22:35:30.524976 29631 net.cpp:137] Memory required for data: 503566352
I0413 22:35:30.524977 29631 layer_factory.hpp:77] Creating layer res5c_branch2a
I0413 22:35:30.524984 29631 net.cpp:84] Creating Layer res5c_branch2a
I0413 22:35:30.524987 29631 net.cpp:406] res5c_branch2a <- res5b_res5b_relu_0_split_0
I0413 22:35:30.524992 29631 net.cpp:380] res5c_branch2a -> res5c_branch2a
I0413 22:35:30.534530 29631 net.cpp:122] Setting up res5c_branch2a
I0413 22:35:30.534544 29631 net.cpp:129] Top shape: 1 512 7 7 (25088)
I0413 22:35:30.534546 29631 net.cpp:137] Memory required for data: 503666704
I0413 22:35:30.534550 29631 layer_factory.hpp:77] Creating layer bn5c_branch2a
I0413 22:35:30.534556 29631 net.cpp:84] Creating Layer bn5c_branch2a
I0413 22:35:30.534561 29631 net.cpp:406] bn5c_branch2a <- res5c_branch2a
I0413 22:35:30.534566 29631 net.cpp:367] bn5c_branch2a -> res5c_branch2a (in-place)
I0413 22:35:30.534824 29631 net.cpp:122] Setting up bn5c_branch2a
I0413 22:35:30.534829 29631 net.cpp:129] Top shape: 1 512 7 7 (25088)
I0413 22:35:30.534832 29631 net.cpp:137] Memory required for data: 503767056
I0413 22:35:30.534835 29631 layer_factory.hpp:77] Creating layer scale5c_branch2a
I0413 22:35:30.534840 29631 net.cpp:84] Creating Layer scale5c_branch2a
I0413 22:35:30.534844 29631 net.cpp:406] scale5c_branch2a <- res5c_branch2a
I0413 22:35:30.534847 29631 net.cpp:367] scale5c_branch2a -> res5c_branch2a (in-place)
I0413 22:35:30.534907 29631 layer_factory.hpp:77] Creating layer scale5c_branch2a
I0413 22:35:30.535069 29631 net.cpp:122] Setting up scale5c_branch2a
I0413 22:35:30.535074 29631 net.cpp:129] Top shape: 1 512 7 7 (25088)
I0413 22:35:30.535075 29631 net.cpp:137] Memory required for data: 503867408
I0413 22:35:30.535079 29631 layer_factory.hpp:77] Creating layer res5c_branch2a_relu
I0413 22:35:30.535085 29631 net.cpp:84] Creating Layer res5c_branch2a_relu
I0413 22:35:30.535089 29631 net.cpp:406] res5c_branch2a_relu <- res5c_branch2a
I0413 22:35:30.535091 29631 net.cpp:367] res5c_branch2a_relu -> res5c_branch2a (in-place)
I0413 22:35:30.535578 29631 net.cpp:122] Setting up res5c_branch2a_relu
I0413 22:35:30.535584 29631 net.cpp:129] Top shape: 1 512 7 7 (25088)
I0413 22:35:30.535585 29631 net.cpp:137] Memory required for data: 503967760
I0413 22:35:30.535595 29631 layer_factory.hpp:77] Creating layer res5c_branch2b
I0413 22:35:30.535603 29631 net.cpp:84] Creating Layer res5c_branch2b
I0413 22:35:30.535604 29631 net.cpp:406] res5c_branch2b <- res5c_branch2a
I0413 22:35:30.535607 29631 net.cpp:380] res5c_branch2b -> res5c_branch2b
I0413 22:35:30.554147 29631 net.cpp:122] Setting up res5c_branch2b
I0413 22:35:30.554162 29631 net.cpp:129] Top shape: 1 512 7 7 (25088)
I0413 22:35:30.554163 29631 net.cpp:137] Memory required for data: 504068112
I0413 22:35:30.554168 29631 layer_factory.hpp:77] Creating layer bn5c_branch2b
I0413 22:35:30.554174 29631 net.cpp:84] Creating Layer bn5c_branch2b
I0413 22:35:30.554177 29631 net.cpp:406] bn5c_branch2b <- res5c_branch2b
I0413 22:35:30.554181 29631 net.cpp:367] bn5c_branch2b -> res5c_branch2b (in-place)
I0413 22:35:30.554451 29631 net.cpp:122] Setting up bn5c_branch2b
I0413 22:35:30.554456 29631 net.cpp:129] Top shape: 1 512 7 7 (25088)
I0413 22:35:30.554457 29631 net.cpp:137] Memory required for data: 504168464
I0413 22:35:30.554461 29631 layer_factory.hpp:77] Creating layer scale5c_branch2b
I0413 22:35:30.554466 29631 net.cpp:84] Creating Layer scale5c_branch2b
I0413 22:35:30.554469 29631 net.cpp:406] scale5c_branch2b <- res5c_branch2b
I0413 22:35:30.554472 29631 net.cpp:367] scale5c_branch2b -> res5c_branch2b (in-place)
I0413 22:35:30.554533 29631 layer_factory.hpp:77] Creating layer scale5c_branch2b
I0413 22:35:30.554669 29631 net.cpp:122] Setting up scale5c_branch2b
I0413 22:35:30.554673 29631 net.cpp:129] Top shape: 1 512 7 7 (25088)
I0413 22:35:30.554675 29631 net.cpp:137] Memory required for data: 504268816
I0413 22:35:30.554677 29631 layer_factory.hpp:77] Creating layer res5c_branch2b_relu
I0413 22:35:30.554682 29631 net.cpp:84] Creating Layer res5c_branch2b_relu
I0413 22:35:30.554684 29631 net.cpp:406] res5c_branch2b_relu <- res5c_branch2b
I0413 22:35:30.554687 29631 net.cpp:367] res5c_branch2b_relu -> res5c_branch2b (in-place)
I0413 22:35:30.555358 29631 net.cpp:122] Setting up res5c_branch2b_relu
I0413 22:35:30.555364 29631 net.cpp:129] Top shape: 1 512 7 7 (25088)
I0413 22:35:30.555366 29631 net.cpp:137] Memory required for data: 504369168
I0413 22:35:30.555368 29631 layer_factory.hpp:77] Creating layer res5c_branch2c
I0413 22:35:30.555373 29631 net.cpp:84] Creating Layer res5c_branch2c
I0413 22:35:30.555377 29631 net.cpp:406] res5c_branch2c <- res5c_branch2b
I0413 22:35:30.555380 29631 net.cpp:380] res5c_branch2c -> res5c_branch2c
I0413 22:35:30.564688 29631 net.cpp:122] Setting up res5c_branch2c
I0413 22:35:30.564703 29631 net.cpp:129] Top shape: 1 2048 7 7 (100352)
I0413 22:35:30.564705 29631 net.cpp:137] Memory required for data: 504770576
I0413 22:35:30.564709 29631 layer_factory.hpp:77] Creating layer bn5c_branch2c
I0413 22:35:30.564718 29631 net.cpp:84] Creating Layer bn5c_branch2c
I0413 22:35:30.564723 29631 net.cpp:406] bn5c_branch2c <- res5c_branch2c
I0413 22:35:30.564728 29631 net.cpp:367] bn5c_branch2c -> res5c_branch2c (in-place)
I0413 22:35:30.565042 29631 net.cpp:122] Setting up bn5c_branch2c
I0413 22:35:30.565048 29631 net.cpp:129] Top shape: 1 2048 7 7 (100352)
I0413 22:35:30.565050 29631 net.cpp:137] Memory required for data: 505171984
I0413 22:35:30.565057 29631 layer_factory.hpp:77] Creating layer scale5c_branch2c
I0413 22:35:30.565059 29631 net.cpp:84] Creating Layer scale5c_branch2c
I0413 22:35:30.565062 29631 net.cpp:406] scale5c_branch2c <- res5c_branch2c
I0413 22:35:30.565065 29631 net.cpp:367] scale5c_branch2c -> res5c_branch2c (in-place)
I0413 22:35:30.565131 29631 layer_factory.hpp:77] Creating layer scale5c_branch2c
I0413 22:35:30.565268 29631 net.cpp:122] Setting up scale5c_branch2c
I0413 22:35:30.565273 29631 net.cpp:129] Top shape: 1 2048 7 7 (100352)
I0413 22:35:30.565274 29631 net.cpp:137] Memory required for data: 505573392
I0413 22:35:30.565276 29631 layer_factory.hpp:77] Creating layer res5c
I0413 22:35:30.565281 29631 net.cpp:84] Creating Layer res5c
I0413 22:35:30.565284 29631 net.cpp:406] res5c <- res5b_res5b_relu_0_split_1
I0413 22:35:30.565286 29631 net.cpp:406] res5c <- res5c_branch2c
I0413 22:35:30.565297 29631 net.cpp:380] res5c -> res5c
I0413 22:35:30.565320 29631 net.cpp:122] Setting up res5c
I0413 22:35:30.565325 29631 net.cpp:129] Top shape: 1 2048 7 7 (100352)
I0413 22:35:30.565326 29631 net.cpp:137] Memory required for data: 505974800
I0413 22:35:30.565330 29631 layer_factory.hpp:77] Creating layer res5c_relu
I0413 22:35:30.565335 29631 net.cpp:84] Creating Layer res5c_relu
I0413 22:35:30.565337 29631 net.cpp:406] res5c_relu <- res5c
I0413 22:35:30.565340 29631 net.cpp:367] res5c_relu -> res5c (in-place)
I0413 22:35:30.565883 29631 net.cpp:122] Setting up res5c_relu
I0413 22:35:30.565889 29631 net.cpp:129] Top shape: 1 2048 7 7 (100352)
I0413 22:35:30.565891 29631 net.cpp:137] Memory required for data: 506376208
I0413 22:35:30.565893 29631 layer_factory.hpp:77] Creating layer pool5
I0413 22:35:30.565896 29631 net.cpp:84] Creating Layer pool5
I0413 22:35:30.565898 29631 net.cpp:406] pool5 <- res5c
I0413 22:35:30.565902 29631 net.cpp:380] pool5 -> pool5
I0413 22:35:30.566658 29631 net.cpp:122] Setting up pool5
I0413 22:35:30.566664 29631 net.cpp:129] Top shape: 1 2048 1 1 (2048)
I0413 22:35:30.566666 29631 net.cpp:137] Memory required for data: 506384400
I0413 22:35:30.566668 29631 layer_factory.hpp:77] Creating layer fc1000-skin
I0413 22:35:30.566673 29631 net.cpp:84] Creating Layer fc1000-skin
I0413 22:35:30.566675 29631 net.cpp:406] fc1000-skin <- pool5
I0413 22:35:30.566679 29631 net.cpp:380] fc1000-skin -> fc1000-skin
I0413 22:35:30.566864 29631 net.cpp:122] Setting up fc1000-skin
I0413 22:35:30.566869 29631 net.cpp:129] Top shape: 1 6 (6)
I0413 22:35:30.566870 29631 net.cpp:137] Memory required for data: 506384424
I0413 22:35:30.566874 29631 layer_factory.hpp:77] Creating layer fc1000-skin_fc1000-skin_0_split
I0413 22:35:30.566876 29631 net.cpp:84] Creating Layer fc1000-skin_fc1000-skin_0_split
I0413 22:35:30.566879 29631 net.cpp:406] fc1000-skin_fc1000-skin_0_split <- fc1000-skin
I0413 22:35:30.566882 29631 net.cpp:380] fc1000-skin_fc1000-skin_0_split -> fc1000-skin_fc1000-skin_0_split_0
I0413 22:35:30.566886 29631 net.cpp:380] fc1000-skin_fc1000-skin_0_split -> fc1000-skin_fc1000-skin_0_split_1
I0413 22:35:30.566890 29631 net.cpp:380] fc1000-skin_fc1000-skin_0_split -> fc1000-skin_fc1000-skin_0_split_2
I0413 22:35:30.566934 29631 net.cpp:122] Setting up fc1000-skin_fc1000-skin_0_split
I0413 22:35:30.566937 29631 net.cpp:129] Top shape: 1 6 (6)
I0413 22:35:30.566939 29631 net.cpp:129] Top shape: 1 6 (6)
I0413 22:35:30.566941 29631 net.cpp:129] Top shape: 1 6 (6)
I0413 22:35:30.566942 29631 net.cpp:137] Memory required for data: 506384496
I0413 22:35:30.566944 29631 layer_factory.hpp:77] Creating layer loss
I0413 22:35:30.566947 29631 net.cpp:84] Creating Layer loss
I0413 22:35:30.566948 29631 net.cpp:406] loss <- fc1000-skin_fc1000-skin_0_split_0
I0413 22:35:30.566952 29631 net.cpp:406] loss <- label_data_1_split_0
I0413 22:35:30.566956 29631 net.cpp:380] loss -> loss
…
