…
I0416 00:46:13.804040  1229 net.cpp:294] The NetState phase (0) differed from the phase (1) specified by a rule in layer acc/top-5
I0416 00:46:13.804873  1229 net.cpp:51] Initializing net from parameters: 
name: "ResNet-152"
state {
  phase: TRAIN
  level: 0
  stage: ""
}
layer {
  name: "data"
  type: "Data"
  top: "data"
  top: "label"
  include {
    phase: TRAIN
  }
  transform_param {
    mirror: true
    crop_size: 224
    mean_file: "/home/danilo/Documents/FGA/2018-1/TCC1/Datasets/Atlas_5k_lmdb/input/mean.binaryproto"
  }
  data_param {
    source: "/home/danilo/Documents/FGA/2018-1/TCC1/Datasets/Atlas_5k_lmdb/train"
    batch_size: 5
    backend: LMDB
  }
}
layer {
  name: "conv1"
  type: "Convolution"
  bottom: "data"
  top: "conv1"
  convolution_param {
    num_output: 64
    bias_term: false
    pad: 3
    kernel_size: 7
    stride: 2
    weight_filler {
      type: "msra"
    }
  }
}
layer {
  name: "bn_conv1"
  type: "BatchNorm"
  bottom: "conv1"
  top: "conv1"
  batch_norm_param {
    use_global_stats: false
  }
}
layer {
  name: "scale_conv1"
  type: "Scale"
  bottom: "conv1"
  top: "conv1"
  scale_param {
    bias_term: true
  }
}
layer {
  name: "conv1_relu"
  type: "ReLU"
  bottom: "conv1"
  top: "conv1"
}
layer {
  name: "pool1"
  type: "Pooling"
  bottom: "conv1"
  top: "pool1"
  pooling_param {
    pool: MAX
    kernel_size: 3
    stride: 2
  }
}
layer {
  name: "res2a_branch1"
  type: "Convolution"
  bottom: "pool1"
  top: "res2a_branch1"
  convolution_param {
    num_output: 256
    bias_term: false
    pad: 0
    kernel_size: 1
    stride: 1
    weight_filler {
      type: "msra"
    }
  }
}
layer {
  name: "bn2a_branch1"
  type: "BatchNorm"
  bottom: "res2a_branch1"
  top: "res2a_branch1"
  batch_norm_param {
    use_global_stats: false
  }
}
layer {
  name: "scale2a_branch1"
  type: "Scale"
  bottom: "res2a_branch1"
  top: "res2a_branch1"
  scale_param {
    bias_term: true
  }
}
layer {
  name: "res2a_branch2a"
  type: "Convolution"
  bottom: "pool1"
  top: "res2a_branch2a"
  convolution_param {
    num_output: 64
    bias_term: false
    pad: 0
    kernel_size: 1
    stride: 1
    weight_filler {
      type: "msra"
    }
  }
}
layer {
  name: "bn2a_branch2a"
  type: "BatchNorm"
  bottom: "res2a_branch2a"
  top: "res2a_branch2a"
  batch_norm_param {
    use_global_stats: false
  }
}
layer {
  name: "scale2a_branch2a"
  type: "Scale"
  bottom: "res2a_branch2a"
  top: "res2a_branch2a"
  scale_param {
    bias_term: true
  }
}
layer {
  name: "res2a_branch2a_relu"
  type: "ReLU"
  bottom: "res2a_branch2a"
  top: "res2a_branch2a"
}
layer {
  name: "res2a_branch2b"
  type: "Convolution"
  bottom: "res2a_branch2a"
  top: "res2a_branch2b"
  convolution_param {
    num_output: 64
    bias_term: false
    pad: 1
    kernel_size: 3
    stride: 1
    weight_filler {
      type: "msra"
    }
  }
}
layer {
  name: "bn2a_branch2b"
  type: "BatchNorm"
  bottom: "res2a_branch2b"
  top: "res2a_branch2b"
  batch_norm_param {
    use_global_stats: false
  }
}
layer {
  name: "scale2a_branch2b"
  type: "Scale"
  bottom: "res2a_branch2b"
  top: "res2a_branch2b"
  scale_param {
    bias_term: true
  }
}
layer {
  name: "res2a_branch2b_relu"
  type: "ReLU"
  bottom: "res2a_branch2b"
  top: "res2a_branch2b"
}
layer {
  name: "res2a_branch2c"
  type: "Convolution"
  bottom: "res2a_branch2b"
  top: "res2a_branch2c"
  convolution_param {
    num_output: 256
    bias_term: false
    pad: 0
    kernel_size: 1
    stride: 1
    weight_filler {
      type: "msra"
    }
  }
}
layer {
  name: "bn2a_branch2c"
  type: "BatchNorm"
  bottom: "res2a_branch2c"
  top: "res2a_branch2c"
  batch_norm_param {
    use_global_stats: false
  }
}
layer {
  name: "scale2a_branch2c"
  type: "Scale"
  bottom: "res2a_branch2c"
  top: "res2a_branch2c"
  scale_param {
    bias_term: true
  }
}
layer {
  name: "res2a"
  type: "Eltwise"
  bottom: "res2a_branch1"
  bottom: "res2a_branch2c"
  top: "res2a"
  eltwise_param {
    operation: SUM
  }
}
layer {
  name: "res2a_relu"
  type: "ReLU"
  bottom: "res2a"
  top: "res2a"
}
layer {
  name: "res2b_branch2a"
  type: "Convolution"
  bottom: "res2a"
  top: "res2b_branch2a"
  convolution_param {
    num_output: 64
    bias_term: false
    pad: 0
    kernel_size: 1
    stride: 1
    weight_filler {
      type: "msra"
    }
  }
}
layer {
  name: "bn2b_branch2a"
  type: "BatchNorm"
  bottom: "res2b_branch2a"
  top: "res2b_branch2a"
  batch_norm_param {
    use_global_stats: false
  }
}
layer {
  name: "scale2b_branch2a"
  type: "Scale"
  bottom: "res2b_branch2a"
  top: "res2b_branch2a"
  scale_param {
    bias_term: true
  }
}
layer {
  name: "res2b_branch2a_relu"
  type: "ReLU"
  bottom: "res2b_branch2a"
  top: "res2b_branch2a"
}
layer {
  name: "res2b_branch2b"
  type: "Convolution"
  bottom: "res2b_branch2a"
  top: "res2b_branch2b"
  convolution_param {
    num_output: 64
    bias_term: false
    pad: 1
    kernel_size: 3
    stride: 1
    weight_filler {
      type: "msra"
    }
  }
}
layer {
  name: "bn2b_branch2b"
  type: "BatchNorm"
  bottom: "res2b_branch2b"
  top: "res2b_branch2b"
  batch_norm_param {
    use_global_stats: false
  }
}
layer {
  name: "scale2b_branch2b"
  type: "Scale"
  bottom: "res2b_branch2b"
  top: "res2b_branch2b"
  scale_param {
    bias_term: true
  }
}
layer {
  name: "res2b_branch2b_relu"
  type: "ReLU"
  bottom: "res2b_branch2b"
  top: "res2b_branch2b"
}
layer {
  name: "res2b_branch2c"
  type: "Convolution"
  bottom: "res2b_branch2b"
  top: "res2b_branch2c"
  convolution_param {
    num_output: 256
    bias_term: false
    pad: 0
    kernel_size: 1
    stride: 1
    weight_filler {
      type: "msra"
    }
  }
}
layer {
  name: "bn2b_branch2c"
  type: "BatchNorm"
  bottom: "res2b_branch2c"
  top: "res2b_branch2c"
  batch_norm_param {
    use_global_stats: false
  }
}
layer {
  name: "scale2b_branch2c"
  type: "Scale"
  bottom: "res2b_branch2c"
  top: "res2b_branch2c"
  scale_param {
    bias_term: true
  }
}
layer {
  name: "res2b"
  type: "Eltwise"
  bottom: "res2a"
  bottom: "res2b_branch2c"
  top: "res2b"
  eltwise_param {
    operation: SUM
  }
}
layer {
  name: "res2b_relu"
  type: "ReLU"
  bottom: "res2b"
  top: "res2b"
}
layer {
  name: "res2c_branch2a"
  type: "Convolution"
  bottom: "res2b"
  top: "res2c_branch2a"
  convolution_param {
    num_output: 64
    bias_term: false
    pad: 0
    kernel_size: 1
    stride: 1
    weight_filler {
      type: "msra"
    }
  }
}
layer {
  name: "bn2c_branch2a"
  type: "BatchNorm"
  bottom: "res2c_branch2a"
  top: "res2c_branch2a"
  batch_norm_param {
    use_global_stats: false
  }
}
layer {
  name: "scale2c_branch2a"
  type: "Scale"
  bottom: "res2c_branch2a"
  top: "res2c_branch2a"
  scale_param {
    bias_term: true
  }
}
layer {
  name: "res2c_branch2a_relu"
  type: "ReLU"
  bottom: "res2c_branch2a"
  top: "res2c_branch2a"
}
layer {
  name: "res2c_branch2b"
  type: "Convolution"
  bottom: "res2c_branch2a"
  top: "res2c_branch2b"
  convolution_param {
    num_output: 64
    bias_term: false
    pad: 1
    kernel_size: 3
    stride: 1
    weight_filler {
      type: "msra"
    }
  }
}
layer {
  name: "bn2c_branch2b"
  type: "BatchNorm"
  bottom: "res2c_branch2b"
  top: "res2c_branch2b"
  batch_norm_param {
    use_global_stats: false
  }
}
layer {
  name: "scale2c_branch2b"
  type: "Scale"
  bottom: "res2c_branch2b"
  top: "res2c_branch2b"
  scale_param {
    bias_term: true
  }
}
layer {
  name: "res2c_branch2b_relu"
  type: "ReLU"
  bottom: "res2c_branch2b"
  top: "res2c_branch2b"
}
layer {
  name: "res2c_branch2c"
  type: "Convolution"
  bottom: "res2c_branch2b"
  top: "res2c_branch2c"
  convolution_param {
    num_output: 256
    bias_term: false
    pad: 0
    kernel_size: 1
    stride: 1
    weight_filler {
      type: "msra"
    }
  }
}
layer {
  name: "bn2c_branch2c"
  type: "BatchNorm"
  bottom: "res2c_branch2c"
  top: "res2c_branch2c"
  batch_norm_param {
    use_global_stats: false
  }
}
layer {
  name: "scale2c_branch2c"
  type: "Scale"
  bottom: "res2c_branch2c"
  top: "res2c_branch2c"
  scale_param {
    bias_term: true
  }
}
layer {
  name: "res2c"
  type: "Eltwise"
  bottom: "res2b"
  bottom: "res2c_branch2c"
  top: "res2c"
  eltwise_param {
    operation: SUM
  }
}
layer {
  name: "res2c_relu"
  type: "ReLU"
  bottom: "res2c"
  top: "res2c"
}
layer {
  name: "res3a_branch1"
  type: "Convolution"
  bottom: "res2c"
  top: "res3a_branch1"
  convolution_param {
    num_output: 512
    bias_term: false
    pad: 0
    kernel_size: 1
    stride: 2
    weight_filler {
      type: "msra"
    }
  }
}
layer {
  name: "bn3a_branch1"
  type: "BatchNorm"
  bottom: "res3a_branch1"
  top: "res3a_branch1"
  batch_norm_param {
    use_global_stats: false
  }
}
layer {
  name: "scale3a_branch1"
  type: "Scale"
  bottom: "res3a_branch1"
  top: "res3a_branch1"
  scale_param {
    bias_term: true
  }
}
layer {
  name: "res3a_branch2a"
  type: "Convolution"
  bottom: "res2c"
  top: "res3a_branch2a"
  convolution_param {
    num_output: 128
    bias_term: false
    pad: 0
    kernel_size: 1
    stride: 2
    weight_filler {
      type: "msra"
    }
  }
}
layer {
  name: "bn3a_branch2a"
  type: "BatchNorm"
  bottom: "res3a_branch2a"
  top: "res3a_branch2a"
  batch_norm_param {
    use_global_stats: false
  }
}
layer {
  name: "scale3a_branch2a"
  type: "Scale"
  bottom: "res3a_branch2a"
  top: "res3a_branch2a"
  scale_param {
    bias_term: true
  }
}
layer {
  name: "res3a_branch2a_relu"
  type: "ReLU"
  bottom: "res3a_branch2a"
  top: "res3a_branch2a"
}
layer {
  name: "res3a_branch2b"
  type: "Convolution"
  bottom: "res3a_branch2a"
  top: "res3a_branch2b"
  convolution_param {
    num_output: 128
    bias_term: false
    pad: 1
    kernel_size: 3
    stride: 1
    weight_filler {
      type: "msra"
    }
  }
}
layer {
  name: "bn3a_branch2b"
  type: "BatchNorm"
  bottom: "res3a_branch2b"
  top: "res3a_branch2b"
  batch_norm_param {
    use_global_stats: false
  }
}
layer {
  name: "scale3a_branch2b"
  type: "Scale"
  bottom: "res3a_branch2b"
  top: "res3a_branch2b"
  scale_param {
    bias_term: true
  }
}
layer {
  name: "res3a_branch2b_relu"
  type: "ReLU"
  bottom: "res3a_branch2b"
  top: "res3a_branch2b"
}
layer {
  name: "res3a_branch2c"
  type: "Convolution"
  bottom: "res3a_branch2b"
  top: "res3a_branch2c"
  convolution_param {
    num_output: 512
    bias_term: false
    pad: 0
    kernel_size: 1
    stride: 1
    weight_filler {
      type: "msra"
    }
  }
}
layer {
  name: "bn3a_branch2c"
  type: "BatchNorm"
  bottom: "res3a_branch2c"
  top: "res3a_branch2c"
  batch_norm_param {
    use_global_stats: false
  }
}
layer {
  name: "scale3a_branch2c"
  type: "Scale"
  bottom: "res3a_branch2c"
  top: "res3a_branch2c"
  scale_param {
    bias_term: true
  }
}
layer {
  name: "res3a"
  type: "Eltwise"
  bottom: "res3a_branch1"
  bottom: "res3a_branch2c"
  top: "res3a"
  eltwise_param {
    operation: SUM
  }
}
layer {
  name: "res3a_relu"
  type: "ReLU"
  bottom: "res3a"
  top: "res3a"
}
layer {
  name: "res3b1_branch2a"
  type: "Convolution"
  bottom: "res3a"
  top: "res3b1_branch2a"
  convolution_param {
    num_output: 128
    bias_term: false
    pad: 0
    kernel_size: 1
    stride: 1
    weight_filler {
      type: "msra"
    }
  }
}
layer {
  name: "bn3b1_branch2a"
  type: "BatchNorm"
  bottom: "res3b1_branch2a"
  top: "res3b1_branch2a"
  batch_norm_param {
    use_global_stats: false
  }
}
layer {
  name: "scale3b1_branch2a"
  type: "Scale"
  bottom: "res3b1_branch2a"
  top: "res3b1_branch2a"
  scale_param {
    bias_term: true
  }
}
layer {
  name: "res3b1_branch2a_relu"
  type: "ReLU"
  bottom: "res3b1_branch2a"
  top: "res3b1_branch2a"
}
layer {
  name: "res3b1_branch2b"
  type: "Convolution"
  bottom: "res3b1_branch2a"
  top: "res3b1_branch2b"
  convolution_param {
    num_output: 128
    bias_term: false
    pad: 1
    kernel_size: 3
    stride: 1
    weight_filler {
      type: "msra"
    }
  }
}
layer {
  name: "bn3b1_branch2b"
  type: "BatchNorm"
  bottom: "res3b1_branch2b"
  top: "res3b1_branch2b"
  batch_norm_param {
    use_global_stats: false
  }
}
layer {
  name: "scale3b1_branch2b"
  type: "Scale"
  bottom: "res3b1_branch2b"
  top: "res3b1_branch2b"
  scale_param {
    bias_term: true
  }
}
layer {
  name: "res3b1_branch2b_relu"
  type: "ReLU"
  bottom: "res3b1_branch2b"
  top: "res3b1_branch2b"
}
layer {
  name: "res3b1_branch2c"
  type: "Convolution"
  bottom: "res3b1_branch2b"
  top: "res3b1_branch2c"
  convolution_param {
    num_output: 512
    bias_term: false
    pad: 0
    kernel_size: 1
    stride: 1
    weight_filler {
      type: "msra"
    }
  }
}
layer {
  name: "bn3b1_branch2c"
  type: "BatchNorm"
  bottom: "res3b1_branch2c"
  top: "res3b1_branch2c"
  batch_norm_param {
    use_global_stats: false
  }
}
layer {
  name: "scale3b1_branch2c"
  type: "Scale"
  bottom: "res3b1_branch2c"
  top: "res3b1_branch2c"
  scale_param {
    bias_term: true
  }
}
layer {
  name: "res3b1"
  type: "Eltwise"
  bottom: "res3a"
  bottom: "res3b1_branch2c"
  top: "res3b1"
  eltwise_param {
    operation: SUM
  }
}
layer {
  name: "res3b1_relu"
  type: "ReLU"
  bottom: "res3b1"
  top: "res3b1"
}
layer {
  name: "res3b2_branch2a"
  type: "Convolution"
  bottom: "res3b1"
  top: "res3b2_branch2a"
  convolution_param {
    num_output: 128
    bias_term: false
    pad: 0
    kernel_size: 1
    stride: 1
    weight_filler {
      type: "msra"
    }
  }
}
layer {
  name: "bn3b2_branch2a"
  type: "BatchNorm"
  bottom: "res3b2_branch2a"
  top: "res3b2_branch2a"
  batch_norm_param {
    use_global_stats: false
  }
}
layer {
  name: "scale3b2_branch2a"
  type: "Scale"
  bottom: "res3b2_branch2a"
  top: "res3b2_branch2a"
  scale_param {
    bias_term: true
  }
}
layer {
  name: "res3b2_branch2a_relu"
  type: "ReLU"
  bottom: "res3b2_branch2a"
  top: "res3b2_branch2a"
}
layer {
  name: "res3b2_branch2b"
  type: "Convolution"
  bottom: "res3b2_branch2a"
  top: "res3b2_branch2b"
  convolution_param {
    num_output: 128
    bias_term: false
    pad: 1
    kernel_size: 3
    stride: 1
    weight_filler {
      type: "msra"
    }
  }
}
layer {
  name: "bn3b2_branch2b"
  type: "BatchNorm"
  bottom: "res3b2_branch2b"
  top: "res3b2_branch2b"
  batch_norm_param {
    use_global_stats: false
  }
}
layer {
  name: "scale3b2_branch2b"
  type: "Scale"
  bottom: "res3b2_branch2b"
  top: "res3b2_branch2b"
  scale_param {
    bias_term: true
  }
}
layer {
  name: "res3b2_branch2b_relu"
  type: "ReLU"
  bottom: "res3b2_branch2b"
  top: "res3b2_branch2b"
}
layer {
  name: "res3b2_branch2c"
  type: "Convolution"
  bottom: "res3b2_branch2b"
  top: "res3b2_branch2c"
  convolution_param {
    num_output: 512
    bias_term: false
    pad: 0
    kernel_size: 1
    stride: 1
    weight_filler {
      type: "msra"
    }
  }
}
layer {
  name: "bn3b2_branch2c"
  type: "BatchNorm"
  bottom: "res3b2_branch2c"
  top: "res3b2_branch2c"
  batch_norm_param {
    use_global_stats: false
  }
}
layer {
  name: "scale3b2_branch2c"
  type: "Scale"
  bottom: "res3b2_branch2c"
  top: "res3b2_branch2c"
  scale_param {
    bias_term: true
  }
}
layer {
  name: "res3b2"
  type: "Eltwise"
  bottom: "res3b1"
  bottom: "res3b2_branch2c"
  top: "res3b2"
  eltwise_param {
    operation: SUM
  }
}
layer {
  name: "res3b2_relu"
  type: "ReLU"
  bottom: "res3b2"
  top: "res3b2"
}
layer {
  name: "res3b3_branch2a"
  type: "Convolution"
  bottom: "res3b2"
  top: "res3b3_branch2a"
  convolution_param {
    num_output: 128
    bias_term: false
    pad: 0
    kernel_size: 1
    stride: 1
    weight_filler {
      type: "msra"
    }
  }
}
layer {
  name: "bn3b3_branch2a"
  type: "BatchNorm"
  bottom: "res3b3_branch2a"
  top: "res3b3_branch2a"
  batch_norm_param {
    use_global_stats: false
  }
}
layer {
  name: "scale3b3_branch2a"
  type: "Scale"
  bottom: "res3b3_branch2a"
  top: "res3b3_branch2a"
  scale_param {
    bias_term: true
  }
}
layer {
  name: "res3b3_branch2a_relu"
  type: "ReLU"
  bottom: "res3b3_branch2a"
  top: "res3b3_branch2a"
}
layer {
  name: "res3b3_branch2b"
  type: "Convolution"
  bottom: "res3b3_branch2a"
  top: "res3b3_branch2b"
  convolution_param {
    num_output: 128
    bias_term: false
    pad: 1
    kernel_size: 3
    stride: 1
    weight_filler {
      type: "msra"
    }
  }
}
layer {
  name: "bn3b3_branch2b"
  type: "BatchNorm"
  bottom: "res3b3_branch2b"
  top: "res3b3_branch2b"
  batch_norm_param {
    use_global_stats: false
  }
}
layer {
  name: "scale3b3_branch2b"
  type: "Scale"
  bottom: "res3b3_branch2b"
  top: "res3b3_branch2b"
  scale_param {
    bias_term: true
  }
}
layer {
  name: "res3b3_branch2b_relu"
  type: "ReLU"
  bottom: "res3b3_branch2b"
  top: "res3b3_branch2b"
}
layer {
  name: "res3b3_branch2c"
  type: "Convolution"
  bottom: "res3b3_branch2b"
  top: "res3b3_branch2c"
  convolution_param {
    num_output: 512
    bias_term: false
    pad: 0
    kernel_size: 1
    stride: 1
    weight_filler {
      type: "msra"
    }
  }
}
layer {
  name: "bn3b3_branch2c"
  type: "BatchNorm"
  bottom: "res3b3_branch2c"
  top: "res3b3_branch2c"
  batch_norm_param {
    use_global_stats: false
  }
}
layer {
  name: "scale3b3_branch2c"
  type: "Scale"
  bottom: "res3b3_branch2c"
  top: "res3b3_branch2c"
  scale_param {
    bias_term: true
  }
}
layer {
  name: "res3b3"
  type: "Eltwise"
  bottom: "res3b2"
  bottom: "res3b3_branch2c"
  top: "res3b3"
  eltwise_param {
    operation: SUM
  }
}
layer {
  name: "res3b3_relu"
  type: "ReLU"
  bottom: "res3b3"
  top: "res3b3"
}
layer {
  name: "res3b4_branch2a"
  type: "Convolution"
  bottom: "res3b3"
  top: "res3b4_branch2a"
  convolution_param {
    num_output: 128
    bias_term: false
    pad: 0
    kernel_size: 1
    stride: 1
    weight_filler {
      type: "msra"
    }
  }
}
layer {
  name: "bn3b4_branch2a"
  type: "BatchNorm"
  bottom: "res3b4_branch2a"
  top: "res3b4_branch2a"
  batch_norm_param {
    use_global_stats: false
  }
}
layer {
  name: "scale3b4_branch2a"
  type: "Scale"
  bottom: "res3b4_branch2a"
  top: "res3b4_branch2a"
  scale_param {
    bias_term: true
  }
}
layer {
  name: "res3b4_branch2a_relu"
  type: "ReLU"
  bottom: "res3b4_branch2a"
  top: "res3b4_branch2a"
}
layer {
  name: "res3b4_branch2b"
  type: "Convolution"
  bottom: "res3b4_branch2a"
  top: "res3b4_branch2b"
  convolution_param {
    num_output: 128
    bias_term: false
    pad: 1
    kernel_size: 3
    stride: 1
    weight_filler {
      type: "msra"
    }
  }
}
layer {
  name: "bn3b4_branch2b"
  type: "BatchNorm"
  bottom: "res3b4_branch2b"
  top: "res3b4_branch2b"
  batch_norm_param {
    use_global_stats: false
  }
}
layer {
  name: "scale3b4_branch2b"
  type: "Scale"
  bottom: "res3b4_branch2b"
  top: "res3b4_branch2b"
  scale_param {
    bias_term: true
  }
}
layer {
  name: "res3b4_branch2b_relu"
  type: "ReLU"
  bottom: "res3b4_branch2b"
  top: "res3b4_branch2b"
}
layer {
  name: "res3b4_branch2c"
  type: "Convolution"
  bottom: "res3b4_branch2b"
  top: "res3b4_branch2c"
  convolution_param {
    num_output: 512
    bias_term: false
    pad: 0
    kernel_size: 1
    stride: 1
    weight_filler {
      type: "msra"
    }
  }
}
layer {
  name: "bn3b4_branch2c"
  type: "BatchNorm"
  bottom: "res3b4_branch2c"
  top: "res3b4_branch2c"
  batch_norm_param {
    use_global_stats: false
  }
}
layer {
  name: "scale3b4_branch2c"
  type: "Scale"
  bottom: "res3b4_branch2c"
  top: "res3b4_branch2c"
  scale_param {
    bias_term: true
  }
}
layer {
  name: "res3b4"
  type: "Eltwise"
  bottom: "res3b3"
  bottom: "res3b4_branch2c"
  top: "res3b4"
  eltwise_param {
    operation: SUM
  }
}
layer {
  name: "res3b4_relu"
  type: "ReLU"
  bottom: "res3b4"
  top: "res3b4"
}
layer {
  name: "res3b5_branch2a"
  type: "Convolution"
  bottom: "res3b4"
  top: "res3b5_branch2a"
  convolution_param {
    num_output: 128
    bias_term: false
    pad: 0
    kernel_size: 1
    stride: 1
    weight_filler {
      type: "msra"
    }
  }
}
layer {
  name: "bn3b5_branch2a"
  type: "BatchNorm"
  bottom: "res3b5_branch2a"
  top: "res3b5_branch2a"
  batch_norm_param {
    use_global_stats: false
  }
}
layer {
  name: "scale3b5_branch2a"
  type: "Scale"
  bottom: "res3b5_branch2a"
  top: "res3b5_branch2a"
  scale_param {
    bias_term: true
  }
}
layer {
  name: "res3b5_branch2a_relu"
  type: "ReLU"
  bottom: "res3b5_branch2a"
  top: "res3b5_branch2a"
}
layer {
  name: "res3b5_branch2b"
  type: "Convolution"
  bottom: "res3b5_branch2a"
  top: "res3b5_branch2b"
  convolution_param {
    num_output: 128
    bias_term: false
    pad: 1
    kernel_size: 3
    stride: 1
    weight_filler {
      type: "msra"
    }
  }
}
layer {
  name: "bn3b5_branch2b"
  type: "BatchNorm"
  bottom: "res3b5_branch2b"
  top: "res3b5_branch2b"
  batch_norm_param {
    use_global_stats: false
  }
}
layer {
  name: "scale3b5_branch2b"
  type: "Scale"
  bottom: "res3b5_branch2b"
  top: "res3b5_branch2b"
  scale_param {
    bias_term: true
  }
}
layer {
  name: "res3b5_branch2b_relu"
  type: "ReLU"
  bottom: "res3b5_branch2b"
  top: "res3b5_branch2b"
}
layer {
  name: "res3b5_branch2c"
  type: "Convolution"
  bottom: "res3b5_branch2b"
  top: "res3b5_branch2c"
  convolution_param {
    num_output: 512
    bias_term: false
    pad: 0
    kernel_size: 1
    stride: 1
    weight_filler {
      type: "msra"
    }
  }
}
layer {
  name: "bn3b5_branch2c"
  type: "BatchNorm"
  bottom: "res3b5_branch2c"
  top: "res3b5_branch2c"
  batch_norm_param {
    use_global_stats: false
  }
}
layer {
  name: "scale3b5_branch2c"
  type: "Scale"
  bottom: "res3b5_branch2c"
  top: "res3b5_branch2c"
  scale_param {
    bias_term: true
  }
}
layer {
  name: "res3b5"
  type: "Eltwise"
  bottom: "res3b4"
  bottom: "res3b5_branch2c"
  top: "res3b5"
  eltwise_param {
    operation: SUM
  }
}
layer {
  name: "res3b5_relu"
  type: "ReLU"
  bottom: "res3b5"
  top: "res3b5"
}
layer {
  name: "res3b6_branch2a"
  type: "Convolution"
  bottom: "res3b5"
  top: "res3b6_branch2a"
  convolution_param {
    num_output: 128
    bias_term: false
    pad: 0
    kernel_size: 1
    stride: 1
    weight_filler {
      type: "msra"
    }
  }
}
layer {
  name: "bn3b6_branch2a"
  type: "BatchNorm"
  bottom: "res3b6_branch2a"
  top: "res3b6_branch2a"
  batch_norm_param {
    use_global_stats: false
  }
}
layer {
  name: "scale3b6_branch2a"
  type: "Scale"
  bottom: "res3b6_branch2a"
  top: "res3b6_branch2a"
  scale_param {
    bias_term: true
  }
}
layer {
  name: "res3b6_branch2a_relu"
  type: "ReLU"
  bottom: "res3b6_branch2a"
  top: "res3b6_branch2a"
}
layer {
  name: "res3b6_branch2b"
  type: "Convolution"
  bottom: "res3b6_branch2a"
  top: "res3b6_branch2b"
  convolution_param {
    num_output: 128
    bias_term: false
    pad: 1
    kernel_size: 3
    stride: 1
    weight_filler {
      type: "msra"
    }
  }
}
layer {
  name: "bn3b6_branch2b"
  type: "BatchNorm"
  bottom: "res3b6_branch2b"
  top: "res3b6_branch2b"
  batch_norm_param {
    use_global_stats: false
  }
}
layer {
  name: "scale3b6_branch2b"
  type: "Scale"
  bottom: "res3b6_branch2b"
  top: "res3b6_branch2b"
  scale_param {
    bias_term: true
  }
}
layer {
  name: "res3b6_branch2b_relu"
  type: "ReLU"
  bottom: "res3b6_branch2b"
  top: "res3b6_branch2b"
}
layer {
  name: "res3b6_branch2c"
  type: "Convolution"
  bottom: "res3b6_branch2b"
  top: "res3b6_branch2c"
  convolution_param {
    num_output: 512
    bias_term: false
    pad: 0
    kernel_size: 1
    stride: 1
    weight_filler {
      type: "msra"
    }
  }
}
layer {
  name: "bn3b6_branch2c"
  type: "BatchNorm"
  bottom: "res3b6_branch2c"
  top: "res3b6_branch2c"
  batch_norm_param {
    use_global_stats: false
  }
}
layer {
  name: "scale3b6_branch2c"
  type: "Scale"
  bottom: "res3b6_branch2c"
  top: "res3b6_branch2c"
  scale_param {
    bias_term: true
  }
}
layer {
  name: "res3b6"
  type: "Eltwise"
  bottom: "res3b5"
  bottom: "res3b6_branch2c"
  top: "res3b6"
  eltwise_param {
    operation: SUM
  }
}
layer {
  name: "res3b6_relu"
  type: "ReLU"
  bottom: "res3b6"
  top: "res3b6"
}
layer {
  name: "res3b7_branch2a"
  type: "Convolution"
  bottom: "res3b6"
  top: "res3b7_branch2a"
  convolution_param {
    num_output: 128
    bias_term: false
    pad: 0
    kernel_size: 1
    stride: 1
    weight_filler {
      type: "msra"
    }
  }
}
layer {
  name: "bn3b7_branch2a"
  type: "BatchNorm"
  bottom: "res3b7_branch2a"
  top: "res3b7_branch2a"
  batch_norm_param {
    use_global_stats: false
  }
}
layer {
  name: "scale3b7_branch2a"
  type: "Scale"
  bottom: "res3b7_branch2a"
  top: "res3b7_branch2a"
  scale_param {
    bias_term: true
  }
}
layer {
  name: "res3b7_branch2a_relu"
  type: "ReLU"
  bottom: "res3b7_branch2a"
  top: "res3b7_branch2a"
}
layer {
  name: "res3b7_branch2b"
  type: "Convolution"
  bottom: "res3b7_branch2a"
  top: "res3b7_branch2b"
  convolution_param {
    num_output: 128
    bias_term: false
    pad: 1
    kernel_size: 3
    stride: 1
    weight_filler {
      type: "msra"
    }
  }
}
layer {
  name: "bn3b7_branch2b"
  type: "BatchNorm"
  bottom: "res3b7_branch2b"
  top: "res3b7_branch2b"
  batch_norm_param {
    use_global_stats: false
  }
}
layer {
  name: "scale3b7_branch2b"
  type: "Scale"
  bottom: "res3b7_branch2b"
  top: "res3b7_branch2b"
  scale_param {
    bias_term: true
  }
}
layer {
  name: "res3b7_branch2b_relu"
  type: "ReLU"
  bottom: "res3b7_branch2b"
  top: "res3b7_branch2b"
}
layer {
  name: "res3b7_branch2c"
  type: "Convolution"
  bottom: "res3b7_branch2b"
  top: "res3b7_branch2c"
  convolution_param {
    num_output: 512
    bias_term: false
    pad: 0
    kernel_size: 1
    stride: 1
    weight_filler {
      type: "msra"
    }
  }
}
layer {
  name: "bn3b7_branch2c"
  type: "BatchNorm"
  bottom: "res3b7_branch2c"
  top: "res3b7_branch2c"
  batch_norm_param {
    use_global_stats: false
  }
}
layer {
  name: "scale3b7_branch2c"
  type: "Scale"
  bottom: "res3b7_branch2c"
  top: "res3b7_branch2c"
  scale_param {
    bias_term: true
  }
}
layer {
  name: "res3b7"
  type: "Eltwise"
  bottom: "res3b6"
  bottom: "res3b7_branch2c"
  top: "res3b7"
  eltwise_param {
    operation: SUM
  }
}
layer {
  name: "res3b7_relu"
  type: "ReLU"
  bottom: "res3b7"
  top: "res3b7"
}
layer {
  name: "res4a_branch1"
  type: "Convolution"
  bottom: "res3b7"
  top: "res4a_branch1"
  convolution_param {
    num_output: 1024
    bias_term: false
    pad: 0
    kernel_size: 1
    stride: 2
    weight_filler {
      type: "msra"
    }
  }
}
layer {
  name: "bn4a_branch1"
  type: "BatchNorm"
  bottom: "res4a_branch1"
  top: "res4a_branch1"
  batch_norm_param {
    use_global_stats: false
  }
}
layer {
  name: "scale4a_branch1"
  type: "Scale"
  bottom: "res4a_branch1"
  top: "res4a_branch1"
  scale_param {
    bias_term: true
  }
}
layer {
  name: "res4a_branch2a"
  type: "Convolution"
  bottom: "res3b7"
  top: "res4a_branch2a"
  convolution_param {
    num_output: 256
    bias_term: false
    pad: 0
    kernel_size: 1
    stride: 2
    weight_filler {
      type: "msra"
    }
  }
}
layer {
  name: "bn4a_branch2a"
  type: "BatchNorm"
  bottom: "res4a_branch2a"
  top: "res4a_branch2a"
  batch_norm_param {
    use_global_stats: false
  }
}
layer {
  name: "scale4a_branch2a"
  type: "Scale"
  bottom: "res4a_branch2a"
  top: "res4a_branch2a"
  scale_param {
    bias_term: true
  }
}
layer {
  name: "res4a_branch2a_relu"
  type: "ReLU"
  bottom: "res4a_branch2a"
  top: "res4a_branch2a"
}
layer {
  name: "res4a_branch2b"
  type: "Convolution"
  bottom: "res4a_branch2a"
  top: "res4a_branch2b"
  convolution_param {
    num_output: 256
    bias_term: false
    pad: 1
    kernel_size: 3
    stride: 1
    weight_filler {
      type: "msra"
    }
  }
}
layer {
  name: "bn4a_branch2b"
  type: "BatchNorm"
  bottom: "res4a_branch2b"
  top: "res4a_branch2b"
  batch_norm_param {
    use_global_stats: false
  }
}
layer {
  name: "scale4a_branch2b"
  type: "Scale"
  bottom: "res4a_branch2b"
  top: "res4a_branch2b"
  scale_param {
    bias_term: true
  }
}
layer {
  name: "res4a_branch2b_relu"
  type: "ReLU"
  bottom: "res4a_branch2b"
  top: "res4a_branch2b"
}
layer {
  name: "res4a_branch2c"
  type: "Convolution"
  bottom: "res4a_branch2b"
  top: "res4a_branch2c"
  convolution_param {
    num_output: 1024
    bias_term: false
    pad: 0
    kernel_size: 1
    stride: 1
    weight_filler {
      type: "msra"
    }
  }
}
layer {
  name: "bn4a_branch2c"
  type: "BatchNorm"
  bottom: "res4a_branch2c"
  top: "res4a_branch2c"
  batch_norm_param {
    use_global_stats: false
  }
}
layer {
  name: "scale4a_branch2c"
  type: "Scale"
  bottom: "res4a_branch2c"
  top: "res4a_branch2c"
  scale_param {
    bias_term: true
  }
}
layer {
  name: "res4a"
  type: "Eltwise"
  bottom: "res4a_branch1"
  bottom: "res4a_branch2c"
  top: "res4a"
  eltwise_param {
    operation: SUM
  }
}
layer {
  name: "res4a_relu"
  type: "ReLU"
  bottom: "res4a"
  top: "res4a"
}
layer {
  name: "res4b1_branch2a"
  type: "Convolution"
  bottom: "res4a"
  top: "res4b1_branch2a"
  convolution_param {
    num_output: 256
    bias_term: false
    pad: 0
    kernel_size: 1
    stride: 1
    weight_filler {
      type: "msra"
    }
  }
}
layer {
  name: "bn4b1_branch2a"
  type: "BatchNorm"
  bottom: "res4b1_branch2a"
  top: "res4b1_branch2a"
  batch_norm_param {
    use_global_stats: false
  }
}
layer {
  name: "scale4b1_branch2a"
  type: "Scale"
  bottom: "res4b1_branch2a"
  top: "res4b1_branch2a"
  scale_param {
    bias_term: true
  }
}
layer {
  name: "res4b1_branch2a_relu"
  type: "ReLU"
  bottom: "res4b1_branch2a"
  top: "res4b1_branch2a"
}
layer {
  name: "res4b1_branch2b"
  type: "Convolution"
  bottom: "res4b1_branch2a"
  top: "res4b1_branch2b"
  convolution_param {
    num_output: 256
    bias_term: false
    pad: 1
    kernel_size: 3
    stride: 1
    weight_filler {
      type: "msra"
    }
  }
}
layer {
  name: "bn4b1_branch2b"
  type: "BatchNorm"
  bottom: "res4b1_branch2b"
  top: "res4b1_branch2b"
  batch_norm_param {
    use_global_stats: false
  }
}
layer {
  name: "scale4b1_branch2b"
  type: "Scale"
  bottom: "res4b1_branch2b"
  top: "res4b1_branch2b"
  scale_param {
    bias_term: true
  }
}
layer {
  name: "res4b1_branch2b_relu"
  ty
I0416 00:46:13.806299  1229 layer_factory.hpp:77] Creating layer data
I0416 00:46:13.868782  1229 db_lmdb.cpp:35] Opened lmdb /home/danilo/Documents/FGA/2018-1/TCC1/Datasets/Atlas_5k_lmdb/train
I0416 00:46:13.878221  1229 net.cpp:84] Creating Layer data
I0416 00:46:13.878262  1229 net.cpp:380] data -> data
I0416 00:46:13.878294  1229 net.cpp:380] data -> label
I0416 00:46:13.878319  1229 data_transformer.cpp:25] Loading mean file from: /home/danilo/Documents/FGA/2018-1/TCC1/Datasets/Atlas_5k_lmdb/input/mean.binaryproto
I0416 00:46:13.928990  1229 data_layer.cpp:45] output data size: 5,3,224,224
I0416 00:46:13.946053  1229 net.cpp:122] Setting up data
I0416 00:46:13.946105  1229 net.cpp:129] Top shape: 5 3 224 224 (752640)
I0416 00:46:13.946123  1229 net.cpp:129] Top shape: 5 (5)
I0416 00:46:13.946136  1229 net.cpp:137] Memory required for data: 3010580
I0416 00:46:13.946151  1229 layer_factory.hpp:77] Creating layer conv1
I0416 00:46:13.946189  1229 net.cpp:84] Creating Layer conv1
I0416 00:46:13.946224  1229 net.cpp:406] conv1 <- data
I0416 00:46:13.946250  1229 net.cpp:380] conv1 -> conv1
I0416 00:46:17.517174  1229 net.cpp:122] Setting up conv1
I0416 00:46:17.517189  1229 net.cpp:129] Top shape: 5 64 112 112 (4014080)
I0416 00:46:17.517192  1229 net.cpp:137] Memory required for data: 19066900
I0416 00:46:17.517199  1229 layer_factory.hpp:77] Creating layer bn_conv1
I0416 00:46:17.517206  1229 net.cpp:84] Creating Layer bn_conv1
I0416 00:46:17.517220  1229 net.cpp:406] bn_conv1 <- conv1
I0416 00:46:17.517226  1229 net.cpp:367] bn_conv1 -> conv1 (in-place)
I0416 00:46:17.517361  1229 net.cpp:122] Setting up bn_conv1
I0416 00:46:17.517366  1229 net.cpp:129] Top shape: 5 64 112 112 (4014080)
I0416 00:46:17.517369  1229 net.cpp:137] Memory required for data: 35123220
I0416 00:46:17.517375  1229 layer_factory.hpp:77] Creating layer scale_conv1
I0416 00:46:17.517380  1229 net.cpp:84] Creating Layer scale_conv1
I0416 00:46:17.517383  1229 net.cpp:406] scale_conv1 <- conv1
I0416 00:46:17.517386  1229 net.cpp:367] scale_conv1 -> conv1 (in-place)
I0416 00:46:17.517417  1229 layer_factory.hpp:77] Creating layer scale_conv1
I0416 00:46:17.517494  1229 net.cpp:122] Setting up scale_conv1
I0416 00:46:17.517498  1229 net.cpp:129] Top shape: 5 64 112 112 (4014080)
I0416 00:46:17.517501  1229 net.cpp:137] Memory required for data: 51179540
I0416 00:46:17.517505  1229 layer_factory.hpp:77] Creating layer conv1_relu
I0416 00:46:17.517510  1229 net.cpp:84] Creating Layer conv1_relu
I0416 00:46:17.517514  1229 net.cpp:406] conv1_relu <- conv1
I0416 00:46:17.517518  1229 net.cpp:367] conv1_relu -> conv1 (in-place)
I0416 00:46:17.517827  1229 net.cpp:122] Setting up conv1_relu
I0416 00:46:17.517833  1229 net.cpp:129] Top shape: 5 64 112 112 (4014080)
I0416 00:46:17.517837  1229 net.cpp:137] Memory required for data: 67235860
I0416 00:46:17.517838  1229 layer_factory.hpp:77] Creating layer pool1
I0416 00:46:17.517843  1229 net.cpp:84] Creating Layer pool1
I0416 00:46:17.517846  1229 net.cpp:406] pool1 <- conv1
I0416 00:46:17.517850  1229 net.cpp:380] pool1 -> pool1
I0416 00:46:17.517879  1229 net.cpp:122] Setting up pool1
I0416 00:46:17.517882  1229 net.cpp:129] Top shape: 5 64 56 56 (1003520)
I0416 00:46:17.517884  1229 net.cpp:137] Memory required for data: 71249940
I0416 00:46:17.517886  1229 layer_factory.hpp:77] Creating layer pool1_pool1_0_split
I0416 00:46:17.517890  1229 net.cpp:84] Creating Layer pool1_pool1_0_split
I0416 00:46:17.517894  1229 net.cpp:406] pool1_pool1_0_split <- pool1
I0416 00:46:17.517897  1229 net.cpp:380] pool1_pool1_0_split -> pool1_pool1_0_split_0
I0416 00:46:17.517904  1229 net.cpp:380] pool1_pool1_0_split -> pool1_pool1_0_split_1
I0416 00:46:17.517928  1229 net.cpp:122] Setting up pool1_pool1_0_split
I0416 00:46:17.517932  1229 net.cpp:129] Top shape: 5 64 56 56 (1003520)
I0416 00:46:17.517935  1229 net.cpp:129] Top shape: 5 64 56 56 (1003520)
I0416 00:46:17.517937  1229 net.cpp:137] Memory required for data: 79278100
I0416 00:46:17.517940  1229 layer_factory.hpp:77] Creating layer res2a_branch1
I0416 00:46:17.517946  1229 net.cpp:84] Creating Layer res2a_branch1
I0416 00:46:17.517949  1229 net.cpp:406] res2a_branch1 <- pool1_pool1_0_split_0
I0416 00:46:17.517953  1229 net.cpp:380] res2a_branch1 -> res2a_branch1
I0416 00:46:17.519300  1229 net.cpp:122] Setting up res2a_branch1
I0416 00:46:17.519309  1229 net.cpp:129] Top shape: 5 256 56 56 (4014080)
I0416 00:46:17.519310  1229 net.cpp:137] Memory required for data: 95334420
I0416 00:46:17.519315  1229 layer_factory.hpp:77] Creating layer bn2a_branch1
I0416 00:46:17.519320  1229 net.cpp:84] Creating Layer bn2a_branch1
I0416 00:46:17.519323  1229 net.cpp:406] bn2a_branch1 <- res2a_branch1
I0416 00:46:17.519327  1229 net.cpp:367] bn2a_branch1 -> res2a_branch1 (in-place)
I0416 00:46:17.519933  1229 net.cpp:122] Setting up bn2a_branch1
I0416 00:46:17.519940  1229 net.cpp:129] Top shape: 5 256 56 56 (4014080)
I0416 00:46:17.519942  1229 net.cpp:137] Memory required for data: 111390740
I0416 00:46:17.519949  1229 layer_factory.hpp:77] Creating layer scale2a_branch1
I0416 00:46:17.519954  1229 net.cpp:84] Creating Layer scale2a_branch1
I0416 00:46:17.519958  1229 net.cpp:406] scale2a_branch1 <- res2a_branch1
I0416 00:46:17.519963  1229 net.cpp:367] scale2a_branch1 -> res2a_branch1 (in-place)
I0416 00:46:17.519990  1229 layer_factory.hpp:77] Creating layer scale2a_branch1
I0416 00:46:17.520062  1229 net.cpp:122] Setting up scale2a_branch1
I0416 00:46:17.520066  1229 net.cpp:129] Top shape: 5 256 56 56 (4014080)
I0416 00:46:17.520076  1229 net.cpp:137] Memory required for data: 127447060
I0416 00:46:17.520081  1229 layer_factory.hpp:77] Creating layer res2a_branch2a
I0416 00:46:17.520086  1229 net.cpp:84] Creating Layer res2a_branch2a
I0416 00:46:17.520088  1229 net.cpp:406] res2a_branch2a <- pool1_pool1_0_split_1
I0416 00:46:17.520092  1229 net.cpp:380] res2a_branch2a -> res2a_branch2a
I0416 00:46:17.521291  1229 net.cpp:122] Setting up res2a_branch2a
I0416 00:46:17.521299  1229 net.cpp:129] Top shape: 5 64 56 56 (1003520)
I0416 00:46:17.521301  1229 net.cpp:137] Memory required for data: 131461140
I0416 00:46:17.521306  1229 layer_factory.hpp:77] Creating layer bn2a_branch2a
I0416 00:46:17.521311  1229 net.cpp:84] Creating Layer bn2a_branch2a
I0416 00:46:17.521314  1229 net.cpp:406] bn2a_branch2a <- res2a_branch2a
I0416 00:46:17.521318  1229 net.cpp:367] bn2a_branch2a -> res2a_branch2a (in-place)
I0416 00:46:17.521440  1229 net.cpp:122] Setting up bn2a_branch2a
I0416 00:46:17.521445  1229 net.cpp:129] Top shape: 5 64 56 56 (1003520)
I0416 00:46:17.521446  1229 net.cpp:137] Memory required for data: 135475220
I0416 00:46:17.521451  1229 layer_factory.hpp:77] Creating layer scale2a_branch2a
I0416 00:46:17.521456  1229 net.cpp:84] Creating Layer scale2a_branch2a
I0416 00:46:17.521459  1229 net.cpp:406] scale2a_branch2a <- res2a_branch2a
I0416 00:46:17.521463  1229 net.cpp:367] scale2a_branch2a -> res2a_branch2a (in-place)
I0416 00:46:17.521492  1229 layer_factory.hpp:77] Creating layer scale2a_branch2a
I0416 00:46:17.521565  1229 net.cpp:122] Setting up scale2a_branch2a
I0416 00:46:17.521569  1229 net.cpp:129] Top shape: 5 64 56 56 (1003520)
I0416 00:46:17.521572  1229 net.cpp:137] Memory required for data: 139489300
I0416 00:46:17.521577  1229 layer_factory.hpp:77] Creating layer res2a_branch2a_relu
I0416 00:46:17.521581  1229 net.cpp:84] Creating Layer res2a_branch2a_relu
I0416 00:46:17.521585  1229 net.cpp:406] res2a_branch2a_relu <- res2a_branch2a
I0416 00:46:17.521589  1229 net.cpp:367] res2a_branch2a_relu -> res2a_branch2a (in-place)
I0416 00:46:17.521896  1229 net.cpp:122] Setting up res2a_branch2a_relu
I0416 00:46:17.521903  1229 net.cpp:129] Top shape: 5 64 56 56 (1003520)
I0416 00:46:17.521905  1229 net.cpp:137] Memory required for data: 143503380
I0416 00:46:17.521908  1229 layer_factory.hpp:77] Creating layer res2a_branch2b
I0416 00:46:17.521912  1229 net.cpp:84] Creating Layer res2a_branch2b
I0416 00:46:17.521917  1229 net.cpp:406] res2a_branch2b <- res2a_branch2a
I0416 00:46:17.521921  1229 net.cpp:380] res2a_branch2b -> res2a_branch2b
I0416 00:46:17.524853  1229 net.cpp:122] Setting up res2a_branch2b
I0416 00:46:17.524861  1229 net.cpp:129] Top shape: 5 64 56 56 (1003520)
I0416 00:46:17.524864  1229 net.cpp:137] Memory required for data: 147517460
I0416 00:46:17.524869  1229 layer_factory.hpp:77] Creating layer bn2a_branch2b
I0416 00:46:17.524873  1229 net.cpp:84] Creating Layer bn2a_branch2b
I0416 00:46:17.524878  1229 net.cpp:406] bn2a_branch2b <- res2a_branch2b
I0416 00:46:17.524881  1229 net.cpp:367] bn2a_branch2b -> res2a_branch2b (in-place)
I0416 00:46:17.525013  1229 net.cpp:122] Setting up bn2a_branch2b
I0416 00:46:17.525017  1229 net.cpp:129] Top shape: 5 64 56 56 (1003520)
I0416 00:46:17.525019  1229 net.cpp:137] Memory required for data: 151531540
I0416 00:46:17.525025  1229 layer_factory.hpp:77] Creating layer scale2a_branch2b
I0416 00:46:17.525030  1229 net.cpp:84] Creating Layer scale2a_branch2b
I0416 00:46:17.525033  1229 net.cpp:406] scale2a_branch2b <- res2a_branch2b
I0416 00:46:17.525038  1229 net.cpp:367] scale2a_branch2b -> res2a_branch2b (in-place)
I0416 00:46:17.525064  1229 layer_factory.hpp:77] Creating layer scale2a_branch2b
I0416 00:46:17.525140  1229 net.cpp:122] Setting up scale2a_branch2b
I0416 00:46:17.525143  1229 net.cpp:129] Top shape: 5 64 56 56 (1003520)
I0416 00:46:17.525146  1229 net.cpp:137] Memory required for data: 155545620
I0416 00:46:17.525149  1229 layer_factory.hpp:77] Creating layer res2a_branch2b_relu
I0416 00:46:17.525154  1229 net.cpp:84] Creating Layer res2a_branch2b_relu
I0416 00:46:17.525163  1229 net.cpp:406] res2a_branch2b_relu <- res2a_branch2b
I0416 00:46:17.525167  1229 net.cpp:367] res2a_branch2b_relu -> res2a_branch2b (in-place)
I0416 00:46:17.525480  1229 net.cpp:122] Setting up res2a_branch2b_relu
I0416 00:46:17.525485  1229 net.cpp:129] Top shape: 5 64 56 56 (1003520)
I0416 00:46:17.525488  1229 net.cpp:137] Memory required for data: 159559700
I0416 00:46:17.525490  1229 layer_factory.hpp:77] Creating layer res2a_branch2c
I0416 00:46:17.525496  1229 net.cpp:84] Creating Layer res2a_branch2c
I0416 00:46:17.525499  1229 net.cpp:406] res2a_branch2c <- res2a_branch2b
I0416 00:46:17.525503  1229 net.cpp:380] res2a_branch2c -> res2a_branch2c
I0416 00:46:17.526765  1229 net.cpp:122] Setting up res2a_branch2c
I0416 00:46:17.526773  1229 net.cpp:129] Top shape: 5 256 56 56 (4014080)
I0416 00:46:17.526775  1229 net.cpp:137] Memory required for data: 175616020
I0416 00:46:17.526779  1229 layer_factory.hpp:77] Creating layer bn2a_branch2c
I0416 00:46:17.526784  1229 net.cpp:84] Creating Layer bn2a_branch2c
I0416 00:46:17.526789  1229 net.cpp:406] bn2a_branch2c <- res2a_branch2c
I0416 00:46:17.526793  1229 net.cpp:367] bn2a_branch2c -> res2a_branch2c (in-place)
I0416 00:46:17.526913  1229 net.cpp:122] Setting up bn2a_branch2c
I0416 00:46:17.526917  1229 net.cpp:129] Top shape: 5 256 56 56 (4014080)
I0416 00:46:17.526921  1229 net.cpp:137] Memory required for data: 191672340
I0416 00:46:17.526926  1229 layer_factory.hpp:77] Creating layer scale2a_branch2c
I0416 00:46:17.526929  1229 net.cpp:84] Creating Layer scale2a_branch2c
I0416 00:46:17.526932  1229 net.cpp:406] scale2a_branch2c <- res2a_branch2c
I0416 00:46:17.526935  1229 net.cpp:367] scale2a_branch2c -> res2a_branch2c (in-place)
I0416 00:46:17.526962  1229 layer_factory.hpp:77] Creating layer scale2a_branch2c
I0416 00:46:17.527034  1229 net.cpp:122] Setting up scale2a_branch2c
I0416 00:46:17.527038  1229 net.cpp:129] Top shape: 5 256 56 56 (4014080)
I0416 00:46:17.527041  1229 net.cpp:137] Memory required for data: 207728660
I0416 00:46:17.527045  1229 layer_factory.hpp:77] Creating layer res2a
I0416 00:46:17.527050  1229 net.cpp:84] Creating Layer res2a
I0416 00:46:17.527055  1229 net.cpp:406] res2a <- res2a_branch1
I0416 00:46:17.527057  1229 net.cpp:406] res2a <- res2a_branch2c
I0416 00:46:17.527061  1229 net.cpp:380] res2a -> res2a
I0416 00:46:17.527079  1229 net.cpp:122] Setting up res2a
I0416 00:46:17.527083  1229 net.cpp:129] Top shape: 5 256 56 56 (4014080)
I0416 00:46:17.527086  1229 net.cpp:137] Memory required for data: 223784980
I0416 00:46:17.527088  1229 layer_factory.hpp:77] Creating layer res2a_relu
I0416 00:46:17.527091  1229 net.cpp:84] Creating Layer res2a_relu
I0416 00:46:17.527096  1229 net.cpp:406] res2a_relu <- res2a
I0416 00:46:17.527098  1229 net.cpp:367] res2a_relu -> res2a (in-place)
I0416 00:46:17.527516  1229 net.cpp:122] Setting up res2a_relu
I0416 00:46:17.527523  1229 net.cpp:129] Top shape: 5 256 56 56 (4014080)
I0416 00:46:17.527526  1229 net.cpp:137] Memory required for data: 239841300
I0416 00:46:17.527529  1229 layer_factory.hpp:77] Creating layer res2a_res2a_relu_0_split
I0416 00:46:17.527532  1229 net.cpp:84] Creating Layer res2a_res2a_relu_0_split
I0416 00:46:17.527537  1229 net.cpp:406] res2a_res2a_relu_0_split <- res2a
I0416 00:46:17.527541  1229 net.cpp:380] res2a_res2a_relu_0_split -> res2a_res2a_relu_0_split_0
I0416 00:46:17.527547  1229 net.cpp:380] res2a_res2a_relu_0_split -> res2a_res2a_relu_0_split_1
I0416 00:46:17.527576  1229 net.cpp:122] Setting up res2a_res2a_relu_0_split
I0416 00:46:17.527580  1229 net.cpp:129] Top shape: 5 256 56 56 (4014080)
I0416 00:46:17.527583  1229 net.cpp:129] Top shape: 5 256 56 56 (4014080)
I0416 00:46:17.527586  1229 net.cpp:137] Memory required for data: 271953940
I0416 00:46:17.527588  1229 layer_factory.hpp:77] Creating layer res2b_branch2a
I0416 00:46:17.527593  1229 net.cpp:84] Creating Layer res2b_branch2a
I0416 00:46:17.527597  1229 net.cpp:406] res2b_branch2a <- res2a_res2a_relu_0_split_0
I0416 00:46:17.527606  1229 net.cpp:380] res2b_branch2a -> res2b_branch2a
I0416 00:46:17.528901  1229 net.cpp:122] Setting up res2b_branch2a
I0416 00:46:17.528909  1229 net.cpp:129] Top shape: 5 64 56 56 (1003520)
I0416 00:46:17.528913  1229 net.cpp:137] Memory required for data: 275968020
I0416 00:46:17.528916  1229 layer_factory.hpp:77] Creating layer bn2b_branch2a
I0416 00:46:17.528921  1229 net.cpp:84] Creating Layer bn2b_branch2a
I0416 00:46:17.528924  1229 net.cpp:406] bn2b_branch2a <- res2b_branch2a
I0416 00:46:17.528928  1229 net.cpp:367] bn2b_branch2a -> res2b_branch2a (in-place)
I0416 00:46:17.529059  1229 net.cpp:122] Setting up bn2b_branch2a
I0416 00:46:17.529063  1229 net.cpp:129] Top shape: 5 64 56 56 (1003520)
I0416 00:46:17.529067  1229 net.cpp:137] Memory required for data: 279982100
I0416 00:46:17.529073  1229 layer_factory.hpp:77] Creating layer scale2b_branch2a
I0416 00:46:17.529078  1229 net.cpp:84] Creating Layer scale2b_branch2a
I0416 00:46:17.529080  1229 net.cpp:406] scale2b_branch2a <- res2b_branch2a
I0416 00:46:17.529084  1229 net.cpp:367] scale2b_branch2a -> res2b_branch2a (in-place)
I0416 00:46:17.529112  1229 layer_factory.hpp:77] Creating layer scale2b_branch2a
I0416 00:46:17.529189  1229 net.cpp:122] Setting up scale2b_branch2a
I0416 00:46:17.529194  1229 net.cpp:129] Top shape: 5 64 56 56 (1003520)
I0416 00:46:17.529196  1229 net.cpp:137] Memory required for data: 283996180
I0416 00:46:17.529201  1229 layer_factory.hpp:77] Creating layer res2b_branch2a_relu
I0416 00:46:17.529204  1229 net.cpp:84] Creating Layer res2b_branch2a_relu
I0416 00:46:17.529208  1229 net.cpp:406] res2b_branch2a_relu <- res2b_branch2a
I0416 00:46:17.529212  1229 net.cpp:367] res2b_branch2a_relu -> res2b_branch2a (in-place)
I0416 00:46:17.529815  1229 net.cpp:122] Setting up res2b_branch2a_relu
I0416 00:46:17.529824  1229 net.cpp:129] Top shape: 5 64 56 56 (1003520)
I0416 00:46:17.529827  1229 net.cpp:137] Memory required for data: 288010260
I0416 00:46:17.529830  1229 layer_factory.hpp:77] Creating layer res2b_branch2b
I0416 00:46:17.529836  1229 net.cpp:84] Creating Layer res2b_branch2b
I0416 00:46:17.529840  1229 net.cpp:406] res2b_branch2b <- res2b_branch2a
I0416 00:46:17.529844  1229 net.cpp:380] res2b_branch2b -> res2b_branch2b
I0416 00:46:17.531256  1229 net.cpp:122] Setting up res2b_branch2b
I0416 00:46:17.531265  1229 net.cpp:129] Top shape: 5 64 56 56 (1003520)
I0416 00:46:17.531267  1229 net.cpp:137] Memory required for data: 292024340
I0416 00:46:17.531272  1229 layer_factory.hpp:77] Creating layer bn2b_branch2b
I0416 00:46:17.531276  1229 net.cpp:84] Creating Layer bn2b_branch2b
I0416 00:46:17.531280  1229 net.cpp:406] bn2b_branch2b <- res2b_branch2b
I0416 00:46:17.531285  1229 net.cpp:367] bn2b_branch2b -> res2b_branch2b (in-place)
I0416 00:46:17.531419  1229 net.cpp:122] Setting up bn2b_branch2b
I0416 00:46:17.531424  1229 net.cpp:129] Top shape: 5 64 56 56 (1003520)
I0416 00:46:17.531425  1229 net.cpp:137] Memory required for data: 296038420
I0416 00:46:17.531430  1229 layer_factory.hpp:77] Creating layer scale2b_branch2b
I0416 00:46:17.531435  1229 net.cpp:84] Creating Layer scale2b_branch2b
I0416 00:46:17.531437  1229 net.cpp:406] scale2b_branch2b <- res2b_branch2b
I0416 00:46:17.531441  1229 net.cpp:367] scale2b_branch2b -> res2b_branch2b (in-place)
I0416 00:46:17.531469  1229 layer_factory.hpp:77] Creating layer scale2b_branch2b
I0416 00:46:17.531549  1229 net.cpp:122] Setting up scale2b_branch2b
I0416 00:46:17.531554  1229 net.cpp:129] Top shape: 5 64 56 56 (1003520)
I0416 00:46:17.531556  1229 net.cpp:137] Memory required for data: 300052500
I0416 00:46:17.531560  1229 layer_factory.hpp:77] Creating layer res2b_branch2b_relu
I0416 00:46:17.531565  1229 net.cpp:84] Creating Layer res2b_branch2b_relu
I0416 00:46:17.531569  1229 net.cpp:406] res2b_branch2b_relu <- res2b_branch2b
I0416 00:46:17.531571  1229 net.cpp:367] res2b_branch2b_relu -> res2b_branch2b (in-place)
I0416 00:46:17.531886  1229 net.cpp:122] Setting up res2b_branch2b_relu
I0416 00:46:17.531893  1229 net.cpp:129] Top shape: 5 64 56 56 (1003520)
I0416 00:46:17.531903  1229 net.cpp:137] Memory required for data: 304066580
I0416 00:46:17.531905  1229 layer_factory.hpp:77] Creating layer res2b_branch2c
I0416 00:46:17.531913  1229 net.cpp:84] Creating Layer res2b_branch2c
I0416 00:46:17.531915  1229 net.cpp:406] res2b_branch2c <- res2b_branch2b
I0416 00:46:17.531919  1229 net.cpp:380] res2b_branch2c -> res2b_branch2c
I0416 00:46:17.533324  1229 net.cpp:122] Setting up res2b_branch2c
I0416 00:46:17.533331  1229 net.cpp:129] Top shape: 5 256 56 56 (4014080)
I0416 00:46:17.533334  1229 net.cpp:137] Memory required for data: 320122900
I0416 00:46:17.533339  1229 layer_factory.hpp:77] Creating layer bn2b_branch2c
I0416 00:46:17.533344  1229 net.cpp:84] Creating Layer bn2b_branch2c
I0416 00:46:17.533349  1229 net.cpp:406] bn2b_branch2c <- res2b_branch2c
I0416 00:46:17.533352  1229 net.cpp:367] bn2b_branch2c -> res2b_branch2c (in-place)
I0416 00:46:17.533484  1229 net.cpp:122] Setting up bn2b_branch2c
I0416 00:46:17.533488  1229 net.cpp:129] Top shape: 5 256 56 56 (4014080)
I0416 00:46:17.533491  1229 net.cpp:137] Memory required for data: 336179220
I0416 00:46:17.533496  1229 layer_factory.hpp:77] Creating layer scale2b_branch2c
I0416 00:46:17.533500  1229 net.cpp:84] Creating Layer scale2b_branch2c
I0416 00:46:17.533504  1229 net.cpp:406] scale2b_branch2c <- res2b_branch2c
I0416 00:46:17.533507  1229 net.cpp:367] scale2b_branch2c -> res2b_branch2c (in-place)
I0416 00:46:17.533535  1229 layer_factory.hpp:77] Creating layer scale2b_branch2c
I0416 00:46:17.533608  1229 net.cpp:122] Setting up scale2b_branch2c
I0416 00:46:17.533612  1229 net.cpp:129] Top shape: 5 256 56 56 (4014080)
I0416 00:46:17.533614  1229 net.cpp:137] Memory required for data: 352235540
I0416 00:46:17.533618  1229 layer_factory.hpp:77] Creating layer res2b
I0416 00:46:17.533624  1229 net.cpp:84] Creating Layer res2b
I0416 00:46:17.533628  1229 net.cpp:406] res2b <- res2a_res2a_relu_0_split_1
I0416 00:46:17.533632  1229 net.cpp:406] res2b <- res2b_branch2c
I0416 00:46:17.533637  1229 net.cpp:380] res2b -> res2b
I0416 00:46:17.533655  1229 net.cpp:122] Setting up res2b
I0416 00:46:17.533659  1229 net.cpp:129] Top shape: 5 256 56 56 (4014080)
I0416 00:46:17.533663  1229 net.cpp:137] Memory required for data: 368291860
I0416 00:46:17.533665  1229 layer_factory.hpp:77] Creating layer res2b_relu
I0416 00:46:17.533668  1229 net.cpp:84] Creating Layer res2b_relu
I0416 00:46:17.533671  1229 net.cpp:406] res2b_relu <- res2b
I0416 00:46:17.533674  1229 net.cpp:367] res2b_relu -> res2b (in-place)
I0416 00:46:17.533994  1229 net.cpp:122] Setting up res2b_relu
I0416 00:46:17.534001  1229 net.cpp:129] Top shape: 5 256 56 56 (4014080)
I0416 00:46:17.534003  1229 net.cpp:137] Memory required for data: 384348180
I0416 00:46:17.534006  1229 layer_factory.hpp:77] Creating layer res2b_res2b_relu_0_split
I0416 00:46:17.534010  1229 net.cpp:84] Creating Layer res2b_res2b_relu_0_split
I0416 00:46:17.534013  1229 net.cpp:406] res2b_res2b_relu_0_split <- res2b
I0416 00:46:17.534018  1229 net.cpp:380] res2b_res2b_relu_0_split -> res2b_res2b_relu_0_split_0
I0416 00:46:17.534024  1229 net.cpp:380] res2b_res2b_relu_0_split -> res2b_res2b_relu_0_split_1
I0416 00:46:17.534054  1229 net.cpp:122] Setting up res2b_res2b_relu_0_split
I0416 00:46:17.534059  1229 net.cpp:129] Top shape: 5 256 56 56 (4014080)
I0416 00:46:17.534061  1229 net.cpp:129] Top shape: 5 256 56 56 (4014080)
I0416 00:46:17.534063  1229 net.cpp:137] Memory required for data: 416460820
I0416 00:46:17.534065  1229 layer_factory.hpp:77] Creating layer res2c_branch2a
I0416 00:46:17.534070  1229 net.cpp:84] Creating Layer res2c_branch2a
I0416 00:46:17.534075  1229 net.cpp:406] res2c_branch2a <- res2b_res2b_relu_0_split_0
I0416 00:46:17.534078  1229 net.cpp:380] res2c_branch2a -> res2c_branch2a
I0416 00:46:17.535528  1229 net.cpp:122] Setting up res2c_branch2a
I0416 00:46:17.535535  1229 net.cpp:129] Top shape: 5 64 56 56 (1003520)
I0416 00:46:17.535538  1229 net.cpp:137] Memory required for data: 420474900
I0416 00:46:17.535542  1229 layer_factory.hpp:77] Creating layer bn2c_branch2a
I0416 00:46:17.535552  1229 net.cpp:84] Creating Layer bn2c_branch2a
I0416 00:46:17.535557  1229 net.cpp:406] bn2c_branch2a <- res2c_branch2a
I0416 00:46:17.535560  1229 net.cpp:367] bn2c_branch2a -> res2c_branch2a (in-place)
I0416 00:46:17.535704  1229 net.cpp:122] Setting up bn2c_branch2a
I0416 00:46:17.535709  1229 net.cpp:129] Top shape: 5 64 56 56 (1003520)
I0416 00:46:17.535712  1229 net.cpp:137] Memory required for data: 424488980
I0416 00:46:17.535717  1229 layer_factory.hpp:77] Creating layer scale2c_branch2a
I0416 00:46:17.535722  1229 net.cpp:84] Creating Layer scale2c_branch2a
I0416 00:46:17.535723  1229 net.cpp:406] scale2c_branch2a <- res2c_branch2a
I0416 00:46:17.535727  1229 net.cpp:367] scale2c_branch2a -> res2c_branch2a (in-place)
I0416 00:46:17.535760  1229 layer_factory.hpp:77] Creating layer scale2c_branch2a
I0416 00:46:17.535846  1229 net.cpp:122] Setting up scale2c_branch2a
I0416 00:46:17.535851  1229 net.cpp:129] Top shape: 5 64 56 56 (1003520)
I0416 00:46:17.535853  1229 net.cpp:137] Memory required for data: 428503060
I0416 00:46:17.535857  1229 layer_factory.hpp:77] Creating layer res2c_branch2a_relu
I0416 00:46:17.535863  1229 net.cpp:84] Creating Layer res2c_branch2a_relu
I0416 00:46:17.535866  1229 net.cpp:406] res2c_branch2a_relu <- res2c_branch2a
I0416 00:46:17.535871  1229 net.cpp:367] res2c_branch2a_relu -> res2c_branch2a (in-place)
I0416 00:46:17.536353  1229 net.cpp:122] Setting up res2c_branch2a_relu
I0416 00:46:17.536360  1229 net.cpp:129] Top shape: 5 64 56 56 (1003520)
I0416 00:46:17.536363  1229 net.cpp:137] Memory required for data: 432517140
I0416 00:46:17.536365  1229 layer_factory.hpp:77] Creating layer res2c_branch2b
I0416 00:46:17.536372  1229 net.cpp:84] Creating Layer res2c_branch2b
I0416 00:46:17.536375  1229 net.cpp:406] res2c_branch2b <- res2c_branch2a
I0416 00:46:17.536379  1229 net.cpp:380] res2c_branch2b -> res2c_branch2b
I0416 00:46:17.537992  1229 net.cpp:122] Setting up res2c_branch2b
I0416 00:46:17.537998  1229 net.cpp:129] Top shape: 5 64 56 56 (1003520)
I0416 00:46:17.538002  1229 net.cpp:137] Memory required for data: 436531220
I0416 00:46:17.538005  1229 layer_factory.hpp:77] Creating layer bn2c_branch2b
I0416 00:46:17.538010  1229 net.cpp:84] Creating Layer bn2c_branch2b
I0416 00:46:17.538014  1229 net.cpp:406] bn2c_branch2b <- res2c_branch2b
I0416 00:46:17.538019  1229 net.cpp:367] bn2c_branch2b -> res2c_branch2b (in-place)
I0416 00:46:17.538164  1229 net.cpp:122] Setting up bn2c_branch2b
I0416 00:46:17.538168  1229 net.cpp:129] Top shape: 5 64 56 56 (1003520)
I0416 00:46:17.538172  1229 net.cpp:137] Memory required for data: 440545300
I0416 00:46:17.538175  1229 layer_factory.hpp:77] Creating layer scale2c_branch2b
I0416 00:46:17.538180  1229 net.cpp:84] Creating Layer scale2c_branch2b
I0416 00:46:17.538183  1229 net.cpp:406] scale2c_branch2b <- res2c_branch2b
I0416 00:46:17.538187  1229 net.cpp:367] scale2c_branch2b -> res2c_branch2b (in-place)
I0416 00:46:17.538218  1229 layer_factory.hpp:77] Creating layer scale2c_branch2b
I0416 00:46:17.538301  1229 net.cpp:122] Setting up scale2c_branch2b
I0416 00:46:17.538305  1229 net.cpp:129] Top shape: 5 64 56 56 (1003520)
I0416 00:46:17.538307  1229 net.cpp:137] Memory required for data: 444559380
I0416 00:46:17.538311  1229 layer_factory.hpp:77] Creating layer res2c_branch2b_relu
I0416 00:46:17.538316  1229 net.cpp:84] Creating Layer res2c_branch2b_relu
I0416 00:46:17.538321  1229 net.cpp:406] res2c_branch2b_relu <- res2c_branch2b
I0416 00:46:17.538323  1229 net.cpp:367] res2c_branch2b_relu -> res2c_branch2b (in-place)
I0416 00:46:17.538700  1229 net.cpp:122] Setting up res2c_branch2b_relu
I0416 00:46:17.538707  1229 net.cpp:129] Top shape: 5 64 56 56 (1003520)
I0416 00:46:17.538709  1229 net.cpp:137] Memory required for data: 448573460
I0416 00:46:17.538712  1229 layer_factory.hpp:77] Creating layer res2c_branch2c
I0416 00:46:17.538717  1229 net.cpp:84] Creating Layer res2c_branch2c
I0416 00:46:17.538722  1229 net.cpp:406] res2c_branch2c <- res2c_branch2b
I0416 00:46:17.538725  1229 net.cpp:380] res2c_branch2c -> res2c_branch2c
I0416 00:46:17.540350  1229 net.cpp:122] Setting up res2c_branch2c
I0416 00:46:17.540359  1229 net.cpp:129] Top shape: 5 256 56 56 (4014080)
I0416 00:46:17.540360  1229 net.cpp:137] Memory required for data: 464629780
I0416 00:46:17.540364  1229 layer_factory.hpp:77] Creating layer bn2c_branch2c
I0416 00:46:17.540370  1229 net.cpp:84] Creating Layer bn2c_branch2c
I0416 00:46:17.540374  1229 net.cpp:406] bn2c_branch2c <- res2c_branch2c
I0416 00:46:17.540377  1229 net.cpp:367] bn2c_branch2c -> res2c_branch2c (in-place)
I0416 00:46:17.540519  1229 net.cpp:122] Setting up bn2c_branch2c
I0416 00:46:17.540524  1229 net.cpp:129] Top shape: 5 256 56 56 (4014080)
I0416 00:46:17.540526  1229 net.cpp:137] Memory required for data: 480686100
I0416 00:46:17.540531  1229 layer_factory.hpp:77] Creating layer scale2c_branch2c
I0416 00:46:17.540536  1229 net.cpp:84] Creating Layer scale2c_branch2c
I0416 00:46:17.540540  1229 net.cpp:406] scale2c_branch2c <- res2c_branch2c
I0416 00:46:17.540544  1229 net.cpp:367] scale2c_branch2c -> res2c_branch2c (in-place)
I0416 00:46:17.540573  1229 layer_factory.hpp:77] Creating layer scale2c_branch2c
I0416 00:46:17.540653  1229 net.cpp:122] Setting up scale2c_branch2c
I0416 00:46:17.540658  1229 net.cpp:129] Top shape: 5 256 56 56 (4014080)
I0416 00:46:17.540660  1229 net.cpp:137] Memory required for data: 496742420
I0416 00:46:17.540669  1229 layer_factory.hpp:77] Creating layer res2c
I0416 00:46:17.540674  1229 net.cpp:84] Creating Layer res2c
I0416 00:46:17.540678  1229 net.cpp:406] res2c <- res2b_res2b_relu_0_split_1
I0416 00:46:17.540683  1229 net.cpp:406] res2c <- res2c_branch2c
I0416 00:46:17.540685  1229 net.cpp:380] res2c -> res2c
I0416 00:46:17.540704  1229 net.cpp:122] Setting up res2c
I0416 00:46:17.540709  1229 net.cpp:129] Top shape: 5 256 56 56 (4014080)
I0416 00:46:17.540711  1229 net.cpp:137] Memory required for data: 512798740
I0416 00:46:17.540714  1229 layer_factory.hpp:77] Creating layer res2c_relu
I0416 00:46:17.540717  1229 net.cpp:84] Creating Layer res2c_relu
I0416 00:46:17.540720  1229 net.cpp:406] res2c_relu <- res2c
I0416 00:46:17.540725  1229 net.cpp:367] res2c_relu -> res2c (in-place)
I0416 00:46:17.541107  1229 net.cpp:122] Setting up res2c_relu
I0416 00:46:17.541113  1229 net.cpp:129] Top shape: 5 256 56 56 (4014080)
I0416 00:46:17.541115  1229 net.cpp:137] Memory required for data: 528855060
I0416 00:46:17.541118  1229 layer_factory.hpp:77] Creating layer res2c_res2c_relu_0_split
I0416 00:46:17.541123  1229 net.cpp:84] Creating Layer res2c_res2c_relu_0_split
I0416 00:46:17.541127  1229 net.cpp:406] res2c_res2c_relu_0_split <- res2c
I0416 00:46:17.541131  1229 net.cpp:380] res2c_res2c_relu_0_split -> res2c_res2c_relu_0_split_0
I0416 00:46:17.541136  1229 net.cpp:380] res2c_res2c_relu_0_split -> res2c_res2c_relu_0_split_1
I0416 00:46:17.541169  1229 net.cpp:122] Setting up res2c_res2c_relu_0_split
I0416 00:46:17.541173  1229 net.cpp:129] Top shape: 5 256 56 56 (4014080)
I0416 00:46:17.541177  1229 net.cpp:129] Top shape: 5 256 56 56 (4014080)
I0416 00:46:17.541179  1229 net.cpp:137] Memory required for data: 560967700
I0416 00:46:17.541182  1229 layer_factory.hpp:77] Creating layer res3a_branch1
I0416 00:46:17.541189  1229 net.cpp:84] Creating Layer res3a_branch1
I0416 00:46:17.541191  1229 net.cpp:406] res3a_branch1 <- res2c_res2c_relu_0_split_0
I0416 00:46:17.541196  1229 net.cpp:380] res3a_branch1 -> res3a_branch1
I0416 00:46:17.543474  1229 net.cpp:122] Setting up res3a_branch1
I0416 00:46:17.543483  1229 net.cpp:129] Top shape: 5 512 28 28 (2007040)
I0416 00:46:17.543485  1229 net.cpp:137] Memory required for data: 568995860
I0416 00:46:17.543489  1229 layer_factory.hpp:77] Creating layer bn3a_branch1
I0416 00:46:17.543494  1229 net.cpp:84] Creating Layer bn3a_branch1
I0416 00:46:17.543498  1229 net.cpp:406] bn3a_branch1 <- res3a_branch1
I0416 00:46:17.543503  1229 net.cpp:367] bn3a_branch1 -> res3a_branch1 (in-place)
I0416 00:46:17.544136  1229 net.cpp:122] Setting up bn3a_branch1
I0416 00:46:17.544142  1229 net.cpp:129] Top shape: 5 512 28 28 (2007040)
I0416 00:46:17.544150  1229 net.cpp:137] Memory required for data: 577024020
I0416 00:46:17.544155  1229 layer_factory.hpp:77] Creating layer scale3a_branch1
I0416 00:46:17.544162  1229 net.cpp:84] Creating Layer scale3a_branch1
I0416 00:46:17.544165  1229 net.cpp:406] scale3a_branch1 <- res3a_branch1
I0416 00:46:17.544169  1229 net.cpp:367] scale3a_branch1 -> res3a_branch1 (in-place)
I0416 00:46:17.544203  1229 layer_factory.hpp:77] Creating layer scale3a_branch1
I0416 00:46:17.544281  1229 net.cpp:122] Setting up scale3a_branch1
I0416 00:46:17.544286  1229 net.cpp:129] Top shape: 5 512 28 28 (2007040)
I0416 00:46:17.544288  1229 net.cpp:137] Memory required for data: 585052180
I0416 00:46:17.544292  1229 layer_factory.hpp:77] Creating layer res3a_branch2a
I0416 00:46:17.544301  1229 net.cpp:84] Creating Layer res3a_branch2a
I0416 00:46:17.544303  1229 net.cpp:406] res3a_branch2a <- res2c_res2c_relu_0_split_1
I0416 00:46:17.544307  1229 net.cpp:380] res3a_branch2a -> res3a_branch2a
I0416 00:46:17.546514  1229 net.cpp:122] Setting up res3a_branch2a
I0416 00:46:17.546521  1229 net.cpp:129] Top shape: 5 128 28 28 (501760)
I0416 00:46:17.546525  1229 net.cpp:137] Memory required for data: 587059220
I0416 00:46:17.546528  1229 layer_factory.hpp:77] Creating layer bn3a_branch2a
I0416 00:46:17.546535  1229 net.cpp:84] Creating Layer bn3a_branch2a
I0416 00:46:17.546538  1229 net.cpp:406] bn3a_branch2a <- res3a_branch2a
I0416 00:46:17.546542  1229 net.cpp:367] bn3a_branch2a -> res3a_branch2a (in-place)
I0416 00:46:17.546685  1229 net.cpp:122] Setting up bn3a_branch2a
I0416 00:46:17.546690  1229 net.cpp:129] Top shape: 5 128 28 28 (501760)
I0416 00:46:17.546692  1229 net.cpp:137] Memory required for data: 589066260
I0416 00:46:17.546697  1229 layer_factory.hpp:77] Creating layer scale3a_branch2a
I0416 00:46:17.546701  1229 net.cpp:84] Creating Layer scale3a_branch2a
I0416 00:46:17.546705  1229 net.cpp:406] scale3a_branch2a <- res3a_branch2a
I0416 00:46:17.546708  1229 net.cpp:367] scale3a_branch2a -> res3a_branch2a (in-place)
I0416 00:46:17.546742  1229 layer_factory.hpp:77] Creating layer scale3a_branch2a
I0416 00:46:17.546823  1229 net.cpp:122] Setting up scale3a_branch2a
I0416 00:46:17.546828  1229 net.cpp:129] Top shape: 5 128 28 28 (501760)
I0416 00:46:17.546830  1229 net.cpp:137] Memory required for data: 591073300
I0416 00:46:17.546834  1229 layer_factory.hpp:77] Creating layer res3a_branch2a_relu
I0416 00:46:17.546838  1229 net.cpp:84] Creating Layer res3a_branch2a_relu
I0416 00:46:17.546842  1229 net.cpp:406] res3a_branch2a_relu <- res3a_branch2a
I0416 00:46:17.546847  1229 net.cpp:367] res3a_branch2a_relu -> res3a_branch2a (in-place)
I0416 00:46:17.547227  1229 net.cpp:122] Setting up res3a_branch2a_relu
I0416 00:46:17.547235  1229 net.cpp:129] Top shape: 5 128 28 28 (501760)
I0416 00:46:17.547236  1229 net.cpp:137] Memory required for data: 593080340
I0416 00:46:17.547240  1229 layer_factory.hpp:77] Creating layer res3a_branch2b
I0416 00:46:17.547246  1229 net.cpp:84] Creating Layer res3a_branch2b
I0416 00:46:17.547250  1229 net.cpp:406] res3a_branch2b <- res3a_branch2a
I0416 00:46:17.547255  1229 net.cpp:380] res3a_branch2b -> res3a_branch2b
I0416 00:46:17.549648  1229 net.cpp:122] Setting up res3a_branch2b
I0416 00:46:17.549656  1229 net.cpp:129] Top shape: 5 128 28 28 (501760)
I0416 00:46:17.549659  1229 net.cpp:137] Memory required for data: 595087380
I0416 00:46:17.549664  1229 layer_factory.hpp:77] Creating layer bn3a_branch2b
I0416 00:46:17.549670  1229 net.cpp:84] Creating Layer bn3a_branch2b
I0416 00:46:17.549674  1229 net.cpp:406] bn3a_branch2b <- res3a_branch2b
I0416 00:46:17.549677  1229 net.cpp:367] bn3a_branch2b -> res3a_branch2b (in-place)
I0416 00:46:17.549829  1229 net.cpp:122] Setting up bn3a_branch2b
I0416 00:46:17.549834  1229 net.cpp:129] Top shape: 5 128 28 28 (501760)
I0416 00:46:17.549835  1229 net.cpp:137] Memory required for data: 597094420
I0416 00:46:17.549840  1229 layer_factory.hpp:77] Creating layer scale3a_branch2b
I0416 00:46:17.549846  1229 net.cpp:84] Creating Layer scale3a_branch2b
I0416 00:46:17.549856  1229 net.cpp:406] scale3a_branch2b <- res3a_branch2b
I0416 00:46:17.549860  1229 net.cpp:367] scale3a_branch2b -> res3a_branch2b (in-place)
I0416 00:46:17.549891  1229 layer_factory.hpp:77] Creating layer scale3a_branch2b
I0416 00:46:17.549973  1229 net.cpp:122] Setting up scale3a_branch2b
I0416 00:46:17.549976  1229 net.cpp:129] Top shape: 5 128 28 28 (501760)
I0416 00:46:17.549979  1229 net.cpp:137] Memory required for data: 599101460
I0416 00:46:17.549983  1229 layer_factory.hpp:77] Creating layer res3a_branch2b_relu
I0416 00:46:17.549988  1229 net.cpp:84] Creating Layer res3a_branch2b_relu
I0416 00:46:17.549990  1229 net.cpp:406] res3a_branch2b_relu <- res3a_branch2b
I0416 00:46:17.549994  1229 net.cpp:367] res3a_branch2b_relu -> res3a_branch2b (in-place)
I0416 00:46:17.550477  1229 net.cpp:122] Setting up res3a_branch2b_relu
I0416 00:46:17.550483  1229 net.cpp:129] Top shape: 5 128 28 28 (501760)
I0416 00:46:17.550487  1229 net.cpp:137] Memory required for data: 601108500
I0416 00:46:17.550489  1229 layer_factory.hpp:77] Creating layer res3a_branch2c
I0416 00:46:17.550496  1229 net.cpp:84] Creating Layer res3a_branch2c
I0416 00:46:17.550500  1229 net.cpp:406] res3a_branch2c <- res3a_branch2b
I0416 00:46:17.550504  1229 net.cpp:380] res3a_branch2c -> res3a_branch2c
I0416 00:46:17.552311  1229 net.cpp:122] Setting up res3a_branch2c
I0416 00:46:17.552319  1229 net.cpp:129] Top shape: 5 512 28 28 (2007040)
I0416 00:46:17.552321  1229 net.cpp:137] Memory required for data: 609136660
I0416 00:46:17.552325  1229 layer_factory.hpp:77] Creating layer bn3a_branch2c
I0416 00:46:17.552336  1229 net.cpp:84] Creating Layer bn3a_branch2c
I0416 00:46:17.552340  1229 net.cpp:406] bn3a_branch2c <- res3a_branch2c
I0416 00:46:17.552345  1229 net.cpp:367] bn3a_branch2c -> res3a_branch2c (in-place)
I0416 00:46:17.552487  1229 net.cpp:122] Setting up bn3a_branch2c
I0416 00:46:17.552491  1229 net.cpp:129] Top shape: 5 512 28 28 (2007040)
I0416 00:46:17.552494  1229 net.cpp:137] Memory required for data: 617164820
I0416 00:46:17.552500  1229 layer_factory.hpp:77] Creating layer scale3a_branch2c
I0416 00:46:17.552505  1229 net.cpp:84] Creating Layer scale3a_branch2c
I0416 00:46:17.552507  1229 net.cpp:406] scale3a_branch2c <- res3a_branch2c
I0416 00:46:17.552510  1229 net.cpp:367] scale3a_branch2c -> res3a_branch2c (in-place)
I0416 00:46:17.552541  1229 layer_factory.hpp:77] Creating layer scale3a_branch2c
I0416 00:46:17.552620  1229 net.cpp:122] Setting up scale3a_branch2c
I0416 00:46:17.552625  1229 net.cpp:129] Top shape: 5 512 28 28 (2007040)
I0416 00:46:17.552628  1229 net.cpp:137] Memory required for data: 625192980
I0416 00:46:17.552631  1229 layer_factory.hpp:77] Creating layer res3a
I0416 00:46:17.552636  1229 net.cpp:84] Creating Layer res3a
I0416 00:46:17.552640  1229 net.cpp:406] res3a <- res3a_branch1
I0416 00:46:17.552644  1229 net.cpp:406] res3a <- res3a_branch2c
I0416 00:46:17.552647  1229 net.cpp:380] res3a -> res3a
I0416 00:46:17.552667  1229 net.cpp:122] Setting up res3a
I0416 00:46:17.552671  1229 net.cpp:129] Top shape: 5 512 28 28 (2007040)
I0416 00:46:17.552675  1229 net.cpp:137] Memory required for data: 633221140
I0416 00:46:17.552676  1229 layer_factory.hpp:77] Creating layer res3a_relu
I0416 00:46:17.552681  1229 net.cpp:84] Creating Layer res3a_relu
I0416 00:46:17.552685  1229 net.cpp:406] res3a_relu <- res3a
I0416 00:46:17.552687  1229 net.cpp:367] res3a_relu -> res3a (in-place)
I0416 00:46:17.553077  1229 net.cpp:122] Setting up res3a_relu
I0416 00:46:17.553084  1229 net.cpp:129] Top shape: 5 512 28 28 (2007040)
I0416 00:46:17.553086  1229 net.cpp:137] Memory required for data: 641249300
I0416 00:46:17.553089  1229 layer_factory.hpp:77] Creating layer res3a_res3a_relu_0_split
I0416 00:46:17.553095  1229 net.cpp:84] Creating Layer res3a_res3a_relu_0_split
I0416 00:46:17.553098  1229 net.cpp:406] res3a_res3a_relu_0_split <- res3a
I0416 00:46:17.553102  1229 net.cpp:380] res3a_res3a_relu_0_split -> res3a_res3a_relu_0_split_0
I0416 00:46:17.553108  1229 net.cpp:380] res3a_res3a_relu_0_split -> res3a_res3a_relu_0_split_1
I0416 00:46:17.553149  1229 net.cpp:122] Setting up res3a_res3a_relu_0_split
I0416 00:46:17.553153  1229 net.cpp:129] Top shape: 5 512 28 28 (2007040)
I0416 00:46:17.553158  1229 net.cpp:129] Top shape: 5 512 28 28 (2007040)
I0416 00:46:17.553159  1229 net.cpp:137] Memory required for data: 657305620
I0416 00:46:17.553161  1229 layer_factory.hpp:77] Creating layer res3b1_branch2a
I0416 00:46:17.553167  1229 net.cpp:84] Creating Layer res3b1_branch2a
I0416 00:46:17.553171  1229 net.cpp:406] res3b1_branch2a <- res3a_res3a_relu_0_split_0
I0416 00:46:17.553175  1229 net.cpp:380] res3b1_branch2a -> res3b1_branch2a
I0416 00:46:17.555120  1229 net.cpp:122] Setting up res3b1_branch2a
I0416 00:46:17.555128  1229 net.cpp:129] Top shape: 5 128 28 28 (501760)
I0416 00:46:17.555131  1229 net.cpp:137] Memory required for data: 659312660
I0416 00:46:17.555135  1229 layer_factory.hpp:77] Creating layer bn3b1_branch2a
I0416 00:46:17.555140  1229 net.cpp:84] Creating Layer bn3b1_branch2a
I0416 00:46:17.555142  1229 net.cpp:406] bn3b1_branch2a <- res3b1_branch2a
I0416 00:46:17.555148  1229 net.cpp:367] bn3b1_branch2a -> res3b1_branch2a (in-place)
I0416 00:46:17.555294  1229 net.cpp:122] Setting up bn3b1_branch2a
I0416 00:46:17.555299  1229 net.cpp:129] Top shape: 5 128 28 28 (501760)
I0416 00:46:17.555300  1229 net.cpp:137] Memory required for data: 661319700
I0416 00:46:17.555305  1229 layer_factory.hpp:77] Creating layer scale3b1_branch2a
I0416 00:46:17.555310  1229 net.cpp:84] Creating Layer scale3b1_branch2a
I0416 00:46:17.555313  1229 net.cpp:406] scale3b1_branch2a <- res3b1_branch2a
I0416 00:46:17.555316  1229 net.cpp:367] scale3b1_branch2a -> res3b1_branch2a (in-place)
I0416 00:46:17.555346  1229 layer_factory.hpp:77] Creating layer scale3b1_branch2a
I0416 00:46:17.555428  1229 net.cpp:122] Setting up scale3b1_branch2a
I0416 00:46:17.555433  1229 net.cpp:129] Top shape: 5 128 28 28 (501760)
I0416 00:46:17.555435  1229 net.cpp:137] Memory required for data: 663326740
I0416 00:46:17.555439  1229 layer_factory.hpp:77] Creating layer res3b1_branch2a_relu
I0416 00:46:17.555444  1229 net.cpp:84] Creating Layer res3b1_branch2a_relu
I0416 00:46:17.555447  1229 net.cpp:406] res3b1_branch2a_relu <- res3b1_branch2a
I0416 00:46:17.555451  1229 net.cpp:367] res3b1_branch2a_relu -> res3b1_branch2a (in-place)
I0416 00:46:17.555850  1229 net.cpp:122] Setting up res3b1_branch2a_relu
I0416 00:46:17.555856  1229 net.cpp:129] Top shape: 5 128 28 28 (501760)
I0416 00:46:17.555858  1229 net.cpp:137] Memory required for data: 665333780
I0416 00:46:17.555861  1229 layer_factory.hpp:77] Creating layer res3b1_branch2b
I0416 00:46:17.555867  1229 net.cpp:84] Creating Layer res3b1_branch2b
I0416 00:46:17.555871  1229 net.cpp:406] res3b1_branch2b <- res3b1_branch2a
I0416 00:46:17.555876  1229 net.cpp:380] res3b1_branch2b -> res3b1_branch2b
I0416 00:46:17.558739  1229 net.cpp:122] Setting up res3b1_branch2b
I0416 00:46:17.558748  1229 net.cpp:129] Top shape: 5 128 28 28 (501760)
I0416 00:46:17.558750  1229 net.cpp:137] Memory required for data: 667340820
I0416 00:46:17.558754  1229 layer_factory.hpp:77] Creating layer bn3b1_branch2b
I0416 00:46:17.558760  1229 net.cpp:84] Creating Layer bn3b1_branch2b
I0416 00:46:17.558765  1229 net.cpp:406] bn3b1_branch2b <- res3b1_branch2b
I0416 00:46:17.558769  1229 net.cpp:367] bn3b1_branch2b -> res3b1_branch2b (in-place)
I0416 00:46:17.558914  1229 net.cpp:122] Setting up bn3b1_branch2b
I0416 00:46:17.558919  1229 net.cpp:129] Top shape: 5 128 28 28 (501760)
I0416 00:46:17.558921  1229 net.cpp:137] Memory required for data: 669347860
I0416 00:46:17.558926  1229 layer_factory.hpp:77] Creating layer scale3b1_branch2b
I0416 00:46:17.558933  1229 net.cpp:84] Creating Layer scale3b1_branch2b
I0416 00:46:17.558936  1229 net.cpp:406] scale3b1_branch2b <- res3b1_branch2b
I0416 00:46:17.558940  1229 net.cpp:367] scale3b1_branch2b -> res3b1_branch2b (in-place)
I0416 00:46:17.558971  1229 layer_factory.hpp:77] Creating layer scale3b1_branch2b
I0416 00:46:17.559057  1229 net.cpp:122] Setting up scale3b1_branch2b
I0416 00:46:17.559067  1229 net.cpp:129] Top shape: 5 128 28 28 (501760)
I0416 00:46:17.559069  1229 net.cpp:137] Memory required for data: 671354900
I0416 00:46:17.559073  1229 layer_factory.hpp:77] Creating layer res3b1_branch2b_relu
I0416 00:46:17.559077  1229 net.cpp:84] Creating Layer res3b1_branch2b_relu
I0416 00:46:17.559079  1229 net.cpp:406] res3b1_branch2b_relu <- res3b1_branch2b
I0416 00:46:17.559084  1229 net.cpp:367] res3b1_branch2b_relu -> res3b1_branch2b (in-place)
I0416 00:46:17.559623  1229 net.cpp:122] Setting up res3b1_branch2b_relu
I0416 00:46:17.559630  1229 net.cpp:129] Top shape: 5 128 28 28 (501760)
I0416 00:46:17.559633  1229 net.cpp:137] Memory required for data: 673361940
I0416 00:46:17.559636  1229 layer_factory.hpp:77] Creating layer res3b1_branch2c
I0416 00:46:17.559643  1229 net.cpp:84] Creating Layer res3b1_branch2c
I0416 00:46:17.559646  1229 net.cpp:406] res3b1_branch2c <- res3b1_branch2b
I0416 00:46:17.559650  1229 net.cpp:380] res3b1_branch2c -> res3b1_branch2c
I0416 00:46:17.561478  1229 net.cpp:122] Setting up res3b1_branch2c
I0416 00:46:17.561486  1229 net.cpp:129] Top shape: 5 512 28 28 (2007040)
I0416 00:46:17.561488  1229 net.cpp:137] Memory required for data: 681390100
I0416 00:46:17.561492  1229 layer_factory.hpp:77] Creating layer bn3b1_branch2c
I0416 00:46:17.561498  1229 net.cpp:84] Creating Layer bn3b1_branch2c
I0416 00:46:17.561501  1229 net.cpp:406] bn3b1_branch2c <- res3b1_branch2c
I0416 00:46:17.561504  1229 net.cpp:367] bn3b1_branch2c -> res3b1_branch2c (in-place)
I0416 00:46:17.561653  1229 net.cpp:122] Setting up bn3b1_branch2c
I0416 00:46:17.561658  1229 net.cpp:129] Top shape: 5 512 28 28 (2007040)
I0416 00:46:17.561661  1229 net.cpp:137] Memory required for data: 689418260
I0416 00:46:17.561666  1229 layer_factory.hpp:77] Creating layer scale3b1_branch2c
I0416 00:46:17.561671  1229 net.cpp:84] Creating Layer scale3b1_branch2c
I0416 00:46:17.561672  1229 net.cpp:406] scale3b1_branch2c <- res3b1_branch2c
I0416 00:46:17.561677  1229 net.cpp:367] scale3b1_branch2c -> res3b1_branch2c (in-place)
I0416 00:46:17.561708  1229 layer_factory.hpp:77] Creating layer scale3b1_branch2c
I0416 00:46:17.561794  1229 net.cpp:122] Setting up scale3b1_branch2c
I0416 00:46:17.561800  1229 net.cpp:129] Top shape: 5 512 28 28 (2007040)
I0416 00:46:17.561801  1229 net.cpp:137] Memory required for data: 697446420
I0416 00:46:17.561806  1229 layer_factory.hpp:77] Creating layer res3b1
I0416 00:46:17.561810  1229 net.cpp:84] Creating Layer res3b1
I0416 00:46:17.561815  1229 net.cpp:406] res3b1 <- res3a_res3a_relu_0_split_1
I0416 00:46:17.561817  1229 net.cpp:406] res3b1 <- res3b1_branch2c
I0416 00:46:17.561821  1229 net.cpp:380] res3b1 -> res3b1
I0416 00:46:17.561842  1229 net.cpp:122] Setting up res3b1
I0416 00:46:17.561847  1229 net.cpp:129] Top shape: 5 512 28 28 (2007040)
I0416 00:46:17.561849  1229 net.cpp:137] Memory required for data: 705474580
I0416 00:46:17.561852  1229 layer_factory.hpp:77] Creating layer res3b1_relu
I0416 00:46:17.561856  1229 net.cpp:84] Creating Layer res3b1_relu
I0416 00:46:17.561858  1229 net.cpp:406] res3b1_relu <- res3b1
I0416 00:46:17.561861  1229 net.cpp:367] res3b1_relu -> res3b1 (in-place)
I0416 00:46:17.562352  1229 net.cpp:122] Setting up res3b1_relu
I0416 00:46:17.562358  1229 net.cpp:129] Top shape: 5 512 28 28 (2007040)
I0416 00:46:17.562361  1229 net.cpp:137] Memory required for data: 713502740
I0416 00:46:17.562364  1229 layer_factory.hpp:77] Creating layer res3b1_res3b1_relu_0_split
I0416 00:46:17.562369  1229 net.cpp:84] Creating Layer res3b1_res3b1_relu_0_split
I0416 00:46:17.562372  1229 net.cpp:406] res3b1_res3b1_relu_0_split <- res3b1
I0416 00:46:17.562377  1229 net.cpp:380] res3b1_res3b1_relu_0_split -> res3b1_res3b1_relu_0_split_0
I0416 00:46:17.562382  1229 net.cpp:380] res3b1_res3b1_relu_0_split -> res3b1_res3b1_relu_0_split_1
I0416 00:46:17.562417  1229 net.cpp:122] Setting up res3b1_res3b1_relu_0_split
I0416 00:46:17.562422  1229 net.cpp:129] Top shape: 5 512 28 28 (2007040)
I0416 00:46:17.562424  1229 net.cpp:129] Top shape: 5 512 28 28 (2007040)
I0416 00:46:17.562431  1229 net.cpp:137] Memory required for data: 729559060
I0416 00:46:17.562434  1229 layer_factory.hpp:77] Creating layer res3b2_branch2a
I0416 00:46:17.562441  1229 net.cpp:84] Creating Layer res3b2_branch2a
I0416 00:46:17.562444  1229 net.cpp:406] res3b2_branch2a <- res3b1_res3b1_relu_0_split_0
I0416 00:46:17.562449  1229 net.cpp:380] res3b2_branch2a -> res3b2_branch2a
I0416 00:46:17.564261  1229 net.cpp:122] Setting up res3b2_branch2a
I0416 00:46:17.564270  1229 net.cpp:129] Top shape: 5 128 28 28 (501760)
I0416 00:46:17.564272  1229 net.cpp:137] Memory required for data: 731566100
I0416 00:46:17.564276  1229 layer_factory.hpp:77] Creating layer bn3b2_branch2a
I0416 00:46:17.564280  1229 net.cpp:84] Creating Layer bn3b2_branch2a
I0416 00:46:17.564283  1229 net.cpp:406] bn3b2_branch2a <- res3b2_branch2a
I0416 00:46:17.564288  1229 net.cpp:367] bn3b2_branch2a -> res3b2_branch2a (in-place)
I0416 00:46:17.564437  1229 net.cpp:122] Setting up bn3b2_branch2a
I0416 00:46:17.564442  1229 net.cpp:129] Top shape: 5 128 28 28 (501760)
I0416 00:46:17.564445  1229 net.cpp:137] Memory required for data: 733573140
I0416 00:46:17.564450  1229 layer_factory.hpp:77] Creating layer scale3b2_branch2a
I0416 00:46:17.564455  1229 net.cpp:84] Creating Layer scale3b2_branch2a
I0416 00:46:17.564457  1229 net.cpp:406] scale3b2_branch2a <- res3b2_branch2a
I0416 00:46:17.564461  1229 net.cpp:367] scale3b2_branch2a -> res3b2_branch2a (in-place)
I0416 00:46:17.564491  1229 layer_factory.hpp:77] Creating layer scale3b2_branch2a
I0416 00:46:17.564574  1229 net.cpp:122] Setting up scale3b2_branch2a
I0416 00:46:17.564579  1229 net.cpp:129] Top shape: 5 128 28 28 (501760)
I0416 00:46:17.564580  1229 net.cpp:137] Memory required for data: 735580180
I0416 00:46:17.564584  1229 layer_factory.hpp:77] Creating layer res3b2_branch2a_relu
I0416 00:46:17.564589  1229 net.cpp:84] Creating Layer res3b2_branch2a_relu
I0416 00:46:17.564592  1229 net.cpp:406] res3b2_branch2a_relu <- res3b2_branch2a
I0416 00:46:17.564596  1229 net.cpp:367] res3b2_branch2a_relu -> res3b2_branch2a (in-place)
I0416 00:46:17.564996  1229 net.cpp:122] Setting up res3b2_branch2a_relu
I0416 00:46:17.565001  1229 net.cpp:129] Top shape: 5 128 28 28 (501760)
I0416 00:46:17.565004  1229 net.cpp:137] Memory required for data: 737587220
I0416 00:46:17.565006  1229 layer_factory.hpp:77] Creating layer res3b2_branch2b
I0416 00:46:17.565013  1229 net.cpp:84] Creating Layer res3b2_branch2b
I0416 00:46:17.565017  1229 net.cpp:406] res3b2_branch2b <- res3b2_branch2a
I0416 00:46:17.565022  1229 net.cpp:380] res3b2_branch2b -> res3b2_branch2b
I0416 00:46:17.567508  1229 net.cpp:122] Setting up res3b2_branch2b
I0416 00:46:17.567517  1229 net.cpp:129] Top shape: 5 128 28 28 (501760)
I0416 00:46:17.567518  1229 net.cpp:137] Memory required for data: 739594260
I0416 00:46:17.567523  1229 layer_factory.hpp:77] Creating layer bn3b2_branch2b
I0416 00:46:17.567528  1229 net.cpp:84] Creating Layer bn3b2_branch2b
I0416 00:46:17.567531  1229 net.cpp:406] bn3b2_branch2b <- res3b2_branch2b
I0416 00:46:17.567535  1229 net.cpp:367] bn3b2_branch2b -> res3b2_branch2b (in-place)
I0416 00:46:17.567687  1229 net.cpp:122] Setting up bn3b2_branch2b
I0416 00:46:17.567692  1229 net.cpp:129] Top shape: 5 128 28 28 (501760)
I0416 00:46:17.567694  1229 net.cpp:137] Memory required for data: 741601300
I0416 00:46:17.567699  1229 layer_factory.hpp:77] Creating layer scale3b2_branch2b
I0416 00:46:17.567704  1229 net.cpp:84] Creating Layer scale3b2_branch2b
I0416 00:46:17.567708  1229 net.cpp:406] scale3b2_branch2b <- res3b2_branch2b
I0416 00:46:17.567710  1229 net.cpp:367] scale3b2_branch2b -> res3b2_branch2b (in-place)
I0416 00:46:17.567745  1229 layer_factory.hpp:77] Creating layer scale3b2_branch2b
I0416 00:46:17.567831  1229 net.cpp:122] Setting up scale3b2_branch2b
I0416 00:46:17.567836  1229 net.cpp:129] Top shape: 5 128 28 28 (501760)
I0416 00:46:17.567837  1229 net.cpp:137] Memory required for data: 743608340
I0416 00:46:17.567842  1229 layer_factory.hpp:77] Creating layer res3b2_branch2b_relu
I0416 00:46:17.567852  1229 net.cpp:84] Creating Layer res3b2_branch2b_relu
I0416 00:46:17.567855  1229 net.cpp:406] res3b2_branch2b_relu <- res3b2_branch2b
I0416 00:46:17.567858  1229 net.cpp:367] res3b2_branch2b_relu -> res3b2_branch2b (in-place)
I0416 00:46:17.568248  1229 net.cpp:122] Setting up res3b2_branch2b_relu
I0416 00:46:17.568253  1229 net.cpp:129] Top shape: 5 128 28 28 (501760)
I0416 00:46:17.568255  1229 net.cpp:137] Memory required for data: 745615380
I0416 00:46:17.568259  1229 layer_factory.hpp:77] Creating layer res3b2_branch2c
I0416 00:46:17.568264  1229 net.cpp:84] Creating Layer res3b2_branch2c
I0416 00:46:17.568269  1229 net.cpp:406] res3b2_branch2c <- res3b2_branch2b
I0416 00:46:17.568274  1229 net.cpp:380] res3b2_branch2c -> res3b2_branch2c
I0416 00:46:17.570118  1229 net.cpp:122] Setting up res3b2_branch2c
I0416 00:46:17.570125  1229 net.cpp:129] Top shape: 5 512 28 28 (2007040)
I0416 00:46:17.570128  1229 net.cpp:137] Memory required for data: 753643540
I0416 00:46:17.570132  1229 layer_factory.hpp:77] Creating layer bn3b2_branch2c
I0416 00:46:17.570137  1229 net.cpp:84] Creating Layer bn3b2_branch2c
I0416 00:46:17.570139  1229 net.cpp:406] bn3b2_branch2c <- res3b2_branch2c
I0416 00:46:17.570143  1229 net.cpp:367] bn3b2_branch2c -> res3b2_branch2c (in-place)
I0416 00:46:17.570291  1229 net.cpp:122] Setting up bn3b2_branch2c
I0416 00:46:17.570297  1229 net.cpp:129] Top shape: 5 512 28 28 (2007040)
I0416 00:46:17.570298  1229 net.cpp:137] Memory required for data: 761671700
I0416 00:46:17.570303  1229 layer_factory.hpp:77] Creating layer scale3b2_branch2c
I0416 00:46:17.570307  1229 net.cpp:84] Creating Layer scale3b2_branch2c
I0416 00:46:17.570312  1229 net.cpp:406] scale3b2_branch2c <- res3b2_branch2c
I0416 00:46:17.570314  1229 net.cpp:367] scale3b2_branch2c -> res3b2_branch2c (in-place)
I0416 00:46:17.570346  1229 layer_factory.hpp:77] Creating layer scale3b2_branch2c
I0416 00:46:17.570427  1229 net.cpp:122] Setting up scale3b2_branch2c
I0416 00:46:17.570431  1229 net.cpp:129] Top shape: 5 512 28 28 (2007040)
I0416 00:46:17.570435  1229 net.cpp:137] Memory required for data: 769699860
I0416 00:46:17.570437  1229 layer_factory.hpp:77] Creating layer res3b2
I0416 00:46:17.570443  1229 net.cpp:84] Creating Layer res3b2
I0416 00:46:17.570446  1229 net.cpp:406] res3b2 <- res3b1_res3b1_relu_0_split_1
I0416 00:46:17.570449  1229 net.cpp:406] res3b2 <- res3b2_branch2c
I0416 00:46:17.570453  1229 net.cpp:380] res3b2 -> res3b2
I0416 00:46:17.570474  1229 net.cpp:122] Setting up res3b2
I0416 00:46:17.570478  1229 net.cpp:129] Top shape: 5 512 28 28 (2007040)
I0416 00:46:17.570480  1229 net.cpp:137] Memory required for data: 777728020
I0416 00:46:17.570483  1229 layer_factory.hpp:77] Creating layer res3b2_relu
I0416 00:46:17.570487  1229 net.cpp:84] Creating Layer res3b2_relu
I0416 00:46:17.570489  1229 net.cpp:406] res3b2_relu <- res3b2
I0416 00:46:17.570493  1229 net.cpp:367] res3b2_relu -> res3b2 (in-place)
I0416 00:46:17.570996  1229 net.cpp:122] Setting up res3b2_relu
I0416 00:46:17.571002  1229 net.cpp:129] Top shape: 5 512 28 28 (2007040)
I0416 00:46:17.571005  1229 net.cpp:137] Memory required for data: 785756180
I0416 00:46:17.571007  1229 layer_factory.hpp:77] Creating layer res3b2_res3b2_relu_0_split
I0416 00:46:17.571012  1229 net.cpp:84] Creating Layer res3b2_res3b2_relu_0_split
I0416 00:46:17.571014  1229 net.cpp:406] res3b2_res3b2_relu_0_split <- res3b2
I0416 00:46:17.571020  1229 net.cpp:380] res3b2_res3b2_relu_0_split -> res3b2_res3b2_relu_0_split_0
I0416 00:46:17.571027  1229 net.cpp:380] res3b2_res3b2_relu_0_split -> res3b2_res3b2_relu_0_split_1
I0416 00:46:17.571060  1229 net.cpp:122] Setting up res3b2_res3b2_relu_0_split
I0416 00:46:17.571065  1229 net.cpp:129] Top shape: 5 512 28 28 (2007040)
I0416 00:46:17.571069  1229 net.cpp:129] Top shape: 5 512 28 28 (2007040)
I0416 00:46:17.571070  1229 net.cpp:137] Memory required for data: 801812500
I0416 00:46:17.571074  1229 layer_factory.hpp:77] Creating layer res3b3_branch2a
I0416 00:46:17.571079  1229 net.cpp:84] Creating Layer res3b3_branch2a
I0416 00:46:17.571087  1229 net.cpp:406] res3b3_branch2a <- res3b2_res3b2_relu_0_split_0
I0416 00:46:17.571091  1229 net.cpp:380] res3b3_branch2a -> res3b3_branch2a
I0416 00:46:17.573407  1229 net.cpp:122] Setting up res3b3_branch2a
I0416 00:46:17.573415  1229 net.cpp:129] Top shape: 5 128 28 28 (501760)
I0416 00:46:17.573417  1229 net.cpp:137] Memory required for data: 803819540
I0416 00:46:17.573421  1229 layer_factory.hpp:77] Creating layer bn3b3_branch2a
I0416 00:46:17.573427  1229 net.cpp:84] Creating Layer bn3b3_branch2a
I0416 00:46:17.573431  1229 net.cpp:406] bn3b3_branch2a <- res3b3_branch2a
I0416 00:46:17.573436  1229 net.cpp:367] bn3b3_branch2a -> res3b3_branch2a (in-place)
I0416 00:46:17.573587  1229 net.cpp:122] Setting up bn3b3_branch2a
I0416 00:46:17.573592  1229 net.cpp:129] Top shape: 5 128 28 28 (501760)
I0416 00:46:17.573595  1229 net.cpp:137] Memory required for data: 805826580
I0416 00:46:17.573606  1229 layer_factory.hpp:77] Creating layer scale3b3_branch2a
I0416 00:46:17.573611  1229 net.cpp:84] Creating Layer scale3b3_branch2a
I0416 00:46:17.573613  1229 net.cpp:406] scale3b3_branch2a <- res3b3_branch2a
I0416 00:46:17.573617  1229 net.cpp:367] scale3b3_branch2a -> res3b3_branch2a (in-place)
I0416 00:46:17.573650  1229 layer_factory.hpp:77] Creating layer scale3b3_branch2a
I0416 00:46:17.573735  1229 net.cpp:122] Setting up scale3b3_branch2a
I0416 00:46:17.573743  1229 net.cpp:129] Top shape: 5 128 28 28 (501760)
I0416 00:46:17.573746  1229 net.cpp:137] Memory required for data: 807833620
I0416 00:46:17.573750  1229 layer_factory.hpp:77] Creating layer res3b3_branch2a_relu
I0416 00:46:17.573756  1229 net.cpp:84] Creating Layer res3b3_branch2a_relu
I0416 00:46:17.573760  1229 net.cpp:406] res3b3_branch2a_relu <- res3b3_branch2a
I0416 00:46:17.573763  1229 net.cpp:367] res3b3_branch2a_relu -> res3b3_branch2a (in-place)
I0416 00:46:17.574154  1229 net.cpp:122] Setting up res3b3_branch2a_relu
I0416 00:46:17.574160  1229 net.cpp:129] Top shape: 5 128 28 28 (501760)
I0416 00:46:17.574162  1229 net.cpp:137] Memory required for data: 809840660
I0416 00:46:17.574165  1229 layer_factory.hpp:77] Creating layer res3b3_branch2b
I0416 00:46:17.574172  1229 net.cpp:84] Creating Layer res3b3_branch2b
I0416 00:46:17.574175  1229 net.cpp:406] res3b3_branch2b <- res3b3_branch2a
I0416 00:46:17.574180  1229 net.cpp:380] res3b3_branch2b -> res3b3_branch2b
I0416 00:46:17.576689  1229 net.cpp:122] Setting up res3b3_branch2b
I0416 00:46:17.576697  1229 net.cpp:129] Top shape: 5 128 28 28 (501760)
I0416 00:46:17.576699  1229 net.cpp:137] Memory required for data: 811847700
I0416 00:46:17.576704  1229 layer_factory.hpp:77] Creating layer bn3b3_branch2b
I0416 00:46:17.576709  1229 net.cpp:84] Creating Layer bn3b3_branch2b
I0416 00:46:17.576711  1229 net.cpp:406] bn3b3_branch2b <- res3b3_branch2b
I0416 00:46:17.576715  1229 net.cpp:367] bn3b3_branch2b -> res3b3_branch2b (in-place)
I0416 00:46:17.576882  1229 net.cpp:122] Setting up bn3b3_branch2b
I0416 00:46:17.576887  1229 net.cpp:129] Top shape: 5 128 28 28 (501760)
I0416 00:46:17.576890  1229 net.cpp:137] Memory required for data: 813854740
I0416 00:46:17.576895  1229 layer_factory.hpp:77] Creating layer scale3b3_branch2b
I0416 00:46:17.576900  1229 net.cpp:84] Creating Layer scale3b3_branch2b
I0416 00:46:17.576903  1229 net.cpp:406] scale3b3_branch2b <- res3b3_branch2b
I0416 00:46:17.576907  1229 net.cpp:367] scale3b3_branch2b -> res3b3_branch2b (in-place)
I0416 00:46:17.576941  1229 layer_factory.hpp:77] Creating layer scale3b3_branch2b
I0416 00:46:17.577025  1229 net.cpp:122] Setting up scale3b3_branch2b
I0416 00:46:17.577029  1229 net.cpp:129] Top shape: 5 128 28 28 (501760)
I0416 00:46:17.577031  1229 net.cpp:137] Memory required for data: 815861780
I0416 00:46:17.577035  1229 layer_factory.hpp:77] Creating layer res3b3_branch2b_relu
I0416 00:46:17.577041  1229 net.cpp:84] Creating Layer res3b3_branch2b_relu
I0416 00:46:17.577044  1229 net.cpp:406] res3b3_branch2b_relu <- res3b3_branch2b
I0416 00:46:17.577047  1229 net.cpp:367] res3b3_branch2b_relu -> res3b3_branch2b (in-place)
I0416 00:46:17.577446  1229 net.cpp:122] Setting up res3b3_branch2b_relu
I0416 00:46:17.577452  1229 net.cpp:129] Top shape: 5 128 28 28 (501760)
I0416 00:46:17.577455  1229 net.cpp:137] Memory required for data: 817868820
I0416 00:46:17.577457  1229 layer_factory.hpp:77] Creating layer res3b3_branch2c
I0416 00:46:17.577463  1229 net.cpp:84] Creating Layer res3b3_branch2c
I0416 00:46:17.577467  1229 net.cpp:406] res3b3_branch2c <- res3b3_branch2b
I0416 00:46:17.577472  1229 net.cpp:380] res3b3_branch2c -> res3b3_branch2c
I0416 00:46:17.579474  1229 net.cpp:122] Setting up res3b3_branch2c
I0416 00:46:17.579483  1229 net.cpp:129] Top shape: 5 512 28 28 (2007040)
I0416 00:46:17.579485  1229 net.cpp:137] Memory required for data: 825896980
I0416 00:46:17.579489  1229 layer_factory.hpp:77] Creating layer bn3b3_branch2c
I0416 00:46:17.579493  1229 net.cpp:84] Creating Layer bn3b3_branch2c
I0416 00:46:17.579499  1229 net.cpp:406] bn3b3_branch2c <- res3b3_branch2c
I0416 00:46:17.579504  1229 net.cpp:367] bn3b3_branch2c -> res3b3_branch2c (in-place)
I0416 00:46:17.579658  1229 net.cpp:122] Setting up bn3b3_branch2c
I0416 00:46:17.579663  1229 net.cpp:129] Top shape: 5 512 28 28 (2007040)
I0416 00:46:17.579665  1229 net.cpp:137] Memory required for data: 833925140
I0416 00:46:17.579670  1229 layer_factory.hpp:77] Creating layer scale3b3_branch2c
I0416 00:46:17.579674  1229 net.cpp:84] Creating Layer scale3b3_branch2c
I0416 00:46:17.579677  1229 net.cpp:406] scale3b3_branch2c <- res3b3_branch2c
I0416 00:46:17.579681  1229 net.cpp:367] scale3b3_branch2c -> res3b3_branch2c (in-place)
I0416 00:46:17.579715  1229 layer_factory.hpp:77] Creating layer scale3b3_branch2c
I0416 00:46:17.579804  1229 net.cpp:122] Setting up scale3b3_branch2c
I0416 00:46:17.579809  1229 net.cpp:129] Top shape: 5 512 28 28 (2007040)
I0416 00:46:17.579812  1229 net.cpp:137] Memory required for data: 841953300
I0416 00:46:17.579815  1229 layer_factory.hpp:77] Creating layer res3b3
I0416 00:46:17.579821  1229 net.cpp:84] Creating Layer res3b3
I0416 00:46:17.579825  1229 net.cpp:406] res3b3 <- res3b2_res3b2_relu_0_split_1
I0416 00:46:17.579828  1229 net.cpp:406] res3b3 <- res3b3_branch2c
I0416 00:46:17.579833  1229 net.cpp:380] res3b3 -> res3b3
I0416 00:46:17.579852  1229 net.cpp:122] Setting up res3b3
I0416 00:46:17.579856  1229 net.cpp:129] Top shape: 5 512 28 28 (2007040)
I0416 00:46:17.579859  1229 net.cpp:137] Memory required for data: 849981460
I0416 00:46:17.579861  1229 layer_factory.hpp:77] Creating layer res3b3_relu
I0416 00:46:17.579865  1229 net.cpp:84] Creating Layer res3b3_relu
I0416 00:46:17.579869  1229 net.cpp:406] res3b3_relu <- res3b3
I0416 00:46:17.579872  1229 net.cpp:367] res3b3_relu -> res3b3 (in-place)
I0416 00:46:17.580380  1229 net.cpp:122] Setting up res3b3_relu
I0416 00:46:17.580386  1229 net.cpp:129] Top shape: 5 512 28 28 (2007040)
I0416 00:46:17.580389  1229 net.cpp:137] Memory required for data: 858009620
I0416 00:46:17.580391  1229 layer_factory.hpp:77] Creating layer res3b3_res3b3_relu_0_split
I0416 00:46:17.580396  1229 net.cpp:84] Creating Layer res3b3_res3b3_relu_0_split
I0416 00:46:17.580399  1229 net.cpp:406] res3b3_res3b3_relu_0_split <- res3b3
I0416 00:46:17.580404  1229 net.cpp:380] res3b3_res3b3_relu_0_split -> res3b3_res3b3_relu_0_split_0
I0416 00:46:17.580410  1229 net.cpp:380] res3b3_res3b3_relu_0_split -> res3b3_res3b3_relu_0_split_1
I0416 00:46:17.580446  1229 net.cpp:122] Setting up res3b3_res3b3_relu_0_split
I0416 00:46:17.580451  1229 net.cpp:129] Top shape: 5 512 28 28 (2007040)
I0416 00:46:17.580453  1229 net.cpp:129] Top shape: 5 512 28 28 (2007040)
I0416 00:46:17.580456  1229 net.cpp:137] Memory required for data: 874065940
I0416 00:46:17.580457  1229 layer_factory.hpp:77] Creating layer res3b4_branch2a
I0416 00:46:17.580464  1229 net.cpp:84] Creating Layer res3b4_branch2a
I0416 00:46:17.580467  1229 net.cpp:406] res3b4_branch2a <- res3b3_res3b3_relu_0_split_0
I0416 00:46:17.580471  1229 net.cpp:380] res3b4_branch2a -> res3b4_branch2a
I0416 00:46:17.582339  1229 net.cpp:122] Setting up res3b4_branch2a
I0416 00:46:17.582352  1229 net.cpp:129] Top shape: 5 128 28 28 (501760)
I0416 00:46:17.582355  1229 net.cpp:137] Memory required for data: 876072980
I0416 00:46:17.582360  1229 layer_factory.hpp:77] Creating layer bn3b4_branch2a
I0416 00:46:17.582365  1229 net.cpp:84] Creating Layer bn3b4_branch2a
I0416 00:46:17.582370  1229 net.cpp:406] bn3b4_branch2a <- res3b4_branch2a
I0416 00:46:17.582373  1229 net.cpp:367] bn3b4_branch2a -> res3b4_branch2a (in-place)
I0416 00:46:17.582528  1229 net.cpp:122] Setting up bn3b4_branch2a
I0416 00:46:17.582533  1229 net.cpp:129] Top shape: 5 128 28 28 (501760)
I0416 00:46:17.582535  1229 net.cpp:137] Memory required for data: 878080020
I0416 00:46:17.582540  1229 layer_factory.hpp:77] Creating layer scale3b4_branch2a
I0416 00:46:17.582545  1229 net.cpp:84] Creating Layer scale3b4_branch2a
I0416 00:46:17.582548  1229 net.cpp:406] scale3b4_branch2a <- res3b4_branch2a
I0416 00:46:17.582552  1229 net.cpp:367] scale3b4_branch2a -> res3b4_branch2a (in-place)
I0416 00:46:17.582586  1229 layer_factory.hpp:77] Creating layer scale3b4_branch2a
I0416 00:46:17.582674  1229 net.cpp:122] Setting up scale3b4_branch2a
I0416 00:46:17.582679  1229 net.cpp:129] Top shape: 5 128 28 28 (501760)
I0416 00:46:17.582680  1229 net.cpp:137] Memory required for data: 880087060
I0416 00:46:17.582684  1229 layer_factory.hpp:77] Creating layer res3b4_branch2a_relu
I0416 00:46:17.582689  1229 net.cpp:84] Creating Layer res3b4_branch2a_relu
I0416 00:46:17.582690  1229 net.cpp:406] res3b4_branch2a_relu <- res3b4_branch2a
I0416 00:46:17.582695  1229 net.cpp:367] res3b4_branch2a_relu -> res3b4_branch2a (in-place)
I0416 00:46:17.583092  1229 net.cpp:122] Setting up res3b4_branch2a_relu
I0416 00:46:17.583098  1229 net.cpp:129] Top shape: 5 128 28 28 (501760)
I0416 00:46:17.583101  1229 net.cpp:137] Memory required for data: 882094100
I0416 00:46:17.583103  1229 layer_factory.hpp:77] Creating layer res3b4_branch2b
I0416 00:46:17.583109  1229 net.cpp:84] Creating Layer res3b4_branch2b
I0416 00:46:17.583114  1229 net.cpp:406] res3b4_branch2b <- res3b4_branch2a
I0416 00:46:17.583118  1229 net.cpp:380] res3b4_branch2b -> res3b4_branch2b
I0416 00:46:17.586223  1229 net.cpp:122] Setting up res3b4_branch2b
I0416 00:46:17.586231  1229 net.cpp:129] Top shape: 5 128 28 28 (501760)
I0416 00:46:17.586235  1229 net.cpp:137] Memory required for data: 884101140
I0416 00:46:17.586238  1229 layer_factory.hpp:77] Creating layer bn3b4_branch2b
I0416 00:46:17.586244  1229 net.cpp:84] Creating Layer bn3b4_branch2b
I0416 00:46:17.586247  1229 net.cpp:406] bn3b4_branch2b <- res3b4_branch2b
I0416 00:46:17.586251  1229 net.cpp:367] bn3b4_branch2b -> res3b4_branch2b (in-place)
I0416 00:46:17.586410  1229 net.cpp:122] Setting up bn3b4_branch2b
I0416 00:46:17.586414  1229 net.cpp:129] Top shape: 5 128 28 28 (501760)
I0416 00:46:17.586417  1229 net.cpp:137] Memory required for data: 886108180
I0416 00:46:17.586422  1229 layer_factory.hpp:77] Creating layer scale3b4_branch2b
I0416 00:46:17.586426  1229 net.cpp:84] Creating Layer scale3b4_branch2b
I0416 00:46:17.586429  1229 net.cpp:406] scale3b4_branch2b <- res3b4_branch2b
I0416 00:46:17.586433  1229 net.cpp:367] scale3b4_branch2b -> res3b4_branch2b (in-place)
I0416 00:46:17.586467  1229 layer_factory.hpp:77] Creating layer scale3b4_branch2b
I0416 00:46:17.586557  1229 net.cpp:122] Setting up scale3b4_branch2b
I0416 00:46:17.586561  1229 net.cpp:129] Top shape: 5 128 28 28 (501760)
I0416 00:46:17.586565  1229 net.cpp:137] Memory required for data: 888115220
I0416 00:46:17.586568  1229 layer_factory.hpp:77] Creating layer res3b4_branch2b_relu
I0416 00:46:17.586571  1229 net.cpp:84] Creating Layer res3b4_branch2b_relu
I0416 00:46:17.586575  1229 net.cpp:406] res3b4_branch2b_relu <- res3b4_branch2b
I0416 00:46:17.586580  1229 net.cpp:367] res3b4_branch2b_relu -> res3b4_branch2b (in-place)
I0416 00:46:17.586979  1229 net.cpp:122] Setting up res3b4_branch2b_relu
I0416 00:46:17.586985  1229 net.cpp:129] Top shape: 5 128 28 28 (501760)
I0416 00:46:17.586988  1229 net.cpp:137] Memory required for data: 890122260
I0416 00:46:17.586997  1229 layer_factory.hpp:77] Creating layer res3b4_branch2c
I0416 00:46:17.587003  1229 net.cpp:84] Creating Layer res3b4_branch2c
I0416 00:46:17.587007  1229 net.cpp:406] res3b4_branch2c <- res3b4_branch2b
I0416 00:46:17.587011  1229 net.cpp:380] res3b4_branch2c -> res3b4_branch2c
I0416 00:46:17.588860  1229 net.cpp:122] Setting up res3b4_branch2c
I0416 00:46:17.588866  1229 net.cpp:129] Top shape: 5 512 28 28 (2007040)
I0416 00:46:17.588870  1229 net.cpp:137] Memory required for data: 898150420
I0416 00:46:17.588873  1229 layer_factory.hpp:77] Creating layer bn3b4_branch2c
I0416 00:46:17.588878  1229 net.cpp:84] Creating Layer bn3b4_branch2c
I0416 00:46:17.588881  1229 net.cpp:406] bn3b4_branch2c <- res3b4_branch2c
I0416 00:46:17.588886  1229 net.cpp:367] bn3b4_branch2c -> res3b4_branch2c (in-place)
I0416 00:46:17.589042  1229 net.cpp:122] Setting up bn3b4_branch2c
I0416 00:46:17.589047  1229 net.cpp:129] Top shape: 5 512 28 28 (2007040)
I0416 00:46:17.589049  1229 net.cpp:137] Memory required for data: 906178580
I0416 00:46:17.589054  1229 layer_factory.hpp:77] Creating layer scale3b4_branch2c
I0416 00:46:17.589061  1229 net.cpp:84] Creating Layer scale3b4_branch2c
I0416 00:46:17.589062  1229 net.cpp:406] scale3b4_branch2c <- res3b4_branch2c
I0416 00:46:17.589066  1229 net.cpp:367] scale3b4_branch2c -> res3b4_branch2c (in-place)
I0416 00:46:17.589099  1229 layer_factory.hpp:77] Creating layer scale3b4_branch2c
I0416 00:46:17.589185  1229 net.cpp:122] Setting up scale3b4_branch2c
I0416 00:46:17.589190  1229 net.cpp:129] Top shape: 5 512 28 28 (2007040)
I0416 00:46:17.589191  1229 net.cpp:137] Memory required for data: 914206740
I0416 00:46:17.589195  1229 layer_factory.hpp:77] Creating layer res3b4
I0416 00:46:17.589200  1229 net.cpp:84] Creating Layer res3b4
I0416 00:46:17.589203  1229 net.cpp:406] res3b4 <- res3b3_res3b3_relu_0_split_1
I0416 00:46:17.589207  1229 net.cpp:406] res3b4 <- res3b4_branch2c
I0416 00:46:17.589212  1229 net.cpp:380] res3b4 -> res3b4
I0416 00:46:17.589232  1229 net.cpp:122] Setting up res3b4
I0416 00:46:17.589236  1229 net.cpp:129] Top shape: 5 512 28 28 (2007040)
I0416 00:46:17.589238  1229 net.cpp:137] Memory required for data: 922234900
I0416 00:46:17.589241  1229 layer_factory.hpp:77] Creating layer res3b4_relu
I0416 00:46:17.589246  1229 net.cpp:84] Creating Layer res3b4_relu
I0416 00:46:17.589251  1229 net.cpp:406] res3b4_relu <- res3b4
I0416 00:46:17.589253  1229 net.cpp:367] res3b4_relu -> res3b4 (in-place)
I0416 00:46:17.589758  1229 net.cpp:122] Setting up res3b4_relu
I0416 00:46:17.589766  1229 net.cpp:129] Top shape: 5 512 28 28 (2007040)
I0416 00:46:17.589768  1229 net.cpp:137] Memory required for data: 930263060
I0416 00:46:17.589771  1229 layer_factory.hpp:77] Creating layer res3b4_res3b4_relu_0_split
I0416 00:46:17.589776  1229 net.cpp:84] Creating Layer res3b4_res3b4_relu_0_split
I0416 00:46:17.589779  1229 net.cpp:406] res3b4_res3b4_relu_0_split <- res3b4
I0416 00:46:17.589784  1229 net.cpp:380] res3b4_res3b4_relu_0_split -> res3b4_res3b4_relu_0_split_0
I0416 00:46:17.589789  1229 net.cpp:380] res3b4_res3b4_relu_0_split -> res3b4_res3b4_relu_0_split_1
I0416 00:46:17.589826  1229 net.cpp:122] Setting up res3b4_res3b4_relu_0_split
I0416 00:46:17.589830  1229 net.cpp:129] Top shape: 5 512 28 28 (2007040)
I0416 00:46:17.589833  1229 net.cpp:129] Top shape: 5 512 28 28 (2007040)
I0416 00:46:17.589836  1229 net.cpp:137] Memory required for data: 946319380
I0416 00:46:17.589838  1229 layer_factory.hpp:77] Creating layer res3b5_branch2a
I0416 00:46:17.589844  1229 net.cpp:84] Creating Layer res3b5_branch2a
I0416 00:46:17.589848  1229 net.cpp:406] res3b5_branch2a <- res3b4_res3b4_relu_0_split_0
I0416 00:46:17.589854  1229 net.cpp:380] res3b5_branch2a -> res3b5_branch2a
I0416 00:46:17.591796  1229 net.cpp:122] Setting up res3b5_branch2a
I0416 00:46:17.591804  1229 net.cpp:129] Top shape: 5 128 28 28 (501760)
I0416 00:46:17.591806  1229 net.cpp:137] Memory required for data: 948326420
I0416 00:46:17.591810  1229 layer_factory.hpp:77] Creating layer bn3b5_branch2a
I0416 00:46:17.591821  1229 net.cpp:84] Creating Layer bn3b5_branch2a
I0416 00:46:17.591826  1229 net.cpp:406] bn3b5_branch2a <- res3b5_branch2a
I0416 00:46:17.591830  1229 net.cpp:367] bn3b5_branch2a -> res3b5_branch2a (in-place)
I0416 00:46:17.591989  1229 net.cpp:122] Setting up bn3b5_branch2a
I0416 00:46:17.591995  1229 net.cpp:129] Top shape: 5 128 28 28 (501760)
I0416 00:46:17.591996  1229 net.cpp:137] Memory required for data: 950333460
I0416 00:46:17.592001  1229 layer_factory.hpp:77] Creating layer scale3b5_branch2a
I0416 00:46:17.592005  1229 net.cpp:84] Creating Layer scale3b5_branch2a
I0416 00:46:17.592010  1229 net.cpp:406] scale3b5_branch2a <- res3b5_branch2a
I0416 00:46:17.592012  1229 net.cpp:367] scale3b5_branch2a -> res3b5_branch2a (in-place)
I0416 00:46:17.592046  1229 layer_factory.hpp:77] Creating layer scale3b5_branch2a
I0416 00:46:17.592135  1229 net.cpp:122] Setting up scale3b5_branch2a
I0416 00:46:17.592140  1229 net.cpp:129] Top shape: 5 128 28 28 (501760)
I0416 00:46:17.592142  1229 net.cpp:137] Memory required for data: 952340500
I0416 00:46:17.592146  1229 layer_factory.hpp:77] Creating layer res3b5_branch2a_relu
I0416 00:46:17.592155  1229 net.cpp:84] Creating Layer res3b5_branch2a_relu
I0416 00:46:17.592159  1229 net.cpp:406] res3b5_branch2a_relu <- res3b5_branch2a
I0416 00:46:17.592162  1229 net.cpp:367] res3b5_branch2a_relu -> res3b5_branch2a (in-place)
I0416 00:46:17.592661  1229 net.cpp:122] Setting up res3b5_branch2a_relu
I0416 00:46:17.592669  1229 net.cpp:129] Top shape: 5 128 28 28 (501760)
I0416 00:46:17.592670  1229 net.cpp:137] Memory required for data: 954347540
I0416 00:46:17.592674  1229 layer_factory.hpp:77] Creating layer res3b5_branch2b
I0416 00:46:17.592679  1229 net.cpp:84] Creating Layer res3b5_branch2b
I0416 00:46:17.592684  1229 net.cpp:406] res3b5_branch2b <- res3b5_branch2a
I0416 00:46:17.592689  1229 net.cpp:380] res3b5_branch2b -> res3b5_branch2b
I0416 00:46:17.595106  1229 net.cpp:122] Setting up res3b5_branch2b
I0416 00:46:17.595114  1229 net.cpp:129] Top shape: 5 128 28 28 (501760)
I0416 00:46:17.595118  1229 net.cpp:137] Memory required for data: 956354580
I0416 00:46:17.595121  1229 layer_factory.hpp:77] Creating layer bn3b5_branch2b
I0416 00:46:17.595126  1229 net.cpp:84] Creating Layer bn3b5_branch2b
I0416 00:46:17.595130  1229 net.cpp:406] bn3b5_branch2b <- res3b5_branch2b
I0416 00:46:17.595134  1229 net.cpp:367] bn3b5_branch2b -> res3b5_branch2b (in-place)
I0416 00:46:17.595296  1229 net.cpp:122] Setting up bn3b5_branch2b
I0416 00:46:17.595301  1229 net.cpp:129] Top shape: 5 128 28 28 (501760)
I0416 00:46:17.595304  1229 net.cpp:137] Memory required for data: 958361620
I0416 00:46:17.595309  1229 layer_factory.hpp:77] Creating layer scale3b5_branch2b
I0416 00:46:17.595314  1229 net.cpp:84] Creating Layer scale3b5_branch2b
I0416 00:46:17.595316  1229 net.cpp:406] scale3b5_branch2b <- res3b5_branch2b
I0416 00:46:17.595320  1229 net.cpp:367] scale3b5_branch2b -> res3b5_branch2b (in-place)
I0416 00:46:17.595355  1229 layer_factory.hpp:77] Creating layer scale3b5_branch2b
I0416 00:46:17.595444  1229 net.cpp:122] Setting up scale3b5_branch2b
I0416 00:46:17.595448  1229 net.cpp:129] Top shape: 5 128 28 28 (501760)
I0416 00:46:17.595450  1229 net.cpp:137] Memory required for data: 960368660
I0416 00:46:17.595454  1229 layer_factory.hpp:77] Creating layer res3b5_branch2b_relu
I0416 00:46:17.595459  1229 net.cpp:84] Creating Layer res3b5_branch2b_relu
I0416 00:46:17.595463  1229 net.cpp:406] res3b5_branch2b_relu <- res3b5_branch2b
I0416 00:46:17.595466  1229 net.cpp:367] res3b5_branch2b_relu -> res3b5_branch2b (in-place)
I0416 00:46:17.595863  1229 net.cpp:122] Setting up res3b5_branch2b_relu
I0416 00:46:17.595870  1229 net.cpp:129] Top shape: 5 128 28 28 (501760)
I0416 00:46:17.595871  1229 net.cpp:137] Memory required for data: 962375700
I0416 00:46:17.595875  1229 layer_factory.hpp:77] Creating layer res3b5_branch2c
I0416 00:46:17.595880  1229 net.cpp:84] Creating Layer res3b5_branch2c
I0416 00:46:17.595885  1229 net.cpp:406] res3b5_branch2c <- res3b5_branch2b
I0416 00:46:17.595894  1229 net.cpp:380] res3b5_branch2c -> res3b5_branch2c
I0416 00:46:17.597858  1229 net.cpp:122] Setting up res3b5_branch2c
I0416 00:46:17.597867  1229 net.cpp:129] Top shape: 5 512 28 28 (2007040)
I0416 00:46:17.597868  1229 net.cpp:137] Memory required for data: 970403860
I0416 00:46:17.597872  1229 layer_factory.hpp:77] Creating layer bn3b5_branch2c
I0416 00:46:17.597877  1229 net.cpp:84] Creating Layer bn3b5_branch2c
I0416 00:46:17.597880  1229 net.cpp:406] bn3b5_branch2c <- res3b5_branch2c
I0416 00:46:17.597885  1229 net.cpp:367] bn3b5_branch2c -> res3b5_branch2c (in-place)
I0416 00:46:17.598050  1229 net.cpp:122] Setting up bn3b5_branch2c
I0416 00:46:17.598054  1229 net.cpp:129] Top shape: 5 512 28 28 (2007040)
I0416 00:46:17.598057  1229 net.cpp:137] Memory required for data: 978432020
I0416 00:46:17.598062  1229 layer_factory.hpp:77] Creating layer scale3b5_branch2c
I0416 00:46:17.598067  1229 net.cpp:84] Creating Layer scale3b5_branch2c
I0416 00:46:17.598069  1229 net.cpp:406] scale3b5_branch2c <- res3b5_branch2c
I0416 00:46:17.598073  1229 net.cpp:367] scale3b5_branch2c -> res3b5_branch2c (in-place)
I0416 00:46:17.598106  1229 layer_factory.hpp:77] Creating layer scale3b5_branch2c
I0416 00:46:17.598194  1229 net.cpp:122] Setting up scale3b5_branch2c
I0416 00:46:17.598198  1229 net.cpp:129] Top shape: 5 512 28 28 (2007040)
I0416 00:46:17.598201  1229 net.cpp:137] Memory required for data: 986460180
I0416 00:46:17.598206  1229 layer_factory.hpp:77] Creating layer res3b5
I0416 00:46:17.598211  1229 net.cpp:84] Creating Layer res3b5
I0416 00:46:17.598214  1229 net.cpp:406] res3b5 <- res3b4_res3b4_relu_0_split_1
I0416 00:46:17.598217  1229 net.cpp:406] res3b5 <- res3b5_branch2c
I0416 00:46:17.598222  1229 net.cpp:380] res3b5 -> res3b5
I0416 00:46:17.598242  1229 net.cpp:122] Setting up res3b5
I0416 00:46:17.598246  1229 net.cpp:129] Top shape: 5 512 28 28 (2007040)
I0416 00:46:17.598248  1229 net.cpp:137] Memory required for data: 994488340
I0416 00:46:17.598251  1229 layer_factory.hpp:77] Creating layer res3b5_relu
I0416 00:46:17.598255  1229 net.cpp:84] Creating Layer res3b5_relu
I0416 00:46:17.598258  1229 net.cpp:406] res3b5_relu <- res3b5
I0416 00:46:17.598263  1229 net.cpp:367] res3b5_relu -> res3b5 (in-place)
I0416 00:46:17.598660  1229 net.cpp:122] Setting up res3b5_relu
I0416 00:46:17.598666  1229 net.cpp:129] Top shape: 5 512 28 28 (2007040)
I0416 00:46:17.598668  1229 net.cpp:137] Memory required for data: 1002516500
I0416 00:46:17.598671  1229 layer_factory.hpp:77] Creating layer res3b5_res3b5_relu_0_split
I0416 00:46:17.598676  1229 net.cpp:84] Creating Layer res3b5_res3b5_relu_0_split
I0416 00:46:17.598680  1229 net.cpp:406] res3b5_res3b5_relu_0_split <- res3b5
I0416 00:46:17.598683  1229 net.cpp:380] res3b5_res3b5_relu_0_split -> res3b5_res3b5_relu_0_split_0
I0416 00:46:17.598690  1229 net.cpp:380] res3b5_res3b5_relu_0_split -> res3b5_res3b5_relu_0_split_1
I0416 00:46:17.598727  1229 net.cpp:122] Setting up res3b5_res3b5_relu_0_split
I0416 00:46:17.598731  1229 net.cpp:129] Top shape: 5 512 28 28 (2007040)
I0416 00:46:17.598734  1229 net.cpp:129] Top shape: 5 512 28 28 (2007040)
I0416 00:46:17.598740  1229 net.cpp:137] Memory required for data: 1018572820
I0416 00:46:17.598743  1229 layer_factory.hpp:77] Creating layer res3b6_branch2a
I0416 00:46:17.598749  1229 net.cpp:84] Creating Layer res3b6_branch2a
I0416 00:46:17.598753  1229 net.cpp:406] res3b6_branch2a <- res3b5_res3b5_relu_0_split_0
I0416 00:46:17.598757  1229 net.cpp:380] res3b6_branch2a -> res3b6_branch2a
I0416 00:46:17.600613  1229 net.cpp:122] Setting up res3b6_branch2a
I0416 00:46:17.600620  1229 net.cpp:129] Top shape: 5 128 28 28 (501760)
I0416 00:46:17.600623  1229 net.cpp:137] Memory required for data: 1020579860
I0416 00:46:17.600627  1229 layer_factory.hpp:77] Creating layer bn3b6_branch2a
I0416 00:46:17.600633  1229 net.cpp:84] Creating Layer bn3b6_branch2a
I0416 00:46:17.600638  1229 net.cpp:406] bn3b6_branch2a <- res3b6_branch2a
I0416 00:46:17.600641  1229 net.cpp:367] bn3b6_branch2a -> res3b6_branch2a (in-place)
I0416 00:46:17.600813  1229 net.cpp:122] Setting up bn3b6_branch2a
I0416 00:46:17.600818  1229 net.cpp:129] Top shape: 5 128 28 28 (501760)
I0416 00:46:17.600821  1229 net.cpp:137] Memory required for data: 1022586900
I0416 00:46:17.600826  1229 layer_factory.hpp:77] Creating layer scale3b6_branch2a
I0416 00:46:17.600831  1229 net.cpp:84] Creating Layer scale3b6_branch2a
I0416 00:46:17.600834  1229 net.cpp:406] scale3b6_branch2a <- res3b6_branch2a
I0416 00:46:17.600838  1229 net.cpp:367] scale3b6_branch2a -> res3b6_branch2a (in-place)
I0416 00:46:17.600870  1229 layer_factory.hpp:77] Creating layer scale3b6_branch2a
I0416 00:46:17.600960  1229 net.cpp:122] Setting up scale3b6_branch2a
I0416 00:46:17.600965  1229 net.cpp:129] Top shape: 5 128 28 28 (501760)
I0416 00:46:17.600967  1229 net.cpp:137] Memory required for data: 1024593940
I0416 00:46:17.600971  1229 layer_factory.hpp:77] Creating layer res3b6_branch2a_relu
I0416 00:46:17.600975  1229 net.cpp:84] Creating Layer res3b6_branch2a_relu
I0416 00:46:17.600977  1229 net.cpp:406] res3b6_branch2a_relu <- res3b6_branch2a
I0416 00:46:17.600982  1229 net.cpp:367] res3b6_branch2a_relu -> res3b6_branch2a (in-place)
I0416 00:46:17.601482  1229 net.cpp:122] Setting up res3b6_branch2a_relu
I0416 00:46:17.601488  1229 net.cpp:129] Top shape: 5 128 28 28 (501760)
I0416 00:46:17.601491  1229 net.cpp:137] Memory required for data: 1026600980
I0416 00:46:17.601495  1229 layer_factory.hpp:77] Creating layer res3b6_branch2b
I0416 00:46:17.601500  1229 net.cpp:84] Creating Layer res3b6_branch2b
I0416 00:46:17.601505  1229 net.cpp:406] res3b6_branch2b <- res3b6_branch2a
I0416 00:46:17.601508  1229 net.cpp:380] res3b6_branch2b -> res3b6_branch2b
I0416 00:46:17.603936  1229 net.cpp:122] Setting up res3b6_branch2b
I0416 00:46:17.603945  1229 net.cpp:129] Top shape: 5 128 28 28 (501760)
I0416 00:46:17.603947  1229 net.cpp:137] Memory required for data: 1028608020
I0416 00:46:17.603950  1229 layer_factory.hpp:77] Creating layer bn3b6_branch2b
I0416 00:46:17.603956  1229 net.cpp:84] Creating Layer bn3b6_branch2b
I0416 00:46:17.603960  1229 net.cpp:406] bn3b6_branch2b <- res3b6_branch2b
I0416 00:46:17.603963  1229 net.cpp:367] bn3b6_branch2b -> res3b6_branch2b (in-place)
I0416 00:46:17.604130  1229 net.cpp:122] Setting up bn3b6_branch2b
I0416 00:46:17.604133  1229 net.cpp:129] Top shape: 5 128 28 28 (501760)
I0416 00:46:17.604136  1229 net.cpp:137] Memory required for data: 1030615060
I0416 00:46:17.604140  1229 layer_factory.hpp:77] Creating layer scale3b6_branch2b
I0416 00:46:17.604147  1229 net.cpp:84] Creating Layer scale3b6_branch2b
I0416 00:46:17.604151  1229 net.cpp:406] scale3b6_branch2b <- res3b6_branch2b
I0416 00:46:17.604154  1229 net.cpp:367] scale3b6_branch2b -> res3b6_branch2b (in-place)
I0416 00:46:17.604187  1229 layer_factory.hpp:77] Creating layer scale3b6_branch2b
I0416 00:46:17.604279  1229 net.cpp:122] Setting up scale3b6_branch2b
I0416 00:46:17.604284  1229 net.cpp:129] Top shape: 5 128 28 28 (501760)
I0416 00:46:17.604286  1229 net.cpp:137] Memory required for data: 1032622100
I0416 00:46:17.604290  1229 layer_factory.hpp:77] Creating layer res3b6_branch2b_relu
I0416 00:46:17.604295  1229 net.cpp:84] Creating Layer res3b6_branch2b_relu
I0416 00:46:17.604298  1229 net.cpp:406] res3b6_branch2b_relu <- res3b6_branch2b
I0416 00:46:17.604302  1229 net.cpp:367] res3b6_branch2b_relu -> res3b6_branch2b (in-place)
I0416 00:46:17.604693  1229 net.cpp:122] Setting up res3b6_branch2b_relu
I0416 00:46:17.604699  1229 net.cpp:129] Top shape: 5 128 28 28 (501760)
I0416 00:46:17.604701  1229 net.cpp:137] Memory required for data: 1034629140
I0416 00:46:17.604704  1229 layer_factory.hpp:77] Creating layer res3b6_branch2c
I0416 00:46:17.604710  1229 net.cpp:84] Creating Layer res3b6_branch2c
I0416 00:46:17.604714  1229 net.cpp:406] res3b6_branch2c <- res3b6_branch2b
I0416 00:46:17.604719  1229 net.cpp:380] res3b6_branch2c -> res3b6_branch2c
I0416 00:46:17.606684  1229 net.cpp:122] Setting up res3b6_branch2c
I0416 00:46:17.606693  1229 net.cpp:129] Top shape: 5 512 28 28 (2007040)
I0416 00:46:17.606700  1229 net.cpp:137] Memory required for data: 1042657300
I0416 00:46:17.606704  1229 layer_factory.hpp:77] Creating layer bn3b6_branch2c
I0416 00:46:17.606710  1229 net.cpp:84] Creating Layer bn3b6_branch2c
I0416 00:46:17.606714  1229 net.cpp:406] bn3b6_branch2c <- res3b6_branch2c
I0416 00:46:17.606717  1229 net.cpp:367] bn3b6_branch2c -> res3b6_branch2c (in-place)
I0416 00:46:17.606886  1229 net.cpp:122] Setting up bn3b6_branch2c
I0416 00:46:17.606891  1229 net.cpp:129] Top shape: 5 512 28 28 (2007040)
I0416 00:46:17.606894  1229 net.cpp:137] Memory required for data: 1050685460
I0416 00:46:17.606899  1229 layer_factory.hpp:77] Creating layer scale3b6_branch2c
I0416 00:46:17.606904  1229 net.cpp:84] Creating Layer scale3b6_branch2c
I0416 00:46:17.606907  1229 net.cpp:406] scale3b6_branch2c <- res3b6_branch2c
I0416 00:46:17.606911  1229 net.cpp:367] scale3b6_branch2c -> res3b6_branch2c (in-place)
I0416 00:46:17.606945  1229 layer_factory.hpp:77] Creating layer scale3b6_branch2c
I0416 00:46:17.607033  1229 net.cpp:122] Setting up scale3b6_branch2c
I0416 00:46:17.607038  1229 net.cpp:129] Top shape: 5 512 28 28 (2007040)
I0416 00:46:17.607040  1229 net.cpp:137] Memory required for data: 1058713620
I0416 00:46:17.607044  1229 layer_factory.hpp:77] Creating layer res3b6
I0416 00:46:17.607049  1229 net.cpp:84] Creating Layer res3b6
I0416 00:46:17.607053  1229 net.cpp:406] res3b6 <- res3b5_res3b5_relu_0_split_1
I0416 00:46:17.607056  1229 net.cpp:406] res3b6 <- res3b6_branch2c
I0416 00:46:17.607060  1229 net.cpp:380] res3b6 -> res3b6
I0416 00:46:17.607081  1229 net.cpp:122] Setting up res3b6
I0416 00:46:17.607085  1229 net.cpp:129] Top shape: 5 512 28 28 (2007040)
I0416 00:46:17.607087  1229 net.cpp:137] Memory required for data: 1066741780
I0416 00:46:17.607090  1229 layer_factory.hpp:77] Creating layer res3b6_relu
I0416 00:46:17.607095  1229 net.cpp:84] Creating Layer res3b6_relu
I0416 00:46:17.607097  1229 net.cpp:406] res3b6_relu <- res3b6
I0416 00:46:17.607101  1229 net.cpp:367] res3b6_relu -> res3b6 (in-place)
I0416 00:46:17.607501  1229 net.cpp:122] Setting up res3b6_relu
I0416 00:46:17.607507  1229 net.cpp:129] Top shape: 5 512 28 28 (2007040)
I0416 00:46:17.607509  1229 net.cpp:137] Memory required for data: 1074769940
I0416 00:46:17.607512  1229 layer_factory.hpp:77] Creating layer res3b6_res3b6_relu_0_split
I0416 00:46:17.607517  1229 net.cpp:84] Creating Layer res3b6_res3b6_relu_0_split
I0416 00:46:17.607520  1229 net.cpp:406] res3b6_res3b6_relu_0_split <- res3b6
I0416 00:46:17.607524  1229 net.cpp:380] res3b6_res3b6_relu_0_split -> res3b6_res3b6_relu_0_split_0
I0416 00:46:17.607530  1229 net.cpp:380] res3b6_res3b6_relu_0_split -> res3b6_res3b6_relu_0_split_1
I0416 00:46:17.607566  1229 net.cpp:122] Setting up res3b6_res3b6_relu_0_split
I0416 00:46:17.607570  1229 net.cpp:129] Top shape: 5 512 28 28 (2007040)
I0416 00:46:17.607573  1229 net.cpp:129] Top shape: 5 512 28 28 (2007040)
I0416 00:46:17.607576  1229 net.cpp:137] Memory required for data: 1090826260
I0416 00:46:17.607578  1229 layer_factory.hpp:77] Creating layer res3b7_branch2a
I0416 00:46:17.607585  1229 net.cpp:84] Creating Layer res3b7_branch2a
I0416 00:46:17.607589  1229 net.cpp:406] res3b7_branch2a <- res3b6_res3b6_relu_0_split_0
I0416 00:46:17.607592  1229 net.cpp:380] res3b7_branch2a -> res3b7_branch2a
I0416 00:46:17.609966  1229 net.cpp:122] Setting up res3b7_branch2a
I0416 00:46:17.609975  1229 net.cpp:129] Top shape: 5 128 28 28 (501760)
I0416 00:46:17.609977  1229 net.cpp:137] Memory required for data: 1092833300
I0416 00:46:17.609982  1229 layer_factory.hpp:77] Creating layer bn3b7_branch2a
I0416 00:46:17.609987  1229 net.cpp:84] Creating Layer bn3b7_branch2a
I0416 00:46:17.609992  1229 net.cpp:406] bn3b7_branch2a <- res3b7_branch2a
I0416 00:46:17.609997  1229 net.cpp:367] bn3b7_branch2a -> res3b7_branch2a (in-place)
I0416 00:46:17.610164  1229 net.cpp:122] Setting up bn3b7_branch2a
I0416 00:46:17.610169  1229 net.cpp:129] Top shape: 5 128 28 28 (501760)
I0416 00:46:17.610172  1229 net.cpp:137] Memory required for data: 1094840340
I0416 00:46:17.610184  1229 layer_factory.hpp:77] Creating layer scale3b7_branch2a
I0416 00:46:17.610189  1229 net.cpp:84] Creating Layer scale3b7_branch2a
I0416 00:46:17.610193  1229 net.cpp:406] scale3b7_branch2a <- res3b7_branch2a
I0416 00:46:17.610196  1229 net.cpp:367] scale3b7_branch2a -> res3b7_branch2a (in-place)
I0416 00:46:17.610234  1229 layer_factory.hpp:77] Creating layer scale3b7_branch2a
I0416 00:46:17.610327  1229 net.cpp:122] Setting up scale3b7_branch2a
I0416 00:46:17.610332  1229 net.cpp:129] Top shape: 5 128 28 28 (501760)
I0416 00:46:17.610333  1229 net.cpp:137] Memory required for data: 1096847380
I0416 00:46:17.610337  1229 layer_factory.hpp:77] Creating layer res3b7_branch2a_relu
I0416 00:46:17.610343  1229 net.cpp:84] Creating Layer res3b7_branch2a_relu
I0416 00:46:17.610347  1229 net.cpp:406] res3b7_branch2a_relu <- res3b7_branch2a
I0416 00:46:17.610349  1229 net.cpp:367] res3b7_branch2a_relu -> res3b7_branch2a (in-place)
I0416 00:46:17.610872  1229 net.cpp:122] Setting up res3b7_branch2a_relu
I0416 00:46:17.610879  1229 net.cpp:129] Top shape: 5 128 28 28 (501760)
I0416 00:46:17.610882  1229 net.cpp:137] Memory required for data: 1098854420
I0416 00:46:17.610884  1229 layer_factory.hpp:77] Creating layer res3b7_branch2b
I0416 00:46:17.610891  1229 net.cpp:84] Creating Layer res3b7_branch2b
I0416 00:46:17.610894  1229 net.cpp:406] res3b7_branch2b <- res3b7_branch2a
I0416 00:46:17.610899  1229 net.cpp:380] res3b7_branch2b -> res3b7_branch2b
I0416 00:46:17.613996  1229 net.cpp:122] Setting up res3b7_branch2b
I0416 00:46:17.614007  1229 net.cpp:129] Top shape: 5 128 28 28 (501760)
I0416 00:46:17.614011  1229 net.cpp:137] Memory required for data: 1100861460
I0416 00:46:17.614014  1229 layer_factory.hpp:77] Creating layer bn3b7_branch2b
I0416 00:46:17.614020  1229 net.cpp:84] Creating Layer bn3b7_branch2b
I0416 00:46:17.614025  1229 net.cpp:406] bn3b7_branch2b <- res3b7_branch2b
I0416 00:46:17.614029  1229 net.cpp:367] bn3b7_branch2b -> res3b7_branch2b (in-place)
I0416 00:46:17.614209  1229 net.cpp:122] Setting up bn3b7_branch2b
I0416 00:46:17.614214  1229 net.cpp:129] Top shape: 5 128 28 28 (501760)
I0416 00:46:17.614217  1229 net.cpp:137] Memory required for data: 1102868500
I0416 00:46:17.614222  1229 layer_factory.hpp:77] Creating layer scale3b7_branch2b
I0416 00:46:17.614226  1229 net.cpp:84] Creating Layer scale3b7_branch2b
I0416 00:46:17.614229  1229 net.cpp:406] scale3b7_branch2b <- res3b7_branch2b
I0416 00:46:17.614235  1229 net.cpp:367] scale3b7_branch2b -> res3b7_branch2b (in-place)
I0416 00:46:17.614272  1229 layer_factory.hpp:77] Creating layer scale3b7_branch2b
I0416 00:46:17.614367  1229 net.cpp:122] Setting up scale3b7_branch2b
I0416 00:46:17.614372  1229 net.cpp:129] Top shape: 5 128 28 28 (501760)
I0416 00:46:17.614373  1229 net.cpp:137] Memory required for data: 1104875540
I0416 00:46:17.614377  1229 layer_factory.hpp:77] Creating layer res3b7_branch2b_relu
I0416 00:46:17.614382  1229 net.cpp:84] Creating Layer res3b7_branch2b_relu
I0416 00:46:17.614385  1229 net.cpp:406] res3b7_branch2b_relu <- res3b7_branch2b
I0416 00:46:17.614388  1229 net.cpp:367] res3b7_branch2b_relu -> res3b7_branch2b (in-place)
I0416 00:46:17.614799  1229 net.cpp:122] Setting up res3b7_branch2b_relu
I0416 00:46:17.614805  1229 net.cpp:129] Top shape: 5 128 28 28 (501760)
I0416 00:46:17.614807  1229 net.cpp:137] Memory required for data: 1106882580
I0416 00:46:17.614810  1229 layer_factory.hpp:77] Creating layer res3b7_branch2c
I0416 00:46:17.614817  1229 net.cpp:84] Creating Layer res3b7_branch2c
I0416 00:46:17.614820  1229 net.cpp:406] res3b7_branch2c <- res3b7_branch2b
I0416 00:46:17.614826  1229 net.cpp:380] res3b7_branch2c -> res3b7_branch2c
I0416 00:46:17.616852  1229 net.cpp:122] Setting up res3b7_branch2c
I0416 00:46:17.616859  1229 net.cpp:129] Top shape: 5 512 28 28 (2007040)
I0416 00:46:17.616861  1229 net.cpp:137] Memory required for data: 1114910740
I0416 00:46:17.616865  1229 layer_factory.hpp:77] Creating layer bn3b7_branch2c
I0416 00:46:17.616871  1229 net.cpp:84] Creating Layer bn3b7_branch2c
I0416 00:46:17.616881  1229 net.cpp:406] bn3b7_branch2c <- res3b7_branch2c
I0416 00:46:17.616885  1229 net.cpp:367] bn3b7_branch2c -> res3b7_branch2c (in-place)
I0416 00:46:17.617053  1229 net.cpp:122] Setting up bn3b7_branch2c
I0416 00:46:17.617058  1229 net.cpp:129] Top shape: 5 512 28 28 (2007040)
I0416 00:46:17.617060  1229 net.cpp:137] Memory required for data: 1122938900
I0416 00:46:17.617065  1229 layer_factory.hpp:77] Creating layer scale3b7_branch2c
I0416 00:46:17.617070  1229 net.cpp:84] Creating Layer scale3b7_branch2c
I0416 00:46:17.617074  1229 net.cpp:406] scale3b7_branch2c <- res3b7_branch2c
I0416 00:46:17.617077  1229 net.cpp:367] scale3b7_branch2c -> res3b7_branch2c (in-place)
I0416 00:46:17.617112  1229 layer_factory.hpp:77] Creating layer scale3b7_branch2c
I0416 00:46:17.617203  1229 net.cpp:122] Setting up scale3b7_branch2c
I0416 00:46:17.617208  1229 net.cpp:129] Top shape: 5 512 28 28 (2007040)
I0416 00:46:17.617209  1229 net.cpp:137] Memory required for data: 1130967060
I0416 00:46:17.617213  1229 layer_factory.hpp:77] Creating layer res3b7
I0416 00:46:17.617218  1229 net.cpp:84] Creating Layer res3b7
I0416 00:46:17.617221  1229 net.cpp:406] res3b7 <- res3b6_res3b6_relu_0_split_1
I0416 00:46:17.617226  1229 net.cpp:406] res3b7 <- res3b7_branch2c
I0416 00:46:17.617230  1229 net.cpp:380] res3b7 -> res3b7
I0416 00:46:17.617252  1229 net.cpp:122] Setting up res3b7
I0416 00:46:17.617257  1229 net.cpp:129] Top shape: 5 512 28 28 (2007040)
I0416 00:46:17.617259  1229 net.cpp:137] Memory required for data: 1138995220
I0416 00:46:17.617262  1229 layer_factory.hpp:77] Creating layer res3b7_relu
I0416 00:46:17.617265  1229 net.cpp:84] Creating Layer res3b7_relu
I0416 00:46:17.617269  1229 net.cpp:406] res3b7_relu <- res3b7
I0416 00:46:17.617271  1229 net.cpp:367] res3b7_relu -> res3b7 (in-place)
I0416 00:46:17.617676  1229 net.cpp:122] Setting up res3b7_relu
I0416 00:46:17.617682  1229 net.cpp:129] Top shape: 5 512 28 28 (2007040)
I0416 00:46:17.617684  1229 net.cpp:137] Memory required for data: 1147023380
I0416 00:46:17.617687  1229 layer_factory.hpp:77] Creating layer res3b7_res3b7_relu_0_split
I0416 00:46:17.617692  1229 net.cpp:84] Creating Layer res3b7_res3b7_relu_0_split
I0416 00:46:17.617696  1229 net.cpp:406] res3b7_res3b7_relu_0_split <- res3b7
I0416 00:46:17.617699  1229 net.cpp:380] res3b7_res3b7_relu_0_split -> res3b7_res3b7_relu_0_split_0
I0416 00:46:17.617707  1229 net.cpp:380] res3b7_res3b7_relu_0_split -> res3b7_res3b7_relu_0_split_1
I0416 00:46:17.617748  1229 net.cpp:122] Setting up res3b7_res3b7_relu_0_split
I0416 00:46:17.617753  1229 net.cpp:129] Top shape: 5 512 28 28 (2007040)
I0416 00:46:17.617756  1229 net.cpp:129] Top shape: 5 512 28 28 (2007040)
I0416 00:46:17.617758  1229 net.cpp:137] Memory required for data: 1163079700
I0416 00:46:17.617760  1229 layer_factory.hpp:77] Creating layer res4a_branch1
I0416 00:46:17.617768  1229 net.cpp:84] Creating Layer res4a_branch1
I0416 00:46:17.617771  1229 net.cpp:406] res4a_branch1 <- res3b7_res3b7_relu_0_split_0
I0416 00:46:17.617776  1229 net.cpp:380] res4a_branch1 -> res4a_branch1
I0416 00:46:17.622786  1229 net.cpp:122] Setting up res4a_branch1
I0416 00:46:17.622793  1229 net.cpp:129] Top shape: 5 1024 14 14 (1003520)
I0416 00:46:17.622795  1229 net.cpp:137] Memory required for data: 1167093780
I0416 00:46:17.622800  1229 layer_factory.hpp:77] Creating layer bn4a_branch1
I0416 00:46:17.622807  1229 net.cpp:84] Creating Layer bn4a_branch1
I0416 00:46:17.622809  1229 net.cpp:406] bn4a_branch1 <- res4a_branch1
I0416 00:46:17.622815  1229 net.cpp:367] bn4a_branch1 -> res4a_branch1 (in-place)
I0416 00:46:17.622988  1229 net.cpp:122] Setting up bn4a_branch1
I0416 00:46:17.622992  1229 net.cpp:129] Top shape: 5 1024 14 14 (1003520)
I0416 00:46:17.622995  1229 net.cpp:137] Memory required for data: 1171107860
I0416 00:46:17.623000  1229 layer_factory.hpp:77] Creating layer scale4a_branch1
I0416 00:46:17.623005  1229 net.cpp:84] Creating Layer scale4a_branch1
I0416 00:46:17.623008  1229 net.cpp:406] scale4a_branch1 <- res4a_branch1
I0416 00:46:17.623018  1229 net.cpp:367] scale4a_branch1 -> res4a_branch1 (in-place)
I0416 00:46:17.623052  1229 layer_factory.hpp:77] Creating layer scale4a_branch1
I0416 00:46:17.623149  1229 net.cpp:122] Setting up scale4a_branch1
I0416 00:46:17.623154  1229 net.cpp:129] Top shape: 5 1024 14 14 (1003520)
I0416 00:46:17.623157  1229 net.cpp:137] Memory required for data: 1175121940
I0416 00:46:17.623160  1229 layer_factory.hpp:77] Creating layer res4a_branch2a
I0416 00:46:17.623167  1229 net.cpp:84] Creating Layer res4a_branch2a
I0416 00:46:17.623170  1229 net.cpp:406] res4a_branch2a <- res3b7_res3b7_relu_0_split_1
I0416 00:46:17.623174  1229 net.cpp:380] res4a_branch2a -> res4a_branch2a
I0416 00:46:17.625550  1229 net.cpp:122] Setting up res4a_branch2a
I0416 00:46:17.625557  1229 net.cpp:129] Top shape: 5 256 14 14 (250880)
I0416 00:46:17.625560  1229 net.cpp:137] Memory required for data: 1176125460
I0416 00:46:17.625563  1229 layer_factory.hpp:77] Creating layer bn4a_branch2a
I0416 00:46:17.625569  1229 net.cpp:84] Creating Layer bn4a_branch2a
I0416 00:46:17.625573  1229 net.cpp:406] bn4a_branch2a <- res4a_branch2a
I0416 00:46:17.625578  1229 net.cpp:367] bn4a_branch2a -> res4a_branch2a (in-place)
I0416 00:46:17.625749  1229 net.cpp:122] Setting up bn4a_branch2a
I0416 00:46:17.625754  1229 net.cpp:129] Top shape: 5 256 14 14 (250880)
I0416 00:46:17.625757  1229 net.cpp:137] Memory required for data: 1177128980
I0416 00:46:17.625762  1229 layer_factory.hpp:77] Creating layer scale4a_branch2a
I0416 00:46:17.625768  1229 net.cpp:84] Creating Layer scale4a_branch2a
I0416 00:46:17.625771  1229 net.cpp:406] scale4a_branch2a <- res4a_branch2a
I0416 00:46:17.625775  1229 net.cpp:367] scale4a_branch2a -> res4a_branch2a (in-place)
I0416 00:46:17.625811  1229 layer_factory.hpp:77] Creating layer scale4a_branch2a
I0416 00:46:17.625903  1229 net.cpp:122] Setting up scale4a_branch2a
I0416 00:46:17.625907  1229 net.cpp:129] Top shape: 5 256 14 14 (250880)
I0416 00:46:17.625910  1229 net.cpp:137] Memory required for data: 1178132500
I0416 00:46:17.625913  1229 layer_factory.hpp:77] Creating layer res4a_branch2a_relu
I0416 00:46:17.625917  1229 net.cpp:84] Creating Layer res4a_branch2a_relu
I0416 00:46:17.625921  1229 net.cpp:406] res4a_branch2a_relu <- res4a_branch2a
I0416 00:46:17.625926  1229 net.cpp:367] res4a_branch2a_relu -> res4a_branch2a (in-place)
I0416 00:46:17.626468  1229 net.cpp:122] Setting up res4a_branch2a_relu
I0416 00:46:17.626474  1229 net.cpp:129] Top shape: 5 256 14 14 (250880)
I0416 00:46:17.626477  1229 net.cpp:137] Memory required for data: 1179136020
I0416 00:46:17.626479  1229 layer_factory.hpp:77] Creating layer res4a_branch2b
I0416 00:46:17.626487  1229 net.cpp:84] Creating Layer res4a_branch2b
I0416 00:46:17.626490  1229 net.cpp:406] res4a_branch2b <- res4a_branch2a
I0416 00:46:17.626494  1229 net.cpp:380] res4a_branch2b -> res4a_branch2b
I0416 00:46:17.632031  1229 net.cpp:122] Setting up res4a_branch2b
I0416 00:46:17.632040  1229 net.cpp:129] Top shape: 5 256 14 14 (250880)
I0416 00:46:17.632043  1229 net.cpp:137] Memory required for data: 1180139540
I0416 00:46:17.632048  1229 layer_factory.hpp:77] Creating layer bn4a_branch2b
I0416 00:46:17.632055  1229 net.cpp:84] Creating Layer bn4a_branch2b
I0416 00:46:17.632058  1229 net.cpp:406] bn4a_branch2b <- res4a_branch2b
I0416 00:46:17.632062  1229 net.cpp:367] bn4a_branch2b -> res4a_branch2b (in-place)
I0416 00:46:17.632232  1229 net.cpp:122] Setting up bn4a_branch2b
I0416 00:46:17.632237  1229 net.cpp:129] Top shape: 5 256 14 14 (250880)
I0416 00:46:17.632239  1229 net.cpp:137] Memory required for data: 1181143060
I0416 00:46:17.632244  1229 layer_factory.hpp:77] Creating layer scale4a_branch2b
I0416 00:46:17.632248  1229 net.cpp:84] Creating Layer scale4a_branch2b
I0416 00:46:17.632251  1229 net.cpp:406] scale4a_branch2b <- res4a_branch2b
I0416 00:46:17.632256  1229 net.cpp:367] scale4a_branch2b -> res4a_branch2b (in-place)
I0416 00:46:17.632292  1229 layer_factory.hpp:77] Creating layer scale4a_branch2b
I0416 00:46:17.632391  1229 net.cpp:122] Setting up scale4a_branch2b
I0416 00:46:17.632401  1229 net.cpp:129] Top shape: 5 256 14 14 (250880)
I0416 00:46:17.632403  1229 net.cpp:137] Memory required for data: 1182146580
I0416 00:46:17.632407  1229 layer_factory.hpp:77] Creating layer res4a_branch2b_relu
I0416 00:46:17.632411  1229 net.cpp:84] Creating Layer res4a_branch2b_relu
I0416 00:46:17.632416  1229 net.cpp:406] res4a_branch2b_relu <- res4a_branch2b
I0416 00:46:17.632419  1229 net.cpp:367] res4a_branch2b_relu -> res4a_branch2b (in-place)
I0416 00:46:17.632938  1229 net.cpp:122] Setting up res4a_branch2b_relu
I0416 00:46:17.632946  1229 net.cpp:129] Top shape: 5 256 14 14 (250880)
I0416 00:46:17.632948  1229 net.cpp:137] Memory required for data: 1183150100
I0416 00:46:17.632951  1229 layer_factory.hpp:77] Creating layer res4a_branch2c
I0416 00:46:17.632957  1229 net.cpp:84] Creating Layer res4a_branch2c
I0416 00:46:17.632962  1229 net.cpp:406] res4a_branch2c <- res4a_branch2b
I0416 00:46:17.632967  1229 net.cpp:380] res4a_branch2c -> res4a_branch2c
I0416 00:46:17.636508  1229 net.cpp:122] Setting up res4a_branch2c
I0416 00:46:17.636517  1229 net.cpp:129] Top shape: 5 1024 14 14 (1003520)
I0416 00:46:17.636519  1229 net.cpp:137] Memory required for data: 1187164180
I0416 00:46:17.636523  1229 layer_factory.hpp:77] Creating layer bn4a_branch2c
I0416 00:46:17.636529  1229 net.cpp:84] Creating Layer bn4a_branch2c
I0416 00:46:17.636533  1229 net.cpp:406] bn4a_branch2c <- res4a_branch2c
I0416 00:46:17.636538  1229 net.cpp:367] bn4a_branch2c -> res4a_branch2c (in-place)
I0416 00:46:17.636710  1229 net.cpp:122] Setting up bn4a_branch2c
I0416 00:46:17.636715  1229 net.cpp:129] Top shape: 5 1024 14 14 (1003520)
I0416 00:46:17.636718  1229 net.cpp:137] Memory required for data: 1191178260
I0416 00:46:17.636723  1229 layer_factory.hpp:77] Creating layer scale4a_branch2c
I0416 00:46:17.636728  1229 net.cpp:84] Creating Layer scale4a_branch2c
I0416 00:46:17.636730  1229 net.cpp:406] scale4a_branch2c <- res4a_branch2c
I0416 00:46:17.636734  1229 net.cpp:367] scale4a_branch2c -> res4a_branch2c (in-place)
I0416 00:46:17.636773  1229 layer_factory.hpp:77] Creating layer scale4a_branch2c
I0416 00:46:17.636871  1229 net.cpp:122] Setting up scale4a_branch2c
I0416 00:46:17.636875  1229 net.cpp:129] Top shape: 5 1024 14 14 (1003520)
I0416 00:46:17.636878  1229 net.cpp:137] Memory required for data: 1195192340
I0416 00:46:17.636883  1229 layer_factory.hpp:77] Creating layer res4a
I0416 00:46:17.636888  1229 net.cpp:84] Creating Layer res4a
I0416 00:46:17.636893  1229 net.cpp:406] res4a <- res4a_branch1
I0416 00:46:17.636895  1229 net.cpp:406] res4a <- res4a_branch2c
I0416 00:46:17.636900  1229 net.cpp:380] res4a -> res4a
I0416 00:46:17.636924  1229 net.cpp:122] Setting up res4a
I0416 00:46:17.636927  1229 net.cpp:129] Top shape: 5 1024 14 14 (1003520)
I0416 00:46:17.636929  1229 net.cpp:137] Memory required for data: 1199206420
I0416 00:46:17.636932  1229 layer_factory.hpp:77] Creating layer res4a_relu
I0416 00:46:17.636935  1229 net.cpp:84] Creating Layer res4a_relu
I0416 00:46:17.636940  1229 net.cpp:406] res4a_relu <- res4a
I0416 00:46:17.636943  1229 net.cpp:367] res4a_relu -> res4a (in-place)
I0416 00:46:17.637461  1229 net.cpp:122] Setting up res4a_relu
I0416 00:46:17.637468  1229 net.cpp:129] Top shape: 5 1024 14 14 (1003520)
I0416 00:46:17.637471  1229 net.cpp:137] Memory required for data: 1203220500
I0416 00:46:17.637473  1229 layer_factory.hpp:77] Creating layer res4a_res4a_relu_0_split
I0416 00:46:17.637480  1229 net.cpp:84] Creating Layer res4a_res4a_relu_0_split
I0416 00:46:17.637483  1229 net.cpp:406] res4a_res4a_relu_0_split <- res4a
I0416 00:46:17.637487  1229 net.cpp:380] res4a_res4a_relu_0_split -> res4a_res4a_relu_0_split_0
I0416 00:46:17.637493  1229 net.cpp:380] res4a_res4a_relu_0_split -> res4a_res4a_relu_0_split_1
I0416 00:46:17.637532  1229 net.cpp:122] Setting up res4a_res4a_relu_0_split
I0416 00:46:17.637537  1229 net.cpp:129] Top shape: 5 1024 14 14 (1003520)
I0416 00:46:17.637539  1229 net.cpp:129] Top shape: 5 1024 14 14 (1003520)
I0416 00:46:17.637548  1229 net.cpp:137] Memory required for data: 1211248660
I0416 00:46:17.637550  1229 layer_factory.hpp:77] Creating layer res4b1_branch2a
I0416 00:46:17.637557  1229 net.cpp:84] Creating Layer res4b1_branch2a
I0416 00:46:17.637559  1229 net.cpp:406] res4b1_branch2a <- res4a_res4a_relu_0_split_0
I0416 00:46:17.637565  1229 net.cpp:380] res4b1_branch2a -> res4b1_branch2a
I0416 00:46:17.640625  1229 net.cpp:122] Setting up res4b1_branch2a
I0416 00:46:17.640632  1229 net.cpp:129] Top shape: 5 256 14 14 (250880)
I0416 00:46:17.640635  1229 net.cpp:137] Memory required for data: 1212252180
I0416 00:46:17.640640  1229 layer_factory.hpp:77] Creating layer bn4b1_branch2a
I0416 00:46:17.640645  1229 net.cpp:84] Creating Layer bn4b1_branch2a
I0416 00:46:17.640650  1229 net.cpp:406] bn4b1_branch2a <- res4b1_branch2a
I0416 00:46:17.640655  1229 net.cpp:367] bn4b1_branch2a -> res4b1_branch2a (in-place)
I0416 00:46:17.640838  1229 net.cpp:122] Setting up bn4b1_branch2a
I0416 00:46:17.640843  1229 net.cpp:129] Top shape: 5 256 14 14 (250880)
I0416 00:46:17.640846  1229 net.cpp:137] Memory required for data: 1213255700
I0416 00:46:17.640851  1229 layer_factory.hpp:77] Creating layer scale4b1_branch2a
I0416 00:46:17.640857  1229 net.cpp:84] Creating Layer scale4b1_branch2a
I0416 00:46:17.640861  1229 net.cpp:406] scale4b1_branch2a <- res4b1_branch2a
I0416 00:46:17.640864  1229 net.cpp:367] scale4b1_branch2a -> res4b1_branch2a (in-place)
I0416 00:46:17.640902  1229 layer_factory.hpp:77] Creating layer scale4b1_branch2a
I0416 00:46:17.640998  1229 net.cpp:122] Setting up scale4b1_branch2a
I0416 00:46:17.641002  1229 net.cpp:129] Top shape: 5 256 14 14 (250880)
I0416 00:46:17.641005  1229 net.cpp:137] Memory required for data: 1214259220
I0416 00:46:17.641008  1229 layer_factory.hpp:77] Creating layer res4b1_branch2a_relu
I0416 00:46:17.641016  1229 net.cpp:84] Creating Layer res4b1_branch2a_relu
I0416 00:46:17.641018  1229 net.cpp:406] res4b1_branch2a_relu <- res4b1_branch2a
I0416 00:46:17.641022  1229 net.cpp:367] res4b1_branch2a_relu -> res4b1_branch2a (in-place)
I0416 00:46:17.641427  1229 net.cpp:122] Setting up res4b1_branch2a_relu
I0416 00:46:17.641433  1229 net.cpp:129] Top shape: 5 256 14 14 (250880)
I0416 00:46:17.641436  1229 net.cpp:137] Memory required for data: 1215262740
I0416 00:46:17.641439  1229 layer_factory.hpp:77] Creating layer res4b1_branch2b
I0416 00:46:17.641445  1229 net.cpp:84] Creating Layer res4b1_branch2b
I0416 00:46:17.641449  1229 net.cpp:406] res4b1_branch2b <- res4b1_branch2a
I0416 00:46:17.641453  1229 net.cpp:380] res4b1_branch2b -> res4b1_branch2b
I0416 00:46:17.647372  1229 net.cpp:122] Setting up res4b1_branch2b
I0416 00:46:17.647387  1229 net.cpp:129] Top shape: 5 256 14 14 (250880)
I0416 00:46:17.647390  1229 net.cpp:137] Memory required for data: 1216266260
I0416 00:46:17.647397  1229 layer_factory.hpp:77] Creating layer bn4b1_branch2b
I0416 00:46:17.647403  1229 net.cpp:84] Creating Layer bn4b1_branch2b
I0416 00:46:17.647408  1229 net.cpp:406] bn4b1_branch2b <- res4b1_branch2b
I0416 00:46:17.647413  1229 net.cpp:367] bn4b1_branch2b -> res4b1_branch2b (in-place)
I0416 00:46:17.647605  1229 net.cpp:122] Setting up bn4b1_branch2b
I0416 00:46:17.647610  1229 net.cpp:129] Top shape: 5 256 14 14 (250880)
I0416 00:46:17.647613  1229 net.cpp:137] Memory required for data: 1217269780
I0416 00:46:17.647617  1229 layer_factory.hpp:77] Creating layer scale4b1_branch2b
I0416 00:46:17.647624  1229 net.cpp:84] Creating Layer scale4b1_branch2b
I0416 00:46:17.647627  1229 net.cpp:406] scale4b1_branch2b <- res4b1_branch2b
I0416 00:46:17.647630  1229 net.cpp:367] scale4b1_branch2b -> res4b1_branch2b (in-place)
I0416 00:46:17.647670  1229 layer_factory.hpp:77] Creating layer scale4b1_branch2b
I0416 00:46:17.647776  1229 net.cpp:122] Setting up scale4b1_branch2b
I0416 00:46:17.647780  1229 net.cpp:129] Top shape: 5 256 14 14 (250880)
I0416 00:46:17.647783  1229 net.cpp:137] Memory required for data: 1218273300
I0416 00:46:17.647788  1229 layer_factory.hpp:77] Creating layer res4b1_branch2b_relu
I0416 00:46:17.647802  1229 net.cpp:84] Creating Layer res4b1_branch2b_relu
I0416 00:46:17.647805  1229 net.cpp:406] res4b1_branch2b_relu <- res4b1_branch2b
I0416 00:46:17.647809  1229 net.cpp:367] res4b1_branch2b_relu -> res4b1_branch2b (in-place)
I0416 00:46:17.648222  1229 net.cpp:122] Setting up res4b1_branch2b_relu
I0416 00:46:17.648228  1229 net.cpp:129] Top shape: 5 256 14 14 (250880)
I0416 00:46:17.648231  1229 net.cpp:137] Memory required for data: 1219276820
I0416 00:46:17.648233  1229 layer_factory.hpp:77] Creating layer res4b1_branch2c
I0416 00:46:17.648241  1229 net.cpp:84] Creating Layer res4b1_branch2c
I0416 00:46:17.648244  1229 net.cpp:406] res4b1_branch2c <- res4b1_branch2b
I0416 00:46:17.648248  1229 net.cpp:380] res4b1_branch2c -> res4b1_branch2c
I0416 00:46:17.651923  1229 net.cpp:122] Setting up res4b1_branch2c
I0416 00:46:17.651932  1229 net.cpp:129] Top shape: 5 1024 14 14 (1003520)
I0416 00:46:17.651935  1229 net.cpp:137] Memory required for data: 1223290900
I0416 00:46:17.651939  1229 layer_factory.hpp:77] Creating layer bn4b1_branch2c
I0416 00:46:17.651947  1229 net.cpp:84] Creating Layer bn4b1_branch2c
I0416 00:46:17.651950  1229 net.cpp:406] bn4b1_branch2c <- res4b1_branch2c
I0416 00:46:17.651954  1229 net.cpp:367] bn4b1_branch2c -> res4b1_branch2c (in-place)
I0416 00:46:17.652133  1229 net.cpp:122] Setting up bn4b1_branch2c
I0416 00:46:17.652138  1229 net.cpp:129] Top shape: 5 1024 14 14 (1003520)
I0416 00:46:17.652140  1229 net.cpp:137] Memory required for data: 1227304980
I0416 00:46:17.652145  1229 layer_factory.hpp:77] Creating layer scale4b1_branch2c
I0416 00:46:17.652150  1229 net.cpp:84] Creating Layer scale4b1_branch2c
I0416 00:46:17.652153  1229 net.cpp:406] scale4b1_branch2c <- res4b1_branch2c
I0416 00:46:17.652158  1229 net.cpp:367] scale4b1_branch2c -> res4b1_branch2c (in-place)
I0416 00:46:17.652191  1229 layer_factory.hpp:77] Creating layer scale4b1_branch2c
I0416 00:46:17.652292  1229 net.cpp:122] Setting up scale4b1_branch2c
I0416 00:46:17.652295  1229 net.cpp:129] Top shape: 5 1024 14 14 (1003520)
I0416 00:46:17.652297  1229 net.cpp:137] Memory required for data: 1231319060
I0416 00:46:17.652312  1229 layer_factory.hpp:77] Creating layer res4b1
I0416 00:46:17.652317  1229 net.cpp:84] Creating Layer res4b1
I0416 00:46:17.652319  1229 net.cpp:406] res4b1 <- res4a_res4a_relu_0_split_1
I0416 00:46:17.652323  1229 net.cpp:406] res4b1 <- res4b1_branch2c
I0416 00:46:17.652328  1229 net.cpp:380] res4b1 -> res4b1
I0416 00:46:17.652350  1229 net.cpp:122] Setting up res4b1
I0416 00:46:17.652354  1229 net.cpp:129] Top shape: 5 1024 14 14 (1003520)
I0416 00:46:17.652357  1229 net.cpp:137] Memory required for data: 1235333140
I0416 00:46:17.652359  1229 layer_factory.hpp:77] Creating layer res4b1_relu
I0416 00:46:17.652364  1229 net.cpp:84] Creating Layer res4b1_relu
I0416 00:46:17.652366  1229 net.cpp:406] res4b1_relu <- res4b1
I0416 00:46:17.652370  1229 net.cpp:367] res4b1_relu -> res4b1 (in-place)
I0416 00:46:17.652900  1229 net.cpp:122] Setting up res4b1_relu
I0416 00:46:17.652907  1229 net.cpp:129] Top shape: 5 1024 14 14 (1003520)
I0416 00:46:17.652909  1229 net.cpp:137] Memory required for data: 1239347220
I0416 00:46:17.652912  1229 layer_factory.hpp:77] Creating layer res4b1_res4b1_relu_0_split
I0416 00:46:17.652917  1229 net.cpp:84] Creating Layer res4b1_res4b1_relu_0_split
I0416 00:46:17.652920  1229 net.cpp:406] res4b1_res4b1_relu_0_split <- res4b1
I0416 00:46:17.652925  1229 net.cpp:380] res4b1_res4b1_relu_0_split -> res4b1_res4b1_relu_0_split_0
I0416 00:46:17.652931  1229 net.cpp:380] res4b1_res4b1_relu_0_split -> res4b1_res4b1_relu_0_split_1
I0416 00:46:17.652971  1229 net.cpp:122] Setting up res4b1_res4b1_relu_0_split
I0416 00:46:17.652976  1229 net.cpp:129] Top shape: 5 1024 14 14 (1003520)
I0416 00:46:17.652978  1229 net.cpp:129] Top shape: 5 1024 14 14 (1003520)
I0416 00:46:17.652981  1229 net.cpp:137] Memory required for data: 1247375380
I0416 00:46:17.652983  1229 layer_factory.hpp:77] Creating layer res4b2_branch2a
I0416 00:46:17.652990  1229 net.cpp:84] Creating Layer res4b2_branch2a
I0416 00:46:17.652999  1229 net.cpp:406] res4b2_branch2a <- res4b1_res4b1_relu_0_split_0
I0416 00:46:17.653003  1229 net.cpp:380] res4b2_branch2a -> res4b2_branch2a
I0416 00:46:17.656124  1229 net.cpp:122] Setting up res4b2_branch2a
I0416 00:46:17.656132  1229 net.cpp:129] Top shape: 5 256 14 14 (250880)
I0416 00:46:17.656134  1229 net.cpp:137] Memory required for data: 1248378900
I0416 00:46:17.656138  1229 layer_factory.hpp:77] Creating layer bn4b2_branch2a
I0416 00:46:17.656144  1229 net.cpp:84] Creating Layer bn4b2_branch2a
I0416 00:46:17.656148  1229 net.cpp:406] bn4b2_branch2a <- res4b2_branch2a
I0416 00:46:17.656152  1229 net.cpp:367] bn4b2_branch2a -> res4b2_branch2a (in-place)
I0416 00:46:17.656332  1229 net.cpp:122] Setting up bn4b2_branch2a
I0416 00:46:17.656337  1229 net.cpp:129] Top shape: 5 256 14 14 (250880)
I0416 00:46:17.656339  1229 net.cpp:137] Memory required for data: 1249382420
I0416 00:46:17.656344  1229 layer_factory.hpp:77] Creating layer scale4b2_branch2a
I0416 00:46:17.656350  1229 net.cpp:84] Creating Layer scale4b2_branch2a
I0416 00:46:17.656353  1229 net.cpp:406] scale4b2_branch2a <- res4b2_branch2a
I0416 00:46:17.656358  1229 net.cpp:367] scale4b2_branch2a -> res4b2_branch2a (in-place)
I0416 00:46:17.656394  1229 layer_factory.hpp:77] Creating layer scale4b2_branch2a
I0416 00:46:17.656493  1229 net.cpp:122] Setting up scale4b2_branch2a
I0416 00:46:17.656497  1229 net.cpp:129] Top shape: 5 256 14 14 (250880)
I0416 00:46:17.656500  1229 net.cpp:137] Memory required for data: 1250385940
I0416 00:46:17.656504  1229 layer_factory.hpp:77] Creating layer res4b2_branch2a_relu
I0416 00:46:17.656509  1229 net.cpp:84] Creating Layer res4b2_branch2a_relu
I0416 00:46:17.656512  1229 net.cpp:406] res4b2_branch2a_relu <- res4b2_branch2a
I0416 00:46:17.656517  1229 net.cpp:367] res4b2_branch2a_relu -> res4b2_branch2a (in-place)
I0416 00:46:17.656911  1229 net.cpp:122] Setting up res4b2_branch2a_relu
I0416 00:46:17.656919  1229 net.cpp:129] Top shape: 5 256 14 14 (250880)
I0416 00:46:17.656921  1229 net.cpp:137] Memory required for data: 1251389460
I0416 00:46:17.656924  1229 layer_factory.hpp:77] Creating layer res4b2_branch2b
I0416 00:46:17.656930  1229 net.cpp:84] Creating Layer res4b2_branch2b
I0416 00:46:17.656934  1229 net.cpp:406] res4b2_branch2b <- res4b2_branch2a
I0416 00:46:17.656939  1229 net.cpp:380] res4b2_branch2b -> res4b2_branch2b
I0416 00:46:17.662588  1229 net.cpp:122] Setting up res4b2_branch2b
I0416 00:46:17.662597  1229 net.cpp:129] Top shape: 5 256 14 14 (250880)
I0416 00:46:17.662600  1229 net.cpp:137] Memory required for data: 1252392980
I0416 00:46:17.662606  1229 layer_factory.hpp:77] Creating layer bn4b2_branch2b
I0416 00:46:17.662611  1229 net.cpp:84] Creating Layer bn4b2_branch2b
I0416 00:46:17.662616  1229 net.cpp:406] bn4b2_branch2b <- res4b2_branch2b
I0416 00:46:17.662619  1229 net.cpp:367] bn4b2_branch2b -> res4b2_branch2b (in-place)
I0416 00:46:17.662804  1229 net.cpp:122] Setting up bn4b2_branch2b
I0416 00:46:17.662809  1229 net.cpp:129] Top shape: 5 256 14 14 (250880)
I0416 00:46:17.662812  1229 net.cpp:137] Memory required for data: 1253396500
I0416 00:46:17.662817  1229 layer_factory.hpp:77] Creating layer scale4b2_branch2b
I0416 00:46:17.662822  1229 net.cpp:84] Creating Layer scale4b2_branch2b
I0416 00:46:17.662825  1229 net.cpp:406] scale4b2_branch2b <- res4b2_branch2b
I0416 00:46:17.662830  1229 net.cpp:367] scale4b2_branch2b -> res4b2_branch2b (in-place)
I0416 00:46:17.662869  1229 layer_factory.hpp:77] Creating layer scale4b2_branch2b
I0416 00:46:17.662969  1229 net.cpp:122] Setting up scale4b2_branch2b
I0416 00:46:17.662973  1229 net.cpp:129] Top shape: 5 256 14 14 (250880)
I0416 00:46:17.662976  1229 net.cpp:137] Memory required for data: 1254400020
I0416 00:46:17.662981  1229 layer_factory.hpp:77] Creating layer res4b2_branch2b_relu
I0416 00:46:17.662983  1229 net.cpp:84] Creating Layer res4b2_branch2b_relu
I0416 00:46:17.662987  1229 net.cpp:406] res4b2_branch2b_relu <- res4b2_branch2b
I0416 00:46:17.662991  1229 net.cpp:367] res4b2_branch2b_relu -> res4b2_branch2b (in-place)
I0416 00:46:17.663394  1229 net.cpp:122] Setting up res4b2_branch2b_relu
I0416 00:46:17.663401  1229 net.cpp:129] Top shape: 5 256 14 14 (250880)
I0416 00:46:17.663403  1229 net.cpp:137] Memory required for data: 1255403540
I0416 00:46:17.663406  1229 layer_factory.hpp:77] Creating layer res4b2_branch2c
I0416 00:46:17.663414  1229 net.cpp:84] Creating Layer res4b2_branch2c
I0416 00:46:17.663417  1229 net.cpp:406] res4b2_branch2c <- res4b2_branch2b
I0416 00:46:17.663421  1229 net.cpp:380] res4b2_branch2c -> res4b2_branch2c
I0416 00:46:17.666947  1229 net.cpp:122] Setting up res4b2_branch2c
I0416 00:46:17.666956  1229 net.cpp:129] Top shape: 5 1024 14 14 (1003520)
I0416 00:46:17.666959  1229 net.cpp:137] Memory required for data: 1259417620
I0416 00:46:17.666963  1229 layer_factory.hpp:77] Creating layer bn4b2_branch2c
I0416 00:46:17.666970  1229 net.cpp:84] Creating Layer bn4b2_branch2c
I0416 00:46:17.666975  1229 net.cpp:406] bn4b2_branch2c <- res4b2_branch2c
I0416 00:46:17.666980  1229 net.cpp:367] bn4b2_branch2c -> res4b2_branch2c (in-place)
I0416 00:46:17.667160  1229 net.cpp:122] Setting up bn4b2_branch2c
I0416 00:46:17.667165  1229 net.cpp:129] Top shape: 5 1024 14 14 (1003520)
I0416 00:46:17.667166  1229 net.cpp:137] Memory required for data: 1263431700
I0416 00:46:17.667171  1229 layer_factory.hpp:77] Creating layer scale4b2_branch2c
I0416 00:46:17.667177  1229 net.cpp:84] Creating Layer scale4b2_branch2c
I0416 00:46:17.667181  1229 net.cpp:406] scale4b2_branch2c <- res4b2_branch2c
I0416 00:46:17.667184  1229 net.cpp:367] scale4b2_branch2c -> res4b2_branch2c (in-place)
I0416 00:46:17.667217  1229 layer_factory.hpp:77] Creating layer scale4b2_branch2c
I0416 00:46:17.667320  1229 net.cpp:122] Setting up scale4b2_branch2c
I0416 00:46:17.667325  1229 net.cpp:129] Top shape: 5 1024 14 14 (1003520)
I0416 00:46:17.667327  1229 net.cpp:137] Memory required for data: 1267445780
I0416 00:46:17.667331  1229 layer_factory.hpp:77] Creating layer res4b2
I0416 00:46:17.667336  1229 net.cpp:84] Creating Layer res4b2
I0416 00:46:17.667340  1229 net.cpp:406] res4b2 <- res4b1_res4b1_relu_0_split_1
I0416 00:46:17.667345  1229 net.cpp:406] res4b2 <- res4b2_branch2c
I0416 00:46:17.667351  1229 net.cpp:380] res4b2 -> res4b2
I0416 00:46:17.667374  1229 net.cpp:122] Setting up res4b2
I0416 00:46:17.667378  1229 net.cpp:129] Top shape: 5 1024 14 14 (1003520)
I0416 00:46:17.667381  1229 net.cpp:137] Memory required for data: 1271459860
I0416 00:46:17.667383  1229 layer_factory.hpp:77] Creating layer res4b2_relu
I0416 00:46:17.667387  1229 net.cpp:84] Creating Layer res4b2_relu
I0416 00:46:17.667389  1229 net.cpp:406] res4b2_relu <- res4b2
I0416 00:46:17.667392  1229 net.cpp:367] res4b2_relu -> res4b2 (in-place)
I0416 00:46:17.667908  1229 net.cpp:122] Setting up res4b2_relu
I0416 00:46:17.667917  1229 net.cpp:129] Top shape: 5 1024 14 14 (1003520)
I0416 00:46:17.667918  1229 net.cpp:137] Memory required for data: 1275473940
I0416 00:46:17.667922  1229 layer_factory.hpp:77] Creating layer res4b2_res4b2_relu_0_split
I0416 00:46:17.667927  1229 net.cpp:84] Creating Layer res4b2_res4b2_relu_0_split
I0416 00:46:17.667930  1229 net.cpp:406] res4b2_res4b2_relu_0_split <- res4b2
I0416 00:46:17.667934  1229 net.cpp:380] res4b2_res4b2_relu_0_split -> res4b2_res4b2_relu_0_split_0
I0416 00:46:17.667940  1229 net.cpp:380] res4b2_res4b2_relu_0_split -> res4b2_res4b2_relu_0_split_1
I0416 00:46:17.667980  1229 net.cpp:122] Setting up res4b2_res4b2_relu_0_split
I0416 00:46:17.667984  1229 net.cpp:129] Top shape: 5 1024 14 14 (1003520)
I0416 00:46:17.667987  1229 net.cpp:129] Top shape: 5 1024 14 14 (1003520)
…
I0416 00:46:20.765884  1229 net.cpp:406] bn4b33_branch2a <- res4b33_branch2a
I0416 00:46:20.765888  1229 net.cpp:367] bn4b33_branch2a -> res4b33_branch2a (in-place)
I0416 00:46:20.766063  1229 net.cpp:122] Setting up bn4b33_branch2a
I0416 00:46:20.766068  1229 net.cpp:129] Top shape: 1 256 14 14 (50176)
I0416 00:46:20.766072  1229 net.cpp:137] Memory required for data: 473862160
I0416 00:46:20.766077  1229 layer_factory.hpp:77] Creating layer scale4b33_branch2a
I0416 00:46:20.766083  1229 net.cpp:84] Creating Layer scale4b33_branch2a
I0416 00:46:20.766086  1229 net.cpp:406] scale4b33_branch2a <- res4b33_branch2a
I0416 00:46:20.766089  1229 net.cpp:367] scale4b33_branch2a -> res4b33_branch2a (in-place)
I0416 00:46:20.766122  1229 layer_factory.hpp:77] Creating layer scale4b33_branch2a
I0416 00:46:20.766208  1229 net.cpp:122] Setting up scale4b33_branch2a
I0416 00:46:20.766212  1229 net.cpp:129] Top shape: 1 256 14 14 (50176)
I0416 00:46:20.766216  1229 net.cpp:137] Memory required for data: 474062864
I0416 00:46:20.766219  1229 layer_factory.hpp:77] Creating layer res4b33_branch2a_relu
I0416 00:46:20.766223  1229 net.cpp:84] Creating Layer res4b33_branch2a_relu
I0416 00:46:20.766227  1229 net.cpp:406] res4b33_branch2a_relu <- res4b33_branch2a
I0416 00:46:20.766232  1229 net.cpp:367] res4b33_branch2a_relu -> res4b33_branch2a (in-place)
I0416 00:46:20.766705  1229 net.cpp:122] Setting up res4b33_branch2a_relu
I0416 00:46:20.766711  1229 net.cpp:129] Top shape: 1 256 14 14 (50176)
I0416 00:46:20.766713  1229 net.cpp:137] Memory required for data: 474263568
I0416 00:46:20.766716  1229 layer_factory.hpp:77] Creating layer res4b33_branch2b
I0416 00:46:20.766723  1229 net.cpp:84] Creating Layer res4b33_branch2b
I0416 00:46:20.766727  1229 net.cpp:406] res4b33_branch2b <- res4b33_branch2a
I0416 00:46:20.766731  1229 net.cpp:380] res4b33_branch2b -> res4b33_branch2b
I0416 00:46:20.772791  1229 net.cpp:122] Setting up res4b33_branch2b
I0416 00:46:20.772801  1229 net.cpp:129] Top shape: 1 256 14 14 (50176)
I0416 00:46:20.772810  1229 net.cpp:137] Memory required for data: 474464272
I0416 00:46:20.772815  1229 layer_factory.hpp:77] Creating layer bn4b33_branch2b
I0416 00:46:20.772821  1229 net.cpp:84] Creating Layer bn4b33_branch2b
I0416 00:46:20.772826  1229 net.cpp:406] bn4b33_branch2b <- res4b33_branch2b
I0416 00:46:20.772830  1229 net.cpp:367] bn4b33_branch2b -> res4b33_branch2b (in-place)
I0416 00:46:20.772992  1229 net.cpp:122] Setting up bn4b33_branch2b
I0416 00:46:20.772997  1229 net.cpp:129] Top shape: 1 256 14 14 (50176)
I0416 00:46:20.773000  1229 net.cpp:137] Memory required for data: 474664976
I0416 00:46:20.773005  1229 layer_factory.hpp:77] Creating layer scale4b33_branch2b
I0416 00:46:20.773010  1229 net.cpp:84] Creating Layer scale4b33_branch2b
I0416 00:46:20.773013  1229 net.cpp:406] scale4b33_branch2b <- res4b33_branch2b
I0416 00:46:20.773016  1229 net.cpp:367] scale4b33_branch2b -> res4b33_branch2b (in-place)
I0416 00:46:20.773049  1229 layer_factory.hpp:77] Creating layer scale4b33_branch2b
I0416 00:46:20.773138  1229 net.cpp:122] Setting up scale4b33_branch2b
I0416 00:46:20.773142  1229 net.cpp:129] Top shape: 1 256 14 14 (50176)
I0416 00:46:20.773145  1229 net.cpp:137] Memory required for data: 474865680
I0416 00:46:20.773149  1229 layer_factory.hpp:77] Creating layer res4b33_branch2b_relu
I0416 00:46:20.773155  1229 net.cpp:84] Creating Layer res4b33_branch2b_relu
I0416 00:46:20.773159  1229 net.cpp:406] res4b33_branch2b_relu <- res4b33_branch2b
I0416 00:46:20.773162  1229 net.cpp:367] res4b33_branch2b_relu -> res4b33_branch2b (in-place)
I0416 00:46:20.773807  1229 net.cpp:122] Setting up res4b33_branch2b_relu
I0416 00:46:20.773813  1229 net.cpp:129] Top shape: 1 256 14 14 (50176)
I0416 00:46:20.773816  1229 net.cpp:137] Memory required for data: 475066384
I0416 00:46:20.773818  1229 layer_factory.hpp:77] Creating layer res4b33_branch2c
I0416 00:46:20.773826  1229 net.cpp:84] Creating Layer res4b33_branch2c
I0416 00:46:20.773830  1229 net.cpp:406] res4b33_branch2c <- res4b33_branch2b
I0416 00:46:20.773834  1229 net.cpp:380] res4b33_branch2c -> res4b33_branch2c
I0416 00:46:20.777187  1229 net.cpp:122] Setting up res4b33_branch2c
I0416 00:46:20.777195  1229 net.cpp:129] Top shape: 1 1024 14 14 (200704)
I0416 00:46:20.777199  1229 net.cpp:137] Memory required for data: 475869200
I0416 00:46:20.777202  1229 layer_factory.hpp:77] Creating layer bn4b33_branch2c
I0416 00:46:20.777209  1229 net.cpp:84] Creating Layer bn4b33_branch2c
I0416 00:46:20.777211  1229 net.cpp:406] bn4b33_branch2c <- res4b33_branch2c
I0416 00:46:20.777217  1229 net.cpp:367] bn4b33_branch2c -> res4b33_branch2c (in-place)
I0416 00:46:20.777436  1229 net.cpp:122] Setting up bn4b33_branch2c
I0416 00:46:20.777441  1229 net.cpp:129] Top shape: 1 1024 14 14 (200704)
I0416 00:46:20.777444  1229 net.cpp:137] Memory required for data: 476672016
I0416 00:46:20.777449  1229 layer_factory.hpp:77] Creating layer scale4b33_branch2c
I0416 00:46:20.777456  1229 net.cpp:84] Creating Layer scale4b33_branch2c
I0416 00:46:20.777459  1229 net.cpp:406] scale4b33_branch2c <- res4b33_branch2c
I0416 00:46:20.777463  1229 net.cpp:367] scale4b33_branch2c -> res4b33_branch2c (in-place)
I0416 00:46:20.777518  1229 layer_factory.hpp:77] Creating layer scale4b33_branch2c
I0416 00:46:20.777642  1229 net.cpp:122] Setting up scale4b33_branch2c
I0416 00:46:20.777647  1229 net.cpp:129] Top shape: 1 1024 14 14 (200704)
I0416 00:46:20.777648  1229 net.cpp:137] Memory required for data: 477474832
I0416 00:46:20.777652  1229 layer_factory.hpp:77] Creating layer res4b33
I0416 00:46:20.777657  1229 net.cpp:84] Creating Layer res4b33
I0416 00:46:20.777660  1229 net.cpp:406] res4b33 <- res4b32_res4b32_relu_0_split_1
I0416 00:46:20.777665  1229 net.cpp:406] res4b33 <- res4b33_branch2c
I0416 00:46:20.777669  1229 net.cpp:380] res4b33 -> res4b33
I0416 00:46:20.777690  1229 net.cpp:122] Setting up res4b33
I0416 00:46:20.777695  1229 net.cpp:129] Top shape: 1 1024 14 14 (200704)
I0416 00:46:20.777698  1229 net.cpp:137] Memory required for data: 478277648
I0416 00:46:20.777706  1229 layer_factory.hpp:77] Creating layer res4b33_relu
I0416 00:46:20.777710  1229 net.cpp:84] Creating Layer res4b33_relu
I0416 00:46:20.777714  1229 net.cpp:406] res4b33_relu <- res4b33
I0416 00:46:20.777716  1229 net.cpp:367] res4b33_relu -> res4b33 (in-place)
I0416 00:46:20.778358  1229 net.cpp:122] Setting up res4b33_relu
I0416 00:46:20.778365  1229 net.cpp:129] Top shape: 1 1024 14 14 (200704)
I0416 00:46:20.778368  1229 net.cpp:137] Memory required for data: 479080464
I0416 00:46:20.778372  1229 layer_factory.hpp:77] Creating layer res4b33_res4b33_relu_0_split
I0416 00:46:20.778376  1229 net.cpp:84] Creating Layer res4b33_res4b33_relu_0_split
I0416 00:46:20.778380  1229 net.cpp:406] res4b33_res4b33_relu_0_split <- res4b33
I0416 00:46:20.778384  1229 net.cpp:380] res4b33_res4b33_relu_0_split -> res4b33_res4b33_relu_0_split_0
I0416 00:46:20.778391  1229 net.cpp:380] res4b33_res4b33_relu_0_split -> res4b33_res4b33_relu_0_split_1
I0416 00:46:20.778430  1229 net.cpp:122] Setting up res4b33_res4b33_relu_0_split
I0416 00:46:20.778435  1229 net.cpp:129] Top shape: 1 1024 14 14 (200704)
I0416 00:46:20.778439  1229 net.cpp:129] Top shape: 1 1024 14 14 (200704)
I0416 00:46:20.778440  1229 net.cpp:137] Memory required for data: 480686096
I0416 00:46:20.778443  1229 layer_factory.hpp:77] Creating layer res4b34_branch2a
I0416 00:46:20.778450  1229 net.cpp:84] Creating Layer res4b34_branch2a
I0416 00:46:20.778453  1229 net.cpp:406] res4b34_branch2a <- res4b33_res4b33_relu_0_split_0
I0416 00:46:20.778460  1229 net.cpp:380] res4b34_branch2a -> res4b34_branch2a
I0416 00:46:20.782342  1229 net.cpp:122] Setting up res4b34_branch2a
I0416 00:46:20.782352  1229 net.cpp:129] Top shape: 1 256 14 14 (50176)
I0416 00:46:20.782354  1229 net.cpp:137] Memory required for data: 480886800
I0416 00:46:20.782359  1229 layer_factory.hpp:77] Creating layer bn4b34_branch2a
I0416 00:46:20.782366  1229 net.cpp:84] Creating Layer bn4b34_branch2a
I0416 00:46:20.782369  1229 net.cpp:406] bn4b34_branch2a <- res4b34_branch2a
I0416 00:46:20.782375  1229 net.cpp:367] bn4b34_branch2a -> res4b34_branch2a (in-place)
I0416 00:46:20.782538  1229 net.cpp:122] Setting up bn4b34_branch2a
I0416 00:46:20.782543  1229 net.cpp:129] Top shape: 1 256 14 14 (50176)
I0416 00:46:20.782546  1229 net.cpp:137] Memory required for data: 481087504
I0416 00:46:20.782551  1229 layer_factory.hpp:77] Creating layer scale4b34_branch2a
I0416 00:46:20.782555  1229 net.cpp:84] Creating Layer scale4b34_branch2a
I0416 00:46:20.782557  1229 net.cpp:406] scale4b34_branch2a <- res4b34_branch2a
I0416 00:46:20.782562  1229 net.cpp:367] scale4b34_branch2a -> res4b34_branch2a (in-place)
I0416 00:46:20.782595  1229 layer_factory.hpp:77] Creating layer scale4b34_branch2a
I0416 00:46:20.782681  1229 net.cpp:122] Setting up scale4b34_branch2a
I0416 00:46:20.782686  1229 net.cpp:129] Top shape: 1 256 14 14 (50176)
I0416 00:46:20.782688  1229 net.cpp:137] Memory required for data: 481288208
I0416 00:46:20.782692  1229 layer_factory.hpp:77] Creating layer res4b34_branch2a_relu
I0416 00:46:20.782697  1229 net.cpp:84] Creating Layer res4b34_branch2a_relu
I0416 00:46:20.782701  1229 net.cpp:406] res4b34_branch2a_relu <- res4b34_branch2a
I0416 00:46:20.782706  1229 net.cpp:367] res4b34_branch2a_relu -> res4b34_branch2a (in-place)
I0416 00:46:20.783186  1229 net.cpp:122] Setting up res4b34_branch2a_relu
I0416 00:46:20.783193  1229 net.cpp:129] Top shape: 1 256 14 14 (50176)
I0416 00:46:20.783195  1229 net.cpp:137] Memory required for data: 481488912
I0416 00:46:20.783198  1229 layer_factory.hpp:77] Creating layer res4b34_branch2b
I0416 00:46:20.783205  1229 net.cpp:84] Creating Layer res4b34_branch2b
I0416 00:46:20.783210  1229 net.cpp:406] res4b34_branch2b <- res4b34_branch2a
I0416 00:46:20.783215  1229 net.cpp:380] res4b34_branch2b -> res4b34_branch2b
I0416 00:46:20.789345  1229 net.cpp:122] Setting up res4b34_branch2b
I0416 00:46:20.789357  1229 net.cpp:129] Top shape: 1 256 14 14 (50176)
I0416 00:46:20.789361  1229 net.cpp:137] Memory required for data: 481689616
I0416 00:46:20.789366  1229 layer_factory.hpp:77] Creating layer bn4b34_branch2b
I0416 00:46:20.789381  1229 net.cpp:84] Creating Layer bn4b34_branch2b
I0416 00:46:20.789386  1229 net.cpp:406] bn4b34_branch2b <- res4b34_branch2b
I0416 00:46:20.789392  1229 net.cpp:367] bn4b34_branch2b -> res4b34_branch2b (in-place)
I0416 00:46:20.789561  1229 net.cpp:122] Setting up bn4b34_branch2b
I0416 00:46:20.789566  1229 net.cpp:129] Top shape: 1 256 14 14 (50176)
I0416 00:46:20.789568  1229 net.cpp:137] Memory required for data: 481890320
I0416 00:46:20.789573  1229 layer_factory.hpp:77] Creating layer scale4b34_branch2b
I0416 00:46:20.789580  1229 net.cpp:84] Creating Layer scale4b34_branch2b
I0416 00:46:20.789584  1229 net.cpp:406] scale4b34_branch2b <- res4b34_branch2b
I0416 00:46:20.789588  1229 net.cpp:367] scale4b34_branch2b -> res4b34_branch2b (in-place)
I0416 00:46:20.789620  1229 layer_factory.hpp:77] Creating layer scale4b34_branch2b
I0416 00:46:20.789710  1229 net.cpp:122] Setting up scale4b34_branch2b
I0416 00:46:20.789714  1229 net.cpp:129] Top shape: 1 256 14 14 (50176)
I0416 00:46:20.789716  1229 net.cpp:137] Memory required for data: 482091024
I0416 00:46:20.789721  1229 layer_factory.hpp:77] Creating layer res4b34_branch2b_relu
I0416 00:46:20.789726  1229 net.cpp:84] Creating Layer res4b34_branch2b_relu
I0416 00:46:20.789729  1229 net.cpp:406] res4b34_branch2b_relu <- res4b34_branch2b
I0416 00:46:20.789733  1229 net.cpp:367] res4b34_branch2b_relu -> res4b34_branch2b (in-place)
I0416 00:46:20.790222  1229 net.cpp:122] Setting up res4b34_branch2b_relu
I0416 00:46:20.790230  1229 net.cpp:129] Top shape: 1 256 14 14 (50176)
I0416 00:46:20.790231  1229 net.cpp:137] Memory required for data: 482291728
I0416 00:46:20.790235  1229 layer_factory.hpp:77] Creating layer res4b34_branch2c
I0416 00:46:20.790241  1229 net.cpp:84] Creating Layer res4b34_branch2c
I0416 00:46:20.790246  1229 net.cpp:406] res4b34_branch2c <- res4b34_branch2b
I0416 00:46:20.790251  1229 net.cpp:380] res4b34_branch2c -> res4b34_branch2c
I0416 00:46:20.793637  1229 net.cpp:122] Setting up res4b34_branch2c
I0416 00:46:20.793645  1229 net.cpp:129] Top shape: 1 1024 14 14 (200704)
I0416 00:46:20.793648  1229 net.cpp:137] Memory required for data: 483094544
I0416 00:46:20.793653  1229 layer_factory.hpp:77] Creating layer bn4b34_branch2c
I0416 00:46:20.793658  1229 net.cpp:84] Creating Layer bn4b34_branch2c
I0416 00:46:20.793661  1229 net.cpp:406] bn4b34_branch2c <- res4b34_branch2c
I0416 00:46:20.793668  1229 net.cpp:367] bn4b34_branch2c -> res4b34_branch2c (in-place)
I0416 00:46:20.793907  1229 net.cpp:122] Setting up bn4b34_branch2c
I0416 00:46:20.793913  1229 net.cpp:129] Top shape: 1 1024 14 14 (200704)
I0416 00:46:20.793915  1229 net.cpp:137] Memory required for data: 483897360
I0416 00:46:20.793921  1229 layer_factory.hpp:77] Creating layer scale4b34_branch2c
I0416 00:46:20.793931  1229 net.cpp:84] Creating Layer scale4b34_branch2c
I0416 00:46:20.793934  1229 net.cpp:406] scale4b34_branch2c <- res4b34_branch2c
I0416 00:46:20.793938  1229 net.cpp:367] scale4b34_branch2c -> res4b34_branch2c (in-place)
I0416 00:46:20.793994  1229 layer_factory.hpp:77] Creating layer scale4b34_branch2c
I0416 00:46:20.794117  1229 net.cpp:122] Setting up scale4b34_branch2c
I0416 00:46:20.794121  1229 net.cpp:129] Top shape: 1 1024 14 14 (200704)
I0416 00:46:20.794124  1229 net.cpp:137] Memory required for data: 484700176
I0416 00:46:20.794128  1229 layer_factory.hpp:77] Creating layer res4b34
I0416 00:46:20.794133  1229 net.cpp:84] Creating Layer res4b34
I0416 00:46:20.794137  1229 net.cpp:406] res4b34 <- res4b33_res4b33_relu_0_split_1
I0416 00:46:20.794140  1229 net.cpp:406] res4b34 <- res4b34_branch2c
I0416 00:46:20.794144  1229 net.cpp:380] res4b34 -> res4b34
I0416 00:46:20.794167  1229 net.cpp:122] Setting up res4b34
I0416 00:46:20.794172  1229 net.cpp:129] Top shape: 1 1024 14 14 (200704)
I0416 00:46:20.794174  1229 net.cpp:137] Memory required for data: 485502992
I0416 00:46:20.794176  1229 layer_factory.hpp:77] Creating layer res4b34_relu
I0416 00:46:20.794180  1229 net.cpp:84] Creating Layer res4b34_relu
I0416 00:46:20.794188  1229 net.cpp:406] res4b34_relu <- res4b34
I0416 00:46:20.794194  1229 net.cpp:367] res4b34_relu -> res4b34 (in-place)
I0416 00:46:20.794850  1229 net.cpp:122] Setting up res4b34_relu
I0416 00:46:20.794857  1229 net.cpp:129] Top shape: 1 1024 14 14 (200704)
I0416 00:46:20.794860  1229 net.cpp:137] Memory required for data: 486305808
I0416 00:46:20.794863  1229 layer_factory.hpp:77] Creating layer res4b34_res4b34_relu_0_split
I0416 00:46:20.794868  1229 net.cpp:84] Creating Layer res4b34_res4b34_relu_0_split
I0416 00:46:20.794872  1229 net.cpp:406] res4b34_res4b34_relu_0_split <- res4b34
I0416 00:46:20.794878  1229 net.cpp:380] res4b34_res4b34_relu_0_split -> res4b34_res4b34_relu_0_split_0
I0416 00:46:20.794884  1229 net.cpp:380] res4b34_res4b34_relu_0_split -> res4b34_res4b34_relu_0_split_1
I0416 00:46:20.794924  1229 net.cpp:122] Setting up res4b34_res4b34_relu_0_split
I0416 00:46:20.794929  1229 net.cpp:129] Top shape: 1 1024 14 14 (200704)
I0416 00:46:20.794931  1229 net.cpp:129] Top shape: 1 1024 14 14 (200704)
I0416 00:46:20.794934  1229 net.cpp:137] Memory required for data: 487911440
I0416 00:46:20.794936  1229 layer_factory.hpp:77] Creating layer res4b35_branch2a
I0416 00:46:20.794944  1229 net.cpp:84] Creating Layer res4b35_branch2a
I0416 00:46:20.794947  1229 net.cpp:406] res4b35_branch2a <- res4b34_res4b34_relu_0_split_0
I0416 00:46:20.794951  1229 net.cpp:380] res4b35_branch2a -> res4b35_branch2a
I0416 00:46:20.798903  1229 net.cpp:122] Setting up res4b35_branch2a
I0416 00:46:20.798915  1229 net.cpp:129] Top shape: 1 256 14 14 (50176)
I0416 00:46:20.798918  1229 net.cpp:137] Memory required for data: 488112144
I0416 00:46:20.798923  1229 layer_factory.hpp:77] Creating layer bn4b35_branch2a
I0416 00:46:20.798929  1229 net.cpp:84] Creating Layer bn4b35_branch2a
I0416 00:46:20.798933  1229 net.cpp:406] bn4b35_branch2a <- res4b35_branch2a
I0416 00:46:20.798943  1229 net.cpp:367] bn4b35_branch2a -> res4b35_branch2a (in-place)
I0416 00:46:20.799108  1229 net.cpp:122] Setting up bn4b35_branch2a
I0416 00:46:20.799113  1229 net.cpp:129] Top shape: 1 256 14 14 (50176)
I0416 00:46:20.799115  1229 net.cpp:137] Memory required for data: 488312848
I0416 00:46:20.799120  1229 layer_factory.hpp:77] Creating layer scale4b35_branch2a
I0416 00:46:20.799125  1229 net.cpp:84] Creating Layer scale4b35_branch2a
I0416 00:46:20.799129  1229 net.cpp:406] scale4b35_branch2a <- res4b35_branch2a
I0416 00:46:20.799132  1229 net.cpp:367] scale4b35_branch2a -> res4b35_branch2a (in-place)
I0416 00:46:20.799165  1229 layer_factory.hpp:77] Creating layer scale4b35_branch2a
I0416 00:46:20.799253  1229 net.cpp:122] Setting up scale4b35_branch2a
I0416 00:46:20.799258  1229 net.cpp:129] Top shape: 1 256 14 14 (50176)
I0416 00:46:20.799260  1229 net.cpp:137] Memory required for data: 488513552
I0416 00:46:20.799264  1229 layer_factory.hpp:77] Creating layer res4b35_branch2a_relu
I0416 00:46:20.799269  1229 net.cpp:84] Creating Layer res4b35_branch2a_relu
I0416 00:46:20.799273  1229 net.cpp:406] res4b35_branch2a_relu <- res4b35_branch2a
I0416 00:46:20.799278  1229 net.cpp:367] res4b35_branch2a_relu -> res4b35_branch2a (in-place)
I0416 00:46:20.799758  1229 net.cpp:122] Setting up res4b35_branch2a_relu
I0416 00:46:20.799765  1229 net.cpp:129] Top shape: 1 256 14 14 (50176)
I0416 00:46:20.799767  1229 net.cpp:137] Memory required for data: 488714256
I0416 00:46:20.799770  1229 layer_factory.hpp:77] Creating layer res4b35_branch2b
I0416 00:46:20.799778  1229 net.cpp:84] Creating Layer res4b35_branch2b
I0416 00:46:20.799782  1229 net.cpp:406] res4b35_branch2b <- res4b35_branch2a
I0416 00:46:20.799787  1229 net.cpp:380] res4b35_branch2b -> res4b35_branch2b
I0416 00:46:20.805927  1229 net.cpp:122] Setting up res4b35_branch2b
I0416 00:46:20.805938  1229 net.cpp:129] Top shape: 1 256 14 14 (50176)
I0416 00:46:20.805939  1229 net.cpp:137] Memory required for data: 488914960
I0416 00:46:20.805944  1229 layer_factory.hpp:77] Creating layer bn4b35_branch2b
I0416 00:46:20.805950  1229 net.cpp:84] Creating Layer bn4b35_branch2b
I0416 00:46:20.805963  1229 net.cpp:406] bn4b35_branch2b <- res4b35_branch2b
I0416 00:46:20.805966  1229 net.cpp:367] bn4b35_branch2b -> res4b35_branch2b (in-place)
I0416 00:46:20.806134  1229 net.cpp:122] Setting up bn4b35_branch2b
I0416 00:46:20.806138  1229 net.cpp:129] Top shape: 1 256 14 14 (50176)
I0416 00:46:20.806140  1229 net.cpp:137] Memory required for data: 489115664
I0416 00:46:20.806146  1229 layer_factory.hpp:77] Creating layer scale4b35_branch2b
I0416 00:46:20.806152  1229 net.cpp:84] Creating Layer scale4b35_branch2b
I0416 00:46:20.806156  1229 net.cpp:406] scale4b35_branch2b <- res4b35_branch2b
I0416 00:46:20.806159  1229 net.cpp:367] scale4b35_branch2b -> res4b35_branch2b (in-place)
I0416 00:46:20.806193  1229 layer_factory.hpp:77] Creating layer scale4b35_branch2b
I0416 00:46:20.806283  1229 net.cpp:122] Setting up scale4b35_branch2b
I0416 00:46:20.806288  1229 net.cpp:129] Top shape: 1 256 14 14 (50176)
I0416 00:46:20.806290  1229 net.cpp:137] Memory required for data: 489316368
I0416 00:46:20.806294  1229 layer_factory.hpp:77] Creating layer res4b35_branch2b_relu
I0416 00:46:20.806301  1229 net.cpp:84] Creating Layer res4b35_branch2b_relu
I0416 00:46:20.806304  1229 net.cpp:406] res4b35_branch2b_relu <- res4b35_branch2b
I0416 00:46:20.806308  1229 net.cpp:367] res4b35_branch2b_relu -> res4b35_branch2b (in-place)
I0416 00:46:20.806787  1229 net.cpp:122] Setting up res4b35_branch2b_relu
I0416 00:46:20.806793  1229 net.cpp:129] Top shape: 1 256 14 14 (50176)
I0416 00:46:20.806795  1229 net.cpp:137] Memory required for data: 489517072
I0416 00:46:20.806798  1229 layer_factory.hpp:77] Creating layer res4b35_branch2c
I0416 00:46:20.806805  1229 net.cpp:84] Creating Layer res4b35_branch2c
I0416 00:46:20.806809  1229 net.cpp:406] res4b35_branch2c <- res4b35_branch2b
I0416 00:46:20.806815  1229 net.cpp:380] res4b35_branch2c -> res4b35_branch2c
I0416 00:46:20.810313  1229 net.cpp:122] Setting up res4b35_branch2c
I0416 00:46:20.810322  1229 net.cpp:129] Top shape: 1 1024 14 14 (200704)
I0416 00:46:20.810324  1229 net.cpp:137] Memory required for data: 490319888
I0416 00:46:20.810328  1229 layer_factory.hpp:77] Creating layer bn4b35_branch2c
I0416 00:46:20.810333  1229 net.cpp:84] Creating Layer bn4b35_branch2c
I0416 00:46:20.810338  1229 net.cpp:406] bn4b35_branch2c <- res4b35_branch2c
I0416 00:46:20.810343  1229 net.cpp:367] bn4b35_branch2c -> res4b35_branch2c (in-place)
I0416 00:46:20.810570  1229 net.cpp:122] Setting up bn4b35_branch2c
I0416 00:46:20.810575  1229 net.cpp:129] Top shape: 1 1024 14 14 (200704)
I0416 00:46:20.810576  1229 net.cpp:137] Memory required for data: 491122704
I0416 00:46:20.810582  1229 layer_factory.hpp:77] Creating layer scale4b35_branch2c
I0416 00:46:20.810586  1229 net.cpp:84] Creating Layer scale4b35_branch2c
I0416 00:46:20.810590  1229 net.cpp:406] scale4b35_branch2c <- res4b35_branch2c
I0416 00:46:20.810595  1229 net.cpp:367] scale4b35_branch2c -> res4b35_branch2c (in-place)
I0416 00:46:20.810650  1229 layer_factory.hpp:77] Creating layer scale4b35_branch2c
I0416 00:46:20.810787  1229 net.cpp:122] Setting up scale4b35_branch2c
I0416 00:46:20.810792  1229 net.cpp:129] Top shape: 1 1024 14 14 (200704)
I0416 00:46:20.810796  1229 net.cpp:137] Memory required for data: 491925520
I0416 00:46:20.810799  1229 layer_factory.hpp:77] Creating layer res4b35
I0416 00:46:20.810806  1229 net.cpp:84] Creating Layer res4b35
I0416 00:46:20.810809  1229 net.cpp:406] res4b35 <- res4b34_res4b34_relu_0_split_1
I0416 00:46:20.810812  1229 net.cpp:406] res4b35 <- res4b35_branch2c
I0416 00:46:20.810817  1229 net.cpp:380] res4b35 -> res4b35
I0416 00:46:20.810839  1229 net.cpp:122] Setting up res4b35
I0416 00:46:20.810844  1229 net.cpp:129] Top shape: 1 1024 14 14 (200704)
I0416 00:46:20.810847  1229 net.cpp:137] Memory required for data: 492728336
I0416 00:46:20.810848  1229 layer_factory.hpp:77] Creating layer res4b35_relu
I0416 00:46:20.810853  1229 net.cpp:84] Creating Layer res4b35_relu
I0416 00:46:20.810856  1229 net.cpp:406] res4b35_relu <- res4b35
I0416 00:46:20.810860  1229 net.cpp:367] res4b35_relu -> res4b35 (in-place)
I0416 00:46:20.811511  1229 net.cpp:122] Setting up res4b35_relu
I0416 00:46:20.811518  1229 net.cpp:129] Top shape: 1 1024 14 14 (200704)
I0416 00:46:20.811522  1229 net.cpp:137] Memory required for data: 493531152
I0416 00:46:20.811524  1229 layer_factory.hpp:77] Creating layer res4b35_res4b35_relu_0_split
I0416 00:46:20.811528  1229 net.cpp:84] Creating Layer res4b35_res4b35_relu_0_split
I0416 00:46:20.811532  1229 net.cpp:406] res4b35_res4b35_relu_0_split <- res4b35
I0416 00:46:20.811538  1229 net.cpp:380] res4b35_res4b35_relu_0_split -> res4b35_res4b35_relu_0_split_0
I0416 00:46:20.811545  1229 net.cpp:380] res4b35_res4b35_relu_0_split -> res4b35_res4b35_relu_0_split_1
I0416 00:46:20.811585  1229 net.cpp:122] Setting up res4b35_res4b35_relu_0_split
I0416 00:46:20.811590  1229 net.cpp:129] Top shape: 1 1024 14 14 (200704)
I0416 00:46:20.811594  1229 net.cpp:129] Top shape: 1 1024 14 14 (200704)
I0416 00:46:20.811595  1229 net.cpp:137] Memory required for data: 495136784
I0416 00:46:20.811599  1229 layer_factory.hpp:77] Creating layer res5a_branch1
I0416 00:46:20.811604  1229 net.cpp:84] Creating Layer res5a_branch1
I0416 00:46:20.811609  1229 net.cpp:406] res5a_branch1 <- res4b35_res4b35_relu_0_split_0
I0416 00:46:20.811614  1229 net.cpp:380] res5a_branch1 -> res5a_branch1
I0416 00:46:20.827491  1229 net.cpp:122] Setting up res5a_branch1
I0416 00:46:20.827507  1229 net.cpp:129] Top shape: 1 2048 7 7 (100352)
I0416 00:46:20.827508  1229 net.cpp:137] Memory required for data: 495538192
I0416 00:46:20.827514  1229 layer_factory.hpp:77] Creating layer bn5a_branch1
I0416 00:46:20.827522  1229 net.cpp:84] Creating Layer bn5a_branch1
I0416 00:46:20.827527  1229 net.cpp:406] bn5a_branch1 <- res5a_branch1
I0416 00:46:20.827531  1229 net.cpp:367] bn5a_branch1 -> res5a_branch1 (in-place)
I0416 00:46:20.827785  1229 net.cpp:122] Setting up bn5a_branch1
I0416 00:46:20.827791  1229 net.cpp:129] Top shape: 1 2048 7 7 (100352)
I0416 00:46:20.827793  1229 net.cpp:137] Memory required for data: 495939600
I0416 00:46:20.827800  1229 layer_factory.hpp:77] Creating layer scale5a_branch1
I0416 00:46:20.827805  1229 net.cpp:84] Creating Layer scale5a_branch1
I0416 00:46:20.827808  1229 net.cpp:406] scale5a_branch1 <- res5a_branch1
I0416 00:46:20.827812  1229 net.cpp:367] scale5a_branch1 -> res5a_branch1 (in-place)
I0416 00:46:20.827872  1229 layer_factory.hpp:77] Creating layer scale5a_branch1
I0416 00:46:20.828001  1229 net.cpp:122] Setting up scale5a_branch1
I0416 00:46:20.828004  1229 net.cpp:129] Top shape: 1 2048 7 7 (100352)
I0416 00:46:20.828007  1229 net.cpp:137] Memory required for data: 496341008
I0416 00:46:20.828011  1229 layer_factory.hpp:77] Creating layer res5a_branch2a
I0416 00:46:20.828018  1229 net.cpp:84] Creating Layer res5a_branch2a
I0416 00:46:20.828022  1229 net.cpp:406] res5a_branch2a <- res4b35_res4b35_relu_0_split_1
I0416 00:46:20.828027  1229 net.cpp:380] res5a_branch2a -> res5a_branch2a
I0416 00:46:20.833595  1229 net.cpp:122] Setting up res5a_branch2a
I0416 00:46:20.833607  1229 net.cpp:129] Top shape: 1 512 7 7 (25088)
I0416 00:46:20.833611  1229 net.cpp:137] Memory required for data: 496441360
I0416 00:46:20.833616  1229 layer_factory.hpp:77] Creating layer bn5a_branch2a
I0416 00:46:20.833621  1229 net.cpp:84] Creating Layer bn5a_branch2a
I0416 00:46:20.833626  1229 net.cpp:406] bn5a_branch2a <- res5a_branch2a
I0416 00:46:20.833631  1229 net.cpp:367] bn5a_branch2a -> res5a_branch2a (in-place)
I0416 00:46:20.833880  1229 net.cpp:122] Setting up bn5a_branch2a
I0416 00:46:20.833886  1229 net.cpp:129] Top shape: 1 512 7 7 (25088)
I0416 00:46:20.833889  1229 net.cpp:137] Memory required for data: 496541712
I0416 00:46:20.833894  1229 layer_factory.hpp:77] Creating layer scale5a_branch2a
I0416 00:46:20.833899  1229 net.cpp:84] Creating Layer scale5a_branch2a
I0416 00:46:20.833902  1229 net.cpp:406] scale5a_branch2a <- res5a_branch2a
I0416 00:46:20.833906  1229 net.cpp:367] scale5a_branch2a -> res5a_branch2a (in-place)
I0416 00:46:20.833966  1229 layer_factory.hpp:77] Creating layer scale5a_branch2a
I0416 00:46:20.834101  1229 net.cpp:122] Setting up scale5a_branch2a
I0416 00:46:20.834106  1229 net.cpp:129] Top shape: 1 512 7 7 (25088)
I0416 00:46:20.834108  1229 net.cpp:137] Memory required for data: 496642064
I0416 00:46:20.834112  1229 layer_factory.hpp:77] Creating layer res5a_branch2a_relu
I0416 00:46:20.834120  1229 net.cpp:84] Creating Layer res5a_branch2a_relu
I0416 00:46:20.834122  1229 net.cpp:406] res5a_branch2a_relu <- res5a_branch2a
I0416 00:46:20.834126  1229 net.cpp:367] res5a_branch2a_relu -> res5a_branch2a (in-place)
I0416 00:46:20.834796  1229 net.cpp:122] Setting up res5a_branch2a_relu
I0416 00:46:20.834803  1229 net.cpp:129] Top shape: 1 512 7 7 (25088)
I0416 00:46:20.834806  1229 net.cpp:137] Memory required for data: 496742416
I0416 00:46:20.834810  1229 layer_factory.hpp:77] Creating layer res5a_branch2b
I0416 00:46:20.834816  1229 net.cpp:84] Creating Layer res5a_branch2b
I0416 00:46:20.834820  1229 net.cpp:406] res5a_branch2b <- res5a_branch2a
I0416 00:46:20.834825  1229 net.cpp:380] res5a_branch2b -> res5a_branch2b
I0416 00:46:20.852622  1229 net.cpp:122] Setting up res5a_branch2b
I0416 00:46:20.852636  1229 net.cpp:129] Top shape: 1 512 7 7 (25088)
I0416 00:46:20.852639  1229 net.cpp:137] Memory required for data: 496842768
I0416 00:46:20.852644  1229 layer_factory.hpp:77] Creating layer bn5a_branch2b
I0416 00:46:20.852651  1229 net.cpp:84] Creating Layer bn5a_branch2b
I0416 00:46:20.852656  1229 net.cpp:406] bn5a_branch2b <- res5a_branch2b
I0416 00:46:20.852661  1229 net.cpp:367] bn5a_branch2b -> res5a_branch2b (in-place)
I0416 00:46:20.852916  1229 net.cpp:122] Setting up bn5a_branch2b
I0416 00:46:20.852921  1229 net.cpp:129] Top shape: 1 512 7 7 (25088)
I0416 00:46:20.852923  1229 net.cpp:137] Memory required for data: 496943120
I0416 00:46:20.852928  1229 layer_factory.hpp:77] Creating layer scale5a_branch2b
I0416 00:46:20.852936  1229 net.cpp:84] Creating Layer scale5a_branch2b
I0416 00:46:20.852939  1229 net.cpp:406] scale5a_branch2b <- res5a_branch2b
I0416 00:46:20.852943  1229 net.cpp:367] scale5a_branch2b -> res5a_branch2b (in-place)
I0416 00:46:20.853003  1229 layer_factory.hpp:77] Creating layer scale5a_branch2b
I0416 00:46:20.853132  1229 net.cpp:122] Setting up scale5a_branch2b
I0416 00:46:20.853137  1229 net.cpp:129] Top shape: 1 512 7 7 (25088)
I0416 00:46:20.853139  1229 net.cpp:137] Memory required for data: 497043472
I0416 00:46:20.853142  1229 layer_factory.hpp:77] Creating layer res5a_branch2b_relu
I0416 00:46:20.853149  1229 net.cpp:84] Creating Layer res5a_branch2b_relu
I0416 00:46:20.853152  1229 net.cpp:406] res5a_branch2b_relu <- res5a_branch2b
I0416 00:46:20.853157  1229 net.cpp:367] res5a_branch2b_relu -> res5a_branch2b (in-place)
I0416 00:46:20.853633  1229 net.cpp:122] Setting up res5a_branch2b_relu
I0416 00:46:20.853639  1229 net.cpp:129] Top shape: 1 512 7 7 (25088)
I0416 00:46:20.853641  1229 net.cpp:137] Memory required for data: 497143824
I0416 00:46:20.853644  1229 layer_factory.hpp:77] Creating layer res5a_branch2c
I0416 00:46:20.853652  1229 net.cpp:84] Creating Layer res5a_branch2c
I0416 00:46:20.853654  1229 net.cpp:406] res5a_branch2c <- res5a_branch2b
I0416 00:46:20.853660  1229 net.cpp:380] res5a_branch2c -> res5a_branch2c
I0416 00:46:20.862751  1229 net.cpp:122] Setting up res5a_branch2c
I0416 00:46:20.862766  1229 net.cpp:129] Top shape: 1 2048 7 7 (100352)
I0416 00:46:20.862768  1229 net.cpp:137] Memory required for data: 497545232
I0416 00:46:20.862773  1229 layer_factory.hpp:77] Creating layer bn5a_branch2c
I0416 00:46:20.862781  1229 net.cpp:84] Creating Layer bn5a_branch2c
I0416 00:46:20.862784  1229 net.cpp:406] bn5a_branch2c <- res5a_branch2c
I0416 00:46:20.862789  1229 net.cpp:367] bn5a_branch2c -> res5a_branch2c (in-place)
I0416 00:46:20.863034  1229 net.cpp:122] Setting up bn5a_branch2c
I0416 00:46:20.863040  1229 net.cpp:129] Top shape: 1 2048 7 7 (100352)
I0416 00:46:20.863044  1229 net.cpp:137] Memory required for data: 497946640
I0416 00:46:20.863049  1229 layer_factory.hpp:77] Creating layer scale5a_branch2c
I0416 00:46:20.863061  1229 net.cpp:84] Creating Layer scale5a_branch2c
I0416 00:46:20.863065  1229 net.cpp:406] scale5a_branch2c <- res5a_branch2c
I0416 00:46:20.863068  1229 net.cpp:367] scale5a_branch2c -> res5a_branch2c (in-place)
I0416 00:46:20.863131  1229 layer_factory.hpp:77] Creating layer scale5a_branch2c
I0416 00:46:20.863261  1229 net.cpp:122] Setting up scale5a_branch2c
I0416 00:46:20.863266  1229 net.cpp:129] Top shape: 1 2048 7 7 (100352)
I0416 00:46:20.863270  1229 net.cpp:137] Memory required for data: 498348048
I0416 00:46:20.863273  1229 layer_factory.hpp:77] Creating layer res5a
I0416 00:46:20.863279  1229 net.cpp:84] Creating Layer res5a
I0416 00:46:20.863283  1229 net.cpp:406] res5a <- res5a_branch1
I0416 00:46:20.863286  1229 net.cpp:406] res5a <- res5a_branch2c
I0416 00:46:20.863291  1229 net.cpp:380] res5a -> res5a
I0416 00:46:20.863314  1229 net.cpp:122] Setting up res5a
I0416 00:46:20.863318  1229 net.cpp:129] Top shape: 1 2048 7 7 (100352)
I0416 00:46:20.863320  1229 net.cpp:137] Memory required for data: 498749456
I0416 00:46:20.863323  1229 layer_factory.hpp:77] Creating layer res5a_relu
I0416 00:46:20.863327  1229 net.cpp:84] Creating Layer res5a_relu
I0416 00:46:20.863329  1229 net.cpp:406] res5a_relu <- res5a
I0416 00:46:20.863335  1229 net.cpp:367] res5a_relu -> res5a (in-place)
I0416 00:46:20.863811  1229 net.cpp:122] Setting up res5a_relu
I0416 00:46:20.863818  1229 net.cpp:129] Top shape: 1 2048 7 7 (100352)
I0416 00:46:20.863821  1229 net.cpp:137] Memory required for data: 499150864
I0416 00:46:20.863823  1229 layer_factory.hpp:77] Creating layer res5a_res5a_relu_0_split
I0416 00:46:20.863827  1229 net.cpp:84] Creating Layer res5a_res5a_relu_0_split
I0416 00:46:20.863832  1229 net.cpp:406] res5a_res5a_relu_0_split <- res5a
I0416 00:46:20.863838  1229 net.cpp:380] res5a_res5a_relu_0_split -> res5a_res5a_relu_0_split_0
I0416 00:46:20.863844  1229 net.cpp:380] res5a_res5a_relu_0_split -> res5a_res5a_relu_0_split_1
I0416 00:46:20.863885  1229 net.cpp:122] Setting up res5a_res5a_relu_0_split
I0416 00:46:20.863889  1229 net.cpp:129] Top shape: 1 2048 7 7 (100352)
I0416 00:46:20.863893  1229 net.cpp:129] Top shape: 1 2048 7 7 (100352)
I0416 00:46:20.863895  1229 net.cpp:137] Memory required for data: 499953680
I0416 00:46:20.863898  1229 layer_factory.hpp:77] Creating layer res5b_branch2a
I0416 00:46:20.863904  1229 net.cpp:84] Creating Layer res5b_branch2a
I0416 00:46:20.863909  1229 net.cpp:406] res5b_branch2a <- res5a_res5a_relu_0_split_0
I0416 00:46:20.863912  1229 net.cpp:380] res5b_branch2a -> res5b_branch2a
I0416 00:46:20.872970  1229 net.cpp:122] Setting up res5b_branch2a
I0416 00:46:20.872985  1229 net.cpp:129] Top shape: 1 512 7 7 (25088)
I0416 00:46:20.872987  1229 net.cpp:137] Memory required for data: 500054032
I0416 00:46:20.872993  1229 layer_factory.hpp:77] Creating layer bn5b_branch2a
I0416 00:46:20.873001  1229 net.cpp:84] Creating Layer bn5b_branch2a
I0416 00:46:20.873005  1229 net.cpp:406] bn5b_branch2a <- res5b_branch2a
I0416 00:46:20.873010  1229 net.cpp:367] bn5b_branch2a -> res5b_branch2a (in-place)
I0416 00:46:20.873262  1229 net.cpp:122] Setting up bn5b_branch2a
I0416 00:46:20.873267  1229 net.cpp:129] Top shape: 1 512 7 7 (25088)
I0416 00:46:20.873270  1229 net.cpp:137] Memory required for data: 500154384
I0416 00:46:20.873275  1229 layer_factory.hpp:77] Creating layer scale5b_branch2a
I0416 00:46:20.873282  1229 net.cpp:84] Creating Layer scale5b_branch2a
I0416 00:46:20.873286  1229 net.cpp:406] scale5b_branch2a <- res5b_branch2a
I0416 00:46:20.873291  1229 net.cpp:367] scale5b_branch2a -> res5b_branch2a (in-place)
I0416 00:46:20.873349  1229 layer_factory.hpp:77] Creating layer scale5b_branch2a
I0416 00:46:20.873483  1229 net.cpp:122] Setting up scale5b_branch2a
I0416 00:46:20.873488  1229 net.cpp:129] Top shape: 1 512 7 7 (25088)
I0416 00:46:20.873491  1229 net.cpp:137] Memory required for data: 500254736
I0416 00:46:20.873494  1229 layer_factory.hpp:77] Creating layer res5b_branch2a_relu
I0416 00:46:20.873500  1229 net.cpp:84] Creating Layer res5b_branch2a_relu
I0416 00:46:20.873510  1229 net.cpp:406] res5b_branch2a_relu <- res5b_branch2a
I0416 00:46:20.873515  1229 net.cpp:367] res5b_branch2a_relu -> res5b_branch2a (in-place)
I0416 00:46:20.874176  1229 net.cpp:122] Setting up res5b_branch2a_relu
I0416 00:46:20.874183  1229 net.cpp:129] Top shape: 1 512 7 7 (25088)
I0416 00:46:20.874186  1229 net.cpp:137] Memory required for data: 500355088
I0416 00:46:20.874189  1229 layer_factory.hpp:77] Creating layer res5b_branch2b
I0416 00:46:20.874197  1229 net.cpp:84] Creating Layer res5b_branch2b
I0416 00:46:20.874202  1229 net.cpp:406] res5b_branch2b <- res5b_branch2a
I0416 00:46:20.874205  1229 net.cpp:380] res5b_branch2b -> res5b_branch2b
I0416 00:46:20.891935  1229 net.cpp:122] Setting up res5b_branch2b
I0416 00:46:20.891950  1229 net.cpp:129] Top shape: 1 512 7 7 (25088)
I0416 00:46:20.891952  1229 net.cpp:137] Memory required for data: 500455440
I0416 00:46:20.891958  1229 layer_factory.hpp:77] Creating layer bn5b_branch2b
I0416 00:46:20.891965  1229 net.cpp:84] Creating Layer bn5b_branch2b
I0416 00:46:20.891970  1229 net.cpp:406] bn5b_branch2b <- res5b_branch2b
I0416 00:46:20.891976  1229 net.cpp:367] bn5b_branch2b -> res5b_branch2b (in-place)
I0416 00:46:20.892231  1229 net.cpp:122] Setting up bn5b_branch2b
I0416 00:46:20.892237  1229 net.cpp:129] Top shape: 1 512 7 7 (25088)
I0416 00:46:20.892240  1229 net.cpp:137] Memory required for data: 500555792
I0416 00:46:20.892246  1229 layer_factory.hpp:77] Creating layer scale5b_branch2b
I0416 00:46:20.892251  1229 net.cpp:84] Creating Layer scale5b_branch2b
I0416 00:46:20.892254  1229 net.cpp:406] scale5b_branch2b <- res5b_branch2b
I0416 00:46:20.892258  1229 net.cpp:367] scale5b_branch2b -> res5b_branch2b (in-place)
I0416 00:46:20.892319  1229 layer_factory.hpp:77] Creating layer scale5b_branch2b
I0416 00:46:20.892453  1229 net.cpp:122] Setting up scale5b_branch2b
I0416 00:46:20.892457  1229 net.cpp:129] Top shape: 1 512 7 7 (25088)
I0416 00:46:20.892460  1229 net.cpp:137] Memory required for data: 500656144
I0416 00:46:20.892464  1229 layer_factory.hpp:77] Creating layer res5b_branch2b_relu
I0416 00:46:20.892469  1229 net.cpp:84] Creating Layer res5b_branch2b_relu
I0416 00:46:20.892473  1229 net.cpp:406] res5b_branch2b_relu <- res5b_branch2b
I0416 00:46:20.892477  1229 net.cpp:367] res5b_branch2b_relu -> res5b_branch2b (in-place)
I0416 00:46:20.893129  1229 net.cpp:122] Setting up res5b_branch2b_relu
I0416 00:46:20.893136  1229 net.cpp:129] Top shape: 1 512 7 7 (25088)
I0416 00:46:20.893138  1229 net.cpp:137] Memory required for data: 500756496
I0416 00:46:20.893141  1229 layer_factory.hpp:77] Creating layer res5b_branch2c
I0416 00:46:20.893149  1229 net.cpp:84] Creating Layer res5b_branch2c
I0416 00:46:20.893153  1229 net.cpp:406] res5b_branch2c <- res5b_branch2b
I0416 00:46:20.893157  1229 net.cpp:380] res5b_branch2c -> res5b_branch2c
I0416 00:46:20.902218  1229 net.cpp:122] Setting up res5b_branch2c
I0416 00:46:20.902233  1229 net.cpp:129] Top shape: 1 2048 7 7 (100352)
I0416 00:46:20.902236  1229 net.cpp:137] Memory required for data: 501157904
I0416 00:46:20.902242  1229 layer_factory.hpp:77] Creating layer bn5b_branch2c
I0416 00:46:20.902249  1229 net.cpp:84] Creating Layer bn5b_branch2c
I0416 00:46:20.902254  1229 net.cpp:406] bn5b_branch2c <- res5b_branch2c
I0416 00:46:20.902261  1229 net.cpp:367] bn5b_branch2c -> res5b_branch2c (in-place)
I0416 00:46:20.902514  1229 net.cpp:122] Setting up bn5b_branch2c
I0416 00:46:20.902519  1229 net.cpp:129] Top shape: 1 2048 7 7 (100352)
I0416 00:46:20.902523  1229 net.cpp:137] Memory required for data: 501559312
I0416 00:46:20.902528  1229 layer_factory.hpp:77] Creating layer scale5b_branch2c
I0416 00:46:20.902532  1229 net.cpp:84] Creating Layer scale5b_branch2c
I0416 00:46:20.902535  1229 net.cpp:406] scale5b_branch2c <- res5b_branch2c
I0416 00:46:20.902539  1229 net.cpp:367] scale5b_branch2c -> res5b_branch2c (in-place)
I0416 00:46:20.902601  1229 layer_factory.hpp:77] Creating layer scale5b_branch2c
I0416 00:46:20.902734  1229 net.cpp:122] Setting up scale5b_branch2c
I0416 00:46:20.902747  1229 net.cpp:129] Top shape: 1 2048 7 7 (100352)
I0416 00:46:20.902757  1229 net.cpp:137] Memory required for data: 501960720
I0416 00:46:20.902761  1229 layer_factory.hpp:77] Creating layer res5b
I0416 00:46:20.902768  1229 net.cpp:84] Creating Layer res5b
I0416 00:46:20.902772  1229 net.cpp:406] res5b <- res5a_res5a_relu_0_split_1
I0416 00:46:20.902776  1229 net.cpp:406] res5b <- res5b_branch2c
I0416 00:46:20.902781  1229 net.cpp:380] res5b -> res5b
I0416 00:46:20.902806  1229 net.cpp:122] Setting up res5b
I0416 00:46:20.902809  1229 net.cpp:129] Top shape: 1 2048 7 7 (100352)
I0416 00:46:20.902812  1229 net.cpp:137] Memory required for data: 502362128
I0416 00:46:20.902814  1229 layer_factory.hpp:77] Creating layer res5b_relu
I0416 00:46:20.902818  1229 net.cpp:84] Creating Layer res5b_relu
I0416 00:46:20.902822  1229 net.cpp:406] res5b_relu <- res5b
I0416 00:46:20.902825  1229 net.cpp:367] res5b_relu -> res5b (in-place)
I0416 00:46:20.903309  1229 net.cpp:122] Setting up res5b_relu
I0416 00:46:20.903316  1229 net.cpp:129] Top shape: 1 2048 7 7 (100352)
I0416 00:46:20.903317  1229 net.cpp:137] Memory required for data: 502763536
I0416 00:46:20.903321  1229 layer_factory.hpp:77] Creating layer res5b_res5b_relu_0_split
I0416 00:46:20.903326  1229 net.cpp:84] Creating Layer res5b_res5b_relu_0_split
I0416 00:46:20.903329  1229 net.cpp:406] res5b_res5b_relu_0_split <- res5b
I0416 00:46:20.903333  1229 net.cpp:380] res5b_res5b_relu_0_split -> res5b_res5b_relu_0_split_0
I0416 00:46:20.903340  1229 net.cpp:380] res5b_res5b_relu_0_split -> res5b_res5b_relu_0_split_1
I0416 00:46:20.903383  1229 net.cpp:122] Setting up res5b_res5b_relu_0_split
I0416 00:46:20.903386  1229 net.cpp:129] Top shape: 1 2048 7 7 (100352)
I0416 00:46:20.903389  1229 net.cpp:129] Top shape: 1 2048 7 7 (100352)
I0416 00:46:20.903393  1229 net.cpp:137] Memory required for data: 503566352
I0416 00:46:20.903394  1229 layer_factory.hpp:77] Creating layer res5c_branch2a
I0416 00:46:20.903401  1229 net.cpp:84] Creating Layer res5c_branch2a
I0416 00:46:20.903405  1229 net.cpp:406] res5c_branch2a <- res5b_res5b_relu_0_split_0
I0416 00:46:20.903410  1229 net.cpp:380] res5c_branch2a -> res5c_branch2a
I0416 00:46:20.912513  1229 net.cpp:122] Setting up res5c_branch2a
I0416 00:46:20.912526  1229 net.cpp:129] Top shape: 1 512 7 7 (25088)
I0416 00:46:20.912528  1229 net.cpp:137] Memory required for data: 503666704
I0416 00:46:20.912534  1229 layer_factory.hpp:77] Creating layer bn5c_branch2a
I0416 00:46:20.912541  1229 net.cpp:84] Creating Layer bn5c_branch2a
I0416 00:46:20.912545  1229 net.cpp:406] bn5c_branch2a <- res5c_branch2a
I0416 00:46:20.912551  1229 net.cpp:367] bn5c_branch2a -> res5c_branch2a (in-place)
I0416 00:46:20.912804  1229 net.cpp:122] Setting up bn5c_branch2a
I0416 00:46:20.912809  1229 net.cpp:129] Top shape: 1 512 7 7 (25088)
I0416 00:46:20.912812  1229 net.cpp:137] Memory required for data: 503767056
I0416 00:46:20.912817  1229 layer_factory.hpp:77] Creating layer scale5c_branch2a
I0416 00:46:20.912823  1229 net.cpp:84] Creating Layer scale5c_branch2a
I0416 00:46:20.912827  1229 net.cpp:406] scale5c_branch2a <- res5c_branch2a
I0416 00:46:20.912832  1229 net.cpp:367] scale5c_branch2a -> res5c_branch2a (in-place)
I0416 00:46:20.912892  1229 layer_factory.hpp:77] Creating layer scale5c_branch2a
I0416 00:46:20.913028  1229 net.cpp:122] Setting up scale5c_branch2a
I0416 00:46:20.913033  1229 net.cpp:129] Top shape: 1 512 7 7 (25088)
I0416 00:46:20.913035  1229 net.cpp:137] Memory required for data: 503867408
I0416 00:46:20.913039  1229 layer_factory.hpp:77] Creating layer res5c_branch2a_relu
I0416 00:46:20.913044  1229 net.cpp:84] Creating Layer res5c_branch2a_relu
I0416 00:46:20.913048  1229 net.cpp:406] res5c_branch2a_relu <- res5c_branch2a
I0416 00:46:20.913053  1229 net.cpp:367] res5c_branch2a_relu -> res5c_branch2a (in-place)
I0416 00:46:20.913530  1229 net.cpp:122] Setting up res5c_branch2a_relu
I0416 00:46:20.913537  1229 net.cpp:129] Top shape: 1 512 7 7 (25088)
I0416 00:46:20.913538  1229 net.cpp:137] Memory required for data: 503967760
I0416 00:46:20.913549  1229 layer_factory.hpp:77] Creating layer res5c_branch2b
I0416 00:46:20.913558  1229 net.cpp:84] Creating Layer res5c_branch2b
I0416 00:46:20.913560  1229 net.cpp:406] res5c_branch2b <- res5c_branch2a
I0416 00:46:20.913568  1229 net.cpp:380] res5c_branch2b -> res5c_branch2b
I0416 00:46:20.931506  1229 net.cpp:122] Setting up res5c_branch2b
I0416 00:46:20.931521  1229 net.cpp:129] Top shape: 1 512 7 7 (25088)
I0416 00:46:20.931524  1229 net.cpp:137] Memory required for data: 504068112
I0416 00:46:20.931530  1229 layer_factory.hpp:77] Creating layer bn5c_branch2b
I0416 00:46:20.931537  1229 net.cpp:84] Creating Layer bn5c_branch2b
I0416 00:46:20.931542  1229 net.cpp:406] bn5c_branch2b <- res5c_branch2b
I0416 00:46:20.931547  1229 net.cpp:367] bn5c_branch2b -> res5c_branch2b (in-place)
I0416 00:46:20.931816  1229 net.cpp:122] Setting up bn5c_branch2b
I0416 00:46:20.931823  1229 net.cpp:129] Top shape: 1 512 7 7 (25088)
I0416 00:46:20.931824  1229 net.cpp:137] Memory required for data: 504168464
I0416 00:46:20.931830  1229 layer_factory.hpp:77] Creating layer scale5c_branch2b
I0416 00:46:20.931835  1229 net.cpp:84] Creating Layer scale5c_branch2b
I0416 00:46:20.931839  1229 net.cpp:406] scale5c_branch2b <- res5c_branch2b
I0416 00:46:20.931844  1229 net.cpp:367] scale5c_branch2b -> res5c_branch2b (in-place)
I0416 00:46:20.931905  1229 layer_factory.hpp:77] Creating layer scale5c_branch2b
I0416 00:46:20.932042  1229 net.cpp:122] Setting up scale5c_branch2b
I0416 00:46:20.932047  1229 net.cpp:129] Top shape: 1 512 7 7 (25088)
I0416 00:46:20.932049  1229 net.cpp:137] Memory required for data: 504268816
I0416 00:46:20.932054  1229 layer_factory.hpp:77] Creating layer res5c_branch2b_relu
I0416 00:46:20.932059  1229 net.cpp:84] Creating Layer res5c_branch2b_relu
I0416 00:46:20.932061  1229 net.cpp:406] res5c_branch2b_relu <- res5c_branch2b
I0416 00:46:20.932065  1229 net.cpp:367] res5c_branch2b_relu -> res5c_branch2b (in-place)
I0416 00:46:20.932734  1229 net.cpp:122] Setting up res5c_branch2b_relu
I0416 00:46:20.932744  1229 net.cpp:129] Top shape: 1 512 7 7 (25088)
I0416 00:46:20.932746  1229 net.cpp:137] Memory required for data: 504369168
I0416 00:46:20.932749  1229 layer_factory.hpp:77] Creating layer res5c_branch2c
I0416 00:46:20.932756  1229 net.cpp:84] Creating Layer res5c_branch2c
I0416 00:46:20.932760  1229 net.cpp:406] res5c_branch2c <- res5c_branch2b
I0416 00:46:20.932766  1229 net.cpp:380] res5c_branch2c -> res5c_branch2c
I0416 00:46:20.941687  1229 net.cpp:122] Setting up res5c_branch2c
I0416 00:46:20.941700  1229 net.cpp:129] Top shape: 1 2048 7 7 (100352)
I0416 00:46:20.941704  1229 net.cpp:137] Memory required for data: 504770576
I0416 00:46:20.941709  1229 layer_factory.hpp:77] Creating layer bn5c_branch2c
I0416 00:46:20.941716  1229 net.cpp:84] Creating Layer bn5c_branch2c
I0416 00:46:20.941720  1229 net.cpp:406] bn5c_branch2c <- res5c_branch2c
I0416 00:46:20.941725  1229 net.cpp:367] bn5c_branch2c -> res5c_branch2c (in-place)
I0416 00:46:20.941983  1229 net.cpp:122] Setting up bn5c_branch2c
I0416 00:46:20.941989  1229 net.cpp:129] Top shape: 1 2048 7 7 (100352)
I0416 00:46:20.941992  1229 net.cpp:137] Memory required for data: 505171984
I0416 00:46:20.941998  1229 layer_factory.hpp:77] Creating layer scale5c_branch2c
I0416 00:46:20.942001  1229 net.cpp:84] Creating Layer scale5c_branch2c
I0416 00:46:20.942005  1229 net.cpp:406] scale5c_branch2c <- res5c_branch2c
I0416 00:46:20.942009  1229 net.cpp:367] scale5c_branch2c -> res5c_branch2c (in-place)
I0416 00:46:20.942070  1229 layer_factory.hpp:77] Creating layer scale5c_branch2c
I0416 00:46:20.942209  1229 net.cpp:122] Setting up scale5c_branch2c
I0416 00:46:20.942214  1229 net.cpp:129] Top shape: 1 2048 7 7 (100352)
I0416 00:46:20.942216  1229 net.cpp:137] Memory required for data: 505573392
I0416 00:46:20.942220  1229 layer_factory.hpp:77] Creating layer res5c
I0416 00:46:20.942225  1229 net.cpp:84] Creating Layer res5c
I0416 00:46:20.942229  1229 net.cpp:406] res5c <- res5b_res5b_relu_0_split_1
I0416 00:46:20.942232  1229 net.cpp:406] res5c <- res5c_branch2c
I0416 00:46:20.942245  1229 net.cpp:380] res5c -> res5c
I0416 00:46:20.942270  1229 net.cpp:122] Setting up res5c
I0416 00:46:20.942275  1229 net.cpp:129] Top shape: 1 2048 7 7 (100352)
I0416 00:46:20.942276  1229 net.cpp:137] Memory required for data: 505974800
I0416 00:46:20.942279  1229 layer_factory.hpp:77] Creating layer res5c_relu
I0416 00:46:20.942284  1229 net.cpp:84] Creating Layer res5c_relu
I0416 00:46:20.942287  1229 net.cpp:406] res5c_relu <- res5c
I0416 00:46:20.942291  1229 net.cpp:367] res5c_relu -> res5c (in-place)
I0416 00:46:20.942773  1229 net.cpp:122] Setting up res5c_relu
I0416 00:46:20.942780  1229 net.cpp:129] Top shape: 1 2048 7 7 (100352)
I0416 00:46:20.942782  1229 net.cpp:137] Memory required for data: 506376208
I0416 00:46:20.942785  1229 layer_factory.hpp:77] Creating layer pool5
I0416 00:46:20.942790  1229 net.cpp:84] Creating Layer pool5
I0416 00:46:20.942792  1229 net.cpp:406] pool5 <- res5c
I0416 00:46:20.942796  1229 net.cpp:380] pool5 -> pool5
I0416 00:46:20.943486  1229 net.cpp:122] Setting up pool5
I0416 00:46:20.943493  1229 net.cpp:129] Top shape: 1 2048 1 1 (2048)
I0416 00:46:20.943496  1229 net.cpp:137] Memory required for data: 506384400
I0416 00:46:20.943500  1229 layer_factory.hpp:77] Creating layer fc1000-skin
I0416 00:46:20.943506  1229 net.cpp:84] Creating Layer fc1000-skin
I0416 00:46:20.943509  1229 net.cpp:406] fc1000-skin <- pool5
I0416 00:46:20.943514  1229 net.cpp:380] fc1000-skin -> fc1000-skin
I0416 00:46:20.943697  1229 net.cpp:122] Setting up fc1000-skin
I0416 00:46:20.943702  1229 net.cpp:129] Top shape: 1 6 (6)
I0416 00:46:20.943704  1229 net.cpp:137] Memory required for data: 506384424
I0416 00:46:20.943709  1229 layer_factory.hpp:77] Creating layer fc1000-skin_fc1000-skin_0_split
I0416 00:46:20.943714  1229 net.cpp:84] Creating Layer fc1000-skin_fc1000-skin_0_split
I0416 00:46:20.943718  1229 net.cpp:406] fc1000-skin_fc1000-skin_0_split <- fc1000-skin
I0416 00:46:20.943722  1229 net.cpp:380] fc1000-skin_fc1000-skin_0_split -> fc1000-skin_fc1000-skin_0_split_0
I0416 00:46:20.943727  1229 net.cpp:380] fc1000-skin_fc1000-skin_0_split -> fc1000-skin_fc1000-skin_0_split_1
I0416 00:46:20.943733  1229 net.cpp:380] fc1000-skin_fc1000-skin_0_split -> fc1000-skin_fc1000-skin_0_split_2
I0416 00:46:20.943785  1229 net.cpp:122] Setting up fc1000-skin_fc1000-skin_0_split
I0416 00:46:20.943789  1229 net.cpp:129] Top shape: 1 6 (6)
I0416 00:46:20.943792  1229 net.cpp:129] Top shape: 1 6 (6)
I0416 00:46:20.943795  1229 net.cpp:129] Top shape: 1 6 (6)
I0416 00:46:20.943797  1229 net.cpp:137] Memory required for data: 506384496
I0416 00:46:20.943799  1229 layer_factory.hpp:77] Creating layer loss
I0416 00:46:20.943805  1229 net.cpp:84] Creating Layer loss
I0416 00:46:20.943807  1229 net.cpp:406] loss <- fc1000-skin_fc1000-skin_0_split_0
I0416 00:46:20.943811  1229 net.cpp:406] loss <- label_data_1_split_0
I0416 00:46:20.943815  1229 net.cpp:380] loss -> loss
…
