…
I0517 02:35:58.355065  6959 net.cpp:51] Initializing net from parameters: 
name: "ResNet-152"
state {
  phase: TRAIN
  level: 0
  stage: ""
}
layer {
  name: "data"
  type: "Data"
  top: "data"
  top: "label"
  include {
    phase: TRAIN
  }
  transform_param {
    mirror: true
    crop_size: 224
    mean_file: "/home/danilo/Documents/FGA/2018-1/TCC1/data/edited/Med_atlas_edin/train_lmdb/input/mean.binaryproto"
  }
  data_param {
    source: "/home/danilo/Documents/FGA/2018-1/TCC1/data/edited/Med_atlas_edin/train_lmdb/train"
    batch_size: 5
    backend: LMDB
  }
}
layer {
  name: "conv1"
  type: "Convolution"
  bottom: "data"
  top: "conv1"
  convolution_param {
    num_output: 64
    bias_term: false
    pad: 3
    kernel_size: 7
    stride: 2
    weight_filler {
      type: "msra"
    }
  }
}
layer {
  name: "bn_conv1"
  type: "BatchNorm"
  bottom: "conv1"
  top: "conv1"
  batch_norm_param {
    use_global_stats: false
  }
}
layer {
  name: "scale_conv1"
  type: "Scale"
  bottom: "conv1"
  top: "conv1"
  scale_param {
    bias_term: true
  }
}
layer {
  name: "conv1_relu"
  type: "ReLU"
  bottom: "conv1"
  top: "conv1"
}
layer {
  name: "pool1"
  type: "Pooling"
  bottom: "conv1"
  top: "pool1"
  pooling_param {
    pool: MAX
    kernel_size: 3
    stride: 2
  }
}
layer {
  name: "res2a_branch1"
  type: "Convolution"
  bottom: "pool1"
  top: "res2a_branch1"
  convolution_param {
    num_output: 256
    bias_term: false
    pad: 0
    kernel_size: 1
    stride: 1
    weight_filler {
      type: "msra"
    }
  }
}
layer {
  name: "bn2a_branch1"
  type: "BatchNorm"
  bottom: "res2a_branch1"
  top: "res2a_branch1"
  batch_norm_param {
    use_global_stats: false
  }
}
layer {
  name: "scale2a_branch1"
  type: "Scale"
  bottom: "res2a_branch1"
  top: "res2a_branch1"
  scale_param {
    bias_term: true
  }
}
layer {
  name: "res2a_branch2a"
  type: "Convolution"
  bottom: "pool1"
  top: "res2a_branch2a"
  convolution_param {
    num_output: 64
    bias_term: false
    pad: 0
    kernel_size: 1
    stride: 1
    weight_filler {
      type: "msra"
    }
  }
}
layer {
  name: "bn2a_branch2a"
  type: "BatchNorm"
  bottom: "res2a_branch2a"
  top: "res2a_branch2a"
  batch_norm_param {
    use_global_stats: false
  }
}
layer {
  name: "scale2a_branch2a"
  type: "Scale"
  bottom: "res2a_branch2a"
  top: "res2a_branch2a"
  scale_param {
    bias_term: true
  }
}
layer {
  name: "res2a_branch2a_relu"
  type: "ReLU"
  bottom: "res2a_branch2a"
  top: "res2a_branch2a"
}
layer {
  name: "res2a_branch2b"
  type: "Convolution"
  bottom: "res2a_branch2a"
  top: "res2a_branch2b"
  convolution_param {
    num_output: 64
    bias_term: false
    pad: 1
    kernel_size: 3
    stride: 1
    weight_filler {
      type: "msra"
    }
  }
}
layer {
  name: "bn2a_branch2b"
  type: "BatchNorm"
  bottom: "res2a_branch2b"
  top: "res2a_branch2b"
  batch_norm_param {
    use_global_stats: false
  }
}
layer {
  name: "scale2a_branch2b"
  type: "Scale"
  bottom: "res2a_branch2b"
  top: "res2a_branch2b"
  scale_param {
    bias_term: true
  }
}
layer {
  name: "res2a_branch2b_relu"
  type: "ReLU"
  bottom: "res2a_branch2b"
  top: "res2a_branch2b"
}
layer {
  name: "res2a_branch2c"
  type: "Convolution"
  bottom: "res2a_branch2b"
  top: "res2a_branch2c"
  convolution_param {
    num_output: 256
    bias_term: false
    pad: 0
    kernel_size: 1
    stride: 1
    weight_filler {
      type: "msra"
    }
  }
}
layer {
  name: "bn2a_branch2c"
  type: "BatchNorm"
  bottom: "res2a_branch2c"
  top: "res2a_branch2c"
  batch_norm_param {
    use_global_stats: false
  }
}
layer {
  name: "scale2a_branch2c"
  type: "Scale"
  bottom: "res2a_branch2c"
  top: "res2a_branch2c"
  scale_param {
    bias_term: true
  }
}
layer {
  name: "res2a"
  type: "Eltwise"
  bottom: "res2a_branch1"
  bottom: "res2a_branch2c"
  top: "res2a"
  eltwise_param {
    operation: SUM
  }
}
layer {
  name: "res2a_relu"
  type: "ReLU"
  bottom: "res2a"
  top: "res2a"
}
layer {
  name: "res2b_branch2a"
  type: "Convolution"
  bottom: "res2a"
  top: "res2b_branch2a"
  convolution_param {
    num_output: 64
    bias_term: false
    pad: 0
    kernel_size: 1
    stride: 1
    weight_filler {
      type: "msra"
    }
  }
}
layer {
  name: "bn2b_branch2a"
  type: "BatchNorm"
  bottom: "res2b_branch2a"
  top: "res2b_branch2a"
  batch_norm_param {
    use_global_stats: false
  }
}
layer {
  name: "scale2b_branch2a"
  type: "Scale"
  bottom: "res2b_branch2a"
  top: "res2b_branch2a"
  scale_param {
    bias_term: true
  }
}
layer {
  name: "res2b_branch2a_relu"
  type: "ReLU"
  bottom: "res2b_branch2a"
  top: "res2b_branch2a"
}
layer {
  name: "res2b_branch2b"
  type: "Convolution"
  bottom: "res2b_branch2a"
  top: "res2b_branch2b"
  convolution_param {
    num_output: 64
    bias_term: false
    pad: 1
    kernel_size: 3
    stride: 1
    weight_filler {
      type: "msra"
    }
  }
}
layer {
  name: "bn2b_branch2b"
  type: "BatchNorm"
  bottom: "res2b_branch2b"
  top: "res2b_branch2b"
  batch_norm_param {
    use_global_stats: false
  }
}
layer {
  name: "scale2b_branch2b"
  type: "Scale"
  bottom: "res2b_branch2b"
  top: "res2b_branch2b"
  scale_param {
    bias_term: true
  }
}
layer {
  name: "res2b_branch2b_relu"
  type: "ReLU"
  bottom: "res2b_branch2b"
  top: "res2b_branch2b"
}
layer {
  name: "res2b_branch2c"
  type: "Convolution"
  bottom: "res2b_branch2b"
  top: "res2b_branch2c"
  convolution_param {
    num_output: 256
    bias_term: false
    pad: 0
    kernel_size: 1
    stride: 1
    weight_filler {
      type: "msra"
    }
  }
}
layer {
  name: "bn2b_branch2c"
  type: "BatchNorm"
  bottom: "res2b_branch2c"
  top: "res2b_branch2c"
  batch_norm_param {
    use_global_stats: false
  }
}
layer {
  name: "scale2b_branch2c"
  type: "Scale"
  bottom: "res2b_branch2c"
  top: "res2b_branch2c"
  scale_param {
    bias_term: true
  }
}
layer {
  name: "res2b"
  type: "Eltwise"
  bottom: "res2a"
  bottom: "res2b_branch2c"
  top: "res2b"
  eltwise_param {
    operation: SUM
  }
}
layer {
  name: "res2b_relu"
  type: "ReLU"
  bottom: "res2b"
  top: "res2b"
}
layer {
  name: "res2c_branch2a"
  type: "Convolution"
  bottom: "res2b"
  top: "res2c_branch2a"
  convolution_param {
    num_output: 64
    bias_term: false
    pad: 0
    kernel_size: 1
    stride: 1
    weight_filler {
      type: "msra"
    }
  }
}
layer {
  name: "bn2c_branch2a"
  type: "BatchNorm"
  bottom: "res2c_branch2a"
  top: "res2c_branch2a"
  batch_norm_param {
    use_global_stats: false
  }
}
layer {
  name: "scale2c_branch2a"
  type: "Scale"
  bottom: "res2c_branch2a"
  top: "res2c_branch2a"
  scale_param {
    bias_term: true
  }
}
layer {
  name: "res2c_branch2a_relu"
  type: "ReLU"
  bottom: "res2c_branch2a"
  top: "res2c_branch2a"
}
layer {
  name: "res2c_branch2b"
  type: "Convolution"
  bottom: "res2c_branch2a"
  top: "res2c_branch2b"
  convolution_param {
    num_output: 64
    bias_term: false
    pad: 1
    kernel_size: 3
    stride: 1
    weight_filler {
      type: "msra"
    }
  }
}
layer {
  name: "bn2c_branch2b"
  type: "BatchNorm"
  bottom: "res2c_branch2b"
  top: "res2c_branch2b"
  batch_norm_param {
    use_global_stats: false
  }
}
layer {
  name: "scale2c_branch2b"
  type: "Scale"
  bottom: "res2c_branch2b"
  top: "res2c_branch2b"
  scale_param {
    bias_term: true
  }
}
layer {
  name: "res2c_branch2b_relu"
  type: "ReLU"
  bottom: "res2c_branch2b"
  top: "res2c_branch2b"
}
layer {
  name: "res2c_branch2c"
  type: "Convolution"
  bottom: "res2c_branch2b"
  top: "res2c_branch2c"
  convolution_param {
    num_output: 256
    bias_term: false
    pad: 0
    kernel_size: 1
    stride: 1
    weight_filler {
      type: "msra"
    }
  }
}
layer {
  name: "bn2c_branch2c"
  type: "BatchNorm"
  bottom: "res2c_branch2c"
  top: "res2c_branch2c"
  batch_norm_param {
    use_global_stats: false
  }
}
layer {
  name: "scale2c_branch2c"
  type: "Scale"
  bottom: "res2c_branch2c"
  top: "res2c_branch2c"
  scale_param {
    bias_term: true
  }
}
layer {
  name: "res2c"
  type: "Eltwise"
  bottom: "res2b"
  bottom: "res2c_branch2c"
  top: "res2c"
  eltwise_param {
    operation: SUM
  }
}
layer {
  name: "res2c_relu"
  type: "ReLU"
  bottom: "res2c"
  top: "res2c"
}
layer {
  name: "res3a_branch1"
  type: "Convolution"
  bottom: "res2c"
  top: "res3a_branch1"
  convolution_param {
    num_output: 512
    bias_term: false
    pad: 0
    kernel_size: 1
    stride: 2
    weight_filler {
      type: "msra"
    }
  }
}
layer {
  name: "bn3a_branch1"
  type: "BatchNorm"
  bottom: "res3a_branch1"
  top: "res3a_branch1"
  batch_norm_param {
    use_global_stats: false
  }
}
layer {
  name: "scale3a_branch1"
  type: "Scale"
  bottom: "res3a_branch1"
  top: "res3a_branch1"
  scale_param {
    bias_term: true
  }
}
layer {
  name: "res3a_branch2a"
  type: "Convolution"
  bottom: "res2c"
  top: "res3a_branch2a"
  convolution_param {
    num_output: 128
    bias_term: false
    pad: 0
    kernel_size: 1
    stride: 2
    weight_filler {
      type: "msra"
    }
  }
}
layer {
  name: "bn3a_branch2a"
  type: "BatchNorm"
  bottom: "res3a_branch2a"
  top: "res3a_branch2a"
  batch_norm_param {
    use_global_stats: false
  }
}
layer {
  name: "scale3a_branch2a"
  type: "Scale"
  bottom: "res3a_branch2a"
  top: "res3a_branch2a"
  scale_param {
    bias_term: true
  }
}
layer {
  name: "res3a_branch2a_relu"
  type: "ReLU"
  bottom: "res3a_branch2a"
  top: "res3a_branch2a"
}
layer {
  name: "res3a_branch2b"
  type: "Convolution"
  bottom: "res3a_branch2a"
  top: "res3a_branch2b"
  convolution_param {
    num_output: 128
    bias_term: false
    pad: 1
    kernel_size: 3
    stride: 1
    weight_filler {
      type: "msra"
    }
  }
}
layer {
  name: "bn3a_branch2b"
  type: "BatchNorm"
  bottom: "res3a_branch2b"
  top: "res3a_branch2b"
  batch_norm_param {
    use_global_stats: false
  }
}
layer {
  name: "scale3a_branch2b"
  type: "Scale"
  bottom: "res3a_branch2b"
  top: "res3a_branch2b"
  scale_param {
    bias_term: true
  }
}
layer {
  name: "res3a_branch2b_relu"
  type: "ReLU"
  bottom: "res3a_branch2b"
  top: "res3a_branch2b"
}
layer {
  name: "res3a_branch2c"
  type: "Convolution"
  bottom: "res3a_branch2b"
  top: "res3a_branch2c"
  convolution_param {
    num_output: 512
    bias_term: false
    pad: 0
    kernel_size: 1
    stride: 1
    weight_filler {
      type: "msra"
    }
  }
}
layer {
  name: "bn3a_branch2c"
  type: "BatchNorm"
  bottom: "res3a_branch2c"
  top: "res3a_branch2c"
  batch_norm_param {
    use_global_stats: false
  }
}
layer {
  name: "scale3a_branch2c"
  type: "Scale"
  bottom: "res3a_branch2c"
  top: "res3a_branch2c"
  scale_param {
    bias_term: true
  }
}
layer {
  name: "res3a"
  type: "Eltwise"
  bottom: "res3a_branch1"
  bottom: "res3a_branch2c"
  top: "res3a"
  eltwise_param {
    operation: SUM
  }
}
layer {
  name: "res3a_relu"
  type: "ReLU"
  bottom: "res3a"
  top: "res3a"
}
layer {
  name: "res3b1_branch2a"
  type: "Convolution"
  bottom: "res3a"
  top: "res3b1_branch2a"
  convolution_param {
    num_output: 128
    bias_term: false
    pad: 0
    kernel_size: 1
    stride: 1
    weight_filler {
      type: "msra"
    }
  }
}
layer {
  name: "bn3b1_branch2a"
  type: "BatchNorm"
  bottom: "res3b1_branch2a"
  top: "res3b1_branch2a"
  batch_norm_param {
    use_global_stats: false
  }
}
layer {
  name: "scale3b1_branch2a"
  type: "Scale"
  bottom: "res3b1_branch2a"
  top: "res3b1_branch2a"
  scale_param {
    bias_term: true
  }
}
layer {
  name: "res3b1_branch2a_relu"
  type: "ReLU"
  bottom: "res3b1_branch2a"
  top: "res3b1_branch2a"
}
layer {
  name: "res3b1_branch2b"
  type: "Convolution"
  bottom: "res3b1_branch2a"
  top: "res3b1_branch2b"
  convolution_param {
    num_output: 128
    bias_term: false
    pad: 1
    kernel_size: 3
    stride: 1
    weight_filler {
      type: "msra"
    }
  }
}
layer {
  name: "bn3b1_branch2b"
  type: "BatchNorm"
  bottom: "res3b1_branch2b"
  top: "res3b1_branch2b"
  batch_norm_param {
    use_global_stats: false
  }
}
layer {
  name: "scale3b1_branch2b"
  type: "Scale"
  bottom: "res3b1_branch2b"
  top: "res3b1_branch2b"
  scale_param {
    bias_term: true
  }
}
layer {
  name: "res3b1_branch2b_relu"
  type: "ReLU"
  bottom: "res3b1_branch2b"
  top: "res3b1_branch2b"
}
layer {
  name: "res3b1_branch2c"
  type: "Convolution"
  bottom: "res3b1_branch2b"
  top: "res3b1_branch2c"
  convolution_param {
    num_output: 512
    bias_term: false
    pad: 0
    kernel_size: 1
    stride: 1
    weight_filler {
      type: "msra"
    }
  }
}
layer {
  name: "bn3b1_branch2c"
  type: "BatchNorm"
  bottom: "res3b1_branch2c"
  top: "res3b1_branch2c"
  batch_norm_param {
    use_global_stats: false
  }
}
layer {
  name: "scale3b1_branch2c"
  type: "Scale"
  bottom: "res3b1_branch2c"
  top: "res3b1_branch2c"
  scale_param {
    bias_term: true
  }
}
layer {
  name: "res3b1"
  type: "Eltwise"
  bottom: "res3a"
  bottom: "res3b1_branch2c"
  top: "res3b1"
  eltwise_param {
    operation: SUM
  }
}
layer {
  name: "res3b1_relu"
  type: "ReLU"
  bottom: "res3b1"
  top: "res3b1"
}
layer {
  name: "res3b2_branch2a"
  type: "Convolution"
  bottom: "res3b1"
  top: "res3b2_branch2a"
  convolution_param {
    num_output: 128
    bias_term: false
    pad: 0
    kernel_size: 1
    stride: 1
    weight_filler {
      type: "msra"
    }
  }
}
layer {
  name: "bn3b2_branch2a"
  type: "BatchNorm"
  bottom: "res3b2_branch2a"
  top: "res3b2_branch2a"
  batch_norm_param {
    use_global_stats: false
  }
}
layer {
  name: "scale3b2_branch2a"
  type: "Scale"
  bottom: "res3b2_branch2a"
  top: "res3b2_branch2a"
  scale_param {
    bias_term: true
  }
}
layer {
  name: "res3b2_branch2a_relu"
  type: "ReLU"
  bottom: "res3b2_branch2a"
  top: "res3b2_branch2a"
}
layer {
  name: "res3b2_branch2b"
  type: "Convolution"
  bottom: "res3b2_branch2a"
  top: "res3b2_branch2b"
  convolution_param {
    num_output: 128
    bias_term: false
    pad: 1
    kernel_size: 3
    stride: 1
    weight_filler {
      type: "msra"
    }
  }
}
layer {
  name: "bn3b2_branch2b"
  type: "BatchNorm"
  bottom: "res3b2_branch2b"
  top: "res3b2_branch2b"
  batch_norm_param {
    use_global_stats: false
  }
}
layer {
  name: "scale3b2_branch2b"
  type: "Scale"
  bottom: "res3b2_branch2b"
  top: "res3b2_branch2b"
  scale_param {
    bias_term: true
  }
}
layer {
  name: "res3b2_branch2b_relu"
  type: "ReLU"
  bottom: "res3b2_branch2b"
  top: "res3b2_branch2b"
}
layer {
  name: "res3b2_branch2c"
  type: "Convolution"
  bottom: "res3b2_branch2b"
  top: "res3b2_branch2c"
  convolution_param {
    num_output: 512
    bias_term: false
    pad: 0
    kernel_size: 1
    stride: 1
    weight_filler {
      type: "msra"
    }
  }
}
layer {
  name: "bn3b2_branch2c"
  type: "BatchNorm"
  bottom: "res3b2_branch2c"
  top: "res3b2_branch2c"
  batch_norm_param {
    use_global_stats: false
  }
}
layer {
  name: "scale3b2_branch2c"
  type: "Scale"
  bottom: "res3b2_branch2c"
  top: "res3b2_branch2c"
  scale_param {
    bias_term: true
  }
}
layer {
  name: "res3b2"
  type: "Eltwise"
  bottom: "res3b1"
  bottom: "res3b2_branch2c"
  top: "res3b2"
  eltwise_param {
    operation: SUM
  }
}
layer {
  name: "res3b2_relu"
  type: "ReLU"
  bottom: "res3b2"
  top: "res3b2"
}
layer {
  name: "res3b3_branch2a"
  type: "Convolution"
  bottom: "res3b2"
  top: "res3b3_branch2a"
  convolution_param {
    num_output: 128
    bias_term: false
    pad: 0
    kernel_size: 1
    stride: 1
    weight_filler {
      type: "msra"
    }
  }
}
layer {
  name: "bn3b3_branch2a"
  type: "BatchNorm"
  bottom: "res3b3_branch2a"
  top: "res3b3_branch2a"
  batch_norm_param {
    use_global_stats: false
  }
}
layer {
  name: "scale3b3_branch2a"
  type: "Scale"
  bottom: "res3b3_branch2a"
  top: "res3b3_branch2a"
  scale_param {
    bias_term: true
  }
}
layer {
  name: "res3b3_branch2a_relu"
  type: "ReLU"
  bottom: "res3b3_branch2a"
  top: "res3b3_branch2a"
}
layer {
  name: "res3b3_branch2b"
  type: "Convolution"
  bottom: "res3b3_branch2a"
  top: "res3b3_branch2b"
  convolution_param {
    num_output: 128
    bias_term: false
    pad: 1
    kernel_size: 3
    stride: 1
    weight_filler {
      type: "msra"
    }
  }
}
layer {
  name: "bn3b3_branch2b"
  type: "BatchNorm"
  bottom: "res3b3_branch2b"
  top: "res3b3_branch2b"
  batch_norm_param {
    use_global_stats: false
  }
}
layer {
  name: "scale3b3_branch2b"
  type: "Scale"
  bottom: "res3b3_branch2b"
  top: "res3b3_branch2b"
  scale_param {
    bias_term: true
  }
}
layer {
  name: "res3b3_branch2b_relu"
  type: "ReLU"
  bottom: "res3b3_branch2b"
  top: "res3b3_branch2b"
}
layer {
  name: "res3b3_branch2c"
  type: "Convolution"
  bottom: "res3b3_branch2b"
  top: "res3b3_branch2c"
  convolution_param {
    num_output: 512
    bias_term: false
    pad: 0
    kernel_size: 1
    stride: 1
    weight_filler {
      type: "msra"
    }
  }
}
layer {
  name: "bn3b3_branch2c"
  type: "BatchNorm"
  bottom: "res3b3_branch2c"
  top: "res3b3_branch2c"
  batch_norm_param {
    use_global_stats: false
  }
}
layer {
  name: "scale3b3_branch2c"
  type: "Scale"
  bottom: "res3b3_branch2c"
  top: "res3b3_branch2c"
  scale_param {
    bias_term: true
  }
}
layer {
  name: "res3b3"
  type: "Eltwise"
  bottom: "res3b2"
  bottom: "res3b3_branch2c"
  top: "res3b3"
  eltwise_param {
    operation: SUM
  }
}
layer {
  name: "res3b3_relu"
  type: "ReLU"
  bottom: "res3b3"
  top: "res3b3"
}
layer {
  name: "res3b4_branch2a"
  type: "Convolution"
  bottom: "res3b3"
  top: "res3b4_branch2a"
  convolution_param {
    num_output: 128
    bias_term: false
    pad: 0
    kernel_size: 1
    stride: 1
    weight_filler {
      type: "msra"
    }
  }
}
layer {
  name: "bn3b4_branch2a"
  type: "BatchNorm"
  bottom: "res3b4_branch2a"
  top: "res3b4_branch2a"
  batch_norm_param {
    use_global_stats: false
  }
}
layer {
  name: "scale3b4_branch2a"
  type: "Scale"
  bottom: "res3b4_branch2a"
  top: "res3b4_branch2a"
  scale_param {
    bias_term: true
  }
}
layer {
  name: "res3b4_branch2a_relu"
  type: "ReLU"
  bottom: "res3b4_branch2a"
  top: "res3b4_branch2a"
}
layer {
  name: "res3b4_branch2b"
  type: "Convolution"
  bottom: "res3b4_branch2a"
  top: "res3b4_branch2b"
  convolution_param {
    num_output: 128
    bias_term: false
    pad: 1
    kernel_size: 3
    stride: 1
    weight_filler {
      type: "msra"
    }
  }
}
layer {
  name: "bn3b4_branch2b"
  type: "BatchNorm"
  bottom: "res3b4_branch2b"
  top: "res3b4_branch2b"
  batch_norm_param {
    use_global_stats: false
  }
}
layer {
  name: "scale3b4_branch2b"
  type: "Scale"
  bottom: "res3b4_branch2b"
  top: "res3b4_branch2b"
  scale_param {
    bias_term: true
  }
}
layer {
  name: "res3b4_branch2b_relu"
  type: "ReLU"
  bottom: "res3b4_branch2b"
  top: "res3b4_branch2b"
}
layer {
  name: "res3b4_branch2c"
  type: "Convolution"
  bottom: "res3b4_branch2b"
  top: "res3b4_branch2c"
  convolution_param {
    num_output: 512
    bias_term: false
    pad: 0
    kernel_size: 1
    stride: 1
    weight_filler {
      type: "msra"
    }
  }
}
layer {
  name: "bn3b4_branch2c"
  type: "BatchNorm"
  bottom: "res3b4_branch2c"
  top: "res3b4_branch2c"
  batch_norm_param {
    use_global_stats: false
  }
}
layer {
  name: "scale3b4_branch2c"
  type: "Scale"
  bottom: "res3b4_branch2c"
  top: "res3b4_branch2c"
  scale_param {
    bias_term: true
  }
}
layer {
  name: "res3b4"
  type: "Eltwise"
  bottom: "res3b3"
  bottom: "res3b4_branch2c"
  top: "res3b4"
  eltwise_param {
    operation: SUM
  }
}
layer {
  name: "res3b4_relu"
  type: "ReLU"
  bottom: "res3b4"
  top: "res3b4"
}
layer {
  name: "res3b5_branch2a"
  type: "Convolution"
  bottom: "res3b4"
  top: "res3b5_branch2a"
  convolution_param {
    num_output: 128
    bias_term: false
    pad: 0
    kernel_size: 1
    stride: 1
    weight_filler {
      type: "msra"
    }
  }
}
layer {
  name: "bn3b5_branch2a"
  type: "BatchNorm"
  bottom: "res3b5_branch2a"
  top: "res3b5_branch2a"
  batch_norm_param {
    use_global_stats: false
  }
}
layer {
  name: "scale3b5_branch2a"
  type: "Scale"
  bottom: "res3b5_branch2a"
  top: "res3b5_branch2a"
  scale_param {
    bias_term: true
  }
}
layer {
  name: "res3b5_branch2a_relu"
  type: "ReLU"
  bottom: "res3b5_branch2a"
  top: "res3b5_branch2a"
}
layer {
  name: "res3b5_branch2b"
  type: "Convolution"
  bottom: "res3b5_branch2a"
  top: "res3b5_branch2b"
  convolution_param {
    num_output: 128
    bias_term: false
    pad: 1
    kernel_size: 3
    stride: 1
    weight_filler {
      type: "msra"
    }
  }
}
layer {
  name: "bn3b5_branch2b"
  type: "BatchNorm"
  bottom: "res3b5_branch2b"
  top: "res3b5_branch2b"
  batch_norm_param {
    use_global_stats: false
  }
}
layer {
  name: "scale3b5_branch2b"
  type: "Scale"
  bottom: "res3b5_branch2b"
  top: "res3b5_branch2b"
  scale_param {
    bias_term: true
  }
}
layer {
  name: "res3b5_branch2b_relu"
  type: "ReLU"
  bottom: "res3b5_branch2b"
  top: "res3b5_branch2b"
}
layer {
  name: "res3b5_branch2c"
  type: "Convolution"
  bottom: "res3b5_branch2b"
  top: "res3b5_branch2c"
  convolution_param {
    num_output: 512
    bias_term: false
    pad: 0
    kernel_size: 1
    stride: 1
    weight_filler {
      type: "msra"
    }
  }
}
layer {
  name: "bn3b5_branch2c"
  type: "BatchNorm"
  bottom: "res3b5_branch2c"
  top: "res3b5_branch2c"
  batch_norm_param {
    use_global_stats: false
  }
}
layer {
  name: "scale3b5_branch2c"
  type: "Scale"
  bottom: "res3b5_branch2c"
  top: "res3b5_branch2c"
  scale_param {
    bias_term: true
  }
}
layer {
  name: "res3b5"
  type: "Eltwise"
  bottom: "res3b4"
  bottom: "res3b5_branch2c"
  top: "res3b5"
  eltwise_param {
    operation: SUM
  }
}
layer {
  name: "res3b5_relu"
  type: "ReLU"
  bottom: "res3b5"
  top: "res3b5"
}
layer {
  name: "res3b6_branch2a"
  type: "Convolution"
  bottom: "res3b5"
  top: "res3b6_branch2a"
  convolution_param {
    num_output: 128
    bias_term: false
    pad: 0
    kernel_size: 1
    stride: 1
    weight_filler {
      type: "msra"
    }
  }
}
layer {
  name: "bn3b6_branch2a"
  type: "BatchNorm"
  bottom: "res3b6_branch2a"
  top: "res3b6_branch2a"
  batch_norm_param {
    use_global_stats: false
  }
}
layer {
  name: "scale3b6_branch2a"
  type: "Scale"
  bottom: "res3b6_branch2a"
  top: "res3b6_branch2a"
  scale_param {
    bias_term: true
  }
}
layer {
  name: "res3b6_branch2a_relu"
  type: "ReLU"
  bottom: "res3b6_branch2a"
  top: "res3b6_branch2a"
}
layer {
  name: "res3b6_branch2b"
  type: "Convolution"
  bottom: "res3b6_branch2a"
  top: "res3b6_branch2b"
  convolution_param {
    num_output: 128
    bias_term: false
    pad: 1
    kernel_size: 3
    stride: 1
    weight_filler {
      type: "msra"
    }
  }
}
layer {
  name: "bn3b6_branch2b"
  type: "BatchNorm"
  bottom: "res3b6_branch2b"
  top: "res3b6_branch2b"
  batch_norm_param {
    use_global_stats: false
  }
}
layer {
  name: "scale3b6_branch2b"
  type: "Scale"
  bottom: "res3b6_branch2b"
  top: "res3b6_branch2b"
  scale_param {
    bias_term: true
  }
}
layer {
  name: "res3b6_branch2b_relu"
  type: "ReLU"
  bottom: "res3b6_branch2b"
  top: "res3b6_branch2b"
}
layer {
  name: "res3b6_branch2c"
  type: "Convolution"
  bottom: "res3b6_branch2b"
  top: "res3b6_branch2c"
  convolution_param {
    num_output: 512
    bias_term: false
    pad: 0
    kernel_size: 1
    stride: 1
    weight_filler {
      type: "msra"
    }
  }
}
layer {
  name: "bn3b6_branch2c"
  type: "BatchNorm"
  bottom: "res3b6_branch2c"
  top: "res3b6_branch2c"
  batch_norm_param {
    use_global_stats: false
  }
}
layer {
  name: "scale3b6_branch2c"
  type: "Scale"
  bottom: "res3b6_branch2c"
  top: "res3b6_branch2c"
  scale_param {
    bias_term: true
  }
}
layer {
  name: "res3b6"
  type: "Eltwise"
  bottom: "res3b5"
  bottom: "res3b6_branch2c"
  top: "res3b6"
  eltwise_param {
    operation: SUM
  }
}
layer {
  name: "res3b6_relu"
  type: "ReLU"
  bottom: "res3b6"
  top: "res3b6"
}
layer {
  name: "res3b7_branch2a"
  type: "Convolution"
  bottom: "res3b6"
  top: "res3b7_branch2a"
  convolution_param {
    num_output: 128
    bias_term: false
    pad: 0
    kernel_size: 1
    stride: 1
    weight_filler {
      type: "msra"
    }
  }
}
layer {
  name: "bn3b7_branch2a"
  type: "BatchNorm"
  bottom: "res3b7_branch2a"
  top: "res3b7_branch2a"
  batch_norm_param {
    use_global_stats: false
  }
}
layer {
  name: "scale3b7_branch2a"
  type: "Scale"
  bottom: "res3b7_branch2a"
  top: "res3b7_branch2a"
  scale_param {
    bias_term: true
  }
}
layer {
  name: "res3b7_branch2a_relu"
  type: "ReLU"
  bottom: "res3b7_branch2a"
  top: "res3b7_branch2a"
}
layer {
  name: "res3b7_branch2b"
  type: "Convolution"
  bottom: "res3b7_branch2a"
  top: "res3b7_branch2b"
  convolution_param {
    num_output: 128
    bias_term: false
    pad: 1
    kernel_size: 3
    stride: 1
    weight_filler {
      type: "msra"
    }
  }
}
layer {
  name: "bn3b7_branch2b"
  type: "BatchNorm"
  bottom: "res3b7_branch2b"
  top: "res3b7_branch2b"
  batch_norm_param {
    use_global_stats: false
  }
}
layer {
  name: "scale3b7_branch2b"
  type: "Scale"
  bottom: "res3b7_branch2b"
  top: "res3b7_branch2b"
  scale_param {
    bias_term: true
  }
}
layer {
  name: "res3b7_branch2b_relu"
  type: "ReLU"
  bottom: "res3b7_branch2b"
  top: "res3b7_branch2b"
}
layer {
  name: "res3b7_branch2c"
  type: "Convolution"
  bottom: "res3b7_branch2b"
  top: "res3b7_branch2c"
  convolution_param {
    num_output: 512
    bias_term: false
    pad: 0
    kernel_size: 1
    stride: 1
    weight_filler {
      type: "msra"
    }
  }
}
layer {
  name: "bn3b7_branch2c"
  type: "BatchNorm"
  bottom: "res3b7_branch2c"
  top: "res3b7_branch2c"
  batch_norm_param {
    use_global_stats: false
  }
}
layer {
  name: "scale3b7_branch2c"
  type: "Scale"
  bottom: "res3b7_branch2c"
  top: "res3b7_branch2c"
  scale_param {
    bias_term: true
  }
}
layer {
  name: "res3b7"
  type: "Eltwise"
  bottom: "res3b6"
  bottom: "res3b7_branch2c"
  top: "res3b7"
  eltwise_param {
    operation: SUM
  }
}
layer {
  name: "res3b7_relu"
  type: "ReLU"
  bottom: "res3b7"
  top: "res3b7"
}
layer {
  name: "res4a_branch1"
  type: "Convolution"
  bottom: "res3b7"
  top: "res4a_branch1"
  convolution_param {
    num_output: 1024
    bias_term: false
    pad: 0
    kernel_size: 1
    stride: 2
    weight_filler {
      type: "msra"
    }
  }
}
layer {
  name: "bn4a_branch1"
  type: "BatchNorm"
  bottom: "res4a_branch1"
  top: "res4a_branch1"
  batch_norm_param {
    use_global_stats: false
  }
}
layer {
  name: "scale4a_branch1"
  type: "Scale"
  bottom: "res4a_branch1"
  top: "res4a_branch1"
  scale_param {
    bias_term: true
  }
}
layer {
  name: "res4a_branch2a"
  type: "Convolution"
  bottom: "res3b7"
  top: "res4a_branch2a"
  convolution_param {
    num_output: 256
    bias_term: false
    pad: 0
    kernel_size: 1
    stride: 2
    weight_filler {
      type: "msra"
    }
  }
}
layer {
  name: "bn4a_branch2a"
  type: "BatchNorm"
  bottom: "res4a_branch2a"
  top: "res4a_branch2a"
  batch_norm_param {
    use_global_stats: false
  }
}
layer {
  name: "scale4a_branch2a"
  type: "Scale"
  bottom: "res4a_branch2a"
  top: "res4a_branch2a"
  scale_param {
    bias_term: true
  }
}
layer {
  name: "res4a_branch2a_relu"
  type: "ReLU"
  bottom: "res4a_branch2a"
  top: "res4a_branch2a"
}
layer {
  name: "res4a_branch2b"
  type: "Convolution"
  bottom: "res4a_branch2a"
  top: "res4a_branch2b"
  convolution_param {
    num_output: 256
    bias_term: false
    pad: 1
    kernel_size: 3
    stride: 1
    weight_filler {
      type: "msra"
    }
  }
}
layer {
  name: "bn4a_branch2b"
  type: "BatchNorm"
  bottom: "res4a_branch2b"
  top: "res4a_branch2b"
  batch_norm_param {
    use_global_stats: false
  }
}
layer {
  name: "scale4a_branch2b"
  type: "Scale"
  bottom: "res4a_branch2b"
  top: "res4a_branch2b"
  scale_param {
    bias_term: true
  }
}
layer {
  name: "res4a_branch2b_relu"
  type: "ReLU"
  bottom: "res4a_branch2b"
  top: "res4a_branch2b"
}
layer {
  name: "res4a_branch2c"
  type: "Convolution"
  bottom: "res4a_branch2b"
  top: "res4a_branch2c"
  convolution_param {
    num_output: 1024
    bias_term: false
    pad: 0
    kernel_size: 1
    stride: 1
    weight_filler {
      type: "msra"
    }
  }
}
layer {
  name: "bn4a_branch2c"
  type: "BatchNorm"
  bottom: "res4a_branch2c"
  top: "res4a_branch2c"
  batch_norm_param {
    use_global_stats: false
  }
}
layer {
  name: "scale4a_branch2c"
  type: "Scale"
  bottom: "res4a_branch2c"
  top: "res4a_branch2c"
  scale_param {
    bias_term: true
  }
}
layer {
  name: "res4a"
  type: "Eltwise"
  bottom: "res4a_branch1"
  bottom: "res4a_branch2c"
  top: "res4a"
  eltwise_param {
    operation: SUM
  }
}
layer {
  name: "res4a_relu"
  type: "ReLU"
  bottom: "res4a"
  top: "res4a"
}
layer {
  name: "res4b1_branch2a"
  type: "Convolution"
  bottom: "res4a"
  top: "res4b1_branch2a"
  convolution_param {
    num_output: 256
    bias_term: false
    pad: 0
    kernel_size: 1
    stride: 1
    weight_filler {
      type: "msra"
    }
  }
}
layer {
  name: "bn4b1_branch2a"
  type: "BatchNorm"
  bottom: "res4b1_branch2a"
  top: "res4b1_branch2a"
  batch_norm_param {
    use_global_stats: false
  }
}
layer {
  name: "scale4b1_branch2a"
  type: "Scale"
  bottom: "res4b1_branch2a"
  top: "res4b1_branch2a"
  scale_param {
    bias_term: true
  }
}
layer {
  name: "res4b1_branch2a_relu"
  type: "ReLU"
  bottom: "res4b1_branch2a"
  top: "res4b1_branch2a"
}
layer {
  name: "res4b1_branch2b"
  type: "Convolution"
  bottom: "res4b1_branch2a"
  top: "res4b1_branch2b"
  convolution_param {
    num_output: 256
    bias_term: false
    pad: 1
    kernel_size: 3
    stride: 1
    weight_filler {
      type: "msra"
    }
  }
}
layer {
  name: "bn4b1_branch2b"
  type: "BatchNorm"
  bottom: "res4b1_branch2b"
  top: "res4b1_branch2b"
  batch_norm_param {
    use_global_stats: false
  }
}
layer {
  name: "scale4b1_branch2b"
  type: "Scale"
  bottom: "res4b1_branch2b"
  top: "res4b1_branch2b"
  scale_param {
    bias_term: true
  }
}
layer {
  nam
I0517 02:35:58.356526  6959 layer_factory.hpp:77] Creating layer data
I0517 02:35:58.356577  6959 db_lmdb.cpp:35] Opened lmdb /home/danilo/Documents/FGA/2018-1/TCC1/data/edited/Med_atlas_edin/train_lmdb/train
I0517 02:35:58.356590  6959 net.cpp:84] Creating Layer data
I0517 02:35:58.356595  6959 net.cpp:380] data -> data
I0517 02:35:58.356606  6959 net.cpp:380] data -> label
I0517 02:35:58.356613  6959 data_transformer.cpp:25] Loading mean file from: /home/danilo/Documents/FGA/2018-1/TCC1/data/edited/Med_atlas_edin/train_lmdb/input/mean.binaryproto
I0517 02:35:58.374603  6959 data_layer.cpp:45] output data size: 5,3,224,224
I0517 02:35:58.380544  6959 net.cpp:122] Setting up data
I0517 02:35:58.380560  6959 net.cpp:129] Top shape: 5 3 224 224 (752640)
I0517 02:35:58.380563  6959 net.cpp:129] Top shape: 5 (5)
I0517 02:35:58.380565  6959 net.cpp:137] Memory required for data: 3010580
I0517 02:35:58.380570  6959 layer_factory.hpp:77] Creating layer conv1
I0517 02:35:58.380583  6959 net.cpp:84] Creating Layer conv1
I0517 02:35:58.380586  6959 net.cpp:406] conv1 <- data
I0517 02:35:58.380592  6959 net.cpp:380] conv1 -> conv1
I0517 02:35:58.841003  6959 net.cpp:122] Setting up conv1
I0517 02:35:58.841019  6959 net.cpp:129] Top shape: 5 64 112 112 (4014080)
I0517 02:35:58.841022  6959 net.cpp:137] Memory required for data: 19066900
I0517 02:35:58.841037  6959 layer_factory.hpp:77] Creating layer bn_conv1
I0517 02:35:58.841047  6959 net.cpp:84] Creating Layer bn_conv1
I0517 02:35:58.841049  6959 net.cpp:406] bn_conv1 <- conv1
I0517 02:35:58.841053  6959 net.cpp:367] bn_conv1 -> conv1 (in-place)
I0517 02:35:58.841203  6959 net.cpp:122] Setting up bn_conv1
I0517 02:35:58.841208  6959 net.cpp:129] Top shape: 5 64 112 112 (4014080)
I0517 02:35:58.841210  6959 net.cpp:137] Memory required for data: 35123220
I0517 02:35:58.841215  6959 layer_factory.hpp:77] Creating layer scale_conv1
I0517 02:35:58.841220  6959 net.cpp:84] Creating Layer scale_conv1
I0517 02:35:58.841223  6959 net.cpp:406] scale_conv1 <- conv1
I0517 02:35:58.841226  6959 net.cpp:367] scale_conv1 -> conv1 (in-place)
I0517 02:35:58.841253  6959 layer_factory.hpp:77] Creating layer scale_conv1
I0517 02:35:58.841343  6959 net.cpp:122] Setting up scale_conv1
I0517 02:35:58.841347  6959 net.cpp:129] Top shape: 5 64 112 112 (4014080)
I0517 02:35:58.841349  6959 net.cpp:137] Memory required for data: 51179540
I0517 02:35:58.841353  6959 layer_factory.hpp:77] Creating layer conv1_relu
I0517 02:35:58.841357  6959 net.cpp:84] Creating Layer conv1_relu
I0517 02:35:58.841359  6959 net.cpp:406] conv1_relu <- conv1
I0517 02:35:58.841361  6959 net.cpp:367] conv1_relu -> conv1 (in-place)
I0517 02:35:58.841737  6959 net.cpp:122] Setting up conv1_relu
I0517 02:35:58.841744  6959 net.cpp:129] Top shape: 5 64 112 112 (4014080)
I0517 02:35:58.841747  6959 net.cpp:137] Memory required for data: 67235860
I0517 02:35:58.841748  6959 layer_factory.hpp:77] Creating layer pool1
I0517 02:35:58.841753  6959 net.cpp:84] Creating Layer pool1
I0517 02:35:58.841754  6959 net.cpp:406] pool1 <- conv1
I0517 02:35:58.841758  6959 net.cpp:380] pool1 -> pool1
I0517 02:35:58.841792  6959 net.cpp:122] Setting up pool1
I0517 02:35:58.841796  6959 net.cpp:129] Top shape: 5 64 56 56 (1003520)
I0517 02:35:58.841799  6959 net.cpp:137] Memory required for data: 71249940
I0517 02:35:58.841800  6959 layer_factory.hpp:77] Creating layer pool1_pool1_0_split
I0517 02:35:58.841805  6959 net.cpp:84] Creating Layer pool1_pool1_0_split
I0517 02:35:58.841807  6959 net.cpp:406] pool1_pool1_0_split <- pool1
I0517 02:35:58.841810  6959 net.cpp:380] pool1_pool1_0_split -> pool1_pool1_0_split_0
I0517 02:35:58.841815  6959 net.cpp:380] pool1_pool1_0_split -> pool1_pool1_0_split_1
I0517 02:35:58.841837  6959 net.cpp:122] Setting up pool1_pool1_0_split
I0517 02:35:58.841841  6959 net.cpp:129] Top shape: 5 64 56 56 (1003520)
I0517 02:35:58.841843  6959 net.cpp:129] Top shape: 5 64 56 56 (1003520)
I0517 02:35:58.841845  6959 net.cpp:137] Memory required for data: 79278100
I0517 02:35:58.841847  6959 layer_factory.hpp:77] Creating layer res2a_branch1
I0517 02:35:58.841853  6959 net.cpp:84] Creating Layer res2a_branch1
I0517 02:35:58.841856  6959 net.cpp:406] res2a_branch1 <- pool1_pool1_0_split_0
I0517 02:35:58.841861  6959 net.cpp:380] res2a_branch1 -> res2a_branch1
I0517 02:35:58.843420  6959 net.cpp:122] Setting up res2a_branch1
I0517 02:35:58.843428  6959 net.cpp:129] Top shape: 5 256 56 56 (4014080)
I0517 02:35:58.843430  6959 net.cpp:137] Memory required for data: 95334420
I0517 02:35:58.843433  6959 layer_factory.hpp:77] Creating layer bn2a_branch1
I0517 02:35:58.843439  6959 net.cpp:84] Creating Layer bn2a_branch1
I0517 02:35:58.843442  6959 net.cpp:406] bn2a_branch1 <- res2a_branch1
I0517 02:35:58.843446  6959 net.cpp:367] bn2a_branch1 -> res2a_branch1 (in-place)
I0517 02:35:58.844171  6959 net.cpp:122] Setting up bn2a_branch1
I0517 02:35:58.844178  6959 net.cpp:129] Top shape: 5 256 56 56 (4014080)
I0517 02:35:58.844180  6959 net.cpp:137] Memory required for data: 111390740
I0517 02:35:58.844185  6959 layer_factory.hpp:77] Creating layer scale2a_branch1
I0517 02:35:58.844189  6959 net.cpp:84] Creating Layer scale2a_branch1
I0517 02:35:58.844192  6959 net.cpp:406] scale2a_branch1 <- res2a_branch1
I0517 02:35:58.844197  6959 net.cpp:367] scale2a_branch1 -> res2a_branch1 (in-place)
I0517 02:35:58.844225  6959 layer_factory.hpp:77] Creating layer scale2a_branch1
I0517 02:35:58.844311  6959 net.cpp:122] Setting up scale2a_branch1
I0517 02:35:58.844316  6959 net.cpp:129] Top shape: 5 256 56 56 (4014080)
I0517 02:35:58.844318  6959 net.cpp:137] Memory required for data: 127447060
I0517 02:35:58.844322  6959 layer_factory.hpp:77] Creating layer res2a_branch2a
I0517 02:35:58.844327  6959 net.cpp:84] Creating Layer res2a_branch2a
I0517 02:35:58.844329  6959 net.cpp:406] res2a_branch2a <- pool1_pool1_0_split_1
I0517 02:35:58.844333  6959 net.cpp:380] res2a_branch2a -> res2a_branch2a
I0517 02:35:58.845743  6959 net.cpp:122] Setting up res2a_branch2a
I0517 02:35:58.845752  6959 net.cpp:129] Top shape: 5 64 56 56 (1003520)
I0517 02:35:58.845753  6959 net.cpp:137] Memory required for data: 131461140
I0517 02:35:58.845757  6959 layer_factory.hpp:77] Creating layer bn2a_branch2a
I0517 02:35:58.845762  6959 net.cpp:84] Creating Layer bn2a_branch2a
I0517 02:35:58.845764  6959 net.cpp:406] bn2a_branch2a <- res2a_branch2a
I0517 02:35:58.845767  6959 net.cpp:367] bn2a_branch2a -> res2a_branch2a (in-place)
I0517 02:35:58.845906  6959 net.cpp:122] Setting up bn2a_branch2a
I0517 02:35:58.845911  6959 net.cpp:129] Top shape: 5 64 56 56 (1003520)
I0517 02:35:58.845912  6959 net.cpp:137] Memory required for data: 135475220
I0517 02:35:58.845916  6959 layer_factory.hpp:77] Creating layer scale2a_branch2a
I0517 02:35:58.845921  6959 net.cpp:84] Creating Layer scale2a_branch2a
I0517 02:35:58.845924  6959 net.cpp:406] scale2a_branch2a <- res2a_branch2a
I0517 02:35:58.845927  6959 net.cpp:367] scale2a_branch2a -> res2a_branch2a (in-place)
I0517 02:35:58.845953  6959 layer_factory.hpp:77] Creating layer scale2a_branch2a
I0517 02:35:58.846040  6959 net.cpp:122] Setting up scale2a_branch2a
I0517 02:35:58.846043  6959 net.cpp:129] Top shape: 5 64 56 56 (1003520)
I0517 02:35:58.846045  6959 net.cpp:137] Memory required for data: 139489300
I0517 02:35:58.846050  6959 layer_factory.hpp:77] Creating layer res2a_branch2a_relu
I0517 02:35:58.846052  6959 net.cpp:84] Creating Layer res2a_branch2a_relu
I0517 02:35:58.846055  6959 net.cpp:406] res2a_branch2a_relu <- res2a_branch2a
I0517 02:35:58.846057  6959 net.cpp:367] res2a_branch2a_relu -> res2a_branch2a (in-place)
I0517 02:35:58.846416  6959 net.cpp:122] Setting up res2a_branch2a_relu
I0517 02:35:58.846421  6959 net.cpp:129] Top shape: 5 64 56 56 (1003520)
I0517 02:35:58.846424  6959 net.cpp:137] Memory required for data: 143503380
I0517 02:35:58.846426  6959 layer_factory.hpp:77] Creating layer res2a_branch2b
I0517 02:35:58.846431  6959 net.cpp:84] Creating Layer res2a_branch2b
I0517 02:35:58.846433  6959 net.cpp:406] res2a_branch2b <- res2a_branch2a
I0517 02:35:58.846436  6959 net.cpp:380] res2a_branch2b -> res2a_branch2b
I0517 02:35:58.848659  6959 net.cpp:122] Setting up res2a_branch2b
I0517 02:35:58.848670  6959 net.cpp:129] Top shape: 5 64 56 56 (1003520)
I0517 02:35:58.848671  6959 net.cpp:137] Memory required for data: 147517460
I0517 02:35:58.848675  6959 layer_factory.hpp:77] Creating layer bn2a_branch2b
I0517 02:35:58.848680  6959 net.cpp:84] Creating Layer bn2a_branch2b
I0517 02:35:58.848682  6959 net.cpp:406] bn2a_branch2b <- res2a_branch2b
I0517 02:35:58.848686  6959 net.cpp:367] bn2a_branch2b -> res2a_branch2b (in-place)
I0517 02:35:58.848834  6959 net.cpp:122] Setting up bn2a_branch2b
I0517 02:35:58.848839  6959 net.cpp:129] Top shape: 5 64 56 56 (1003520)
I0517 02:35:58.848840  6959 net.cpp:137] Memory required for data: 151531540
I0517 02:35:58.848845  6959 layer_factory.hpp:77] Creating layer scale2a_branch2b
I0517 02:35:58.848848  6959 net.cpp:84] Creating Layer scale2a_branch2b
I0517 02:35:58.848850  6959 net.cpp:406] scale2a_branch2b <- res2a_branch2b
I0517 02:35:58.848853  6959 net.cpp:367] scale2a_branch2b -> res2a_branch2b (in-place)
I0517 02:35:58.848881  6959 layer_factory.hpp:77] Creating layer scale2a_branch2b
I0517 02:35:58.848965  6959 net.cpp:122] Setting up scale2a_branch2b
I0517 02:35:58.848969  6959 net.cpp:129] Top shape: 5 64 56 56 (1003520)
I0517 02:35:58.848971  6959 net.cpp:137] Memory required for data: 155545620
I0517 02:35:58.848980  6959 layer_factory.hpp:77] Creating layer res2a_branch2b_relu
I0517 02:35:58.848984  6959 net.cpp:84] Creating Layer res2a_branch2b_relu
I0517 02:35:58.848986  6959 net.cpp:406] res2a_branch2b_relu <- res2a_branch2b
I0517 02:35:58.848989  6959 net.cpp:367] res2a_branch2b_relu -> res2a_branch2b (in-place)
I0517 02:35:58.849467  6959 net.cpp:122] Setting up res2a_branch2b_relu
I0517 02:35:58.849474  6959 net.cpp:129] Top shape: 5 64 56 56 (1003520)
I0517 02:35:58.849476  6959 net.cpp:137] Memory required for data: 159559700
I0517 02:35:58.849478  6959 layer_factory.hpp:77] Creating layer res2a_branch2c
I0517 02:35:58.849484  6959 net.cpp:84] Creating Layer res2a_branch2c
I0517 02:35:58.849486  6959 net.cpp:406] res2a_branch2c <- res2a_branch2b
I0517 02:35:58.849489  6959 net.cpp:380] res2a_branch2c -> res2a_branch2c
I0517 02:35:58.850973  6959 net.cpp:122] Setting up res2a_branch2c
I0517 02:35:58.850980  6959 net.cpp:129] Top shape: 5 256 56 56 (4014080)
I0517 02:35:58.850982  6959 net.cpp:137] Memory required for data: 175616020
I0517 02:35:58.850986  6959 layer_factory.hpp:77] Creating layer bn2a_branch2c
I0517 02:35:58.850989  6959 net.cpp:84] Creating Layer bn2a_branch2c
I0517 02:35:58.850991  6959 net.cpp:406] bn2a_branch2c <- res2a_branch2c
I0517 02:35:58.850996  6959 net.cpp:367] bn2a_branch2c -> res2a_branch2c (in-place)
I0517 02:35:58.851138  6959 net.cpp:122] Setting up bn2a_branch2c
I0517 02:35:58.851142  6959 net.cpp:129] Top shape: 5 256 56 56 (4014080)
I0517 02:35:58.851145  6959 net.cpp:137] Memory required for data: 191672340
I0517 02:35:58.851148  6959 layer_factory.hpp:77] Creating layer scale2a_branch2c
I0517 02:35:58.851151  6959 net.cpp:84] Creating Layer scale2a_branch2c
I0517 02:35:58.851153  6959 net.cpp:406] scale2a_branch2c <- res2a_branch2c
I0517 02:35:58.851156  6959 net.cpp:367] scale2a_branch2c -> res2a_branch2c (in-place)
I0517 02:35:58.851182  6959 layer_factory.hpp:77] Creating layer scale2a_branch2c
I0517 02:35:58.851264  6959 net.cpp:122] Setting up scale2a_branch2c
I0517 02:35:58.851269  6959 net.cpp:129] Top shape: 5 256 56 56 (4014080)
I0517 02:35:58.851270  6959 net.cpp:137] Memory required for data: 207728660
I0517 02:35:58.851274  6959 layer_factory.hpp:77] Creating layer res2a
I0517 02:35:58.851279  6959 net.cpp:84] Creating Layer res2a
I0517 02:35:58.851281  6959 net.cpp:406] res2a <- res2a_branch1
I0517 02:35:58.851284  6959 net.cpp:406] res2a <- res2a_branch2c
I0517 02:35:58.851286  6959 net.cpp:380] res2a -> res2a
I0517 02:35:58.851302  6959 net.cpp:122] Setting up res2a
I0517 02:35:58.851305  6959 net.cpp:129] Top shape: 5 256 56 56 (4014080)
I0517 02:35:58.851307  6959 net.cpp:137] Memory required for data: 223784980
I0517 02:35:58.851310  6959 layer_factory.hpp:77] Creating layer res2a_relu
I0517 02:35:58.851312  6959 net.cpp:84] Creating Layer res2a_relu
I0517 02:35:58.851315  6959 net.cpp:406] res2a_relu <- res2a
I0517 02:35:58.851317  6959 net.cpp:367] res2a_relu -> res2a (in-place)
I0517 02:35:58.851696  6959 net.cpp:122] Setting up res2a_relu
I0517 02:35:58.851703  6959 net.cpp:129] Top shape: 5 256 56 56 (4014080)
I0517 02:35:58.851706  6959 net.cpp:137] Memory required for data: 239841300
I0517 02:35:58.851707  6959 layer_factory.hpp:77] Creating layer res2a_res2a_relu_0_split
I0517 02:35:58.851712  6959 net.cpp:84] Creating Layer res2a_res2a_relu_0_split
I0517 02:35:58.851716  6959 net.cpp:406] res2a_res2a_relu_0_split <- res2a
I0517 02:35:58.851718  6959 net.cpp:380] res2a_res2a_relu_0_split -> res2a_res2a_relu_0_split_0
I0517 02:35:58.851722  6959 net.cpp:380] res2a_res2a_relu_0_split -> res2a_res2a_relu_0_split_1
I0517 02:35:58.851752  6959 net.cpp:122] Setting up res2a_res2a_relu_0_split
I0517 02:35:58.851757  6959 net.cpp:129] Top shape: 5 256 56 56 (4014080)
I0517 02:35:58.851758  6959 net.cpp:129] Top shape: 5 256 56 56 (4014080)
I0517 02:35:58.851760  6959 net.cpp:137] Memory required for data: 271953940
I0517 02:35:58.851763  6959 layer_factory.hpp:77] Creating layer res2b_branch2a
I0517 02:35:58.851768  6959 net.cpp:84] Creating Layer res2b_branch2a
I0517 02:35:58.851775  6959 net.cpp:406] res2b_branch2a <- res2a_res2a_relu_0_split_0
I0517 02:35:58.851779  6959 net.cpp:380] res2b_branch2a -> res2b_branch2a
I0517 02:35:58.853422  6959 net.cpp:122] Setting up res2b_branch2a
I0517 02:35:58.853430  6959 net.cpp:129] Top shape: 5 64 56 56 (1003520)
I0517 02:35:58.853433  6959 net.cpp:137] Memory required for data: 275968020
I0517 02:35:58.853436  6959 layer_factory.hpp:77] Creating layer bn2b_branch2a
I0517 02:35:58.853440  6959 net.cpp:84] Creating Layer bn2b_branch2a
I0517 02:35:58.853443  6959 net.cpp:406] bn2b_branch2a <- res2b_branch2a
I0517 02:35:58.853446  6959 net.cpp:367] bn2b_branch2a -> res2b_branch2a (in-place)
I0517 02:35:58.853597  6959 net.cpp:122] Setting up bn2b_branch2a
I0517 02:35:58.853601  6959 net.cpp:129] Top shape: 5 64 56 56 (1003520)
I0517 02:35:58.853603  6959 net.cpp:137] Memory required for data: 279982100
I0517 02:35:58.853610  6959 layer_factory.hpp:77] Creating layer scale2b_branch2a
I0517 02:35:58.853613  6959 net.cpp:84] Creating Layer scale2b_branch2a
I0517 02:35:58.853615  6959 net.cpp:406] scale2b_branch2a <- res2b_branch2a
I0517 02:35:58.853617  6959 net.cpp:367] scale2b_branch2a -> res2b_branch2a (in-place)
I0517 02:35:58.853646  6959 layer_factory.hpp:77] Creating layer scale2b_branch2a
I0517 02:35:58.853736  6959 net.cpp:122] Setting up scale2b_branch2a
I0517 02:35:58.853740  6959 net.cpp:129] Top shape: 5 64 56 56 (1003520)
I0517 02:35:58.853742  6959 net.cpp:137] Memory required for data: 283996180
I0517 02:35:58.853745  6959 layer_factory.hpp:77] Creating layer res2b_branch2a_relu
I0517 02:35:58.853750  6959 net.cpp:84] Creating Layer res2b_branch2a_relu
I0517 02:35:58.853752  6959 net.cpp:406] res2b_branch2a_relu <- res2b_branch2a
I0517 02:35:58.853754  6959 net.cpp:367] res2b_branch2a_relu -> res2b_branch2a (in-place)
I0517 02:35:58.854118  6959 net.cpp:122] Setting up res2b_branch2a_relu
I0517 02:35:58.854125  6959 net.cpp:129] Top shape: 5 64 56 56 (1003520)
I0517 02:35:58.854126  6959 net.cpp:137] Memory required for data: 288010260
I0517 02:35:58.854128  6959 layer_factory.hpp:77] Creating layer res2b_branch2b
I0517 02:35:58.854135  6959 net.cpp:84] Creating Layer res2b_branch2b
I0517 02:35:58.854137  6959 net.cpp:406] res2b_branch2b <- res2b_branch2a
I0517 02:35:58.854140  6959 net.cpp:380] res2b_branch2b -> res2b_branch2b
I0517 02:35:58.855777  6959 net.cpp:122] Setting up res2b_branch2b
I0517 02:35:58.855784  6959 net.cpp:129] Top shape: 5 64 56 56 (1003520)
I0517 02:35:58.855787  6959 net.cpp:137] Memory required for data: 292024340
I0517 02:35:58.855789  6959 layer_factory.hpp:77] Creating layer bn2b_branch2b
I0517 02:35:58.855795  6959 net.cpp:84] Creating Layer bn2b_branch2b
I0517 02:35:58.855798  6959 net.cpp:406] bn2b_branch2b <- res2b_branch2b
I0517 02:35:58.855801  6959 net.cpp:367] bn2b_branch2b -> res2b_branch2b (in-place)
I0517 02:35:58.855953  6959 net.cpp:122] Setting up bn2b_branch2b
I0517 02:35:58.855958  6959 net.cpp:129] Top shape: 5 64 56 56 (1003520)
I0517 02:35:58.855960  6959 net.cpp:137] Memory required for data: 296038420
I0517 02:35:58.855964  6959 layer_factory.hpp:77] Creating layer scale2b_branch2b
I0517 02:35:58.855968  6959 net.cpp:84] Creating Layer scale2b_branch2b
I0517 02:35:58.855970  6959 net.cpp:406] scale2b_branch2b <- res2b_branch2b
I0517 02:35:58.855973  6959 net.cpp:367] scale2b_branch2b -> res2b_branch2b (in-place)
I0517 02:35:58.855998  6959 layer_factory.hpp:77] Creating layer scale2b_branch2b
I0517 02:35:58.856088  6959 net.cpp:122] Setting up scale2b_branch2b
I0517 02:35:58.856092  6959 net.cpp:129] Top shape: 5 64 56 56 (1003520)
I0517 02:35:58.856096  6959 net.cpp:137] Memory required for data: 300052500
I0517 02:35:58.856098  6959 layer_factory.hpp:77] Creating layer res2b_branch2b_relu
I0517 02:35:58.856101  6959 net.cpp:84] Creating Layer res2b_branch2b_relu
I0517 02:35:58.856104  6959 net.cpp:406] res2b_branch2b_relu <- res2b_branch2b
I0517 02:35:58.856106  6959 net.cpp:367] res2b_branch2b_relu -> res2b_branch2b (in-place)
I0517 02:35:58.856582  6959 net.cpp:122] Setting up res2b_branch2b_relu
I0517 02:35:58.856595  6959 net.cpp:129] Top shape: 5 64 56 56 (1003520)
I0517 02:35:58.856597  6959 net.cpp:137] Memory required for data: 304066580
I0517 02:35:58.856600  6959 layer_factory.hpp:77] Creating layer res2b_branch2c
I0517 02:35:58.856607  6959 net.cpp:84] Creating Layer res2b_branch2c
I0517 02:35:58.856609  6959 net.cpp:406] res2b_branch2c <- res2b_branch2b
I0517 02:35:58.856612  6959 net.cpp:380] res2b_branch2c -> res2b_branch2c
I0517 02:35:58.858121  6959 net.cpp:122] Setting up res2b_branch2c
I0517 02:35:58.858129  6959 net.cpp:129] Top shape: 5 256 56 56 (4014080)
I0517 02:35:58.858131  6959 net.cpp:137] Memory required for data: 320122900
I0517 02:35:58.858134  6959 layer_factory.hpp:77] Creating layer bn2b_branch2c
I0517 02:35:58.858140  6959 net.cpp:84] Creating Layer bn2b_branch2c
I0517 02:35:58.858142  6959 net.cpp:406] bn2b_branch2c <- res2b_branch2c
I0517 02:35:58.858145  6959 net.cpp:367] bn2b_branch2c -> res2b_branch2c (in-place)
I0517 02:35:58.858291  6959 net.cpp:122] Setting up bn2b_branch2c
I0517 02:35:58.858296  6959 net.cpp:129] Top shape: 5 256 56 56 (4014080)
I0517 02:35:58.858299  6959 net.cpp:137] Memory required for data: 336179220
I0517 02:35:58.858302  6959 layer_factory.hpp:77] Creating layer scale2b_branch2c
I0517 02:35:58.858305  6959 net.cpp:84] Creating Layer scale2b_branch2c
I0517 02:35:58.858307  6959 net.cpp:406] scale2b_branch2c <- res2b_branch2c
I0517 02:35:58.858310  6959 net.cpp:367] scale2b_branch2c -> res2b_branch2c (in-place)
I0517 02:35:58.858336  6959 layer_factory.hpp:77] Creating layer scale2b_branch2c
I0517 02:35:58.858422  6959 net.cpp:122] Setting up scale2b_branch2c
I0517 02:35:58.858425  6959 net.cpp:129] Top shape: 5 256 56 56 (4014080)
I0517 02:35:58.858428  6959 net.cpp:137] Memory required for data: 352235540
I0517 02:35:58.858430  6959 layer_factory.hpp:77] Creating layer res2b
I0517 02:35:58.858434  6959 net.cpp:84] Creating Layer res2b
I0517 02:35:58.858436  6959 net.cpp:406] res2b <- res2a_res2a_relu_0_split_1
I0517 02:35:58.858438  6959 net.cpp:406] res2b <- res2b_branch2c
I0517 02:35:58.858441  6959 net.cpp:380] res2b -> res2b
I0517 02:35:58.858459  6959 net.cpp:122] Setting up res2b
I0517 02:35:58.858463  6959 net.cpp:129] Top shape: 5 256 56 56 (4014080)
I0517 02:35:58.858464  6959 net.cpp:137] Memory required for data: 368291860
I0517 02:35:58.858466  6959 layer_factory.hpp:77] Creating layer res2b_relu
I0517 02:35:58.858470  6959 net.cpp:84] Creating Layer res2b_relu
I0517 02:35:58.858472  6959 net.cpp:406] res2b_relu <- res2b
I0517 02:35:58.858474  6959 net.cpp:367] res2b_relu -> res2b (in-place)
I0517 02:35:58.858839  6959 net.cpp:122] Setting up res2b_relu
I0517 02:35:58.858845  6959 net.cpp:129] Top shape: 5 256 56 56 (4014080)
I0517 02:35:58.858847  6959 net.cpp:137] Memory required for data: 384348180
I0517 02:35:58.858850  6959 layer_factory.hpp:77] Creating layer res2b_res2b_relu_0_split
I0517 02:35:58.858853  6959 net.cpp:84] Creating Layer res2b_res2b_relu_0_split
I0517 02:35:58.858855  6959 net.cpp:406] res2b_res2b_relu_0_split <- res2b
I0517 02:35:58.858858  6959 net.cpp:380] res2b_res2b_relu_0_split -> res2b_res2b_relu_0_split_0
I0517 02:35:58.858862  6959 net.cpp:380] res2b_res2b_relu_0_split -> res2b_res2b_relu_0_split_1
I0517 02:35:58.858893  6959 net.cpp:122] Setting up res2b_res2b_relu_0_split
I0517 02:35:58.858897  6959 net.cpp:129] Top shape: 5 256 56 56 (4014080)
I0517 02:35:58.858899  6959 net.cpp:129] Top shape: 5 256 56 56 (4014080)
I0517 02:35:58.858901  6959 net.cpp:137] Memory required for data: 416460820
I0517 02:35:58.858903  6959 layer_factory.hpp:77] Creating layer res2c_branch2a
I0517 02:35:58.858909  6959 net.cpp:84] Creating Layer res2c_branch2a
I0517 02:35:58.858911  6959 net.cpp:406] res2c_branch2a <- res2b_res2b_relu_0_split_0
I0517 02:35:58.858914  6959 net.cpp:380] res2c_branch2a -> res2c_branch2a
I0517 02:35:58.860388  6959 net.cpp:122] Setting up res2c_branch2a
I0517 02:35:58.860394  6959 net.cpp:129] Top shape: 5 64 56 56 (1003520)
I0517 02:35:58.860396  6959 net.cpp:137] Memory required for data: 420474900
I0517 02:35:58.860405  6959 layer_factory.hpp:77] Creating layer bn2c_branch2a
I0517 02:35:58.860410  6959 net.cpp:84] Creating Layer bn2c_branch2a
I0517 02:35:58.860412  6959 net.cpp:406] bn2c_branch2a <- res2c_branch2a
I0517 02:35:58.860415  6959 net.cpp:367] bn2c_branch2a -> res2c_branch2a (in-place)
I0517 02:35:58.860568  6959 net.cpp:122] Setting up bn2c_branch2a
I0517 02:35:58.860571  6959 net.cpp:129] Top shape: 5 64 56 56 (1003520)
I0517 02:35:58.860574  6959 net.cpp:137] Memory required for data: 424488980
I0517 02:35:58.860577  6959 layer_factory.hpp:77] Creating layer scale2c_branch2a
I0517 02:35:58.860581  6959 net.cpp:84] Creating Layer scale2c_branch2a
I0517 02:35:58.860584  6959 net.cpp:406] scale2c_branch2a <- res2c_branch2a
I0517 02:35:58.860586  6959 net.cpp:367] scale2c_branch2a -> res2c_branch2a (in-place)
I0517 02:35:58.860612  6959 layer_factory.hpp:77] Creating layer scale2c_branch2a
I0517 02:35:58.860702  6959 net.cpp:122] Setting up scale2c_branch2a
I0517 02:35:58.860707  6959 net.cpp:129] Top shape: 5 64 56 56 (1003520)
I0517 02:35:58.860708  6959 net.cpp:137] Memory required for data: 428503060
I0517 02:35:58.860711  6959 layer_factory.hpp:77] Creating layer res2c_branch2a_relu
I0517 02:35:58.860714  6959 net.cpp:84] Creating Layer res2c_branch2a_relu
I0517 02:35:58.860716  6959 net.cpp:406] res2c_branch2a_relu <- res2c_branch2a
I0517 02:35:58.860719  6959 net.cpp:367] res2c_branch2a_relu -> res2c_branch2a (in-place)
I0517 02:35:58.861196  6959 net.cpp:122] Setting up res2c_branch2a_relu
I0517 02:35:58.861202  6959 net.cpp:129] Top shape: 5 64 56 56 (1003520)
I0517 02:35:58.861204  6959 net.cpp:137] Memory required for data: 432517140
I0517 02:35:58.861207  6959 layer_factory.hpp:77] Creating layer res2c_branch2b
I0517 02:35:58.861212  6959 net.cpp:84] Creating Layer res2c_branch2b
I0517 02:35:58.861213  6959 net.cpp:406] res2c_branch2b <- res2c_branch2a
I0517 02:35:58.861217  6959 net.cpp:380] res2c_branch2b -> res2c_branch2b
I0517 02:35:58.862857  6959 net.cpp:122] Setting up res2c_branch2b
I0517 02:35:58.862865  6959 net.cpp:129] Top shape: 5 64 56 56 (1003520)
I0517 02:35:58.862867  6959 net.cpp:137] Memory required for data: 436531220
I0517 02:35:58.862870  6959 layer_factory.hpp:77] Creating layer bn2c_branch2b
I0517 02:35:58.862874  6959 net.cpp:84] Creating Layer bn2c_branch2b
I0517 02:35:58.862875  6959 net.cpp:406] bn2c_branch2b <- res2c_branch2b
I0517 02:35:58.862879  6959 net.cpp:367] bn2c_branch2b -> res2c_branch2b (in-place)
I0517 02:35:58.863032  6959 net.cpp:122] Setting up bn2c_branch2b
I0517 02:35:58.863036  6959 net.cpp:129] Top shape: 5 64 56 56 (1003520)
I0517 02:35:58.863039  6959 net.cpp:137] Memory required for data: 440545300
I0517 02:35:58.863042  6959 layer_factory.hpp:77] Creating layer scale2c_branch2b
I0517 02:35:58.863046  6959 net.cpp:84] Creating Layer scale2c_branch2b
I0517 02:35:58.863049  6959 net.cpp:406] scale2c_branch2b <- res2c_branch2b
I0517 02:35:58.863051  6959 net.cpp:367] scale2c_branch2b -> res2c_branch2b (in-place)
I0517 02:35:58.863077  6959 layer_factory.hpp:77] Creating layer scale2c_branch2b
I0517 02:35:58.863168  6959 net.cpp:122] Setting up scale2c_branch2b
I0517 02:35:58.863173  6959 net.cpp:129] Top shape: 5 64 56 56 (1003520)
I0517 02:35:58.863174  6959 net.cpp:137] Memory required for data: 444559380
I0517 02:35:58.863178  6959 layer_factory.hpp:77] Creating layer res2c_branch2b_relu
I0517 02:35:58.863181  6959 net.cpp:84] Creating Layer res2c_branch2b_relu
I0517 02:35:58.863183  6959 net.cpp:406] res2c_branch2b_relu <- res2c_branch2b
I0517 02:35:58.863185  6959 net.cpp:367] res2c_branch2b_relu -> res2c_branch2b (in-place)
I0517 02:35:58.863545  6959 net.cpp:122] Setting up res2c_branch2b_relu
I0517 02:35:58.863550  6959 net.cpp:129] Top shape: 5 64 56 56 (1003520)
I0517 02:35:58.863553  6959 net.cpp:137] Memory required for data: 448573460
I0517 02:35:58.863555  6959 layer_factory.hpp:77] Creating layer res2c_branch2c
I0517 02:35:58.863562  6959 net.cpp:84] Creating Layer res2c_branch2c
I0517 02:35:58.863569  6959 net.cpp:406] res2c_branch2c <- res2c_branch2b
I0517 02:35:58.863572  6959 net.cpp:380] res2c_branch2c -> res2c_branch2c
I0517 02:35:58.865203  6959 net.cpp:122] Setting up res2c_branch2c
I0517 02:35:58.865211  6959 net.cpp:129] Top shape: 5 256 56 56 (4014080)
I0517 02:35:58.865213  6959 net.cpp:137] Memory required for data: 464629780
I0517 02:35:58.865217  6959 layer_factory.hpp:77] Creating layer bn2c_branch2c
I0517 02:35:58.865221  6959 net.cpp:84] Creating Layer bn2c_branch2c
I0517 02:35:58.865223  6959 net.cpp:406] bn2c_branch2c <- res2c_branch2c
I0517 02:35:58.865226  6959 net.cpp:367] bn2c_branch2c -> res2c_branch2c (in-place)
I0517 02:35:58.865378  6959 net.cpp:122] Setting up bn2c_branch2c
I0517 02:35:58.865382  6959 net.cpp:129] Top shape: 5 256 56 56 (4014080)
I0517 02:35:58.865384  6959 net.cpp:137] Memory required for data: 480686100
I0517 02:35:58.865388  6959 layer_factory.hpp:77] Creating layer scale2c_branch2c
I0517 02:35:58.865391  6959 net.cpp:84] Creating Layer scale2c_branch2c
I0517 02:35:58.865393  6959 net.cpp:406] scale2c_branch2c <- res2c_branch2c
I0517 02:35:58.865396  6959 net.cpp:367] scale2c_branch2c -> res2c_branch2c (in-place)
I0517 02:35:58.865427  6959 layer_factory.hpp:77] Creating layer scale2c_branch2c
I0517 02:35:58.865510  6959 net.cpp:122] Setting up scale2c_branch2c
I0517 02:35:58.865514  6959 net.cpp:129] Top shape: 5 256 56 56 (4014080)
I0517 02:35:58.865516  6959 net.cpp:137] Memory required for data: 496742420
I0517 02:35:58.865523  6959 layer_factory.hpp:77] Creating layer res2c
I0517 02:35:58.865527  6959 net.cpp:84] Creating Layer res2c
I0517 02:35:58.865530  6959 net.cpp:406] res2c <- res2b_res2b_relu_0_split_1
I0517 02:35:58.865532  6959 net.cpp:406] res2c <- res2c_branch2c
I0517 02:35:58.865535  6959 net.cpp:380] res2c -> res2c
I0517 02:35:58.865552  6959 net.cpp:122] Setting up res2c
I0517 02:35:58.865556  6959 net.cpp:129] Top shape: 5 256 56 56 (4014080)
I0517 02:35:58.865558  6959 net.cpp:137] Memory required for data: 512798740
I0517 02:35:58.865559  6959 layer_factory.hpp:77] Creating layer res2c_relu
I0517 02:35:58.865562  6959 net.cpp:84] Creating Layer res2c_relu
I0517 02:35:58.865564  6959 net.cpp:406] res2c_relu <- res2c
I0517 02:35:58.865567  6959 net.cpp:367] res2c_relu -> res2c (in-place)
I0517 02:35:58.865931  6959 net.cpp:122] Setting up res2c_relu
I0517 02:35:58.865937  6959 net.cpp:129] Top shape: 5 256 56 56 (4014080)
I0517 02:35:58.865939  6959 net.cpp:137] Memory required for data: 528855060
I0517 02:35:58.865942  6959 layer_factory.hpp:77] Creating layer res2c_res2c_relu_0_split
I0517 02:35:58.865945  6959 net.cpp:84] Creating Layer res2c_res2c_relu_0_split
I0517 02:35:58.865947  6959 net.cpp:406] res2c_res2c_relu_0_split <- res2c
I0517 02:35:58.865952  6959 net.cpp:380] res2c_res2c_relu_0_split -> res2c_res2c_relu_0_split_0
I0517 02:35:58.865955  6959 net.cpp:380] res2c_res2c_relu_0_split -> res2c_res2c_relu_0_split_1
I0517 02:35:58.865985  6959 net.cpp:122] Setting up res2c_res2c_relu_0_split
I0517 02:35:58.865989  6959 net.cpp:129] Top shape: 5 256 56 56 (4014080)
I0517 02:35:58.865993  6959 net.cpp:129] Top shape: 5 256 56 56 (4014080)
I0517 02:35:58.865994  6959 net.cpp:137] Memory required for data: 560967700
I0517 02:35:58.865995  6959 layer_factory.hpp:77] Creating layer res3a_branch1
I0517 02:35:58.866000  6959 net.cpp:84] Creating Layer res3a_branch1
I0517 02:35:58.866003  6959 net.cpp:406] res3a_branch1 <- res2c_res2c_relu_0_split_0
I0517 02:35:58.866006  6959 net.cpp:380] res3a_branch1 -> res3a_branch1
I0517 02:35:58.868432  6959 net.cpp:122] Setting up res3a_branch1
I0517 02:35:58.868441  6959 net.cpp:129] Top shape: 5 512 28 28 (2007040)
I0517 02:35:58.868444  6959 net.cpp:137] Memory required for data: 568995860
I0517 02:35:58.868448  6959 layer_factory.hpp:77] Creating layer bn3a_branch1
I0517 02:35:58.868453  6959 net.cpp:84] Creating Layer bn3a_branch1
I0517 02:35:58.868455  6959 net.cpp:406] bn3a_branch1 <- res3a_branch1
I0517 02:35:58.868458  6959 net.cpp:367] bn3a_branch1 -> res3a_branch1 (in-place)
I0517 02:35:58.869226  6959 net.cpp:122] Setting up bn3a_branch1
I0517 02:35:58.869235  6959 net.cpp:129] Top shape: 5 512 28 28 (2007040)
I0517 02:35:58.869237  6959 net.cpp:137] Memory required for data: 577024020
I0517 02:35:58.869242  6959 layer_factory.hpp:77] Creating layer scale3a_branch1
I0517 02:35:58.869246  6959 net.cpp:84] Creating Layer scale3a_branch1
I0517 02:35:58.869248  6959 net.cpp:406] scale3a_branch1 <- res3a_branch1
I0517 02:35:58.869251  6959 net.cpp:367] scale3a_branch1 -> res3a_branch1 (in-place)
I0517 02:35:58.869290  6959 layer_factory.hpp:77] Creating layer scale3a_branch1
I0517 02:35:58.869376  6959 net.cpp:122] Setting up scale3a_branch1
I0517 02:35:58.869381  6959 net.cpp:129] Top shape: 5 512 28 28 (2007040)
I0517 02:35:58.869383  6959 net.cpp:137] Memory required for data: 585052180
I0517 02:35:58.869388  6959 layer_factory.hpp:77] Creating layer res3a_branch2a
I0517 02:35:58.869396  6959 net.cpp:84] Creating Layer res3a_branch2a
I0517 02:35:58.869400  6959 net.cpp:406] res3a_branch2a <- res2c_res2c_relu_0_split_1
I0517 02:35:58.869405  6959 net.cpp:380] res3a_branch2a -> res3a_branch2a
I0517 02:35:58.871287  6959 net.cpp:122] Setting up res3a_branch2a
I0517 02:35:58.871296  6959 net.cpp:129] Top shape: 5 128 28 28 (501760)
I0517 02:35:58.871299  6959 net.cpp:137] Memory required for data: 587059220
I0517 02:35:58.871304  6959 layer_factory.hpp:77] Creating layer bn3a_branch2a
I0517 02:35:58.871310  6959 net.cpp:84] Creating Layer bn3a_branch2a
I0517 02:35:58.871315  6959 net.cpp:406] bn3a_branch2a <- res3a_branch2a
I0517 02:35:58.871321  6959 net.cpp:367] bn3a_branch2a -> res3a_branch2a (in-place)
I0517 02:35:58.871489  6959 net.cpp:122] Setting up bn3a_branch2a
I0517 02:35:58.871493  6959 net.cpp:129] Top shape: 5 128 28 28 (501760)
I0517 02:35:58.871496  6959 net.cpp:137] Memory required for data: 589066260
I0517 02:35:58.871500  6959 layer_factory.hpp:77] Creating layer scale3a_branch2a
I0517 02:35:58.871503  6959 net.cpp:84] Creating Layer scale3a_branch2a
I0517 02:35:58.871505  6959 net.cpp:406] scale3a_branch2a <- res3a_branch2a
I0517 02:35:58.871508  6959 net.cpp:367] scale3a_branch2a -> res3a_branch2a (in-place)
I0517 02:35:58.871541  6959 layer_factory.hpp:77] Creating layer scale3a_branch2a
I0517 02:35:58.871628  6959 net.cpp:122] Setting up scale3a_branch2a
I0517 02:35:58.871634  6959 net.cpp:129] Top shape: 5 128 28 28 (501760)
I0517 02:35:58.871635  6959 net.cpp:137] Memory required for data: 591073300
I0517 02:35:58.871639  6959 layer_factory.hpp:77] Creating layer res3a_branch2a_relu
I0517 02:35:58.871642  6959 net.cpp:84] Creating Layer res3a_branch2a_relu
I0517 02:35:58.871644  6959 net.cpp:406] res3a_branch2a_relu <- res3a_branch2a
I0517 02:35:58.871647  6959 net.cpp:367] res3a_branch2a_relu -> res3a_branch2a (in-place)
I0517 02:35:58.872133  6959 net.cpp:122] Setting up res3a_branch2a_relu
I0517 02:35:58.872139  6959 net.cpp:129] Top shape: 5 128 28 28 (501760)
I0517 02:35:58.872143  6959 net.cpp:137] Memory required for data: 593080340
I0517 02:35:58.872145  6959 layer_factory.hpp:77] Creating layer res3a_branch2b
I0517 02:35:58.872153  6959 net.cpp:84] Creating Layer res3a_branch2b
I0517 02:35:58.872156  6959 net.cpp:406] res3a_branch2b <- res3a_branch2a
I0517 02:35:58.872161  6959 net.cpp:380] res3a_branch2b -> res3a_branch2b
I0517 02:35:58.874665  6959 net.cpp:122] Setting up res3a_branch2b
I0517 02:35:58.874671  6959 net.cpp:129] Top shape: 5 128 28 28 (501760)
I0517 02:35:58.874673  6959 net.cpp:137] Memory required for data: 595087380
I0517 02:35:58.874677  6959 layer_factory.hpp:77] Creating layer bn3a_branch2b
I0517 02:35:58.874681  6959 net.cpp:84] Creating Layer bn3a_branch2b
I0517 02:35:58.874685  6959 net.cpp:406] bn3a_branch2b <- res3a_branch2b
I0517 02:35:58.874687  6959 net.cpp:367] bn3a_branch2b -> res3a_branch2b (in-place)
I0517 02:35:58.874855  6959 net.cpp:122] Setting up bn3a_branch2b
I0517 02:35:58.874861  6959 net.cpp:129] Top shape: 5 128 28 28 (501760)
I0517 02:35:58.874862  6959 net.cpp:137] Memory required for data: 597094420
I0517 02:35:58.874866  6959 layer_factory.hpp:77] Creating layer scale3a_branch2b
I0517 02:35:58.874876  6959 net.cpp:84] Creating Layer scale3a_branch2b
I0517 02:35:58.874878  6959 net.cpp:406] scale3a_branch2b <- res3a_branch2b
I0517 02:35:58.874881  6959 net.cpp:367] scale3a_branch2b -> res3a_branch2b (in-place)
I0517 02:35:58.874914  6959 layer_factory.hpp:77] Creating layer scale3a_branch2b
I0517 02:35:58.875003  6959 net.cpp:122] Setting up scale3a_branch2b
I0517 02:35:58.875007  6959 net.cpp:129] Top shape: 5 128 28 28 (501760)
I0517 02:35:58.875010  6959 net.cpp:137] Memory required for data: 599101460
I0517 02:35:58.875012  6959 layer_factory.hpp:77] Creating layer res3a_branch2b_relu
I0517 02:35:58.875015  6959 net.cpp:84] Creating Layer res3a_branch2b_relu
I0517 02:35:58.875017  6959 net.cpp:406] res3a_branch2b_relu <- res3a_branch2b
I0517 02:35:58.875021  6959 net.cpp:367] res3a_branch2b_relu -> res3a_branch2b (in-place)
I0517 02:35:58.875393  6959 net.cpp:122] Setting up res3a_branch2b_relu
I0517 02:35:58.875399  6959 net.cpp:129] Top shape: 5 128 28 28 (501760)
I0517 02:35:58.875401  6959 net.cpp:137] Memory required for data: 601108500
I0517 02:35:58.875403  6959 layer_factory.hpp:77] Creating layer res3a_branch2c
I0517 02:35:58.875408  6959 net.cpp:84] Creating Layer res3a_branch2c
I0517 02:35:58.875411  6959 net.cpp:406] res3a_branch2c <- res3a_branch2b
I0517 02:35:58.875414  6959 net.cpp:380] res3a_branch2c -> res3a_branch2c
I0517 02:35:58.877370  6959 net.cpp:122] Setting up res3a_branch2c
I0517 02:35:58.877378  6959 net.cpp:129] Top shape: 5 512 28 28 (2007040)
I0517 02:35:58.877380  6959 net.cpp:137] Memory required for data: 609136660
I0517 02:35:58.877383  6959 layer_factory.hpp:77] Creating layer bn3a_branch2c
I0517 02:35:58.877391  6959 net.cpp:84] Creating Layer bn3a_branch2c
I0517 02:35:58.877393  6959 net.cpp:406] bn3a_branch2c <- res3a_branch2c
I0517 02:35:58.877398  6959 net.cpp:367] bn3a_branch2c -> res3a_branch2c (in-place)
I0517 02:35:58.877550  6959 net.cpp:122] Setting up bn3a_branch2c
I0517 02:35:58.877554  6959 net.cpp:129] Top shape: 5 512 28 28 (2007040)
I0517 02:35:58.877557  6959 net.cpp:137] Memory required for data: 617164820
I0517 02:35:58.877560  6959 layer_factory.hpp:77] Creating layer scale3a_branch2c
I0517 02:35:58.877564  6959 net.cpp:84] Creating Layer scale3a_branch2c
I0517 02:35:58.877568  6959 net.cpp:406] scale3a_branch2c <- res3a_branch2c
I0517 02:35:58.877569  6959 net.cpp:367] scale3a_branch2c -> res3a_branch2c (in-place)
I0517 02:35:58.877600  6959 layer_factory.hpp:77] Creating layer scale3a_branch2c
I0517 02:35:58.877687  6959 net.cpp:122] Setting up scale3a_branch2c
I0517 02:35:58.877691  6959 net.cpp:129] Top shape: 5 512 28 28 (2007040)
I0517 02:35:58.877693  6959 net.cpp:137] Memory required for data: 625192980
I0517 02:35:58.877696  6959 layer_factory.hpp:77] Creating layer res3a
I0517 02:35:58.877701  6959 net.cpp:84] Creating Layer res3a
I0517 02:35:58.877703  6959 net.cpp:406] res3a <- res3a_branch1
I0517 02:35:58.877705  6959 net.cpp:406] res3a <- res3a_branch2c
I0517 02:35:58.877708  6959 net.cpp:380] res3a -> res3a
I0517 02:35:58.877725  6959 net.cpp:122] Setting up res3a
I0517 02:35:58.877729  6959 net.cpp:129] Top shape: 5 512 28 28 (2007040)
I0517 02:35:58.877732  6959 net.cpp:137] Memory required for data: 633221140
I0517 02:35:58.877735  6959 layer_factory.hpp:77] Creating layer res3a_relu
I0517 02:35:58.877740  6959 net.cpp:84] Creating Layer res3a_relu
I0517 02:35:58.877744  6959 net.cpp:406] res3a_relu <- res3a
I0517 02:35:58.877748  6959 net.cpp:367] res3a_relu -> res3a (in-place)
I0517 02:35:58.878140  6959 net.cpp:122] Setting up res3a_relu
I0517 02:35:58.878147  6959 net.cpp:129] Top shape: 5 512 28 28 (2007040)
I0517 02:35:58.878149  6959 net.cpp:137] Memory required for data: 641249300
I0517 02:35:58.878151  6959 layer_factory.hpp:77] Creating layer res3a_res3a_relu_0_split
I0517 02:35:58.878155  6959 net.cpp:84] Creating Layer res3a_res3a_relu_0_split
I0517 02:35:58.878157  6959 net.cpp:406] res3a_res3a_relu_0_split <- res3a
I0517 02:35:58.878161  6959 net.cpp:380] res3a_res3a_relu_0_split -> res3a_res3a_relu_0_split_0
I0517 02:35:58.878170  6959 net.cpp:380] res3a_res3a_relu_0_split -> res3a_res3a_relu_0_split_1
I0517 02:35:58.878206  6959 net.cpp:122] Setting up res3a_res3a_relu_0_split
I0517 02:35:58.878211  6959 net.cpp:129] Top shape: 5 512 28 28 (2007040)
I0517 02:35:58.878212  6959 net.cpp:129] Top shape: 5 512 28 28 (2007040)
I0517 02:35:58.878214  6959 net.cpp:137] Memory required for data: 657305620
I0517 02:35:58.878216  6959 layer_factory.hpp:77] Creating layer res3b1_branch2a
I0517 02:35:58.878221  6959 net.cpp:84] Creating Layer res3b1_branch2a
I0517 02:35:58.878224  6959 net.cpp:406] res3b1_branch2a <- res3a_res3a_relu_0_split_0
I0517 02:35:58.878229  6959 net.cpp:380] res3b1_branch2a -> res3b1_branch2a
I0517 02:35:58.880079  6959 net.cpp:122] Setting up res3b1_branch2a
I0517 02:35:58.880087  6959 net.cpp:129] Top shape: 5 128 28 28 (501760)
I0517 02:35:58.880089  6959 net.cpp:137] Memory required for data: 659312660
I0517 02:35:58.880092  6959 layer_factory.hpp:77] Creating layer bn3b1_branch2a
I0517 02:35:58.880097  6959 net.cpp:84] Creating Layer bn3b1_branch2a
I0517 02:35:58.880100  6959 net.cpp:406] bn3b1_branch2a <- res3b1_branch2a
I0517 02:35:58.880102  6959 net.cpp:367] bn3b1_branch2a -> res3b1_branch2a (in-place)
I0517 02:35:58.880254  6959 net.cpp:122] Setting up bn3b1_branch2a
I0517 02:35:58.880257  6959 net.cpp:129] Top shape: 5 128 28 28 (501760)
I0517 02:35:58.880259  6959 net.cpp:137] Memory required for data: 661319700
I0517 02:35:58.880264  6959 layer_factory.hpp:77] Creating layer scale3b1_branch2a
I0517 02:35:58.880266  6959 net.cpp:84] Creating Layer scale3b1_branch2a
I0517 02:35:58.880268  6959 net.cpp:406] scale3b1_branch2a <- res3b1_branch2a
I0517 02:35:58.880271  6959 net.cpp:367] scale3b1_branch2a -> res3b1_branch2a (in-place)
I0517 02:35:58.880300  6959 layer_factory.hpp:77] Creating layer scale3b1_branch2a
I0517 02:35:58.880386  6959 net.cpp:122] Setting up scale3b1_branch2a
I0517 02:35:58.880390  6959 net.cpp:129] Top shape: 5 128 28 28 (501760)
I0517 02:35:58.880393  6959 net.cpp:137] Memory required for data: 663326740
I0517 02:35:58.880395  6959 layer_factory.hpp:77] Creating layer res3b1_branch2a_relu
I0517 02:35:58.880398  6959 net.cpp:84] Creating Layer res3b1_branch2a_relu
I0517 02:35:58.880400  6959 net.cpp:406] res3b1_branch2a_relu <- res3b1_branch2a
I0517 02:35:58.880403  6959 net.cpp:367] res3b1_branch2a_relu -> res3b1_branch2a (in-place)
I0517 02:35:58.880889  6959 net.cpp:122] Setting up res3b1_branch2a_relu
I0517 02:35:58.880897  6959 net.cpp:129] Top shape: 5 128 28 28 (501760)
I0517 02:35:58.880898  6959 net.cpp:137] Memory required for data: 665333780
I0517 02:35:58.880900  6959 layer_factory.hpp:77] Creating layer res3b1_branch2b
I0517 02:35:58.880905  6959 net.cpp:84] Creating Layer res3b1_branch2b
I0517 02:35:58.880908  6959 net.cpp:406] res3b1_branch2b <- res3b1_branch2a
I0517 02:35:58.880913  6959 net.cpp:380] res3b1_branch2b -> res3b1_branch2b
I0517 02:35:58.884163  6959 net.cpp:122] Setting up res3b1_branch2b
I0517 02:35:58.884172  6959 net.cpp:129] Top shape: 5 128 28 28 (501760)
I0517 02:35:58.884174  6959 net.cpp:137] Memory required for data: 667340820
I0517 02:35:58.884178  6959 layer_factory.hpp:77] Creating layer bn3b1_branch2b
I0517 02:35:58.884183  6959 net.cpp:84] Creating Layer bn3b1_branch2b
I0517 02:35:58.884186  6959 net.cpp:406] bn3b1_branch2b <- res3b1_branch2b
I0517 02:35:58.884189  6959 net.cpp:367] bn3b1_branch2b -> res3b1_branch2b (in-place)
I0517 02:35:58.884347  6959 net.cpp:122] Setting up bn3b1_branch2b
I0517 02:35:58.884351  6959 net.cpp:129] Top shape: 5 128 28 28 (501760)
I0517 02:35:58.884353  6959 net.cpp:137] Memory required for data: 669347860
I0517 02:35:58.884357  6959 layer_factory.hpp:77] Creating layer scale3b1_branch2b
I0517 02:35:58.884361  6959 net.cpp:84] Creating Layer scale3b1_branch2b
I0517 02:35:58.884363  6959 net.cpp:406] scale3b1_branch2b <- res3b1_branch2b
I0517 02:35:58.884366  6959 net.cpp:367] scale3b1_branch2b -> res3b1_branch2b (in-place)
I0517 02:35:58.884395  6959 layer_factory.hpp:77] Creating layer scale3b1_branch2b
I0517 02:35:58.884490  6959 net.cpp:122] Setting up scale3b1_branch2b
I0517 02:35:58.884495  6959 net.cpp:129] Top shape: 5 128 28 28 (501760)
I0517 02:35:58.884496  6959 net.cpp:137] Memory required for data: 671354900
I0517 02:35:58.884500  6959 layer_factory.hpp:77] Creating layer res3b1_branch2b_relu
I0517 02:35:58.884503  6959 net.cpp:84] Creating Layer res3b1_branch2b_relu
I0517 02:35:58.884505  6959 net.cpp:406] res3b1_branch2b_relu <- res3b1_branch2b
I0517 02:35:58.884507  6959 net.cpp:367] res3b1_branch2b_relu -> res3b1_branch2b (in-place)
I0517 02:35:58.884945  6959 net.cpp:122] Setting up res3b1_branch2b_relu
I0517 02:35:58.884953  6959 net.cpp:129] Top shape: 5 128 28 28 (501760)
I0517 02:35:58.884954  6959 net.cpp:137] Memory required for data: 673361940
I0517 02:35:58.884956  6959 layer_factory.hpp:77] Creating layer res3b1_branch2c
I0517 02:35:58.884961  6959 net.cpp:84] Creating Layer res3b1_branch2c
I0517 02:35:58.884965  6959 net.cpp:406] res3b1_branch2c <- res3b1_branch2b
I0517 02:35:58.884970  6959 net.cpp:380] res3b1_branch2c -> res3b1_branch2c
I0517 02:35:58.887007  6959 net.cpp:122] Setting up res3b1_branch2c
I0517 02:35:58.887015  6959 net.cpp:129] Top shape: 5 512 28 28 (2007040)
I0517 02:35:58.887018  6959 net.cpp:137] Memory required for data: 681390100
I0517 02:35:58.887022  6959 layer_factory.hpp:77] Creating layer bn3b1_branch2c
I0517 02:35:58.887027  6959 net.cpp:84] Creating Layer bn3b1_branch2c
I0517 02:35:58.887028  6959 net.cpp:406] bn3b1_branch2c <- res3b1_branch2c
I0517 02:35:58.887032  6959 net.cpp:367] bn3b1_branch2c -> res3b1_branch2c (in-place)
I0517 02:35:58.887187  6959 net.cpp:122] Setting up bn3b1_branch2c
I0517 02:35:58.887190  6959 net.cpp:129] Top shape: 5 512 28 28 (2007040)
I0517 02:35:58.887192  6959 net.cpp:137] Memory required for data: 689418260
I0517 02:35:58.887197  6959 layer_factory.hpp:77] Creating layer scale3b1_branch2c
I0517 02:35:58.887200  6959 net.cpp:84] Creating Layer scale3b1_branch2c
I0517 02:35:58.887203  6959 net.cpp:406] scale3b1_branch2c <- res3b1_branch2c
I0517 02:35:58.887207  6959 net.cpp:367] scale3b1_branch2c -> res3b1_branch2c (in-place)
I0517 02:35:58.887236  6959 layer_factory.hpp:77] Creating layer scale3b1_branch2c
I0517 02:35:58.887321  6959 net.cpp:122] Setting up scale3b1_branch2c
I0517 02:35:58.887326  6959 net.cpp:129] Top shape: 5 512 28 28 (2007040)
I0517 02:35:58.887327  6959 net.cpp:137] Memory required for data: 697446420
I0517 02:35:58.887331  6959 layer_factory.hpp:77] Creating layer res3b1
I0517 02:35:58.887334  6959 net.cpp:84] Creating Layer res3b1
I0517 02:35:58.887337  6959 net.cpp:406] res3b1 <- res3a_res3a_relu_0_split_1
I0517 02:35:58.887341  6959 net.cpp:406] res3b1 <- res3b1_branch2c
I0517 02:35:58.887342  6959 net.cpp:380] res3b1 -> res3b1
I0517 02:35:58.887362  6959 net.cpp:122] Setting up res3b1
I0517 02:35:58.887365  6959 net.cpp:129] Top shape: 5 512 28 28 (2007040)
I0517 02:35:58.887367  6959 net.cpp:137] Memory required for data: 705474580
I0517 02:35:58.887368  6959 layer_factory.hpp:77] Creating layer res3b1_relu
I0517 02:35:58.887372  6959 net.cpp:84] Creating Layer res3b1_relu
I0517 02:35:58.887373  6959 net.cpp:406] res3b1_relu <- res3b1
I0517 02:35:58.887377  6959 net.cpp:367] res3b1_relu -> res3b1 (in-place)
I0517 02:35:58.887871  6959 net.cpp:122] Setting up res3b1_relu
I0517 02:35:58.887877  6959 net.cpp:129] Top shape: 5 512 28 28 (2007040)
I0517 02:35:58.887879  6959 net.cpp:137] Memory required for data: 713502740
I0517 02:35:58.887881  6959 layer_factory.hpp:77] Creating layer res3b1_res3b1_relu_0_split
I0517 02:35:58.887887  6959 net.cpp:84] Creating Layer res3b1_res3b1_relu_0_split
I0517 02:35:58.887888  6959 net.cpp:406] res3b1_res3b1_relu_0_split <- res3b1
I0517 02:35:58.887892  6959 net.cpp:380] res3b1_res3b1_relu_0_split -> res3b1_res3b1_relu_0_split_0
I0517 02:35:58.887897  6959 net.cpp:380] res3b1_res3b1_relu_0_split -> res3b1_res3b1_relu_0_split_1
I0517 02:35:58.887929  6959 net.cpp:122] Setting up res3b1_res3b1_relu_0_split
I0517 02:35:58.887939  6959 net.cpp:129] Top shape: 5 512 28 28 (2007040)
I0517 02:35:58.887941  6959 net.cpp:129] Top shape: 5 512 28 28 (2007040)
I0517 02:35:58.887943  6959 net.cpp:137] Memory required for data: 729559060
I0517 02:35:58.887945  6959 layer_factory.hpp:77] Creating layer res3b2_branch2a
I0517 02:35:58.887950  6959 net.cpp:84] Creating Layer res3b2_branch2a
I0517 02:35:58.887953  6959 net.cpp:406] res3b2_branch2a <- res3b1_res3b1_relu_0_split_0
I0517 02:35:58.887958  6959 net.cpp:380] res3b2_branch2a -> res3b2_branch2a
I0517 02:35:58.889807  6959 net.cpp:122] Setting up res3b2_branch2a
I0517 02:35:58.889816  6959 net.cpp:129] Top shape: 5 128 28 28 (501760)
I0517 02:35:58.889818  6959 net.cpp:137] Memory required for data: 731566100
I0517 02:35:58.889822  6959 layer_factory.hpp:77] Creating layer bn3b2_branch2a
I0517 02:35:58.889824  6959 net.cpp:84] Creating Layer bn3b2_branch2a
I0517 02:35:58.889827  6959 net.cpp:406] bn3b2_branch2a <- res3b2_branch2a
I0517 02:35:58.889830  6959 net.cpp:367] bn3b2_branch2a -> res3b2_branch2a (in-place)
I0517 02:35:58.889986  6959 net.cpp:122] Setting up bn3b2_branch2a
I0517 02:35:58.889989  6959 net.cpp:129] Top shape: 5 128 28 28 (501760)
I0517 02:35:58.889991  6959 net.cpp:137] Memory required for data: 733573140
I0517 02:35:58.889995  6959 layer_factory.hpp:77] Creating layer scale3b2_branch2a
I0517 02:35:58.889998  6959 net.cpp:84] Creating Layer scale3b2_branch2a
I0517 02:35:58.890000  6959 net.cpp:406] scale3b2_branch2a <- res3b2_branch2a
I0517 02:35:58.890003  6959 net.cpp:367] scale3b2_branch2a -> res3b2_branch2a (in-place)
I0517 02:35:58.890033  6959 layer_factory.hpp:77] Creating layer scale3b2_branch2a
I0517 02:35:58.890118  6959 net.cpp:122] Setting up scale3b2_branch2a
I0517 02:35:58.890122  6959 net.cpp:129] Top shape: 5 128 28 28 (501760)
I0517 02:35:58.890125  6959 net.cpp:137] Memory required for data: 735580180
I0517 02:35:58.890128  6959 layer_factory.hpp:77] Creating layer res3b2_branch2a_relu
I0517 02:35:58.890131  6959 net.cpp:84] Creating Layer res3b2_branch2a_relu
I0517 02:35:58.890133  6959 net.cpp:406] res3b2_branch2a_relu <- res3b2_branch2a
I0517 02:35:58.890136  6959 net.cpp:367] res3b2_branch2a_relu -> res3b2_branch2a (in-place)
I0517 02:35:58.890511  6959 net.cpp:122] Setting up res3b2_branch2a_relu
I0517 02:35:58.890516  6959 net.cpp:129] Top shape: 5 128 28 28 (501760)
I0517 02:35:58.890518  6959 net.cpp:137] Memory required for data: 737587220
I0517 02:35:58.890521  6959 layer_factory.hpp:77] Creating layer res3b2_branch2b
I0517 02:35:58.890525  6959 net.cpp:84] Creating Layer res3b2_branch2b
I0517 02:35:58.890529  6959 net.cpp:406] res3b2_branch2b <- res3b2_branch2a
I0517 02:35:58.890533  6959 net.cpp:380] res3b2_branch2b -> res3b2_branch2b
I0517 02:35:58.893154  6959 net.cpp:122] Setting up res3b2_branch2b
I0517 02:35:58.893162  6959 net.cpp:129] Top shape: 5 128 28 28 (501760)
I0517 02:35:58.893164  6959 net.cpp:137] Memory required for data: 739594260
I0517 02:35:58.893167  6959 layer_factory.hpp:77] Creating layer bn3b2_branch2b
I0517 02:35:58.893172  6959 net.cpp:84] Creating Layer bn3b2_branch2b
I0517 02:35:58.893174  6959 net.cpp:406] bn3b2_branch2b <- res3b2_branch2b
I0517 02:35:58.893177  6959 net.cpp:367] bn3b2_branch2b -> res3b2_branch2b (in-place)
I0517 02:35:58.893337  6959 net.cpp:122] Setting up bn3b2_branch2b
I0517 02:35:58.893342  6959 net.cpp:129] Top shape: 5 128 28 28 (501760)
I0517 02:35:58.893343  6959 net.cpp:137] Memory required for data: 741601300
I0517 02:35:58.893347  6959 layer_factory.hpp:77] Creating layer scale3b2_branch2b
I0517 02:35:58.893350  6959 net.cpp:84] Creating Layer scale3b2_branch2b
I0517 02:35:58.893352  6959 net.cpp:406] scale3b2_branch2b <- res3b2_branch2b
I0517 02:35:58.893354  6959 net.cpp:367] scale3b2_branch2b -> res3b2_branch2b (in-place)
I0517 02:35:58.893384  6959 layer_factory.hpp:77] Creating layer scale3b2_branch2b
I0517 02:35:58.893471  6959 net.cpp:122] Setting up scale3b2_branch2b
I0517 02:35:58.893476  6959 net.cpp:129] Top shape: 5 128 28 28 (501760)
I0517 02:35:58.893477  6959 net.cpp:137] Memory required for data: 743608340
I0517 02:35:58.893487  6959 layer_factory.hpp:77] Creating layer res3b2_branch2b_relu
I0517 02:35:58.893491  6959 net.cpp:84] Creating Layer res3b2_branch2b_relu
I0517 02:35:58.893493  6959 net.cpp:406] res3b2_branch2b_relu <- res3b2_branch2b
I0517 02:35:58.893496  6959 net.cpp:367] res3b2_branch2b_relu -> res3b2_branch2b (in-place)
I0517 02:35:58.893873  6959 net.cpp:122] Setting up res3b2_branch2b_relu
I0517 02:35:58.893879  6959 net.cpp:129] Top shape: 5 128 28 28 (501760)
I0517 02:35:58.893882  6959 net.cpp:137] Memory required for data: 745615380
I0517 02:35:58.893883  6959 layer_factory.hpp:77] Creating layer res3b2_branch2c
I0517 02:35:58.893888  6959 net.cpp:84] Creating Layer res3b2_branch2c
I0517 02:35:58.893892  6959 net.cpp:406] res3b2_branch2c <- res3b2_branch2b
I0517 02:35:58.893894  6959 net.cpp:380] res3b2_branch2c -> res3b2_branch2c
I0517 02:35:58.895840  6959 net.cpp:122] Setting up res3b2_branch2c
I0517 02:35:58.895848  6959 net.cpp:129] Top shape: 5 512 28 28 (2007040)
I0517 02:35:58.895850  6959 net.cpp:137] Memory required for data: 753643540
I0517 02:35:58.895853  6959 layer_factory.hpp:77] Creating layer bn3b2_branch2c
I0517 02:35:58.895859  6959 net.cpp:84] Creating Layer bn3b2_branch2c
I0517 02:35:58.895860  6959 net.cpp:406] bn3b2_branch2c <- res3b2_branch2c
I0517 02:35:58.895864  6959 net.cpp:367] bn3b2_branch2c -> res3b2_branch2c (in-place)
I0517 02:35:58.896023  6959 net.cpp:122] Setting up bn3b2_branch2c
I0517 02:35:58.896028  6959 net.cpp:129] Top shape: 5 512 28 28 (2007040)
I0517 02:35:58.896029  6959 net.cpp:137] Memory required for data: 761671700
I0517 02:35:58.896034  6959 layer_factory.hpp:77] Creating layer scale3b2_branch2c
I0517 02:35:58.896036  6959 net.cpp:84] Creating Layer scale3b2_branch2c
I0517 02:35:58.896039  6959 net.cpp:406] scale3b2_branch2c <- res3b2_branch2c
I0517 02:35:58.896040  6959 net.cpp:367] scale3b2_branch2c -> res3b2_branch2c (in-place)
I0517 02:35:58.896071  6959 layer_factory.hpp:77] Creating layer scale3b2_branch2c
I0517 02:35:58.896158  6959 net.cpp:122] Setting up scale3b2_branch2c
I0517 02:35:58.896163  6959 net.cpp:129] Top shape: 5 512 28 28 (2007040)
I0517 02:35:58.896165  6959 net.cpp:137] Memory required for data: 769699860
I0517 02:35:58.896168  6959 layer_factory.hpp:77] Creating layer res3b2
I0517 02:35:58.896173  6959 net.cpp:84] Creating Layer res3b2
I0517 02:35:58.896174  6959 net.cpp:406] res3b2 <- res3b1_res3b1_relu_0_split_1
I0517 02:35:58.896178  6959 net.cpp:406] res3b2 <- res3b2_branch2c
I0517 02:35:58.896180  6959 net.cpp:380] res3b2 -> res3b2
I0517 02:35:58.896198  6959 net.cpp:122] Setting up res3b2
I0517 02:35:58.896203  6959 net.cpp:129] Top shape: 5 512 28 28 (2007040)
I0517 02:35:58.896204  6959 net.cpp:137] Memory required for data: 777728020
I0517 02:35:58.896206  6959 layer_factory.hpp:77] Creating layer res3b2_relu
I0517 02:35:58.896210  6959 net.cpp:84] Creating Layer res3b2_relu
I0517 02:35:58.896212  6959 net.cpp:406] res3b2_relu <- res3b2
I0517 02:35:58.896215  6959 net.cpp:367] res3b2_relu -> res3b2 (in-place)
I0517 02:35:58.896703  6959 net.cpp:122] Setting up res3b2_relu
I0517 02:35:58.896709  6959 net.cpp:129] Top shape: 5 512 28 28 (2007040)
I0517 02:35:58.896711  6959 net.cpp:137] Memory required for data: 785756180
I0517 02:35:58.896714  6959 layer_factory.hpp:77] Creating layer res3b2_res3b2_relu_0_split
I0517 02:35:58.896718  6959 net.cpp:84] Creating Layer res3b2_res3b2_relu_0_split
I0517 02:35:58.896723  6959 net.cpp:406] res3b2_res3b2_relu_0_split <- res3b2
I0517 02:35:58.896725  6959 net.cpp:380] res3b2_res3b2_relu_0_split -> res3b2_res3b2_relu_0_split_0
I0517 02:35:58.896729  6959 net.cpp:380] res3b2_res3b2_relu_0_split -> res3b2_res3b2_relu_0_split_1
I0517 02:35:58.896766  6959 net.cpp:122] Setting up res3b2_res3b2_relu_0_split
I0517 02:35:58.896771  6959 net.cpp:129] Top shape: 5 512 28 28 (2007040)
I0517 02:35:58.896773  6959 net.cpp:129] Top shape: 5 512 28 28 (2007040)
I0517 02:35:58.896776  6959 net.cpp:137] Memory required for data: 801812500
I0517 02:35:58.896785  6959 layer_factory.hpp:77] Creating layer res3b3_branch2a
I0517 02:35:58.896792  6959 net.cpp:84] Creating Layer res3b3_branch2a
I0517 02:35:58.896797  6959 net.cpp:406] res3b3_branch2a <- res3b2_res3b2_relu_0_split_0
I0517 02:35:58.896801  6959 net.cpp:380] res3b3_branch2a -> res3b3_branch2a
I0517 02:35:58.899315  6959 net.cpp:122] Setting up res3b3_branch2a
I0517 02:35:58.899324  6959 net.cpp:129] Top shape: 5 128 28 28 (501760)
I0517 02:35:58.899327  6959 net.cpp:137] Memory required for data: 803819540
I0517 02:35:58.899332  6959 layer_factory.hpp:77] Creating layer bn3b3_branch2a
I0517 02:35:58.899338  6959 net.cpp:84] Creating Layer bn3b3_branch2a
I0517 02:35:58.899343  6959 net.cpp:406] bn3b3_branch2a <- res3b3_branch2a
I0517 02:35:58.899346  6959 net.cpp:367] bn3b3_branch2a -> res3b3_branch2a (in-place)
I0517 02:35:58.899511  6959 net.cpp:122] Setting up bn3b3_branch2a
I0517 02:35:58.899516  6959 net.cpp:129] Top shape: 5 128 28 28 (501760)
I0517 02:35:58.899518  6959 net.cpp:137] Memory required for data: 805826580
I0517 02:35:58.899533  6959 layer_factory.hpp:77] Creating layer scale3b3_branch2a
I0517 02:35:58.899536  6959 net.cpp:84] Creating Layer scale3b3_branch2a
I0517 02:35:58.899538  6959 net.cpp:406] scale3b3_branch2a <- res3b3_branch2a
I0517 02:35:58.899544  6959 net.cpp:367] scale3b3_branch2a -> res3b3_branch2a (in-place)
I0517 02:35:58.899580  6959 layer_factory.hpp:77] Creating layer scale3b3_branch2a
I0517 02:35:58.899672  6959 net.cpp:122] Setting up scale3b3_branch2a
I0517 02:35:58.899677  6959 net.cpp:129] Top shape: 5 128 28 28 (501760)
I0517 02:35:58.899678  6959 net.cpp:137] Memory required for data: 807833620
I0517 02:35:58.899682  6959 layer_factory.hpp:77] Creating layer res3b3_branch2a_relu
I0517 02:35:58.899688  6959 net.cpp:84] Creating Layer res3b3_branch2a_relu
I0517 02:35:58.899690  6959 net.cpp:406] res3b3_branch2a_relu <- res3b3_branch2a
I0517 02:35:58.899696  6959 net.cpp:367] res3b3_branch2a_relu -> res3b3_branch2a (in-place)
I0517 02:35:58.900079  6959 net.cpp:122] Setting up res3b3_branch2a_relu
I0517 02:35:58.900085  6959 net.cpp:129] Top shape: 5 128 28 28 (501760)
I0517 02:35:58.900087  6959 net.cpp:137] Memory required for data: 809840660
I0517 02:35:58.900090  6959 layer_factory.hpp:77] Creating layer res3b3_branch2b
I0517 02:35:58.900099  6959 net.cpp:84] Creating Layer res3b3_branch2b
I0517 02:35:58.900101  6959 net.cpp:406] res3b3_branch2b <- res3b3_branch2a
I0517 02:35:58.900106  6959 net.cpp:380] res3b3_branch2b -> res3b3_branch2b
I0517 02:35:58.903069  6959 net.cpp:122] Setting up res3b3_branch2b
I0517 02:35:58.903079  6959 net.cpp:129] Top shape: 5 128 28 28 (501760)
I0517 02:35:58.903080  6959 net.cpp:137] Memory required for data: 811847700
I0517 02:35:58.903085  6959 layer_factory.hpp:77] Creating layer bn3b3_branch2b
I0517 02:35:58.903091  6959 net.cpp:84] Creating Layer bn3b3_branch2b
I0517 02:35:58.903096  6959 net.cpp:406] bn3b3_branch2b <- res3b3_branch2b
I0517 02:35:58.903100  6959 net.cpp:367] bn3b3_branch2b -> res3b3_branch2b (in-place)
I0517 02:35:58.903268  6959 net.cpp:122] Setting up bn3b3_branch2b
I0517 02:35:58.903273  6959 net.cpp:129] Top shape: 5 128 28 28 (501760)
I0517 02:35:58.903276  6959 net.cpp:137] Memory required for data: 813854740
I0517 02:35:58.903281  6959 layer_factory.hpp:77] Creating layer scale3b3_branch2b
I0517 02:35:58.903287  6959 net.cpp:84] Creating Layer scale3b3_branch2b
I0517 02:35:58.903291  6959 net.cpp:406] scale3b3_branch2b <- res3b3_branch2b
I0517 02:35:58.903296  6959 net.cpp:367] scale3b3_branch2b -> res3b3_branch2b (in-place)
I0517 02:35:58.903334  6959 layer_factory.hpp:77] Creating layer scale3b3_branch2b
I0517 02:35:58.903429  6959 net.cpp:122] Setting up scale3b3_branch2b
I0517 02:35:58.903434  6959 net.cpp:129] Top shape: 5 128 28 28 (501760)
I0517 02:35:58.903436  6959 net.cpp:137] Memory required for data: 815861780
I0517 02:35:58.903441  6959 layer_factory.hpp:77] Creating layer res3b3_branch2b_relu
I0517 02:35:58.903445  6959 net.cpp:84] Creating Layer res3b3_branch2b_relu
I0517 02:35:58.903448  6959 net.cpp:406] res3b3_branch2b_relu <- res3b3_branch2b
I0517 02:35:58.903458  6959 net.cpp:367] res3b3_branch2b_relu -> res3b3_branch2b (in-place)
I0517 02:35:58.903954  6959 net.cpp:122] Setting up res3b3_branch2b_relu
I0517 02:35:58.903964  6959 net.cpp:129] Top shape: 5 128 28 28 (501760)
I0517 02:35:58.903965  6959 net.cpp:137] Memory required for data: 817868820
I0517 02:35:58.903969  6959 layer_factory.hpp:77] Creating layer res3b3_branch2c
I0517 02:35:58.903973  6959 net.cpp:84] Creating Layer res3b3_branch2c
I0517 02:35:58.903976  6959 net.cpp:406] res3b3_branch2c <- res3b3_branch2b
I0517 02:35:58.903980  6959 net.cpp:380] res3b3_branch2c -> res3b3_branch2c
I0517 02:35:58.905863  6959 net.cpp:122] Setting up res3b3_branch2c
I0517 02:35:58.905870  6959 net.cpp:129] Top shape: 5 512 28 28 (2007040)
I0517 02:35:58.905872  6959 net.cpp:137] Memory required for data: 825896980
I0517 02:35:58.905879  6959 layer_factory.hpp:77] Creating layer bn3b3_branch2c
I0517 02:35:58.905882  6959 net.cpp:84] Creating Layer bn3b3_branch2c
I0517 02:35:58.905884  6959 net.cpp:406] bn3b3_branch2c <- res3b3_branch2c
I0517 02:35:58.905887  6959 net.cpp:367] bn3b3_branch2c -> res3b3_branch2c (in-place)
I0517 02:35:58.906051  6959 net.cpp:122] Setting up bn3b3_branch2c
I0517 02:35:58.906055  6959 net.cpp:129] Top shape: 5 512 28 28 (2007040)
I0517 02:35:58.906057  6959 net.cpp:137] Memory required for data: 833925140
I0517 02:35:58.906061  6959 layer_factory.hpp:77] Creating layer scale3b3_branch2c
I0517 02:35:58.906064  6959 net.cpp:84] Creating Layer scale3b3_branch2c
I0517 02:35:58.906066  6959 net.cpp:406] scale3b3_branch2c <- res3b3_branch2c
I0517 02:35:58.906069  6959 net.cpp:367] scale3b3_branch2c -> res3b3_branch2c (in-place)
I0517 02:35:58.906100  6959 layer_factory.hpp:77] Creating layer scale3b3_branch2c
I0517 02:35:58.906189  6959 net.cpp:122] Setting up scale3b3_branch2c
I0517 02:35:58.906193  6959 net.cpp:129] Top shape: 5 512 28 28 (2007040)
I0517 02:35:58.906195  6959 net.cpp:137] Memory required for data: 841953300
I0517 02:35:58.906198  6959 layer_factory.hpp:77] Creating layer res3b3
I0517 02:35:58.906203  6959 net.cpp:84] Creating Layer res3b3
I0517 02:35:58.906205  6959 net.cpp:406] res3b3 <- res3b2_res3b2_relu_0_split_1
I0517 02:35:58.906208  6959 net.cpp:406] res3b3 <- res3b3_branch2c
I0517 02:35:58.906211  6959 net.cpp:380] res3b3 -> res3b3
I0517 02:35:58.906230  6959 net.cpp:122] Setting up res3b3
I0517 02:35:58.906234  6959 net.cpp:129] Top shape: 5 512 28 28 (2007040)
I0517 02:35:58.906236  6959 net.cpp:137] Memory required for data: 849981460
I0517 02:35:58.906239  6959 layer_factory.hpp:77] Creating layer res3b3_relu
I0517 02:35:58.906240  6959 net.cpp:84] Creating Layer res3b3_relu
I0517 02:35:58.906244  6959 net.cpp:406] res3b3_relu <- res3b3
I0517 02:35:58.906246  6959 net.cpp:367] res3b3_relu -> res3b3 (in-place)
I0517 02:35:58.906625  6959 net.cpp:122] Setting up res3b3_relu
I0517 02:35:58.906630  6959 net.cpp:129] Top shape: 5 512 28 28 (2007040)
I0517 02:35:58.906632  6959 net.cpp:137] Memory required for data: 858009620
I0517 02:35:58.906635  6959 layer_factory.hpp:77] Creating layer res3b3_res3b3_relu_0_split
I0517 02:35:58.906639  6959 net.cpp:84] Creating Layer res3b3_res3b3_relu_0_split
I0517 02:35:58.906641  6959 net.cpp:406] res3b3_res3b3_relu_0_split <- res3b3
I0517 02:35:58.906644  6959 net.cpp:380] res3b3_res3b3_relu_0_split -> res3b3_res3b3_relu_0_split_0
I0517 02:35:58.906648  6959 net.cpp:380] res3b3_res3b3_relu_0_split -> res3b3_res3b3_relu_0_split_1
I0517 02:35:58.906682  6959 net.cpp:122] Setting up res3b3_res3b3_relu_0_split
I0517 02:35:58.906685  6959 net.cpp:129] Top shape: 5 512 28 28 (2007040)
I0517 02:35:58.906687  6959 net.cpp:129] Top shape: 5 512 28 28 (2007040)
I0517 02:35:58.906689  6959 net.cpp:137] Memory required for data: 874065940
I0517 02:35:58.906692  6959 layer_factory.hpp:77] Creating layer res3b4_branch2a
I0517 02:35:58.906697  6959 net.cpp:84] Creating Layer res3b4_branch2a
I0517 02:35:58.906698  6959 net.cpp:406] res3b4_branch2a <- res3b3_res3b3_relu_0_split_0
I0517 02:35:58.906707  6959 net.cpp:380] res3b4_branch2a -> res3b4_branch2a
I0517 02:35:58.908684  6959 net.cpp:122] Setting up res3b4_branch2a
I0517 02:35:58.908691  6959 net.cpp:129] Top shape: 5 128 28 28 (501760)
I0517 02:35:58.908694  6959 net.cpp:137] Memory required for data: 876072980
I0517 02:35:58.908696  6959 layer_factory.hpp:77] Creating layer bn3b4_branch2a
I0517 02:35:58.908701  6959 net.cpp:84] Creating Layer bn3b4_branch2a
I0517 02:35:58.908704  6959 net.cpp:406] bn3b4_branch2a <- res3b4_branch2a
I0517 02:35:58.908707  6959 net.cpp:367] bn3b4_branch2a -> res3b4_branch2a (in-place)
I0517 02:35:58.908866  6959 net.cpp:122] Setting up bn3b4_branch2a
I0517 02:35:58.908870  6959 net.cpp:129] Top shape: 5 128 28 28 (501760)
I0517 02:35:58.908872  6959 net.cpp:137] Memory required for data: 878080020
I0517 02:35:58.908876  6959 layer_factory.hpp:77] Creating layer scale3b4_branch2a
I0517 02:35:58.908880  6959 net.cpp:84] Creating Layer scale3b4_branch2a
I0517 02:35:58.908885  6959 net.cpp:406] scale3b4_branch2a <- res3b4_branch2a
I0517 02:35:58.908886  6959 net.cpp:367] scale3b4_branch2a -> res3b4_branch2a (in-place)
I0517 02:35:58.908918  6959 layer_factory.hpp:77] Creating layer scale3b4_branch2a
I0517 02:35:58.909006  6959 net.cpp:122] Setting up scale3b4_branch2a
I0517 02:35:58.909010  6959 net.cpp:129] Top shape: 5 128 28 28 (501760)
I0517 02:35:58.909013  6959 net.cpp:137] Memory required for data: 880087060
I0517 02:35:58.909015  6959 layer_factory.hpp:77] Creating layer res3b4_branch2a_relu
I0517 02:35:58.909019  6959 net.cpp:84] Creating Layer res3b4_branch2a_relu
I0517 02:35:58.909021  6959 net.cpp:406] res3b4_branch2a_relu <- res3b4_branch2a
I0517 02:35:58.909024  6959 net.cpp:367] res3b4_branch2a_relu -> res3b4_branch2a (in-place)
I0517 02:35:58.909399  6959 net.cpp:122] Setting up res3b4_branch2a_relu
I0517 02:35:58.909405  6959 net.cpp:129] Top shape: 5 128 28 28 (501760)
I0517 02:35:58.909407  6959 net.cpp:137] Memory required for data: 882094100
I0517 02:35:58.909409  6959 layer_factory.hpp:77] Creating layer res3b4_branch2b
I0517 02:35:58.909415  6959 net.cpp:84] Creating Layer res3b4_branch2b
I0517 02:35:58.909418  6959 net.cpp:406] res3b4_branch2b <- res3b4_branch2a
I0517 02:35:58.909421  6959 net.cpp:380] res3b4_branch2b -> res3b4_branch2b
I0517 02:35:58.912631  6959 net.cpp:122] Setting up res3b4_branch2b
I0517 02:35:58.912641  6959 net.cpp:129] Top shape: 5 128 28 28 (501760)
I0517 02:35:58.912642  6959 net.cpp:137] Memory required for data: 884101140
I0517 02:35:58.912645  6959 layer_factory.hpp:77] Creating layer bn3b4_branch2b
I0517 02:35:58.912650  6959 net.cpp:84] Creating Layer bn3b4_branch2b
I0517 02:35:58.912653  6959 net.cpp:406] bn3b4_branch2b <- res3b4_branch2b
I0517 02:35:58.912657  6959 net.cpp:367] bn3b4_branch2b -> res3b4_branch2b (in-place)
I0517 02:35:58.912822  6959 net.cpp:122] Setting up bn3b4_branch2b
I0517 02:35:58.912827  6959 net.cpp:129] Top shape: 5 128 28 28 (501760)
I0517 02:35:58.912829  6959 net.cpp:137] Memory required for data: 886108180
I0517 02:35:58.912833  6959 layer_factory.hpp:77] Creating layer scale3b4_branch2b
I0517 02:35:58.912837  6959 net.cpp:84] Creating Layer scale3b4_branch2b
I0517 02:35:58.912838  6959 net.cpp:406] scale3b4_branch2b <- res3b4_branch2b
I0517 02:35:58.912842  6959 net.cpp:367] scale3b4_branch2b -> res3b4_branch2b (in-place)
I0517 02:35:58.912873  6959 layer_factory.hpp:77] Creating layer scale3b4_branch2b
I0517 02:35:58.912963  6959 net.cpp:122] Setting up scale3b4_branch2b
I0517 02:35:58.912967  6959 net.cpp:129] Top shape: 5 128 28 28 (501760)
I0517 02:35:58.912969  6959 net.cpp:137] Memory required for data: 888115220
I0517 02:35:58.912972  6959 layer_factory.hpp:77] Creating layer res3b4_branch2b_relu
I0517 02:35:58.912976  6959 net.cpp:84] Creating Layer res3b4_branch2b_relu
I0517 02:35:58.912978  6959 net.cpp:406] res3b4_branch2b_relu <- res3b4_branch2b
I0517 02:35:58.912981  6959 net.cpp:367] res3b4_branch2b_relu -> res3b4_branch2b (in-place)
I0517 02:35:58.913360  6959 net.cpp:122] Setting up res3b4_branch2b_relu
I0517 02:35:58.913372  6959 net.cpp:129] Top shape: 5 128 28 28 (501760)
I0517 02:35:58.913373  6959 net.cpp:137] Memory required for data: 890122260
I0517 02:35:58.913377  6959 layer_factory.hpp:77] Creating layer res3b4_branch2c
I0517 02:35:58.913383  6959 net.cpp:84] Creating Layer res3b4_branch2c
I0517 02:35:58.913385  6959 net.cpp:406] res3b4_branch2c <- res3b4_branch2b
I0517 02:35:58.913388  6959 net.cpp:380] res3b4_branch2c -> res3b4_branch2c
I0517 02:35:58.915424  6959 net.cpp:122] Setting up res3b4_branch2c
I0517 02:35:58.915432  6959 net.cpp:129] Top shape: 5 512 28 28 (2007040)
I0517 02:35:58.915434  6959 net.cpp:137] Memory required for data: 898150420
I0517 02:35:58.915438  6959 layer_factory.hpp:77] Creating layer bn3b4_branch2c
I0517 02:35:58.915442  6959 net.cpp:84] Creating Layer bn3b4_branch2c
I0517 02:35:58.915446  6959 net.cpp:406] bn3b4_branch2c <- res3b4_branch2c
I0517 02:35:58.915448  6959 net.cpp:367] bn3b4_branch2c -> res3b4_branch2c (in-place)
I0517 02:35:58.915627  6959 net.cpp:122] Setting up bn3b4_branch2c
I0517 02:35:58.915633  6959 net.cpp:129] Top shape: 5 512 28 28 (2007040)
I0517 02:35:58.915635  6959 net.cpp:137] Memory required for data: 906178580
I0517 02:35:58.915639  6959 layer_factory.hpp:77] Creating layer scale3b4_branch2c
I0517 02:35:58.915642  6959 net.cpp:84] Creating Layer scale3b4_branch2c
I0517 02:35:58.915644  6959 net.cpp:406] scale3b4_branch2c <- res3b4_branch2c
I0517 02:35:58.915647  6959 net.cpp:367] scale3b4_branch2c -> res3b4_branch2c (in-place)
I0517 02:35:58.915678  6959 layer_factory.hpp:77] Creating layer scale3b4_branch2c
I0517 02:35:58.915766  6959 net.cpp:122] Setting up scale3b4_branch2c
I0517 02:35:58.915769  6959 net.cpp:129] Top shape: 5 512 28 28 (2007040)
I0517 02:35:58.915771  6959 net.cpp:137] Memory required for data: 914206740
I0517 02:35:58.915774  6959 layer_factory.hpp:77] Creating layer res3b4
I0517 02:35:58.915778  6959 net.cpp:84] Creating Layer res3b4
I0517 02:35:58.915781  6959 net.cpp:406] res3b4 <- res3b3_res3b3_relu_0_split_1
I0517 02:35:58.915783  6959 net.cpp:406] res3b4 <- res3b4_branch2c
I0517 02:35:58.915786  6959 net.cpp:380] res3b4 -> res3b4
I0517 02:35:58.915805  6959 net.cpp:122] Setting up res3b4
I0517 02:35:58.915809  6959 net.cpp:129] Top shape: 5 512 28 28 (2007040)
I0517 02:35:58.915812  6959 net.cpp:137] Memory required for data: 922234900
I0517 02:35:58.915812  6959 layer_factory.hpp:77] Creating layer res3b4_relu
I0517 02:35:58.915817  6959 net.cpp:84] Creating Layer res3b4_relu
I0517 02:35:58.915819  6959 net.cpp:406] res3b4_relu <- res3b4
I0517 02:35:58.915823  6959 net.cpp:367] res3b4_relu -> res3b4 (in-place)
I0517 02:35:58.916210  6959 net.cpp:122] Setting up res3b4_relu
I0517 02:35:58.916216  6959 net.cpp:129] Top shape: 5 512 28 28 (2007040)
I0517 02:35:58.916218  6959 net.cpp:137] Memory required for data: 930263060
I0517 02:35:58.916220  6959 layer_factory.hpp:77] Creating layer res3b4_res3b4_relu_0_split
I0517 02:35:58.916224  6959 net.cpp:84] Creating Layer res3b4_res3b4_relu_0_split
I0517 02:35:58.916226  6959 net.cpp:406] res3b4_res3b4_relu_0_split <- res3b4
I0517 02:35:58.916230  6959 net.cpp:380] res3b4_res3b4_relu_0_split -> res3b4_res3b4_relu_0_split_0
I0517 02:35:58.916234  6959 net.cpp:380] res3b4_res3b4_relu_0_split -> res3b4_res3b4_relu_0_split_1
I0517 02:35:58.916267  6959 net.cpp:122] Setting up res3b4_res3b4_relu_0_split
I0517 02:35:58.916271  6959 net.cpp:129] Top shape: 5 512 28 28 (2007040)
I0517 02:35:58.916275  6959 net.cpp:129] Top shape: 5 512 28 28 (2007040)
I0517 02:35:58.916276  6959 net.cpp:137] Memory required for data: 946319380
I0517 02:35:58.916278  6959 layer_factory.hpp:77] Creating layer res3b5_branch2a
I0517 02:35:58.916285  6959 net.cpp:84] Creating Layer res3b5_branch2a
I0517 02:35:58.916287  6959 net.cpp:406] res3b5_branch2a <- res3b4_res3b4_relu_0_split_0
I0517 02:35:58.916290  6959 net.cpp:380] res3b5_branch2a -> res3b5_branch2a
I0517 02:35:58.918320  6959 net.cpp:122] Setting up res3b5_branch2a
I0517 02:35:58.918329  6959 net.cpp:129] Top shape: 5 128 28 28 (501760)
I0517 02:35:58.918337  6959 net.cpp:137] Memory required for data: 948326420
I0517 02:35:58.918341  6959 layer_factory.hpp:77] Creating layer bn3b5_branch2a
I0517 02:35:58.918346  6959 net.cpp:84] Creating Layer bn3b5_branch2a
I0517 02:35:58.918349  6959 net.cpp:406] bn3b5_branch2a <- res3b5_branch2a
I0517 02:35:58.918351  6959 net.cpp:367] bn3b5_branch2a -> res3b5_branch2a (in-place)
I0517 02:35:58.918519  6959 net.cpp:122] Setting up bn3b5_branch2a
I0517 02:35:58.918524  6959 net.cpp:129] Top shape: 5 128 28 28 (501760)
I0517 02:35:58.918525  6959 net.cpp:137] Memory required for data: 950333460
I0517 02:35:58.918529  6959 layer_factory.hpp:77] Creating layer scale3b5_branch2a
I0517 02:35:58.918532  6959 net.cpp:84] Creating Layer scale3b5_branch2a
I0517 02:35:58.918534  6959 net.cpp:406] scale3b5_branch2a <- res3b5_branch2a
I0517 02:35:58.918536  6959 net.cpp:367] scale3b5_branch2a -> res3b5_branch2a (in-place)
I0517 02:35:58.918570  6959 layer_factory.hpp:77] Creating layer scale3b5_branch2a
I0517 02:35:58.918663  6959 net.cpp:122] Setting up scale3b5_branch2a
I0517 02:35:58.918668  6959 net.cpp:129] Top shape: 5 128 28 28 (501760)
I0517 02:35:58.918670  6959 net.cpp:137] Memory required for data: 952340500
I0517 02:35:58.918673  6959 layer_factory.hpp:77] Creating layer res3b5_branch2a_relu
I0517 02:35:58.918680  6959 net.cpp:84] Creating Layer res3b5_branch2a_relu
I0517 02:35:58.918684  6959 net.cpp:406] res3b5_branch2a_relu <- res3b5_branch2a
I0517 02:35:58.918685  6959 net.cpp:367] res3b5_branch2a_relu -> res3b5_branch2a (in-place)
I0517 02:35:58.919317  6959 net.cpp:122] Setting up res3b5_branch2a_relu
I0517 02:35:58.919324  6959 net.cpp:129] Top shape: 5 128 28 28 (501760)
I0517 02:35:58.919327  6959 net.cpp:137] Memory required for data: 954347540
I0517 02:35:58.919329  6959 layer_factory.hpp:77] Creating layer res3b5_branch2b
I0517 02:35:58.919335  6959 net.cpp:84] Creating Layer res3b5_branch2b
I0517 02:35:58.919337  6959 net.cpp:406] res3b5_branch2b <- res3b5_branch2a
I0517 02:35:58.919340  6959 net.cpp:380] res3b5_branch2b -> res3b5_branch2b
I0517 02:35:58.921913  6959 net.cpp:122] Setting up res3b5_branch2b
I0517 02:35:58.921921  6959 net.cpp:129] Top shape: 5 128 28 28 (501760)
I0517 02:35:58.921923  6959 net.cpp:137] Memory required for data: 956354580
I0517 02:35:58.921927  6959 layer_factory.hpp:77] Creating layer bn3b5_branch2b
I0517 02:35:58.921931  6959 net.cpp:84] Creating Layer bn3b5_branch2b
I0517 02:35:58.921933  6959 net.cpp:406] bn3b5_branch2b <- res3b5_branch2b
I0517 02:35:58.921937  6959 net.cpp:367] bn3b5_branch2b -> res3b5_branch2b (in-place)
I0517 02:35:58.922114  6959 net.cpp:122] Setting up bn3b5_branch2b
I0517 02:35:58.922118  6959 net.cpp:129] Top shape: 5 128 28 28 (501760)
I0517 02:35:58.922121  6959 net.cpp:137] Memory required for data: 958361620
I0517 02:35:58.922124  6959 layer_factory.hpp:77] Creating layer scale3b5_branch2b
I0517 02:35:58.922128  6959 net.cpp:84] Creating Layer scale3b5_branch2b
I0517 02:35:58.922130  6959 net.cpp:406] scale3b5_branch2b <- res3b5_branch2b
I0517 02:35:58.922132  6959 net.cpp:367] scale3b5_branch2b -> res3b5_branch2b (in-place)
I0517 02:35:58.922168  6959 layer_factory.hpp:77] Creating layer scale3b5_branch2b
I0517 02:35:58.922264  6959 net.cpp:122] Setting up scale3b5_branch2b
I0517 02:35:58.922269  6959 net.cpp:129] Top shape: 5 128 28 28 (501760)
I0517 02:35:58.922271  6959 net.cpp:137] Memory required for data: 960368660
I0517 02:35:58.922274  6959 layer_factory.hpp:77] Creating layer res3b5_branch2b_relu
I0517 02:35:58.922279  6959 net.cpp:84] Creating Layer res3b5_branch2b_relu
I0517 02:35:58.922281  6959 net.cpp:406] res3b5_branch2b_relu <- res3b5_branch2b
I0517 02:35:58.922284  6959 net.cpp:367] res3b5_branch2b_relu -> res3b5_branch2b (in-place)
I0517 02:35:58.922672  6959 net.cpp:122] Setting up res3b5_branch2b_relu
I0517 02:35:58.922678  6959 net.cpp:129] Top shape: 5 128 28 28 (501760)
I0517 02:35:58.922680  6959 net.cpp:137] Memory required for data: 962375700
I0517 02:35:58.922683  6959 layer_factory.hpp:77] Creating layer res3b5_branch2c
I0517 02:35:58.922693  6959 net.cpp:84] Creating Layer res3b5_branch2c
I0517 02:35:58.922696  6959 net.cpp:406] res3b5_branch2c <- res3b5_branch2b
I0517 02:35:58.922701  6959 net.cpp:380] res3b5_branch2c -> res3b5_branch2c
I0517 02:35:58.924600  6959 net.cpp:122] Setting up res3b5_branch2c
I0517 02:35:58.924608  6959 net.cpp:129] Top shape: 5 512 28 28 (2007040)
I0517 02:35:58.924610  6959 net.cpp:137] Memory required for data: 970403860
I0517 02:35:58.924613  6959 layer_factory.hpp:77] Creating layer bn3b5_branch2c
I0517 02:35:58.924618  6959 net.cpp:84] Creating Layer bn3b5_branch2c
I0517 02:35:58.924620  6959 net.cpp:406] bn3b5_branch2c <- res3b5_branch2c
I0517 02:35:58.924623  6959 net.cpp:367] bn3b5_branch2c -> res3b5_branch2c (in-place)
I0517 02:35:58.924813  6959 net.cpp:122] Setting up bn3b5_branch2c
I0517 02:35:58.924818  6959 net.cpp:129] Top shape: 5 512 28 28 (2007040)
I0517 02:35:58.924820  6959 net.cpp:137] Memory required for data: 978432020
I0517 02:35:58.924824  6959 layer_factory.hpp:77] Creating layer scale3b5_branch2c
I0517 02:35:58.924827  6959 net.cpp:84] Creating Layer scale3b5_branch2c
I0517 02:35:58.924829  6959 net.cpp:406] scale3b5_branch2c <- res3b5_branch2c
I0517 02:35:58.924832  6959 net.cpp:367] scale3b5_branch2c -> res3b5_branch2c (in-place)
I0517 02:35:58.924868  6959 layer_factory.hpp:77] Creating layer scale3b5_branch2c
I0517 02:35:58.924965  6959 net.cpp:122] Setting up scale3b5_branch2c
I0517 02:35:58.924969  6959 net.cpp:129] Top shape: 5 512 28 28 (2007040)
I0517 02:35:58.924971  6959 net.cpp:137] Memory required for data: 986460180
I0517 02:35:58.924974  6959 layer_factory.hpp:77] Creating layer res3b5
I0517 02:35:58.924978  6959 net.cpp:84] Creating Layer res3b5
I0517 02:35:58.924980  6959 net.cpp:406] res3b5 <- res3b4_res3b4_relu_0_split_1
I0517 02:35:58.924983  6959 net.cpp:406] res3b5 <- res3b5_branch2c
I0517 02:35:58.924988  6959 net.cpp:380] res3b5 -> res3b5
I0517 02:35:58.925007  6959 net.cpp:122] Setting up res3b5
I0517 02:35:58.925011  6959 net.cpp:129] Top shape: 5 512 28 28 (2007040)
I0517 02:35:58.925014  6959 net.cpp:137] Memory required for data: 994488340
I0517 02:35:58.925016  6959 layer_factory.hpp:77] Creating layer res3b5_relu
I0517 02:35:58.925021  6959 net.cpp:84] Creating Layer res3b5_relu
I0517 02:35:58.925025  6959 net.cpp:406] res3b5_relu <- res3b5
I0517 02:35:58.925029  6959 net.cpp:367] res3b5_relu -> res3b5 (in-place)
I0517 02:35:58.925532  6959 net.cpp:122] Setting up res3b5_relu
I0517 02:35:58.925539  6959 net.cpp:129] Top shape: 5 512 28 28 (2007040)
I0517 02:35:58.925541  6959 net.cpp:137] Memory required for data: 1002516500
I0517 02:35:58.925544  6959 layer_factory.hpp:77] Creating layer res3b5_res3b5_relu_0_split
I0517 02:35:58.925547  6959 net.cpp:84] Creating Layer res3b5_res3b5_relu_0_split
I0517 02:35:58.925549  6959 net.cpp:406] res3b5_res3b5_relu_0_split <- res3b5
I0517 02:35:58.925552  6959 net.cpp:380] res3b5_res3b5_relu_0_split -> res3b5_res3b5_relu_0_split_0
I0517 02:35:58.925557  6959 net.cpp:380] res3b5_res3b5_relu_0_split -> res3b5_res3b5_relu_0_split_1
I0517 02:35:58.925595  6959 net.cpp:122] Setting up res3b5_res3b5_relu_0_split
I0517 02:35:58.925601  6959 net.cpp:129] Top shape: 5 512 28 28 (2007040)
I0517 02:35:58.925602  6959 net.cpp:129] Top shape: 5 512 28 28 (2007040)
I0517 02:35:58.925604  6959 net.cpp:137] Memory required for data: 1018572820
I0517 02:35:58.925606  6959 layer_factory.hpp:77] Creating layer res3b6_branch2a
I0517 02:35:58.925612  6959 net.cpp:84] Creating Layer res3b6_branch2a
I0517 02:35:58.925616  6959 net.cpp:406] res3b6_branch2a <- res3b5_res3b5_relu_0_split_0
I0517 02:35:58.925618  6959 net.cpp:380] res3b6_branch2a -> res3b6_branch2a
I0517 02:35:58.927517  6959 net.cpp:122] Setting up res3b6_branch2a
I0517 02:35:58.927525  6959 net.cpp:129] Top shape: 5 128 28 28 (501760)
I0517 02:35:58.927527  6959 net.cpp:137] Memory required for data: 1020579860
I0517 02:35:58.927531  6959 layer_factory.hpp:77] Creating layer bn3b6_branch2a
I0517 02:35:58.927534  6959 net.cpp:84] Creating Layer bn3b6_branch2a
I0517 02:35:58.927541  6959 net.cpp:406] bn3b6_branch2a <- res3b6_branch2a
I0517 02:35:58.927546  6959 net.cpp:367] bn3b6_branch2a -> res3b6_branch2a (in-place)
I0517 02:35:58.927713  6959 net.cpp:122] Setting up bn3b6_branch2a
I0517 02:35:58.927717  6959 net.cpp:129] Top shape: 5 128 28 28 (501760)
I0517 02:35:58.927719  6959 net.cpp:137] Memory required for data: 1022586900
I0517 02:35:58.927723  6959 layer_factory.hpp:77] Creating layer scale3b6_branch2a
I0517 02:35:58.927727  6959 net.cpp:84] Creating Layer scale3b6_branch2a
I0517 02:35:58.927729  6959 net.cpp:406] scale3b6_branch2a <- res3b6_branch2a
I0517 02:35:58.927732  6959 net.cpp:367] scale3b6_branch2a -> res3b6_branch2a (in-place)
I0517 02:35:58.927763  6959 layer_factory.hpp:77] Creating layer scale3b6_branch2a
I0517 02:35:58.927856  6959 net.cpp:122] Setting up scale3b6_branch2a
I0517 02:35:58.927860  6959 net.cpp:129] Top shape: 5 128 28 28 (501760)
I0517 02:35:58.927862  6959 net.cpp:137] Memory required for data: 1024593940
I0517 02:35:58.927865  6959 layer_factory.hpp:77] Creating layer res3b6_branch2a_relu
I0517 02:35:58.927868  6959 net.cpp:84] Creating Layer res3b6_branch2a_relu
I0517 02:35:58.927870  6959 net.cpp:406] res3b6_branch2a_relu <- res3b6_branch2a
I0517 02:35:58.927873  6959 net.cpp:367] res3b6_branch2a_relu -> res3b6_branch2a (in-place)
I0517 02:35:58.928267  6959 net.cpp:122] Setting up res3b6_branch2a_relu
I0517 02:35:58.928273  6959 net.cpp:129] Top shape: 5 128 28 28 (501760)
I0517 02:35:58.928275  6959 net.cpp:137] Memory required for data: 1026600980
I0517 02:35:58.928277  6959 layer_factory.hpp:77] Creating layer res3b6_branch2b
I0517 02:35:58.928282  6959 net.cpp:84] Creating Layer res3b6_branch2b
I0517 02:35:58.928285  6959 net.cpp:406] res3b6_branch2b <- res3b6_branch2a
I0517 02:35:58.928289  6959 net.cpp:380] res3b6_branch2b -> res3b6_branch2b
I0517 02:35:58.930965  6959 net.cpp:122] Setting up res3b6_branch2b
I0517 02:35:58.930974  6959 net.cpp:129] Top shape: 5 128 28 28 (501760)
I0517 02:35:58.930975  6959 net.cpp:137] Memory required for data: 1028608020
I0517 02:35:58.930979  6959 layer_factory.hpp:77] Creating layer bn3b6_branch2b
I0517 02:35:58.930984  6959 net.cpp:84] Creating Layer bn3b6_branch2b
I0517 02:35:58.930986  6959 net.cpp:406] bn3b6_branch2b <- res3b6_branch2b
I0517 02:35:58.930989  6959 net.cpp:367] bn3b6_branch2b -> res3b6_branch2b (in-place)
I0517 02:35:58.931161  6959 net.cpp:122] Setting up bn3b6_branch2b
I0517 02:35:58.931166  6959 net.cpp:129] Top shape: 5 128 28 28 (501760)
I0517 02:35:58.931169  6959 net.cpp:137] Memory required for data: 1030615060
I0517 02:35:58.931171  6959 layer_factory.hpp:77] Creating layer scale3b6_branch2b
I0517 02:35:58.931174  6959 net.cpp:84] Creating Layer scale3b6_branch2b
I0517 02:35:58.931176  6959 net.cpp:406] scale3b6_branch2b <- res3b6_branch2b
I0517 02:35:58.931180  6959 net.cpp:367] scale3b6_branch2b -> res3b6_branch2b (in-place)
I0517 02:35:58.931210  6959 layer_factory.hpp:77] Creating layer scale3b6_branch2b
I0517 02:35:58.931304  6959 net.cpp:122] Setting up scale3b6_branch2b
I0517 02:35:58.931308  6959 net.cpp:129] Top shape: 5 128 28 28 (501760)
I0517 02:35:58.931310  6959 net.cpp:137] Memory required for data: 1032622100
I0517 02:35:58.931313  6959 layer_factory.hpp:77] Creating layer res3b6_branch2b_relu
I0517 02:35:58.931316  6959 net.cpp:84] Creating Layer res3b6_branch2b_relu
I0517 02:35:58.931318  6959 net.cpp:406] res3b6_branch2b_relu <- res3b6_branch2b
I0517 02:35:58.931321  6959 net.cpp:367] res3b6_branch2b_relu -> res3b6_branch2b (in-place)
I0517 02:35:58.931726  6959 net.cpp:122] Setting up res3b6_branch2b_relu
I0517 02:35:58.931733  6959 net.cpp:129] Top shape: 5 128 28 28 (501760)
I0517 02:35:58.931735  6959 net.cpp:137] Memory required for data: 1034629140
I0517 02:35:58.931737  6959 layer_factory.hpp:77] Creating layer res3b6_branch2c
I0517 02:35:58.931743  6959 net.cpp:84] Creating Layer res3b6_branch2c
I0517 02:35:58.931746  6959 net.cpp:406] res3b6_branch2c <- res3b6_branch2b
I0517 02:35:58.931749  6959 net.cpp:380] res3b6_branch2c -> res3b6_branch2c
I0517 02:35:58.934082  6959 net.cpp:122] Setting up res3b6_branch2c
I0517 02:35:58.934092  6959 net.cpp:129] Top shape: 5 512 28 28 (2007040)
I0517 02:35:58.934094  6959 net.cpp:137] Memory required for data: 1042657300
I0517 02:35:58.934098  6959 layer_factory.hpp:77] Creating layer bn3b6_branch2c
I0517 02:35:58.934103  6959 net.cpp:84] Creating Layer bn3b6_branch2c
I0517 02:35:58.934105  6959 net.cpp:406] bn3b6_branch2c <- res3b6_branch2c
I0517 02:35:58.934108  6959 net.cpp:367] bn3b6_branch2c -> res3b6_branch2c (in-place)
I0517 02:35:58.934293  6959 net.cpp:122] Setting up bn3b6_branch2c
I0517 02:35:58.934298  6959 net.cpp:129] Top shape: 5 512 28 28 (2007040)
I0517 02:35:58.934299  6959 net.cpp:137] Memory required for data: 1050685460
I0517 02:35:58.934303  6959 layer_factory.hpp:77] Creating layer scale3b6_branch2c
I0517 02:35:58.934307  6959 net.cpp:84] Creating Layer scale3b6_branch2c
I0517 02:35:58.934309  6959 net.cpp:406] scale3b6_branch2c <- res3b6_branch2c
I0517 02:35:58.934311  6959 net.cpp:367] scale3b6_branch2c -> res3b6_branch2c (in-place)
I0517 02:35:58.934346  6959 layer_factory.hpp:77] Creating layer scale3b6_branch2c
I0517 02:35:58.934438  6959 net.cpp:122] Setting up scale3b6_branch2c
I0517 02:35:58.934442  6959 net.cpp:129] Top shape: 5 512 28 28 (2007040)
I0517 02:35:58.934444  6959 net.cpp:137] Memory required for data: 1058713620
I0517 02:35:58.934448  6959 layer_factory.hpp:77] Creating layer res3b6
I0517 02:35:58.934451  6959 net.cpp:84] Creating Layer res3b6
I0517 02:35:58.934453  6959 net.cpp:406] res3b6 <- res3b5_res3b5_relu_0_split_1
I0517 02:35:58.934456  6959 net.cpp:406] res3b6 <- res3b6_branch2c
I0517 02:35:58.934460  6959 net.cpp:380] res3b6 -> res3b6
I0517 02:35:58.934479  6959 net.cpp:122] Setting up res3b6
I0517 02:35:58.934485  6959 net.cpp:129] Top shape: 5 512 28 28 (2007040)
I0517 02:35:58.934487  6959 net.cpp:137] Memory required for data: 1066741780
I0517 02:35:58.934489  6959 layer_factory.hpp:77] Creating layer res3b6_relu
I0517 02:35:58.934492  6959 net.cpp:84] Creating Layer res3b6_relu
I0517 02:35:58.934494  6959 net.cpp:406] res3b6_relu <- res3b6
I0517 02:35:58.934497  6959 net.cpp:367] res3b6_relu -> res3b6 (in-place)
I0517 02:35:58.935019  6959 net.cpp:122] Setting up res3b6_relu
I0517 02:35:58.935025  6959 net.cpp:129] Top shape: 5 512 28 28 (2007040)
I0517 02:35:58.935027  6959 net.cpp:137] Memory required for data: 1074769940
I0517 02:35:58.935029  6959 layer_factory.hpp:77] Creating layer res3b6_res3b6_relu_0_split
I0517 02:35:58.935032  6959 net.cpp:84] Creating Layer res3b6_res3b6_relu_0_split
I0517 02:35:58.935035  6959 net.cpp:406] res3b6_res3b6_relu_0_split <- res3b6
I0517 02:35:58.935039  6959 net.cpp:380] res3b6_res3b6_relu_0_split -> res3b6_res3b6_relu_0_split_0
I0517 02:35:58.935043  6959 net.cpp:380] res3b6_res3b6_relu_0_split -> res3b6_res3b6_relu_0_split_1
I0517 02:35:58.935079  6959 net.cpp:122] Setting up res3b6_res3b6_relu_0_split
I0517 02:35:58.935083  6959 net.cpp:129] Top shape: 5 512 28 28 (2007040)
I0517 02:35:58.935086  6959 net.cpp:129] Top shape: 5 512 28 28 (2007040)
I0517 02:35:58.935087  6959 net.cpp:137] Memory required for data: 1090826260
I0517 02:35:58.935089  6959 layer_factory.hpp:77] Creating layer res3b7_branch2a
I0517 02:35:58.935096  6959 net.cpp:84] Creating Layer res3b7_branch2a
I0517 02:35:58.935097  6959 net.cpp:406] res3b7_branch2a <- res3b6_res3b6_relu_0_split_0
I0517 02:35:58.935101  6959 net.cpp:380] res3b7_branch2a -> res3b7_branch2a
I0517 02:35:58.937613  6959 net.cpp:122] Setting up res3b7_branch2a
I0517 02:35:58.937620  6959 net.cpp:129] Top shape: 5 128 28 28 (501760)
I0517 02:35:58.937623  6959 net.cpp:137] Memory required for data: 1092833300
I0517 02:35:58.937626  6959 layer_factory.hpp:77] Creating layer bn3b7_branch2a
I0517 02:35:58.937630  6959 net.cpp:84] Creating Layer bn3b7_branch2a
I0517 02:35:58.937633  6959 net.cpp:406] bn3b7_branch2a <- res3b7_branch2a
I0517 02:35:58.937636  6959 net.cpp:367] bn3b7_branch2a -> res3b7_branch2a (in-place)
I0517 02:35:58.937810  6959 net.cpp:122] Setting up bn3b7_branch2a
I0517 02:35:58.937821  6959 net.cpp:129] Top shape: 5 128 28 28 (501760)
I0517 02:35:58.937824  6959 net.cpp:137] Memory required for data: 1094840340
I0517 02:35:58.937827  6959 layer_factory.hpp:77] Creating layer scale3b7_branch2a
I0517 02:35:58.937830  6959 net.cpp:84] Creating Layer scale3b7_branch2a
I0517 02:35:58.937832  6959 net.cpp:406] scale3b7_branch2a <- res3b7_branch2a
I0517 02:35:58.937835  6959 net.cpp:367] scale3b7_branch2a -> res3b7_branch2a (in-place)
I0517 02:35:58.937870  6959 layer_factory.hpp:77] Creating layer scale3b7_branch2a
I0517 02:35:58.937964  6959 net.cpp:122] Setting up scale3b7_branch2a
I0517 02:35:58.937968  6959 net.cpp:129] Top shape: 5 128 28 28 (501760)
I0517 02:35:58.937970  6959 net.cpp:137] Memory required for data: 1096847380
I0517 02:35:58.937973  6959 layer_factory.hpp:77] Creating layer res3b7_branch2a_relu
I0517 02:35:58.937978  6959 net.cpp:84] Creating Layer res3b7_branch2a_relu
I0517 02:35:58.937980  6959 net.cpp:406] res3b7_branch2a_relu <- res3b7_branch2a
I0517 02:35:58.937983  6959 net.cpp:367] res3b7_branch2a_relu -> res3b7_branch2a (in-place)
I0517 02:35:58.938374  6959 net.cpp:122] Setting up res3b7_branch2a_relu
I0517 02:35:58.938380  6959 net.cpp:129] Top shape: 5 128 28 28 (501760)
I0517 02:35:58.938382  6959 net.cpp:137] Memory required for data: 1098854420
I0517 02:35:58.938385  6959 layer_factory.hpp:77] Creating layer res3b7_branch2b
I0517 02:35:58.938390  6959 net.cpp:84] Creating Layer res3b7_branch2b
I0517 02:35:58.938391  6959 net.cpp:406] res3b7_branch2b <- res3b7_branch2a
I0517 02:35:58.938395  6959 net.cpp:380] res3b7_branch2b -> res3b7_branch2b
I0517 02:35:58.941555  6959 net.cpp:122] Setting up res3b7_branch2b
I0517 02:35:58.941565  6959 net.cpp:129] Top shape: 5 128 28 28 (501760)
I0517 02:35:58.941567  6959 net.cpp:137] Memory required for data: 1100861460
I0517 02:35:58.941570  6959 layer_factory.hpp:77] Creating layer bn3b7_branch2b
I0517 02:35:58.941576  6959 net.cpp:84] Creating Layer bn3b7_branch2b
I0517 02:35:58.941578  6959 net.cpp:406] bn3b7_branch2b <- res3b7_branch2b
I0517 02:35:58.941581  6959 net.cpp:367] bn3b7_branch2b -> res3b7_branch2b (in-place)
I0517 02:35:58.941762  6959 net.cpp:122] Setting up bn3b7_branch2b
I0517 02:35:58.941766  6959 net.cpp:129] Top shape: 5 128 28 28 (501760)
I0517 02:35:58.941768  6959 net.cpp:137] Memory required for data: 1102868500
I0517 02:35:58.941772  6959 layer_factory.hpp:77] Creating layer scale3b7_branch2b
I0517 02:35:58.941776  6959 net.cpp:84] Creating Layer scale3b7_branch2b
I0517 02:35:58.941778  6959 net.cpp:406] scale3b7_branch2b <- res3b7_branch2b
I0517 02:35:58.941781  6959 net.cpp:367] scale3b7_branch2b -> res3b7_branch2b (in-place)
I0517 02:35:58.941815  6959 layer_factory.hpp:77] Creating layer scale3b7_branch2b
I0517 02:35:58.941912  6959 net.cpp:122] Setting up scale3b7_branch2b
I0517 02:35:58.941916  6959 net.cpp:129] Top shape: 5 128 28 28 (501760)
I0517 02:35:58.941918  6959 net.cpp:137] Memory required for data: 1104875540
I0517 02:35:58.941921  6959 layer_factory.hpp:77] Creating layer res3b7_branch2b_relu
I0517 02:35:58.941926  6959 net.cpp:84] Creating Layer res3b7_branch2b_relu
I0517 02:35:58.941927  6959 net.cpp:406] res3b7_branch2b_relu <- res3b7_branch2b
I0517 02:35:58.941931  6959 net.cpp:367] res3b7_branch2b_relu -> res3b7_branch2b (in-place)
I0517 02:35:58.942430  6959 net.cpp:122] Setting up res3b7_branch2b_relu
I0517 02:35:58.942437  6959 net.cpp:129] Top shape: 5 128 28 28 (501760)
I0517 02:35:58.942440  6959 net.cpp:137] Memory required for data: 1106882580
I0517 02:35:58.942441  6959 layer_factory.hpp:77] Creating layer res3b7_branch2c
I0517 02:35:58.942448  6959 net.cpp:84] Creating Layer res3b7_branch2c
I0517 02:35:58.942451  6959 net.cpp:406] res3b7_branch2c <- res3b7_branch2b
I0517 02:35:58.942453  6959 net.cpp:380] res3b7_branch2c -> res3b7_branch2c
I0517 02:35:58.944407  6959 net.cpp:122] Setting up res3b7_branch2c
I0517 02:35:58.944416  6959 net.cpp:129] Top shape: 5 512 28 28 (2007040)
I0517 02:35:58.944418  6959 net.cpp:137] Memory required for data: 1114910740
I0517 02:35:58.944432  6959 layer_factory.hpp:77] Creating layer bn3b7_branch2c
I0517 02:35:58.944437  6959 net.cpp:84] Creating Layer bn3b7_branch2c
I0517 02:35:58.944439  6959 net.cpp:406] bn3b7_branch2c <- res3b7_branch2c
I0517 02:35:58.944442  6959 net.cpp:367] bn3b7_branch2c -> res3b7_branch2c (in-place)
I0517 02:35:58.944622  6959 net.cpp:122] Setting up bn3b7_branch2c
I0517 02:35:58.944628  6959 net.cpp:129] Top shape: 5 512 28 28 (2007040)
I0517 02:35:58.944629  6959 net.cpp:137] Memory required for data: 1122938900
I0517 02:35:58.944633  6959 layer_factory.hpp:77] Creating layer scale3b7_branch2c
I0517 02:35:58.944636  6959 net.cpp:84] Creating Layer scale3b7_branch2c
I0517 02:35:58.944638  6959 net.cpp:406] scale3b7_branch2c <- res3b7_branch2c
I0517 02:35:58.944643  6959 net.cpp:367] scale3b7_branch2c -> res3b7_branch2c (in-place)
I0517 02:35:58.944675  6959 layer_factory.hpp:77] Creating layer scale3b7_branch2c
I0517 02:35:58.944787  6959 net.cpp:122] Setting up scale3b7_branch2c
I0517 02:35:58.944792  6959 net.cpp:129] Top shape: 5 512 28 28 (2007040)
I0517 02:35:58.944793  6959 net.cpp:137] Memory required for data: 1130967060
I0517 02:35:58.944797  6959 layer_factory.hpp:77] Creating layer res3b7
I0517 02:35:58.944799  6959 net.cpp:84] Creating Layer res3b7
I0517 02:35:58.944802  6959 net.cpp:406] res3b7 <- res3b6_res3b6_relu_0_split_1
I0517 02:35:58.944805  6959 net.cpp:406] res3b7 <- res3b7_branch2c
I0517 02:35:58.944809  6959 net.cpp:380] res3b7 -> res3b7
I0517 02:35:58.944829  6959 net.cpp:122] Setting up res3b7
I0517 02:35:58.944833  6959 net.cpp:129] Top shape: 5 512 28 28 (2007040)
I0517 02:35:58.944835  6959 net.cpp:137] Memory required for data: 1138995220
I0517 02:35:58.944838  6959 layer_factory.hpp:77] Creating layer res3b7_relu
I0517 02:35:58.944841  6959 net.cpp:84] Creating Layer res3b7_relu
I0517 02:35:58.944844  6959 net.cpp:406] res3b7_relu <- res3b7
I0517 02:35:58.944846  6959 net.cpp:367] res3b7_relu -> res3b7 (in-place)
I0517 02:35:58.945237  6959 net.cpp:122] Setting up res3b7_relu
I0517 02:35:58.945243  6959 net.cpp:129] Top shape: 5 512 28 28 (2007040)
I0517 02:35:58.945245  6959 net.cpp:137] Memory required for data: 1147023380
I0517 02:35:58.945247  6959 layer_factory.hpp:77] Creating layer res3b7_res3b7_relu_0_split
I0517 02:35:58.945251  6959 net.cpp:84] Creating Layer res3b7_res3b7_relu_0_split
I0517 02:35:58.945253  6959 net.cpp:406] res3b7_res3b7_relu_0_split <- res3b7
I0517 02:35:58.945256  6959 net.cpp:380] res3b7_res3b7_relu_0_split -> res3b7_res3b7_relu_0_split_0
I0517 02:35:58.945261  6959 net.cpp:380] res3b7_res3b7_relu_0_split -> res3b7_res3b7_relu_0_split_1
I0517 02:35:58.945297  6959 net.cpp:122] Setting up res3b7_res3b7_relu_0_split
I0517 02:35:58.945302  6959 net.cpp:129] Top shape: 5 512 28 28 (2007040)
I0517 02:35:58.945303  6959 net.cpp:129] Top shape: 5 512 28 28 (2007040)
I0517 02:35:58.945305  6959 net.cpp:137] Memory required for data: 1163079700
I0517 02:35:58.945307  6959 layer_factory.hpp:77] Creating layer res4a_branch1
I0517 02:35:58.945313  6959 net.cpp:84] Creating Layer res4a_branch1
I0517 02:35:58.945315  6959 net.cpp:406] res4a_branch1 <- res3b7_res3b7_relu_0_split_0
I0517 02:35:58.945318  6959 net.cpp:380] res4a_branch1 -> res4a_branch1
I0517 02:35:58.952813  6959 net.cpp:122] Setting up res4a_branch1
I0517 02:35:58.952827  6959 net.cpp:129] Top shape: 5 1024 14 14 (1003520)
I0517 02:35:58.952829  6959 net.cpp:137] Memory required for data: 1167093780
I0517 02:35:58.952834  6959 layer_factory.hpp:77] Creating layer bn4a_branch1
I0517 02:35:58.952841  6959 net.cpp:84] Creating Layer bn4a_branch1
I0517 02:35:58.952844  6959 net.cpp:406] bn4a_branch1 <- res4a_branch1
I0517 02:35:58.952849  6959 net.cpp:367] bn4a_branch1 -> res4a_branch1 (in-place)
I0517 02:35:58.953044  6959 net.cpp:122] Setting up bn4a_branch1
I0517 02:35:58.953050  6959 net.cpp:129] Top shape: 5 1024 14 14 (1003520)
I0517 02:35:58.953052  6959 net.cpp:137] Memory required for data: 1171107860
I0517 02:35:58.953056  6959 layer_factory.hpp:77] Creating layer scale4a_branch1
I0517 02:35:58.953069  6959 net.cpp:84] Creating Layer scale4a_branch1
I0517 02:35:58.953073  6959 net.cpp:406] scale4a_branch1 <- res4a_branch1
I0517 02:35:58.953075  6959 net.cpp:367] scale4a_branch1 -> res4a_branch1 (in-place)
I0517 02:35:58.953109  6959 layer_factory.hpp:77] Creating layer scale4a_branch1
I0517 02:35:58.953210  6959 net.cpp:122] Setting up scale4a_branch1
I0517 02:35:58.953214  6959 net.cpp:129] Top shape: 5 1024 14 14 (1003520)
I0517 02:35:58.953217  6959 net.cpp:137] Memory required for data: 1175121940
I0517 02:35:58.953220  6959 layer_factory.hpp:77] Creating layer res4a_branch2a
I0517 02:35:58.953225  6959 net.cpp:84] Creating Layer res4a_branch2a
I0517 02:35:58.953228  6959 net.cpp:406] res4a_branch2a <- res3b7_res3b7_relu_0_split_1
I0517 02:35:58.953232  6959 net.cpp:380] res4a_branch2a -> res4a_branch2a
I0517 02:35:58.955957  6959 net.cpp:122] Setting up res4a_branch2a
I0517 02:35:58.955970  6959 net.cpp:129] Top shape: 5 256 14 14 (250880)
I0517 02:35:58.955971  6959 net.cpp:137] Memory required for data: 1176125460
I0517 02:35:58.955976  6959 layer_factory.hpp:77] Creating layer bn4a_branch2a
I0517 02:35:58.955979  6959 net.cpp:84] Creating Layer bn4a_branch2a
I0517 02:35:58.955982  6959 net.cpp:406] bn4a_branch2a <- res4a_branch2a
I0517 02:35:58.955986  6959 net.cpp:367] bn4a_branch2a -> res4a_branch2a (in-place)
I0517 02:35:58.956173  6959 net.cpp:122] Setting up bn4a_branch2a
I0517 02:35:58.956178  6959 net.cpp:129] Top shape: 5 256 14 14 (250880)
I0517 02:35:58.956182  6959 net.cpp:137] Memory required for data: 1177128980
I0517 02:35:58.956185  6959 layer_factory.hpp:77] Creating layer scale4a_branch2a
I0517 02:35:58.956188  6959 net.cpp:84] Creating Layer scale4a_branch2a
I0517 02:35:58.956192  6959 net.cpp:406] scale4a_branch2a <- res4a_branch2a
I0517 02:35:58.956194  6959 net.cpp:367] scale4a_branch2a -> res4a_branch2a (in-place)
I0517 02:35:58.956233  6959 layer_factory.hpp:77] Creating layer scale4a_branch2a
I0517 02:35:58.956329  6959 net.cpp:122] Setting up scale4a_branch2a
I0517 02:35:58.956333  6959 net.cpp:129] Top shape: 5 256 14 14 (250880)
I0517 02:35:58.956336  6959 net.cpp:137] Memory required for data: 1178132500
I0517 02:35:58.956339  6959 layer_factory.hpp:77] Creating layer res4a_branch2a_relu
I0517 02:35:58.956343  6959 net.cpp:84] Creating Layer res4a_branch2a_relu
I0517 02:35:58.956346  6959 net.cpp:406] res4a_branch2a_relu <- res4a_branch2a
I0517 02:35:58.956348  6959 net.cpp:367] res4a_branch2a_relu -> res4a_branch2a (in-place)
I0517 02:35:58.956868  6959 net.cpp:122] Setting up res4a_branch2a_relu
I0517 02:35:58.956874  6959 net.cpp:129] Top shape: 5 256 14 14 (250880)
I0517 02:35:58.956877  6959 net.cpp:137] Memory required for data: 1179136020
I0517 02:35:58.956881  6959 layer_factory.hpp:77] Creating layer res4a_branch2b
I0517 02:35:58.956889  6959 net.cpp:84] Creating Layer res4a_branch2b
I0517 02:35:58.956893  6959 net.cpp:406] res4a_branch2b <- res4a_branch2a
I0517 02:35:58.956898  6959 net.cpp:380] res4a_branch2b -> res4a_branch2b
I0517 02:35:58.963132  6959 net.cpp:122] Setting up res4a_branch2b
I0517 02:35:58.963141  6959 net.cpp:129] Top shape: 5 256 14 14 (250880)
I0517 02:35:58.963145  6959 net.cpp:137] Memory required for data: 1180139540
I0517 02:35:58.963147  6959 layer_factory.hpp:77] Creating layer bn4a_branch2b
I0517 02:35:58.963153  6959 net.cpp:84] Creating Layer bn4a_branch2b
I0517 02:35:58.963155  6959 net.cpp:406] bn4a_branch2b <- res4a_branch2b
I0517 02:35:58.963160  6959 net.cpp:367] bn4a_branch2b -> res4a_branch2b (in-place)
I0517 02:35:58.963340  6959 net.cpp:122] Setting up bn4a_branch2b
I0517 02:35:58.963344  6959 net.cpp:129] Top shape: 5 256 14 14 (250880)
I0517 02:35:58.963346  6959 net.cpp:137] Memory required for data: 1181143060
I0517 02:35:58.963351  6959 layer_factory.hpp:77] Creating layer scale4a_branch2b
I0517 02:35:58.963354  6959 net.cpp:84] Creating Layer scale4a_branch2b
I0517 02:35:58.963356  6959 net.cpp:406] scale4a_branch2b <- res4a_branch2b
I0517 02:35:58.963359  6959 net.cpp:367] scale4a_branch2b -> res4a_branch2b (in-place)
I0517 02:35:58.963400  6959 layer_factory.hpp:77] Creating layer scale4a_branch2b
I0517 02:35:58.963498  6959 net.cpp:122] Setting up scale4a_branch2b
I0517 02:35:58.963502  6959 net.cpp:129] Top shape: 5 256 14 14 (250880)
I0517 02:35:58.963505  6959 net.cpp:137] Memory required for data: 1182146580
I0517 02:35:58.963508  6959 layer_factory.hpp:77] Creating layer res4a_branch2b_relu
I0517 02:35:58.963511  6959 net.cpp:84] Creating Layer res4a_branch2b_relu
I0517 02:35:58.963513  6959 net.cpp:406] res4a_branch2b_relu <- res4a_branch2b
I0517 02:35:58.963517  6959 net.cpp:367] res4a_branch2b_relu -> res4a_branch2b (in-place)
I0517 02:35:58.964015  6959 net.cpp:122] Setting up res4a_branch2b_relu
I0517 02:35:58.964022  6959 net.cpp:129] Top shape: 5 256 14 14 (250880)
I0517 02:35:58.964025  6959 net.cpp:137] Memory required for data: 1183150100
I0517 02:35:58.964026  6959 layer_factory.hpp:77] Creating layer res4a_branch2c
I0517 02:35:58.964032  6959 net.cpp:84] Creating Layer res4a_branch2c
I0517 02:35:58.964036  6959 net.cpp:406] res4a_branch2c <- res4a_branch2b
I0517 02:35:58.964040  6959 net.cpp:380] res4a_branch2c -> res4a_branch2c
I0517 02:35:58.968626  6959 net.cpp:122] Setting up res4a_branch2c
I0517 02:35:58.968641  6959 net.cpp:129] Top shape: 5 1024 14 14 (1003520)
I0517 02:35:58.968643  6959 net.cpp:137] Memory required for data: 1187164180
I0517 02:35:58.968648  6959 layer_factory.hpp:77] Creating layer bn4a_branch2c
I0517 02:35:58.968655  6959 net.cpp:84] Creating Layer bn4a_branch2c
I0517 02:35:58.968659  6959 net.cpp:406] bn4a_branch2c <- res4a_branch2c
I0517 02:35:58.968667  6959 net.cpp:367] bn4a_branch2c -> res4a_branch2c (in-place)
I0517 02:35:58.968874  6959 net.cpp:122] Setting up bn4a_branch2c
I0517 02:35:58.968881  6959 net.cpp:129] Top shape: 5 1024 14 14 (1003520)
I0517 02:35:58.968883  6959 net.cpp:137] Memory required for data: 1191178260
I0517 02:35:58.968888  6959 layer_factory.hpp:77] Creating layer scale4a_branch2c
I0517 02:35:58.968891  6959 net.cpp:84] Creating Layer scale4a_branch2c
I0517 02:35:58.968894  6959 net.cpp:406] scale4a_branch2c <- res4a_branch2c
I0517 02:35:58.968896  6959 net.cpp:367] scale4a_branch2c -> res4a_branch2c (in-place)
I0517 02:35:58.968936  6959 layer_factory.hpp:77] Creating layer scale4a_branch2c
I0517 02:35:58.969044  6959 net.cpp:122] Setting up scale4a_branch2c
I0517 02:35:58.969049  6959 net.cpp:129] Top shape: 5 1024 14 14 (1003520)
I0517 02:35:58.969051  6959 net.cpp:137] Memory required for data: 1195192340
I0517 02:35:58.969054  6959 layer_factory.hpp:77] Creating layer res4a
I0517 02:35:58.969058  6959 net.cpp:84] Creating Layer res4a
I0517 02:35:58.969061  6959 net.cpp:406] res4a <- res4a_branch1
I0517 02:35:58.969063  6959 net.cpp:406] res4a <- res4a_branch2c
I0517 02:35:58.969066  6959 net.cpp:380] res4a -> res4a
I0517 02:35:58.969089  6959 net.cpp:122] Setting up res4a
I0517 02:35:58.969094  6959 net.cpp:129] Top shape: 5 1024 14 14 (1003520)
I0517 02:35:58.969095  6959 net.cpp:137] Memory required for data: 1199206420
I0517 02:35:58.969099  6959 layer_factory.hpp:77] Creating layer res4a_relu
I0517 02:35:58.969105  6959 net.cpp:84] Creating Layer res4a_relu
I0517 02:35:58.969107  6959 net.cpp:406] res4a_relu <- res4a
I0517 02:35:58.969110  6959 net.cpp:367] res4a_relu -> res4a (in-place)
I0517 02:35:58.969503  6959 net.cpp:122] Setting up res4a_relu
I0517 02:35:58.969509  6959 net.cpp:129] Top shape: 5 1024 14 14 (1003520)
I0517 02:35:58.969511  6959 net.cpp:137] Memory required for data: 1203220500
I0517 02:35:58.969513  6959 layer_factory.hpp:77] Creating layer res4a_res4a_relu_0_split
I0517 02:35:58.969517  6959 net.cpp:84] Creating Layer res4a_res4a_relu_0_split
I0517 02:35:58.969521  6959 net.cpp:406] res4a_res4a_relu_0_split <- res4a
I0517 02:35:58.969523  6959 net.cpp:380] res4a_res4a_relu_0_split -> res4a_res4a_relu_0_split_0
I0517 02:35:58.969527  6959 net.cpp:380] res4a_res4a_relu_0_split -> res4a_res4a_relu_0_split_1
I0517 02:35:58.969563  6959 net.cpp:122] Setting up res4a_res4a_relu_0_split
I0517 02:35:58.969568  6959 net.cpp:129] Top shape: 5 1024 14 14 (1003520)
I0517 02:35:58.969578  6959 net.cpp:129] Top shape: 5 1024 14 14 (1003520)
I0517 02:35:58.969579  6959 net.cpp:137] Memory required for data: 1211248660
I0517 02:35:58.969581  6959 layer_factory.hpp:77] Creating layer res4b1_branch2a
I0517 02:35:58.969588  6959 net.cpp:84] Creating Layer res4b1_branch2a
I0517 02:35:58.969589  6959 net.cpp:406] res4b1_branch2a <- res4a_res4a_relu_0_split_0
I0517 02:35:58.969594  6959 net.cpp:380] res4b1_branch2a -> res4b1_branch2a
I0517 02:35:58.973040  6959 net.cpp:122] Setting up res4b1_branch2a
I0517 02:35:58.973048  6959 net.cpp:129] Top shape: 5 256 14 14 (250880)
I0517 02:35:58.973050  6959 net.cpp:137] Memory required for data: 1212252180
I0517 02:35:58.973053  6959 layer_factory.hpp:77] Creating layer bn4b1_branch2a
I0517 02:35:58.973059  6959 net.cpp:84] Creating Layer bn4b1_branch2a
I0517 02:35:58.973062  6959 net.cpp:406] bn4b1_branch2a <- res4b1_branch2a
I0517 02:35:58.973067  6959 net.cpp:367] bn4b1_branch2a -> res4b1_branch2a (in-place)
I0517 02:35:58.973246  6959 net.cpp:122] Setting up bn4b1_branch2a
I0517 02:35:58.973250  6959 net.cpp:129] Top shape: 5 256 14 14 (250880)
I0517 02:35:58.973253  6959 net.cpp:137] Memory required for data: 1213255700
I0517 02:35:58.973256  6959 layer_factory.hpp:77] Creating layer scale4b1_branch2a
I0517 02:35:58.973261  6959 net.cpp:84] Creating Layer scale4b1_branch2a
I0517 02:35:58.973264  6959 net.cpp:406] scale4b1_branch2a <- res4b1_branch2a
I0517 02:35:58.973266  6959 net.cpp:367] scale4b1_branch2a -> res4b1_branch2a (in-place)
I0517 02:35:58.973300  6959 layer_factory.hpp:77] Creating layer scale4b1_branch2a
I0517 02:35:58.973399  6959 net.cpp:122] Setting up scale4b1_branch2a
I0517 02:35:58.973403  6959 net.cpp:129] Top shape: 5 256 14 14 (250880)
I0517 02:35:58.973405  6959 net.cpp:137] Memory required for data: 1214259220
I0517 02:35:58.973408  6959 layer_factory.hpp:77] Creating layer res4b1_branch2a_relu
I0517 02:35:58.973413  6959 net.cpp:84] Creating Layer res4b1_branch2a_relu
I0517 02:35:58.973415  6959 net.cpp:406] res4b1_branch2a_relu <- res4b1_branch2a
I0517 02:35:58.973418  6959 net.cpp:367] res4b1_branch2a_relu -> res4b1_branch2a (in-place)
I0517 02:35:58.973805  6959 net.cpp:122] Setting up res4b1_branch2a_relu
I0517 02:35:58.973810  6959 net.cpp:129] Top shape: 5 256 14 14 (250880)
I0517 02:35:58.973812  6959 net.cpp:137] Memory required for data: 1215262740
I0517 02:35:58.973814  6959 layer_factory.hpp:77] Creating layer res4b1_branch2b
I0517 02:35:58.973819  6959 net.cpp:84] Creating Layer res4b1_branch2b
I0517 02:35:58.973822  6959 net.cpp:406] res4b1_branch2b <- res4b1_branch2a
I0517 02:35:58.973826  6959 net.cpp:380] res4b1_branch2b -> res4b1_branch2b
I0517 02:35:58.980099  6959 net.cpp:122] Setting up res4b1_branch2b
I0517 02:35:58.980108  6959 net.cpp:129] Top shape: 5 256 14 14 (250880)
I0517 02:35:58.980110  6959 net.cpp:137] Memory required for data: 1216266260
I0517 02:35:58.980114  6959 layer_factory.hpp:77] Creating layer bn4b1_branch2b
I0517 02:35:58.980119  6959 net.cpp:84] Creating Layer bn4b1_branch2b
I0517 02:35:58.980121  6959 net.cpp:406] bn4b1_branch2b <- res4b1_branch2b
I0517 02:35:58.980125  6959 net.cpp:367] bn4b1_branch2b -> res4b1_branch2b (in-place)
I0517 02:35:58.980310  6959 net.cpp:122] Setting up bn4b1_branch2b
I0517 02:35:58.980314  6959 net.cpp:129] Top shape: 5 256 14 14 (250880)
I0517 02:35:58.980316  6959 net.cpp:137] Memory required for data: 1217269780
I0517 02:35:58.980320  6959 layer_factory.hpp:77] Creating layer scale4b1_branch2b
I0517 02:35:58.980324  6959 net.cpp:84] Creating Layer scale4b1_branch2b
I0517 02:35:58.980326  6959 net.cpp:406] scale4b1_branch2b <- res4b1_branch2b
I0517 02:35:58.980329  6959 net.cpp:367] scale4b1_branch2b -> res4b1_branch2b (in-place)
I0517 02:35:58.980362  6959 layer_factory.hpp:77] Creating layer scale4b1_branch2b
I0517 02:35:58.980464  6959 net.cpp:122] Setting up scale4b1_branch2b
I0517 02:35:58.980469  6959 net.cpp:129] Top shape: 5 256 14 14 (250880)
I0517 02:35:58.980471  6959 net.cpp:137] Memory required for data: 1218273300
I0517 02:35:58.980480  6959 layer_factory.hpp:77] Creating layer res4b1_branch2b_relu
I0517 02:35:58.980484  6959 net.cpp:84] Creating Layer res4b1_branch2b_relu
I0517 02:35:58.980485  6959 net.cpp:406] res4b1_branch2b_relu <- res4b1_branch2b
I0517 02:35:58.980489  6959 net.cpp:367] res4b1_branch2b_relu -> res4b1_branch2b (in-place)
I0517 02:35:58.981010  6959 net.cpp:122] Setting up res4b1_branch2b_relu
I0517 02:35:58.981017  6959 net.cpp:129] Top shape: 5 256 14 14 (250880)
I0517 02:35:58.981019  6959 net.cpp:137] Memory required for data: 1219276820
I0517 02:35:58.981022  6959 layer_factory.hpp:77] Creating layer res4b1_branch2c
I0517 02:35:58.981027  6959 net.cpp:84] Creating Layer res4b1_branch2c
I0517 02:35:58.981029  6959 net.cpp:406] res4b1_branch2c <- res4b1_branch2b
I0517 02:35:58.981034  6959 net.cpp:380] res4b1_branch2c -> res4b1_branch2c
I0517 02:35:58.985199  6959 net.cpp:122] Setting up res4b1_branch2c
I0517 02:35:58.985213  6959 net.cpp:129] Top shape: 5 1024 14 14 (1003520)
I0517 02:35:58.985214  6959 net.cpp:137] Memory required for data: 1223290900
I0517 02:35:58.985219  6959 layer_factory.hpp:77] Creating layer bn4b1_branch2c
I0517 02:35:58.985224  6959 net.cpp:84] Creating Layer bn4b1_branch2c
I0517 02:35:58.985227  6959 net.cpp:406] bn4b1_branch2c <- res4b1_branch2c
I0517 02:35:58.985232  6959 net.cpp:367] bn4b1_branch2c -> res4b1_branch2c (in-place)
I0517 02:35:58.985424  6959 net.cpp:122] Setting up bn4b1_branch2c
I0517 02:35:58.985429  6959 net.cpp:129] Top shape: 5 1024 14 14 (1003520)
I0517 02:35:58.985430  6959 net.cpp:137] Memory required for data: 1227304980
I0517 02:35:58.985435  6959 layer_factory.hpp:77] Creating layer scale4b1_branch2c
I0517 02:35:58.985440  6959 net.cpp:84] Creating Layer scale4b1_branch2c
I0517 02:35:58.985441  6959 net.cpp:406] scale4b1_branch2c <- res4b1_branch2c
I0517 02:35:58.985445  6959 net.cpp:367] scale4b1_branch2c -> res4b1_branch2c (in-place)
I0517 02:35:58.985486  6959 layer_factory.hpp:77] Creating layer scale4b1_branch2c
I0517 02:35:58.985600  6959 net.cpp:122] Setting up scale4b1_branch2c
I0517 02:35:58.985606  6959 net.cpp:129] Top shape: 5 1024 14 14 (1003520)
I0517 02:35:58.985608  6959 net.cpp:137] Memory required for data: 1231319060
I0517 02:35:58.985620  6959 layer_factory.hpp:77] Creating layer res4b1
I0517 02:35:58.985625  6959 net.cpp:84] Creating Layer res4b1
I0517 02:35:58.985626  6959 net.cpp:406] res4b1 <- res4a_res4a_relu_0_split_1
I0517 02:35:58.985630  6959 net.cpp:406] res4b1 <- res4b1_branch2c
I0517 02:35:58.985632  6959 net.cpp:380] res4b1 -> res4b1
I0517 02:35:58.985652  6959 net.cpp:122] Setting up res4b1
I0517 02:35:58.985657  6959 net.cpp:129] Top shape: 5 1024 14 14 (1003520)
I0517 02:35:58.985659  6959 net.cpp:137] Memory required for data: 1235333140
I0517 02:35:58.985662  6959 layer_factory.hpp:77] Creating layer res4b1_relu
I0517 02:35:58.985666  6959 net.cpp:84] Creating Layer res4b1_relu
I0517 02:35:58.985669  6959 net.cpp:406] res4b1_relu <- res4b1
I0517 02:35:58.985673  6959 net.cpp:367] res4b1_relu -> res4b1 (in-place)
I0517 02:35:58.986073  6959 net.cpp:122] Setting up res4b1_relu
I0517 02:35:58.986078  6959 net.cpp:129] Top shape: 5 1024 14 14 (1003520)
I0517 02:35:58.986080  6959 net.cpp:137] Memory required for data: 1239347220
I0517 02:35:58.986083  6959 layer_factory.hpp:77] Creating layer res4b1_res4b1_relu_0_split
I0517 02:35:58.986085  6959 net.cpp:84] Creating Layer res4b1_res4b1_relu_0_split
I0517 02:35:58.986088  6959 net.cpp:406] res4b1_res4b1_relu_0_split <- res4b1
I0517 02:35:58.986093  6959 net.cpp:380] res4b1_res4b1_relu_0_split -> res4b1_res4b1_relu_0_split_0
I0517 02:35:58.986096  6959 net.cpp:380] res4b1_res4b1_relu_0_split -> res4b1_res4b1_relu_0_split_1
I0517 02:35:58.986133  6959 net.cpp:122] Setting up res4b1_res4b1_relu_0_split
I0517 02:35:58.986137  6959 net.cpp:129] Top shape: 5 1024 14 14 (1003520)
I0517 02:35:58.986140  6959 net.cpp:129] Top shape: 5 1024 14 14 (1003520)
I0517 02:35:58.986141  6959 net.cpp:137] Memory required for data: 1247375380
I0517 02:35:58.986143  6959 layer_factory.hpp:77] Creating layer res4b2_branch2a
I0517 02:35:58.986157  6959 net.cpp:84] Creating Layer res4b2_branch2a
I0517 02:35:58.986160  6959 net.cpp:406] res4b2_branch2a <- res4b1_res4b1_relu_0_split_0
I0517 02:35:58.986162  6959 net.cpp:380] res4b2_branch2a -> res4b2_branch2a
I0517 02:35:58.989578  6959 net.cpp:122] Setting up res4b2_branch2a
I0517 02:35:58.989585  6959 net.cpp:129] Top shape: 5 256 14 14 (250880)
I0517 02:35:58.989588  6959 net.cpp:137] Memory required for data: 1248378900
I0517 02:35:58.989591  6959 layer_factory.hpp:77] Creating layer bn4b2_branch2a
I0517 02:35:58.989596  6959 net.cpp:84] Creating Layer bn4b2_branch2a
I0517 02:35:58.989598  6959 net.cpp:406] bn4b2_branch2a <- res4b2_branch2a
I0517 02:35:58.989601  6959 net.cpp:367] bn4b2_branch2a -> res4b2_branch2a (in-place)
I0517 02:35:58.989792  6959 net.cpp:122] Setting up bn4b2_branch2a
I0517 02:35:58.989796  6959 net.cpp:129] Top shape: 5 256 14 14 (250880)
I0517 02:35:58.989799  6959 net.cpp:137] Memory required for data: 1249382420
I0517 02:35:58.989802  6959 layer_factory.hpp:77] Creating layer scale4b2_branch2a
I0517 02:35:58.989805  6959 net.cpp:84] Creating Layer scale4b2_branch2a
I0517 02:35:58.989807  6959 net.cpp:406] scale4b2_branch2a <- res4b2_branch2a
I0517 02:35:58.989810  6959 net.cpp:367] scale4b2_branch2a -> res4b2_branch2a (in-place)
I0517 02:35:58.989846  6959 layer_factory.hpp:77] Creating layer scale4b2_branch2a
I0517 02:35:58.989948  6959 net.cpp:122] Setting up scale4b2_branch2a
I0517 02:35:58.989951  6959 net.cpp:129] Top shape: 5 256 14 14 (250880)
I0517 02:35:58.989953  6959 net.cpp:137] Memory required for data: 1250385940
I0517 02:35:58.989956  6959 layer_factory.hpp:77] Creating layer res4b2_branch2a_relu
I0517 02:35:58.989961  6959 net.cpp:84] Creating Layer res4b2_branch2a_relu
I0517 02:35:58.989964  6959 net.cpp:406] res4b2_branch2a_relu <- res4b2_branch2a
I0517 02:35:58.989965  6959 net.cpp:367] res4b2_branch2a_relu -> res4b2_branch2a (in-place)
I0517 02:35:58.990463  6959 net.cpp:122] Setting up res4b2_branch2a_relu
I0517 02:35:58.990469  6959 net.cpp:129] Top shape: 5 256 14 14 (250880)
I0517 02:35:58.990471  6959 net.cpp:137] Memory required for data: 1251389460
I0517 02:35:58.990473  6959 layer_factory.hpp:77] Creating layer res4b2_branch2b
I0517 02:35:58.990479  6959 net.cpp:84] Creating Layer res4b2_branch2b
I0517 02:35:58.990481  6959 net.cpp:406] res4b2_branch2b <- res4b2_branch2a
I0517 02:35:58.990484  6959 net.cpp:380] res4b2_branch2b -> res4b2_branch2b
I0517 02:35:58.996781  6959 net.cpp:122] Setting up res4b2_branch2b
I0517 02:35:58.996793  6959 net.cpp:129] Top shape: 5 256 14 14 (250880)
I0517 02:35:58.996796  6959 net.cpp:137] Memory required for data: 1252392980
I0517 02:35:58.996801  6959 layer_factory.hpp:77] Creating layer bn4b2_branch2b
I0517 02:35:58.996809  6959 net.cpp:84] Creating Layer bn4b2_branch2b
I0517 02:35:58.996814  6959 net.cpp:406] bn4b2_branch2b <- res4b2_branch2b
I0517 02:35:58.996819  6959 net.cpp:367] bn4b2_branch2b -> res4b2_branch2b (in-place)
I0517 02:35:58.997117  6959 net.cpp:122] Setting up bn4b2_branch2b
I0517 02:35:58.997124  6959 net.cpp:129] Top shape: 5 256 14 14 (250880)
I0517 02:35:58.997128  6959 net.cpp:137] Memory required for data: 1253396500
I0517 02:35:58.997133  6959 layer_factory.hpp:77] Creating layer scale4b2_branch2b
I0517 02:35:58.997138  6959 net.cpp:84] Creating Layer scale4b2_branch2b
I0517 02:35:58.997143  6959 net.cpp:406] scale4b2_branch2b <- res4b2_branch2b
I0517 02:35:58.997148  6959 net.cpp:367] scale4b2_branch2b -> res4b2_branch2b (in-place)
I0517 02:35:58.997198  6959 layer_factory.hpp:77] Creating layer scale4b2_branch2b
I0517 02:35:58.997351  6959 net.cpp:122] Setting up scale4b2_branch2b
I0517 02:35:58.997359  6959 net.cpp:129] Top shape: 5 256 14 14 (250880)
I0517 02:35:58.997361  6959 net.cpp:137] Memory required for data: 1254400020
I0517 02:35:58.997366  6959 layer_factory.hpp:77] Creating layer res4b2_branch2b_relu
I0517 02:35:58.997371  6959 net.cpp:84] Creating Layer res4b2_branch2b_relu
I0517 02:35:58.997375  6959 net.cpp:406] res4b2_branch2b_relu <- res4b2_branch2b
I0517 02:35:58.997387  6959 net.cpp:367] res4b2_branch2b_relu -> res4b2_branch2b (in-place)
I0517 02:35:58.997953  6959 net.cpp:122] Setting up res4b2_branch2b_relu
I0517 02:35:58.997962  6959 net.cpp:129] Top shape: 5 256 14 14 (250880)
I0517 02:35:58.997965  6959 net.cpp:137] Memory required for data: 1255403540
I0517 02:35:58.997968  6959 layer_factory.hpp:77] Creating layer res4b2_branch2c
I0517 02:35:58.997977  6959 net.cpp:84] Creating Layer res4b2_branch2c
I0517 02:35:58.997980  6959 net.cpp:406] res4b2_branch2c <- res4b2_branch2b
I0517 02:35:58.997984  6959 net.cpp:380] res4b2_branch2c -> res4b2_branch2c
I0517 02:35:59.002192  6959 net.cpp:122] Setting up res4b2_branch2c
I0517 02:35:59.002207  6959 net.cpp:129] Top shape: 5 1024 14 14 (1003520)
I0517 02:35:59.002208  6959 net.cpp:137] Memory required for data: 1259417620
I0517 02:35:59.002213  6959 layer_factory.hpp:77] Creating layer bn4b2_branch2c
I0517 02:35:59.002218  6959 net.cpp:84] Creating Layer bn4b2_branch2c
I0517 02:35:59.002220  6959 net.cpp:406] bn4b2_branch2c <- res4b2_branch2c
I0517 02:35:59.002224  6959 net.cpp:367] bn4b2_branch2c -> res4b2_branch2c (in-place)
I0517 02:35:59.002419  6959 net.cpp:122] Setting up bn4b2_branch2c
I0517 02:35:59.002424  6959 net.cpp:129] Top shape: 5 1024 14 14 (1003520)
I0517 02:35:59.002426  6959 net.cpp:137] Memory required for data: 1263431700
I0517 02:35:59.002430  6959 layer_factory.hpp:77] Creating layer scale4b2_branch2c
I0517 02:35:59.002434  6959 net.cpp:84] Creating Layer scale4b2_branch2c
I0517 02:35:59.002436  6959 net.cpp:406] scale4b2_branch2c <- res4b2_branch2c
I0517 02:35:59.002439  6959 net.cpp:367] scale4b2_branch2c -> res4b2_branch2c (in-place)
I0517 02:35:59.002475  6959 layer_factory.hpp:77] Creating layer scale4b2_branch2c
I0517 02:35:59.002580  6959 net.cpp:122] Setting up scale4b2_branch2c
I0517 02:35:59.002585  6959 net.cpp:129] Top shape: 5 1024 14 14 (1003520)
I0517 02:35:59.002588  6959 net.cpp:137] Memory required for data: 1267445780
I0517 02:35:59.002590  6959 layer_factory.hpp:77] Creating layer res4b2
I0517 02:35:59.002594  6959 net.cpp:84] Creating Layer res4b2
I0517 02:35:59.002596  6959 net.cpp:406] res4b2 <- res4b1_res4b1_relu_0_split_1
I0517 02:35:59.002599  6959 net.cpp:406] res4b2 <- res4b2_branch2c
I0517 02:35:59.002602  6959 net.cpp:380] res4b2 -> res4b2
I0517 02:35:59.002622  6959 net.cpp:122] Setting up res4b2
I0517 02:35:59.002626  6959 net.cpp:129] Top shape: 5 1024 14 14 (1003520)
I0517 02:35:59.002629  6959 net.cpp:137] Memory required for data: 1271459860
I0517 02:35:59.002629  6959 layer_factory.hpp:77] Creating layer res4b2_relu
I0517 02:35:59.002632  6959 net.cpp:84] Creating Layer res4b2_relu
I0517 02:35:59.002635  6959 net.cpp:406] res4b2_relu <- res4b2
I0517 02:35:59.002638  6959 net.cpp:367] res4b2_relu -> res4b2 (in-place)
I0517 02:35:59.003020  6959 net.cpp:122] Setting up res4b2_relu
I0517 02:35:59.003026  6959 net.cpp:129] Top shape: 5 1024 14 14 (1003520)
I0517 02:35:59.003027  6959 net.cpp:137] Memory required for data: 1275473940
I0517 02:35:59.003029  6959 layer_factory.hpp:77] Creating layer res4b2_res4b2_relu_0_split
I0517 02:35:59.003033  6959 net.cpp:84] Creating Layer res4b2_res4b2_relu_0_split
I0517 02:35:59.003036  6959 net.cpp:406] res4b2_res4b2_relu_0_split <- res4b2
I0517 02:35:59.003041  6959 net.cpp:380] res4b2_res4b2_relu_0_split -> res4b2_res4b2_relu_0_split_0
I0517 02:35:59.003044  6959 net.cpp:380] res4b2_res4b2_relu_0_split -> res4b2_res4b2_relu_0_split_1
I0517 02:35:59.003080  6959 net.cpp:122] Setting up res4b2_res4b2_relu_0_split
I0517 02:35:59.003084  6959 net.cpp:129] Top shape: 5 1024 14 14 (1003520)
I0517 02:35:59.003087  6959 net.cpp:129] Top shape: 5 1024 14 14 (1003520)
I0517 02:35:59.003089  6959 net.cpp:137] Memory required for data: 1283502100
I0517 02:35:59.003091  6959 layer_factory.hpp:77] Creating layer res4b3_branch2a
…
I0517 02:36:02.077401  6959 net.cpp:406] bn4b33_branch2a <- res4b33_branch2a
I0517 02:36:02.077405  6959 net.cpp:367] bn4b33_branch2a -> res4b33_branch2a (in-place)
I0517 02:36:02.077576  6959 net.cpp:122] Setting up bn4b33_branch2a
I0517 02:36:02.077581  6959 net.cpp:129] Top shape: 1 256 14 14 (50176)
I0517 02:36:02.077584  6959 net.cpp:137] Memory required for data: 473862160
I0517 02:36:02.077587  6959 layer_factory.hpp:77] Creating layer scale4b33_branch2a
I0517 02:36:02.077594  6959 net.cpp:84] Creating Layer scale4b33_branch2a
I0517 02:36:02.077596  6959 net.cpp:406] scale4b33_branch2a <- res4b33_branch2a
I0517 02:36:02.077600  6959 net.cpp:367] scale4b33_branch2a -> res4b33_branch2a (in-place)
I0517 02:36:02.077630  6959 layer_factory.hpp:77] Creating layer scale4b33_branch2a
I0517 02:36:02.077718  6959 net.cpp:122] Setting up scale4b33_branch2a
I0517 02:36:02.077723  6959 net.cpp:129] Top shape: 1 256 14 14 (50176)
I0517 02:36:02.077724  6959 net.cpp:137] Memory required for data: 474062864
I0517 02:36:02.077728  6959 layer_factory.hpp:77] Creating layer res4b33_branch2a_relu
I0517 02:36:02.077730  6959 net.cpp:84] Creating Layer res4b33_branch2a_relu
I0517 02:36:02.077733  6959 net.cpp:406] res4b33_branch2a_relu <- res4b33_branch2a
I0517 02:36:02.077738  6959 net.cpp:367] res4b33_branch2a_relu -> res4b33_branch2a (in-place)
I0517 02:36:02.078225  6959 net.cpp:122] Setting up res4b33_branch2a_relu
I0517 02:36:02.078234  6959 net.cpp:129] Top shape: 1 256 14 14 (50176)
I0517 02:36:02.078236  6959 net.cpp:137] Memory required for data: 474263568
I0517 02:36:02.078239  6959 layer_factory.hpp:77] Creating layer res4b33_branch2b
I0517 02:36:02.078246  6959 net.cpp:84] Creating Layer res4b33_branch2b
I0517 02:36:02.078250  6959 net.cpp:406] res4b33_branch2b <- res4b33_branch2a
I0517 02:36:02.078255  6959 net.cpp:380] res4b33_branch2b -> res4b33_branch2b
I0517 02:36:02.085578  6959 net.cpp:122] Setting up res4b33_branch2b
I0517 02:36:02.085594  6959 net.cpp:129] Top shape: 1 256 14 14 (50176)
I0517 02:36:02.085597  6959 net.cpp:137] Memory required for data: 474464272
I0517 02:36:02.085603  6959 layer_factory.hpp:77] Creating layer bn4b33_branch2b
I0517 02:36:02.085611  6959 net.cpp:84] Creating Layer bn4b33_branch2b
I0517 02:36:02.085615  6959 net.cpp:406] bn4b33_branch2b <- res4b33_branch2b
I0517 02:36:02.085621  6959 net.cpp:367] bn4b33_branch2b -> res4b33_branch2b (in-place)
I0517 02:36:02.085866  6959 net.cpp:122] Setting up bn4b33_branch2b
I0517 02:36:02.085875  6959 net.cpp:129] Top shape: 1 256 14 14 (50176)
I0517 02:36:02.085877  6959 net.cpp:137] Memory required for data: 474664976
I0517 02:36:02.085883  6959 layer_factory.hpp:77] Creating layer scale4b33_branch2b
I0517 02:36:02.085891  6959 net.cpp:84] Creating Layer scale4b33_branch2b
I0517 02:36:02.085893  6959 net.cpp:406] scale4b33_branch2b <- res4b33_branch2b
I0517 02:36:02.085898  6959 net.cpp:367] scale4b33_branch2b -> res4b33_branch2b (in-place)
I0517 02:36:02.085943  6959 layer_factory.hpp:77] Creating layer scale4b33_branch2b
I0517 02:36:02.086067  6959 net.cpp:122] Setting up scale4b33_branch2b
I0517 02:36:02.086073  6959 net.cpp:129] Top shape: 1 256 14 14 (50176)
I0517 02:36:02.086076  6959 net.cpp:137] Memory required for data: 474865680
I0517 02:36:02.086081  6959 layer_factory.hpp:77] Creating layer res4b33_branch2b_relu
I0517 02:36:02.086087  6959 net.cpp:84] Creating Layer res4b33_branch2b_relu
I0517 02:36:02.086091  6959 net.cpp:406] res4b33_branch2b_relu <- res4b33_branch2b
I0517 02:36:02.086094  6959 net.cpp:367] res4b33_branch2b_relu -> res4b33_branch2b (in-place)
I0517 02:36:02.086653  6959 net.cpp:122] Setting up res4b33_branch2b_relu
I0517 02:36:02.086660  6959 net.cpp:129] Top shape: 1 256 14 14 (50176)
I0517 02:36:02.086663  6959 net.cpp:137] Memory required for data: 475066384
I0517 02:36:02.086664  6959 layer_factory.hpp:77] Creating layer res4b33_branch2c
I0517 02:36:02.086671  6959 net.cpp:84] Creating Layer res4b33_branch2c
I0517 02:36:02.086674  6959 net.cpp:406] res4b33_branch2c <- res4b33_branch2b
I0517 02:36:02.086678  6959 net.cpp:380] res4b33_branch2c -> res4b33_branch2c
I0517 02:36:02.090286  6959 net.cpp:122] Setting up res4b33_branch2c
I0517 02:36:02.090296  6959 net.cpp:129] Top shape: 1 1024 14 14 (200704)
I0517 02:36:02.090297  6959 net.cpp:137] Memory required for data: 475869200
I0517 02:36:02.090301  6959 layer_factory.hpp:77] Creating layer bn4b33_branch2c
I0517 02:36:02.090307  6959 net.cpp:84] Creating Layer bn4b33_branch2c
I0517 02:36:02.090310  6959 net.cpp:406] bn4b33_branch2c <- res4b33_branch2c
I0517 02:36:02.090313  6959 net.cpp:367] bn4b33_branch2c -> res4b33_branch2c (in-place)
I0517 02:36:02.090551  6959 net.cpp:122] Setting up bn4b33_branch2c
I0517 02:36:02.090556  6959 net.cpp:129] Top shape: 1 1024 14 14 (200704)
I0517 02:36:02.090559  6959 net.cpp:137] Memory required for data: 476672016
I0517 02:36:02.090562  6959 layer_factory.hpp:77] Creating layer scale4b33_branch2c
I0517 02:36:02.090566  6959 net.cpp:84] Creating Layer scale4b33_branch2c
I0517 02:36:02.090569  6959 net.cpp:406] scale4b33_branch2c <- res4b33_branch2c
I0517 02:36:02.090572  6959 net.cpp:367] scale4b33_branch2c -> res4b33_branch2c (in-place)
I0517 02:36:02.090625  6959 layer_factory.hpp:77] Creating layer scale4b33_branch2c
I0517 02:36:02.090750  6959 net.cpp:122] Setting up scale4b33_branch2c
I0517 02:36:02.090754  6959 net.cpp:129] Top shape: 1 1024 14 14 (200704)
I0517 02:36:02.090756  6959 net.cpp:137] Memory required for data: 477474832
I0517 02:36:02.090759  6959 layer_factory.hpp:77] Creating layer res4b33
I0517 02:36:02.090764  6959 net.cpp:84] Creating Layer res4b33
I0517 02:36:02.090765  6959 net.cpp:406] res4b33 <- res4b32_res4b32_relu_0_split_1
I0517 02:36:02.090768  6959 net.cpp:406] res4b33 <- res4b33_branch2c
I0517 02:36:02.090772  6959 net.cpp:380] res4b33 -> res4b33
I0517 02:36:02.090790  6959 net.cpp:122] Setting up res4b33
I0517 02:36:02.090801  6959 net.cpp:129] Top shape: 1 1024 14 14 (200704)
I0517 02:36:02.090803  6959 net.cpp:137] Memory required for data: 478277648
I0517 02:36:02.090806  6959 layer_factory.hpp:77] Creating layer res4b33_relu
I0517 02:36:02.090808  6959 net.cpp:84] Creating Layer res4b33_relu
I0517 02:36:02.090812  6959 net.cpp:406] res4b33_relu <- res4b33
I0517 02:36:02.090816  6959 net.cpp:367] res4b33_relu -> res4b33 (in-place)
I0517 02:36:02.091457  6959 net.cpp:122] Setting up res4b33_relu
I0517 02:36:02.091464  6959 net.cpp:129] Top shape: 1 1024 14 14 (200704)
I0517 02:36:02.091466  6959 net.cpp:137] Memory required for data: 479080464
I0517 02:36:02.091470  6959 layer_factory.hpp:77] Creating layer res4b33_res4b33_relu_0_split
I0517 02:36:02.091473  6959 net.cpp:84] Creating Layer res4b33_res4b33_relu_0_split
I0517 02:36:02.091476  6959 net.cpp:406] res4b33_res4b33_relu_0_split <- res4b33
I0517 02:36:02.091480  6959 net.cpp:380] res4b33_res4b33_relu_0_split -> res4b33_res4b33_relu_0_split_0
I0517 02:36:02.091485  6959 net.cpp:380] res4b33_res4b33_relu_0_split -> res4b33_res4b33_relu_0_split_1
I0517 02:36:02.091521  6959 net.cpp:122] Setting up res4b33_res4b33_relu_0_split
I0517 02:36:02.091526  6959 net.cpp:129] Top shape: 1 1024 14 14 (200704)
I0517 02:36:02.091528  6959 net.cpp:129] Top shape: 1 1024 14 14 (200704)
I0517 02:36:02.091531  6959 net.cpp:137] Memory required for data: 480686096
I0517 02:36:02.091532  6959 layer_factory.hpp:77] Creating layer res4b34_branch2a
I0517 02:36:02.091537  6959 net.cpp:84] Creating Layer res4b34_branch2a
I0517 02:36:02.091539  6959 net.cpp:406] res4b34_branch2a <- res4b33_res4b33_relu_0_split_0
I0517 02:36:02.091543  6959 net.cpp:380] res4b34_branch2a -> res4b34_branch2a
I0517 02:36:02.095971  6959 net.cpp:122] Setting up res4b34_branch2a
I0517 02:36:02.095980  6959 net.cpp:129] Top shape: 1 256 14 14 (50176)
I0517 02:36:02.095983  6959 net.cpp:137] Memory required for data: 480886800
I0517 02:36:02.095999  6959 layer_factory.hpp:77] Creating layer bn4b34_branch2a
I0517 02:36:02.096006  6959 net.cpp:84] Creating Layer bn4b34_branch2a
I0517 02:36:02.096009  6959 net.cpp:406] bn4b34_branch2a <- res4b34_branch2a
I0517 02:36:02.096014  6959 net.cpp:367] bn4b34_branch2a -> res4b34_branch2a (in-place)
I0517 02:36:02.096312  6959 net.cpp:122] Setting up bn4b34_branch2a
I0517 02:36:02.096316  6959 net.cpp:129] Top shape: 1 256 14 14 (50176)
I0517 02:36:02.096318  6959 net.cpp:137] Memory required for data: 481087504
I0517 02:36:02.096323  6959 layer_factory.hpp:77] Creating layer scale4b34_branch2a
I0517 02:36:02.096341  6959 net.cpp:84] Creating Layer scale4b34_branch2a
I0517 02:36:02.096344  6959 net.cpp:406] scale4b34_branch2a <- res4b34_branch2a
I0517 02:36:02.096348  6959 net.cpp:367] scale4b34_branch2a -> res4b34_branch2a (in-place)
I0517 02:36:02.096405  6959 layer_factory.hpp:77] Creating layer scale4b34_branch2a
I0517 02:36:02.096508  6959 net.cpp:122] Setting up scale4b34_branch2a
I0517 02:36:02.096513  6959 net.cpp:129] Top shape: 1 256 14 14 (50176)
I0517 02:36:02.096515  6959 net.cpp:137] Memory required for data: 481288208
I0517 02:36:02.096518  6959 layer_factory.hpp:77] Creating layer res4b34_branch2a_relu
I0517 02:36:02.096524  6959 net.cpp:84] Creating Layer res4b34_branch2a_relu
I0517 02:36:02.096525  6959 net.cpp:406] res4b34_branch2a_relu <- res4b34_branch2a
I0517 02:36:02.096529  6959 net.cpp:367] res4b34_branch2a_relu -> res4b34_branch2a (in-place)
I0517 02:36:02.096998  6959 net.cpp:122] Setting up res4b34_branch2a_relu
I0517 02:36:02.097005  6959 net.cpp:129] Top shape: 1 256 14 14 (50176)
I0517 02:36:02.097007  6959 net.cpp:137] Memory required for data: 481488912
I0517 02:36:02.097009  6959 layer_factory.hpp:77] Creating layer res4b34_branch2b
I0517 02:36:02.097015  6959 net.cpp:84] Creating Layer res4b34_branch2b
I0517 02:36:02.097018  6959 net.cpp:406] res4b34_branch2b <- res4b34_branch2a
I0517 02:36:02.097023  6959 net.cpp:380] res4b34_branch2b -> res4b34_branch2b
I0517 02:36:02.103705  6959 net.cpp:122] Setting up res4b34_branch2b
I0517 02:36:02.103716  6959 net.cpp:129] Top shape: 1 256 14 14 (50176)
I0517 02:36:02.103725  6959 net.cpp:137] Memory required for data: 481689616
I0517 02:36:02.103730  6959 layer_factory.hpp:77] Creating layer bn4b34_branch2b
I0517 02:36:02.103735  6959 net.cpp:84] Creating Layer bn4b34_branch2b
I0517 02:36:02.103739  6959 net.cpp:406] bn4b34_branch2b <- res4b34_branch2b
I0517 02:36:02.103742  6959 net.cpp:367] bn4b34_branch2b -> res4b34_branch2b (in-place)
I0517 02:36:02.103926  6959 net.cpp:122] Setting up bn4b34_branch2b
I0517 02:36:02.103931  6959 net.cpp:129] Top shape: 1 256 14 14 (50176)
I0517 02:36:02.103934  6959 net.cpp:137] Memory required for data: 481890320
I0517 02:36:02.103937  6959 layer_factory.hpp:77] Creating layer scale4b34_branch2b
I0517 02:36:02.103942  6959 net.cpp:84] Creating Layer scale4b34_branch2b
I0517 02:36:02.103945  6959 net.cpp:406] scale4b34_branch2b <- res4b34_branch2b
I0517 02:36:02.103947  6959 net.cpp:367] scale4b34_branch2b -> res4b34_branch2b (in-place)
I0517 02:36:02.103981  6959 layer_factory.hpp:77] Creating layer scale4b34_branch2b
I0517 02:36:02.104086  6959 net.cpp:122] Setting up scale4b34_branch2b
I0517 02:36:02.104092  6959 net.cpp:129] Top shape: 1 256 14 14 (50176)
I0517 02:36:02.104094  6959 net.cpp:137] Memory required for data: 482091024
I0517 02:36:02.104097  6959 layer_factory.hpp:77] Creating layer res4b34_branch2b_relu
I0517 02:36:02.104101  6959 net.cpp:84] Creating Layer res4b34_branch2b_relu
I0517 02:36:02.104104  6959 net.cpp:406] res4b34_branch2b_relu <- res4b34_branch2b
I0517 02:36:02.104107  6959 net.cpp:367] res4b34_branch2b_relu -> res4b34_branch2b (in-place)
I0517 02:36:02.104769  6959 net.cpp:122] Setting up res4b34_branch2b_relu
I0517 02:36:02.104777  6959 net.cpp:129] Top shape: 1 256 14 14 (50176)
I0517 02:36:02.104779  6959 net.cpp:137] Memory required for data: 482291728
I0517 02:36:02.104781  6959 layer_factory.hpp:77] Creating layer res4b34_branch2c
I0517 02:36:02.104789  6959 net.cpp:84] Creating Layer res4b34_branch2c
I0517 02:36:02.104791  6959 net.cpp:406] res4b34_branch2c <- res4b34_branch2b
I0517 02:36:02.104795  6959 net.cpp:380] res4b34_branch2c -> res4b34_branch2c
I0517 02:36:02.108944  6959 net.cpp:122] Setting up res4b34_branch2c
I0517 02:36:02.108956  6959 net.cpp:129] Top shape: 1 1024 14 14 (200704)
I0517 02:36:02.108959  6959 net.cpp:137] Memory required for data: 483094544
I0517 02:36:02.108964  6959 layer_factory.hpp:77] Creating layer bn4b34_branch2c
I0517 02:36:02.108971  6959 net.cpp:84] Creating Layer bn4b34_branch2c
I0517 02:36:02.108975  6959 net.cpp:406] bn4b34_branch2c <- res4b34_branch2c
I0517 02:36:02.108980  6959 net.cpp:367] bn4b34_branch2c -> res4b34_branch2c (in-place)
I0517 02:36:02.109328  6959 net.cpp:122] Setting up bn4b34_branch2c
I0517 02:36:02.109338  6959 net.cpp:129] Top shape: 1 1024 14 14 (200704)
I0517 02:36:02.109340  6959 net.cpp:137] Memory required for data: 483897360
I0517 02:36:02.109347  6959 layer_factory.hpp:77] Creating layer scale4b34_branch2c
I0517 02:36:02.109354  6959 net.cpp:84] Creating Layer scale4b34_branch2c
I0517 02:36:02.109356  6959 net.cpp:406] scale4b34_branch2c <- res4b34_branch2c
I0517 02:36:02.109361  6959 net.cpp:367] scale4b34_branch2c -> res4b34_branch2c (in-place)
I0517 02:36:02.109444  6959 layer_factory.hpp:77] Creating layer scale4b34_branch2c
I0517 02:36:02.109647  6959 net.cpp:122] Setting up scale4b34_branch2c
I0517 02:36:02.109657  6959 net.cpp:129] Top shape: 1 1024 14 14 (200704)
I0517 02:36:02.109659  6959 net.cpp:137] Memory required for data: 484700176
I0517 02:36:02.109664  6959 layer_factory.hpp:77] Creating layer res4b34
I0517 02:36:02.109671  6959 net.cpp:84] Creating Layer res4b34
I0517 02:36:02.109675  6959 net.cpp:406] res4b34 <- res4b33_res4b33_relu_0_split_1
I0517 02:36:02.109679  6959 net.cpp:406] res4b34 <- res4b34_branch2c
I0517 02:36:02.109684  6959 net.cpp:380] res4b34 -> res4b34
I0517 02:36:02.109714  6959 net.cpp:122] Setting up res4b34
I0517 02:36:02.109721  6959 net.cpp:129] Top shape: 1 1024 14 14 (200704)
I0517 02:36:02.109724  6959 net.cpp:137] Memory required for data: 485502992
I0517 02:36:02.109735  6959 layer_factory.hpp:77] Creating layer res4b34_relu
I0517 02:36:02.109740  6959 net.cpp:84] Creating Layer res4b34_relu
I0517 02:36:02.109743  6959 net.cpp:406] res4b34_relu <- res4b34
I0517 02:36:02.109748  6959 net.cpp:367] res4b34_relu -> res4b34 (in-place)
I0517 02:36:02.110402  6959 net.cpp:122] Setting up res4b34_relu
I0517 02:36:02.110412  6959 net.cpp:129] Top shape: 1 1024 14 14 (200704)
I0517 02:36:02.110415  6959 net.cpp:137] Memory required for data: 486305808
I0517 02:36:02.110419  6959 layer_factory.hpp:77] Creating layer res4b34_res4b34_relu_0_split
I0517 02:36:02.110424  6959 net.cpp:84] Creating Layer res4b34_res4b34_relu_0_split
I0517 02:36:02.110427  6959 net.cpp:406] res4b34_res4b34_relu_0_split <- res4b34
I0517 02:36:02.110433  6959 net.cpp:380] res4b34_res4b34_relu_0_split -> res4b34_res4b34_relu_0_split_0
I0517 02:36:02.110440  6959 net.cpp:380] res4b34_res4b34_relu_0_split -> res4b34_res4b34_relu_0_split_1
I0517 02:36:02.110497  6959 net.cpp:122] Setting up res4b34_res4b34_relu_0_split
I0517 02:36:02.110507  6959 net.cpp:129] Top shape: 1 1024 14 14 (200704)
I0517 02:36:02.110510  6959 net.cpp:129] Top shape: 1 1024 14 14 (200704)
I0517 02:36:02.110513  6959 net.cpp:137] Memory required for data: 487911440
I0517 02:36:02.110517  6959 layer_factory.hpp:77] Creating layer res4b35_branch2a
I0517 02:36:02.110525  6959 net.cpp:84] Creating Layer res4b35_branch2a
I0517 02:36:02.110529  6959 net.cpp:406] res4b35_branch2a <- res4b34_res4b34_relu_0_split_0
I0517 02:36:02.110535  6959 net.cpp:380] res4b35_branch2a -> res4b35_branch2a
I0517 02:36:02.115142  6959 net.cpp:122] Setting up res4b35_branch2a
I0517 02:36:02.115154  6959 net.cpp:129] Top shape: 1 256 14 14 (50176)
I0517 02:36:02.115156  6959 net.cpp:137] Memory required for data: 488112144
I0517 02:36:02.115160  6959 layer_factory.hpp:77] Creating layer bn4b35_branch2a
I0517 02:36:02.115164  6959 net.cpp:84] Creating Layer bn4b35_branch2a
I0517 02:36:02.115167  6959 net.cpp:406] bn4b35_branch2a <- res4b35_branch2a
I0517 02:36:02.115172  6959 net.cpp:367] bn4b35_branch2a -> res4b35_branch2a (in-place)
I0517 02:36:02.115360  6959 net.cpp:122] Setting up bn4b35_branch2a
I0517 02:36:02.115366  6959 net.cpp:129] Top shape: 1 256 14 14 (50176)
I0517 02:36:02.115368  6959 net.cpp:137] Memory required for data: 488312848
I0517 02:36:02.115372  6959 layer_factory.hpp:77] Creating layer scale4b35_branch2a
I0517 02:36:02.115375  6959 net.cpp:84] Creating Layer scale4b35_branch2a
I0517 02:36:02.115378  6959 net.cpp:406] scale4b35_branch2a <- res4b35_branch2a
I0517 02:36:02.115381  6959 net.cpp:367] scale4b35_branch2a -> res4b35_branch2a (in-place)
I0517 02:36:02.115418  6959 layer_factory.hpp:77] Creating layer scale4b35_branch2a
I0517 02:36:02.115523  6959 net.cpp:122] Setting up scale4b35_branch2a
I0517 02:36:02.115528  6959 net.cpp:129] Top shape: 1 256 14 14 (50176)
I0517 02:36:02.115530  6959 net.cpp:137] Memory required for data: 488513552
I0517 02:36:02.115535  6959 layer_factory.hpp:77] Creating layer res4b35_branch2a_relu
I0517 02:36:02.115538  6959 net.cpp:84] Creating Layer res4b35_branch2a_relu
I0517 02:36:02.115541  6959 net.cpp:406] res4b35_branch2a_relu <- res4b35_branch2a
I0517 02:36:02.115543  6959 net.cpp:367] res4b35_branch2a_relu -> res4b35_branch2a (in-place)
I0517 02:36:02.116015  6959 net.cpp:122] Setting up res4b35_branch2a_relu
I0517 02:36:02.116021  6959 net.cpp:129] Top shape: 1 256 14 14 (50176)
I0517 02:36:02.116024  6959 net.cpp:137] Memory required for data: 488714256
I0517 02:36:02.116026  6959 layer_factory.hpp:77] Creating layer res4b35_branch2b
I0517 02:36:02.116032  6959 net.cpp:84] Creating Layer res4b35_branch2b
I0517 02:36:02.116034  6959 net.cpp:406] res4b35_branch2b <- res4b35_branch2a
I0517 02:36:02.116039  6959 net.cpp:380] res4b35_branch2b -> res4b35_branch2b
I0517 02:36:02.123242  6959 net.cpp:122] Setting up res4b35_branch2b
I0517 02:36:02.123256  6959 net.cpp:129] Top shape: 1 256 14 14 (50176)
I0517 02:36:02.123260  6959 net.cpp:137] Memory required for data: 488914960
I0517 02:36:02.123270  6959 layer_factory.hpp:77] Creating layer bn4b35_branch2b
I0517 02:36:02.123276  6959 net.cpp:84] Creating Layer bn4b35_branch2b
I0517 02:36:02.123281  6959 net.cpp:406] bn4b35_branch2b <- res4b35_branch2b
I0517 02:36:02.123284  6959 net.cpp:367] bn4b35_branch2b -> res4b35_branch2b (in-place)
I0517 02:36:02.123477  6959 net.cpp:122] Setting up bn4b35_branch2b
I0517 02:36:02.123482  6959 net.cpp:129] Top shape: 1 256 14 14 (50176)
I0517 02:36:02.123484  6959 net.cpp:137] Memory required for data: 489115664
I0517 02:36:02.123488  6959 layer_factory.hpp:77] Creating layer scale4b35_branch2b
I0517 02:36:02.123493  6959 net.cpp:84] Creating Layer scale4b35_branch2b
I0517 02:36:02.123497  6959 net.cpp:406] scale4b35_branch2b <- res4b35_branch2b
I0517 02:36:02.123499  6959 net.cpp:367] scale4b35_branch2b -> res4b35_branch2b (in-place)
I0517 02:36:02.123536  6959 layer_factory.hpp:77] Creating layer scale4b35_branch2b
I0517 02:36:02.123644  6959 net.cpp:122] Setting up scale4b35_branch2b
I0517 02:36:02.123649  6959 net.cpp:129] Top shape: 1 256 14 14 (50176)
I0517 02:36:02.123651  6959 net.cpp:137] Memory required for data: 489316368
I0517 02:36:02.123654  6959 layer_factory.hpp:77] Creating layer res4b35_branch2b_relu
I0517 02:36:02.123658  6959 net.cpp:84] Creating Layer res4b35_branch2b_relu
I0517 02:36:02.123661  6959 net.cpp:406] res4b35_branch2b_relu <- res4b35_branch2b
I0517 02:36:02.123664  6959 net.cpp:367] res4b35_branch2b_relu -> res4b35_branch2b (in-place)
I0517 02:36:02.124143  6959 net.cpp:122] Setting up res4b35_branch2b_relu
I0517 02:36:02.124150  6959 net.cpp:129] Top shape: 1 256 14 14 (50176)
I0517 02:36:02.124152  6959 net.cpp:137] Memory required for data: 489517072
I0517 02:36:02.124155  6959 layer_factory.hpp:77] Creating layer res4b35_branch2c
I0517 02:36:02.124161  6959 net.cpp:84] Creating Layer res4b35_branch2c
I0517 02:36:02.124163  6959 net.cpp:406] res4b35_branch2c <- res4b35_branch2b
I0517 02:36:02.124167  6959 net.cpp:380] res4b35_branch2c -> res4b35_branch2c
I0517 02:36:02.128129  6959 net.cpp:122] Setting up res4b35_branch2c
I0517 02:36:02.128139  6959 net.cpp:129] Top shape: 1 1024 14 14 (200704)
I0517 02:36:02.128140  6959 net.cpp:137] Memory required for data: 490319888
I0517 02:36:02.128144  6959 layer_factory.hpp:77] Creating layer bn4b35_branch2c
I0517 02:36:02.128147  6959 net.cpp:84] Creating Layer bn4b35_branch2c
I0517 02:36:02.128150  6959 net.cpp:406] bn4b35_branch2c <- res4b35_branch2c
I0517 02:36:02.128154  6959 net.cpp:367] bn4b35_branch2c -> res4b35_branch2c (in-place)
I0517 02:36:02.128410  6959 net.cpp:122] Setting up bn4b35_branch2c
I0517 02:36:02.128417  6959 net.cpp:129] Top shape: 1 1024 14 14 (200704)
I0517 02:36:02.128418  6959 net.cpp:137] Memory required for data: 491122704
I0517 02:36:02.128422  6959 layer_factory.hpp:77] Creating layer scale4b35_branch2c
I0517 02:36:02.128427  6959 net.cpp:84] Creating Layer scale4b35_branch2c
I0517 02:36:02.128428  6959 net.cpp:406] scale4b35_branch2c <- res4b35_branch2c
I0517 02:36:02.128432  6959 net.cpp:367] scale4b35_branch2c -> res4b35_branch2c (in-place)
I0517 02:36:02.128489  6959 layer_factory.hpp:77] Creating layer scale4b35_branch2c
I0517 02:36:02.128635  6959 net.cpp:122] Setting up scale4b35_branch2c
I0517 02:36:02.128640  6959 net.cpp:129] Top shape: 1 1024 14 14 (200704)
I0517 02:36:02.128643  6959 net.cpp:137] Memory required for data: 491925520
I0517 02:36:02.128645  6959 layer_factory.hpp:77] Creating layer res4b35
I0517 02:36:02.128650  6959 net.cpp:84] Creating Layer res4b35
I0517 02:36:02.128654  6959 net.cpp:406] res4b35 <- res4b34_res4b34_relu_0_split_1
I0517 02:36:02.128655  6959 net.cpp:406] res4b35 <- res4b35_branch2c
I0517 02:36:02.128659  6959 net.cpp:380] res4b35 -> res4b35
I0517 02:36:02.128679  6959 net.cpp:122] Setting up res4b35
I0517 02:36:02.128682  6959 net.cpp:129] Top shape: 1 1024 14 14 (200704)
I0517 02:36:02.128684  6959 net.cpp:137] Memory required for data: 492728336
I0517 02:36:02.128686  6959 layer_factory.hpp:77] Creating layer res4b35_relu
I0517 02:36:02.128690  6959 net.cpp:84] Creating Layer res4b35_relu
I0517 02:36:02.128700  6959 net.cpp:406] res4b35_relu <- res4b35
I0517 02:36:02.128702  6959 net.cpp:367] res4b35_relu -> res4b35 (in-place)
I0517 02:36:02.129163  6959 net.cpp:122] Setting up res4b35_relu
I0517 02:36:02.129170  6959 net.cpp:129] Top shape: 1 1024 14 14 (200704)
I0517 02:36:02.129173  6959 net.cpp:137] Memory required for data: 493531152
I0517 02:36:02.129174  6959 layer_factory.hpp:77] Creating layer res4b35_res4b35_relu_0_split
I0517 02:36:02.129179  6959 net.cpp:84] Creating Layer res4b35_res4b35_relu_0_split
I0517 02:36:02.129181  6959 net.cpp:406] res4b35_res4b35_relu_0_split <- res4b35
I0517 02:36:02.129185  6959 net.cpp:380] res4b35_res4b35_relu_0_split -> res4b35_res4b35_relu_0_split_0
I0517 02:36:02.129189  6959 net.cpp:380] res4b35_res4b35_relu_0_split -> res4b35_res4b35_relu_0_split_1
I0517 02:36:02.129227  6959 net.cpp:122] Setting up res4b35_res4b35_relu_0_split
I0517 02:36:02.129231  6959 net.cpp:129] Top shape: 1 1024 14 14 (200704)
I0517 02:36:02.129235  6959 net.cpp:129] Top shape: 1 1024 14 14 (200704)
I0517 02:36:02.129238  6959 net.cpp:137] Memory required for data: 495136784
I0517 02:36:02.129240  6959 layer_factory.hpp:77] Creating layer res5a_branch1
I0517 02:36:02.129248  6959 net.cpp:84] Creating Layer res5a_branch1
I0517 02:36:02.129251  6959 net.cpp:406] res5a_branch1 <- res4b35_res4b35_relu_0_split_0
I0517 02:36:02.129256  6959 net.cpp:380] res5a_branch1 -> res5a_branch1
I0517 02:36:02.149134  6959 net.cpp:122] Setting up res5a_branch1
I0517 02:36:02.149148  6959 net.cpp:129] Top shape: 1 2048 7 7 (100352)
I0517 02:36:02.149152  6959 net.cpp:137] Memory required for data: 495538192
I0517 02:36:02.149157  6959 layer_factory.hpp:77] Creating layer bn5a_branch1
I0517 02:36:02.149163  6959 net.cpp:84] Creating Layer bn5a_branch1
I0517 02:36:02.149166  6959 net.cpp:406] bn5a_branch1 <- res5a_branch1
I0517 02:36:02.149170  6959 net.cpp:367] bn5a_branch1 -> res5a_branch1 (in-place)
I0517 02:36:02.149451  6959 net.cpp:122] Setting up bn5a_branch1
I0517 02:36:02.149457  6959 net.cpp:129] Top shape: 1 2048 7 7 (100352)
I0517 02:36:02.149459  6959 net.cpp:137] Memory required for data: 495939600
I0517 02:36:02.149464  6959 layer_factory.hpp:77] Creating layer scale5a_branch1
I0517 02:36:02.149467  6959 net.cpp:84] Creating Layer scale5a_branch1
I0517 02:36:02.149471  6959 net.cpp:406] scale5a_branch1 <- res5a_branch1
I0517 02:36:02.149473  6959 net.cpp:367] scale5a_branch1 -> res5a_branch1 (in-place)
I0517 02:36:02.149536  6959 layer_factory.hpp:77] Creating layer scale5a_branch1
I0517 02:36:02.149684  6959 net.cpp:122] Setting up scale5a_branch1
I0517 02:36:02.149690  6959 net.cpp:129] Top shape: 1 2048 7 7 (100352)
I0517 02:36:02.149693  6959 net.cpp:137] Memory required for data: 496341008
I0517 02:36:02.149695  6959 layer_factory.hpp:77] Creating layer res5a_branch2a
I0517 02:36:02.149701  6959 net.cpp:84] Creating Layer res5a_branch2a
I0517 02:36:02.149704  6959 net.cpp:406] res5a_branch2a <- res4b35_res4b35_relu_0_split_1
I0517 02:36:02.149708  6959 net.cpp:380] res5a_branch2a -> res5a_branch2a
I0517 02:36:02.157124  6959 net.cpp:122] Setting up res5a_branch2a
I0517 02:36:02.157137  6959 net.cpp:129] Top shape: 1 512 7 7 (25088)
I0517 02:36:02.157140  6959 net.cpp:137] Memory required for data: 496441360
I0517 02:36:02.157145  6959 layer_factory.hpp:77] Creating layer bn5a_branch2a
I0517 02:36:02.157150  6959 net.cpp:84] Creating Layer bn5a_branch2a
I0517 02:36:02.157153  6959 net.cpp:406] bn5a_branch2a <- res5a_branch2a
I0517 02:36:02.157158  6959 net.cpp:367] bn5a_branch2a -> res5a_branch2a (in-place)
I0517 02:36:02.157414  6959 net.cpp:122] Setting up bn5a_branch2a
I0517 02:36:02.157419  6959 net.cpp:129] Top shape: 1 512 7 7 (25088)
I0517 02:36:02.157421  6959 net.cpp:137] Memory required for data: 496541712
I0517 02:36:02.157426  6959 layer_factory.hpp:77] Creating layer scale5a_branch2a
I0517 02:36:02.157429  6959 net.cpp:84] Creating Layer scale5a_branch2a
I0517 02:36:02.157433  6959 net.cpp:406] scale5a_branch2a <- res5a_branch2a
I0517 02:36:02.157444  6959 net.cpp:367] scale5a_branch2a -> res5a_branch2a (in-place)
I0517 02:36:02.157501  6959 layer_factory.hpp:77] Creating layer scale5a_branch2a
I0517 02:36:02.157645  6959 net.cpp:122] Setting up scale5a_branch2a
I0517 02:36:02.157650  6959 net.cpp:129] Top shape: 1 512 7 7 (25088)
I0517 02:36:02.157654  6959 net.cpp:137] Memory required for data: 496642064
I0517 02:36:02.157656  6959 layer_factory.hpp:77] Creating layer res5a_branch2a_relu
I0517 02:36:02.157661  6959 net.cpp:84] Creating Layer res5a_branch2a_relu
I0517 02:36:02.157663  6959 net.cpp:406] res5a_branch2a_relu <- res5a_branch2a
I0517 02:36:02.157666  6959 net.cpp:367] res5a_branch2a_relu -> res5a_branch2a (in-place)
I0517 02:36:02.158133  6959 net.cpp:122] Setting up res5a_branch2a_relu
I0517 02:36:02.158139  6959 net.cpp:129] Top shape: 1 512 7 7 (25088)
I0517 02:36:02.158141  6959 net.cpp:137] Memory required for data: 496742416
I0517 02:36:02.158143  6959 layer_factory.hpp:77] Creating layer res5a_branch2b
I0517 02:36:02.158149  6959 net.cpp:84] Creating Layer res5a_branch2b
I0517 02:36:02.158152  6959 net.cpp:406] res5a_branch2b <- res5a_branch2a
I0517 02:36:02.158156  6959 net.cpp:380] res5a_branch2b -> res5a_branch2b
I0517 02:36:02.179782  6959 net.cpp:122] Setting up res5a_branch2b
I0517 02:36:02.179798  6959 net.cpp:129] Top shape: 1 512 7 7 (25088)
I0517 02:36:02.179801  6959 net.cpp:137] Memory required for data: 496842768
I0517 02:36:02.179806  6959 layer_factory.hpp:77] Creating layer bn5a_branch2b
I0517 02:36:02.179812  6959 net.cpp:84] Creating Layer bn5a_branch2b
I0517 02:36:02.179816  6959 net.cpp:406] bn5a_branch2b <- res5a_branch2b
I0517 02:36:02.179821  6959 net.cpp:367] bn5a_branch2b -> res5a_branch2b (in-place)
I0517 02:36:02.180100  6959 net.cpp:122] Setting up bn5a_branch2b
I0517 02:36:02.180106  6959 net.cpp:129] Top shape: 1 512 7 7 (25088)
I0517 02:36:02.180109  6959 net.cpp:137] Memory required for data: 496943120
I0517 02:36:02.180112  6959 layer_factory.hpp:77] Creating layer scale5a_branch2b
I0517 02:36:02.180116  6959 net.cpp:84] Creating Layer scale5a_branch2b
I0517 02:36:02.180119  6959 net.cpp:406] scale5a_branch2b <- res5a_branch2b
I0517 02:36:02.180124  6959 net.cpp:367] scale5a_branch2b -> res5a_branch2b (in-place)
I0517 02:36:02.180184  6959 layer_factory.hpp:77] Creating layer scale5a_branch2b
I0517 02:36:02.180333  6959 net.cpp:122] Setting up scale5a_branch2b
I0517 02:36:02.180339  6959 net.cpp:129] Top shape: 1 512 7 7 (25088)
I0517 02:36:02.180341  6959 net.cpp:137] Memory required for data: 497043472
I0517 02:36:02.180344  6959 layer_factory.hpp:77] Creating layer res5a_branch2b_relu
I0517 02:36:02.180347  6959 net.cpp:84] Creating Layer res5a_branch2b_relu
I0517 02:36:02.180351  6959 net.cpp:406] res5a_branch2b_relu <- res5a_branch2b
I0517 02:36:02.180353  6959 net.cpp:367] res5a_branch2b_relu -> res5a_branch2b (in-place)
I0517 02:36:02.180819  6959 net.cpp:122] Setting up res5a_branch2b_relu
I0517 02:36:02.180824  6959 net.cpp:129] Top shape: 1 512 7 7 (25088)
I0517 02:36:02.180827  6959 net.cpp:137] Memory required for data: 497143824
I0517 02:36:02.180830  6959 layer_factory.hpp:77] Creating layer res5a_branch2c
I0517 02:36:02.180835  6959 net.cpp:84] Creating Layer res5a_branch2c
I0517 02:36:02.180837  6959 net.cpp:406] res5a_branch2c <- res5a_branch2b
I0517 02:36:02.180841  6959 net.cpp:380] res5a_branch2c -> res5a_branch2c
I0517 02:36:02.191864  6959 net.cpp:122] Setting up res5a_branch2c
I0517 02:36:02.191879  6959 net.cpp:129] Top shape: 1 2048 7 7 (100352)
I0517 02:36:02.191881  6959 net.cpp:137] Memory required for data: 497545232
I0517 02:36:02.191886  6959 layer_factory.hpp:77] Creating layer bn5a_branch2c
I0517 02:36:02.191892  6959 net.cpp:84] Creating Layer bn5a_branch2c
I0517 02:36:02.191896  6959 net.cpp:406] bn5a_branch2c <- res5a_branch2c
I0517 02:36:02.191900  6959 net.cpp:367] bn5a_branch2c -> res5a_branch2c (in-place)
I0517 02:36:02.192179  6959 net.cpp:122] Setting up bn5a_branch2c
I0517 02:36:02.192184  6959 net.cpp:129] Top shape: 1 2048 7 7 (100352)
I0517 02:36:02.192186  6959 net.cpp:137] Memory required for data: 497946640
I0517 02:36:02.192198  6959 layer_factory.hpp:77] Creating layer scale5a_branch2c
I0517 02:36:02.192203  6959 net.cpp:84] Creating Layer scale5a_branch2c
I0517 02:36:02.192205  6959 net.cpp:406] scale5a_branch2c <- res5a_branch2c
I0517 02:36:02.192209  6959 net.cpp:367] scale5a_branch2c -> res5a_branch2c (in-place)
I0517 02:36:02.192277  6959 layer_factory.hpp:77] Creating layer scale5a_branch2c
I0517 02:36:02.192422  6959 net.cpp:122] Setting up scale5a_branch2c
I0517 02:36:02.192428  6959 net.cpp:129] Top shape: 1 2048 7 7 (100352)
I0517 02:36:02.192430  6959 net.cpp:137] Memory required for data: 498348048
I0517 02:36:02.192433  6959 layer_factory.hpp:77] Creating layer res5a
I0517 02:36:02.192436  6959 net.cpp:84] Creating Layer res5a
I0517 02:36:02.192440  6959 net.cpp:406] res5a <- res5a_branch1
I0517 02:36:02.192443  6959 net.cpp:406] res5a <- res5a_branch2c
I0517 02:36:02.192446  6959 net.cpp:380] res5a -> res5a
I0517 02:36:02.192467  6959 net.cpp:122] Setting up res5a
I0517 02:36:02.192473  6959 net.cpp:129] Top shape: 1 2048 7 7 (100352)
I0517 02:36:02.192476  6959 net.cpp:137] Memory required for data: 498749456
I0517 02:36:02.192479  6959 layer_factory.hpp:77] Creating layer res5a_relu
I0517 02:36:02.192483  6959 net.cpp:84] Creating Layer res5a_relu
I0517 02:36:02.192488  6959 net.cpp:406] res5a_relu <- res5a
I0517 02:36:02.192492  6959 net.cpp:367] res5a_relu -> res5a (in-place)
I0517 02:36:02.192955  6959 net.cpp:122] Setting up res5a_relu
I0517 02:36:02.192961  6959 net.cpp:129] Top shape: 1 2048 7 7 (100352)
I0517 02:36:02.192963  6959 net.cpp:137] Memory required for data: 499150864
I0517 02:36:02.192965  6959 layer_factory.hpp:77] Creating layer res5a_res5a_relu_0_split
I0517 02:36:02.192970  6959 net.cpp:84] Creating Layer res5a_res5a_relu_0_split
I0517 02:36:02.192971  6959 net.cpp:406] res5a_res5a_relu_0_split <- res5a
I0517 02:36:02.192976  6959 net.cpp:380] res5a_res5a_relu_0_split -> res5a_res5a_relu_0_split_0
I0517 02:36:02.192981  6959 net.cpp:380] res5a_res5a_relu_0_split -> res5a_res5a_relu_0_split_1
I0517 02:36:02.193027  6959 net.cpp:122] Setting up res5a_res5a_relu_0_split
I0517 02:36:02.193032  6959 net.cpp:129] Top shape: 1 2048 7 7 (100352)
I0517 02:36:02.193034  6959 net.cpp:129] Top shape: 1 2048 7 7 (100352)
I0517 02:36:02.193037  6959 net.cpp:137] Memory required for data: 499953680
I0517 02:36:02.193038  6959 layer_factory.hpp:77] Creating layer res5b_branch2a
I0517 02:36:02.193043  6959 net.cpp:84] Creating Layer res5b_branch2a
I0517 02:36:02.193047  6959 net.cpp:406] res5b_branch2a <- res5a_res5a_relu_0_split_0
I0517 02:36:02.193049  6959 net.cpp:380] res5b_branch2a -> res5b_branch2a
I0517 02:36:02.203647  6959 net.cpp:122] Setting up res5b_branch2a
I0517 02:36:02.203662  6959 net.cpp:129] Top shape: 1 512 7 7 (25088)
I0517 02:36:02.203665  6959 net.cpp:137] Memory required for data: 500054032
I0517 02:36:02.203670  6959 layer_factory.hpp:77] Creating layer bn5b_branch2a
I0517 02:36:02.203677  6959 net.cpp:84] Creating Layer bn5b_branch2a
I0517 02:36:02.203681  6959 net.cpp:406] bn5b_branch2a <- res5b_branch2a
I0517 02:36:02.203685  6959 net.cpp:367] bn5b_branch2a -> res5b_branch2a (in-place)
I0517 02:36:02.203951  6959 net.cpp:122] Setting up bn5b_branch2a
I0517 02:36:02.203958  6959 net.cpp:129] Top shape: 1 512 7 7 (25088)
I0517 02:36:02.203959  6959 net.cpp:137] Memory required for data: 500154384
I0517 02:36:02.203964  6959 layer_factory.hpp:77] Creating layer scale5b_branch2a
I0517 02:36:02.203972  6959 net.cpp:84] Creating Layer scale5b_branch2a
I0517 02:36:02.203974  6959 net.cpp:406] scale5b_branch2a <- res5b_branch2a
I0517 02:36:02.203977  6959 net.cpp:367] scale5b_branch2a -> res5b_branch2a (in-place)
I0517 02:36:02.204036  6959 layer_factory.hpp:77] Creating layer scale5b_branch2a
I0517 02:36:02.204174  6959 net.cpp:122] Setting up scale5b_branch2a
I0517 02:36:02.204179  6959 net.cpp:129] Top shape: 1 512 7 7 (25088)
I0517 02:36:02.204180  6959 net.cpp:137] Memory required for data: 500254736
I0517 02:36:02.204183  6959 layer_factory.hpp:77] Creating layer res5b_branch2a_relu
I0517 02:36:02.204195  6959 net.cpp:84] Creating Layer res5b_branch2a_relu
I0517 02:36:02.204197  6959 net.cpp:406] res5b_branch2a_relu <- res5b_branch2a
I0517 02:36:02.204201  6959 net.cpp:367] res5b_branch2a_relu -> res5b_branch2a (in-place)
I0517 02:36:02.204903  6959 net.cpp:122] Setting up res5b_branch2a_relu
I0517 02:36:02.204911  6959 net.cpp:129] Top shape: 1 512 7 7 (25088)
I0517 02:36:02.204913  6959 net.cpp:137] Memory required for data: 500355088
I0517 02:36:02.204916  6959 layer_factory.hpp:77] Creating layer res5b_branch2b
I0517 02:36:02.204921  6959 net.cpp:84] Creating Layer res5b_branch2b
I0517 02:36:02.204924  6959 net.cpp:406] res5b_branch2b <- res5b_branch2a
I0517 02:36:02.204927  6959 net.cpp:380] res5b_branch2b -> res5b_branch2b
I0517 02:36:02.225829  6959 net.cpp:122] Setting up res5b_branch2b
I0517 02:36:02.225844  6959 net.cpp:129] Top shape: 1 512 7 7 (25088)
I0517 02:36:02.225847  6959 net.cpp:137] Memory required for data: 500455440
I0517 02:36:02.225852  6959 layer_factory.hpp:77] Creating layer bn5b_branch2b
I0517 02:36:02.225859  6959 net.cpp:84] Creating Layer bn5b_branch2b
I0517 02:36:02.225863  6959 net.cpp:406] bn5b_branch2b <- res5b_branch2b
I0517 02:36:02.225867  6959 net.cpp:367] bn5b_branch2b -> res5b_branch2b (in-place)
I0517 02:36:02.226142  6959 net.cpp:122] Setting up bn5b_branch2b
I0517 02:36:02.226146  6959 net.cpp:129] Top shape: 1 512 7 7 (25088)
I0517 02:36:02.226150  6959 net.cpp:137] Memory required for data: 500555792
I0517 02:36:02.226153  6959 layer_factory.hpp:77] Creating layer scale5b_branch2b
I0517 02:36:02.226157  6959 net.cpp:84] Creating Layer scale5b_branch2b
I0517 02:36:02.226160  6959 net.cpp:406] scale5b_branch2b <- res5b_branch2b
I0517 02:36:02.226162  6959 net.cpp:367] scale5b_branch2b -> res5b_branch2b (in-place)
I0517 02:36:02.226222  6959 layer_factory.hpp:77] Creating layer scale5b_branch2b
I0517 02:36:02.226357  6959 net.cpp:122] Setting up scale5b_branch2b
I0517 02:36:02.226362  6959 net.cpp:129] Top shape: 1 512 7 7 (25088)
I0517 02:36:02.226364  6959 net.cpp:137] Memory required for data: 500656144
I0517 02:36:02.226367  6959 layer_factory.hpp:77] Creating layer res5b_branch2b_relu
I0517 02:36:02.226372  6959 net.cpp:84] Creating Layer res5b_branch2b_relu
I0517 02:36:02.226373  6959 net.cpp:406] res5b_branch2b_relu <- res5b_branch2b
I0517 02:36:02.226377  6959 net.cpp:367] res5b_branch2b_relu -> res5b_branch2b (in-place)
I0517 02:36:02.226847  6959 net.cpp:122] Setting up res5b_branch2b_relu
I0517 02:36:02.226855  6959 net.cpp:129] Top shape: 1 512 7 7 (25088)
I0517 02:36:02.226856  6959 net.cpp:137] Memory required for data: 500756496
I0517 02:36:02.226858  6959 layer_factory.hpp:77] Creating layer res5b_branch2c
I0517 02:36:02.226863  6959 net.cpp:84] Creating Layer res5b_branch2c
I0517 02:36:02.226866  6959 net.cpp:406] res5b_branch2c <- res5b_branch2b
I0517 02:36:02.226871  6959 net.cpp:380] res5b_branch2c -> res5b_branch2c
I0517 02:36:02.237188  6959 net.cpp:122] Setting up res5b_branch2c
I0517 02:36:02.237202  6959 net.cpp:129] Top shape: 1 2048 7 7 (100352)
I0517 02:36:02.237205  6959 net.cpp:137] Memory required for data: 501157904
I0517 02:36:02.237210  6959 layer_factory.hpp:77] Creating layer bn5b_branch2c
I0517 02:36:02.237216  6959 net.cpp:84] Creating Layer bn5b_branch2c
I0517 02:36:02.237221  6959 net.cpp:406] bn5b_branch2c <- res5b_branch2c
I0517 02:36:02.237224  6959 net.cpp:367] bn5b_branch2c -> res5b_branch2c (in-place)
I0517 02:36:02.237498  6959 net.cpp:122] Setting up bn5b_branch2c
I0517 02:36:02.237504  6959 net.cpp:129] Top shape: 1 2048 7 7 (100352)
I0517 02:36:02.237506  6959 net.cpp:137] Memory required for data: 501559312
I0517 02:36:02.237512  6959 layer_factory.hpp:77] Creating layer scale5b_branch2c
I0517 02:36:02.237519  6959 net.cpp:84] Creating Layer scale5b_branch2c
I0517 02:36:02.237522  6959 net.cpp:406] scale5b_branch2c <- res5b_branch2c
I0517 02:36:02.237527  6959 net.cpp:367] scale5b_branch2c -> res5b_branch2c (in-place)
I0517 02:36:02.237592  6959 layer_factory.hpp:77] Creating layer scale5b_branch2c
I0517 02:36:02.237745  6959 net.cpp:122] Setting up scale5b_branch2c
I0517 02:36:02.237749  6959 net.cpp:129] Top shape: 1 2048 7 7 (100352)
I0517 02:36:02.237751  6959 net.cpp:137] Memory required for data: 501960720
I0517 02:36:02.237756  6959 layer_factory.hpp:77] Creating layer res5b
I0517 02:36:02.237761  6959 net.cpp:84] Creating Layer res5b
I0517 02:36:02.237764  6959 net.cpp:406] res5b <- res5a_res5a_relu_0_split_1
I0517 02:36:02.237769  6959 net.cpp:406] res5b <- res5b_branch2c
I0517 02:36:02.237773  6959 net.cpp:380] res5b -> res5b
I0517 02:36:02.237797  6959 net.cpp:122] Setting up res5b
I0517 02:36:02.237800  6959 net.cpp:129] Top shape: 1 2048 7 7 (100352)
I0517 02:36:02.237802  6959 net.cpp:137] Memory required for data: 502362128
I0517 02:36:02.237804  6959 layer_factory.hpp:77] Creating layer res5b_relu
I0517 02:36:02.237808  6959 net.cpp:84] Creating Layer res5b_relu
I0517 02:36:02.237812  6959 net.cpp:406] res5b_relu <- res5b
I0517 02:36:02.237814  6959 net.cpp:367] res5b_relu -> res5b (in-place)
I0517 02:36:02.238495  6959 net.cpp:122] Setting up res5b_relu
I0517 02:36:02.238503  6959 net.cpp:129] Top shape: 1 2048 7 7 (100352)
I0517 02:36:02.238505  6959 net.cpp:137] Memory required for data: 502763536
I0517 02:36:02.238508  6959 layer_factory.hpp:77] Creating layer res5b_res5b_relu_0_split
I0517 02:36:02.238515  6959 net.cpp:84] Creating Layer res5b_res5b_relu_0_split
I0517 02:36:02.238518  6959 net.cpp:406] res5b_res5b_relu_0_split <- res5b
I0517 02:36:02.238523  6959 net.cpp:380] res5b_res5b_relu_0_split -> res5b_res5b_relu_0_split_0
I0517 02:36:02.238526  6959 net.cpp:380] res5b_res5b_relu_0_split -> res5b_res5b_relu_0_split_1
I0517 02:36:02.238567  6959 net.cpp:122] Setting up res5b_res5b_relu_0_split
I0517 02:36:02.238571  6959 net.cpp:129] Top shape: 1 2048 7 7 (100352)
I0517 02:36:02.238574  6959 net.cpp:129] Top shape: 1 2048 7 7 (100352)
I0517 02:36:02.238576  6959 net.cpp:137] Memory required for data: 503566352
I0517 02:36:02.238577  6959 layer_factory.hpp:77] Creating layer res5c_branch2a
I0517 02:36:02.238584  6959 net.cpp:84] Creating Layer res5c_branch2a
I0517 02:36:02.238586  6959 net.cpp:406] res5c_branch2a <- res5b_res5b_relu_0_split_0
I0517 02:36:02.238590  6959 net.cpp:380] res5c_branch2a -> res5c_branch2a
I0517 02:36:02.248582  6959 net.cpp:122] Setting up res5c_branch2a
I0517 02:36:02.248597  6959 net.cpp:129] Top shape: 1 512 7 7 (25088)
I0517 02:36:02.248600  6959 net.cpp:137] Memory required for data: 503666704
I0517 02:36:02.248605  6959 layer_factory.hpp:77] Creating layer bn5c_branch2a
I0517 02:36:02.248610  6959 net.cpp:84] Creating Layer bn5c_branch2a
I0517 02:36:02.248615  6959 net.cpp:406] bn5c_branch2a <- res5c_branch2a
I0517 02:36:02.248618  6959 net.cpp:367] bn5c_branch2a -> res5c_branch2a (in-place)
I0517 02:36:02.248888  6959 net.cpp:122] Setting up bn5c_branch2a
I0517 02:36:02.248893  6959 net.cpp:129] Top shape: 1 512 7 7 (25088)
I0517 02:36:02.248894  6959 net.cpp:137] Memory required for data: 503767056
I0517 02:36:02.248898  6959 layer_factory.hpp:77] Creating layer scale5c_branch2a
I0517 02:36:02.248903  6959 net.cpp:84] Creating Layer scale5c_branch2a
I0517 02:36:02.248905  6959 net.cpp:406] scale5c_branch2a <- res5c_branch2a
I0517 02:36:02.248909  6959 net.cpp:367] scale5c_branch2a -> res5c_branch2a (in-place)
I0517 02:36:02.248973  6959 layer_factory.hpp:77] Creating layer scale5c_branch2a
I0517 02:36:02.249115  6959 net.cpp:122] Setting up scale5c_branch2a
I0517 02:36:02.249120  6959 net.cpp:129] Top shape: 1 512 7 7 (25088)
I0517 02:36:02.249122  6959 net.cpp:137] Memory required for data: 503867408
I0517 02:36:02.249127  6959 layer_factory.hpp:77] Creating layer res5c_branch2a_relu
I0517 02:36:02.249132  6959 net.cpp:84] Creating Layer res5c_branch2a_relu
I0517 02:36:02.249137  6959 net.cpp:406] res5c_branch2a_relu <- res5c_branch2a
I0517 02:36:02.249140  6959 net.cpp:367] res5c_branch2a_relu -> res5c_branch2a (in-place)
I0517 02:36:02.249601  6959 net.cpp:122] Setting up res5c_branch2a_relu
I0517 02:36:02.249615  6959 net.cpp:129] Top shape: 1 512 7 7 (25088)
I0517 02:36:02.249617  6959 net.cpp:137] Memory required for data: 503967760
I0517 02:36:02.249620  6959 layer_factory.hpp:77] Creating layer res5c_branch2b
I0517 02:36:02.249625  6959 net.cpp:84] Creating Layer res5c_branch2b
I0517 02:36:02.249629  6959 net.cpp:406] res5c_branch2b <- res5c_branch2a
I0517 02:36:02.249632  6959 net.cpp:380] res5c_branch2b -> res5c_branch2b
I0517 02:36:02.273025  6959 net.cpp:122] Setting up res5c_branch2b
I0517 02:36:02.273041  6959 net.cpp:129] Top shape: 1 512 7 7 (25088)
I0517 02:36:02.273044  6959 net.cpp:137] Memory required for data: 504068112
I0517 02:36:02.273049  6959 layer_factory.hpp:77] Creating layer bn5c_branch2b
I0517 02:36:02.273056  6959 net.cpp:84] Creating Layer bn5c_branch2b
I0517 02:36:02.273059  6959 net.cpp:406] bn5c_branch2b <- res5c_branch2b
I0517 02:36:02.273064  6959 net.cpp:367] bn5c_branch2b -> res5c_branch2b (in-place)
I0517 02:36:02.273349  6959 net.cpp:122] Setting up bn5c_branch2b
I0517 02:36:02.273353  6959 net.cpp:129] Top shape: 1 512 7 7 (25088)
I0517 02:36:02.273355  6959 net.cpp:137] Memory required for data: 504168464
I0517 02:36:02.273360  6959 layer_factory.hpp:77] Creating layer scale5c_branch2b
I0517 02:36:02.273365  6959 net.cpp:84] Creating Layer scale5c_branch2b
I0517 02:36:02.273366  6959 net.cpp:406] scale5c_branch2b <- res5c_branch2b
I0517 02:36:02.273370  6959 net.cpp:367] scale5c_branch2b -> res5c_branch2b (in-place)
I0517 02:36:02.273429  6959 layer_factory.hpp:77] Creating layer scale5c_branch2b
I0517 02:36:02.273571  6959 net.cpp:122] Setting up scale5c_branch2b
I0517 02:36:02.273576  6959 net.cpp:129] Top shape: 1 512 7 7 (25088)
I0517 02:36:02.273577  6959 net.cpp:137] Memory required for data: 504268816
I0517 02:36:02.273581  6959 layer_factory.hpp:77] Creating layer res5c_branch2b_relu
I0517 02:36:02.273586  6959 net.cpp:84] Creating Layer res5c_branch2b_relu
I0517 02:36:02.273588  6959 net.cpp:406] res5c_branch2b_relu <- res5c_branch2b
I0517 02:36:02.273591  6959 net.cpp:367] res5c_branch2b_relu -> res5c_branch2b (in-place)
I0517 02:36:02.274080  6959 net.cpp:122] Setting up res5c_branch2b_relu
I0517 02:36:02.274085  6959 net.cpp:129] Top shape: 1 512 7 7 (25088)
I0517 02:36:02.274087  6959 net.cpp:137] Memory required for data: 504369168
I0517 02:36:02.274091  6959 layer_factory.hpp:77] Creating layer res5c_branch2c
I0517 02:36:02.274096  6959 net.cpp:84] Creating Layer res5c_branch2c
I0517 02:36:02.274098  6959 net.cpp:406] res5c_branch2c <- res5c_branch2b
I0517 02:36:02.274102  6959 net.cpp:380] res5c_branch2c -> res5c_branch2c
I0517 02:36:02.287066  6959 net.cpp:122] Setting up res5c_branch2c
I0517 02:36:02.287081  6959 net.cpp:129] Top shape: 1 2048 7 7 (100352)
I0517 02:36:02.287083  6959 net.cpp:137] Memory required for data: 504770576
I0517 02:36:02.287088  6959 layer_factory.hpp:77] Creating layer bn5c_branch2c
I0517 02:36:02.287096  6959 net.cpp:84] Creating Layer bn5c_branch2c
I0517 02:36:02.287099  6959 net.cpp:406] bn5c_branch2c <- res5c_branch2c
I0517 02:36:02.287103  6959 net.cpp:367] bn5c_branch2c -> res5c_branch2c (in-place)
I0517 02:36:02.287375  6959 net.cpp:122] Setting up bn5c_branch2c
I0517 02:36:02.287381  6959 net.cpp:129] Top shape: 1 2048 7 7 (100352)
I0517 02:36:02.287384  6959 net.cpp:137] Memory required for data: 505171984
I0517 02:36:02.287387  6959 layer_factory.hpp:77] Creating layer scale5c_branch2c
I0517 02:36:02.287392  6959 net.cpp:84] Creating Layer scale5c_branch2c
I0517 02:36:02.287395  6959 net.cpp:406] scale5c_branch2c <- res5c_branch2c
I0517 02:36:02.287398  6959 net.cpp:367] scale5c_branch2c -> res5c_branch2c (in-place)
I0517 02:36:02.287458  6959 layer_factory.hpp:77] Creating layer scale5c_branch2c
I0517 02:36:02.287600  6959 net.cpp:122] Setting up scale5c_branch2c
I0517 02:36:02.287605  6959 net.cpp:129] Top shape: 1 2048 7 7 (100352)
I0517 02:36:02.287606  6959 net.cpp:137] Memory required for data: 505573392
I0517 02:36:02.287609  6959 layer_factory.hpp:77] Creating layer res5c
I0517 02:36:02.287612  6959 net.cpp:84] Creating Layer res5c
I0517 02:36:02.287623  6959 net.cpp:406] res5c <- res5b_res5b_relu_0_split_1
I0517 02:36:02.287627  6959 net.cpp:406] res5c <- res5c_branch2c
I0517 02:36:02.287631  6959 net.cpp:380] res5c -> res5c
I0517 02:36:02.287652  6959 net.cpp:122] Setting up res5c
I0517 02:36:02.287657  6959 net.cpp:129] Top shape: 1 2048 7 7 (100352)
I0517 02:36:02.287659  6959 net.cpp:137] Memory required for data: 505974800
I0517 02:36:02.287662  6959 layer_factory.hpp:77] Creating layer res5c_relu
I0517 02:36:02.287664  6959 net.cpp:84] Creating Layer res5c_relu
I0517 02:36:02.287667  6959 net.cpp:406] res5c_relu <- res5c
I0517 02:36:02.287669  6959 net.cpp:367] res5c_relu -> res5c (in-place)
I0517 02:36:02.288336  6959 net.cpp:122] Setting up res5c_relu
I0517 02:36:02.288343  6959 net.cpp:129] Top shape: 1 2048 7 7 (100352)
I0517 02:36:02.288345  6959 net.cpp:137] Memory required for data: 506376208
I0517 02:36:02.288347  6959 layer_factory.hpp:77] Creating layer pool5
I0517 02:36:02.288353  6959 net.cpp:84] Creating Layer pool5
I0517 02:36:02.288357  6959 net.cpp:406] pool5 <- res5c
I0517 02:36:02.288362  6959 net.cpp:380] pool5 -> pool5
I0517 02:36:02.288839  6959 net.cpp:122] Setting up pool5
I0517 02:36:02.288846  6959 net.cpp:129] Top shape: 1 2048 1 1 (2048)
I0517 02:36:02.288848  6959 net.cpp:137] Memory required for data: 506384400
I0517 02:36:02.288851  6959 layer_factory.hpp:77] Creating layer fc1000-skin
I0517 02:36:02.288857  6959 net.cpp:84] Creating Layer fc1000-skin
I0517 02:36:02.288861  6959 net.cpp:406] fc1000-skin <- pool5
I0517 02:36:02.288867  6959 net.cpp:380] fc1000-skin -> fc1000-skin
I0517 02:36:02.289093  6959 net.cpp:122] Setting up fc1000-skin
I0517 02:36:02.289098  6959 net.cpp:129] Top shape: 1 12 (12)
I0517 02:36:02.289101  6959 net.cpp:137] Memory required for data: 506384448
I0517 02:36:02.289106  6959 layer_factory.hpp:77] Creating layer fc1000-skin_fc1000-skin_0_split
I0517 02:36:02.289114  6959 net.cpp:84] Creating Layer fc1000-skin_fc1000-skin_0_split
I0517 02:36:02.289119  6959 net.cpp:406] fc1000-skin_fc1000-skin_0_split <- fc1000-skin
I0517 02:36:02.289122  6959 net.cpp:380] fc1000-skin_fc1000-skin_0_split -> fc1000-skin_fc1000-skin_0_split_0
I0517 02:36:02.289129  6959 net.cpp:380] fc1000-skin_fc1000-skin_0_split -> fc1000-skin_fc1000-skin_0_split_1
I0517 02:36:02.289134  6959 net.cpp:380] fc1000-skin_fc1000-skin_0_split -> fc1000-skin_fc1000-skin_0_split_2
I0517 02:36:02.289185  6959 net.cpp:122] Setting up fc1000-skin_fc1000-skin_0_split
I0517 02:36:02.289188  6959 net.cpp:129] Top shape: 1 12 (12)
I0517 02:36:02.289191  6959 net.cpp:129] Top shape: 1 12 (12)
I0517 02:36:02.289194  6959 net.cpp:129] Top shape: 1 12 (12)
I0517 02:36:02.289197  6959 net.cpp:137] Memory required for data: 506384592
I0517 02:36:02.289201  6959 layer_factory.hpp:77] Creating layer loss
I0517 02:36:02.289206  6959 net.cpp:84] Creating Layer loss
I0517 02:36:02.289209  6959 net.cpp:406] loss <- fc1000-skin_fc1000-skin_0_split_0
I0517 02:36:02.289213  6959 net.cpp:406] loss <- label_data_1_split_0
I0517 02:36:02.289217  6959 net.cpp:380] loss -> loss
…
